checkpoints/simple_world_comm_v3_scratch/simple_world_comm_v3_adversary_0_ep1200.pt (torch, 437325 bytes, 8 tensors)

body.0.weight f4 [256, 34]
0	0x3d6d0da8	0.05787435
1	0xbdc76714	-0.097364575
2	0x3de1b7ba	0.11021371
3	0x3e254fdb	0.16143744
4	0x3c95ba2b	0.018277248
5	0x3c8bfbc4	0.017087825
6	0x3dd42d74	0.10360232
7	0x3c522e6c	0.012828451
8	0xbdae3d40	-0.08507776
9	0xbe184246	-0.14869031
10	0xbdf46280	-0.1193285
11	0x3d651b4f	0.055934247
12	0x3df7d03f	0.12100267
13	0x3d989f86	0.07452302
14	0xbe1114fa	-0.14168158
15	0xbe2f63d5	-0.17127927
16	0xbe23b9dc	-0.15988868
17	0x3e18c1cd	0.14917679
18	0x3d6906e1	0.056891326
19	0xbe438809	-0.19094862
20	0xbd322794	-0.043494776
21	0xbdf6d707	-0.12052732
22	0x3db4a91b	0.08821317
23	0xbd0f45d3	-0.0349787
24	0x3d44859b	0.04797898
25	0x3d6f8f9f	0.058486577
26	0x3c4e1e58	0.012580477
27	0x3e14fe06	0.14550027
28	0xbda8d2b1	-0.08243311
29	0xbd602b50	-0.054728806
30	0x3cabb0a6	0.020958256
31	0x3e1fe412	0.15614346
32	0x3db6f087	0.08932596
33	0x3c329c75	0.01090156
34	0x3ddd0d88	0.107935965
35	0xbe176c3e	-0.14787385
36	0x3c4ab684	0.012372617
37	0x3d39e5e7	0.045385268
38	0x3c291043	0.0103188185
39	0xbe1d8e63	-0.15386347
40	0xbddf145d	-0.10892556
41	0x3de71cb8	0.112847745
42	0x3c9f39b7	0.0194367
43	0x3e2199d9	0.15781344
44	0x3cdec6fc	0.027194493
45	0x3d53ec2e	0.05173891
46	0xbe2573c3	-0.16157441
47	0x3d4b7356	0.04967054
48	0xbda576a7	-0.08079272
49	0x3d3a6951	0.045510594
50	0xbb83a3f4	-0.0040173475
51	0xbc33841e	-0.010956792
52	0x3df6f111	0.120576985
53	0x3dbee23d	0.09320495
54	0xbe0969d5	-0.13419278
55	0xbe10c750	-0.14138532
56	0x3dafa098	0.08575553
57	0xbdc0251c	-0.09382078
58	0x3e03f290	0.12885499
59	0xbdade95d	-0.08491776
60	0xbe0e1925	-0.1387678
61	0xbcca23fa	-0.024675358
62	0xbd4b36a4	-0.049612656
63	0xbe1b8560	-0.15187597
64	0xbe397b5f	-0.18113469
65	0x3d583a3a	0.052789904
66	0xbdad8366	-0.08472328
67	0x3dd67617	0.104717426
68	0xbd2a0d36	-0.041516505
69	0xbdc960fe	-0.09832953
70	0xbdf1a85b	-0.117996894
71	0xbdec27c4	-0.11531022
72	0x3d673006	0.056442283
73	0xbe1e5b69	-0.15464558
74	0xbdf63fdc	-0.12023899
75	0xbe04992a	-0.12949052
76	0xbd8f47d0	-0.06996119
77	0x3e087033	0.1332405
78	0xbdc7592f	-0.09733807
79	0x3dfef1fd	0.12448499
80	0xbdb11737	-0.08647006
81	0xbe066342	-0.13123801
82	0xbdeb0925	-0.114763536
83	0xbe0f6354	-0.14002734
84	0x3da1a5ef	0.078929774
85	0xbd05a394	-0.032626703
86	0x3da4e8fd	0.080522515
87	0x3cf1fba5	0.029538939
88	0xbe3d5fa0	-0.1849351
89	0x3c3e9b20	0.011633664
90	0xbe255b6b	-0.16148154
91	0x3de8eb04	0.11372951
92	0xbd3be035	-0.045868117
93	0x3e0ea387	0.13929568
94	0x3e013bfd	0.1262054
95	0xbe32c754	-0.1745885
96	0x3d847815	0.06468216
97	0xbc1e4763	-0.009660575
98	0xbe08aef8	-0.13347995
99	0x3debabe5	0.11507396
100	0x3d8302f7	0.0639705
101	0xbc22dcb3	-0.009940314
102	0xbde7837b	-0.11304375
103	0x3cc73bcb	0.024320504
104	0xbd3cc64f	-0.04608756
105	0x3e04d28f	0.12970947
106	0x3d6cc24f	0.057802495
107	0xbdea5cc8	-0.11443478
108	0xbda5a0c8	-0.08087307
109	0xbc984f32	-0.01859245
110	0x3d63ef4f	0.055648144
111	0x3df38a6c	0.11891636
112	0x3cd5cbd6	0.026098173
113	0xbe288267	-0.16455995
114	0xbc880dea	-0.016608197
115	0xbe154d81	-0.14580347
116	0x3db9ca36	0.09071772
117	0xbe0c9ae4	-0.13730961
118	0x3db7e22b	0.08978685
119	0x3dbe80c9	0.093019076
120	0xbd0c1da2	-0.034207948
121	0xbe15e417	-0.1463779
122	0xbe3602aa	-0.17774454
123	0xbdaa89ab	-0.08327039
124	0xbe27f9d4	-0.16403896
125	0xbe0b5297	-0.13605724
126	0xbe0af6ac	-0.1357066
127	0x3e068ee1	0.13140441
128	0xbdea539a	-0.11441727
129	0xbc377d4a	-0.011199305
130	0x3e0346fd	0.12820049
131	0xbcd872f3	-0.026422
132	0xbd1cb9d2	-0.03826315
133	0x3cd324d3	0.025774395
134	0xbd9234c9	-0.07138974
135	0xbdfc27a0	-0.12312245
136	0x3e060ca0	0.13090754
137	0x3d47571a	0.04866705
138	0x3ddf2548	0.10895783
139	0x3d12eb07	0.03586867
140	0xbe3ef8c2	-0.18649581
141	0x3d1019e5	0.035180945
142	0xbde1b45a	-0.110207275
143	0x3c981990	0.018566877
144	0x3c5f130a	0.013615379
145	0xbe1ffdfa	-0.15624228
146	0xbe1a36cb	-0.15059964
147	0xbd3ba4cf	-0.04581147
148	0xbdb62647	-0.088940196
149	0x3db710a0	0.08938718
150	0xbd7d0d54	-0.06178029
151	0x3c7d18ac	0.015447777
152	0xbdbd1a90	-0.09233582
153	0xbd781334	-0.06056519
154	0x3db83cf3	0.08996
155	0xbbdde820	-0.006772056
156	0x3cda7c73	0.02667067
157	0xbc647e07	-0.013946063
158	0x3df91393	0.121619366
159	0xbe332c9b	-0.17497484
160	0xbd62a3b3	-0.055331897
161	0xbd823273	-0.06357279
162	0xbdf492f2	-0.1194209
163	0xbcf7e94a	-0.030262608
164	0x3dcb344f	0.099220864
165	0x3e114daa	0.14189783
166	0x3d8072e0	0.06271911
167	0x3c224b85	0.009905701
168	0x3d221fd3	0.03958113
169	0x3dabf724	0.08396748
170	0x3dcfba78	0.10142988
171	0x3d996ba0	0.07491231
172	0x3d3542d5	0.04425319
173	0xbe0165de	-0.12636515
174	0x3caca2e1	0.02107376
175	0x3e35d6f8	0.17757785
176	0xbcd22b87	-0.025655521
177	0xbde0dbfb	-0.10979458
178	0x3c05ee31	0.008174465
179	0xbd10da84	-0.035364643
180	0xbca40f34	-0.02002678
181	0xbe20f888	-0.15719807
182	0x3dfa405d	0.122193076
183	0x3e1c6e56	0.15276465
184	0x3c6baeda	0.01438495
185	0xbc2d77b5	-0.010587622
186	0x3e265f59	0.1624731
187	0x3d8ea090	0.069642186
188	0x3e08dc54	0.13365299
189	0x3e10b384	0.1413098
190	0x3e03c33e	0.12867448
191	0x3dc7b198	0.0975067
192	0x3db782b3	0.08960476
193	0xbe052694	-0.13002998
194	0x3c209213	0.009800452
195	0xbe203fa9	-0.15649284
196	0x3db78cc5	0.089623965
197	0x3dc45113	0.09585776
198	0x3c33d94f	0.010977103
199	0xbe29adae	-0.1657016
200	0xbdc2f8ff	-0.095201485
201	0xbcdc477d	-0.026889557
202	0xbdf30f14	-0.1186811
203	0x3cebf19f	0.028801737
204	0x3e1a2b93	0.15055685
205	0x3df86382	0.121283546
206	0x3e22e8d1	0.15909125
207	0xbbd851d9	-0.006601554
208	0x3d2c0801	0.04199982
209	0xbd2effeb	-0.04272453
210	0xbe2fd44a	-0.17170826
211	0x3e03e6bd	0.12880988
212	0xbe1fac1a	-0.15592995
213	0x3e06c1f4	0.13159925
214	0x3cb4248b	0.021990081
215	0xbe267dc2	-0.1625891
216	0x3d66f3d9	0.056384895
217	0xbde306de	-0.11085294
218	0xbd60c765	-0.054877657
219	0x3e04c3d1	0.12965323
220	0x3deadcb4	0.11467877
221	0xbcb3f24b	-0.02196612
222	0x3dfce922	0.12349154
223	0xbda8e9b0	-0.08247697
224	0xbbcc1330	-0.0062278733
225	0x3dfc5fe9	0.12322981
226	0xbce948ea	-0.028477151
227	0x3d92c602	0.07166673
228	0xbdbcfebf	-0.092282765
229	0xbdb4d73d	-0.08830116
230	0xbc51278c	-0.012765776
231	0x3d7c2a42	0.061563738
232	0x3c31231d	0.010811594
233	0x3dd85557	0.10563152
234	0x3d53c299	0.051699255
235	0x3de12a9d	0.10994456
236	0xbe217a33	-0.15769272
237	0xbda462e7	-0.080266766
238	0x3e14363a	0.14473811
239	0xbdea863f	-0.11451387
240	0xbdbb4828	-0.09144622
241	0x3df677be	0.12034558
242	0x3e114f9e	0.14190528
243	0xbe1b3c9a	-0.15159836
244	0xbe03d955	-0.12875874
245	0xbdd75eee	-0.10516153
246	0x3d3bceb8	0.04585144
247	0xbe0d7d3d	-0.13817306
248	0xbe21b1a0	-0.15790415
249	0x3cb4c9c0	0.022068858
250	0xbdd8a656	-0.10578601
251	0x3d03e3b5	0.03219958
252	0x3e260b18	0.1621517
253	0xbd6c12fd	-0.057635296
254	0x3e14154f	0.14461254
255	0x3e05ffc1	0.13085844

body.0.bias f4 [256]
0	0x3d8fe9c7	0.07027011
1	0xbc9a0b7c	-0.018804304
2	0x3d1da76a	0.038489737
3	0xbd9cda06	-0.07658772
4	0x3da6efc1	0.08151198
5	0x3c62ac25	0.013834988
6	0xbe0f68ec	-0.14004868
7	0xbe197e95	-0.14989693
8	0xbd3d104b	-0.046158116
9	0x3d75b7e4	0.059989825
10	0x3d3b6b2d	0.045756508
11	0x3e003a75	0.125223
12	0x3d80c952	0.06288399
13	0x3df73f2a	0.120725945
14	0xbb434ec0	-0.0029801577
15	0xbe21c4bf	-0.15797709
16	0xbd0e297c	-0.03470753
17	0x3c955061	0.018226804
18	0xbc0775fb	-0.008267875
19	0x3ba46b35	0.005017663
20	0x3df22a9d	0.11824534
21	0xbd937029	-0.07199127
22	0x3e0e1641	0.13875677
23	0x3d5796cb	0.05263404
24	0xbdca6004	-0.09881595
25	0x3db6f2d9	0.08933038
26	0xbd1e21cb	-0.038606446
27	0x3e1b51e3	0.15167956
28	0x3e309d0b	0.17247407
29	0x3df64528	0.12024909
30	0xbdd38faf	-0.1033014
31	0x3d171565	0.036885638
32	0xbdbea031	-0.09307898
33	0xb9d18e3e	-0.00039969565
34	0x3de3b685	0.11118797
35	0x3de6be28	0.11266738
36	0x3d18204d	0.03714018
37	0xbded5b0a	-0.1158963
38	0x3cf93bc0	0.030423999
39	0xbdda2313	-0.10651221
40	0x3e1424d7	0.14467178
41	0xbd8835a6	-0.066508576
42	0x3e1a8bfc	0.15092462
43	0x3e1a6687	0.15078174
44	0xbc99102c	-0.01868447
45	0xbe1a1d0f	-0.15050147
46	0x3bfb4b5c	0.0076688956
47	0xbe2ae17d	-0.1668758
48	0xbc22a3aa	-0.009926716
49	0xbd1d5615	-0.038412172
50	0x3e276587	0.16347323
51	0x3e02fabc	0.1279096
52	0x3e080bfe	0.13285825
53	0xbd3cfd45	-0.046139974
54	0xbdd7db2b	-0.1053985
55	0x3b13afc6	0.002253519
56	0xbe2a11d5	-0.16608365
57	0x3dd7e184	0.105410606
58	0x3db26f0c	0.08712587
59	0x3d607bdd	0.054805625
60	0x3c636d3f	0.013881027
61	0xbdf9d8e3	-0.12199571
62	0xbdf7c3cb	-0.120978914
63	0x3df6922e	0.120396
64	0x3ddeee07	0.10885244
65	0xbe03641a	-0.12831154
66	0xbe2a8951	-0.16653945
67	0x3d7d8ab0	0.06189984
68	0x3e319402	0.17341617
69	0x3dcb01e6	0.099124715
70	0x3e2e73b2	0.17036322
71	0x3e1bbf87	0.1520978
72	0x3e200af3	0.15629177
73	0xbd560fd3	-0.052261185
74	0xbd4240f3	-0.04742522
75	0xbc1cdfa3	-0.0095748035
76	0x3c8d872c	0.017276369
77	0x3e10ed5a	0.14153042
78	0x3e07becc	0.13256377
79	0x3dd7ddeb	0.10540374
80	0x3d123659	0.03569636
81	0x3e124a26	0.14286098
82	0xbda1e1dd	-0.07904408
83	0x3c842a1d	0.016133362
84	0x3e17744a	0.14790455
85	0xbd8a5abd	-0.06755588
86	0x3c1f3438	0.00971704
87	0x3dd66e6b	0.10470279
88	0xbd4c765b	-0.04991756
89	0x3b8722fe	0.0041240444
90	0xbe1acd69	-0.1511742
91	0x3cb7f0e3	0.02245373
92	0xbdb7a4a3	-0.08966949
93	0xbdcfd510	-0.1014806
94	0xbd54445c	-0.051823005
95	0x3b280f5a	0.0025643916
96	0xbd875095	-0.06607167
97	0x3dc44149	0.09582765
98	0xbd9dc416	-0.07703416
99	0xbcdfaa94	-0.027303018
100	0x3e0adb2c	0.1356017
101	0xbd52281d	-0.051307786
102	0xbe12aa1f	-0.14322709
103	0xbdde3a2c	-0.10850939
104	0xbe3d04da	-0.18458882
105	0xbdd73b19	-0.10509319
106	0x3e216b2c	0.15763539
107	0x3d348232	0.044069476
108	0x3da45a2a	0.0802501
109	0x3dfc8e6e	0.12331854
110	0xbde22de6	-0.11043911
111	0xbd8018c7	-0.06254726
112	0x3bc4af4b	0.006002342
113	0x3e34ab4c	0.1764347
114	0xbe14b7ee	-0.14523289
115	0xbe39464b	-0.18093221
116	0xbe11ae23	-0.14226584
117	0x3df5746a	0.11985095
118	0xbdbdb075	-0.09262172
119	0xbd0a85ab	-0.033818882
120	0x3e05349f	0.13008355
121	0x3db60763	0.08888128
122	0xbdf47e5b	-0.11938163
123	0x3dc7917f	0.09744548
124	0xbd4f8a2f	-0.05066889
125	0xbdea2cd3	-0.11434331
126	0x3d128477	0.03577086
127	0xbd298397	-0.04138526
128	0xbd230b54	-0.039805725
129	0xbe2650dd	-0.16241784
130	0x3e339415	0.17536958
131	0x3c900f3a	0.017585386
132	0x3d8df480	0.069314
133	0x3dec0619	0.115246005
134	0xbcfc3a01	-0.030789377
135	0xbdb1dfc5	-0.08685259
136	0x3d8da9bd	0.06917141
137	0xbd41ff98	-0.047362894
138	0xbca1197b	-0.01966547
139	0x3e0e9a8f	0.13926147
140	0x3e174b7e	0.14774892
141	0xbdd5d29e	-0.10440563
142	0xbdaa16c5	-0.08305124
143	0xbdf346ac	-0.11878714
144	0x3d897f3f	0.067137234
145	0xbd37bc94	-0.044857576
146	0xbe2f9a19	-0.17148627
147	0x3e31b015	0.17352326
148	0xbe1ea351	-0.15491988
149	0x3bb96bab	0.005658587
150	0x3dd17ff9	0.10229487
151	0x3c827460	0.015924633
152	0x3b9bcb2f	0.004754446
153	0x3d4cd313	0.050005984
154	0x3d9c520a	0.07632835
155	0xbdd01c4b	-0.101616465
156	0xbdb6c312	-0.089239255
157	0x3d0fb697	0.03508624
158	0xbda97f82	-0.08276273
159	0xbdbfbe25	-0.09362439
160	0xbadfc541	-0.0017072336
161	0xbd13052a	-0.035893597
162	0xbe081bf1	-0.13291909
163	0xbde1007d	-0.10986421
164	0xbd997f98	-0.0749504
165	0x3e2d670a	0.16933838
166	0x3d0f4715	0.0349799
167	0x3dd59a61	0.10429836
168	0xbd9e665d	-0.07734368
169	0x3e17533f	0.1477785
170	0x3de91e46	0.11382727
171	0x3da4c2a7	0.080449395
172	0x3d2d682a	0.042335667
173	0x3e26fc2b	0.16307132
174	0xbb96c0d2	-0.0046006227
175	0x3e05aa49	0.1305324
176	0x3db9e47d	0.09076784
177	0x3c948398	0.018129155
178	0x3d0572f9	0.03258035
179	0xbdfb438e	-0.122687444
180	0x3dff4350	0.12464011
181	0x3e0665d4	0.13124782
182	0x3e065cfd	0.1312141
183	0x3d2b06dd	0.041754592
184	0x3b543671	0.0032381082
185	0xbd660a6b	-0.05616228
186	0x3d810767	0.0630024
187	0xbdd907fb	-0.10597225
188	0xbe0a4fd8	-0.1350702
189	0xbdb55a64	-0.08855131
190	0xbde0014b	-0.109377466
191	0x3de531aa	0.11191113
192	0x3e099c3b	0.13438503
193	0x3d518f35	0.051161963
194	0xb981c1b8	-0.0002474913
195	0x3d748e4a	0.05970601
196	0x3da079e1	0.078357466
197	0xbcd1d5e0	-0.025614679
198	0x3de6547e	0.11246584
199	0x3d1f372a	0.038870968
200	0xbe0f4962	-0.13992837
201	0x3c38b37a	0.011273259
202	0x3d184766	0.037177466
203	0x3d151962	0.03640116
204	0xbe144050	-0.14477658
205	0xbddcad48	-0.10775238
206	0x3bb789cb	0.005601143
207	0x3d892368	0.06696206
208	0x3dd3d4c6	0.10343318
209	0x3db06415	0.08612839
210	0xbd1829ca	-0.03714923
211	0xbcc7f2ef	-0.024407832
212	0x3e181ef7	0.14855562
213	0x3e1433a3	0.14472823
214	0xbdd7308d	-0.10507307
215	0xbcef8d24	-0.029242106
216	0x3e12db88	0.14341557
217	0x3dc56e91	0.096402295
218	0xbc962752	-0.018329296
219	0x3c9fd1e8	0.01950927
220	0x3d3e05f3	0.046392392
221	0xbe0bb8a6	-0.13644657
222	0x3de5a165	0.11212424
223	0x3dbd9be6	0.09258251
224	0xbd2db980	-0.042413235
225	0x3df66450	0.12030852
226	0x3de46887	0.111527495
227	0x3d16d884	0.03682758
228	0xbdc96801	-0.0983429
229	0x3dd4fd01	0.10399819
230	0xbc7e2fd9	-0.015514337
231	0xbb82daa7	-0.0039933505
232	0xbd970999	-0.073748775
233	0xbd1b1e0d	-0.037870456
234	0xbca7cf60	-0.020484626
235	0x3d94b8ae	0.07261787
236	0xbe0d1186	-0.13776216
237	0x3bbc1e7a	0.005740938
238	0xbdd731a9	-0.10507519
239	0x3e021abd	0.12705512
240	0xbe35b8e0	-0.17746305
241	0xbd9292f8	-0.07156938
242	0x3dfbac81	0.12288762
243	0x3d68ca89	0.056833778
244	0x3d933d5c	0.07189438
245	0x3d87b3bf	0.06626081
246	0x3c4c16b1	0.012456582
247	0xbe00ff00	-0.12597275
248	0x3db737e4	0.08946207
249	0xbdf2ef3a	-0.11862035
250	0x3c62ef03	0.01385093
251	0x3c943046	0.018089425
252	0xbe284150	-0.16431165
253	0xbd78c33a	-0.060733058
254	0xbe042a64	-0.12906796
255	0xbd228bff	-0.039684292

body.2.weight f4 [256, 256]
0	0x3d34bf75	0.0441279
1	0x3c29222c	0.010323089
2	0x3daa38a9	0.08311588
3	0x3cdda0a1	0.027054133
4	0x3cb13656	0.021632355
5	0xbba3e2a8	-0.0050013848
6	0x3d1aa20f	0.037752207
7	0x3c23d5f5	0.009999742
8	0x3c73f695	0.014890333
9	0xbd974459	-0.07386083
10	0x3d6da17c	0.05801533
11	0xbd8008a4	-0.06251648
12	0x3d1f30a8	0.03886476
13	0xbcafc7d6	-0.021457594
14	0xbd06d748	-0.032920152
15	0xbd360756	-0.04444059
16	0xbd29d1c7	-0.041459825
17	0x3c7a07c4	0.0152606405
18	0x3d2346f4	0.039862588
19	0xbcac17e8	-0.021007493
20	0xbbd2b860	-0.0064306706
21	0x3bea73c1	0.007154912
22	0xbd1eadca	-0.038739957
23	0x3ca147f5	0.019687632
24	0xbc8f1244	-0.017464764
25	0x3da12bd1	0.078696854
26	0x3c9150cf	0.017738728
27	0xbcf055b3	-0.02933774
28	0x3daacf1c	0.08340284
29	0x3c87985a	0.01655214
30	0x3ce32d39	0.027731525
31	0x3b87a814	0.0041399095
32	0xbd4f2b54	-0.05057843
33	0xbc79e04a	-0.015251229
34	0xbd66a66d	-0.05631106
35	0xbcf5886b	-0.029972276
36	0xbd68ee3a	-0.056867816
37	0xbd45a208	-0.04825023
38	0xbd2edf43	-0.042693388
39	0xbd25c707	-0.04047301
40	0x3d35b3e7	0.04436102
41	0xbcf746ca	-0.030185122
42	0xbc9f9cf0	-0.019484013
43	0x3cadd3f4	0.021219231
44	0xbc8bb69e	-0.017054852
45	0xbcefc50b	-0.029268762
46	0xbb9982e1	-0.0046847914
47	0x3d46b04d	0.048507977
48	0x3d6fd526	0.058552884
49	0xbc9663cd	-0.018358136
50	0xbcb6d88a	-0.02232005
51	0xbc7f39f9	-0.015577787
52	0x3be210bc	0.0068989675
53	0xbc8c9831	-0.017162414
54	0x3d670e18	0.056409925
55	0x3ca2ed39	0.019888507
56	0xbcc945bf	-0.02456939
57	0xbd4e7306	-0.050402664
58	0xbd4beb1e	-0.049784772
59	0x3d284739	0.04108355
60	0xbd49b7fb	-0.049247723
61	0xbc6ddc9d	-0.01451793
62	0xbced1050	-0.028938442
63	0xbd41e2ae	-0.04733532
64	0xbd36f8a6	-0.044670723
65	0x3c6a6c9a	0.014308119
66	0x3c6fb0bb	0.014629538
67	0xbc2bafce	-0.010478927
68	0x3c9336f7	0.017970545
69	0x3d3d96e1	0.046286467
70	0xbd2580e0	-0.040406108
71	0x3d6b7e31	0.057493392
72	0xbd2fb32c	-0.04289548
73	0x3d300d55	0.042981464
74	0x3c6c49bb	0.014421876
75	0xbb635184	-0.0034686038
76	0x3be88ef7	0.007097121
77	0x3d4633fe	0.048389427
78	0xbca90016	-0.020629924
79	0xbd051ea2	-0.032499917
80	0xbc0f3fc4	-0.00874323
81	0xbcc5ccac	-0.024145447
82	0xbbeac3f0	-0.007164471
83	0xbd3db76a	-0.046317495
84	0x3cbc4550	0.02298227
85	0x3cd07895	0.025448123
86	0x3bb63936	0.0055610193
87	0x3d44ab70	0.048015058
88	0x3b575bf5	0.0032861207
89	0xbb89086d	-0.0041819126
90	0xbd3dd67c	-0.046347126
91	0x3d1050b9	0.035233233
92	0xbbe294d2	-0.0069147134
93	0xbda6af72	-0.08138932
94	0xbc9c6dfd	-0.019095415
95	0xbc1e7435	-0.009671261
96	0x3b9b4cab	0.004739364
97	0x3d3e7a20	0.046503186
98	0xbd21f7b7	-0.03954288
99	0x3bf134c4	0.0073610265
100	0xbc14ad82	-0.009074571
101	0xbd82e91f	-0.063921206
102	0x3ceb791d	0.028744275
103	0x3bd7cd7a	0.006585774
104	0x3b1ff9c3	0.0024410344
105	0xbbfb59d2	-0.0076706195
106	0x3af092a1	0.0018354246
107	0xbc92b604	-0.017909057
108	0xbceae837	-0.028675182
109	0xbbda73f1	-0.0066666533
110	0x3c043211	0.008068577
111	0xbbfe1464	-0.0077538956
112	0x3d3a295e	0.045449607
113	0x3d5e315e	0.0542463
114	0xbd005737	-0.031333175
115	0x3d347401	0.044055942
116	0xbc8603a6	-0.016359162
117	0x3d92d06e	0.07168661
118	0x3c825e34	0.01591406
119	0x3c23aff3	0.00999068
120	0x3c9b85be	0.018984672
121	0x3d35179e	0.044211976
122	0xbd460154	-0.04834111
123	0x3d13930f	0.036028918
124	0xbce4d8af	-0.027935354
125	0x3d4960ec	0.049164698
126	0xbb31f9a7	-0.002715686
127	0xbc5c38ac	-0.013441246
128	0x3d225ea2	0.03964103
129	0x3d2a0a29	0.041513596
130	0x3d587ea4	0.05285515
131	0x3d36a15e	0.044587485
132	0xbc8b6dc4	-0.017020114
133	0x3d406439	0.04697058
134	0xbc92414d	-0.017853403
135	0x3cd5b9be	0.026089545
136	0xbce7e802	-0.028308872
137	0x3d2f660e	0.042821936
138	0xbd766e13	-0.06016357
139	0x3d269345	0.04066779
140	0xbd35c740	-0.044379473
141	0xbd42c26c	-0.047548696
142	0x3c7d0fbd	0.015445647
143	0x3a45a479	0.0007539462
144	0xbd257d66	-0.040402792
145	0x3d76bd2e	0.06023901
146	0xbd814592	-0.063120976
147	0xbc6dff98	-0.01452627
148	0xbd1fbdb8	-0.03899929
149	0xbc21f300	-0.009884596
150	0x3d1636f4	0.0366735
151	0xbd4d9fac	-0.050201103
152	0x3d240666	0.040045165
153	0x3d3c4bce	0.04597073
154	0x3d3c3547	0.045949247
155	0x3ccab658	0.024745151
156	0x3baa3340	0.0051940978
157	0xbc79de18	-0.015250705
158	0xbd39ebcc	-0.04539089
159	0xbcff3d32	-0.03115711
160	0xbc55fbff	-0.013060569
161	0x3d442c76	0.047893964
162	0x3d1fb6b6	0.038992606
163	0xbd7431be	-0.05961775
164	0x3d6dd4ec	0.058064386
165	0x3c3c3273	0.011486637
166	0xbd3a4ed2	-0.045485325
167	0x3d14c7d9	0.036323402
168	0xbcd9e32d	-0.026597584
169	0x3d3922a7	0.045199063
170	0xbce2d637	-0.027690036
171	0xbd23ac90	-0.03995949
172	0x3d7ecd5a	0.062207557
173	0x3d6a76d1	0.05724222
174	0xbd2c8944	-0.042123094
175	0x3cdf83c9	0.02728452
176	0x3cbb7255	0.022881666
177	0xbcd0ee63	-0.025504297
178	0xbd44640a	-0.047946967
179	0x38d40e69	0.00010111632
180	0xbca45e34	-0.02006445
181	0x3d6c1134	0.057633594
182	0xbbb7298f	-0.005589671
183	0xbc955773	-0.018230176
184	0x3d524684	0.05133678
185	0x3c8473b5	0.016168455
186	0xbcb5d507	-0.022196306
187	0x3c564c68	0.01307974
188	0x3c03e636	0.008050492
189	0xbc9ef8a3	-0.019405669
190	0x3d937ba3	0.07201316
191	0x3d25ea01	0.040506367
192	0xbcc1f819	-0.023677872
193	0xbc197532	-0.00936632
194	0x3d5296c2	0.051413305
195	0xbcbbc280	-0.022919893
196	0x3c078a81	0.008272768
197	0x3d53278b	0.051551383
198	0xbc9b246d	-0.018938268
199	0xbc0d526e	-0.00862561
200	0x3d0b3868	0.03398934
201	0xbd4ca71d	-0.04996406
202	0x3d51f834	0.051262096
203	0x3d812a6a	0.06306918
204	0xbc8a0664	-0.01684875
205	0x3cd48038	0.025940046
206	0x3d8c8062	0.068604246
207	0xbc9c4d88	-0.019079939
208	0x3bf61d3c	0.007510809
209	0x3d4b3d97	0.049619284
210	0xbd3dec55	-0.046367962
211	0x3d265a20	0.040613294
212	0xbc9f7b4a	-0.019467968
213	0x3d2636f1	0.04057974
214	0xbd1355bf	-0.035970446
215	0xbd03eb8e	-0.032207064
216	0x3d149cef	0.036282476
217	0x3c6529f4	0.013987053
218	0xbcfc8106	-0.030823242
219	0xbcc11722	-0.0235706
220	0x3d29036e	0.041263036
221	0x3d787904	0.060662284
222	0x3b96ee76	0.0046060635
223	0xbd1024fe	-0.03519153
224	0x3caf4791	0.02139643
225	0x3c694f06	0.014240032
226	0xbd11a278	-0.035555333
227	0x3c167294	0.009182591
228	0x3c450993	0.012026208
229	0x3d46218e	0.048371844
230	0xbdac8928	-0.08424598
231	0x3d89ba35	0.06724969
232	0x3c6969a0	0.014246374
233	0x3b8ee2fd	0.004360555
234	0xbce95f08	-0.028487697
235	0xbd265cb6	-0.04061576
236	0x3ce04276	0.027375441
237	0x3d098dc0	0.03358245
238	0xbd0095aa	-0.03139273
239	0xbcda06a3	-0.026614493
240	0xbd250c4c	-0.04029493
241	0xbbf0ddfb	-0.007350681
242	0x3d87eedb	0.06637355
243	0x3d4ec7e0	0.050483584
244	0x3d578941	0.05262113
245	0xbd15809a	-0.036499597
246	0x3d5ca131	0.05386466
247	0x3c821553	0.015879309
248	0xbc70097a	-0.014650697
249	0x3ccfc442	0.025362138
250	0x3d28f05d	0.041244853
251	0xbd0fefaa	-0.03514067
252	0x3ca24ea9	0.019812899
253	0x3c9bfaf5	0.019040564
254	0xbccf9681	-0.02534032
255	0x3d6da679	0.05802009

body.2.bias f4 [256]
0	0xbcd9f2ed	-0.026605094
1	0xbb8ad7f7	-0.004237171
2	0xbd51234a	-0.051059045
3	0x3d82e85a	0.06391974
4	0xbd0b19f3	-0.033960294
5	0xbd0975d1	-0.033559624
6	0xbd5117d6	-0.051048122
7	0xbd1d1d3f	-0.03835797
8	0xbd0db283	-0.03459407
9	0x3cf09ce9	0.029371696
10	0x3d8610e8	0.06546193
11	0xbd206d72	-0.039166875
12	0xbd86b1a8	-0.06576854
13	0x3c43a811	0.011941926
14	0x3d566b3b	0.052348357
15	0x3d41552f	0.047200378
16	0xbb1fa6d7	-0.002436092
17	0xbd7efdd2	-0.06225378
18	0x3d2de294	0.04245241
19	0xbb39f950	-0.0028377362
20	0x3d2bc377	0.041934457
21	0x3d0b205f	0.03396642
22	0x3d87dfee	0.06634508
23	0x3d4b005d	0.049560893
24	0x3d0821e4	0.033235446
25	0x3d4ecc38	0.050487727
26	0x3ade5ce9	0.0016964945
27	0x3cd2ddd7	0.025740547
28	0x3d7f17e9	0.062278662
29	0xbd843db3	-0.06457081
30	0xbd6d81c5	-0.057985086
31	0xbc860c00	-0.016363144
32	0x3d4d0413	0.050052714
33	0x3a228991	0.00062003086
34	0xbbf1ccd1	-0.0073791523
35	0xbca6d773	-0.020366406
36	0xbb6013e9	-0.0034191555
37	0xbcdeabb5	-0.027181486
38	0xbceb9c71	-0.02876112
39	0x3d44b2b0	0.048021972
40	0x3d08a7f1	0.033363286
41	0xbcdc8381	-0.026918175
42	0x3b91e104	0.004451873
43	0x3d5c7e0b	0.05383114
44	0x3a867533	0.0010258317
45	0xbd5f2906	-0.054482482
46	0xbce8e940	-0.028431535
47	0xbcac88e1	-0.021061363
48	0xbcc1d668	-0.023661807
49	0x3c2d4be4	0.010577176
50	0xbc97acfc	-0.018515103
51	0x3c367089	0.011135229
52	0x3c936d88	0.017996565
53	0x3d835ec5	0.0641456
54	0xbd55d5e0	-0.05220592
55	0xbc6c3451	-0.01441677
56	0xba86d859	-0.0010287865
57	0xbd53c500	-0.051701546
58	0x3d30cfff	0.04316711
59	0xbce52f88	-0.027976766
60	0x3c358f33	0.011081505
61	0xbd522e60	-0.051313758
62	0x3cf29d05	0.029615888
63	0xbd217ddd	-0.039426673
64	0x392b2a2c	0.00016323541
65	0xbd83d544	-0.064371616
66	0x3d8362b9	0.06415314
67	0x3d5aeb55	0.053447086
68	0x3c201e3e	0.009772835
69	0xbc9cee31	-0.019156547
70	0xbbc8aa70	-0.0061238334
71	0x3d44cae5	0.048045058
72	0xbae05961	-0.0017116481
73	0x3cd0db59	0.025495218
74	0xbd09c592	-0.033635683
75	0xbd6c0ec6	-0.057631277
76	0x3cb7fbc1	0.022458913
77	0xbd086567	-0.03329983
78	0x3cf97044	0.03044904
79	0xbcf59ef1	-0.029983016
80	0xbd1c611c	-0.03817855
81	0x3c9bd43e	0.019022103
82	0xbc21c431	-0.009873436
83	0x3c311077	0.010807148
84	0x3af6c29c	0.0018826309
85	0xbc22fcc9	-0.009947964
86	0x3d2a5844	0.041588083
87	0xbc881a02	-0.016613964
88	0x3b86ebb1	0.004117452
89	0x3c427cc8	0.0118705705
90	0xbd63f28e	-0.05565124
91	0xbd374ee2	-0.044752963
92	0x3d1693df	0.036762115
93	0x3d6c59b2	0.057702728
94	0x3d5d36c4	0.054007307
95	0x3d2bfe29	0.041990433
96	0xb965f475	-0.00021930209
97	0x3d45bbff	0.04827499
98	0xbd02aaa9	-0.031901035
99	0xbb1a180c	-0.0023512868
100	0xbcd4a8f3	-0.025959468
101	0xbcb7ca4c	-0.02243533
102	0x3c1b9df6	0.00949811
103	0xbd2b1a35	-0.04177304
104	0xbd562567	-0.052281763
105	0x3c9ed45e	0.019388374
106	0xbc02c77d	-0.007982132
107	0x3d347ff9	0.044067357
108	0x3d7d59eb	0.06185333
109	0xbbd7bf1f	-0.0065840627
110	0x3c80632c	0.015672289
111	0xbd34d5ab	-0.044149082
112	0xbd2a2757	-0.041541424
113	0x3b2e1386	0.002656193
114	0x3c8f94ae	0.01752695
115	0xbd612a85	-0.05497219
116	0xbc28c795	-0.01030149
117	0xbd4ba05d	-0.04971348
118	0xbd249146	-0.040177606
119	0xbd0d00ff	-0.034424778
120	0xbc5ff43e	-0.013669072
121	0xbd46da39	-0.048547957
122	0xbd0a1842	-0.03371454
123	0x3b2416cb	0.0025038
124	0x3d328275	0.043581445
125	0x3c302f0d	0.010753405
126	0x3c28906b	0.010288338
127	0x3c944585	0.018099556
128	0x3c9edb73	0.01939175
129	0x3d3bdc09	0.04586414
130	0xbc1a5432	-0.009419488
131	0x3d8cec80	0.06881046
132	0xbd656b33	-0.056010436
133	0x3a81db50	0.0009907279
134	0x3d4db22b	0.050218742
135	0xbae71057	-0.0017628771
136	0xbc128628	-0.008943118
137	0xbb234cee	-0.002491768
138	0xbce1bac7	-0.027554883
139	0xbd7f925f	-0.06239545
140	0x3ce0aa5b	0.027424982
141	0x3b60a836	0.003427995
142	0xbd788e46	-0.060682558
143	0xbc5a8a21	-0.013338597
144	0x3d466678	0.048437566
145	0x3d4afa74	0.049555257
146	0xbb22d06b	-0.0024843465
147	0xbd2df063	-0.04246558
148	0x3d5e7b71	0.05431694
149	0x3c92067a	0.017825354
150	0xbd216c53	-0.039409947
151	0xbc52bfae	-0.012863083
152	0x3c85aac9	0.016316788
153	0xbc93225f	-0.017960725
154	0x3d92d2cc	0.071691126
155	0x3d7c1d59	0.061551426
156	0x3ba9f66e	0.0051868474
157	0xbd8df8bb	-0.06932207
158	0x3c060ae4	0.008181307
159	0x3d6fe1d4	0.058564976
160	0xbd888c31	-0.066673644
161	0x3cee0754	0.029056229
162	0xbd05130d	-0.03248887
163	0x3ca9d3a6	0.020730805
164	0x3d7f4ac3	0.062327158
165	0x3d35cb39	0.04438326
166	0xbc4771e0	-0.012173146
167	0x3d8d1868	0.06889421
168	0x3b9228c3	0.0044604256
169	0x3d35ed74	0.044415906
170	0x3cc882ff	0.024476526
171	0xbd5327aa	-0.0515515
172	0xbd3740eb	-0.044739645
173	0xbc364c28	-0.0111265555
174	0x3c474861	0.012163253
175	0xbd438e7a	-0.047743298
176	0x3d7af80f	0.061271723
177	0xbd0ba298	-0.03409061
178	0xbd609d5d	-0.054837573
179	0x3d5b6618	0.05356416
180	0xbd2e6179	-0.042573426
181	0xbd93c703	-0.07215693
182	0x3c36a27f	0.0111471405
183	0xbd161c94	-0.036648348
184	0x3d45278d	0.04813342
185	0x3c32b47e	0.0109072905
186	0x3b836a43	0.00401047
187	0xbcafab3c	-0.021443956
188	0xbc1a89b4	-0.009432245
189	0xbd764598	-0.060124964
190	0xbd029b3f	-0.031886335
191	0xbb97aaca	-0.004628514
192	0x3d4411d6	0.047868572
193	0x3d0c1133	0.03419609
194	0xbd31d387	-0.04341462
195	0xbc770b2f	-0.01507835
196	0x3d3d279e	0.04618036
197	0xbcad2bf3	-0.02113912
198	0xbcdfc7ae	-0.027316894
199	0x3b460658	0.0030216184
200	0x3c8d8f09	0.017280119
201	0xbab105c7	-0.001350575
202	0xbd5c039d	-0.053714383
203	0x3d28a65f	0.04117429
204	0xbcf91924	-0.030407496
205	0xbce3475c	-0.027743988
206	0xbcb20532	-0.021730993
207	0xbccbeba8	-0.024892643
208	0x3d3eb94d	0.046563435
209	0x3bdb843a	0.0066991122
210	0xbbc9ec8e	-0.0061622327
211	0xbcb1f0d5	-0.021721283
212	0x3c16ae5f	0.009196847
213	0xbd5ae666	-0.05344238
214	0x3be28e12	0.0069139088
215	0xbd286f24	-0.041121617
216	0xbd38f3c5	-0.04515435
217	0x3c03dfca	0.008048961
218	0x3d8613ad	0.065467216
219	0x3d656d66	0.056012534
220	0xbc647ee9	-0.013946273
221	0x3d3720c7	0.044708993
222	0x3c896fa1	0.016776862
223	0xbcf9533a	-0.030435193
224	0x3a518dfd	0.0007993875
225	0x3cb68e61	0.022284688
226	0xbd61aa79	-0.055094216
227	0x3d1ca8c7	0.038246896
228	0xbd63c251	-0.055605236
229	0x3ce426fd	0.027850622
230	0x3d54a448	0.051914483
231	0xbd648eb8	-0.05580017
232	0xbc82fb36	-0.015988927
233	0xbd3921b2	-0.04519815
234	0xbd250c71	-0.04029507
235	0xbb08448d	-0.0020792813
236	0xbc966593	-0.018358981
237	0x3d2c41a3	0.042054784
238	0x3d853799	0.06504745
239	0x3d4f6843	0.05063654
240	0xbd7606e5	-0.06006517
241	0xbb58b1c7	-0.0033064948
242	0x3d4f0ea4	0.05055107
243	0xbca1d3f9	-0.019754397
244	0x3d3cff3b	0.046141844
245	0x3d79c916	0.060982786
246	0x3c57d46b	0.013173203
247	0xbbaa40f0	-0.0051957294
248	0xbd569ff0	-0.052398622
249	0x3baa3f35	0.005195523
250	0x3caa517b	0.020790806
251	0xbd2f464a	-0.042791642
252	0xbcd48d88	-0.025946394
253	0x3c8fd0e2	0.017555658
254	0xbcc1dffa	-0.02366637
255	0x3d10461a	0.035223104

body.4.weight f4 [128, 256]
0	0xbc9eeb17	-0.019399209
1	0x3d4bbb49	0.049739156
2	0xbbe3e724	-0.0069550443
3	0xbcfc8960	-0.030827224
4	0x3c426cb9	0.011866742
5	0x3d37fea0	0.044920564
6	0x3cdc61cc	0.026902102
7	0xbcd02c14	-0.025411643
8	0x3d241434	0.04005833
9	0x3c6a8d2e	0.014315886
10	0x3c9619dc	0.018322878
11	0xbd0d5e2e	-0.034513645
12	0xbcb0c6ff	-0.021579264
13	0x3d2d7a96	0.042353235
14	0x3d7a6bc2	0.061137922
15	0x3c1c1d1e	0.009528426
16	0x3d18c352	0.037295647
17	0xbcd5b3fd	-0.026086802
18	0x3d1a9273	0.03773732
19	0x3d5ca5c9	0.053869043
20	0x3b628ab4	0.0034567537
21	0xbd733260	-0.059374213
22	0xbd14ec23	-0.03635801
23	0xbcdc9984	-0.02692867
24	0x3c8be305	0.017076025
25	0x3d15228f	0.03640991
26	0x3d62e3c0	0.05539298
27	0xbcb276f5	-0.021785239
28	0x3d6ee195	0.0583206
29	0x3d6fdc14	0.058559492
30	0xbd0eb77c	-0.034842953
31	0xbd4c0df8	-0.04981801
32	0xbca4b741	-0.020106914
33	0xbd2f4975	-0.042794663
34	0x3b2da1ee	0.0026494223
35	0x3d54685a	0.05185733
36	0xbcbde931	-0.023182483
37	0xbc8bf0b4	-0.01708255
38	0x3c4a56f7	0.012349836
39	0x3d20480c	0.03913121
40	0xbd640d2e	-0.05567663
41	0x3d4c5ca9	0.049893055
42	0xbd92f23e	-0.0717511
43	0xbd1a635c	-0.037692413
44	0x3c2623c7	0.010140366
45	0x3d103324	0.03520502
46	0x3be82c23	0.0070853396
47	0x3c9296b0	0.017894119
48	0xbcfd8dfb	-0.03095149
49	0xbd34edd4	-0.044172123
50	0xbcf48920	-0.029850543
51	0xbb02f357	-0.0019981468
52	0xbc8e47b2	-0.017368171
53	0xbab3df73	-0.0013723209
54	0x3b036fe8	0.0020055715
55	0xbd2d3f30	-0.04229659
56	0x3d866ad6	0.06563346
57	0x3d05b879	0.03264663
58	0x3cdc9476	0.02692626
59	0xbcde2c91	-0.02712086
60	0xbd282c90	-0.041058123
61	0x3d134137	0.035950866
62	0x3c83a96d	0.016072
63	0x3d1c9b33	0.038233947
64	0xbd5e8d88	-0.054334193
65	0xbcb4616d	-0.022019112
66	0x3d26a502	0.040684707
67	0xba8e6116	-0.0010862674
68	0xbd95ae2d	-0.07308612
69	0x3b30e701	0.0026993158
70	0x3d225efe	0.039641373
71	0xbd0e4fd9	-0.034744117
72	0xbd0a5c7e	-0.033779614
73	0x3d18b473	0.037281465
74	0x3d215dd4	0.039396122
75	0xbd593177	-0.05302569
76	0x3b3b911e	0.0028620432
77	0xbce68b73	-0.028142666
78	0x3c8bf539	0.017084705
79	0x3d55181d	0.05202495
80	0xbc72e5ca	-0.014825294
81	0xbc622d86	-0.013804799
82	0x3d616552	0.055028267
83	0xbd5341ac	-0.0515763
84	0xbd3c86bd	-0.046026934
85	0x3bbd4a18	0.005776655
86	0x3d3d4805	0.04621126
87	0x3ce8d218	0.028420493
88	0xbcf3c2f9	-0.029756056
89	0x3d45effe	0.048324578
90	0x3d6d4668	0.057928473
91	0xbbe0d782	-0.006861628
92	0xbd77f230	-0.060533702
93	0xbca145d0	-0.01968661
94	0x3c8bcfac	0.0170668
95	0x3c73eb5f	0.01488766
96	0x3d1d7c23	0.038448464
97	0x3d2579c8	0.040399343
98	0x3c96026f	0.018311707
99	0xbcd26164	-0.025681205
100	0xbd01773b	-0.031607848
101	0xbc631baa	-0.013861576
102	0x3caac1d6	0.020844381
103	0x3c643a12	0.013929861
104	0x3ce323df	0.027727066
105	0xbc8bc198	-0.017060086
106	0x3cd7d484	0.026346453
107	0xbbe1766e	-0.006880573
108	0xbcc73ad7	-0.02432005
109	0x3d7400bc	0.059571013
110	0xbbf190c4	-0.0073719937
111	0xbcca235a	-0.02467506
112	0x3d50bc09	0.050960574
113	0x3d83a1bf	0.06427335
114	0x3be25da8	0.0069081374
115	0xbd6a51d6	-0.05720695
116	0x3d637eef	0.055540975
117	0xbcd80fc0	-0.026374698
118	0xba2a3c92	-0.0006494011
119	0xbd72392b	-0.05913655
120	0x3d690eba	0.05689881
121	0x3cdedfd3	0.027206337
122	0xbd2421c6	-0.04007127
123	0xbaeb6217	-0.001795831
124	0x3cdcd146	0.026955258
125	0xbcc9eeee	-0.024650063
126	0x3d4c1526	0.049824856
127	0xbd32cad2	-0.043650456
128	0xbd28cca6	-0.041210793
129	0xbd55bb2a	-0.052180447
130	0x3cb46018	0.022018477
131	0x3d8479e7	0.064685635
132	0x3c49de0f	0.012321009
133	0x3d1a7782	0.037711628
134	0xbd313336	-0.04326173
135	0x3bfe17df	0.0077543105
136	0xbd1ae8d4	-0.0378197
137	0xbb087982	-0.0020824377
138	0xbd492dac	-0.04911582
139	0xbd2b0cdc	-0.04176031
140	0x3d41c036	0.047302447
141	0xbce55f5c	-0.027999572
142	0x3d5971d3	0.053087067
143	0x3d0a8c78	0.033825368
144	0x3cc98b44	0.02460254
145	0xbd5808fb	-0.05274294
146	0xbc0a483b	-0.008440073
147	0x3b7fc538	0.0039027464
148	0x3cac4a5f	0.021031557
149	0x3cd9e0f9	0.026596533
150	0x3d39ab42	0.04532934
151	0xbd2bb635	-0.041921813
152	0xbbd4b580	-0.006491363
153	0x3c9d5a85	0.019208202
154	0x3d89fff0	0.06738269
155	0xbbbd6241	-0.005779535
156	0x3b32be25	0.002727398
157	0x3c11e1c9	0.008903929
158	0x3cccbad1	0.024991425
159	0xbd134a86	-0.035959743
160	0xbd20520c	-0.039140746
161	0xbd19da90	-0.037561953
162	0xbd312b0e	-0.04325395
163	0xbc4e80cd	-0.012603951
164	0x3d0ae6b0	0.033911407
165	0x3bfd1a2d	0.0077240677
166	0xbd00f27d	-0.031481255
167	0xbce8a50d	-0.028399015
168	0x3c6a29f5	0.01429223
169	0x39a0a928	0.0003064361
170	0x3d850710	0.06495488
171	0x3a5eb92d	0.0008496221
172	0x3c9b9863	0.018993562
173	0x3d54649f	0.051853772
174	0x3bc73875	0.0060797282
175	0xbce8d653	-0.02842251
176	0xbd1665b4	-0.036718085
177	0xbb510968	-0.0031896476
178	0xbd0f0538	-0.034917086
179	0x3ae9d4fd	0.0017839965
180	0x3cf3e08d	0.02977016
181	0xbd7959db	-0.06087671
182	0xbd4cc471	-0.04999203
183	0x3ce6c937	0.028172119
184	0x3d426234	0.047456935
185	0x3c4de334	0.0125663765
186	0x3cf23e31	0.02957067
187	0x3c18c110	0.009323373
188	0xbd3b7105	-0.04576208
189	0x3c650681	0.013978601
190	0x3d690a4e	0.056894593
191	0x3d311b88	0.043239146
192	0x3b21d0db	0.0024691138
193	0xbd95c00c	-0.07312021
194	0x3ccba402	0.024858478
195	0x3d261358	0.04054579
196	0x3d3b5f81	0.045745376
197	0x3c148fa0	0.009067446
198	0xbd01c479	-0.03168151
199	0xbd1e6699	-0.038672063
200	0xbc12371a	-0.00892427
201	0x3cfaa064	0.030594058
202	0x3bc54481	0.006020129
203	0xbd70612e	-0.058686428
204	0x3d19ca9d	0.037546743
205	0x3d37ef21	0.044905785
206	0x3d8ad66f	0.06779181
207	0x3d14dbca	0.03634242
208	0xbd85bec6	-0.06530528
209	0x3d58badc	0.052912578
210	0xbc7974ed	-0.015225631
211	0x3d7252ef	0.059161123
212	0xbc8a886e	-0.016910758
213	0x3d05d0ed	0.03266995
214	0x3cb63c92	0.022245679
215	0x3ccc2760	0.02492112
216	0x3cef362a	0.029200632
217	0xbc58aaa1	-0.013224275
218	0xbd35c43d	-0.0443766
219	0x3b02687a	0.0019898699
220	0xbd460d6c	-0.048352644
221	0xbc835cc2	-0.016035441
222	0xbd01a3ba	-0.031650282
223	0xbc838340	-0.016053796
224	0x3d4165b9	0.04721615
225	0x3d22813a	0.03967402
226	0x3d5577b3	0.052116107
227	0xbc6aa273	-0.0143209575
228	0x3c0898a1	0.008337171
229	0xbce5e14c	-0.028061531
230	0x3c79dc47	0.015250272
231	0x3d48a838	0.04898855
232	0x3d35e965	0.044412035
233	0x3c7bec52	0.015376167
234	0x3d8387d5	0.06422392
235	0x3ba048ad	0.004891476
236	0xbcd6152b	-0.02613314
237	0xbd66a70a	-0.056311645
238	0x3d37bcef	0.044857915
239	0x3d54195e	0.051782005
240	0xbd79ddb7	-0.06100246
241	0x3d4515fc	0.04811667
242	0x3d429df5	0.04751392
243	0xbd1637d6	-0.036674343
244	0x3d465c5f	0.048427936
245	0xbd75e11b	-0.06002913
246	0xbd0149c9	-0.031564508
247	0x3d1c3f79	0.03814647
248	0x3d6087ae	0.054816894
249	0x3d44b5bb	0.048024874
250	0x38ff1c12	0.00012164576
251	0xbd25073f	-0.040290114
252	0xbba513cb	-0.00503776
253	0x39cd506e	0.00039160572
254	0xbcf56be6	-0.029958677
255	0x3ce91bac	0.028455578

body.4.bias f4 [128]
0	0x3d626805	0.055274982
1	0xbd63e3be	-0.055637114
2	0xbd0d6d3c	-0.034528002
3	0xbd074f66	-0.033034705
4	0x3ce8cf7f	0.028419254
5	0x3cb2fc04	0.021848686
6	0x3d491ff4	0.04910274
7	0xb85d5fda	-5.2779775e-05
8	0x3d1755b3	0.036946964
9	0xbc86c192	-0.016449723
10	0xbc54a284	-0.0129782
11	0xbd5cac21	-0.053875092
12	0x3d4e9815	0.050438005
13	0xbd82fcfd	-0.0639591
14	0x3d864f3b	0.06558081
15	0xbd5103be	-0.05102896
16	0xbcf3d664	-0.029765315
17	0xbd07d713	-0.033164095
18	0x3c8bac6d	0.017049992
19	0x3c9fa5c1	0.019488217
20	0xbccbdb6e	-0.024884906
21	0x3d52489f	0.051338788
22	0x3ceebe3c	0.029143445
23	0xbd084671	-0.033270303
24	0x3c4d29fc	0.012522217
25	0x3d031284	0.03200008
26	0xbce340f4	-0.027740933
27	0xbd3e565d	-0.04646908
28	0xbcdcd53a	-0.026957143
29	0xbcbf1461	-0.023325147
30	0x3d15fefc	0.036620125
31	0xbd0b7daa	-0.03405539
32	0xbcf49b50	-0.029859215
33	0xbd7238a8	-0.059136063
34	0x3d11f834	0.035637096
35	0xbc7b5de9	-0.015342214
36	0x3d1f26c2	0.03885532
37	0xbd71a5a2	-0.05899585
38	0xbca0f136	-0.019646268
39	0x3bef2081	0.007297576
40	0x3bbc6a19	0.0057499525
41	0x3d13837b	0.03601406
42	0xbd3e94d6	-0.04652866
43	0x3d3f9a56	0.046778046
44	0x39fcea14	0.00048239587
45	0x3d7e7795	0.06212576
46	0x3d21cc5b	0.03950153
47	0xbd1edc0c	-0.03878407
48	0x3d070127	0.032960083
49	0xbcc4173a	-0.023936857
50	0x3bdd0e8a	0.006746118
51	0xbcad808a	-0.021179456
52	0xbcff808c	-0.031189226
53	0x3c6aa7b9	0.014322215
54	0xbd07df76	-0.033172093
55	0xbd4184eb	-0.0472459
56	0x3c13ec26	0.00902847
57	0xbbfdc9f1	-0.0077450206
58	0xbc775449	-0.015095779
59	0xbd05e30d	-0.032687236
60	0xbd63af70	-0.055587232
61	0x3d327890	0.04357201
62	0x3b6b54e5	0.0035908755
63	0xbd8e996a	-0.06962855
64	0xbcae6c30	-0.021291822
65	0xbd096e2c	-0.033552334
66	0xbc04a48c	-0.008095872
67	0x3d829946	0.06376891
68	0xbcab4fa2	-0.020911995
69	0xbd1820fb	-0.037140828
70	0xbca9a31a	-0.020707656
71	0xbca1a5cb	-0.019732377
72	0x3d225bac	0.039638206
73	0xbc065bcc	-0.008200597
74	0xbbafee00	-0.005368948
75	0x3cf36e52	0.02971569
76	0xbc3e542e	-0.01161675
77	0x3d58e91d	0.05295669
78	0xbcd93629	-0.026515083
79	0x3c954ff6	0.018226605
80	0xbc233ea8	-0.009963669
81	0x3c5f4296	0.013626715
82	0x3cd4f429	0.02599533
83	0xbd1be3d9	-0.03805909
84	0xbc201d1d	-0.009772566
85	0x3d238927	0.03992572
86	0x3d0d5b1c	0.034510717
87	0x3cdbb227	0.026818348
88	0x3c1aadd7	0.009440861
89	0xbc84974e	-0.016185429
90	0xbb361512	-0.0027783555
91	0x3d309e7d	0.043119896
92	0xbd2fc472	-0.042911954
93	0x3d82429e	0.063603625
94	0x3d1b97b0	0.037986457
95	0x3c6ea63c	0.014566001
96	0xbae40f5b	-0.0017399596
97	0x3b22e161	0.0024853575
98	0xbc4e3abe	-0.012587247
99	0xbd203b96	-0.039119326
100	0xbac91168	-0.001534027
101	0xbc32e527	-0.010918892
102	0x3c5706f8	0.01312422
103	0x3d3da773	0.04630227
104	0x3c9cf7a3	0.019161051
105	0xbc81906d	-0.015815938
106	0xbcfba51c	-0.030718379
107	0xbd3e7fab	-0.046508472
108	0xbc23cab0	-0.009997055
109	0xbd35745e	-0.04430043
110	0x3d02e37b	0.031955224
111	0xbd1ef58b	-0.038808387
112	0xbd622a09	-0.05521587
113	0xbd6e65e4	-0.05820264
114	0xbd325b07	-0.04354384
115	0xbc5435fd	-0.012952325
116	0x3d4049e3	0.046945464
117	0xbb054125	-0.0020333019
118	0x3bcfcf75	0.0063418695
119	0x38a6b4fc	7.949208e-05
120	0x3d257d60	0.04040277
121	0xbd4eedcd	-0.050519753
122	0x3d4bb5ad	0.049733806
123	0xbcb1ba21	-0.021695198
124	0xbc4e75de	-0.012601344
125	0x3c295803	0.010335925
126	0x3d8d3f80	0.06896877
127	0x3bcd9560	0.0062739104

move_head.weight f4 [5, 128]
0	0x3d2fcdf8	0.042921036
1	0x3c893670	0.01674959
2	0xbce7c853	-0.028293764
3	0x3cac9615	0.021067658
4	0x3d7b54fc	0.061360344
5	0x3c2bcd30	0.010485932
6	0x3d135706	0.035971664
7	0xbc302815	-0.010751744
8	0xbcb2450b	-0.021761438
9	0x3db69fdb	0.08917209
10	0xbcbf2049	-0.023330824
11	0xbd2e9805	-0.042625446
12	0xbdabae70	-0.08382881
13	0x3cfdec51	0.030996474
14	0xbd8fe019	-0.07025165
15	0x3c839a15	0.016064683
16	0xbd4e173d	-0.05031513
17	0xbd7b0568	-0.061284453
18	0xbd88f5e8	-0.06687528
19	0xbb21cb5f	-0.002468787
20	0x3d9cd5ff	0.07658004
21	0xbd47d4fc	-0.048787102
22	0xbdaf402c	-0.08557162
23	0xbd90745f	-0.07053446
24	0x3d35985e	0.04433476
25	0xbd3d4f1c	-0.046218023
26	0x3c10a710	0.008828893
27	0x3b3ca520	0.0028784946
28	0xbd3665c5	-0.04453065
29	0xbc1ac6fa	-0.009446854
30	0x3cf7f4e6	0.030268144
31	0xbcc062a2	-0.023484532
32	0x3db17fea	0.08666976
33	0xbb5637e9	-0.0032687134
34	0x3c2b2389	0.010445484
35	0x3d13207c	0.03591965
36	0xbd1784e4	-0.03699197
37	0xbcc2906a	-0.023750503
38	0x3d5d6771	0.054053728
39	0x3d417d58	0.047238678
40	0x3d7d5cd2	0.0618561
41	0x3d88fd18	0.06688899
42	0xbc49d50d	-0.012318862
43	0x3ce4d90d	0.02793553
44	0xbd246737	-0.040137496
45	0xbd0eb27c	-0.034838185
46	0xbda400fd	-0.08008001
47	0x3d12cea5	0.035841603
48	0xbd892128	-0.06695777
49	0x3c8e5b27	0.01737745
50	0x3d17c310	0.03705126
51	0xbd639180	-0.05555868
52	0xbcb56128	-0.022141054
53	0x3d88b593	0.066752575
54	0xbc6cb426	-0.014447248
55	0xbdab5e5f	-0.08367609
56	0xbd5fb4c3	-0.054615747
57	0xbc4cf089	-0.01250852
58	0x3db0a5a6	0.08625345
59	0x3c5d0f00	0.013492346
60	0x3d19308d	0.037399817
61	0x3b35abf8	0.002772091
62	0x3d7c298e	0.061563067
63	0x3c24ace7	0.010050989
64	0xbc928a5f	-0.017888246
65	0x3b7012d6	0.003663232
66	0xbc9d8f9d	-0.01923352
67	0xbce9815d	-0.028504068
68	0xbd637157	-0.05552801
69	0xbd9c0533	-0.07618179
70	0x3da1fdc5	0.07909731
71	0x3d142ca7	0.036175396
72	0xbcff61ca	-0.03117456
73	0xbc794477	-0.015214077
74	0x3daedcbb	0.08538195
75	0xba4d1b36	-0.0007824184
76	0x3d932dad	0.07186446
77	0x3d873d6e	0.06603514
78	0x3c5452f3	0.01295923
79	0x3c563325	0.013073717
80	0xbd8963f5	-0.067085184
81	0x3d6cf09a	0.057846643
82	0x3c78f8f1	0.015196071
83	0xbc98815e	-0.018616375
84	0xbd85e38c	-0.06537542
85	0x3d0261d7	0.03183159
86	0xbda927de	-0.08259557
87	0x3ba03ecb	0.004890298
88	0x3c39823f	0.011322557
89	0xbbc15827	-0.005900401
90	0x3da0682d	0.0783237
91	0x3badda63	0.0053055747
92	0x3d815233	0.063145064
93	0x3d174aaf	0.03693646
94	0x3db3fc5f	0.0878837
95	0x3cad4557	0.021151228
96	0x3d3208a7	0.043465283
97	0x3d746a5e	0.059671752
98	0x3d113f79	0.035460923
99	0xbd08136c	-0.033221647
100	0xbda044fa	-0.07825656
101	0x3d400c49	0.046886716
102	0x3d6ffce1	0.058590773
103	0xbd1a89f7	-0.03772923
104	0x3d9b4be6	0.07582836
105	0xbbeacde3	-0.007165657
106	0xbd826059	-0.06366033
107	0x3d153c26	0.036434315
108	0x3c9b066f	0.018923966
109	0xbd884146	-0.06653075
110	0xbcf692a5	-0.030099222
111	0x3d923a77	0.071400575
112	0xbd163406	-0.036670707
113	0x385e8776	5.3055082e-05
114	0xbc4e9bb0	-0.012610361
115	0x3bc46679	0.005993661
116	0xbd6f643c	-0.0584452
117	0x3d76ad6d	0.060223985
118	0x3d5782c1	0.05261493
119	0x3d0ec112	0.034852095
120	0xbda8ac36	-0.08235972
121	0xbd7a704b	-0.061142247
122	0x3d698de4	0.057020083
123	0xbda9965c	-0.08280632
124	0xbd06aee1	-0.03288162
125	0x3db1337e	0.086523995
126	0x3d658f76	0.056045018
127	0xbd9ecbc8	-0.07753712
128	0xbc774914	-0.015093107
129	0xbd06f79d	-0.032950986
130	0x3da65a6b	0.081227146
131	0x3bf43ad3	0.0074533015
132	0x3d3aab6c	0.045573637
133	0x3cefb88b	0.029262802
134	0x3bcd1244	0.006258281
135	0xbd018aa3	-0.031626355
136	0x3dced0cf	0.10098421
137	0xbca717e1	-0.020397129
138	0xbd00c7be	-0.03144049
139	0x3d381e7c	0.044950947
140	0xbd0bcf1c	-0.03413306
141	0xbdb49bea	-0.08818801
142	0x3d6d23fe	0.057895653
143	0xbdcc95ea	-0.09989531
144	0x3c93176d	0.017955506
145	0xbbbd1960	-0.005770847
146	0xbbff1e90	-0.0077856258
147	0x3d0a9d63	0.033841502
148	0xbda3ce63	-0.079983495
149	0xbcce58fe	-0.02518892
150	0xbc3f092b	-0.011659901
151	0x3d9d3bb9	0.07677407
152	0xbdb2cf0d	-0.08730898
153	0xbce3c7eb	-0.02780529
154	0x3ce8c42a	0.02841385
155	0x3d064ff5	0.032791097
156	0xbca11494	-0.019663133
157	0x3b4ba815	0.0031075526
158	0x3c7570e0	0.014980525
159	0xbc8c9ed9	-0.017165588
160	0xbd4fa7d7	-0.050697174
161	0x3d01a166	0.031648062
162	0x3d485b89	0.04891542
163	0xbc5bd7e5	-0.0134181725
164	0xbdc77f87	-0.09741121
165	0x3d3eebe5	0.046611685
166	0xbd0d6697	-0.034521665
167	0xbd7cb23a	-0.061693408
168	0x3daf3689	0.08555324
169	0x3bc5bec3	0.0060347035
170	0x3d146c78	0.036236256
171	0xbd902d2e	-0.07039867
172	0x3d0f76af	0.035025295
173	0x3c9b529b	0.018960288
174	0x3d80e1f1	0.06293095
175	0x3d0164d9	0.031590316
176	0x3d262dbf	0.04057097
177	0x3d8406d5	0.064466156
178	0x3c96e3f1	0.018419238
179	0x3dc4d75f	0.09611391
180	0x3c290777	0.010316721
181	0xbd543f6a	-0.05181829
182	0xbd0e198b	-0.03469233
183	0xbd281405	-0.041034717
184	0x3d9add50	0.07561743
185	0x3d2f751e	0.0428363
186	0xbc4005f5	-0.01172017
187	0xbd96e5a9	-0.07368023
188	0x3d187a92	0.037226267
189	0x3d1a2bd7	0.037639465
190	0xbd98464d	-0.07435284
191	0xbd036e54	-0.03208764
192	0x3cd6d4e7	0.026224567
193	0x3d59c0c4	0.05316235
194	0xbd8f19cc	-0.06987342
195	0xbda71f3d	-0.08160255
196	0xbd8d7a72	-0.0690812
197	0x3d3ba18e	0.045808367
198	0x3da9e4c3	0.08295586
199	0x3bb23640	0.005438596
200	0xbda259f2	-0.07927312
201	0x3c4d3955	0.012525876
202	0xbcef5d10	-0.02921918
203	0x3dce4e3e	0.10073517
204	0x3ca41c68	0.020033076
205	0xbd970045	-0.07373098
206	0xbd947d36	-0.072504446
207	0xbd8048bf	-0.06263875
208	0xbdb11b78	-0.086478174
209	0xbdafa4b3	-0.08576336
210	0x3dc352d8	0.095372856
211	0xbd7a7231	-0.061144058
212	0xbd997863	-0.07493665
213	0x3d3c838f	0.0460239
214	0x3d269476	0.040668927
215	0xbd7b15a9	-0.061299954
216	0xbda22110	-0.079164624
217	0x3d7b5ce8	0.0613679
218	0x3cc7203f	0.024307368
219	0xbd70547f	-0.05867433
220	0xbdcbfd47	-0.09960418
221	0xbd48587a	-0.048912503
222	0x3d85518f	0.06509697
223	0x3bb5a24d	0.0055430294
224	0x3d8b5151	0.06802619
225	0xbd933f31	-0.07189787
226	0x3dbde8d1	0.09272922
227	0x3d828842	0.06373645
228	0x3d8205bc	0.0634875
229	0x3c8bbbb1	0.017057272
230	0xbd53cdc5	-0.05170991
231	0x3d5e3c47	0.054256704
232	0xbc29d355	-0.010365327
233	0xbd0d738e	-0.03453403
234	0xbb33572f	-0.0027365198
235	0xbdbf12a2	-0.09329726
236	0xbcebe9f4	-0.028798081
237	0xbd3286ba	-0.043585517
238	0x3d25c9ce	0.04047566
239	0xbbf65ead	-0.0075186105
240	0x3abd598b	0.0014446242
241	0xbd95285b	-0.07283088
242	0x3d62f9ca	0.055414
243	0xbd0bc1bb	-0.034120303
244	0x3cbd80d2	0.023132715
245	0xbcec88fd	-0.028873915
246	0x3da64e8d	0.08120451
247	0x3d389ba5	0.04507031
248	0x3d217e7e	0.039427273
249	0x3bcd7ed7	0.006271224
250	0x3c9fc56c	0.019503318
251	0xbd4123af	-0.04715317
252	0xbb41a9fb	-0.002955078
253	0xbdcac3fc	-0.09900662
254	0x3d9ca28c	0.07648191
255	0x3d9ee704	0.077589065

move_head.bias f4 [5]
0	0xbc99e8fe	-0.018787857
1	0xbcc14d4f	-0.023596434
2	0x3be21028	0.0068988986
3	0xbd228870	-0.0396809
4	0x3a567c83	0.0008182006
