checkpoints/simple_world_comm_v3_scratch/simple_world_comm_v3_agent_0_ep450.pt (torch, 431111 bytes, 8 tensors)

body.0.weight f4 [256, 28]
000000 6d 68 5e bc 71 9d ee 3b ea 77 aa bd 3a 40 ae bd
       -0.013574702 0.007281952 -0.08323653 -0.08508344
000010 af bb c8 3d ea af 22 be 0c d7 46 be a0 ec 23 3e
       0.09801423 -0.15887418 -0.19417971 0.16008234
000020 e0 4b 7a bd ac 5c eb bd 83 54 2e bd c4 3c b7 3d
       -0.061107516 -0.11492285 -0.042561065 0.08947137
000030 07 0e f5 3d a6 36 4d bc ca b9 e9 bd 05 63 c6 bc
       0.11965566 -0.012525236 -0.114123896 -0.024217138
000040 e4 7c c9 3d 5c db 6b 3c 6c 5b f6 bd 96 e7 30 3c
       0.09838274 0.014395561 -0.12029156 0.010797402
000050 5b 10 84 3d aa c5 ca 3d 20 6a 6d bd 88 f3 c8 3d
       0.06448432 0.09900983 -0.057962537 0.09812075
000060 33 2e 06 3d 41 de db bd 69 6d d1 bd 63 3e 05 3e
       0.032758903 -0.10735751 -0.102259465 0.1301208
000070 b8 54 bb bd 8d 45 2c be cd fb 36 3e c3 42 28 3d
       -0.09147018 -0.16823407 0.17869492 0.041079294
000080 8f 78 e5 3d f6 7c bf 3d c1 87 49 be ea 5c 6c bd
       0.11204635 0.09350006 -0.19680692 -0.057705797
000090 25 21 3d be 5a 0b 3b 3e 90 20 46 be 91 75 58 bd
       -0.18469675 0.18266049 -0.19348359 -0.052846495
0000a0 bc d4 29 be f2 08 29 be 2f e9 14 3d 36 6f 73 bd
       -0.16585058 -0.16507319 0.036355194 -0.05943223
0000b0 ff 20 02 be e2 e0 1f bd d1 3d ba bd 9e 11 fb bd
       -0.127079 -0.039032824 -0.09093822 -0.122592196
0000c0 95 f2 87 bd 4c 7f 34 be a1 c4 bb bc bd 79 50 bb
       -0.06638066 -0.17626685 -0.022920908 -0.0031810843
0000d0 38 01 a3 bc 9f 93 0b 3e 7e de d7 bd 29 29 81 bd
       -0.019898042 0.13630532 -0.10540484 -0.06306679
0000e0 6c 53 2b be ca a1 5b bd 78 d0 9d bc 04 56 31 3e
       -0.16731042 -0.05362109 -0.019264445 0.17317969
0000f0 db 7a cd 3d b8 99 09 be 90 30 e1 bc 0b c9 64 3d
       0.100331984 -0.13437545 -0.027488977 0.055855792
000100 7b 45 0f 3e c8 66 61 3d 4d 08 10 be ee 57 03 3d
       0.13991348 0.05502966 -0.14065666 0.03206628
000110 1f c0 50 bd 0c c1 1d be 54 01 12 be 21 98 28 be
       -0.05096447 -0.15405673 -0.14258319 -0.16464283
000120 07 28 f0 3d 71 50 cf bd b0 5f e5 bd d6 47 ef bc
       0.117263846 -0.10122765 -0.111998916 -0.029209059
000130 da 81 16 be d1 43 3f 3e 28 ce c4 3d af de 0f be
       -0.14697972 0.18678214 0.09609634 -0.14049791
000140 b8 a0 06 3e 49 72 07 3e 82 c9 c3 3d b2 5c 84 bd
       0.13147247 0.1322719 0.09559919 -0.06462993
000150 a0 b5 27 3e 35 87 1c be c0 a5 3e 3e d4 0a 00 3d
       0.16377878 -0.15285952 0.18617916 0.031260327
000160 95 dc 00 3d c8 b2 b4 bd 8f b6 07 be 94 ef 27 3e
       0.031460363 -0.08823162 -0.13253234 0.16399986
000170 2b ac 5e 3d 88 1f c8 3c 3d 11 3d be 11 8c 1c 3d
       0.05436341 0.024429098 -0.18463607 0.038219515
000180 30 fb 49 be 4f 69 c4 bd 80 22 3d 3b 5f 0b 30 be
       -0.19724727 -0.095903985 0.0028859675 -0.17191838
000190 2f cd 2d 3c 6c e0 9e bd 75 41 30 be 57 b7 04 3e
       0.010608002 -0.07757649 -0.1721247 0.12960564
0001a0 da ef 9c 3d b8 f0 04 be 97 6e 8d 3d b8 e4 35 3e
       0.076629356 -0.12982452 0.06905859 0.1776303
0001b0 c8 3f b1 bd f7 a3 b7 3c 21 57 02 be 48 19 cf 3d
       -0.086547434 0.022417052 -0.1272855 0.10112244
0001c0 24 14 e1 bd 7e d0 1a 3e 94 ec 6c bd 1b f6 dc 3d
       -0.1099017 0.15118596 -0.057842806 0.107891284
0001d0 b9 ed 25 3e 15 01 d4 3d 44 85 24 3e 3d cd 22 3e
       0.16203965 0.10351769 0.16066462 0.15898605
0001e0 3a f1 29 be 8d 96 17 3e fc 5a e1 bd d2 c7 0e 3e
       -0.16595927 0.14803524 -0.11003682 0.13943413
0001f0 5d be ca 3d e4 63 1b 3e fe 9e a3 bd 78 24 14 be
       0.0989959 0.15174824 -0.0798931 -0.14467037
000200 24 d9 b4 bd c1 cc 38 3e ef 07 05 b9 e3 df f5 3d
       -0.08830479 0.18046857 -0.00012686824 0.12005594
000210 38 d3 1e 3e 16 c6 c8 3d 6a 8d 0b be 9b a0 fc 3d
       0.15510261 0.09803407 -0.13628164 0.123353206
000220 8a 9d 2d bc b9 e0 07 be a9 09 08 be 0d ee 31 bd
       -0.010596642 -0.13269319 -0.13284935 -0.043439914
000230 df 73 80 bd 9b 07 a6 bc 6c 70 18 3e 1b 83 90 3d
       -0.06272101 -0.020267298 0.14886636 0.070562564
000240 4a 27 3f be 22 88 f3 bd 50 15 30 3e 66 d7 1a 3e
       -0.18667331 -0.118912 0.1719563 0.1512123
000250 ae f0 05 be 76 81 f9 3d 7a 0b e7 bc 4f 4a 15 be
       -0.13080093 0.12182896 -0.028203715 -0.14579128
000260 4d 52 f0 bd 5b 56 62 bd 65 65 26 3d 7c 70 34 bd
       -0.11734448 -0.055258136 0.04062404 -0.044052586
000270 2d d7 ad bd 5d c2 3d 3d 6e 12 0c be ec 54 97 3d
       -0.08488307 0.046327937 -0.13678905 0.073892444
000280 be 41 1a 3e a1 37 fc bd 7a 7d b2 bc e1 6e 1c 3e
       0.15064141 -0.12315298 -0.021788348 0.15276672
000290 7f e0 05 3e f7 2e 96 3d 07 bb ea bd 28 4c 95 3d
       0.1307392 0.073331766 -0.11461454 0.07289916
0002a0 57 f9 9f 3d 66 ea 4b bd 69 a1 f3 bd 41 e7 06 be
       0.0781123 -0.049784087 -0.11896021 -0.13174154
0002b0 ef f3 ff bc 68 35 d1 bd 3a bd 37 be 3e 59 1f 3d
       -0.031244246 -0.102152646 -0.17943278 0.038903467
0002c0 42 95 42 be 3f c9 00 3e d9 06 26 3e 12 aa 16 3e
       -0.1900225 0.1257677 0.1621355 0.14713314
0002d0 da f1 61 3d 6b 60 21 be a9 10 da bd ac 53 c0 bd
       0.05516229 -0.15759437 -0.10647709 -0.09390959
0002e0 26 b9 bc bd 95 87 ea bd 46 02 f5 bc 46 04 10 3e
       -0.09215002 -0.114516415 -0.02990831 0.1406413
0002f0 d3 82 94 bd df a1 53 3b 10 06 96 bc 81 b0 6d bd
       -0.07251515 0.0032292528 -0.018313438 -0.058029655
000300 9b ad 24 be 41 2f 2d 3e 1e c2 d4 bd d4 66 1d be
       -0.1608185 0.16912557 -0.103885874 -0.15371257
000310 a6 fe e4 3d e8 37 db 3d fb 94 0c 3c 44 21 bb 3d
       0.11181383 0.10704023 0.008580442 0.09137204
000320 f3 b0 01 be 35 58 32 be 3b e0 72 3d b3 8d 0f 3e
       -0.12665157 -0.17416461 0.059295874 0.14018898
000330 75 46 20 3d e2 18 bc 3c a0 6f 1f 3e 04 9b 3a 3d
       0.039129693 0.022961084 0.15569925 0.04555799
000340 20 b0 01 3e a7 51 16 3d d0 9a 53 3b c6 29 0d bd
       0.12664843 0.036698963 0.003228832 -0.034463666
000350 f6 f0 99 3d 4a ae ba 3d 8c 52 4f bd 5b be ad bd
       0.07516663 0.09115274 -0.050615832 -0.08483573
000360 e0 84 1b 3e 83 ec 94 3d fb bf b3 bd 1b 0a 38 be
       0.15187407 0.072716735 -0.08776852 -0.17972605
000370 a5 78 0a be 65 1d 5a 38 b0 ec 31 be 54 28 13 3e
       -0.13522585 5.2002626e-05 -0.17375445 0.14370853
000380 fe 50 3d be 7e 3c 9e bd 4c 44 24 bd 8f 5e 42 be
       -0.18487927 -0.07726382 -0.040104195 -0.18981384
000390 b2 c2 fc bd 08 f3 35 be b1 b4 5a bd aa f5 a9 3d
       -0.12341823 -0.1776849 -0.053394977 0.0829881
0003a0 dd e5 15 be b4 44 00 bd 04 a8 10 3e 18 e6 33 be
       -0.14638467 -0.03131552 0.14126593 -0.17568243
0003b0 7b 93 1d 3e 06 45 72 3c 22 fe 43 3e fc 97 96 bc
       0.1538829 0.014786964 0.19139913 -0.018383019
0003c0 85 1c 1f be cd cf 75 3d 9e b9 1f 3e 5e 25 e7 3d
       -0.15538223 0.060012627 0.15598151 0.11286424
0003d0 ca 53 cd bd b7 33 b0 bc ec 95 ec bd 06 e2 3c 3d
       -0.10025747 -0.021509035 -0.11552033 0.04611399
0003e0 20 74 0a 3d cf d8 f5 3c 91 6d 56 3d 3e ac ef ba
       0.03380215 0.030010609 0.052350584 -0.0018285585
0003f0 ad 2f ad bd b1 c0 a4 3d 05 ec 38 be 56 b3 1a 3e
       -0.08456359 0.080445655 -0.18058784 0.15107474

body.0.bias f4 [256]
000000 86 e6 35 3e ea 8f a6 bd 72 1d b6 3c d4 af 40 3e
       0.17763719 -0.08132918 0.022230837 0.18817073
000010 33 e3 94 bd d0 5b 6e bd 3c 2a 87 3c 06 66 67 3d
       -0.07269897 -0.058193028 0.016499631 0.05649378
000020 72 06 d2 bd 66 c6 5c bd 8b c0 a2 bd 8d 41 9e 3d
       -0.102551356 -0.053900145 -0.07946881 0.077273466
000030 51 3b 2a be 23 d5 0b be b3 46 45 3e fa 8d 04 3e
       -0.1662419 -0.13655524 0.19265251 0.12944785
000040 4d 8f bd bd 1c 6b ea bd b7 e2 95 3d bc 68 d9 bd
       -0.09255848 -0.11446211 0.07318633 -0.106156796
000050 65 98 6d bd bc d9 04 be d9 0f 60 bd a8 5e 17 3e
       -0.058006663 -0.12973684 -0.054702614 0.14782202
000060 33 f3 2a 3e 44 17 31 3e 3a 0d 9f 3c 0d fe fc bc
       0.16694336 0.17294031 0.019415487 -0.03088286
000070 79 95 0e be 68 69 3d 3d e0 1c 4a 3e 1d 7d 9c 3d
       -0.13924207 0.0462431 0.19737577 0.07641051
000080 03 78 b9 3d 90 aa 1a be d2 4f b8 3c d0 2d fd 3d
       0.090560935 -0.15104127 0.022498999 0.12362254
000090 5d 63 c6 bc d0 83 90 3c 9a d6 20 be ad b0 41 bc
       -0.024217302 0.017640978 -0.15706864 -0.011821908
0000a0 ef cc 14 3e 26 59 e1 bd 15 26 eb 3d db fb af 3d
       0.14531301 -0.11003332 0.11481873 0.085929595
0000b0 bb ea 1e 3e 5d c0 29 be fa 9e 2b 3e cf ee 3e 3e
       0.1551923 -0.16577287 0.16759863 0.18645786
0000c0 72 43 30 3c 1d 9e 45 be aa a7 cd bc eb 40 ba 3d
       0.010758268 -0.19298597 -0.025104363 0.09094413
0000d0 83 01 cb 3c 15 ef 10 be a9 d2 bd 3d 9b a1 19 3d
       0.024780994 -0.14153703 0.09268696 0.037507635
0000e0 60 53 e9 3c 55 54 1d 3e 9d 49 e4 3d 2b 74 18 be
       0.02848214 0.15364201 0.11146853 -0.14888065
0000f0 96 c6 6d bd 31 34 0a 3d 90 18 91 bd 01 41 ae 3d
       -0.058050714 0.03374118 -0.07084763 0.08508492
000100 dd 2b 34 3e de fb 34 be 0b 0d e6 3c 2c ca 21 bd
       0.17594858 -0.17674205 0.028082391 -0.039499447
000110 ac e9 10 3e a7 67 cb bc 1b 76 12 bd a0 f0 1c be
       0.14151639 -0.024829699 -0.035757165 -0.15326166
000120 da f5 30 3e 43 7a 13 bd b1 08 36 3e 85 1c ce bd
       0.17281285 -0.03600527 0.17776753 -0.100640334
000130 97 02 cc 3d a7 c8 24 be 95 1c 1e 3e cd 9f e2 3d
       0.099614315 -0.16092168 0.1544059 0.11065636
000140 7e 18 24 3e c1 39 a2 3d 48 bd 93 3d 1e 6f c6 bd
       0.16024968 0.07921172 0.07213837 -0.09689163
000150 82 1a 71 3c ea 84 bc 3c f8 11 00 be 62 08 b8 3d
       0.014715793 0.023012597 -0.12506855 0.08985974
000160 7b 71 95 3d 80 7a 02 be 6f d7 2a be 83 fb 1b bc
       0.07297035 -0.12742043 -0.16683744 -0.009520414
000170 38 9c 1b be 01 c7 16 bc 47 39 12 3e 45 cd 21 be
       -0.15196311 -0.00920272 0.14279662 -0.1580096
000180 fa 1e d0 bc af f1 9d 3d 17 d3 04 bd df 00 23 be
       -0.025405396 0.07712113 -0.032427873 -0.15918301
000190 35 e9 1b 3e f7 0d 90 bd 9c 5c af 3d f7 e1 87 3d
       0.1522568 -0.070339136 0.08562586 0.06634896
0001a0 be 3f df bc 56 12 f2 bc d1 51 c1 bd ae 96 db 3d
       -0.027252074 -0.029549759 -0.09439433 0.10722099
0001b0 b6 34 28 be 15 be 25 be c1 9d 85 bd 78 9c a8 bd
       -0.16426358 -0.16185792 -0.0652423 -0.08232969
0001c0 4d 27 ce 3d bd b9 b3 3d d0 ab 74 bd ed 49 10 be
       0.1006609 0.08775661 -0.059734166 -0.140907
0001d0 d1 56 cc 3d 4a 77 45 3e 04 e6 34 3d 34 b3 68 3d
       0.099774964 0.19283786 0.044164672 0.056811526
0001e0 9a 56 f9 3d 4a c7 10 3e a3 3d 85 bd 5a 4c 0e be
       0.12174721 0.14138523 -0.06505897 -0.13896313
0001f0 b6 23 b0 bd f3 f9 3e bd 35 c4 39 be 39 70 8c ba
       -0.08600561 -0.04662509 -0.18141253 -0.0010714597
000200 8a 86 12 be 91 a8 e0 3d 7a 78 36 bc 1e b8 fa bd
       -0.14309135 0.109696515 -0.011137122 -0.12242149
000210 cf 49 3f bd 16 6f 9a bc 95 3a 59 3d 75 58 2b 3e
       -0.04670125 -0.018851798 0.053034384 0.16732962
000220 b5 31 02 be 3d 7d da 3d e4 8a f6 3b 24 6e 86 3d
       -0.12714274 0.106684186 0.0075238813 0.065639764
000230 56 f6 0b be 49 12 11 3e ce 7e 17 3e 6f 34 cc 3d
       -0.13668188 0.14167131 0.14794466 0.099709384
000240 ef 3e fc bd c8 6c 36 3d 62 65 35 bc f1 bd ba 3b
       -0.12316691 0.044537336 -0.011071535 0.0056989123
000250 d4 92 dd 3c 4e d6 28 be 33 9c e8 3b e3 b3 49 bd
       0.027047552 -0.16488001 0.0070986985 -0.04924382
000260 af 98 af bd 5d ab 33 3e 49 ba da bd 61 c0 1f 3e
       -0.08574044 0.17545839 -0.10680062 0.1560073
000270 3f 8f 97 3d bc 04 f0 3c 00 a4 00 3e aa 31 19 3e
       0.07400369 0.029299133 0.12562561 0.14960352
000280 e4 02 39 be 79 a9 16 3e 64 05 ad bc 0b aa 17 3e
       -0.18067509 0.14713086 -0.021120735 0.1481096
000290 81 47 42 3d 52 05 14 bd 95 ab 6e bd 37 b2 e7 bc
       0.047431473 -0.036137886 -0.058269102 -0.028283222
0002a0 ef 91 59 bd 85 79 44 3e 42 fc c8 bd a3 c7 2c bd
       -0.05311769 0.19186981 -0.09813739 -0.042182576
0002b0 53 42 ea bd 1a 7e 41 3e 34 77 0a 3e 61 dc 23 3d
       -0.114384316 0.1889576 0.13522035 0.04000509
0002c0 01 71 7c bd 56 86 c8 3d c1 b3 32 be b0 67 73 3a
       -0.061631206 0.097912475 -0.17451383 0.0009285165
0002d0 e9 d2 e6 bd cc 86 d0 bc 70 ec ec bd 44 15 14 be
       -0.11270697 -0.025454901 -0.115685344 -0.14461237
0002e0 23 b2 5e 3d 7f c2 ba 3d b0 60 94 3c 2e d0 28 3e
       0.054369103 0.091191284 0.01811251 0.16485664
0002f0 f4 11 cd 3d f3 5b 03 3e 65 a3 1b 3d 38 e5 9e bd
       0.1001319 0.12828045 0.037997622 -0.07758564
000300 65 fd 0b be e9 3a b6 3d 34 66 e7 bd 54 f8 bf 3c
       -0.13670881 0.08897955 -0.112987906 0.023433842
000310 a4 0a f7 3d ca ff 80 bd 55 42 a2 3c 7c b8 a9 3c
       0.120625764 -0.06298788 0.01980702 0.020717852
000320 c8 77 95 3d 4a fd 7c 3b 06 18 58 3d ce e4 1a 3e
       0.07298237 0.003860312 0.052757286 0.15126345
000330 7b 12 04 3d 19 65 f5 3d 39 b7 b8 3c 84 46 2a 3e
       0.032244187 0.119821735 0.022548305 0.16628462
000340 0d 8e 89 3d dc 11 dc bd 4f 53 5d 3d 36 e9 96 3b
       0.06716547 -0.10745594 0.054034527 0.0046054376
000350 76 e1 d1 3d 2e 45 0f bc 35 78 39 be 8e 1e b5 3d
       0.102480814 -0.008744521 -0.18112262 0.088437185
000360 41 9a 80 bc 24 1e a7 3d 02 c7 27 be 3d a0 d5 bd
       -0.015698554 0.08160046 -0.16384509 -0.10430954
000370 50 cf 98 bd 4e 7e 04 3e e6 da fe 3d 1c 7c 00 be
       -0.07461417 0.12938806 0.12444095 -0.12547344
000380 82 68 d2 3d 8a d3 68 bb 33 3a 9f 3d fe af c5 bd
       0.102738395 -0.0035526478 0.077747725 -0.096527085
000390 63 8a a0 bd 2b 67 20 3e 91 8a f0 3d 28 1f 1b be
       -0.07838895 0.15664355 0.117451794 -0.15148604
0003a0 20 b9 59 3c b8 da 3b be 13 d8 0b 3e 93 5f e4 bd
       0.013288766 -0.18345153 0.13656645 -0.11151042
0003b0 14 f0 17 be eb 9e 65 bc 6e 46 b4 3c 08 17 a2 3d
       -0.14837676 -0.01401494 0.02200624 0.07914549
0003c0 d4 f9 01 be af 52 83 3d ff 63 b1 bd 8a 9c f7 3d
       -0.12692958 0.06412255 -0.08661651 0.12090404
0003d0 f9 d7 16 3d 0c 8c 11 be e6 60 cd bd 82 e6 b8 bc
       0.03682706 -0.1421358 -0.100282475 -0.022570852
0003e0 3f 9e aa bd e1 8c a4 bc 07 6e 7c bd 1d fb ef 3d
       -0.08330964 -0.020086708 -0.061628368 0.11717818
0003f0 75 d7 d8 3c be d7 17 3e d7 4d 24 be d8 26 a5 bd
       0.026469925 0.14828393 -0.16045319 -0.080640495

body.2.weight f4 [256, 256]
000000 a9 c8 15 ba b0 d1 f7 3c e7 2c 23 bc 9d 8a 32 bc
       -0.00057137996 0.030251354 -0.009959436 -0.010897306
000010 28 76 14 bd 0a 1e 95 3c f2 9d 9e 3c fb ac 46 3a
       -0.036245495 0.0182028 0.019362424 0.00075788767
000020 ee f7 f6 3c 6f 92 e0 bb b1 7b 4a 3d 50 85 86 ba
       0.030147519 -0.0068533937 0.049434368 -0.0010263119
000030 b2 34 ac 3c 52 78 77 3d 5d 9e 24 bd a4 97 28 bd
       0.02102122 0.06041748 -0.04019009 -0.04116024
000040 35 ea 4d 3c 28 a6 f7 3b 19 62 88 bc 8f be 50 3c
       0.012568046 0.007557649 -0.01664834 0.012740745
000050 1a db f0 bc b9 eb 4f bd 31 6e bd bc 04 94 93 bc
       -0.02940135 -0.050761912 -0.023123832 -0.018014915
000060 cb ca c3 bc a5 4a 82 3b 1d 55 ee 3a 1d ac f5 3a
       -0.02390041 0.0039761835 0.0018183325 0.001874331
000070 ca f7 15 bd 16 b2 c3 bc a0 d6 53 3d f4 d4 46 bd
       -0.036613263 -0.023888629 0.051718354 -0.04854293
000080 16 58 03 bd d5 c6 27 bd 2c cd ef bb 8d 79 b0 3c
       -0.032066427 -0.040961105 -0.0073181596 0.021542335
000090 bc af 2b 3d 9f ff ce 3b 9c 16 8f 3d d8 1f 8c 3d
       0.04191564 0.0063170935 0.06986734 0.06842011
0000a0 09 5d 6d 3d 84 e7 ed bc bd 3c de 3c d6 eb c1 ba
       0.057950053 -0.02904106 0.027128572 -0.0014795016
0000b0 ff 56 1d bd ee 2d 2e 3d 7c 58 20 bd b1 3c 8c bd
       -0.038413044 0.04252427 -0.039146885 -0.068475135
0000c0 26 5a 04 3d c3 ba d4 3c 88 6c 65 3d 60 b8 a5 3d
       0.032312535 0.025967961 0.056011707 0.08091807
0000d0 4b 21 df 3c 96 95 ef bc 5c 0d b9 bc 8c 20 28 3d
       0.027237555 -0.029246133 -0.022589378 0.041046664
0000e0 c3 d2 7e bc 7d d8 66 bd 1f 7a 70 bd af 5b 09 3d
       -0.015553179 -0.056358803 -0.058710214 0.033534702
0000f0 14 93 50 bd bd 71 f4 3c d1 50 ef 3c 20 3d 3e 3d
       -0.050921515 0.02983939 0.029213341 0.046445012
000100 a2 a9 87 bb 51 1f 24 3d 2c 88 7b 3c c2 28 0c 3d
       -0.004140095 0.04006893 0.01535229 0.034218557
000110 26 b2 19 3d bb 5e dd 3c 7b 86 1a 3d f9 4a bf bc
       0.03752341 0.02702271 0.037725907 -0.02335118
000120 ca ce ce bc 83 03 c6 bc 6e 5f 57 bd 10 30 66 bc
       -0.02524509 -0.024171596 -0.052581243 -0.014049545
000130 00 85 55 3d ee e9 c7 bc 1e c9 72 3d 44 7e 83 3d
       0.05212879 -0.024403539 0.05927383 0.06420568
000140 a7 28 ef 3c 99 29 ea 3c b9 ec 31 3d ef a5 17 3c
       0.02919419 0.028584288 0.043438647 0.00925587
000150 13 c4 13 3d b3 b3 31 bc 8a 1c c7 bc 5f 2f 4c 3d
       0.036075663 -0.010846066 -0.0243056 0.049849864
000160 d1 f1 a7 bc dc ce 86 3d 5e 93 71 3d e8 80 61 bc
       -0.02050105 0.06582424 0.05897843 -0.013763644
000170 1e 7b 05 3d 58 18 8a 3d 2d bb 19 3d 4e 53 16 bd
       0.032588117 0.067429245 0.03753202 -0.03670054
000180 c9 91 88 bd ad 9b 14 bd 14 25 7b 3c 1b a9 10 3c
       -0.06668431 -0.036281276 0.015328664 0.00882938
000190 49 8f 89 3d f5 ac 33 bd 1f 51 c9 bb 47 c5 03 bd
       0.067167826 -0.043866117 -0.0061437036 -0.03217056
0001a0 e0 51 bb bc b4 de 13 3c 4e d3 13 bd 6d 3f be bc
       -0.02286619 0.0090252645 -0.036090188 -0.023223603
0001b0 af f5 5f bc 5c 0f f9 bc 50 8c 5c 3d 0a 97 42 ba
       -0.013669415 -0.030402832 0.05384475 -0.0007423019
0001c0 31 e0 09 3d 70 f5 6c ba b0 b0 98 3b db 5d 4a 3c
       0.03366107 -0.00090392586 0.0046597347 0.012351478
0001d0 5f 0e f4 3c 1f cb 23 3c ad 8f b4 3b 05 23 1d 3c
       0.029792009 0.009997158 0.0055102916 0.009590869
0001e0 fe 30 8f 3a 72 a4 b8 3c 48 93 4e 3c 1a 6b 76 3d
       0.0010924635 0.022539351 0.012608357 0.060160734
0001f0 84 0c bb bb 77 37 5f 3c b1 c3 d2 bb 4d 61 3b 3b
       -0.005708279 0.013624064 -0.0064320196 0.0028591931
000200 75 cb 9b bc 94 cb 95 3c 57 5e 4f bd ca 26 63 bc
       -0.019017914 0.01828555 -0.05062708 -0.0138642285
000210 e9 84 11 bd 61 3b 3b bd 9d f5 20 3d 7d fe d6 bb
       -0.035527144 -0.045710925 0.039296735 -0.006561099
000220 c4 aa 4e 3c 23 60 cf 3c b4 12 d8 bb 2f 85 44 3c
       0.012613956 0.025314396 -0.0065940265 0.011994644
000230 e3 62 c9 3c c2 52 80 3d 52 0e 0e 3c 7d ac 4e bd
       0.024583286 0.06265785 0.008670406 -0.050457466
000240 37 ee 83 3d c8 dc 42 bc d6 e4 40 bd eb 45 46 3d
       0.0644192 -0.011893459 -0.047093235 0.048406523
000250 26 01 7a 3c 67 1e 57 3d 34 bc 50 3c 5a f1 8a bc
       0.015259063 0.05251923 0.012740184 -0.016960789
000260 55 d7 72 3d 6c 97 c9 3b af cb 8a bd 6f 6f a4 bc
       0.059287388 0.006152084 -0.06777131 -0.020072667
000270 9e f4 13 bd ff 09 65 bc dd 6a 45 bd 86 1b df bc
       -0.036121957 -0.013979434 -0.048197616 -0.027234804
000280 0f fa 0b bd 55 82 48 3d 6f 49 8a 3d 9f 59 7b bc
       -0.03417402 0.04895242 0.067522876 -0.015341192
000290 9c 5a 4b bd 01 58 41 3d 52 80 25 3d e1 80 90 3d
       -0.04964696 0.047203068 0.04040558 0.07055832
0002a0 f9 4c a4 3b 12 1d 37 3c 70 eb c9 3c 08 96 a8 bc
       0.0050140587 0.0111763645 0.024648398 -0.020579353
0002b0 a8 36 6e 3d 22 d4 1d bd 61 7b bf bc a6 0c 87 bb
       0.058157593 -0.038532384 -0.023374261 -0.004121381
0002c0 2c ff 11 3d 2a 11 c4 bc a7 17 ed 3c f2 cd 18 bd
       0.03564374 -0.023933966 0.028941942 -0.03730578
0002d0 76 37 dd bc 25 af b4 3c f1 ef 16 bd a4 21 de b9
       -0.027003985 0.022056172 -0.03684992 -0.00042368204
0002e0 a6 8a 81 3d 7b e8 cc 3c 69 dc c4 bc 95 c3 0f 3c
       0.06325273 0.0250132 -0.024030881 0.008774658
0002f0 7a 1d 75 3d b8 de 0b bd 46 0d 12 3d 6c 30 31 bd
       0.059842564 -0.034147948 0.03565719 -0.04325907
000300 54 54 2d bc 4c e4 5c 3d da 3e 59 bd c1 99 ea bc
       -0.010579187 0.05392866 -0.053038456 -0.028637769
000310 37 f8 8d 3b 7b 56 04 bd 8c 25 56 3d ed 19 a7 bb
       0.004332568 -0.032309037 0.0522819 -0.005099526
000320 83 cc 50 3d e9 d7 61 bd d7 8e 7b 3d 69 48 10 ba
       0.050976288 -0.05513755 0.06141552 -0.0005503954
000330 0b d9 32 bd cc f6 97 3c bb 6e 2a 3b a9 ea 74 3c
       -0.04366402 0.0185503 0.0026005942 0.0149485255
000340 16 36 32 3c 37 1c d5 3b f6 63 92 3c cc 94 86 bc
       0.010877153 0.0065036076 0.01786993 -0.016428374
000350 94 c4 3d bd 06 d8 4b bd 0a b1 88 3d b2 bb 06 3d
       -0.04633005 -0.049766563 0.066743925 0.032893844
000360 81 87 04 bd 67 2c d3 ba 47 af 4a 3d 4e ed d1 bc
       -0.03235579 -0.0016111255 0.049483564 -0.025625851
000370 cb 02 6e 3d e9 4b 12 3d fa 49 d8 3c 4d d6 40 bd
       0.058108132 0.035716925 0.026402462 -0.047079373
000380 e5 4b a0 3d a3 85 8d 3d 68 03 64 bc f5 f5 8c bc
       0.07826976 0.06910255 -0.013916828 -0.017207125
000390 ab 03 7f 3d d2 e8 6a bc ed 41 2c bd 14 0b 2d 3d
       0.062259357 -0.014337735 -0.04205506 0.042246893
0003a0 49 b6 74 3d 57 c3 11 bd 10 8a 6b 3c 86 19 94 3c
       0.059744153 -0.03558668 0.014376178 0.018078577
0003b0 83 e9 79 3c 02 fe 63 3d de af d2 bc a2 25 99 3b
       0.015253427 0.055662163 -0.025718626 0.0046736756
0003c0 e9 5e af bc df d7 d8 3c 4d 74 59 3d ed a9 09 3d
       -0.021407561 0.026470123 0.05308943 0.03360932
0003d0 d6 24 70 bd 3a 9d 66 bd 3b 01 3e bd 10 05 a2 3c
       -0.05862888 -0.056302287 -0.046387892 0.019777805
0003e0 a3 d8 3d 3d 0a 79 13 bd 29 4f 1f 3d 7f b9 80 3d
       0.04634918 -0.036004104 0.038893852 0.062853806
0003f0 b5 2b f3 bc ed 86 2e bc e0 16 39 bd 92 7b 83 3c
       -0.029683927 -0.010652286 -0.04518783 0.016050134

body.2.bias f4 [256]
000000 9b 1d 15 bc 3f eb 22 bd 69 ee af bc d3 be ab 3b
       -0.009101297 -0.03977513 -0.021475988 0.005241254
000010 b5 26 2e bc bc 68 5a 3d c0 6d 22 3d 70 a2 62 bd
       -0.010629346 0.05332254 0.039655447 -0.055330694
000020 0c 14 84 3d 2c 04 df bc f8 17 38 bd 61 bf c9 bc
       0.06449136 -0.027223669 -0.044944733 -0.02462739
000030 44 81 c1 3a ab 4d ce bc 61 1b fc 3c 98 cd 15 3d
       0.0014763256 -0.02518352 0.030774774 0.036573023
000040 9d e9 52 3d ff 8f 82 3d ec 7b 5b bc 92 2d 4c bb
       0.051492322 0.06375121 -0.0133962445 -0.0031155092
000050 1d 5e b8 bc 89 1e f3 3c 6a 94 40 3d 63 8d c9 bc
       -0.022505814 0.029677646 0.04701654 -0.024603551
000060 47 7d 28 3c d1 aa c4 bc 7a c3 ff 39 6e fb 6c 3d
       0.010283775 -0.024007233 0.00048783032 0.05785697
000070 e6 37 e5 bc 30 c7 09 3d 35 16 2c bd e8 b0 d3 3c
       -0.027980756 0.033637226 -0.042013366 0.025841191
000080 65 91 46 bd 15 dc 1f 3d 94 c6 97 3b c1 ac f9 bb
       -0.048478503 0.039028246 0.0046318267 -0.007619471
000090 e4 93 8e bc 59 ef d6 3c 62 54 82 3d e8 be 21 b8
       -0.017404504 0.026237177 0.06363751 -3.8563187e-05
0000a0 b6 2c d5 bb 27 6c 4c bd 30 39 8a bc 4d 7d df 3b
       -0.006505574 -0.04990783 -0.016872972 0.006820357
0000b0 19 36 64 3c e8 d6 36 bb 32 e6 80 bd be 9f 5a 3d
       0.0139289135 -0.002789909 -0.06293906 0.053375
0000c0 4a da 8d 3d bf ac 89 bb 89 1b 56 bd 45 53 60 bd
       0.06926401 -0.004201501 -0.052272353 -0.054766912
0000d0 7c d1 6b 3d 4c b6 81 bd 02 36 23 bd 9b 39 20 bd
       0.057572827 -0.063335985 -0.039846428 -0.039117437
0000e0 fe 53 14 3d b8 a4 5b 3d 65 aa 1b 3d 44 2a 11 3d
       0.036212914 0.053623885 0.038004298 0.0354407
0000f0 99 ad 3a 3d e2 1d 45 3d 57 0d 99 bc 40 dc 5f bd
       0.045575712 0.0481242 -0.018683119 -0.054653406
000100 c6 5a 76 3b 12 3b 36 3d 45 9b 29 3c 3d a6 21 bc
       0.0037590726 0.044489928 0.010351961 -0.009866294
000110 89 f3 c4 3c 79 89 7f 3c f5 c1 93 3c 17 50 4c bc
       0.024041908 0.015596741 0.018036822 -0.012470267
000120 fe de 83 3d 35 88 d8 3c 51 b8 1f 3d ef 2e e2 bc
       0.06439017 0.026432136 0.038994137 -0.02761027
000130 4a 4e 3f bd fa b3 8a 3c 8f 94 cd 3c dc e8 b5 bc
       -0.04670552 0.016931523 0.025095252 -0.022205763
000140 22 ca 0d 3d 20 b6 12 3d 8d 4e 01 bd d2 82 57 3d
       0.034616597 0.03581822 -0.031569052 0.052614994
000150 36 5a 22 bd 03 f3 2b 3d 2f 8c e8 bc 85 1f 8e 3c
       -0.039636813 0.0419798 -0.028387157 0.017349014
000160 f7 33 b9 bc 08 60 1e bd 1e 0f 79 3d 19 f6 43 bd
       -0.022607787 -0.0386658 0.060805432 -0.04784212
000170 d7 29 c5 3c 2c a6 a6 3c ad 3a 0d 3a 2b e8 3b 3d
       0.024067802 0.020342909 0.00053874665 0.04587571
000180 fb e9 c5 bc a7 06 44 3d c3 0a f0 bc f9 f2 ed bc
       -0.024159422 0.047857907 -0.029302007 -0.029046522
000190 9a f2 18 bd 84 0c 0f 3a 89 6c a6 bc c7 a8 6d bc
       -0.037340738 0.0005456882 -0.020315425 -0.014505572
0001a0 de 1f b1 bb cf b1 00 bd 01 aa 55 3d f7 20 2f bd
       -0.00540541 -0.03141957 0.05216408 -0.042756047
0001b0 3c 37 90 3d a4 a5 0b bc 94 e0 3c bc 0e b4 46 3d
       0.07041785 -0.0085233785 -0.011528153 0.048511557
0001c0 bc 0f db 3c bb 32 d3 3c 2c 8b 16 3d 68 06 9a 3c
       0.026740901 0.025781026 0.03675382 0.018801883
0001d0 90 d7 f9 3c 63 0c 0a bb 25 90 97 3c 52 2d 35 bc
       0.030498296 -0.0021064512 0.01850135 -0.0110581685
0001e0 a9 e8 37 3d 9b 38 93 3c 34 15 c6 3a c8 45 84 3d
       0.044899616 0.017971328 0.001511252 0.06458622
0001f0 20 a6 a2 3b 3e f9 15 bc 25 c6 87 3c b2 92 a3 3c
       0.0049636513 -0.009153662 0.016573975 0.01996741
000200 f4 cd 49 3c 80 da 41 bb f5 b1 76 bc a8 d9 57 bc
       0.012317169 -0.00295797 -0.015057077 -0.013174452
000210 df 45 3f 3d d4 06 f4 3b fc 07 35 3c 0e f9 91 3d
       0.046697494 0.007447103 0.011049267 0.071275815
000220 4b 9e 7a 3d 8a a0 f8 bc 04 8a 76 ba 84 66 2f bd
       0.061186116 -0.030349988 -0.0009404721 -0.042822376
000230 18 81 0f bd ea c3 69 bc 24 31 3c 3d bb e9 21 3b
       -0.035035223 -0.014267901 0.0459453 0.0024705965
000240 d6 b9 57 bc 90 e1 27 3d 57 d4 81 3d f5 c2 83 3c
       -0.013166865 0.040986598 0.06339329 0.016084174
000250 80 3f d7 bc c9 e3 04 3d f8 4d 5a bd ac a6 26 bd
       -0.026275396 0.032443795 -0.053297013 -0.040686294
000260 fb 20 c7 bc 30 71 1e bc eb 3c 65 3c 74 9f 0b bd
       -0.024307719 -0.009670541 0.013991575 -0.034087613
000270 9c d6 1f 3d 01 58 e0 bc 91 d0 5a bc 6e 84 2c 3d
       0.039023027 -0.027385714 -0.01335539 0.042118482
000280 78 54 58 3d ce 0e b1 bc db ec d8 bc 23 70 f1 3c
       0.05281493 -0.021613505 -0.026480129 0.029472416
000290 74 65 14 bd 88 40 9a bc 9b 2b 4c 3c 79 6f 12 bd
       -0.036229566 -0.018829599 0.012461568 -0.03575084
0002a0 9b f8 41 3d ca d1 6c bd c7 ec 9b ba a4 11 10 3d
       0.04735623 -0.057817258 -0.0011896127 0.035173073
0002b0 d5 0f 63 3d 2f 1d 96 bc a3 d3 2e 3c d1 04 40 bd
       0.05543502 -0.018324463 0.010670575 -0.046879593
0002c0 eb d7 6e bd 72 41 0a bd 62 b2 21 3d bb e4 34 3d
       -0.058311384 -0.03375382 0.03947676 0.044163447
0002d0 0e b2 6e 3b e2 c9 81 3c e3 43 42 bd 7e 80 56 bd
       0.0036422047 0.015843336 -0.047428023 -0.052368633
0002e0 ea 8c 5c 3d d9 a5 ef bc 2b 8d 15 3c 5c 07 ea 3c
       0.053845324 -0.029253887 0.009127895 0.028567962
0002f0 91 aa 49 3d 9b 57 a0 3c 68 6f 72 3d b7 22 77 bd
       0.04923493 0.019573024 0.059188277 -0.06033584
000300 a5 27 cc bc 44 c6 43 bc 81 18 16 3d f2 54 90 b9
       -0.024921248 -0.011949126 0.036644462 -0.0002752911
000310 0e 8f 12 3c 5f c5 58 bd 96 c6 2c 3d 27 b3 05 3d
       0.00894524 -0.052922603 0.042181574 0.032641556
000320 d2 4e b0 bc 31 57 45 3d 44 ab 0d bb 55 e1 82 3d
       -0.02152196 0.048178855 -0.0021616975 0.06390635
000330 ba 0d 32 3d 3d 96 32 3d 2d 2d 43 bd 9c 3f d4 bc
       0.043470122 0.04360031 -0.047650505 -0.025909238
000340 4e ed 50 3d aa dc 48 3d 45 e9 1c bd 8e 79 7f 3d
       0.05100756 0.049038567 -0.0383084 0.062371783
000350 cc fb 61 3d 0c 99 7d 3d 00 70 7e 3c 95 99 15 bb
       0.055171773 0.061913535 0.015529633 -0.0022827138
000360 b0 c8 25 bd 2d 6b 6b bd 54 b6 6c 3d b6 ee ff 3c
       -0.040474594 -0.057475258 0.05779107 0.031241756
000370 57 1c d7 bc 8d 95 6a 3d 5e f0 7c bd 68 cd 21 bd
       -0.02625863 0.05727153 -0.06175267 -0.03950253
000380 71 43 08 bc ae e8 40 bd 76 7f 55 3d dc d3 04 bd
       -0.0083168605 -0.0470969 0.05212351 -0.032428607
000390 07 b3 46 3d aa 95 58 3d 77 05 a6 bc cc 3b 12 3d
       0.048510578 0.052877106 -0.020266278 0.035701558
0003a0 23 eb 22 3d 59 52 02 bd 95 9c dc 3c 6c 71 38 3c
       0.039775025 -0.031816814 0.026930133 0.011257511
0003b0 03 53 57 3d 86 4b e5 3c 17 f6 22 bd f1 8e c9 bc
       0.0525694 0.027990114 -0.03978547 -0.024604293
0003c0 22 21 c6 3c a3 b9 6c bd f4 10 f5 bc 47 c4 5b 3c
       0.02418572 -0.057794224 -0.02991531 0.013413495
0003d0 11 62 63 3d 14 6c 31 3c f0 91 c2 bc 2e de 55 bd
       0.055513445 0.0108289905 -0.023751229 -0.05221384
0003e0 bb c1 66 bd 04 d5 fe bb d7 b0 54 bd 0c ec 1e 3d
       -0.0563371 -0.0077768583 -0.05192646 0.03879933
0003f0 2f 65 ed 3c ad d9 f2 3c ac 1e 80 3c a4 a0 86 bc
       0.028978912 0.029644812 0.015639625 -0.016434021

body.4.weight f4 [128, 256]
000000 fe 4b 1d bc 94 39 a8 39 94 a2 44 bd 30 69 96 3d
       -0.0096006375 0.00032086356 -0.04800661 0.07344282
000010 d8 89 bb bb 13 eb f0 3b e9 4b 89 3d c2 a4 71 3d
       -0.0057232194 0.007352242 0.06703932 0.058995016
000020 b3 fc c8 3b e1 48 63 bd 62 20 78 bd 40 26 5c 3d
       0.0061336397 -0.055489425 -0.060577758 0.053747416
000030 4f 40 9d bc df 60 14 bd 49 ba 44 3b b0 a2 3d bd
       -0.019195704 -0.036225196 0.0030018261 -0.04629773
000040 b1 bb 63 3d 33 f8 15 3d f9 84 b0 3c 62 35 8a bb
       0.05559892 0.036613654 0.021547781 -0.0042177895
000050 2f 9c 8d bc fc 19 b6 bc 60 69 d7 3c 50 8a 7e bd
       -0.017286388 -0.022229187 0.026295364 -0.062143624
000060 a4 86 34 bc ea 9a fd bb 21 70 89 3c 71 7c 46 3d
       -0.011018429 -0.0077394145 0.0167771 0.04845852
000070 bf 12 e2 bc 9a 16 0b 3b 92 9f a5 bb e7 03 08 3a
       -0.02759683 0.0021223188 -0.0050544227 0.000518857
000080 01 48 64 bc 05 0c ab 3d 3c 05 fa 3b 64 17 08 3d
       -0.013933183 0.08351902 0.0076300185 0.033225432
000090 63 f8 bb 3c 3e 2c d2 3c 41 a2 43 3d 38 2f 0a bc
       0.022945588 0.025655862 0.04776216 -0.008434109
0000a0 de 8c 45 3d 63 67 5e 3b e6 4d 85 bd b2 ef 0f 3d
       0.048230045 0.0033936135 -0.065089986 0.0351407
0000b0 60 7e 6b bd 39 df 3f bc d5 c4 db bc f2 d1 95 3d
       -0.057493567 -0.011710935 -0.026827255 0.073154345
0000c0 13 b1 cf bc cb 06 c1 3c ac c1 26 3d 93 ae 58 bd
       -0.02535299 0.02356281 0.040712044 -0.052900862
0000d0 40 88 7c 3d 8f 59 dd 3b 56 87 03 bd 52 af 28 3d
       0.061653376 0.006755061 -0.03211149 0.041182823
0000e0 4a e3 49 3d 05 f3 39 bc 1a 07 4e 3d 64 01 b7 bc
       0.049289025 -0.011349444 0.05029974 -0.02233953
0000f0 78 59 8c 3d 43 71 39 bd fd b3 b0 bb 28 12 bc bb
       0.06853002 -0.04527403 -0.00539255 -0.005739469
000100 86 a7 3a 3c da 71 f3 bc cb da 28 3d 07 42 e6 3c
       0.01139248 -0.029717375 0.041224282 0.028107656
000110 ab b9 81 3d 17 6d 8f bc 4a 37 d2 3c 21 89 dc 3c
       0.063342415 -0.017508073 0.02566113 0.026920857
000120 04 81 9f 3c 71 0c 57 3b ae 52 b5 bc 29 5d 25 bc
       0.0194707 0.0032813812 -0.022134151 -0.010093012
000130 9f 30 f5 bc 83 36 3e bd 35 9d 59 3d db 24 dd 3b
       -0.02993041 -0.046438705 0.05312844 0.0067487783
000140 3b 91 6e 3d de ce 07 3d 8c 24 57 bd 05 67 09 bd
       0.05824397 0.03315627 -0.05252509 -0.033545513
000150 53 10 58 3d f0 1f 47 3c ef 90 27 3d 14 6b 4b 3c
       0.052749943 0.012153611 0.040909704 0.012415666
000160 05 92 6b bd f5 94 84 3d 57 d7 0a ba 6b 6e 25 bd
       -0.057512302 0.06473724 -0.00052963704 -0.040388506
000170 b5 36 2b 3d bc a3 70 bc 87 43 cb 3c 82 32 23 3c
       0.04180022 -0.014687475 0.024812473 0.0099607725
000180 50 3f e6 bc a0 fe 13 3b 1b a4 27 3c bc 23 f7 bc
       -0.028106362 0.0022582188 0.010231997 -0.030168407
000190 e0 ca 17 bd d8 d2 99 3c 6d 5c 04 bd 99 f8 35 3d
       -0.03705871 0.018777296 -0.032314707 0.044426534
0001a0 5f 13 e5 bc 4c 6d 33 3d a6 59 81 bd 18 10 7b 3d
       -0.027963338 0.043805405 -0.06315927 0.061294645
0001b0 ee 73 f9 3b 0a 89 b3 3b 6b 92 16 bd 2c b4 95 ba
       0.007612697 0.005478983 -0.03676073 -0.0011421493
0001c0 3d 2a 47 3d 77 bf cf 3c 3d a4 07 bd cd 1a 28 bd
       0.048624266 0.025359852 -0.033115614 -0.041041184
0001d0 14 fa 85 3d 37 ed 60 3d 63 d4 0a bd 0a 70 4d bd
       0.06541839 0.054913726 -0.033893954 -0.050155677
0001e0 cf b3 ee bc 3a ab ec bc a8 3e f8 bb 54 07 24 3d
       -0.029138474 -0.028890241 -0.0075758286 0.04004605
0001f0 79 6b 3c 3d 5f 86 20 3c 2b 29 4a bd 5b cf 56 bc
       0.04600093 0.009797662 -0.049355667 -0.013110961
000200 72 88 ce bc 6e 26 1d bd f3 52 e2 bc 58 8e 95 bc
       -0.025211547 -0.038366728 -0.027627444 -0.018256351
000210 63 a0 09 3d 99 c8 ee 3c 11 77 7e 3c 57 2c 93 3c
       0.033600222 0.029148387 0.015531317 0.017965479
000220 49 9c a6 3c 64 28 56 bd 57 96 73 bc c1 d6 8c 3d
       0.020338194 -0.052284613 -0.014867387 0.068768986
000230 b0 c5 d0 3c 04 4e 0c 3d cc 5f fe 3c ef be 65 3d
       0.02548489 0.03425409 0.031051539 0.05609029
000240 ea f9 53 bd 45 3d 30 3d 14 bc 02 bd 52 db de b9
       -0.05175201 0.04302718 -0.031917647 -0.00042506546
000250 cb 77 d0 bb 19 b5 68 bd c6 f9 ff bb 6b e2 d7 bc
       -0.0063619367 -0.056813333 -0.0078117577 -0.026353082
000260 61 e1 28 3d 63 b2 71 3d 20 65 c7 bc e9 8e 64 3d
       0.041230563 0.059008013 -0.024340212 0.055800352
000270 7b 2a 00 bc 8f e9 86 bd 1e 46 1e bd df e6 93 3c
       -0.007822628 -0.065875165 -0.038641088 0.018054424
000280 e1 15 d7 bb 0a 45 2c bd 8f 1b 17 3d 0d 37 2c bd
       -0.0065638875 -0.04205803 0.036891516 -0.042044688
000290 18 d0 06 3d c5 ac 73 bc 0c d7 dd 3c e3 be 6d 3c
       0.032913297 -0.014872734 0.027080081 0.014510843
0002a0 af 09 ae 3c 13 7b 0f 3b 5b d0 a8 3b 79 31 52 3d
       0.021244852 0.0021893426 0.005151791 0.051316712
0002b0 a8 68 b3 bc 0c b2 ab bc 32 b7 4c 3d 90 42 bf bc
       -0.02190049 -0.020958923 0.049979396 -0.02334717
0002c0 1a cc 16 3d ed 1a 60 3d 4d c0 21 bd ff 39 45 bd
       0.03681574 0.05471318 -0.039490033 -0.048151013
0002d0 2b 19 cc bc 44 75 e7 3c a9 13 ff bc 97 99 5f 3d
       -0.024914345 0.028254159 -0.031137304 0.054589834
0002e0 49 41 f8 3c b9 81 aa 3c 0a d8 3a 3c 71 df 50 3d
       0.030304568 0.02081381 0.011404047 0.05099434
0002f0 0a 04 06 3d 7c 00 be bc 6f 10 a1 3c 22 e6 12 bd
       0.032718696 -0.02319359 0.019661156 -0.035864003
000300 c7 98 2f bc 5e 62 60 3d 33 b7 41 3d 34 a2 3d bd
       -0.010717577 0.05478131 0.047293853 -0.046297267
000310 5d 08 dc 3c aa 13 3a 3d c0 0e 83 bc 27 ac 02 3c
       0.026859457 0.04542891 -0.015998244 0.007975615
000320 de 78 63 3d 9f 57 df 3c 1a 2a c0 3c d4 8c 04 bd
       0.05553519 0.02726346 0.023457576 -0.032360867
000330 b8 2f 92 3c da 44 92 3d 3c 5c ce bb 27 bf 13 3c
       0.01784502 0.07142039 -0.0062976163 0.009017742
000340 40 21 97 3d 5b 3c 0d 3c 0e 54 ae bc 7f 23 32 3d
       0.07379389 0.008620347 -0.021280315 0.043490883
000350 4e 71 82 3c 1d 49 31 bd 36 d0 a5 3c 50 ee 81 3c
       0.015923169 -0.043282617 0.020240884 0.015860707
000360 a2 67 81 3d 17 5d 2e bd 1f da 94 ba 4a e7 8e 3a
       0.063185945 -0.042569246 -0.0011356509 0.001090267
000370 7b d3 e3 bc 35 8e 22 bd 29 e5 32 bd 82 ed 6e 3d
       -0.027810803 -0.0396864 -0.043675575 0.058331974
000380 bc 18 3b bb 6e cc 7c 3c 77 83 bd bb 28 2d e5 3c
       -0.0028548678 0.015429599 -0.005783494 0.027975634
000390 85 23 6e 3d 0f 5d 2b bc 74 61 4b 3d 16 22 80 bb
       0.058139343 -0.010459199 0.049653485 -0.0039103134
0003a0 42 b7 0b bd c9 56 24 3d 2c 46 d8 bc 03 35 bf 3c
       -0.034110315 0.040121827 -0.026400648 0.023340708
0003b0 07 59 ff 3c 8a 41 78 3c dc 4e a6 bc d3 6e 23 3d
       0.031170381 0.0151523445 -0.020301275 0.039900612
0003c0 29 dd 59 3d d4 92 ea 3c fb 60 11 bd 2c 22 f4 ba
       0.05318943 0.028634466 -0.03549288 -0.0018625907
0003d0 88 1b 9e bc c8 37 2e 3d 9f 6a 4e bd aa db 7e 3b
       -0.019300237 0.042533666 -0.05039465 0.0038888254
0003e0 56 8c cf bc 54 6e 15 3d 32 63 06 bd 03 56 b6 bc
       -0.025335472 0.03648217 -0.032809444 -0.02225781
0003f0 86 b4 31 3c 4d d3 30 bd 41 fe 6c 3c 32 29 1c 3d
       0.010846263 -0.043170262 0.014464916 0.038125224

body.4.bias f4 [128]
000000 3b 3c 4b 3d 3e de 48 bc 21 2f c9 3b 7c b4 f9 3c
       0.049617987 -0.012260018 0.0061396514 0.03048157
000010 71 6d 3f 3c e5 d0 61 3d 6c c0 f2 bc 04 fa ee 3c
       0.011683808 0.055130858 -0.02963277 0.029171951
000020 da a6 fb 3c 9f e3 17 3d a3 7d 5b bc b1 3c 0a bd
       0.03071921 0.03708231 -0.013396653 -0.033749286
000030 9b 06 a4 bc fc e0 f9 3c 61 a5 0f bd 70 06 5a 3c
       -0.020022681 0.030502789 -0.035069827 0.013307199
000040 3e 3f a7 3c 1e b6 88 bc e1 8b ed 3c ee 2b 23 bd
       0.020415898 -0.016688403 0.028997364 -0.039836816
000050 0f f9 94 3c a8 7d 3c bc 99 46 0d 3d 46 2a 4f bd
       0.018185167 -0.011504568 0.034491155 -0.050577424
000060 63 1d 33 bd fe 88 2a bd 1b 5a 18 3d b7 9b 4e 3d
       -0.043729197 -0.041634552 0.037195306 0.05044147
000070 ad 0e 04 bd 1e d6 cc bc d6 9a f7 bc 50 15 77 3c
       -0.03224056 -0.025004443 -0.030225199 0.015080765
000080 95 56 40 bd 04 4e 97 3c 0c cb ca 3c 91 57 35 3d
       -0.04695757 0.018469818 0.024755023 0.044272963
000090 f1 4c 50 3d bb 2a dd bb b4 1c d2 3c 34 79 19 bd
       0.050854627 -0.0067494786 0.025648452 -0.037469104
0000a0 2f 3f 23 bd 08 4e 25 bc 86 98 42 bd 42 55 80 3d
       -0.03985518 -0.010089405 -0.04750874 0.06266262
0000b0 08 fb c7 bb 0f 70 29 3d f0 3f f7 39 ef 4a 2f 3d
       -0.0061029233 0.041366633 0.00047159148 0.04279607
0000c0 b6 06 19 bd 5c 83 d8 bc 77 5d 0d bc 3a f9 f2 3c
       -0.037359916 -0.026429825 -0.008628241 0.029659856
0000d0 0d 9c 3b bd 66 33 b9 bc b3 23 26 bd 0f f2 7b bd
       -0.04580312 -0.022607516 -0.04056139 -0.061510142
0000e0 a0 d1 53 bd ad 81 a2 ba 91 a2 72 3d d6 7b 53 3c
       -0.051713586 -0.0012398266 0.059237067 0.012907943
0000f0 ec 42 c3 3c 3a cf de bb b6 11 ad 3c 80 b4 66 3b
       0.023835622 -0.0067996057 0.02112661 0.0035202801
000100 4a a1 63 3b 0b 66 d5 bc 8c 9a 06 3a e0 28 4d bd
       0.0034733587 -0.026049634 0.00051347236 -0.05008781
000110 d3 6e 13 bd 13 81 1c 3c 52 89 47 3d a4 b3 30 3d
       -0.035994362 0.009552258 0.048714943 0.04314007
000120 18 40 6a bd a6 ee af 3c b0 15 4b 3d 90 44 f5 3c
       -0.05719003 0.021476101 0.04958123 0.02993992
000130 69 3c a8 bc ed 20 00 3d ca 14 0d 3d 24 db 3d 3d
       -0.020536618 0.0312814 0.034443654 0.046351567
000140 96 ab 0e bc c6 c8 4e bd ce 56 e0 3c 4d 4c 71 3d
       -0.008707901 -0.05048444 0.027385142 0.058910657
000150 9d 55 82 bc 77 0e 41 bd 0f 52 b4 bc 49 7f a3 3c
       -0.015909964 -0.047132935 -0.022011785 0.019958155
000160 f9 b1 1b 3d 33 8b af bc 30 24 55 bd df 3d c5 3c
       0.038011525 -0.02142868 -0.052036464 0.024077354
000170 b9 8d 9a 3b 6f 62 c7 bc 77 9e d8 3b f3 2b b0 3c
       0.0047166017 -0.024338929 0.0066106874 0.021505332
000180 82 a9 15 bc 6c 78 45 bd 0f 69 5f 3d 1d aa ce bc
       -0.009134652 -0.048210546 0.05454355 -0.0252276
000190 6e 65 22 3d ec bb 76 3d e0 ae 39 bd 4a 6f f4 bc
       0.039647512 0.06023781 -0.04533279 -0.029838223
0001a0 5b 0e a9 3c d9 55 4e 3d 76 dd 8b bc 8d 13 7f 3d
       0.020636728 0.05037484 -0.017073374 0.062274504
0001b0 43 36 72 3d 4f 46 14 bd f4 87 07 bd 5d 44 2e bc
       0.05913378 -0.036199864 -0.03308864 -0.010636416
0001c0 b2 4a 00 bd ff 31 21 3d 04 62 65 3b 92 9e 12 bd
       -0.031321235 0.03935432 0.0035001049 -0.035795756
0001d0 bd 2f c6 bc fe 0a 53 3d a4 20 37 bd ee c4 f6 bc
       -0.024192685 0.051524155 -0.044708863 -0.0301232
0001e0 37 6b 21 3d bd ca 29 bc b8 e3 42 3d 88 6e 22 3d
       0.03940889 -0.010363278 0.04758045 0.039656192
0001f0 1d 57 ec 3b 5b 43 85 3d b9 00 e0 bc c5 5a 1a 3d
       0.007212533 0.06506988 -0.027344095 0.03768422

move_head.weight f4 [5, 128]
000000 bb 85 27 bb 3c f9 c9 bc 44 5b 9d bd fc fb 9c 3d
       -0.0025561887 -0.024654977 -0.07683423 0.0766525
000010 dc b5 80 bd 4f de 06 bd f5 6a c9 3c 94 0e ca bc
       -0.06284687 -0.032926854 0.024587134 -0.024665155
000020 87 3c 98 3d 85 d8 09 3d 5f 58 8e bd 27 6c a0 bd
       0.0743342 0.033653755 -0.06950449 -0.078331284
000030 31 13 73 3d ce e7 0b 3c b5 ae 90 3d 5d f6 aa bc
       0.059344474 0.008539153 0.07064573 -0.020869428
000040 27 fe 0c bd df 85 9f bd c4 1f 83 bd e8 a5 a7 bd
       -0.034422066 -0.07789206 -0.06402543 -0.08185941
000050 55 05 06 3d 5a 21 2b 3d 5d 48 7c bd 1a f0 98 bd
       0.03271993 0.041779853 -0.06159245 -0.07467671
000060 18 b0 59 bd 0b aa 9a bd 22 11 6b 3d 92 ce eb bb
       -0.05314645 -0.07551964 0.057389386 -0.007196256
000070 56 2d 82 3d 57 5e 00 3c 56 65 b8 bd c1 d4 45 bd
       0.063563034 0.007834992 -0.09003703 -0.0482986
000080 dd ff 83 3c c0 87 95 3d 2b 6f 14 3c 73 a2 a8 bd
       0.016113216 0.07301283 0.009059708 -0.0823411
000090 af ff 89 3d 2c 3b 4b bd f1 95 92 3d a7 63 7c bb
       0.06738221 -0.049616978 0.07157505 -0.0038511546
0000a0 01 9c b4 bd ab 39 3c bb 53 8c 30 bd d6 da 12 bc
       -0.08818818 -0.0028720896 -0.043102574 -0.008963307
0000b0 59 3f 62 3d e7 cd 3e bc b8 78 ef 3c 41 99 dd 3c
       0.055236194 -0.011645771 0.029232368 0.027050616
0000c0 d1 cc b5 3b 6e cb 99 3d 34 96 6d bc 2e da 78 3c
       0.0055480977 0.07509504 -0.014501143 0.015188737
0000d0 38 e9 51 bc 00 aa 71 3d cd 5d 9f bb c6 0f 18 bd
       -0.012811951 0.059000015 -0.004863477 -0.037124418
0000e0 1d 2b 83 bd fb 21 27 bd 43 16 9e bc 27 36 50 bc
       -0.064047076 -0.04080389 -0.019297725 -0.012708223
0000f0 e0 2a 8e 3d 2b ac 46 bd 08 64 91 bd 4c 35 15 bd
       0.069417715 -0.048504036 -0.070991576 -0.03642778
000100 15 08 11 3d 22 87 44 bd 7d 42 04 bd 01 5d 29 bd
       0.0354081 -0.047980435 -0.03228997 -0.04134846
000110 98 68 9f bd f3 30 af 3c 82 86 01 bd d6 ae 81 bd
       -0.077836215 0.021385645 -0.031622417 -0.063321754
000120 ca ea 02 3d 0a b3 72 3d 48 f2 03 3c ff fd bb bd
       0.031962194 0.059252776 0.00805337 -0.09179305
000130 a1 86 90 bc 0a d2 63 bd d4 5e a9 bd 67 06 a5 bd
       -0.017642321 -0.05562023 -0.0827004 -0.08057862
000140 6b 9d 8a 3d 3d b5 ec 3c 43 26 b0 bd 0b 8d 93 3c
       0.06768306 0.028895015 -0.08601048 0.01801159
000150 7c c6 84 3d 53 81 3d bc 5a e6 92 3d 02 79 21 bd
       0.064831704 -0.011566478 0.07172842 -0.039422043
000160 09 df ad bd e2 2b 8c 3d c6 81 a6 3d 0f a1 54 bd
       -0.08489806 0.068443075 0.08130221 -0.05191141
000170 06 7e 5f bd db 13 bc bd 6f f5 15 bd 33 dd 58 bc
       -0.054563545 -0.09183475 -0.036611017 -0.013236332
000180 09 6a ff 3b 22 5b 01 3d 64 47 61 3d 78 e4 b8 3c
       0.007794623 0.03158105 0.054999724 0.02256988
000190 d1 4d 93 bd 8b 1d 46 3d c6 30 ee 3c 44 55 98 bd
       -0.07192577 0.048368018 0.029075991 -0.07438138
0001a0 20 db 97 bd 11 c2 9f bd e6 e2 a5 bd d3 9d 2d 3d
       -0.07414842 -0.07800687 -0.08099918 0.04238684
0001b0 4a ef 64 bd eb 23 07 bd 7f 2c 11 3d 2c 8e 6d bc
       -0.055892266 -0.03299324 0.035442825 -0.014499228
0001c0 ac 26 57 3c 2f 4d 9a 3d f5 72 dc 3c 25 12 76 3d
       0.013131779 0.07534253 0.026910285 0.060075898
0001d0 21 bb 01 3d 34 bc 86 bd 2f 69 9a 3d cd bc 7f bb
       0.0316726 -0.06578866 0.075395934 -0.0039022446
0001e0 78 64 2d bd 7a 44 3c 3d 98 35 35 bd c4 a5 8f bd
       -0.042332143 0.04596374 -0.044240564 -0.07014039
0001f0 50 8e 19 bc d7 b7 b8 bd c5 2b ba bd d4 94 5b bd
       -0.009372309 -0.0901944 -0.090903796 -0.05360873
000200 d0 7b a7 bd 56 a4 90 bd e0 69 05 bd 00 5a 81 bd
       -0.08177912 -0.070625946 -0.032571673 -0.06315994
000210 08 59 65 3d 67 9f a1 bd 33 2a 37 3d 85 f0 ed bc
       0.05599311 -0.07891732 0.04471798 -0.029045353
000220 57 68 17 bd aa fd 9a bd db 27 92 3d d1 fa 9a bd
       -0.03696474 -0.07567914 0.07136508 -0.07567371
000230 dd 10 2d bd d5 26 a9 bd d5 d5 63 bd c8 20 b1 3b
       -0.04225241 -0.0825936 -0.055623848 0.005405519
000240 c4 0c 92 3d 63 49 ba 3b 0c dc 92 bd ad 4c 70 3d
       0.07131341 0.005685018 -0.07170877 0.058666874
000250 90 3f 96 bd 5f b7 92 bc 0b 44 96 bd dc 6b a2 3d
       -0.07336342 -0.017909704 -0.07337197 0.07930729
000260 6a 4c 34 3d c0 ed a4 3c c8 5e b7 3d 7c 7b 97 3d
       0.044018187 0.0201329 0.08953625 0.073966
000270 7f ec 1d bd 7a 45 94 3d 18 86 b8 bc 5e f4 02 3b
       -0.03855562 0.07239814 -0.022524878 0.001998208
000280 cb 60 aa bd b8 0b 4b 3d 3f 8f 4f bd 1d 80 a4 3d
       -0.08319243 0.049571723 -0.05067372 0.08032248
000290 57 70 a4 3d 65 03 47 bd fc a3 91 bd 99 c9 15 3d
       0.080292396 -0.04858722 -0.07111356 0.03656921
0002a0 8a f4 c8 3d c1 55 22 3d ca 25 44 bd 69 51 33 bd
       0.09812267 0.039632563 -0.0478876 -0.04377881
0002b0 5a 6a 21 3d 09 fe e6 3c 06 b0 0e 3d 4a 3e e3 3c
       0.039408065 0.028197305 0.034835838 0.027739663
0002c0 14 e4 7a 3d 48 7e 91 3c 5c 5c 95 bd e4 0a fc bc
       0.06125267 0.01776041 -0.07293007 -0.030766912
0002d0 6d 39 98 bc 92 63 99 3d 55 ab a5 3d fb 03 ad 3b
       -0.01858207 0.07489695 0.080893196 0.0052800155
0002e0 aa 6e 69 3d ee 55 c6 bc 31 03 a0 bd 1e 1b 87 bd
       0.056990303 -0.024210896 -0.07813109 -0.06596969
0002f0 d0 4c 9d bd 56 99 6b 3c 92 36 d9 bd 89 09 7e bd
       -0.076806664 0.01437982 -0.106061116 -0.062020812
000300 5a 04 99 bd 2a da 83 3c 69 45 cf bd d5 17 92 bd
       -0.07471533 0.01609524 -0.10120661 -0.07133452
000310 a4 c9 37 bd 02 4e 05 bd 91 2e 24 3d 73 ed 68 3d
       -0.044870034 -0.032545097 0.04008347 0.056867074
000320 a3 7b 16 bd cc 04 37 3c 0b c8 96 bd 05 b8 a5 3d
       -0.036739003 0.011170577 -0.07362374 0.080917396
000330 e7 1c 00 bd 74 73 9c bd c2 52 6a 3d c5 6c c9 3d
       -0.031277563 -0.076392084 0.05720783 0.09835199
000340 30 b4 f8 bc 2e 9d 47 bd 8a 57 29 3d 8f 3b 27 3d
       -0.030359358 -0.048733883 0.04134325 0.040828284
000350 47 a5 73 3d f3 5e 2b 3d 4d f4 1b bd d6 a6 9a bd
       0.059483793 0.041838598 -0.03807478 -0.07551353
000360 d0 d8 87 3c a3 d0 8e bb 0f c4 e4 3c 68 07 02 bd
       0.016582876 -0.0043583675 0.02792552 -0.031745344
000370 ab ea 06 3d 6d 50 73 bd 5d df 69 bd 27 32 78 3d
       0.03293864 -0.059402872 -0.05709778 0.060594704
000380 68 a7 a9 3c 8d b7 72 bd b1 63 b5 3d 0e c7 9c 3a
       0.020709708 -0.05925708 0.08856905 0.0011961178
000390 24 72 d9 bc f6 7f f7 bc 83 ca df ba c2 f4 6b 3c
       -0.026543684 -0.030212384 -0.0017073903 0.0144016165
0003a0 c5 05 5c bd 68 ad 12 3d ed d9 17 3b b6 26 46 bd
       -0.05371644 0.035809904 0.0023170665 -0.04837676
0003b0 78 f9 b6 3d a4 0b 9f 3d f0 41 b6 3c b6 fc 91 3d
       0.08934301 0.07765892 0.022248238 0.07128279
0003c0 2a 65 aa 3d a5 f9 24 bd 65 b4 25 bd 5c 1a f2 bc
       0.08320077 -0.040277142 -0.04045524 -0.029553585
0003d0 81 e2 83 3c b7 34 a3 bd 56 fa 9f 3d 49 8f 28 3c
       0.016099216 -0.07969039 0.0781142 0.010288068
0003e0 ce 5c 48 bc 58 9c 87 bd d0 61 11 bc c8 e5 39 3c
       -0.012229158 -0.06621617 -0.008873418 0.011346288
0003f0 f7 7e ac bd d0 a2 84 bd 88 20 71 3d 22 b2 71 bc
       -0.08422654 -0.064763665 0.058868915 -0.014751943

move_head.bias f4 [5]
000000 23 38 b1 3c 74 91 99 bd 82 65 74 bd f3 37 3b 3d
       0.021633213 -0.07498446 -0.059667118 0.045707654
000010 75 ae 0b 3d
       0.034101922
