checkpoints/simple_world_comm_v3_scratch/simple_world_comm_v3_agent_1_ep875.pt (torch, 431111 bytes, 8 tensors)

body.0.weight f4 [256, 28]
000000 6a 36 5a 3d 08 bc 19 3e b5 2d f1 3d 00 3c 1d be
       0.05327455 0.15013134 0.11776296 -0.1535492
000010 53 3e f7 3b 33 61 14 3e 9e 28 e1 bd 3f 14 0a bd
       0.0075452714 0.14490204 -0.10994075 -0.033710714
000020 02 f7 99 bd 13 f5 2c 3e ff ff ce 3d 67 25 d7 3c
       -0.07517816 0.16890363 0.10107421 0.026262952
000030 87 9e e6 3d 4b 3d 06 be d3 fb 2f bd 1f 57 b8 3c
       0.112607054 -0.13109319 -0.042964768 0.02250248
000040 45 7f c0 3d a5 40 0e 3e 45 5c 3b be 76 38 26 be
       0.09399275 0.13891847 -0.18296917 -0.16232476
000050 79 63 0e be 03 e2 87 3d 58 91 3a 3e 71 fa 98 bd
       -0.13905133 0.06634905 0.18219507 -0.07469643
000060 c0 63 bd 3d a1 b4 8e 3b c7 01 bd bc d6 03 20 be
       0.092475414 0.0043550287 -0.023072137 -0.15626463
000070 9b e0 fa 3c 04 14 93 bc 23 4b 09 be fc b1 15 be
       0.030624678 -0.01795388 -0.13407569 -0.14618677
000080 35 97 38 3e 66 13 30 3e b9 c3 f4 bd 07 63 2f 3e
       0.18026431 0.171949 -0.11951394 0.1712762
000090 b1 75 f3 3d 0d c0 a8 3c fa 60 14 3c 46 c4 af 3d
       0.11887682 0.02059939 0.009056324 0.08582358
0000a0 78 b5 4b bd 44 87 2a 3e f4 f0 cc bc 9c 9a 27 be
       -0.04973361 0.16653162 -0.02501724 -0.16367573
0000b0 2b 8b 8c 3d f2 9b 31 bd 0e f5 8b bd da be 1c 3e
       0.06862482 -0.04336161 -0.0683385 0.15307179
0000c0 4b ab ad bd c7 72 85 3c 0e 9b e5 bd 69 18 76 bd
       -0.08479937 0.016290082 -0.11211215 -0.060081873
0000d0 07 30 fa 3d 82 1b e2 bd 3d 9d 21 3e c8 df 12 be
       0.12216192 -0.11040403 0.15782638 -0.14343178
0000e0 3a d3 47 be 00 b0 cf bc 4c 9d 49 bd 17 ff 3b 3c
       -0.1951417 -0.025352478 -0.049222276 0.011474392
0000f0 c0 a6 ea bd 24 f9 25 3c c5 38 de bc df 6a 0a be
       -0.11457586 0.010130201 -0.02712668 -0.1351733
000100 a5 41 8d 3d 4e 47 bb 3d 26 b4 29 3d 6f 62 4b 3d
       0.06897286 0.0914446 0.04143157 0.04965442
000110 25 51 4b 3e 4e 92 c5 bd c3 4e fc 3d 4a 16 46 3d
       0.19855173 -0.09647046 0.1231971 0.0483611
000120 8b 9a 09 3d 00 f5 1f be d2 71 2a 3e 39 d8 ed 3d
       0.03359465 -0.15620804 0.16644982 0.11613507
000130 95 dc ae 3d e3 5e 19 3d 88 35 0b 3e de fb 23 3d
       0.085381664 0.037444007 0.1359464 0.04003512
000140 f2 37 89 bc d0 0a 8e 3d 00 b6 26 be 4e 2f a3 bd
       -0.01675031 0.06935656 -0.16280365 -0.07968007
000150 74 73 33 3b a9 d5 c6 3d 7f 82 d6 3c af 4a 33 3e
       0.0027382048 0.09708721 0.026185272 0.17508958
000160 e2 89 32 3e f7 4b c0 3d 20 2a b3 3d 1f 4a b8 bd
       0.1743541 0.09389489 0.08748269 -0.089985125
000170 42 ff 12 3e 20 04 77 bd 46 83 a9 3d 8a 1e 02 bd
       0.14355186 -0.06030667 0.082769915 -0.031767406
000180 15 a6 29 3e be 94 25 be f8 01 b4 3b ae 8d 8b 3d
       0.16567262 -0.16170022 0.0054933988 0.06814133
000190 6c c9 13 be 4c 31 b3 3d ee 78 e3 3d f9 55 e7 3d
       -0.14432305 0.08749637 0.1110705 0.11295695
0001a0 72 fd 70 bd 01 f0 1c 3e c6 cd e6 bc f6 47 02 be
       -0.058835454 0.15325929 -0.028174292 -0.12722763
0001b0 d9 07 d2 bd ae 52 dd bd ad 1b 27 be 89 7b df bc
       -0.10255403 -0.108067855 -0.16319151 -0.027280586
0001c0 c4 56 95 bb 52 94 18 be 4f 88 06 3e 3f e1 fc bd
       -0.0045574624 -0.1490033 0.13137935 -0.1234765
0001d0 e6 85 70 3d 7a e2 b5 bc 26 18 e4 bc 1a 20 30 3e
       0.058721446 -0.022202719 -0.027843546 0.17199746
0001e0 a1 24 43 be 0f 89 14 3c 83 c2 67 bd 42 eb cb bd
       -0.19056942 0.00906588 -0.056581985 -0.09956981
0001f0 a7 61 0d be 38 9a 21 3e f7 2e cc bd a4 91 14 be
       -0.13806783 0.15781486 -0.09969895 -0.14508682
000200 ae 36 47 bc 6b 25 d2 3d 21 ea 0c 3e ac 18 2f 3e
       -0.012159033 0.10261043 0.13761188 0.17099255
000210 c2 42 b2 bd d1 e4 29 3e f9 2b 04 3e 66 e8 00 3e
       -0.08704139 0.16591193 0.12907399 0.12588653
000220 90 7c 0f 3e 1c 9a 35 3e c5 6b d2 bc 3a 8c e5 bd
       0.1401236 0.1773457 -0.025686154 -0.11208387
000230 9a 50 19 be 7b 2c a8 bd 7f a7 92 bd ad cd 98 3d
       -0.14972153 -0.08211609 -0.071608536 0.074611045
000240 1d 69 37 be e1 ca 54 bd 3f 46 59 bd 2e c0 e3 3c
       -0.17911191 -0.051951293 -0.053045508 0.0278016
000250 47 91 ad ba 64 be b9 bd c5 ca 4a be b0 66 1d 3e
       -0.0013242149 -0.09069517 -0.19803913 0.15371203
000260 d4 36 10 3e 88 70 db 3d 13 8c be bd 80 9f 9b 3d
       0.14083415 0.10714823 -0.09304061 0.075987816
000270 c1 30 c2 bd 5f 68 02 3e ad 4b 8e bd 08 84 a7 bd
       -0.09481955 0.12735127 -0.06948028 -0.0817948
000280 cb cd 79 bd ad ab a4 bd 35 73 69 3d e7 e4 05 3e
       -0.060987275 -0.08040557 0.056994636 0.130756
000290 45 0f 15 3d 1c 6a 7d 3d c6 d9 d9 3c ee 53 8f 3d
       0.036391515 0.061868772 0.0265931 0.0699843
0002a0 84 d7 bc bd 08 52 a1 bd b0 3c 5b 3e 67 fa 37 3e
       -0.09220794 -0.07876974 0.21409869 0.17966615
0002b0 12 33 f4 3c 18 ba 51 bd 2b 2c ed bd 9d c0 18 3d
       0.029809508 -0.051202863 -0.1158069 0.037293065
0002c0 d2 32 55 be 45 5d 43 3c 73 d9 ec 3d ec 86 50 3d
       -0.20820168 0.011924093 0.11564913 0.05090992
0002d0 b2 bf 26 be a2 59 3f be bd 54 8c bd 12 97 1d bd
       -0.16284063 -0.18686536 -0.068521 -0.03847415
0002e0 98 a9 43 bd de 9d e3 ba 2d 51 45 be a4 bf 3f be
       -0.04776916 -0.0017365774 -0.19269247 -0.18725449
0002f0 eb 88 4d be 26 bd 8e bd 37 39 d8 bd 1f e0 3a 3d
       -0.20071761 -0.06969671 -0.10557788 0.045623895
000300 de 43 04 be 9e 1b fc bc 53 f0 29 3e 93 01 db 3c
       -0.12916514 -0.030774888 0.16595583 0.02673415
000310 40 12 a1 3d 41 16 2e 3b 94 26 55 3c 57 8c e8 39
       0.07864809 0.0026563557 0.013009686 0.0004435505
000320 ad 92 f6 3d 8b 23 e9 3d 4d 2a 04 3e d7 f5 e1 bd
       0.12039695 0.113837324 0.12906761 -0.11033218
000330 56 24 26 be 36 14 b5 bd 7c 6b f2 bd e7 26 0a 3e
       -0.16224799 -0.088417456 -0.11836907 0.13491403
000340 93 1f 45 bd c7 3f 09 be 97 9c bc bd 95 fb bc bb
       -0.048125815 -0.13403235 -0.09209555 -0.0057672956
000350 6d ed b6 bd b5 50 15 be 18 8c f2 bd fc 25 0e 3e
       -0.08932004 -0.14581569 -0.11843127 0.13881677
000360 83 52 d8 3d d1 1b ab bb 94 da 07 be b8 89 b3 bd
       0.10562613 -0.005221822 -0.13266975 -0.08766502
000370 0e 6e 57 bd 4e c0 46 bd d2 86 08 bd 49 98 b4 3d
       -0.05259519 -0.04852324 -0.0333317 0.088181086
000380 44 49 f5 bc cc ee 33 3e 65 e7 0f bd e0 0a 32 3e
       -0.029942162 0.17571563 -0.035132784 0.17386961
000390 73 7f 9d 3d 53 cf b1 3d b4 86 88 bd e9 1e 88 bd
       0.07690325 0.08682122 -0.066663176 -0.06646521
0003a0 68 0a 00 be b0 60 79 3c 84 7c f6 3d a9 b4 2f 3d
       -0.1250397 0.015220806 0.12035468 0.0428969
0003b0 e0 4f 36 3e 0b 1b 1a be 3e be 08 3e 0e 14 a7 bd
       0.17803907 -0.15049379 0.13353822 -0.08158122
0003c0 c2 0d 57 3b 5d aa 2d 3d 0c f9 d3 3d 22 a2 8f 3d
       0.0032814597 0.0423988 0.10350236 0.07013346
0003d0 ab 31 39 3e 90 d5 33 be f8 88 55 bc 69 70 2d 3e
       0.18085353 -0.17561936 -0.013033144 0.16937412
0003e0 bb 3c 1e 3d a3 1b 05 be b7 98 38 bd 55 87 b2 3d
       0.038632136 -0.12998824 -0.045067515 0.08717219
0003f0 09 62 1a be b3 54 10 3e fb 5f 32 be 77 d2 f6 3d
       -0.1507646 0.1409481 -0.17419426 0.12051862

body.0.bias f4 [256]
000000 4d c9 f7 3c 20 d3 28 bd 8d d2 8d 3d 3c 0f ea 3d
       0.030247355 -0.04121697 0.06924925 0.11428687
000010 2c 5f 1b 3d 8b aa eb 3d ea ce e7 bd eb 67 5d 3d
       0.03793256 0.11507138 -0.113187626 0.054054182
000020 6b a8 80 bd 63 22 17 be b6 5a dd 3c 4e 00 ab bd
       -0.06282123 -0.14759211 0.027020793 -0.083496675
000030 23 de a1 3d e9 11 14 3e 54 2e 35 3e f4 9c 1a bd
       0.07903697 0.14459957 0.17693454 -0.03774734
000040 14 2f 94 bc 02 68 bc 3d f0 36 03 3d 8f 7a 0d bb
       -0.018088855 0.091995254 0.032034814 -0.0021587943
000050 98 66 9f 3c 12 4b 9f bd 68 80 e7 3d f4 f7 a1 bd
       0.0194581 -0.077779904 0.113037884 -0.079086214
000060 e5 18 1c be 21 9f 00 be 31 d7 15 be 91 c0 1f be
       -0.15243872 -0.12560703 -0.1463287 -0.15600802
000070 43 52 bd 3c b3 4a f4 bd 33 50 23 be ed c3 3d 3d
       0.023110515 -0.1192831 -0.15948562 0.046329428
000080 1c 4d 4d bd ac 75 09 3e cc 6c 43 be 1b a1 d4 bd
       -0.050122365 0.13423795 -0.19084471 -0.10382291
000090 23 29 e1 3c e4 c0 72 3c a9 2e fe bd c7 cd e7 bd
       0.027485436 0.0148164965 -0.124112435 -0.11318546
0000a0 0a 2a 6a 3c c4 ea 8e bb f0 29 1c be cd 2f 2c be
       0.014292249 -0.0043614823 -0.15250373 -0.1681511
0000b0 a5 39 35 bd 80 82 2c 3d b7 cb 2c 3d bc 06 15 be
       -0.044244427 0.042116642 0.042186465 -0.1455335
0000c0 a5 3a f3 bb 07 08 1b be 80 1d 44 be 1f 85 33 3e
       -0.0074227625 -0.15139781 -0.19151878 0.1753125
0000d0 e9 63 81 bd 2c bc cf bd 38 a9 09 3e 15 4e 86 bd
       -0.063178845 -0.10143313 0.13443458 -0.06557862
0000e0 20 e8 05 ba ee ef ee bd 10 e6 f7 bc ca c9 32 3e
       -0.00051081367 -0.11666857 -0.03026107 0.17459789
0000f0 58 8a 48 bd 6b 07 a0 bd 98 54 f5 bd 9b c5 3c 3c
       -0.04896006 -0.07813915 -0.119790256 0.011521722
000100 29 a1 31 3d ad 90 0b bd d3 8f 0f 3e 8e e5 0e 3e
       0.043366585 -0.03407352 0.14019708 0.13954756
000110 39 d8 b9 3d be ea ac bd be e1 45 3e c7 80 c5 bd
       0.09074444 -0.08443211 0.19324395 -0.09643703
000120 ee 1e 16 be 54 09 db 3d 20 4e 5a bd 96 2b e1 bd
       -0.14660236 0.106951386 -0.053297162 -0.109946415
000130 2b b3 d1 3c 27 68 37 3e e2 3e d0 3d d2 c2 77 3c
       0.02559813 0.17910825 0.10168244 0.015122132
000140 1e db 24 3e 22 45 e6 3b 2d 36 67 3d 3c aa 9d 3a
       0.16099212 0.0070272842 0.05644815 0.0012028883
000150 ef 8f 9c 3d ba bc 97 bd 80 bb 94 bc f3 2c dc 3d
       0.07644641 -0.074090436 -0.018155813 0.10750761
000160 3a 7b 2b bd a6 c1 2e 3e c7 0a 46 3e 9f e9 bf 3c
       -0.041865565 0.17066059 0.19340049 0.023426829
000170 72 bd f4 3d d2 95 9b 3d 6a 80 a9 3c d3 c2 22 3e
       0.11950196 0.07596935 0.020691115 0.15894632
000180 15 45 59 bb 58 1a 2a be 4f 82 8a 3d 90 e9 61 bc
       -0.0033152748 -0.16611612 0.06763136 -0.013788596
000190 df 8d 4e 3d 25 8a 3d 3e 4e 91 d9 3d 2d 12 2c 3e
       0.050428268 0.18509729 0.10623418 0.16803809
0001a0 5c 70 8d bb 96 cc 2b 3d 10 4f bd bd 05 08 0c 3e
       -0.004316373 0.041943155 -0.092435956 0.13674934
0001b0 cb b2 df bd 1a ef 50 3d 54 f5 e5 3d 8b 47 9b 3d
       -0.10922774 0.051009275 0.11228433 0.07582005
0001c0 54 31 07 be e5 11 f3 bd 63 c9 1a 3e de f8 95 bd
       -0.13202411 -0.118686475 0.15115885 -0.07322858
0001d0 d0 f4 3c be 36 2d 0d bd 47 d1 d5 3d bc 44 de bc
       -0.18452764 -0.034466945 0.10440307 -0.027132384
0001e0 60 04 e0 bd 2a 6b 43 be b4 48 3d 3d cf 00 80 bd
       -0.109383345 -0.19083849 0.046211913 -0.06250154
0001f0 fd 42 30 3e de 40 98 bd 39 c1 9a bd db eb 11 3e
       0.17213054 -0.074342474 -0.075563855 0.14250128
000200 b0 e5 c0 3b c2 05 82 3d f1 c1 2b be 2c 7f 47 bc
       0.005886756 0.063487545 -0.16773202 -0.012176316
000210 fe 2b 01 3e 54 3b 45 be 68 be 19 3e 02 6c f9 bd
       0.12614438 -0.19260913 0.1501404 -0.12178804
000220 c4 ac 34 be cf f0 ca 3c b4 9e 3f 3e 99 2b e8 3d
       -0.1764403 0.02477303 0.18712884 0.113364406
000230 7b cf 14 3e 39 4c d5 3d ed d5 be bd cc d5 17 be
       0.14532273 0.10414929 -0.09318147 -0.14827651
000240 cc 51 48 3e 5a e1 8b bd bd a3 7f 3d 03 3e 84 bd
       0.19562453 -0.06830092 0.062412012 -0.0645714
000250 66 e8 1d be 2d 45 3c 3e 1b ae e1 3c db 49 85 3d
       -0.15420684 0.18385763 0.02754884 0.065082274
000260 1f ab a3 3d be 33 27 be 09 9a ca 3d c6 67 97 bc
       0.07991623 -0.16328332 0.09892661 -0.0184821
000270 d1 09 b3 3d 9c f5 1f 3e ea 51 f9 bd b1 cc 04 3e
       0.08742107 0.15621036 -0.12173827 0.12968709
000280 74 b4 12 be d5 d8 2b 3d 65 80 01 3e 10 a2 f3 3c
       -0.1432665 0.041954834 0.12646635 0.029740363
000290 12 1d 02 be e7 36 9e bc 4c 54 1f bd f1 8f 37 bb
       -0.12706402 -0.019313289 -0.03889875 -0.002800938
0002a0 6a ba fc bd 83 2f 0b 3e 61 13 07 be a6 eb 11 3d
       -0.12340243 0.13592343 -0.13190986 0.035625122
0002b0 e3 d0 a1 bd 42 4d fb 3d f1 25 9e bd f9 f8 f8 bd
       -0.0790117 0.12270595 -0.077220805 -0.12156863
0002c0 76 c1 1b be 61 cf 1f 3e 63 74 be 3c e2 06 12 3c
       -0.15210518 0.15606453 0.023248857 0.008912774
0002d0 d6 47 1b 3e 22 f6 41 bd 9c ac f1 3d c7 45 0e be
       0.15164122 -0.04735387 0.11800501 -0.13893805
0002e0 0b ca 3e 3e 90 67 bb bd e8 10 09 be 5b 2e 0b bd
       0.18631761 -0.09150612 -0.13385355 -0.033979755
0002f0 b8 03 ee 3d 4a 0f 25 be bc e6 3a 3e de 51 03 be
       0.11621803 -0.16119114 0.1825208 -0.12824199
000300 2e 18 e4 bd 5d 2e 28 be e0 cd b4 bd 6e 33 c7 bd
       -0.111374244 -0.16423936 -0.0882833 -0.09726606
000310 ab 63 30 bd d0 85 dd 3d 69 b1 10 bc fd f8 3e 3e
       -0.0430638 0.10816538 -0.00883136 0.18649669
000320 5c 47 87 3d d9 68 27 be 49 c3 1e 3d 6d bd 26 be
       0.066054076 -0.1634859 0.038760457 -0.16283198
000330 09 16 11 3d e9 36 0b 3e d9 8c 49 3c fc 7c 38 bd
       0.035421405 0.13595165 0.012301647 -0.04504107
000340 38 a2 ed bd 5d 73 08 be 3e 3a 0a be 0c 4e 91 3d
       -0.116032064 -0.13325258 -0.1349878 0.070949644
000350 54 d9 0f be ef 35 04 be d7 5a fb 3d f1 16 85 3d
       -0.14047748 -0.12911199 0.12273186 0.06498516
000360 66 2e 54 bd bb ff 2e 3d 8c 4e 2a be 53 cf 1e be
       -0.05180206 0.042724352 -0.16631526 -0.15508775
000370 f3 1f 26 3e 6d dc 76 bc 6d b1 a4 3d 84 b6 41 be
       0.16223125 -0.015067202 0.08041654 -0.1891728
000380 3a 6d 0e 3e f1 19 e1 3c 08 2c 4e bd 07 9d bd bd
       0.13908854 0.02747819 -0.05033496 -0.09258466
000390 b3 90 44 be 90 c5 00 be 11 2a 11 3e 28 8d cc 3c
       -0.19195823 -0.12575364 0.14176203 0.024969652
0003a0 a3 30 bc 3d 3f a9 ea 3d b9 55 50 3d 57 f4 b7 3d
       0.09188964 0.114580624 0.050863 0.08982151
0003b0 d7 13 b2 bc 9f a1 f9 bd 83 ee e1 3d 5d a7 db bd
       -0.021737976 -0.1218903 0.110318206 -0.107252814
0003c0 74 49 8a bd 0f 08 b7 3d bb da b0 bd 9e 9d d2 3c
       -0.06752291 0.08937084 -0.086354695 0.025709923
0003d0 eb ad 10 3e 26 54 32 be f4 e3 e4 bd a0 3e 16 be
       0.14128844 -0.17414913 -0.11176291 -0.14672327
0003e0 70 f3 8c bd be 20 7d bd 04 2c cf 3d 58 04 36 3e
       -0.068823695 -0.061798804 0.10115817 0.17775095
0003f0 bb f9 4c bd 24 d9 1a be be 40 24 3e d2 21 d8 3d
       -0.05004285 -0.15121895 0.16040322 0.10553326

body.2.weight f4 [256, 256]
000000 90 7f 06 bd 3b 38 0c bd 15 72 6e bb 5a 4e bd 3c
       -0.032836497 -0.034233313 -0.0036383916 0.02310865
000010 b5 72 48 bd 75 3d 74 3d cc 54 82 3d 71 92 e1 3c
       -0.04893752 0.059628922 0.0636383 0.027535649
000020 bd af 55 3d e0 1f 78 bd 96 6d 7b bc f8 c7 4a bd
       0.05216955 -0.060577273 -0.015345952 -0.04950711
000030 49 ac 0c 3d a3 85 54 3c 5f e9 b4 3c 66 7c 13 3c
       0.03434399 0.012971315 0.022083936 0.009001827
000040 02 6d 0d bb a7 d3 5a bd 18 29 03 3d a3 39 02 3d
       -0.0021579866 -0.053424504 0.032021612 0.031793248
000050 98 bf d7 3c 8f 7f b6 bc 63 bd 9f bc 91 5b 20 bd
       0.026336476 -0.022277622 -0.019499486 -0.039149825
000060 e1 e6 ca 3c 79 b1 e4 3b 16 a6 5a bd 30 fd 35 bc
       0.024768295 0.006979164 -0.05338105 -0.011107728
000070 f6 65 98 ba 1d ee 8e 3c c6 f1 6a 3d 13 64 a0 3c
       -0.0011627066 0.017447526 0.05735948 0.01957897
000080 58 d4 7e bd c3 27 8f 3c 25 f4 b3 3c 22 8f 03 3d
       -0.062214226 0.017475015 0.021967003 0.032118924
000090 1d a2 28 bc b6 f0 8b 3d ac c6 07 bd 0c c7 17 bc
       -0.010292557 0.06833021 -0.033148453 -0.009263765
0000a0 b3 0e 04 3d 09 8c 07 3d 17 73 a7 bc 21 32 1e bd
       0.03224058 0.033092532 -0.020440621 -0.038622025
0000b0 e4 62 ed 3c 77 27 64 bd f8 f6 2d 3d e8 0a a0 3c
       0.028977819 -0.0557017 0.042471856 0.01953645
0000c0 74 49 90 3c c6 1c ed 3c ef d0 a2 3b 27 c8 83 bd
       0.01761315 0.028944384 0.0049687545 -0.064346604
0000d0 36 26 f3 3c 6e ea 21 bc 50 85 32 bd c3 9f d7 3c
       0.029681306 -0.009882553 -0.043584168 0.026321298
0000e0 78 61 29 bc 46 f0 12 3d d9 2e 61 3c 6d 9b 42 3d
       -0.01033818 0.035873674 0.0137440795 0.047511507
0000f0 fc d2 fd 3c 86 2f 73 bc 6b 52 2c bd 25 d5 4d 3d
       0.030984394 -0.014842873 -0.042070787 0.0502521
000100 c3 85 31 bd a8 e4 55 bd f3 0a 92 bd 4d 11 93 bc
       -0.043340456 -0.052220017 -0.07130995 -0.017952586
000110 b9 77 54 3d f8 7c e5 3c ed d1 05 bd e4 a8 08 bd
       0.05187199 0.028013691 -0.032670904 -0.03336419
000120 c9 c2 d9 bc 93 ca 83 3c fa 4e 28 3c 21 93 95 bb
       -0.026582139 0.016087806 0.010272736 -0.0045646583
000130 4e 17 13 3d e6 13 29 bd 3f ca a7 3c da 5f b6 3c
       0.035910897 -0.041278742 0.02048218 0.022262502
000140 41 ab c1 3c 64 f6 84 3c 9a b7 f2 bc 5a 01 11 3d
       0.02364123 0.01623077 -0.029628564 0.03540168
000150 f3 35 19 bd dd c2 49 3d 3f 29 9c 3c 7d d4 2b bd
       -0.037404966 0.0492581 0.019062636 -0.04195069
000160 e0 0e f5 bc 18 a2 c3 bb e6 05 7b 3d fb d1 47 3c
       -0.02991432 -0.005970251 0.061284922 0.012196059
000170 53 4c 5d 3d c7 b0 48 bd b8 9f 8c bc 6f e3 80 bd
       0.054027867 -0.048996713 -0.017166004 -0.062933795
000180 a0 90 e9 bc 9b 0d 44 3d e4 3c 66 bd 83 c9 a3 3b
       -0.028511345 0.047864538 -0.056210414 0.0049983873
000190 4f e4 11 bd c1 7c 3a 3d 2b 3b 09 bd 68 03 83 3a
       -0.035618123 0.04552913 -0.033503693 0.0009995522
0001a0 34 87 3d bc d7 43 bb 3c 93 e7 4a bd 2a ea da 3c
       -0.0115678795 0.022859497 -0.049537253 0.026722986
0001b0 be 5b 06 bd d0 ec 0a bd 8f 3c 6b 3d 42 d5 8a bd
       -0.032802336 -0.03391725 0.0574308 -0.06778957
0001c0 a9 89 0a 3d 38 51 83 3a 9a a7 c9 37 ab 7d 73 bc
       0.03382269 0.0010018712 2.4039113e-05 -0.014861505
0001d0 f8 6b 75 3d c3 81 57 3c 74 4c 3f b9 d8 bf b8 bc
       0.05991742 0.013153496 -0.0001824366 -0.022552416
0001e0 61 4e e3 bc 23 bd 0b 3d de 2b 48 3c a2 1e 59 3d
       -0.027747335 0.03411592 0.01221749 0.05300773
0001f0 02 b0 c4 3b 6c 25 63 bd 9e 01 21 bd 2a 0c 72 3d
       0.006002427 -0.05545561 -0.039308183 0.05909363
000200 11 14 f4 3b 27 6d 27 bd 23 f7 c6 bb 1b 58 66 bb
       0.007448681 -0.04087558 -0.0060719415 -0.003514773
000210 62 0d 4d 3d ee 2d 42 3d 14 7c aa bc 89 0d 95 ba
       0.05006159 0.047407083 -0.020811118 -0.0011371832
000220 84 94 9a 3b 5a d6 8c 3c bd 4a 91 bc d3 d0 6d bb
       0.0047174115 0.017192055 -0.017735833 -0.00362878
000230 79 38 3b bc 8f 98 70 bd 6a d9 94 bd 8a ab 31 3d
       -0.011427038 -0.05873924 -0.07268031 0.043376483
000240 0d 1e 07 3d d7 9b ef bc c2 1e 91 3c bd 60 28 3d
       0.032987643 -0.029249115 0.017714862 0.04110788
000250 d8 ad 06 3d f6 67 a8 3c d7 1b 94 bd 0c 49 71 bd
       0.032880634 0.020557385 -0.072318725 -0.058907554
000260 8e 25 62 3c 87 45 49 bb 17 a5 1c 3d 65 11 40 3d
       0.013802899 -0.0030711608 0.03824338 0.04689159
000270 d4 0e 48 3d 48 f9 3e bd 46 f1 39 3b ca 71 2c bc
       0.048842266 -0.046624452 0.002837257 -0.010525176
000280 66 f2 f3 bc 27 2c 05 bd 9a 9f 3a 3d d8 b3 da bb
       -0.02977867 -0.03251281 0.045562364 -0.006674271
000290 b8 e5 04 bd 69 a7 84 3c 4a df 43 bd 61 48 5f bd
       -0.03244564 0.016193109 -0.047820367 -0.054512385
0002a0 d2 95 31 bd 88 48 3f 3b bd 8f d0 3c 3c ae 31 bd
       -0.04335577 0.002918752 0.025459165 -0.043379053
0002b0 88 75 19 bd 24 ae b7 39 88 1e a0 bb 65 e9 c1 3c
       -0.037465602 0.00035034225 -0.004886452 0.023670861
0002c0 24 f7 c7 bc 6d 17 86 3d 1b af fd 3c 0d 55 f8 bc
       -0.024409838 0.06547437 0.030967286 -0.030313993
0002d0 60 10 ac bc bb 2d 3c 3d 14 1c 89 bd 99 0e 26 3d
       -0.021003902 0.04594205 -0.066948086 0.040541265
0002e0 1c 57 81 3d 35 db 94 bc a6 36 30 3c 8f 28 74 bd
       0.06315443 -0.018170932 0.010755217 -0.059608992
0002f0 81 e7 4b 3d 9c 55 81 3d d3 d5 44 bd 42 88 cd 3c
       0.049781326 0.06315157 -0.04805548 0.025089387
000300 6d 2f c7 3c 26 a9 ef bc ca 29 82 3c dd a2 4f bc
       0.024314607 -0.029255461 0.015889067 -0.012673107
000310 1f 90 fb bc c3 e0 29 3d d5 4c 15 3d a8 75 94 bd
       -0.03070837 0.041474115 0.036450226 -0.07249004
000320 2f 5d 2a 3d 52 d8 6d 3c c2 a1 0a 3d 95 da 86 bc
       0.041592773 0.014516907 0.03384567 -0.01646165
000330 ee c4 6d bd 3c a7 09 bc 36 71 0e 3d 93 3b ad 3c
       -0.058049135 -0.008401688 0.034775935 0.021146571
000340 f8 d9 89 3c 00 d0 61 bd 3e 29 46 bd 15 ad 4c bd
       0.016827568 -0.055130005 -0.048379175 -0.04996975
000350 ef 49 06 bd b0 42 e9 bc 33 81 1a 3d e9 7f 83 3c
       -0.032785352 -0.028474182 0.03772087 0.016052203
000360 d3 f9 c0 3c 65 fb c5 bc 45 0d db 3c f6 2d 75 bc
       0.023556625 -0.024167726 0.026739726 -0.014964571
000370 d5 6a 54 3d 1b 4d 34 bd 8b e3 0a bd 25 cd 3e 3d
       0.051859695 -0.044018846 -0.033908408 0.04658236
000380 9b 34 15 bc f3 b3 46 bc e6 aa b6 3c a7 b7 5a 3d
       -0.00910678 -0.012127864 0.022298288 0.0533978
000390 66 8c 6a bd a2 1d 5a 3d 31 bd 33 bd a9 30 ea 3c
       -0.0572628 0.053250916 -0.0438816 0.028587656
0003a0 60 ea 29 bd 29 f9 7b 3d 42 47 07 3d 0c 8a 72 3b
       -0.041483283 0.061516915 0.03302694 0.0037008552
0003b0 07 4a 30 bc 36 30 8e bc 70 bb 79 3d bd 7d 63 3c
       -0.010759837 -0.017356973 0.06096977 0.013884959
0003c0 33 a4 c7 bc 6a 55 eb 3c 90 92 56 bd af bd 39 3d
       -0.024370288 0.028727252 -0.052385867 0.045346912
0003d0 2a 21 8b bc e3 3a f3 bc 99 7f b0 bc 7d 7c 2c 3b
       -0.016983587 -0.029691165 -0.021545218 0.0026319318
0003e0 80 2b fc bc a4 06 dd 3c 1f ee 14 3c 05 bc ca 3a
       -0.030782461 0.026980706 0.009089976 0.0015467411
0003f0 ea 7f 85 3b f3 4b 14 3d 08 b9 16 3d 1b e2 bb 3c
       0.0040740864 0.036205243 0.036797553 0.022934964

body.2.bias f4 [256]
000000 65 a6 31 3c 14 e6 a6 3c 9a 2c d1 bc 0d 7a 82 bc
       0.010842894 0.020373382 -0.025533963 -0.015927339
000010 12 7a 8b 3d 5e ac 83 3d ae ce 9a bb fa 57 01 3d
       0.068103924 0.06429361 -0.004724345 0.03157804
000020 19 46 d5 3b 59 a0 3c 3d e8 ad 8a bd 23 e7 32 3d
       0.0065086004 0.046051357 -0.06771451 0.04367746
000030 51 a2 1f 3d a2 a6 2f bd a8 90 93 3c f4 ec 82 3b
       0.038973156 -0.042883523 0.018013313 0.003995532
000040 4d 63 ab bb 06 6b 78 3b d5 0d 37 bd de 46 1b ba
       -0.0052303434 0.0037905588 -0.044690926 -0.0005923341
000050 4b 73 59 bc c9 9a 0e 3d ee 42 09 bc 9f c4 02 3d
       -0.013272117 0.034815583 -0.008377774 0.031925794
000060 7e 1b 8b 3c 82 89 46 bd 75 d2 fc bb 3e 2e f5 3a
       0.016980883 -0.04847098 -0.007715518 0.0018705798
000070 bc dd da bc 7f 63 0e 3d 4f c0 70 3d d3 6f 14 3d
       -0.02671706 0.034762856 0.05877715 0.036239456
000080 06 e4 3b 3d e9 bf 5d bd 83 20 62 bd cd aa 16 bd
       0.045871757 -0.054138098 -0.055206787 -0.036783982
000090 50 cd 1e bd 0b 74 36 3d 17 e9 7b 3d 9a 59 38 bd
       -0.03877002 0.04454426 0.06150159 -0.045007326
0000a0 86 b7 28 3d 82 06 89 3d d6 18 cb 3c 1d e7 bc bb
       0.041190647 0.066906944 0.024792116 -0.0057648555
0000b0 a9 9e 99 bb bb f4 de bc a2 fa 4b 3d 09 81 42 bd
       -0.004688103 -0.027216306 0.04979957 -0.04748634
0000c0 0c 84 4d 3d 5c d8 47 bb c0 4b ff 3b a1 cc 58 3d
       0.050174758 -0.003049395 0.0077910125 0.052929524
0000d0 30 2e 27 bc 9f 53 ec bc 63 4b eb 3c ea bf ff 3c
       -0.010203883 -0.028848467 0.02872247 0.031219441
0000e0 fb bb 16 bb 24 8a 74 3c 14 8d 19 3c 79 96 31 bd
       -0.0023000229 0.014925513 0.009372015 -0.043356393
0000f0 ad 27 a9 3c d1 79 23 3d a6 dc 3b bd 28 e9 c6 bc
       0.020648802 0.039911095 -0.045864724 -0.0242811
000100 1e 48 89 bc 95 71 07 bd c4 7b 45 3d a5 61 a3 bc
       -0.016758021 -0.033067305 0.048213735 -0.019944021
000110 3b 6b 9d bc f2 9c 86 bd 7f 48 4d bd c9 00 37 bd
       -0.01921617 -0.06572904 -0.050117966 -0.044678483
000120 28 01 88 3d da c9 66 bd 6c fa d0 bb 65 d8 09 bc
       0.066408455 -0.056344844 -0.006377509 -0.008413409
000130 4e 68 61 bd eb 4f fc bb b2 68 01 bc 3d 49 82 3c
       -0.055031113 -0.0076999567 -0.007898496 0.015904063
000140 c7 15 88 3d cc 8f 8f 3c 96 8a b3 bb 44 6e 8b bb
       0.06644779 0.017524622 -0.005479167 -0.004255088
000150 17 f0 35 3d 46 b3 1f 3d 9b d0 5a 3d b9 3c b3 bc
       0.04441842 0.038989328 0.053421598 -0.02187954
000160 ea e3 40 3d 23 e9 c1 3c 8f 77 8d 3d 7b 8c d3 3c
       0.047092356 0.023670739 0.069075696 0.025823822
000170 1a b2 61 3d 95 8a 5e 3c 0c 12 ce bc c1 3b 04 3d
       0.05510149 0.013582845 -0.02515509 0.03228355
000180 e0 cc 8d bc 66 f9 fe bb 71 7e 50 bd b0 81 4b bd
       -0.017309606 -0.0077811955 -0.050901834 -0.049684227
000190 44 49 44 bd 42 2e 24 3c ed cb 3a 3c 52 d2 8b bd
       -0.047921434 0.010020794 0.011401159 -0.06827225
0001a0 be 2f 38 bd 5f a6 3b 3d 9b 27 40 bc 29 8b 28 3d
       -0.044967405 0.04581296 -0.011728193 0.04114834
0001b0 0b 97 48 bd 97 98 c9 39 43 b0 5d 3d 5a 25 9b ba
       -0.04897217 0.00038451396 0.054123174 -0.0011836693
0001c0 69 0a 96 3d ff ba c4 3c 3a 5f 76 bd a4 be aa 3c
       0.07326204 0.024014948 -0.06014941 0.020842858
0001d0 26 55 0c 3d 36 8f 83 3d 72 69 1e 3d f9 08 1a 3d
       0.03426089 0.064238 0.03867478 0.037606213
0001e0 fd 38 13 bd 12 d4 8c 3b 35 90 25 3d 90 03 e8 bc
       -0.03594302 0.0042977417 0.04042073 -0.028322011
0001f0 3c e8 23 bc 80 23 3e bb 57 b3 74 3d 92 e6 df 3c
       -0.010004099 -0.002901286 0.059741344 0.027331624
000200 c9 9f 20 bd c0 9d fe bb 92 02 20 bd 58 b5 6d bb
       -0.039214883 -0.00777027 -0.03906495 -0.003627142
000210 3a 38 14 bd 4b 92 5f 3c 07 1e 14 bc 7b 29 3c bc
       -0.036186434 0.013645719 -0.009040362 -0.011484499
000220 42 a8 e9 bc d9 18 0a 3d 91 2b 36 ba 2d e2 22 bd
       -0.028522614 0.033715103 -0.0006949241 -0.03976648
000230 43 a6 f0 bc c7 d3 ed bb b1 6a 29 bc 8e 7a 0a bd
       -0.029376155 -0.007257912 -0.010340379 -0.033808284
000240 8f 8c 4d 3c b2 a1 01 3b 33 74 20 bd d0 b0 94 3d
       0.012545719 0.0019780216 -0.039173316 0.07260287
000250 f8 f9 6a 3d cf e7 52 3c c2 2e b6 bc f5 fd 48 3d
       0.057367295 0.01287265 -0.022239093 0.049070317
000260 1c b7 f1 3c 26 0b 9b 3c 33 8d 38 bd 8b 76 37 bd
       0.029506259 0.018926214 -0.045056533 -0.044790786
000270 f0 de 25 bd 88 90 f5 3b f6 91 4f bc 97 69 ef bb
       -0.040495813 0.007494036 -0.012669077 -0.0073062885
000280 8d ef 85 3d d0 b0 33 3d 8a 55 d1 bc a0 7e 14 bd
       0.06539831 0.043869793 -0.025553484 -0.03625357
000290 1a 3d 53 3d 1f 42 32 ba 37 20 09 bc 74 9b 1b bc
       0.051571943 -0.0006800014 -0.008369497 -0.009497512
0002a0 d1 d9 4b 3d 60 6f 83 bc 84 17 3c 3b c6 c0 0d bd
       0.049768273 -0.016044319 0.002870054 -0.03460767
0002b0 9d 80 15 bb 64 00 8a 3d 96 78 5e bd fa 32 bc bc
       -0.0022812255 0.06738356 -0.05431422 -0.022973526
0002c0 7b 90 22 bd 3f 0f d1 bb 72 5c 34 3d 6e 6c 0e bd
       -0.03968857 -0.0063799913 0.044033475 -0.034771375
0002d0 f8 1f 3e bd d0 3a 79 3d 25 52 01 bd 97 cf 33 3d
       -0.046417207 0.060847104 -0.03157248 0.043899145
0002e0 01 5d 76 bd af 6a 20 3d 0c 5b 92 3b da c6 c1 bc
       -0.06014729 0.03916424 0.00446642 -0.02365439
0002f0 02 83 52 3b 68 fd df 3c db 9f 20 3d 59 98 71 bd
       0.0032121544 0.027342513 0.03921495 -0.05898318
000300 8f a2 61 3c 36 bf fb 38 c3 b9 24 3d 21 2e 57 bd
       0.013771667 0.000120042285 0.04021622 -0.052534226
000310 b7 12 46 bd 77 20 7f 3d f6 33 67 bc e3 51 3a 3c
       -0.04835769 0.06228682 -0.01411151 0.011372062
000320 0d 96 37 3d 3b 78 93 bc 7a 2e 4c 3d b0 6e 0c bd
       0.044820834 -0.018001666 0.04984901 -0.034285247
000330 6f 98 18 bc b8 e3 38 3c de b8 a1 bb 27 6e 33 3d
       -0.009313687 0.011284761 -0.004935368 0.04380622
000340 b4 48 ca bc e8 39 2f bd a9 06 84 bc 77 85 48 ba
       -0.02469287 -0.042779833 -0.016116457 -0.00076492823
000350 56 03 e8 bc 27 a6 20 3d 29 3e ca bc 0e 1e c5 bc
       -0.028321903 0.039220955 -0.024687843 -0.024062183
000360 5f 75 86 3d 45 e6 82 bb f0 be 62 3d 14 35 c1 3c
       0.065653555 -0.0039947354 0.055357873 0.02358488
000370 4f d2 f5 3c 1b 95 4d bd 76 93 29 bd ca 7e 73 3d
       0.03000751 -0.050191026 -0.041400395 0.059447087
000380 d8 c1 54 3c fa 5e 0b 3d f6 26 a9 bc f7 da 30 3d
       0.012985669 0.034026124 -0.02064846 0.04317757
000390 9d bc af bc 21 49 bc bc 30 69 51 3d f6 11 4d 3d
       -0.021452243 -0.02298409 0.051125705 0.050065957
0003a0 92 51 00 3d 37 67 2c bd b0 e6 61 bd e1 93 41 3c
       0.03132779 -0.04209062 -0.05515164 0.011815042
0003b0 9d 1b b7 3c 2a 52 63 bd 98 57 e1 3c 81 1f 6e bd
       0.022352034 -0.05549828 0.027507588 -0.058135513
0003c0 13 f9 32 3d ad f0 61 bd 84 a8 08 3d 97 90 ea bb
       0.043694567 -0.055161167 0.033363834 -0.0071583497
0003d0 50 29 e5 3c be a2 80 bd 90 d5 06 bd 29 82 1d 3d
       0.0279738 -0.062810406 -0.032918513 0.03845421
0003e0 92 0d 20 bd 48 18 35 3c 09 46 44 3d 83 7a 87 3d
       -0.03907544 0.011053152 0.047918353 0.06615164
0003f0 66 9b a7 3b ff 94 e6 3c 1d 77 11 3d c2 71 73 3d
       0.0051149605 0.028147219 0.035513986 0.05943466

body.4.weight f4 [128, 256]
000000 5e 65 d6 3b 92 22 12 3d 94 8f 6c bd 1b bf e4 3c
       0.0065428456 0.0356775 -0.057754114 0.027923157
000010 94 5d 0e 3c 20 e9 51 bd 51 33 a0 3c c9 e2 0c bd
       0.008689303 -0.051247716 0.01955572 -0.034395967
000020 d4 6e 49 3b 56 59 b2 3c e7 84 d9 3c 4a 7a 37 3d
       0.0030736225 0.021771114 0.02655263 0.04479436
000030 0f 1b 6c bd ff d1 56 bc 2a 4c 37 3c df e1 3d bd
       -0.057642993 -0.01311159 0.0111875925 -0.046357986
000040 d4 eb f3 bb 4d c9 ed bb 0b 31 fc 3a 11 67 26 3c
       -0.0074438844 -0.007256663 0.001924069 0.010156409
000050 1a 20 37 bd 90 e7 5e 3c ea 4f 65 3d 75 c2 d1 3b
       -0.04470835 0.0136050135 0.055984415 0.006401355
000060 90 fa 43 3d 6c 76 1c bd 73 70 1c bd f5 4b 1d 3d
       0.047846377 -0.038198873 -0.038193177 0.038402516
000070 cf d4 07 3d 92 3a 35 bc 02 e2 f4 bc 0d bd 29 bd
       0.033161934 -0.0110613275 -0.029892925 -0.04144006
000080 ee 94 0c bd b6 7c 37 3d 4b 00 09 bd f3 65 de bb
       -0.034321718 0.044796668 -0.033447545 -0.0067870556
000090 66 5c 2a 3c 26 fb dd 3c 3d 09 62 ba 13 c3 12 3d
       0.010398006 0.027097296 -0.00086225924 0.03583057
0000a0 f8 97 9e 3b 2e 47 6c bd 08 2a a7 3c 71 79 c0 3a
       0.0048398934 -0.05768507 0.020405784 0.001468463
0000b0 34 89 2a 3b 03 c4 6f bd b3 c0 11 bc 42 1e 4e bd
       0.002602172 -0.05853654 -0.008896041 -0.050321825
0000c0 36 ee 49 bc 00 d1 04 bd aa f2 68 3d f3 c1 74 3b
       -0.01232486 -0.03242588 0.056872047 0.0037347048
0000d0 9f ef 83 bc 74 74 72 bc ba 57 2d bc 9c 2a ee 3c
       -0.016105471 -0.014798272 -0.010579998 0.029073052
0000e0 bf 4c 47 3d 9b 99 2f 3b dc 97 70 bd 09 3d c1 3c
       0.048657175 0.0026794437 -0.058738574 0.023588674
0000f0 51 45 27 bd 7b 75 5d bd ec 10 58 bd 6d f7 ff bc
       -0.04083759 -0.054067116 -0.052750513 -0.031245911
000100 54 23 f3 bc 24 0a 4e bc 2a 87 0c bc 17 23 89 bc
       -0.029679932 -0.01257566 -0.0085771475 -0.016740365
000110 25 94 22 3d c2 29 e9 bc 7f 03 9b 3b 0f a0 28 3d
       0.039692063 -0.028462294 0.0047306414 0.04116827
000120 32 29 54 bd b9 11 14 3d cc c6 ff bb ad 59 11 bd
       -0.0517971 0.036149714 -0.007805681 -0.035485912
000130 cb 20 58 3d de 40 c2 3c 74 43 8f ba 68 93 74 bc
       0.05276565 0.023712572 -0.0010930137 -0.0149277225
000140 2f 15 30 3c 73 1d e5 bc 98 64 6c bd da 72 d0 3b
       0.010747238 -0.027968144 -0.05771312 0.0063613476
000150 70 62 54 bc 1f 70 1d bb 88 c7 c5 bb dd eb e0 bc
       -0.012962922 -0.0024023128 -0.006035749 -0.027456218
000160 30 c5 1a bd 58 ee b6 bb 68 7f cd bc 69 a9 25 bd
       -0.03778571 -0.005582612 -0.025085166 -0.040444765
000170 18 db 48 3c 1f 6d 6f bc 8e 5c e7 bc 44 3b 76 bd
       0.012259267 -0.014613419 -0.028242376 -0.060115114
000180 6d 75 81 3c 21 db 06 bd 51 ae ee 3c 7a 93 36 3d
       0.015803063 -0.03292382 0.029135855 0.04457424
000190 9b 89 57 bd b1 66 56 3c 56 5c 50 3d 03 d8 85 bc
       -0.052621465 0.013086007 0.05086931 -0.016338354
0001a0 2b dd 9c bc 53 6f e0 3c 1e 45 3f 3d 2c 15 a8 bc
       -0.01914843 0.027396834 0.046696775 -0.020517908
0001b0 6a 8a 06 3d 39 ab 1d 3c f7 b7 57 bd 2e e2 56 3d
       0.032846846 0.009623342 -0.052665677 0.052461796
0001c0 d8 e8 0d bd ad b9 93 3c d4 09 1c 3d a8 d0 12 bd
       -0.034645885 0.018032873 0.03809531 -0.03584352
0001d0 15 9e e9 bc 83 73 17 bd 5a 22 f4 3c 44 80 46 3d
       -0.028517762 -0.036975395 0.029801536 0.048462167
0001e0 b5 19 62 3d 76 c3 7f 3d 54 da ac bc 94 42 2d bd
       0.055200297 0.062442265 -0.0211002 -0.042299822
0001f0 53 e3 73 bd 4a bf 14 3d c7 71 ff bc 01 17 24 3c
       -0.059542965 0.03631524 -0.031182183 0.01001525
000200 fc c0 a7 3c 4f f2 8a bc 23 4e 20 bc 14 c1 6f 3d
       0.020477764 -0.016961245 -0.009784254 0.058533743
000210 4e da 6a 3d 2c f7 58 bd 0d 97 0f 3d 4f d4 23 bc
       0.057337098 -0.052970096 0.035056163 -0.009999349
000220 58 76 51 bd 35 c0 a7 3c ac 8b 55 bd 27 7d 62 3d
       -0.051138252 0.020477394 -0.052135155 0.055295136
000230 b8 aa 70 bd 0c a3 aa bc e4 82 e4 3c f3 8f 13 bb
       -0.05875656 -0.0208297 0.027894445 -0.002251622
000240 76 95 d9 3c ad 44 6d bb d9 42 f0 3c f6 d9 1b 3d
       0.026560526 -0.0036204264 0.02932875 0.03804966
000250 11 ac 22 3c f8 65 5b 3c 3a cc 82 bc d3 00 7f bd
       0.009928719 0.01339101 -0.015966523 -0.062256645
000260 4c 0d 84 3c c7 8f 18 bd 60 e0 07 bd a2 cb f4 bb
       0.016119622 -0.03724649 -0.033172965 -0.007470564
000270 d8 fa de 3c a1 02 72 3d ff de 85 3d f0 e6 5c bd
       0.027219221 0.05908454 0.06536674 -0.053931177
000280 32 da 3b 3d 4a 77 f7 3c 65 33 a9 3c d7 d4 82 bd
       0.045862384 0.030208249 0.02065439 -0.06388252
000290 3b 45 25 bd 12 32 4a 3d c6 04 3f 3d 78 98 d7 3c
       -0.040349226 0.049364157 0.04663541 0.02631782
0002a0 ad 92 62 3c 8e 05 25 bd 5a 5d bf bc 1c 07 e3 3b
       0.013828916 -0.0402885 -0.023359943 0.0069283377
0002b0 47 24 e6 bc a5 63 f0 3c 75 22 cc bc c4 7c bc ba
       -0.02809347 0.02934439 -0.024918774 -0.0014380445
0002c0 2c fa 27 bd d0 10 f0 3c a1 12 61 3d 03 e6 c6 3c
       -0.041010067 0.029304892 0.054949407 0.0242796
0002d0 72 d8 3b 3b f0 10 ad 3c c0 d2 39 bc 56 db 80 bc
       0.0028662947 0.02112624 -0.011341751 -0.015729588
0002e0 24 aa 52 3c 62 81 cb bb 69 2a 67 bc 7a f2 40 3d
       0.0128579475 -0.006210492 -0.014109232 0.047106244
0002f0 2d 9c fe bc b2 ad 3f bd 7e b9 bb bc a8 5f 14 3d
       -0.03108033 -0.046796508 -0.022915598 0.036224037
000300 98 2a fe bc c3 50 32 bd 13 f5 85 bd ac 8d 82 3c
       -0.03102617 -0.04353405 -0.06540885 0.015936695
000310 79 c9 01 3d b6 4d cf 3c f0 d7 b5 bc 06 b1 4d 3d
       0.03168628 0.02530561 -0.022197694 0.05021765
000320 f5 d4 5a 3d ce 9c 76 3c a2 85 99 bc 4b 3d 14 bd
       0.053425748 0.015052034 -0.018740479 -0.036191266
000330 a0 8f 70 3c 31 0a d7 bc f5 6e 65 bd dc ed 1f 3c
       0.01468268 -0.026249977 -0.05601402 0.0097613
000340 0e 29 74 3d 37 9a 61 bd 75 0e 2f 3c 75 2f 13 3d
       0.059609465 -0.05507871 0.010684599 0.03593393
000350 83 12 0f 3d 62 85 56 3d dd d6 4b 3d f8 16 ec bc
       0.034929764 0.052373298 0.049765456 -0.028819546
000360 b1 e3 d1 3c bb 92 9c bc 96 fb 19 bc 3e 1f 1b bd
       0.025621267 -0.019112935 -0.009398362 -0.03787159
000370 33 83 b8 3b d6 9f a6 3c 1d 3f 19 bd 6d fc 85 ba
       0.0056308745 0.020339888 -0.037413705 -0.0010222323
000380 4b b5 04 3d 37 ea 9c bb 4b d7 10 3d 2a 51 bc bb
       0.032399457 -0.004788663 0.03536157 -0.00574698
000390 8b 3f 18 3d 21 12 77 bb f3 51 49 bb 77 e9 35 bd
       0.037169974 -0.0037700015 -0.0030719012 -0.044412103
0003a0 92 30 c5 3c 5e 62 0d 3c 39 59 7d bd ee c8 e5 3c
       0.024071012 0.00862941 -0.061852667 0.028049912
0003b0 47 6f 03 3d c9 81 08 3c 43 41 cc bc 71 a3 5d 3d
       0.032088544 0.008331724 -0.024933463 0.054110948
0003c0 8d 89 09 bc c7 0b 2c bd d6 a8 4d bd aa 88 26 bd
       -0.008394611 -0.04200342 -0.050209843 -0.040657677
0003d0 25 d1 c6 3c 92 dd c4 bc 6a 1c 63 bd 91 2a 94 bc
       0.02426965 -0.024031434 -0.05544702 -0.018086703
0003e0 d6 6a 04 3d 99 55 82 bc 06 7d f5 bb b1 0d 59 bd
       0.03232845 -0.015909957 -0.0074917106 -0.052991573
0003f0 62 86 e6 3c da a8 54 3d eb 34 6c 3d e3 ae db 3c
       0.02814025 0.051918842 0.057667654 0.02681679

body.4.bias f4 [128]
000000 71 82 3e bd 30 c1 57 3d 8e de 15 bd d1 65 73 3d
       -0.046511117 0.052674472 -0.036589198 0.05942327
000010 85 d9 4e bc 92 ac 3b bd b6 3d 80 3d f3 9a 74 bd
       -0.012625103 -0.045818873 0.062617704 -0.059718084
000020 c7 c3 69 3d 6a 09 42 3d 3b ed 9d bc 10 e6 82 3d
       0.057071473 0.04737226 -0.01927816 0.06391537
000030 a9 94 3a bc 30 b5 9f 3c cf a1 19 3d f0 fe 92 3b
       -0.011387982 0.019495577 0.03750783 0.0044859573
000040 0b 93 d3 3a ab ce b0 ba 95 67 35 3d 3a b1 0c bd
       0.0016141845 -0.0013489326 0.044288237 -0.034348704
000050 c1 c1 a3 bc d5 49 67 bd b6 0d 96 bc a4 da b8 bc
       -0.01998985 -0.056466896 -0.018317085 -0.022565193
000060 fb 1e 30 bd 27 bd 39 3d 1c d8 24 3d 9d 14 cd bc
       -0.042998295 0.045346405 0.04024516 -0.025034243
000070 ed 4a 23 3d 52 7f bf 3c 94 d7 b0 3c 49 87 11 3d
       0.039866377 0.02337614 0.02158717 0.03552941
000080 13 b0 22 3d b0 e4 1e bd 7e 8a 0c bd bb 90 6f 3d
       0.0397187 -0.038792312 -0.034311764 0.058487635
000090 d1 f4 6e bd 28 dd 26 bd 85 af 6e 3d f5 74 36 3d
       -0.058338944 -0.040738255 0.058272857 0.044545133
0000a0 8d 8b 34 bc 69 d4 00 3d d5 34 fb 3b 86 28 4d bd
       -0.0110196 0.03145257 0.00766621 -0.050087474
0000b0 a5 24 88 3c f4 3b 80 3d 28 0b 5f 3d 96 8e 4d bd
       0.016619036 0.06261435 0.054454 -0.05018481
0000c0 dd 25 9f bc 40 d5 30 bd 0f 99 cf bc 9f ca 51 bd
       -0.019427234 -0.04317212 -0.025341539 -0.051218625
0000d0 8a c9 5b 3d a0 52 32 bd 7a ad 6c bd 5c d8 5b bb
       0.053659 -0.04353583 -0.057782628 -0.0033545708
0000e0 b9 f5 70 3d 41 6b 7c 3d 97 31 33 3d 65 6b 7d bb
       0.05882809 0.061625723 0.043748464 -0.0038668748
0000f0 c5 af 10 bd 98 11 e7 bc 42 e9 e4 3c eb bd 66 3c
       -0.035323877 -0.028206632 0.027943257 0.014083366
000100 41 cc 31 bd cb aa 71 3d 76 4f c8 bc 87 ee 44 bb
       -0.043407682 0.05900077 -0.024451952 -0.00300494
000110 69 84 5d bd c3 55 80 bd 80 ae ca bc 80 04 73 3d
       -0.054081354 -0.06266358 -0.024741411 0.059330463
000120 40 b7 39 3d 9b 6f 29 3c 15 94 1f bd ca cc a3 3a
       0.045340776 0.01034155 -0.03895958 0.0012496945
000130 a4 bd 81 bb 8a 6a df 3c 39 c3 06 3b e0 05 9d 3b
       -0.0039593745 0.027272481 0.002056314 0.00479196
000140 16 83 ab 3b 40 ef 2f bd 31 0d 05 3d 44 86 74 3c
       0.0052341325 -0.042952776 0.032483283 0.01492459
000150 e3 89 ae bc 55 5f 61 bc e3 2a 5e 3c 6d 12 6f bd
       -0.021305984 -0.013755639 0.01356003 -0.05836718
000160 48 a0 71 3d fa 8f 45 bc f4 98 09 3d f8 c5 17 bd
       0.058990747 -0.0120582525 0.033593133 -0.037054032
000170 e8 67 be bc 0d 83 5b bc a5 ed 10 bd 6b db 97 bc
       -0.023242906 -0.013397944 -0.035382885 -0.018537244
000180 cc 1a e5 bb d2 c2 15 3d f3 fc 09 bd 55 2d 6d 3c
       -0.00699172 0.03656275 -0.033688497 0.01447614
000190 9c 40 44 bd de e3 30 3c af 32 35 3c e4 ee e6 bc
       -0.04791318 0.010796515 0.011059447 -0.028190084
0001a0 0d 1b 1a bd 29 2a a2 bc 32 85 1a 3c 61 51 1a 3d
       -0.037623454 -0.019795494 0.00943117 0.037675265
0001b0 4c 10 e1 bc 49 b4 6e 3d 00 d7 6c ba 8d 14 4a bd
       -0.027473591 0.058277402 -0.0009034723 -0.049336005
0001c0 45 0d 56 3d a6 0c 59 ba 36 a2 bd bc 12 42 df 3b
       0.05225875 -0.0008279778 -0.023148637 0.006813296
0001d0 3b 95 04 3c 4b ea 47 bc 01 08 03 3d 69 0a 1c 3d
       0.00809222 -0.012201856 0.031990055 0.038095865
0001e0 14 27 e7 bc 58 ac 44 bd 2e f5 01 3d 55 8d 0e bc
       -0.028216876 -0.048015922 0.031727962 -0.008700688
0001f0 54 ec 8c 3c 70 48 78 bc 00 60 b9 3c 92 da 85 3c
       0.017202534 -0.015153989 0.022628784 0.016339574

move_head.weight f4 [5, 128]
000000 0a 19 a2 3d 58 f0 93 3d 7a 00 b4 3b b3 a2 22 3d
       0.07914932 0.07223576 0.005493221 0.039705943
000010 8e ae 11 3d 41 16 4f bd 52 9f 8a bd bf 1a 93 bd
       0.03556686 -0.050558332 -0.06768669 -0.07182836
000020 c1 e1 8b bd 0d fc 2b 3b 78 89 59 3d 33 f0 b7 bd
       -0.068301685 0.0026242763 0.053109616 -0.08981361
000030 8d 69 b3 3d 8a 33 70 bd d6 ee 3b 3d 70 49 a6 3d
       0.087603666 -0.0586429 0.04588207 0.08119476
000040 b0 45 76 bc f8 b5 e0 bc 0d 27 b2 3d ce 47 92 bd
       -0.015031263 -0.02743052 0.086988546 -0.07142602
000050 cf 88 b9 bd 4e 5f ae bd 0b 27 ed bc 6d 64 43 bd
       -0.09059297 -0.08514272 -0.028949281 -0.047703195
000060 06 a2 81 3d 4d 4e 13 bd ab e5 9e bd 44 7a cc 3c
       0.06329732 -0.035963345 -0.077586494 0.024960645
000070 4b 35 cc 3b 6c 0e ed 3c 22 d3 6b bc be e4 8b 3c
       0.006231939 0.028937541 -0.0143936 0.017076846
000080 03 0d 40 3c 4a 44 d4 bb 33 35 2b bc 13 f5 4f 3d
       0.011721852 -0.0064778673 -0.010449695 0.05077083
000090 92 ac 00 bc b0 af 07 3d 1d 25 a4 bd 75 e1 85 3d
       -0.007853644 0.033126533 -0.08014891 0.06537143
0000a0 91 7c 2d 3b 36 91 9d 3d fb 45 1e bd 93 c5 84 3d
       0.0026471952 0.076937124 -0.038640957 0.06482997
0000b0 f0 e2 a4 bd 6f 82 a3 3d e2 fc 2d bd ae a1 1e bd
       -0.080510974 0.079838626 -0.042477496 -0.03872841
0000c0 c2 c3 98 3d f6 16 61 3b cd fd a1 3d de cd 64 3d
       0.07459213 0.0034345961 0.07909737 0.055860393
0000d0 4a 23 3c 3d fb 78 2b 3d ce 97 52 3d 5b 56 02 bd
       0.04593209 0.041863423 0.051414303 -0.031820636
0000e0 e7 c9 6b bd e0 7e ba 3a 2b af 4f bd 2a 4b b3 3a
       -0.057565596 0.0014228486 -0.050704163 0.0013679017
0000f0 df 1c 51 3d 7c ff 74 bd f0 6d af bd 7a 5b 4b 3b
       0.051052924 -0.05981396 -0.08565891 0.0031029866
000100 d8 d4 7d bd 39 28 a5 3a 41 1c 9e 3c 7b 4f b7 bd
       -0.06197056 0.0012600488 0.019300582 -0.089507066
000110 e5 4e 38 3d 6a a0 84 3d ea f0 11 3c 5c 83 bc 3c
       0.044997115 0.06475909 0.008907536 0.023011856
000120 f2 9b aa bd 45 9a 04 3d cb 04 96 3d e1 2a a3 bc
       -0.083305255 0.032373685 0.07325133 -0.019917907
000130 6e 16 1f bd 87 f4 03 3d 78 33 88 bd eb 26 8e 3d
       -0.03883975 0.03221562 -0.06650442 0.06941017
000140 9f d4 6c bd fe c5 ae 3c dd 67 41 3c 88 dd 12 3b
       -0.05781996 0.021334644 0.011804548 0.0022409875
000150 e6 ac ae bd e9 b5 45 3b 61 7d 75 3d 4a 31 22 3d
       -0.085290715 0.0030168241 0.059934024 0.039597787
000160 70 05 08 bd 9c 85 6b 3b 82 b1 4a bd 7d 61 2f 3d
       -0.03320831 0.0035937792 -0.04948569 0.04281758
000170 c6 f8 98 3d 3d 27 dc 3c 38 59 75 3d fe 00 e4 bc
       0.07469325 0.026874179 0.05989954 -0.027832504
000180 99 8c 63 3d 2e 69 af bd 56 cd 79 bb e9 99 9c bd
       0.055554006 -0.08564983 -0.0038116775 -0.076465435
000190 fd e2 34 bd dc ce aa bd 6a 7e 8a bd 59 69 a9 3c
       -0.044161785 -0.083402365 -0.06762393 0.020680116
0001a0 3b 9e 6c bd 32 ee 14 3d 67 e2 a5 3d a6 7b ba 3a
       -0.057768088 0.036359973 0.080998234 0.0014227524
0001b0 79 2a be bd 31 5e 51 bc bc e0 77 bd c5 ab 36 3c
       -0.09285445 -0.012778805 -0.060517058 0.0111493515
0001c0 3d 47 35 3d 08 79 6f 3d 13 e6 26 3d 77 42 7b bd
       0.04425739 0.058465034 0.04074676 -0.061342683
0001d0 7a 9e 71 bd 80 e2 8f 3d eb 42 80 bd 9b 12 8c bc
       -0.058989026 0.07025623 -0.062627636 -0.017098716
0001e0 71 a4 1e 3c bc a6 c5 bc c5 35 ad bc a3 70 8a bd
       0.009682761 -0.024127357 -0.021143803 -0.06759765
0001f0 f5 d8 2d bd 58 00 a6 bc 8b d2 0e bc d7 a5 9b 3d
       -0.042443234 -0.020263836 -0.00871719 0.07599991
000200 4c 3d 9e bd f1 d5 3f bd 1d d3 88 bc 9e 58 b4 bd
       -0.07726535 -0.04683489 -0.01670223 -0.08805965
000210 fa 67 4e 3d 5f dd ee 3c 96 7a 12 bd a1 c1 32 3c
       0.05039213 0.029158292 -0.03576144 0.010910423
000220 75 fb 92 bd 31 a3 a2 3d 71 f9 ac bd a4 0a 48 3d
       -0.07176868 0.079412825 -0.08446015 0.048838273
000230 73 74 3f bd 48 d5 75 bc 1f 01 a6 bd 96 84 fe bc
       -0.046741914 -0.0150044635 -0.081056826 -0.031069081
000240 25 8b 2f bd 0c c4 ef bc be 56 55 bd 75 d0 a2 bd
       -0.042857308 -0.029268287 -0.052084677 -0.07949916
000250 1a 84 51 3d 54 ee 89 bd a9 6a 93 3d 01 b6 05 3d
       0.051151372 -0.067349106 0.07198078 0.032644276
000260 23 0e 9d 3d 70 53 43 bc ba 4d a2 3d d0 b2 9c bd
       0.07668712 -0.0119217485 0.079249814 -0.07651293
000270 19 e1 57 bc 62 38 b6 bb 02 72 b3 bc 8f 4d 80 bd
       -0.013176226 -0.0055609206 -0.02190495 -0.06264793
000280 cf 1c 37 3d 91 2a 5b 3c 4f 3d 99 3d 95 71 27 3d
       0.04470521 0.013376848 0.07482397 0.040879805
000290 05 0b e6 bc 54 75 99 bd 52 73 8a 3b 20 22 7d 3d
       -0.028081426 -0.07493082 0.004225173 0.061800122
0002a0 fd 3e cc bd 7e 08 1a 3d 3f ab 95 3d 89 3a 8b ba
       -0.099729516 0.037605755 0.07308053 -0.0010622303
0002b0 99 3f f5 3c cc 02 26 bd 28 8e 05 3d 64 da 97 3c
       0.029937552 -0.04053001 0.032606274 0.018536754
0002c0 5b 99 bc 3c 71 ab a8 bb 3b 23 d7 bc 43 86 6d bd
       0.023022344 -0.0051473905 -0.026261916 -0.05798937
0002d0 53 97 17 3d e8 bb a7 3d a3 54 9f 3d 15 4e 9b 3c
       0.03700955 0.08190137 0.07779815 0.01895813
0002e0 ec 13 ac 3d 52 ba 6e 3d 85 6d a5 3d ae ec 8c bc
       0.08402237 0.058283158 0.0807753 -0.017202701
0002f0 8d 48 9e 3d fb 6c 38 3b 73 e3 b0 bd 73 25 ac bd
       0.07728682 0.002814113 -0.086371325 -0.0840558
000300 e2 30 9f 3d b1 76 c0 bd 53 44 ea bc 16 e0 44 bc
       0.077729955 -0.093976386 -0.028597033 -0.012016317
000310 cc df 66 3c 26 86 94 3d 21 ac 99 bc 28 19 46 3d
       0.014091443 0.07252149 -0.018758835 0.048363835
000320 5a 78 43 bd e8 e2 06 bc 38 d7 c4 bd 1e 4e 52 bd
       -0.047722198 -0.00823281 -0.09611362 -0.05134403
000330 d3 20 b4 3b cd e9 0e bc 7a c3 87 bc 53 9b 4d 3c
       0.005497077 -0.008722735 -0.016572703 0.012549239
000340 7a 4c 95 bc 34 b3 a1 bd fe 7b 0c bd 60 49 04 3d
       -0.018224943 -0.078955084 -0.034297936 0.03229654
000350 ae 82 90 bd 17 d7 de bc b8 b3 b1 bc 56 07 aa bd
       -0.07056175 -0.027202172 -0.021692142 -0.083021805
000360 e4 7f 4b bd 73 f3 06 bd 40 42 86 3d 6b 65 a4 bd
       -0.049682513 -0.032947015 0.06555605 -0.080271564
000370 47 98 2f bd 1c 69 7a bd 70 8d c2 3d 14 23 95 3c
       -0.042869832 -0.061135396 0.09499633 0.018205203
000380 92 04 4c 3d af c5 73 3c 7c a8 67 3d 63 b3 96 bd
       0.049809046 0.014878674 0.056557164 -0.07358434
000390 4c 29 a4 3d d6 62 50 3b e1 48 83 3c be bf 95 bd
       0.08015689 0.0031797192 0.016025962 -0.073119625
0003a0 ac 27 24 bd 35 a4 9b 3c db 87 72 bd 72 25 60 3b
       -0.040076897 0.018999198 -0.059211593 0.0034202007
0003b0 73 fc a3 3d be f9 b7 3c b4 9d 68 3b 8d 4c 0c bd
       0.08007135 0.022457954 0.003549439 -0.034252692
0003c0 25 ba 03 bc 37 e7 f7 bc 51 3a 2e 3d 88 96 21 3d
       -0.008039986 -0.030261619 0.042536084 0.0394502
0003d0 3e fd bb 3c ec b8 24 3d 15 e0 77 bd 16 44 c1 3d
       0.022947904 0.040215418 -0.060516436 0.094368145
0003e0 d0 64 b6 3a d0 b4 03 bc c4 3d d0 3c c8 4a 30 3d
       0.0013915543 -0.0080387145 0.025420077 0.043040067
0003f0 ec b7 58 3d b2 ee b3 bd 38 70 13 3d 66 0f 5d bd
       0.052909777 -0.08785762 0.035995692 -0.053969763

move_head.bias f4 [5]
000000 56 c1 a8 bd 4d 0d 0c 3d f2 84 2d 3c b4 2a de 3c
       -0.08240001 0.034192372 0.010590779 0.027119972
000010 8c 87 a2 bd
       -0.0793601
