checkpoints/simple_world_comm_v3_scratch/simple_world_comm_v3_agent_1_ep100.pt (torch, 431111 bytes, 8 tensors)

body.0.weight f4 [256, 28]
000000 68 5d 7e 3d c0 88 18 3e 3d 8d dd 3d 4d c9 0c be
       0.062100798 0.14895916 0.10817955 -0.13748665
000010 14 b9 28 3c 45 c5 0f 3e fd bb f0 bd d8 a7 1f bd
       0.010298032 0.14040096 -0.11754606 -0.038978428
000020 b2 52 62 bd 32 9d 1c 3e ec a9 ca 3d 76 f5 f6 39
       -0.055254646 0.1529434 0.09895691 0.0004710366
000030 55 44 e9 3d 36 55 17 be d2 c6 44 bd 25 5a 28 3c
       0.113899864 -0.14778599 -0.048041172 0.010275398
000040 c2 46 c7 3d ab 2a 0f 3e d4 5a 36 be be f4 2e be
       0.09730293 0.1398112 -0.17808086 -0.17085549
000050 25 06 14 be 04 34 79 3d 54 96 36 3e 2f ba 9d bd
       -0.14455469 0.06084062 0.17830783 -0.07701527
000060 d0 b6 c5 3d 8c 03 86 bb ed ca 01 bd ce 83 24 be
       0.09654009 -0.0040897783 -0.031687666 -0.16065904
000070 cb 5e 30 3d 1d ed bf 3a c8 21 0f be 45 64 e7 bd
       0.04305915 0.0014642809 -0.1397773 -0.11298422
000080 51 93 3a 3e 60 e5 1c 3e c7 cf f9 bd 60 06 19 3e
       0.18220259 0.15321875 -0.121978335 0.14943838
000090 df 57 f8 3d ac 1f c9 39 bc e7 36 bb 71 76 4a 3d
       0.12126135 0.00038361305 -0.002790912 0.04942936
0000a0 03 43 1d bd 7e b0 11 3e 78 45 e0 bc a1 e4 2b be
       -0.038393985 0.14227483 -0.027376875 -0.16786434
0000b0 b8 6b b8 3d 9d f3 5b bd d4 1b 85 bd 5d 0c 0a 3e
       0.09004921 -0.053699125 -0.064994484 0.13481279
0000c0 e8 85 ae bd 41 91 01 bb 3e 50 cf bd ea 7e 93 bd
       -0.08521634 -0.0019770416 -0.10122727 -0.07201941
0000d0 6b ed 14 3e 75 e2 ca bd 44 5f 12 3e f0 cd 18 be
       0.14543693 -0.099064745 0.14294153 -0.14922309
0000e0 c6 4c 2d be 44 a9 2a bd 42 0d c8 bc b4 af c6 bb
       -0.16923818 -0.04166533 -0.024420384 -0.006063426
0000f0 13 a8 01 be 0f 2c 13 3b d6 77 23 bd 83 f1 ec bd
       -0.12661771 0.002245668 -0.039909206 -0.11569502
000100 a1 84 3b 3d cd 43 db 3d 31 9d 3d 3c 21 67 84 3d
       0.04578078 0.10706291 0.011573122 0.06464983
000110 a5 7a 3b 3e bd f9 cd bd a5 e1 f1 3d 14 f8 76 3d
       0.18308504 -0.100573994 0.118106164 0.06029518
000120 01 dc d5 3b a9 77 1c be 6a fb 24 3e 00 1a e5 3d
       0.0065264706 -0.15280022 0.16111532 0.111866
000130 3f fe c0 3d 2c f9 06 3d 54 48 06 3e e2 68 20 3d
       0.094234936 0.032952473 0.13113528 0.039162524
000140 aa 62 8f bc c3 27 95 3d d6 2e 34 be 8f ea 95 bd
       -0.017503101 0.072829746 -0.17595991 -0.07320129
000150 fb f8 8b 3c 37 30 b2 3d f8 7c 26 3d 33 96 27 3e
       0.017086497 0.087006025 0.040646523 0.1636589
000160 af 90 2a 3e 21 e6 bc 3d 56 3c 90 3d 23 d8 a8 bd
       0.16656755 0.09223581 0.07042758 -0.0824435
000170 96 ea 0f 3e b4 49 76 bd 17 78 8f 3d 49 17 b7 bc
       0.14054331 -0.060128883 0.07005327 -0.02234997
000180 d2 93 17 3e bd de 2b be 2c 1f 22 3c b9 9d 85 3d
       0.14802483 -0.16784187 0.009895127 0.06524224
000190 03 af 2c be d4 97 a9 3d 88 14 d9 3d 1b 16 e5 3d
       -0.16863637 0.08280912 0.10599619 0.11185857
0001a0 d5 94 82 bd 60 e4 16 3e d1 00 2f bd 73 5d fc bd
       -0.06376044 0.14735556 -0.042725388 -0.123225115
0001b0 f3 21 d2 bd ef b4 d6 bd 8b 3a 15 be 20 f8 c8 bc
       -0.102603815 -0.10483729 -0.14573114 -0.024532378
0001c0 91 64 c1 bb 7b 51 f8 bd 22 40 0b 3e 87 52 de bd
       -0.005901881 -0.12124916 0.13598683 -0.108555846
0001d0 ce ee 82 3d 8d d4 fe bc 89 c4 11 bd 60 a5 25 3e
       0.06393205 -0.031107211 -0.03558782 0.16176367
0001e0 b0 a6 41 be 75 0c 42 39 d7 67 67 bd 05 9c cd bd
       -0.18911242 0.00018505922 -0.056495514 -0.10039524
0001f0 2a 97 08 be 28 27 17 3e a3 4c d4 bd d0 24 02 be
       -0.13338915 0.1476103 -0.1036618 -0.12709355
000200 64 00 1e bc 23 7e ea 3d 32 9e 13 3e 94 cf 36 3e
       -0.009643648 0.1144984 0.14415815 0.17852622
000210 38 8f b5 bd fe c9 22 3e eb ad 05 3e 3f 0e 0a 3e
       -0.088652074 0.15897366 0.13054626 0.13481997
000220 81 44 12 3e 43 b8 31 3e 5c 64 e3 bc ad d2 00 be
       0.14283945 0.17355447 -0.027757816 -0.12580366
000230 ff 92 2c be 58 7e 93 bd 0e ab b8 bd bf 6c c5 3d
       -0.1685295 -0.072018325 -0.09017001 0.09639882
000240 f7 ac 1b be 6f 01 5f bd 28 f6 49 bd b1 81 19 3c
       -0.152027 -0.054444727 -0.04930702 0.0093693
000250 49 8c 12 3c 54 00 ea bd 3d 72 3c be 84 6a 12 3e
       0.008944579 -0.11425844 -0.18402953 0.14298445
000260 75 dc 11 3e 20 1a c1 3d a3 a0 b4 bd 69 f0 85 3d
       0.14244254 0.09428811 -0.088197015 0.06539995
000270 d4 43 9d bd 2f 6a 01 3e 64 a1 83 bd 1a 55 ae bd
       -0.07678953 0.12638162 -0.06427267 -0.085123256
000280 5c f9 89 bd ec 31 b1 bd e5 85 8d 3d e6 9c 02 3e
       -0.06737015 -0.086521 0.06910304 0.12755165
000290 f4 b8 63 3d f8 ec 60 3d 30 23 30 3c 15 a9 88 3d
       0.055596307 0.05491349 0.010750577 0.06672875
0002a0 47 90 c3 bd 60 7d 94 bd 92 e2 41 3e 90 45 33 3e
       -0.09549003 -0.07250476 0.18934086 0.17507005
0002b0 49 1f 3d 3d a9 81 20 bd 6f 3f d6 bd 91 7e f2 3c
       0.046172414 -0.039186154 -0.10461318 0.029601367
0002c0 47 36 43 be 74 b7 8b 3c 7a 67 03 3e 13 b9 8d 3d
       -0.19063674 0.01705525 0.12832442 0.06920066
0002d0 f3 a2 22 be d5 6c 42 be a9 bd 81 bd 40 ba 39 bd
       -0.15882473 -0.18986829 -0.06335003 -0.045343637
0002e0 bb af 14 bd a9 ce 3b ba f1 58 3e be 3a 28 3d be
       -0.036300402 -0.00071642786 -0.18588616 -0.18472376
0002f0 90 f3 38 be d7 2b a1 bd 10 bb c3 bd 0f bb 4d 3d
       -0.18061662 -0.0786969 -0.09557164 0.05022722
000300 57 45 02 be f3 b4 b6 bc c6 35 37 3e fb 60 ad 3c
       -0.12721764 -0.02230308 0.17891607 0.021164408
000310 6f 31 69 3d ff 3a d7 3b 52 af 1e 3c e5 e8 c4 3b
       0.05693191 0.006568312 0.009685354 0.0060092085
000320 99 a2 f2 3d 7f 11 f5 3d 35 f5 00 3e 1a 08 e6 bd
       0.11847419 0.11966228 0.12593539 -0.11232014
000330 9f 70 17 be c7 e8 bc bd 45 6d ee bd 8c cf 05 3e
       -0.14789055 -0.09224086 -0.11641935 0.13067454
000340 a2 76 8b bd e9 76 0e be 72 dc bf bd 33 bc 88 bc
       -0.06809737 -0.13912548 -0.093682185 -0.016691303
000350 2c a4 a1 bd 49 f4 21 be 14 df 00 be 9f cb 0e 3e
       -0.078926414 -0.15815844 -0.12585098 0.13944863
000360 28 07 d3 3d a6 32 8d bc 46 99 05 be 97 55 ab bd
       0.10304099 -0.017236065 -0.1304675 -0.08365934
000370 49 25 1b bd b9 1c 4a bd 10 e2 f7 bb 90 f9 c1 3d
       -0.037877355 -0.0493438 -0.0075647905 0.094714284
000380 4c ad 55 bc ca 48 11 3e 9b de eb bc 57 f6 20 3e
       -0.0130418055 0.14187923 -0.02879267 0.15718971
000390 be c8 8d 3d d0 8e c3 3d 66 3d 9f bd e8 ff 82 bd
       0.06923054 0.09548724 -0.07775383 -0.063964665
0003a0 70 63 06 be f2 89 d9 3c d6 51 fa 3d 94 e6 5b 3d
       -0.1312387 0.026555035 0.1222264 0.053686693
0003b0 04 f4 34 3e cd 87 12 be 1e b7 08 3e be 10 ad bd
       0.1767121 -0.14309616 0.13351104 -0.08450459
0003c0 71 51 15 ba 19 13 2d 3d 1e e1 d2 3d 4b 44 8b 3d
       -0.00056960346 0.04225454 0.10296844 0.06800135
0003d0 80 0a 37 3e 1b 7d 3a be 2c e3 25 bc 76 a9 2c 3e
       0.17875099 -0.18211786 -0.010124963 0.16861519
0003e0 7c 4b 06 3d d9 69 f4 bd de de c7 bc 95 6c b0 3d
       0.03278683 -0.11934251 -0.024398264 0.086144604
0003f0 50 ea 03 be e8 50 02 3e 6d 2b 1e be ea 32 03 3e
       -0.12882352 0.12726176 -0.15446253 0.12812391

body.0.bias f4 [256]
000000 e7 4e 32 3d 2a f4 38 bd 65 80 8b 3d db 39 e3 3d
       0.04353228 -0.045154728 0.06811599 0.110950194
000010 5d d1 ed 3c 43 4c f3 3d 9a d9 ed bd 5f ca 49 3d
       0.029030496 0.1187978 -0.1161377 0.04926526
000020 42 61 92 bd a4 96 20 be 13 f9 32 3c 88 26 d0 bd
       -0.07147457 -0.15682465 0.010923642 -0.10163599
000030 2d 0d 80 3d 7b 8e 14 3e b4 62 3d 3e 46 2f 5d bd
       0.06252513 0.14507477 0.18494684 -0.05400016
000040 66 4c ec bc 41 d4 be 3d 7d 33 db 3c d9 bf 84 bc
       -0.028845023 0.09317828 0.02675795 -0.016204761
000050 2e 82 91 3c a3 9c b3 bd ee aa c7 3d 4a 70 a8 bd
       0.01776227 -0.087701105 0.09749399 -0.082245424
000060 f7 19 30 be 56 bf 0a be 65 fc 09 be 44 a9 2a be
       -0.17197405 -0.13549551 -0.13475187 -0.16666132
000070 26 bf 06 3c a8 65 f5 bd 53 88 29 be 33 bc ed 3c
       0.008224284 -0.1198228 -0.1655591 0.029020404
000080 8b 9e 5a bd 4a b9 08 3e 96 91 3f be c2 a9 de bd
       -0.053373855 0.13351932 -0.1870788 -0.108722225
000090 42 77 27 3c 61 1d c6 3b 69 d9 05 be ff b5 fa bd
       0.010221304 0.0060459827 -0.13071217 -0.12241744
0000a0 0b da 56 3c b7 b8 99 bc 7a a0 16 be 65 e0 34 be
       0.013113509 -0.018764837 -0.14709654 -0.17663725
0000b0 b5 01 52 bd 62 96 e4 3c a6 de 24 3d 2d 2c 1c be
       -0.05127116 0.02790374 0.040251397 -0.15251227
0000c0 82 51 87 bc 61 8b 11 be ef 0f 3e be f8 c1 38 3e
       -0.016518358 -0.14213325 -0.18560766 0.18042743
0000d0 0c 68 73 bd 66 48 ca bd 31 5c fa 3d ac 30 b4 bd
       -0.0594254 -0.0987709 0.12224615 -0.08798346
0000e0 32 30 4f 3c f1 94 07 be fb 7e 3d bd c2 ef 25 3e
       0.012645768 -0.1324041 -0.046263676 0.16204742
0000f0 9c 1e 6b bd ab a8 a7 bd 9f f6 10 be 84 29 8c 3c
       -0.05740224 -0.08186468 -0.14156578 0.01710964
000100 7e d7 1d 3d f8 9d 27 bd 4d 35 01 3e 06 6b 0f 3e
       0.038535587 -0.040922135 0.12617989 0.1400567
000110 23 d1 d3 3d 0c 6a 9d bd db 33 3b 3e 53 d8 b2 bd
       0.10342624 -0.076862425 0.182815 -0.08732667
000120 e3 20 1b be 7c 37 b8 3d 1e 23 32 bd e1 b8 fa bd
       -0.15149264 0.08994958 -0.04349052 -0.12242294
000130 f0 8c b9 3c 9f 37 27 3e d0 e8 ca 3d 04 5d 6e 3c
       0.022650212 0.16329812 0.09907687 0.014548544
000140 56 14 10 3e 46 c3 d2 bb d9 05 85 3d 48 5c 1b 3c
       0.14070258 -0.00643197 0.06495256 0.009482451
000150 92 bc 96 3d fc 2a ae bd ce ba 1f bd 27 79 d4 3d
       0.07360186 -0.08504292 -0.03899651 0.103746705
000160 cd b8 00 bd 0c e5 31 3e 61 c0 42 3e c4 ec 87 3c
       -0.03142624 0.1737253 0.19018699 0.01659239
000170 4a 55 f1 3d 1c f9 85 3d a4 43 fc 3c 4c 94 12 3e
       0.11783846 0.065416545 0.030793972 0.14314383
000180 8d c5 48 3c 9c b6 22 be 40 f0 90 3d 6d f7 9a bc
       0.012254131 -0.15889972 0.07077074 -0.01891681
000190 09 57 4a 3d 9a 66 36 3e 0b fd ac 3d d4 5b 29 3e
       0.04939941 0.17812577 0.084467016 0.16538936
0001a0 1c ea 82 bc 8b 5d 41 3d 3d a3 c9 bd 99 31 0e 3e
       -0.015980773 0.04720835 -0.09845588 0.13886108
0001b0 dc bb d2 bd e7 31 3d 3d 76 e8 01 3e d4 b9 7c 3d
       -0.102897376 0.04619017 0.12686333 0.061700657
0001c0 0d 12 03 be 2f 5d d0 bd 25 39 26 3e d8 ae 8a bd
       -0.12799855 -0.10174023 0.16232736 -0.0677163
0001d0 aa 1e 2e be b7 99 01 bd ee 50 c3 3d 08 cd 0b bd
       -0.17003885 -0.031640735 0.095369205 -0.03413108
0001e0 04 74 e1 bd ce cd 33 be 5b 4f 1b 3d 80 19 46 bd
       -0.11008456 -0.17558977 0.037917476 -0.048364162
0001f0 d1 b6 2c 3e 2a fd c0 bd ce a7 8d bd 0d c3 0d 3e
       0.16866614 -0.09423287 -0.06916772 0.13843937
000200 82 64 68 3b 63 70 63 3d c6 28 3a be d0 0c 11 bc
       0.0035460298 0.055527102 -0.18179616 -0.008853152
000210 9d e9 f7 3d c8 e6 3b be 2a 25 16 3e c4 4e 10 be
       0.12105105 -0.18349755 0.14662614 -0.14092547
000220 37 bb 39 be e3 71 1f 3d 5f 33 33 3e 4b b6 d0 3d
       -0.18137823 0.03892697 0.17500065 0.101910196
000230 89 fe 1b 3e 5d 98 c7 3d 11 fd c3 bd 74 aa 30 be
       0.15233816 0.09745858 -0.09569753 -0.17252523
000240 d9 32 2e 3e 43 33 89 bd 08 6d 84 3d 5a 5c 66 bd
       0.17011584 -0.066992305 0.064661086 -0.056240417
000250 fc 11 16 be a3 a4 37 3e f6 77 bb 3c 29 b0 83 3d
       -0.14655298 0.17933898 0.02288435 0.06430084
000260 02 b1 be 3d dd 49 2c be 33 42 c5 3d da aa 8d bc
       0.09311105 -0.16825052 0.09631767 -0.017293382
000270 c0 9c bf 3d 09 fb 16 3e c7 69 e9 bd 13 f4 0a 3e
       0.093560696 0.147442 -0.113971286 0.1356967
000280 01 da 17 be cf 40 24 3d 85 e1 0a 3e a2 a9 b7 3c
       -0.14829256 0.04010087 0.13562591 0.022419754
000290 1d 6b f0 bd be d9 d8 bc 3a 4a 43 bd a5 cb 54 bc
       -0.1173918 -0.026471015 -0.04767821 -0.012988006
0002a0 96 3a f7 bd e5 de 08 3e a6 67 09 be 3c c4 52 3d
       -0.12071721 0.13366278 -0.13418445 0.051456675
0002b0 b5 4d 8d bd c2 fe 08 3e 46 a8 9d bd c4 ff ef bd
       -0.06899587 0.13378432 -0.07698111 -0.11718705
0002c0 1c 29 1e be fb 88 1f 3e b3 47 e7 3c b2 79 84 3b
       -0.1544537 0.15579598 0.028232431 0.0040428275
0002d0 a1 22 1f 3e ba ad 1f bd b2 3c fb 3d 3d 64 0f be
       0.15540554 -0.038984038 0.12267436 -0.14003082
0002e0 3e 90 35 3e 73 ba bd bd 49 d8 09 be a1 93 03 bd
       0.17730805 -0.09264078 -0.13461412 -0.03212321
0002f0 95 4a fc 3d 28 d2 23 be 01 ae 30 3e fb 95 fe bd
       0.12318913 -0.15998137 0.17253877 -0.1243095
000300 4b 8a fb bd f8 5f 31 be 26 47 af bd 5a 81 d4 bd
       -0.12282237 -0.17321765 -0.08558492 -0.10376234
000310 f4 39 31 bd 2c f0 dc 3d a0 f6 9c bc 79 8e 3b 3e
       -0.04326816 0.10787997 -0.019160569 0.18316068
000320 b7 a7 8b 3d 97 2c 2d be df b8 27 3d c2 9e 2e be
       0.068190984 -0.16911541 0.04094779 -0.17052749
000330 e6 d7 bb 3c c3 36 0b 3e 33 3e 89 ba c3 74 50 bd
       0.022930097 0.13595109 -0.0010470807 -0.050892603
000340 1b 3a 05 be a6 8e 13 be d1 30 0f be 89 ed 7a 3d
       -0.13010447 -0.14409885 -0.13983466 0.061261687
000350 dd 8f 12 be 1d 6f 0f be 6b 0e e2 3d a3 62 29 3d
       -0.14312692 -0.1400723 0.11037906 0.041353833
000360 f0 68 62 bd 24 45 5b 3d f9 55 3a be 4a a2 34 be
       -0.055275857 0.053532735 -0.18196858 -0.17640033
000370 ac ab 21 3e d6 ba c0 bc 46 ca 8d 3d 74 56 36 be
       0.15788144 -0.02352659 0.06923346 -0.17806417
000380 68 38 1b 3e c5 a1 e1 3c ee 8a 86 bd 75 da d4 bd
       0.15158236 0.027542958 -0.065694675 -0.1039323
000390 c8 bd 43 be 80 13 0f be bb 99 18 3e 9c 74 45 3c
       -0.19115365 -0.13972282 0.14902394 0.012051728
0003a0 2c 3e bc 3d 19 c1 c7 3d b7 56 52 3d 5f 00 bd 3d
       0.09191546 0.09753627 0.05135223 0.092285864
0003b0 a3 85 a9 bc 7d 96 f5 bd cf 73 dc 3d 3e ea d3 bd
       -0.020693606 -0.11991594 0.10764276 -0.103474125
0003c0 72 51 ad bd cd 51 b2 3d 5a e8 a3 bd bf c4 08 3d
       -0.084628 0.087070085 -0.08003302 0.033390757
0003d0 19 82 11 3e 26 27 41 be f4 20 e4 bd e2 52 16 be
       0.14209785 -0.1886259 -0.11139098 -0.14680055
0003e0 98 ae 7d bd eb 80 8a bd 36 c3 c7 3d 00 f7 36 3e
       -0.061934084 -0.067628704 0.097540304 0.1786766
0003f0 95 86 6a bd 7b 56 1d be 2b 60 28 3e c7 b0 c4 3d
       -0.057257254 -0.15365021 0.16442935 0.0960403

body.2.weight f4 [256, 256]
000000 7c 10 05 bd b3 bb 44 bc fd 11 0d bc d2 fc 85 3c
       -0.032486424 -0.012007642 -0.008610246 0.016355906
000010 50 b7 33 bd b9 4c 5a 3d 09 e5 68 3d d9 2b df 3c
       -0.043875992 0.053295825 0.05685905 0.027242588
000020 c6 f9 3b 3d 5a f6 7a bd 1a 45 b1 bc 40 bb 61 bd
       0.0458925 -0.061270095 -0.021639396 -0.055110216
000030 da 96 c7 3c 44 e7 bf 3b dd e6 88 3c f7 dd 6b 3c
       0.024363924 0.0058564264 0.016711647 0.014396182
000040 5a 43 2b bc 46 f5 53 bd 71 00 a6 3c fa 66 30 3d
       -0.01045307 -0.051747583 0.020263882 0.043066956
000050 e0 8b 00 3d b4 ed b7 bc 52 fa c0 bc 6b 88 14 bd
       0.031383395 -0.022452213 -0.023556862 -0.03626291
000060 8d c1 cc 3c 36 90 91 3c 0d af 56 bd a6 7c a6 3b
       0.024994636 0.01776896 -0.052413035 0.005080777
000070 25 eb 0d 3b a2 9d be 3c b2 23 2f 3d 17 0b de 3c
       0.002165505 0.023268525 0.04275865 0.027104897
000080 58 fc 55 bd 38 e0 ef 3c c3 78 0c 3d 66 06 1d 3d
       -0.052242607 0.02928172 0.034294855 0.03833618
000090 e7 03 3d ba d3 72 75 3d c1 51 30 bd 6d d2 62 bc
       -0.00072103593 0.059923958 -0.043046717 -0.013844115
0000a0 ea 28 05 3d bf 3f d8 3c df 34 a7 bc 81 0d 2c bd
       0.03250972 0.026397584 -0.020410953 -0.042005066
0000b0 79 9a 1f 3d 85 ea 77 bd e6 84 1c 3d 0b 56 ae 3c
       0.038965676 -0.06052639 0.03821268 0.021281263
0000c0 66 f3 92 3c f2 5e aa 3c ec 39 8c bb 26 fa 70 bd
       0.017938327 0.020797227 -0.0042793658 -0.05883231
0000d0 f4 78 d6 3c 19 11 19 3a 5f be 35 bd 73 f7 b4 3c
       0.026180722 0.00058390346 -0.044371005 0.02209065
0000e0 fe 29 65 bc 36 45 2d 3d 38 11 49 3c 3d bc 3c 3d
       -0.0139870625 0.042302333 0.012272172 0.046077956
0000f0 1b b0 fd 3c 34 c7 b9 bc 7c 03 3c bd ee 0c 3e 3d
       0.030967763 -0.022677995 -0.04590176 0.04639905
000100 87 f2 36 bd 82 75 33 bd e1 08 82 bd a2 d8 97 bc
       -0.044664886 -0.043813236 -0.0634935 -0.018535916
000110 fc 6f 44 3d 96 65 e4 3c 9e c7 fa bc a1 b7 27 bd
       0.04795836 0.027880471 -0.030612763 -0.040946607
000120 36 54 f3 bc 7a e2 b1 3c 52 c1 29 3c 07 13 85 bc
       -0.02970324 0.021714438 0.010361033 -0.016244425
000130 5a 9a 1e 3d 4a e1 57 bd 46 e2 9f 3c 78 a6 ba 3c
       0.03872142 -0.052705087 0.019517075 0.022784457
000140 3c ff be 3c db 2a 89 3c ac 0c f5 bc ae 82 23 3d
       0.023315065 0.016744068 -0.029913269 0.039919548
000150 31 7c 25 bd 2d 22 4e 3d db a7 d8 3c b6 6a 4c bd
       -0.04040164 0.05032556 0.026447227 -0.049906455
000160 99 28 f7 bc 05 3d 7c bb 77 12 7e 3d b4 84 32 3c
       -0.030170726 -0.003848852 0.06202933 0.010895897
000170 c2 29 46 3d c5 d7 39 bd 55 f0 53 bc 24 a8 6d bd
       0.048379667 -0.04537179 -0.012935718 -0.05802168
000180 1c 34 07 bd 10 fd 25 3d c3 20 5f bd b5 fd ff ba
       -0.03300868 0.040524542 -0.054474603 -0.0019530567
000190 9b 6d 32 bd 99 04 3e 3d 58 04 23 bd 9e 4e a9 3b
       -0.04356156 0.046391103 -0.039799064 0.0051668426
0001a0 bf 66 46 bc 0a 74 b1 3c ba 1f 31 bd 96 42 05 3d
       -0.0121094575 0.021661777 -0.043243147 0.032534204
0001b0 8e fa 00 bd 7b 64 25 bd 22 7b 68 3d 50 a2 80 bd
       -0.031488948 -0.04037903 0.056758054 -0.06280959
0001c0 3b 21 02 3d de 05 f1 bb 35 ca 0c bb 65 83 ae bc
       0.031769972 -0.0073554358 -0.002148283 -0.021302888
0001d0 c2 93 74 3d 13 5d c4 3b 66 29 36 3b 0f 57 b9 bc
       0.059711225 0.0059925406 0.0027795671 -0.02262452
0001e0 e5 2b ca bc ef e9 2d 3d c8 ec e0 3b 94 8a 5e 3d
       -0.024679134 0.042459425 0.006864164 0.054331377
0001f0 f0 3e 29 3a 92 be 75 bd 79 6d 66 bd 1a 57 4a 3d
       0.0006456217 -0.059996195 -0.056256745 0.049399473
000200 8b be ec 3b 8a a6 43 bd 07 b2 82 3b 3a 6d 04 bc
       0.007224863 -0.047766246 0.0039885077 -0.008082682
000210 51 e4 51 3d 1f 9d 48 3d 38 69 3d bc 6b ea 96 b9
       0.05124313 0.048977967 -0.011560731 -0.00028784884
000220 08 82 47 3c ae 55 c3 3c a7 a5 96 bc 68 4d cd 3b
       0.012176998 0.023844566 -0.018389536 0.006265331
000230 09 58 3c bc 68 55 59 bd 26 d0 86 bd b4 c1 3b 3d
       -0.011495599 -0.053059965 -0.0658267 0.045839027
000240 32 eb 2b 3d f4 31 ea bc 5c 24 7e 3c 6c 74 4c 3d
       0.041972347 -0.028588273 0.015511598 0.049915716
000250 19 bb f2 3c 54 b7 72 3c 04 e2 80 bd 92 62 79 bd
       0.02963023 0.014814217 -0.06293109 -0.06088502
000260 51 e5 88 3c 65 f4 9f bb ec e4 2a 3d f4 43 2c 3d
       0.01671091 -0.004881429 0.041722223 0.042056993
000270 9e 4a 56 3d 6e a8 2a bd ca de 0b 3c da 62 00 bc
       0.052317254 -0.041664533 0.008537004 -0.007836068
000280 4d 25 a6 bc 40 92 e8 bc 33 9a 44 3d 8a 67 19 3a
       -0.020281458 -0.02839005 0.04799862 0.00058519153
000290 93 13 18 bd c8 38 ab 3c 54 5a 26 bd 64 69 69 bd
       -0.037128042 0.020901099 -0.040613487 -0.056985274
0002a0 04 bf f7 bc b9 ca d7 3b ac 18 c4 3c f9 c9 3c bd
       -0.03024245 0.0065854457 0.023937546 -0.046091054
0002b0 1d 67 45 bd 6e b8 93 3a 5e 00 e4 b9 7c 06 11 3d
       -0.04819404 0.0011270174 -0.00043487822 0.035406575
0002c0 d9 58 e7 bc af f3 68 3d 18 8e bb 3c 78 d5 17 bd
       -0.028240608 0.05687302 0.022894904 -0.037068814
0002d0 8f 8a b7 bc ff ca 28 3d 31 88 78 bd 51 b4 45 3d
       -0.022404937 0.041209217 -0.060676757 0.048267666
0002e0 d2 8e 62 3d 81 44 87 bc 9f ef 45 3c 4b 61 59 bd
       0.055311985 -0.016512157 0.012081056 -0.0530713
0002f0 89 5e 35 3d b7 77 68 3d df 44 50 bd ea cc 1b 3d
       0.04427961 0.056754794 -0.05084693 0.03803722
000300 26 27 ac 3c 71 cf f2 bc e0 92 ce 3c fe 8e 95 bc
       0.021014761 -0.029639931 0.02521652 -0.01825666
000310 9f 45 d8 bc a6 96 33 3d cd 2d 15 3d fb 84 87 bd
       -0.026400385 0.04384484 0.036420632 -0.06617161
000320 47 ac 3e 3d b4 01 a5 3c 08 e1 00 3d e8 76 45 bc
       0.046551015 0.020142414 0.031464607 -0.012052275
000330 15 a5 6f bd 9a c6 cc bb e1 ad 28 3d 11 95 8a 3c
       -0.058507044 -0.006249261 0.04118145 0.016916784
000340 76 4e 7d 3c cd 25 5c bd 62 8c 2e bd e6 7a 64 bd
       0.015460601 -0.053746987 -0.04261435 -0.055781268
000350 b2 9e 08 bd 03 00 00 bd 49 d6 0a 3d a2 59 a9 3c
       -0.03335447 -0.03125001 0.033895764 0.020672623
000360 d2 5c f6 3c 2c 94 d1 bc 08 d4 0a 3d 32 32 16 bc
       0.030073557 -0.02558335 0.033893615 -0.009167241
000370 f4 4c 5e 3d ef cb 0e bd f4 0b ba bc 44 a7 4d 3d
       0.054272607 -0.034862455 -0.022710778 0.050208345
000380 69 52 e1 bb 6a 65 90 bc 9a 70 89 3c 31 e6 5f 3d
       -0.006876279 -0.017626483 0.016777325 0.054662887
000390 8d 4b 76 bd e0 ba 30 3d e4 9d 16 bd d1 6a c3 3c
       -0.060130645 0.043146968 -0.03677167 0.023854645
0003a0 e8 0e 28 bd cb fa 63 3d 4b c0 09 3d bd ea 73 3c
       -0.04102984 0.055659097 0.03363065 0.014887509
0003b0 4f 5e 2c bc dc a6 a7 bc 75 e2 66 3d 8a e2 07 3c
       -0.010520532 -0.020465307 0.05636831 0.008293757
0003c0 a1 d4 03 bd c3 6d be 3c 80 cc 5e bd 9b 93 4c 3d
       -0.0321852 0.023245698 -0.054394245 0.049945455
0003d0 2d 20 a0 bc e1 13 0c bd 2f ae 82 bc 34 7c 26 3c
       -0.019546593 -0.034198646 -0.015952198 0.010161448
0003e0 ad bb e0 bc 85 0d cd 3c b9 e7 9e 3c 26 f1 03 3c
       -0.02743324 0.02503086 0.019397603 0.0080531
0003f0 84 d7 32 3c d6 a0 30 3d c6 7b 1c 3d 31 6c ba 3c
       0.010915641 0.043122135 0.038203977 0.022756668

body.2.bias f4 [256]
000000 22 50 2c 3c 96 4e ae 3c 4a 59 c2 bc 5b 33 8a bc
       0.010517152 0.021277707 -0.023724217 -0.016870191
000010 ac 24 7f 3d 4c 2a 5c 3d 1b 5b 27 bb 6b 3c d9 3c
       0.062290832 0.053751275 -0.002553648 0.026518067
000020 21 64 e7 3b 81 23 60 3d ae 41 75 bd 5b d5 5d 3d
       0.007061497 0.05472136 -0.05987709 0.05415855
000030 d5 d9 1f 3d a9 69 3d bd e4 3c e5 3c 83 77 d0 3b
       0.0390261 -0.046243344 0.027983136 0.006361903
000040 04 3d 34 39 91 15 84 bb 98 30 22 bd 7d 83 b5 3b
       0.00017188868 -0.004030891 -0.039597124 0.0055393563
000050 04 4e 6f bc 4e a8 0d 3d b0 99 84 bb dd 53 df 3c
       -0.014606003 0.034584336 -0.0040466413 0.027261669
000060 75 e2 b6 3c da 2b 3d bd 79 fc 34 bb fa 3f d1 3b
       0.02232478 -0.0461844 -0.0027616306 0.0063858004
000070 aa 57 b5 bc 10 3a f2 3c 47 84 62 3d f2 5e 25 3d
       -0.022136528 0.029568702 0.05530193 0.04037375
000080 c0 0b 24 3d 46 09 4d bd 66 09 71 bd 96 22 06 bd
       0.04005027 -0.050057672 -0.058846854 -0.032747827
000090 c3 10 33 bd ff 96 1b 3d 4f c6 71 3d 96 5e 28 bd
       -0.043717157 0.037985798 0.059027012 -0.04110583
0000a0 00 da 1f 3d da 5f 87 3d 3f 93 90 3c 78 e7 10 bb
       0.03902626 0.06610079 0.017648337 -0.0022110622
0000b0 0d 38 28 39 8f 78 d4 bc 8a b5 34 3d de a3 6b bd
       0.00016042609 -0.025936393 0.04411844 -0.057529323
0000c0 8f db 4f 3d c1 c9 b1 bb 37 9c a5 ba 46 6b 50 3d
       0.050746497 -0.0054256623 -0.0012635057 0.050883554
0000d0 23 ca 37 bc 45 51 25 bd 0c 88 c8 3c 79 c1 b9 3c
       -0.011217627 -0.040360708 0.024478935 0.022675263
0000e0 a7 00 44 3a 8f bb 0c 3c 17 95 4a 3c fb 51 57 bd
       0.0007476904 0.008589639 0.012364647 -0.052568417
0000f0 a9 d6 b5 3c 25 64 12 3d 83 60 2f bd 20 6b d0 bc
       0.022197085 0.035740037 -0.04281665 -0.025441706
000100 cc 88 8c bc 5f 42 f1 bc b9 cb 46 3d 4e 65 d3 bc
       -0.017155074 -0.029450594 0.04853413 -0.025805142
000110 51 b0 5b bc c0 84 78 bd 12 02 75 bd 2a 7d 44 bd
       -0.013408736 -0.060673475 -0.059816428 -0.04797093
000120 c6 eb 87 3d 02 86 70 bd a3 5a 80 bc f7 d6 c7 ba
       0.06636767 -0.05872155 -0.015668219 -0.001524656
000130 a4 53 59 bd aa 54 54 bc b2 65 71 bc cc 19 50 3c
       -0.05305828 -0.012959639 -0.014733719 0.012701463
000140 17 fb 66 3d 4f 0d 9f 3c 35 d4 b8 bb 96 4f f0 bb
       0.0563918 0.019415526 -0.0056405314 -0.007333706
000150 a8 3a 25 3d 03 ea 26 3d 63 6a 42 3d 98 c4 b5 bc
       0.040339142 0.040750515 0.04746474 -0.02218847
000160 d0 a5 34 3d be e6 da 3c 31 de 81 3d 24 80 9c 3c
       0.044103444 0.026721355 0.06341208 0.019104071
000170 d2 ed 4b 3d 07 1d 2f 3c c9 02 b6 bc be 95 ea 3c
       0.04978735 0.010688073 -0.022218125 0.028635856
000180 32 0b 84 bc 2e 5f ba bb c2 d0 5f bd 7b 3a 2f bd
       -0.01611862 -0.005687616 -0.054642446 -0.04278038
000190 fc d3 3d bd 76 84 53 3c 70 c4 25 3c 40 a4 75 bd
       -0.046344742 0.012909999 0.010117635 -0.059971094
0001a0 d8 8f 35 bd ba 37 2c 3d cb e6 82 bc 28 e0 2c 3d
       -0.044326633 0.042045332 -0.015979191 0.04220596
0001b0 b5 11 46 bd 70 56 ff bb e8 3d 71 3d f9 b3 17 3b
       -0.04835673 -0.0077922866 0.05889693 0.0023148044
0001c0 26 db 6b 3d b8 98 92 3c 83 29 71 bd 4e 30 77 3c
       0.057582043 0.017895088 -0.05887748 0.0150872
0001d0 8f 34 d7 3c ed 4d 54 3d de e8 10 3d 48 c9 2a 3d
       0.02627018 0.05183213 0.03537833 0.041695863
0001e0 72 b2 1c bd 4c 6f fd 3b 5f cb 1e 3d 3a 47 b2 bc
       -0.038256116 0.007734215 0.03876817 -0.02176248
0001f0 21 dd 21 bc 74 97 af bb f7 09 6c 3d aa bb ee 3c
       -0.009879381 -0.005358631 0.05762669 0.02914222
000200 94 0b 1f bd 89 5c 70 bc 4a 90 49 bd 91 8d 12 bc
       -0.0388294 -0.0146705 -0.04920987 -0.008944885
000210 db 61 07 bd 00 62 47 3c 3c e6 e4 bb a7 fc 3f bc
       -0.033052307 0.012169361 -0.006985454 -0.011717952
000220 94 0f 25 bd ed b7 e4 3c d1 ff f6 ba 6f c1 2c bd
       -0.04029806 0.027919734 -0.001884455 -0.04217666
000230 1d be 15 bd 4d 15 e1 bb 30 33 35 bb a7 2e 0b bd
       -0.03655826 -0.0068689943 -0.0027648918 -0.033980038
000240 a6 0b b5 3b f2 f8 37 bc 57 97 10 bd 0c ba 66 3d
       0.0055250702 -0.011228787 -0.03530058 0.056329772
000250 37 0c 7d 3d d9 e0 76 3c 3c fd 90 bc 3e 6b 55 3d
       0.061779227 0.015068256 -0.017698877 0.052104227
000260 9a 63 0b 3d 7b a3 34 3c be f5 36 bd 38 b2 45 bd
       0.034030534 0.011025305 -0.04466795 -0.048265666
000270 94 58 1d bd 15 4a 9e 3b e5 39 60 bc 1f 9f 11 bc
       -0.038414553 0.0048306086 -0.013685678 -0.008888035
000280 2d 2a 6a 3d 80 c9 57 3d 7c 4c 1e bd 95 b8 07 bd
       0.05716913 0.0526824 -0.03864716 -0.033135016
000290 77 e4 62 3d f2 29 5b 3a da 61 58 bc 88 a0 06 bc
       0.055393662 0.00083604374 -0.013206923 -0.008216985
0002a0 55 a2 36 3d b7 3d a5 bc 62 95 85 3b 05 81 fd bc
       0.044588406 -0.02017103 0.0040766457 -0.03094531
0002b0 c9 d8 6f 3a 6d 61 8a 3d db dd 5c bd 67 1d 07 bd
       0.000914943 0.06756864 -0.053922515 -0.032987025
0002c0 2e 01 30 bd 07 e2 40 bc 4f e8 19 3d 11 1a 3e bd
       -0.042969875 -0.011772639 0.037575062 -0.046411578
0002d0 a2 4c 40 bd ad 68 63 3d 43 39 2b bd 51 8d 2c 3d
       -0.046948083 0.05551975 -0.041802656 0.042126957
0002e0 e1 2e 82 bd 31 ec 1e 3d 59 d1 dc 3b f1 56 a9 bc
       -0.06356598 0.03879947 0.0067388234 -0.02067134
0002f0 11 d4 8d ba 0d 31 b8 3c 64 39 3c 3d 2e 7b 5a bd
       -0.0010820647 0.022484327 0.04595317 -0.05334013
000300 d3 85 6e 3c 2e 53 46 bc 60 4b 12 3d ca 04 46 bd
       0.014558273 -0.0121047925 0.035716414 -0.04834441
000310 f1 66 54 bd 26 da 63 3d 5b 98 ae bc 53 c9 08 bb
       -0.051855985 0.055627964 -0.021312883 -0.0020871952
000320 65 3e 28 3d c4 31 eb bc db 11 45 3d 06 03 41 bd
       0.04107513 -0.028710254 0.04811273 -0.047122024
000330 b2 da c2 bc ba 85 5f 3c 89 64 2c bc 99 d3 35 3d
       -0.023785923 0.013642723 -0.010522016 0.04439125
000340 b2 9c e7 bc f8 0d 56 bd 50 a8 a5 bc 66 d1 11 bc
       -0.02827296 -0.052259415 -0.02022186 -0.008900022
000350 a2 7f e2 bc fe 5b 07 3d 12 3a a9 bc ad 60 c6 bc
       -0.02764875 0.033046715 -0.020657573 -0.02421602
000360 58 45 75 3d fc b7 76 bc 28 90 55 3d ef a9 85 3c
       0.059880584 -0.015058514 0.05213943 0.016316382
000370 c2 3d b7 3c e8 83 52 bd d8 1c 21 bd 31 ab 63 3d
       0.022368316 -0.051395327 -0.03933415 0.055583183
000380 2f 90 86 3c 08 30 04 3d 92 9f fa bc 38 0c 14 3d
       0.016426174 0.03227237 -0.030593667 0.036144465
000390 70 02 d0 bc 1e 28 7a bc 8c 86 60 3d 84 bd 3f 3d
       -0.025391787 -0.015268354 0.054815814 0.046811596
0003a0 a7 0b 29 3d ac e5 3d bd 85 0a 6e bd 71 60 8f 3c
       0.04127088 -0.04636161 -0.0581155 0.017502042
0003b0 19 a0 aa 3c 51 cb 6e bd ea 88 f3 3c 08 a7 67 bd
       0.020828294 -0.058299366 0.029728372 -0.056555778
0003c0 2c b5 0d 3d c3 26 62 bd 09 44 18 3d 9f 6d 8f bc
       0.034596607 -0.055212747 0.03717426 -0.017508326
0003d0 d5 63 85 3c c5 78 80 bd a7 96 07 bd c1 2f 19 3d
       0.016282955 -0.06273035 -0.033102658 0.037399057
0003e0 c3 c8 09 bd fc 6a 76 3b 22 21 1b 3d 95 de 60 3d
       -0.033638727 0.0037600389 0.037873395 0.05489977
0003f0 19 56 27 3c b3 8b 01 3d 24 60 10 3d bf d5 61 3d
       0.010213398 0.03162737 0.035247937 0.055135485

body.4.weight f4 [128, 256]
000000 66 85 dc 3b e2 d0 12 3d 7d d6 6f bd 24 9c e5 3c
       0.0067297695 0.035843737 -0.05855416 0.028028555
000010 23 4f 0e 3c a7 71 50 bd d9 07 a0 3c da f5 0c bd
       0.00868586 -0.050889637 0.019534992 -0.03441415
000020 21 9e 3e 3b d2 7e b2 3c c6 56 d9 3c 02 39 37 3d
       0.0029085951 0.021788988 0.026530635 0.0447321
000030 e9 23 6c bd 5f d6 58 bc 4d 4f 37 3c 43 fc 3d bd
       -0.057651434 -0.013234704 0.01118834 -0.046383154
000040 62 ec f3 bb cb d2 ec bb 97 35 fc 3a 8e 8e 1e 3c
       -0.0074439505 -0.007227277 0.0019242045 0.009677542
000050 c6 f4 35 bd 8a de 5e 3c 12 76 65 3d cb aa d1 3b
       -0.044422887 0.013602862 0.056020804 0.006398534
000060 7a 87 43 3d b4 7b 1c bd 0a 25 1d bd 25 4a 1d 3d
       0.047736622 -0.03820391 -0.0383654 0.038400788
000070 cc d7 07 3d 07 3b 32 bc 25 d0 f4 bc 79 bb 29 bd
       0.033164784 -0.010878331 -0.029884407 -0.041438553
000080 4e 96 0c bd 5e 82 37 3d d2 00 09 bd 61 a3 e2 bb
       -0.03432303 0.044802062 -0.033448048 -0.006916449
000090 88 82 29 3c 9c 59 de 3c 9e ac 51 ba fb fe 12 3d
       0.0103460625 0.027142338 -0.0007998439 0.0358877
0000a0 26 0d a0 3b 11 47 6c bd a0 2c a7 3c 14 93 b8 3a
       0.00488438 -0.05768496 0.020407021 0.0014081919
0000b0 48 b2 36 3b e3 d1 6f bd cd f8 0d bc fd 19 4e bd
       0.002787726 -0.058549773 -0.008665276 -0.050317753
0000c0 85 97 4a bc 0f 95 04 bd 71 07 69 3d a6 56 6f 3b
       -0.012365227 -0.032368716 0.056891862 0.0036520152
0000d0 4b ee 83 bc b6 2c 70 bc a0 60 2d bc 8a 3e ee 3c
       -0.016104838 -0.014659097 -0.010582119 0.029082555
0000e0 e1 4e 47 3d 75 78 2e 3b 9f 80 70 bd 74 87 c1 3c
       0.04865921 0.002662209 -0.058716413 0.02362416
0000f0 2f 41 27 bd c5 83 5d bd 63 33 58 bd ba 4c 00 bd
       -0.04083365 -0.054080743 -0.05278338 -0.031323172
000100 81 5a f3 bc 87 b5 4d bc ea 7c 0c bc c8 07 89 bc
       -0.029706242 -0.0125554865 -0.008574704 -0.016727343
000110 d8 93 22 3d 89 98 e9 bc 4d ad ca 3b 33 a8 28 3d
       0.039691776 -0.028515117 0.00618521 0.041176032
000120 b4 60 54 bd b9 59 14 3d 6f be fd bb b0 59 11 bd
       -0.051850036 0.03621838 -0.0077436487 -0.035485923
000130 53 1f 58 3d 2f 42 c2 3c d8 7c 8e ba 55 9f 76 bc
       0.052764248 0.0237132 -0.0010870947 -0.015052636
000140 38 5b 32 3c f3 cb e3 bc 58 64 6c bd 35 f7 d1 3b
       0.010886006 -0.027807212 -0.057712883 0.006407643
000150 bc b3 55 bc ef 71 1d bb fc a1 c4 bb 72 9b e1 bc
       -0.01304334 -0.0024024209 -0.0060007554 -0.027539942
000160 96 e2 1a bd 2a 30 b5 bb 8c 7b cd bc b9 58 25 bd
       -0.037813745 -0.0055294232 -0.025083326 -0.040367816
000170 46 b6 48 3c ea 90 6f bc 49 30 e7 bc 7b 0d 76 bd
       0.012250489 -0.014621953 -0.028221266 -0.06007145
000180 75 61 81 3c 79 e0 06 bd cc 9f ee 3c fe 39 33 3d
       0.015793541 -0.032928918 0.029128931 0.043756478
000190 b0 a6 57 bd 91 3a 57 3c 3e 65 50 3d 3c 94 85 bc
       -0.0526492 0.013136522 0.050877802 -0.016306035
0001a0 04 c1 9c bc 21 a6 e0 3c 94 04 3f 3d b7 dc a8 bc
       -0.019135006 0.027422966 0.046635225 -0.020613058
0001b0 f3 71 06 3d 1c a3 1e 3c f7 83 58 bd 81 e8 56 3d
       0.032823514 0.009682443 -0.052860226 0.052467827
0001c0 68 8d 0d bd f8 a2 a5 3c f7 5f 1c 3d 7f e6 12 bd
       -0.034558684 0.020219311 0.038177457 -0.03586435
0001d0 80 b6 e9 bc d0 6e 17 bd c7 22 f4 3c 26 82 46 3d
       -0.028529406 -0.036970913 0.02980174 0.048463963
0001e0 19 76 61 3d b8 49 7f 3d a7 56 ad bc 8e 75 2d bd
       0.055044267 0.062326163 -0.021159483 -0.042348437
0001f0 03 e3 73 bd 8d 5c 14 3d 5d 7e ff bc bb 95 23 3c
       -0.059542667 0.036221076 -0.031188184 0.009984429
000200 eb aa a7 3c 17 fc 8a bc 90 5d 1f bc b5 c8 6f 3d
       0.020467242 -0.016965909 -0.009726897 0.05854102
000210 6a 52 6a 3d c5 fb 58 bd 85 98 0f 3d 6c d2 23 bc
       0.057207502 -0.05297448 0.035057563 -0.009998899
000220 97 2e 51 bd 2f 51 a8 3c 82 8b 55 bd ac b9 62 3d
       -0.051069822 0.020546524 -0.052135 0.05535285
000230 0b be 70 bd 76 4c aa bc 65 d7 e4 3c eb cd 10 bb
       -0.05877499 -0.020788413 0.02793474 -0.0022095393
000240 bd 41 d8 3c 0c 25 56 bb 2b 19 e7 3c 01 32 1c 3d
       0.026398534 -0.003267589 0.028210243 0.038133625
000250 03 8b 22 3c 18 7d 5c 3c 97 cd 82 bc 69 56 7f bd
       0.009920838 0.013457559 -0.015967174 -0.062338267
000260 5f 05 84 3c 42 91 18 bd ce 04 08 bd 6e e5 f4 bb
       0.016115842 -0.037247904 -0.033207707 -0.007473639
000270 94 0b df 3c 4a d8 71 3d 5f 8d 85 3d d5 1b 5d bd
       0.0272272 0.05904416 0.06521105 -0.05398162
000280 5a d6 3b 3d 96 92 f7 3c 3d 82 a9 3c c5 25 83 bd
       0.04585872 0.030221265 0.020691985 -0.06403688
000290 c2 d7 24 bd 22 c7 49 3d 2c 9c 3f 3d 8d 98 d7 3c
       -0.040244825 0.049262173 0.046779796 0.026317859
0002a0 94 ed 61 3c 1a ab 25 bd a0 51 bf bc ac 58 e3 3b
       0.013789553 -0.04044638 -0.023354352 0.0069380607
0002b0 37 0a e6 bc e1 5e f0 3c de 42 cc bc f4 65 bc ba
       -0.028081043 0.029342117 -0.024934229 -0.0014373646
0002c0 d8 00 28 bd 6f c3 ef 3c 53 04 61 3d 48 a7 90 3c
       -0.04101643 0.029267995 0.054935765 0.01765789
0002d0 30 55 3d 3b 80 f0 ac 3c fb 03 38 bc 56 33 44 bc
       0.0028889887 0.021110773 -0.011231418 -0.01197513
0002e0 22 70 52 3c 0f ae c9 bb 41 31 67 bc d2 4e 40 3d
       0.012844117 -0.0061547826 -0.014110864 0.04695017
0002f0 9e 28 ff bc 06 f3 3f bd 15 d0 be bc b2 5d 14 3d
       -0.031147297 -0.046862625 -0.02329258 0.036222167
000300 a5 2c fe bc b9 09 32 bd 4a 2e 85 bd aa 61 82 3c
       -0.031027148 -0.043466303 -0.065029696 0.01591571
000310 2c eb 01 3d d5 18 cf 3c 8b ca b4 bc 7a b1 4d 3d
       0.031718418 0.025280396 -0.022069236 0.050218083
000320 30 ed 5a 3d 97 2d 82 3c 7e 4e 9a bc 6b cb 13 bd
       0.053448856 0.01589088 -0.018836256 -0.036082666
000330 fe aa 70 3c e2 08 d7 bc ef bc 64 bd 6b 2b 1b 3c
       0.014689205 -0.026249353 -0.055844244 0.009470801
000340 40 90 74 3d e7 9b 61 bd e7 46 31 3c 1b 25 13 3d
       0.05970788 -0.05508032 0.010820127 0.03592406
000350 70 5d 0f 3d 4b 78 55 3d 20 24 4b 3d c2 3f ed bc
       0.03500122 0.052116673 0.049595 -0.028961066
000360 8d e3 d1 3c 0e 40 70 bc 1b d4 17 bc 37 54 1b bd
       0.0256212 -0.014663709 -0.0092668785 -0.03792211
000370 a4 fe b9 3b 79 aa a5 3c 3b 4f 19 bd 09 da 7e ba
       0.0056761075 0.02022289 -0.037429076 -0.0009721821
000380 6a e6 04 3d 42 1e a0 bb ff 2c 11 3d d5 47 bc bb
       0.032446302 -0.0048864195 0.035443302 -0.0057458677
000390 1d dc 17 3d 6e 1b 77 bb 45 63 49 bb 71 e3 35 bd
       0.03707515 -0.0037705558 -0.0030729335 -0.04440636
0003a0 3a 0a c5 3c af e1 0c 3c cb 6e 7d bd c4 c2 e5 3c
       0.024052728 0.008598729 -0.06187324 0.028046973
0003b0 b7 10 03 3d 95 f5 04 3c b5 17 ce bc aa 8a 5d 3d
       0.031998362 0.008115192 -0.025157789 0.05408732
0003c0 7c 87 09 bc 2b 24 2c bd b2 ce 4d bd 2e 98 25 bd
       -0.008394118 -0.04202668 -0.050245948 -0.040428333
0003d0 50 80 d1 3c 05 d6 c4 bc 36 1e 63 bd 79 56 94 bc
       0.02557388 -0.024027834 -0.055448733 -0.01810764
0003e0 17 5f 04 3d 5c e2 82 bc ee 4e eb bb 41 79 4f bd
       0.032317247 -0.015977077 -0.00718104 -0.050652746
0003f0 10 95 e6 3c 5f 9d 54 3d 7c c5 6c 3d 15 a0 db 3c
       0.02814725 0.051907893 0.057805523 0.026809731

body.4.bias f4 [128]
000000 27 91 3e bd 86 11 59 3d 04 85 3f bd 12 ca 5d 3d
       -0.046525147 0.052995227 -0.046757713 0.054147787
000010 1d 48 46 bc 83 fa 36 bd 17 98 7b 3d 00 33 77 bd
       -0.012102154 -0.0446725 0.06142434 -0.06035137
000020 d7 0b 7a 3d 3a 0c 3b 3d 34 38 a5 bc e8 30 7f 3d
       0.061046448 0.045665957 -0.020168401 0.0623025
000030 f1 7b 0f bc 25 26 c4 3c f1 ae 02 3d 23 6f 15 3c
       -0.008757577 0.02394397 0.03190512 0.009120735
000040 8f 75 6b 3b d9 9b 13 bb 55 3f 1d 3d d0 76 04 bd
       0.0035928225 -0.0022523312 0.038390476 -0.03233987
000050 8d 27 9d bc df 98 62 bd c9 1e 8a bc 2f 2e d2 bc
       -0.019183898 -0.05532157 -0.016860383 -0.025656788
000060 0f 10 30 bd 50 29 45 3d d6 8d 1d 3d 08 82 05 bd
       -0.042984065 0.0481351 0.038465343 -0.03259471
000070 60 e0 13 3d f6 b6 63 3c 79 c1 95 3c 1a 0d 0f 3d
       0.036102653 0.013898602 0.018280732 0.034924604
000080 a9 db 2d 3d ae de 1d bd 68 64 13 bd 08 81 6d 3d
       0.042445812 -0.038542442 -0.035984427 0.057984382
000090 58 8f 61 bd 50 a0 16 bd dd 26 67 3d 41 29 54 3d
       -0.055068344 -0.03677398 0.056433547 0.051797155
0000a0 b5 e7 20 bc 36 68 1e 3d 11 76 2f 3c 6c 74 80 bd
       -0.009820868 0.038673602 0.010709302 -0.06272206
0000b0 68 cb 9e 3c 61 80 69 3d ee 0f 65 3d f2 ba 6f bd
       0.019384101 0.057007197 0.055923395 -0.058527894
0000c0 0e 33 a3 bc 9c 34 44 bd 9c a8 c4 bc 60 94 66 bd
       -0.019921806 -0.047901735 -0.02400618 -0.056293845
0000d0 71 44 61 3d 6e c4 4d bd d7 ac 6c bd 33 44 1f ba
       0.05499691 -0.050236158 -0.05778202 -0.0006075531
0000e0 28 ad 6a 3d 02 53 67 3d 5f f7 44 3d 37 29 42 bc
       0.05729404 0.056475647 0.048087474 -0.011850647
0000f0 b5 ff 05 bd d2 3b cf bc 01 43 c6 3c 17 6b 7e 3c
       -0.032714564 -0.02529708 0.024201872 0.015528462
000100 54 cc 31 bd 69 3b 63 3d 5c eb c1 bc 6c bd a7 bb
       -0.043407753 0.05547658 -0.023671798 -0.0051190164
000110 38 ed 5f bd 0f c2 7f bd 80 ae ca bc 8c 9b 70 3d
       -0.05466959 -0.062440928 -0.024741411 0.05874209
000120 d0 93 3d 3d 22 31 40 3c d2 3b 24 bd 0b 46 b1 3a
       0.046283543 0.011730464 -0.04009611 0.0013524903
000130 d2 7e cd bb 94 61 af 3c fa 4c cf ba a6 c4 41 bb
       -0.0062712217 0.021408834 -0.0015815787 -0.0029566674
000140 f0 b3 95 ba e7 ea 34 bd e9 2b fa 3c cb ec 8f 3c
       -0.0011421423 -0.044169333 0.030538516 0.017568966
000150 8a 5b aa bc e0 9a 9c bc 58 69 a3 3b 56 91 7d bd
       -0.020795602 -0.019116819 0.004986923 -0.06190618
000160 43 67 81 3d 29 d3 05 bc d2 f5 18 3d 17 a1 1e bd
       0.06318524 -0.00816802 0.037343808 -0.038727846
000170 80 64 b7 bc 2a 0c 8c bc 1a d7 34 bd 54 e1 41 bc
       -0.02238679 -0.017095644 -0.04415045 -0.011833508
000180 66 1e e4 bb c3 24 0d 3d c1 44 1f bd 92 33 2a 3c
       -0.0069616316 0.034458887 -0.03888393 0.010388272
000190 19 92 57 bd 0d b5 32 3c 65 2e 55 3c 25 57 ff bc
       -0.052629564 0.010907424 0.01301155 -0.031169483
0001a0 a5 0e 1a bd a5 92 03 bd 2e 17 c1 3b 8d f1 01 3d
       -0.037611622 -0.032122273 0.005892656 0.0317245
0001b0 f5 dd b4 bc f5 b4 62 3d 00 d7 6c ba 8a e1 5e bd
       -0.022078494 0.055348355 -0.0009034723 -0.05441431
0001c0 e9 b7 58 3d 26 49 db 37 40 bc 18 bd b5 16 1f 3c
       0.052909765 2.6140897e-05 -0.037288904 0.009710004
0001d0 a1 80 22 3c 19 53 2e bc 7e 02 00 3d ed 7b 07 3d
       0.009918363 -0.010639929 0.031252377 0.03307717
0001e0 69 15 ed bc 93 d4 3e bd da 97 e2 3c a6 ff 0b bc
       -0.028940873 -0.046589445 0.0276603 -0.008544838
0001f0 7c 91 94 3c d7 62 87 bc 80 63 ca 3c 5e 3e a5 3c
       0.018135779 -0.016526623 0.024705648 0.02017134

move_head.weight f4 [5, 128]
000000 2e 02 a2 3d f0 e1 9b 3d 6e 7e 82 b9 72 96 1a 3d
       0.07910572 0.076114535 -0.0002488973 0.037741132
000010 f0 b9 11 3d f2 52 6f bd 01 34 9f bd 95 47 9a bd
       0.035577714 -0.058428712 -0.07773591 -0.075331844
000020 28 fd 8a bd e8 04 54 bb 89 d5 5a 3d 9f 8d b2 bd
       -0.06786567 -0.0032351557 0.0534263 -0.08718418
000030 1c a7 a7 3d 81 1f 6e bd 7a 15 27 3d 1e cd af 3d
       0.081861705 -0.058135513 0.040791966 0.08584045
000040 19 c6 0e bd 97 02 e6 bc ea 57 a8 3d f3 7a 92 bd
       -0.03485689 -0.028077407 0.08219893 -0.07152357
000050 01 ef b9 bd 05 cc b2 bd 81 a0 0a bd 16 d9 5b bd
       -0.090787895 -0.0873032 -0.033844475 -0.053673826
000060 3f a0 81 3d f1 e7 17 bd b5 68 9d bd 38 1c 89 3c
       0.06329393 -0.03708643 -0.07685987 0.016737089
000070 14 6c 4e 3b 56 cc ec 3c e0 17 d9 bc cc 1f a6 3c
       0.0031497525 0.028906029 -0.026500642 0.020278834
000080 f5 9d 5a 3b ac 50 f2 bb 50 d5 ef bb e6 61 5b 3d
       0.003335831 -0.0073948707 -0.00731913 0.05356016
000090 d1 f4 7c bb 05 ef 07 3d 76 ed b6 bd 7b 77 8e 3d
       -0.003859807 0.03318693 -0.08932011 0.06956383
0000a0 8b e1 c6 3b 10 e0 9c 3d ee 82 0a bd b0 b6 8a 3d
       0.0060693673 0.07659924 -0.03381627 0.06773126
0000b0 7a ee b2 bd 1a 6c 9c 3d 30 de 37 bd c7 8d 3a bd
       -0.08736892 0.07637806 -0.04488963 -0.045545366
0000c0 a5 74 9a 3d 4b 27 90 bb ef ef a2 3d 15 48 83 3d
       0.075417794 -0.0043992153 0.0795592 0.06410233
0000d0 91 6a 62 3d 74 62 59 3d 86 98 52 3d 58 7e 05 bd
       0.05527741 0.053072408 0.05141499 -0.032591194
0000e0 19 7d 68 bd 5e 23 2f bb 10 10 44 bd 0b a0 54 ba
       -0.056759927 -0.0026723961 -0.04786688 -0.00081110065
0000f0 c4 dc 69 3d c7 bb 7a bd e3 a2 bc bd a3 25 6c 3b
       0.057095304 -0.061214235 -0.09210756 0.0036033175
000100 c5 d4 7d bd e3 d2 c8 bb 78 d2 4c 3c 0e 3a b1 bd
       -0.06197049 -0.0061286553 0.012501352 -0.08653651
000110 57 69 35 3d 80 cf 84 3d ea f0 11 3c 03 c5 cd 3c
       0.044289913 0.0648489 0.008907536 0.025118357
000120 52 fa b0 bd 96 3f 04 3d ef 06 96 3d b0 d8 6c bc
       -0.08641495 0.032287203 0.07325541 -0.014455959
000130 9e 53 63 bd 82 77 dd 3c 71 74 87 bd 83 af 91 3d
       -0.055499665 0.027034525 -0.06614006 0.07113554
000140 00 10 6c bd cc 97 d7 3c 78 45 a2 39 87 3a 28 3b
       -0.057632446 0.0263175 0.00030950806 0.002566965
000150 ae ed ad bd 26 d0 05 3b 8d 8f 74 3d 70 1f e9 3c
       -0.084925994 0.0020418256 0.059707213 0.028457373
000160 54 39 05 bd 64 f8 5a 3b 06 50 58 bd 7a 65 3d 3d
       -0.032525375 0.0033412213 -0.05281069 0.046239354
000170 a7 7e 9a 3d af 29 e8 3c 5e a4 5f 3d 77 8e 03 bd
       0.07543688 0.028340189 0.054600112 -0.032118287
000180 b5 53 65 3d 62 8a a6 bd a9 67 87 3b e5 b9 ab bd
       0.055988032 -0.08131863 0.0041322303 -0.08385066
000190 2c 82 26 bd ec 4c a4 bd a5 00 8b bd ec 12 c2 3c
       -0.040651485 -0.08022484 -0.06787232 0.023690663
0001a0 7a 9b 6c bd 1f 6c c2 3c 2c 44 a4 3d 82 5f dd 3b
       -0.05776546 0.023733197 0.08020815 0.00675577
0001b0 9f 66 bd bd cc 8e 24 bc bc e0 77 bd 54 50 66 3c
       -0.09248089 -0.010043811 -0.060517058 0.014057238
0001c0 5f e0 2f 3d 6a 77 70 3d 82 1b 1e 3d 34 52 72 bd
       0.042938586 0.058707632 0.038600452 -0.059160426
0001d0 c7 ee 80 bd 27 33 9b 3d 10 ec 8e bd ae e7 89 bc
       -0.06295543 0.07578116 -0.06978619 -0.016834106
0001e0 60 0d 1f 3c 30 ef 00 bd 3f 96 da bc a9 17 6d bd
       0.009707779 -0.031478107 -0.026682971 -0.057883892
0001f0 85 15 69 bd 0a f7 b0 bc 6b 0a 03 bc 2e 5f a1 3d
       -0.05690529 -0.021602172 -0.007998089 0.07879482
000200 fb 4a 9e bd b1 00 28 bd 04 bd 3b bc 4d 75 a0 bd
       -0.07729145 -0.041016284 -0.011458639 -0.07834873
000210 ba 0c 4f 3d 2c d6 0c 3d 65 be 20 bd 58 82 96 3c
       0.050549246 0.034383938 -0.039244074 0.0183727
000220 dc 65 92 bd 39 d5 97 3d 98 a5 ad bd ae 50 2e 3d
       -0.071483344 0.07413716 -0.0847885 0.04255741
000230 9d b7 4e bd 26 8c 92 bc b1 b1 9b bd 1b 79 de bc
       -0.050468076 -0.017889094 -0.07602251 -0.027157357
000240 85 9d 38 bd c7 dd de bc 54 32 22 bd 18 18 a3 bd
       -0.045072097 -0.027205361 -0.039598778 -0.0796358
000250 c8 f4 50 3d 33 19 89 bd 67 b3 a0 3d 22 20 02 3d
       0.05101469 -0.066942595 0.07846718 0.031768925
000260 9b 0f 9d 3d f9 f2 2b bc d2 aa 89 3d 3c 7c 77 bd
       0.07668992 -0.010494941 0.067220345 -0.060421214
000270 36 3e 43 bc 47 b4 e2 bb 77 00 28 bc 34 1c 56 bd
       -0.011916688 -0.0069184634 -0.010254017 -0.05227299
000280 9a e6 45 3d 94 59 e2 3b 20 2d 98 3d ca ac 16 3d
       0.048315622 0.006907651 0.07430482 0.03678588
000290 74 b5 ef bc 2b dd a2 bd 37 b3 12 b9 42 2f 79 3d
       -0.029261328 -0.07952341 -0.00013990408 0.060836084
0002a0 30 d7 b0 bd 9f e5 14 3d 95 52 8c 3d 98 bf 4e 3c
       -0.08634794 0.036351796 0.06851689 0.012618922
0002b0 94 73 0a 3d e2 65 e8 bc 7a 28 14 3d 28 d6 a4 3c
       0.03380163 -0.028368894 0.036171414 0.020121649
0002c0 1f fa c1 3c 8a 2c 98 bb 3a b1 db bc 21 13 67 bd
       0.023678837 -0.0046439813 -0.026817907 -0.056414727
0002d0 08 13 33 3d 73 d5 9d 3d 4d 54 9f 3d 9e 52 a0 3c
       0.04371932 0.07706728 0.07779751 0.019570645
0002e0 3b aa 9e 3d 5a d3 65 3d b6 86 a5 3d c1 66 b7 bc
       0.07747313 0.056109764 0.08082335 -0.022387864
0002f0 cb 3d ad 3d 98 7e 50 3b d6 ab ae bd 68 dd b4 bd
       0.08459052 0.0031813737 -0.08528869 -0.088312924
000300 da 30 9f 3d 9c 5b ab bd f6 b1 09 bd a0 17 08 bc
       0.077729896 -0.083670825 -0.033616982 -0.008306414
000310 cd 2d 7c 3c 8d 7f 94 3d 21 ac 99 bc b1 f6 45 3d
       0.015391779 0.07250891 -0.018758835 0.048330966
000320 07 e1 1a bd 1e 0f 17 bc 0f 49 a8 bd 2a 4a 3d bd
       -0.03781226 -0.009219913 -0.0821706 -0.046213306
000330 de 90 42 3c fd ea 3e bc ac 63 ae bc 55 de 65 3c
       0.011875359 -0.011652705 -0.021287762 0.014030059
000340 20 dd d8 bc cd 58 97 bd 5a d9 fa bc 56 15 04 3d
       -0.026472628 -0.07389984 -0.03062122 0.03224691
000350 0d fd 91 bd 89 74 96 bc 27 18 06 bc 7c dc 99 bd
       -0.07128344 -0.018366115 -0.008184469 -0.07512757
000360 c0 0c 5d bd 9a 00 08 bd ac 6a 86 3d 6f b9 94 bd
       -0.053967237 -0.0332037 0.06563315 -0.07261931
000370 3b 22 2d bd e3 24 54 bd bc 8c b4 3d c6 77 5d 3c
       -0.042268973 -0.05179299 0.088159055 0.013517326
000380 d3 30 50 3d d1 81 fd 3c 0c f7 59 3d 78 73 82 bd
       0.050827812 0.03094569 0.053214118 -0.0636968
000390 54 52 94 3d 09 78 94 bb 62 09 86 3c 74 3a 84 bd
       0.07242265 -0.004530911 0.016361896 -0.064564615
0003a0 97 27 24 bd a4 3e d8 3c 5f 13 59 bd 85 df a2 bb
       -0.04007682 0.026397057 -0.05299699 -0.0049704933
0003b0 64 ca a2 3d 0d 43 83 3c b4 9d 68 3b db 62 ee bc
       0.07948759 0.016023183 0.003549439 -0.029099872
0003c0 c6 3e a6 bb af de f5 bc a5 03 1f 3d 31 4a 0a 3d
       -0.005073401 -0.03001341 0.038821835 0.03376216
0003d0 a7 4b ce 3c 4d 06 e4 3c 12 bd 6e bd 55 3b ae 3d
       0.025182558 0.027835036 -0.05828578 0.085074104
0003e0 d3 4f c3 3b fb 10 ab bb 4c 0e 01 3d 52 24 6c 3d
       0.0059604435 -0.00522053 0.031507775 0.057651825
0003f0 1c 46 7d 3d 72 e9 a8 bd bf b7 fc 3c 28 77 5b bd
       0.06183444 -0.08247651 0.030849336 -0.053580433

move_head.bias f4 [5]
000000 d3 d6 ac bd 57 c9 13 3d d4 00 5e 3c d6 44 c4 3c
       -0.08439412 0.036080685 0.013550002 0.023958605
000010 09 82 a2 bd
       -0.079349585
