checkpoints/simple_world_comm_v3_scratch/simple_world_comm_v3_adversary_0_ep750.pt (torch, 437311 bytes, 8 tensors)

body.0.weight f4 [256, 34]
0.060144577 -0.09990277 0.12013523 0.1565534 0.0073374463 0.028256593 0.10087059 0.008314186
-0.08410413 -0.1461929 -0.11769195 0.06594405 0.12261175 0.080576584 -0.14271086 -0.17661563
-0.16243125 0.14830264 0.048960812 -0.1913785 -0.04810887 -0.11778591 0.08099729 -0.03758502
0.043328445 0.05585522 0.010663248 0.15655328 -0.07996545 -0.049930967 0.012390436 0.16223443
0.09800106 -0.0014391452 0.11607634 -0.1259614 0.013542467 0.045301944 0.009620616 -0.16102216
-0.111569166 0.11098008 0.01588468 0.15641539 0.03640561 0.048136253 -0.1573367 0.048572015
-0.071653105 0.045106303 -0.004999568 -0.014217428 0.1316665 0.08801687 -0.12419004 -0.14763002
0.09042631 -0.09289628 0.1301388 -0.092365235 -0.1330273 -0.018715143 -0.056741875 -0.15610527
-0.16885816 0.0605066 -0.07940618 0.09370254 -0.033792585 -0.09419655 -0.11213847 -0.11324293
0.07238509 -0.14898095 -0.12188937 -0.1295651 -0.082791574 0.13029245 -0.08705959 0.11715832
-0.08118403 -0.13481578 -0.104956836 -0.13759251 0.08094666 -0.040126592 0.09022692 0.022634681
-0.1809674 0.0013282376 -0.15648168 0.11771298 -0.049537513 0.13518538 0.13113526 -0.16076799
0.07094732 -0.011879677 -0.12515382 0.11191155 0.057988886 -0.014930645 -0.11631063 0.016794024
-0.04149881 0.12928334 0.054090183 -0.10755871 -0.0798062 -0.021653108 0.056770686 0.11717222
0.027204262 -0.16353156 -0.013501294 -0.14847244 0.092107385 -0.1365415 0.09473868 0.09377394
-0.030654574 -0.15095368 -0.17612867 -0.08021309 -0.15937626 -0.13359588 -0.13647029 0.1269731
-0.119641915 -0.0100752115 0.13036624 -0.028946232 -0.038798448 0.033442155 -0.07456895 -0.12542582
0.14919634 0.057517964 0.11489209 0.028979484 -0.19134589 0.053414024 -0.10954133 0.021289162
0.014698272 -0.14765373 -0.14440443 -0.043632302 -0.08692443 0.09393314 -0.057686284 0.010857319
-0.093848705 -0.058952633 0.09242795 -0.0062445127 0.04011445 -0.011103467 0.11855513 -0.1694629
-0.054754965 -0.062347755 -0.10983175 -0.029590104 0.10470534 0.13860029 0.069845125 0.0037198933
0.02884687 0.09197853 0.07903152 0.058609314 0.034170315 -0.11615558 0.031289533 0.17293966
-0.020816147 -0.11143411 0.018753327 -0.03381847 -0.013644196 -0.1564057 0.12267656 0.15653683
0.0027911784 -0.022406662 0.17127101 0.07177215 0.12633975 0.14459586 0.1241007 0.09126766
0.09185477 -0.1319744 0.001598541 -0.14877631 0.08391523 0.08799259 0.017066244 -0.15515937
-0.103140816 -0.053880747 -0.12477365 0.04331536 0.1491691 0.12453241 0.16479991 -0.005048635
0.052759983 -0.044802982 -0.17287174 0.13163781 -0.16478273 0.13503867 0.020375174 -0.17104976
0.043322418 -0.11821514 -0.059060298 0.15297054 0.10792 -0.02223257 0.11600711 -0.07649057
-0.017953001 0.12891862 -0.039920293 0.06728231 -0.0927964 -0.086440325 -0.013093494 0.06416275
-0.0056860414 0.088650905 0.0630239 0.10909082 -0.15129976 -0.06854822 0.14354716 -0.11348735
-0.08334987 0.11522634 0.14447226 -0.14016004 -0.14069265 -0.09763147 0.04682127 -0.13164435
-0.1542296 0.018892206 -0.10349735 0.031748347 0.15450434 -0.055970654 0.15067093 0.1355542
00000000: 295a 763d d399 ccbd 7609 f63d 894f 203e
00000010: f66e f03b 5f7a e73c 3d95 ce3d 3938 083c
00000020: c93e acbd 97b3 15be 7a08 f1bd ad0d 873d
00000030: df1b fb3d 5605 a53d cc22 12be bada 34be
00000040: 6154 26be a6dc 173e 228b 483d baf8 43be
00000050: ce0d 45bd bd39 f1bd e8e1 a53d c0f2 19bd
00000060: 2b79 313d 71c8 643d e7b4 2e3c 814f 203e
00000070: edc4 a3bd 6a84 4cbd 4101 4b3c c820 263e
00000080: c8b4 c83d b3a1 bcba 6fb9 ed3d 06fc 00be
00000090: 39e1 5d3c 888e 393d ca9f 1d3c fee2 24be
000000a0: 607e e4bd 8649 e33d 9720 823c 5b2b 203e
000000b0: 0d1e 153d 852a 453d df1c 21be 73f3 463d
000000c0: ddbe 92bd 63c1 383d 6bd3 a3bb 37f0 68bc
000000d0: 95d3 063e 3042 b43d 5957 febd 532c 17be
000000e0: 6e31 b93d 6840 bebd 1b43 053e fc29 bdbd
000000f0: 4f38 08be 8050 99bc 2b6a 68bd 0fda 1fbe
00000100: 27e9 2cbe c5d5 773d b59f a2bd 1ee7 bf3d
00000110: 186a 0abd 1fea c0bd dba8 e5bd e9eb e7bd
00000120: a23e 943d 768e 18be 22a1 f9bd b7ac 04be
00000130: a18e a9bd 626b 053e 4c4c b2bd b4f0 ef3d
00000140: d043 a6bd 260d 0abe 9cf3 d6bd 0de5 0cbe
00000150: 5dc7 a53d c85b 24bd e4c8 b83d 5e6c b93c
00000160: 854f 39be 4218 ae3a bc3c 20be 8113 f13d
00000170: d9e7 4abd 096e 0a3e 5248 063e 5da0 24be
00000180: d44c 913d faa2 42bc 5328 00be e231 e53d
00000190: c185 6d3d aa9f 74bc 4534 eebd 9f93 893c
000001a0: a8fa 29bd da62 043e ab8d 5d3d be47 dcbd
000001b0: 6f71 a3bd dc61 b1bc 6188 683d fdf7 ef3d
000001c0: 79db de3c d174 27be 8834 5dbc 2909 18be
000001d0: cca2 bc3d 89d1 0bbe 5a06 c23d 8d0c c03d
000001e0: 4d1f fbbc 9a93 1abe 135b 34be c346 a4bd
000001f0: 8833 23be 5ccd 08be debe 0bbe 3c05 023e
00000200: d206 f5bd 8012 25bc ba7e 053e a620 edbc
00000210: 1feb 1ebd a4fa 083d 9bb7 98bd a06f 00be
00000220: edc6 183e f597 6b3d 8b4c eb3d 6266 ed3c
00000230: 2df0 43be aac8 5a3d 3457 e0bd 9c66 ae3c
00000240: 05d1 703c 8a32 17be c1de 13be c9b7 32bd
00000250: 7005 b2bd 0560 c03d 7448 6cbd e6e2 313c
00000260: c033 c0bd 5178 71bd dd4a bd3d c59e ccbb
00000270: 0d4f 243d 51eb 35bc 08cd f23d af87 2dbe
00000280: be46 60bd 5c60 7fbd 78ef e0bd f266 f2bc
00000290: c16f d63d 3ced 0d3e f60a 8f3d 74c9 733b
000002a0: 4550 ec3c 3d5f bc3d 47db a13d 5210 703d
000002b0: 2cf6 0b3d fae2 edbd 7429 003d 1817 313e
000002c0: a086 aabc 9137 e4bd 94a0 993c 3c85 0abd
000002d0: e88b 5fbc d128 20be d93d fb3d 314b 203e
000002e0: 34ec 363b 2d8e b7bc ab61 2f3e 47fd 923d
000002f0: 355f 013e f010 143e 8228 fe3d 8aea ba3d
00000300: 5b1e bc3d 4c24 07be 2386 d13a d158 18be
00000310: c0db ab3d 7635 b43d 82ce 8b3c 19e2 1ebe
00000320: 7e3b d3bd 0fb2 5cbd 5489 ffbd 726b 313d
00000330: c9bf 183e d90a ff3d 4fc1 283e 056f a5bb
00000340: da1a 583d 5583 37bd 4a05 31be 10cc 063e
00000350: cebc 28be 9447 0a3e d6e9 a63c ab27 2fbe
00000360: d972 313d c81a f2bd 36e9 71bd 4fa4 1c3e
00000370: 2905 dd3d 1421 b6bc 2395 ed3d 17a7 9cbd
00000380: 2c12 93bc 3e03 043e 7683 23bd 4fcb 893d
00000390: 0a0c bebd a007 b1bd 1886 56bc c367 833d
000003a0: f951 babb 9b8e b53d ad12 813d 026b df3d
000003b0: 53ee 1abe 0263 8cbd 07fe 123e 0e6c e8bd
000003c0: 56b3 aabd cafb eb3d 89f0 133e 1d86 0fbe
000003d0: bc11 10be 02f3 c7bd a9c7 3f3d c7cd 06be
000003e0: 5dee 1dbe d4c3 9a3c 6bf6 d3bd 8e0a 023d
000003f0: 6336 1e3e 7c41 65bd 7b49 1a3e b8ce 0a3e

body.0.bias f4 [256]
0.06731978 -0.012741678 0.034343615 -0.073525466 0.08037976 0.00048756096 -0.1257042 -0.1572181
-0.042053647 0.05614123 0.053809095 0.11550565 0.05816664 0.118398614 -0.008703633 -0.15817036
-0.032303493 0.025263807 -0.01892329 0.014437468 0.121646814 -0.06723896 0.13767444 0.05905457
-0.095849805 0.09555928 -0.037314873 0.1452856 0.16327819 0.13464129 -0.11157914 0.038138982
-0.08901698 0.0010260078 0.11015455 0.1104871 0.029655501 -0.11364036 0.016711565 -0.0954706
0.14335641 -0.055168055 0.15160863 0.15792373 -0.009296053 -0.14590313 -0.003755421 -0.1569623
0.0009001325 -0.039193366 0.16158892 0.13238625 0.12640677 -0.045271974 -0.095543936 0.008952119
-0.16232328 0.113566354 0.09607036 0.04884155 0.019704826 -0.1200104 -0.1259134 0.12285851
0.1079519 -0.124882795 -0.16342522 0.062385175 0.18434332 0.09237081 0.16700915 0.14494546
0.16110985 -0.050682906 -0.05847153 -0.0022568533 0.024518251 0.14932024 0.13941377 0.10385469
0.025626127 0.14706434 -0.08907573 0.013326425 0.15927412 -0.06624716 0.0090831565 0.1147931
-0.057062186 0.009742245 -0.15346286 0.019960962 -0.07592492 -0.10393546 -0.045844533 -0.0053591887
-0.076159224 0.09183142 -0.07311285 -0.022205584 0.1349447 -0.04574592 -0.13817693 -0.10677736
-0.18263122 -0.115163974 0.15963933 0.049594242 0.08862141 0.1211205 -0.10436819 -0.06487918
0.0038866943 0.17738494 -0.15052211 -0.17079286 -0.14206716 0.11713992 -0.09234788 -0.023344072
0.1368883 0.10467329 -0.10393283 0.103123724 -0.054007083 -0.11724083 0.036263347 -0.03257
-0.042368658 -0.15809095 0.1772553 0.024805035 0.057403103 0.115954675 -0.027532993 -0.08925113
0.07929446 -0.048934247 -0.0202437 0.14723799 0.140469 -0.10291257 -0.08454832 -0.12491961
0.072912686 -0.037160955 -0.16990778 0.17937179 -0.15449506 0.005762322 0.10363703 0.014849279
0.0147245675 0.047391575 0.08427914 -0.109345846 -0.09513626 0.029599518 -0.082859226 -0.10226567
-1.2651599e-05 -0.034575503 -0.13661627 -0.109251626 -0.07854014 0.17660855 0.04797991 0.09222291
-0.07422511 0.14046663 0.1233384 0.09063487 0.04661478 0.16488186 -0.0002724035 0.13199519
0.10249923 0.008199108 0.0399274 -0.11189279 0.12642214 0.1361616 0.1318682 0.04334686
0.0035766172 -0.052391134 0.07110759 -0.09647217 -0.13010749 -0.09569558 -0.10933363 0.11419144
0.13659926 0.059588186 0.0161037 0.06746974 0.08860576 -0.026768874 0.106725596 0.04440436
-0.13941337 0.020863008 0.040519472 0.042513452 -0.14997312 -0.10796467 0.01636898 0.05871741
0.10255128 0.07698097 -0.044601947 -0.03188308 0.15323223 0.1492397 -0.09722908 -0.027933884
0.13964224 0.09701549 -0.01580617 0.016952297 0.05083381 -0.1432703 0.11754281 0.09080689
-0.050435018 0.116761014 0.11533496 0.042467833 -0.10423488 0.10504087 -0.016520763 -0.0015908238
-0.068452656 -0.025449496 -0.024956014 0.071736865 -0.13713552 0.015265207 -0.10232678 0.1275857
-0.15794206 -0.07152225 0.12912485 0.061205253 0.072658464 0.06899761 0.017765217 -0.11567822
0.08889105 -0.11573214 0.026042596 0.010067343 -0.15229811 -0.06724502 -0.11421329 -0.039171096
00000000: f4de 893d 79c2 50bc e4ab 0c3d 8594 96bd
00000010: 259e a43d 539f ff39 9ab8 00be c8fd 20be
00000020: 7240 2cbd 59f4 653d ed66 5c3d 3a8e ec3d
00000030: 2540 6e3d f97a f23d af99 0ebc 69f7 21be
00000040: ab50 04bd 0bf6 ce3c 0405 9bbc 218b 6c3c
00000050: f721 f93d 94b4 89bd 87fa 0c3e 34e3 713d
00000060: e74c c4bd 95b4 c33d 7bd7 18bd c0c5 143e
00000070: 6632 273e 68df 093e 9b83 e4bd 9f37 1c3d
00000080: 894e b6bd 1c7b 863a b598 e13d 1047 e23d
00000090: 18f0 f23c 47bc e8bd b1e6 883c 1786 c3bd
000000a0: 06cc 123e e6f7 61bd 4b3f 1b3e c2b6 213e
000000b0: 794e 18bc a167 15be 821d 76bb baba 20be
000000c0: dff6 6b3a 3989 20bd 9177 253e 4390 073e
000000d0: c770 013e 1b6f 39bd 8aac c3bd e9ab 123c
000000e0: 1338 26be 7a95 e83d 89c0 c43d 140e 483d
000000f0: 046c a13c 03c8 f5bd 71ef 00be 3e9d fb3d
00000100: e315 dd3d 8dc2 ffbd f158 27be 9987 7f3d
00000110: 7fc4 3c3e e82c bd3d 7204 2b3e 956c 143e
00000120: fbf9 243e e198 4fbd d87f 6fbd b7e7 13bb
00000130: 80da c83c 68e7 183e 7cc2 0e3e c5b1 d43d
00000140: e2ed d13c 0998 163e 566d b6bd 1457 5a3c
00000150: c118 233e 97ac 87bd 85d1 143c a518 eb3d
00000160: 0aba 69bd f09d 1f3c 5e25 1dbe 2c85 a33c
00000170: 867e 9bbd 1ddc d4bd 7ac7 3bbd 229c afbb
00000180: 5ef9 9bbd 1d12 bc3d 31bc 95bd 7ce8 b5bc
00000190: f22e 0a3e 1360 3bbd 417e 0dbe 17ae dabd
000001a0: ae03 3bbe 17db ebbd 7e78 233e 5523 4b3d
000001b0: 247f b53d 060e f83d fdbe d5bd 60df 84bd
000001c0: e9b7 7e3b 66a4 353e 7822 1abe 53e4 2ebe
000001d0: 0e7a 11be 0ee7 ef3d e320 bdbd 113c bfbc
000001e0: 722c 0c3e f35e d63d bcda d4bd 8832 d33d
000001f0: 8836 5dbd f61b f0bd e088 143d 1f68 05bd
00000200: c28a 2dbd 98e2 21be 6a82 353e ee33 cb3c
00000210: 841f 6b3d a579 ed3d df8c e1bc 4cc9 b6bd
00000220: 2265 a23d 476f 48bd 1ed6 a5bc 8ec5 163e
00000230: 1bd7 0f3e d3c3 d2bd ab27 adbd dad5 ffbd
00000240: 3f53 953d 1636 18bd 4efc 2dbe 3dad 373e
00000250: f433 1ebe dcd1 bc3b a73f d43d 644a 733c
00000260: 503f 713c ab1d 423d 8b9a ac3d b7f0 dfbd
00000270: cdd6 c2bd b07a f23c 19b2 a9bd aa70 d1bd
00000280: 3442 54b7 0b9f 0dbd 23e5 0bbe 51bf dfbd
00000290: a7d9 a0bd dfd8 343e 9586 443d 5ddf bc3d
000002a0: 5603 98bd 7cd6 0f3e d898 fc3d c69e b93d
000002b0: 24ef 3e3d cad6 283e 61d1 8eb9 bf29 073e
000002c0: 1eeb d13d 8d55 063c ea8a 233d 0c28 e5bd
000002d0: ce74 013e f26d 0b3e 7508 073e 7a8c 313d
000002e0: ae65 6a3b 1698 56bd dba0 913d 3393 c5bd
000002f0: e63a 05be 0bfc c3bd 4fea dfbd 34dd e93d
00000300: ade0 0b3e be12 743d e8eb 833c 932d 8a3d
00000310: f076 b53d 664a dbbc f392 da3d 59e1 353d
00000320: 61c2 0ebe e6e8 aa3c bff7 253d 9622 2e3d
00000330: 8e92 19be 951c ddbd 3d18 863c ab81 703d
00000340: 6806 d23d 33a8 9d3d 88b0 36bd d597 02bd
00000350: e9e8 1c3e 4bd2 183e 0a20 c7bd 9ad5 e4bc
00000360: 60fe 0e3e 0fb0 c63d f17b 81bc 8bdf 8a3c
00000370: 1d37 503d 73b5 12be 49ba f03d f6f8 b93d
00000380: f394 4ebd 6620 ef3d bc34 ec3d c0f2 2d3d
00000390: 1979 d5bd ab1f d73d 8d56 87bc 3083 d0ba
000003a0: e830 8cbd 767b d0bc 8e70 ccbc c7ea 923d
000003b0: 416d 0cbe eb1a 7a3c b490 d1bd d3a5 023e
000003c0: 90bb 21be 427a 92bd 4e39 043e 5cb2 7a3d
000003d0: f6cd 943d 9e4e 8d3d 5c88 913c b4e8 ecbd
000003e0: 830c b63d f904 edbd 4857 d53c 7ff1 243c
000003f0: 09f4 1bbe c2b7 89bd a8e8 e9bd df71 20bd

body.2.weight f4 [256, 256]
0.049185887 0.003167543 0.071708575 0.026994117 0.022548415 0.0039809337 0.051193528 -4.9910865e-05
0.020211767 -0.06256729 0.056197274 -0.059088264 0.0362735 -0.0228391 -0.028457578 -0.042612806
-0.042143967 0.012955576 0.053439286 -0.024256008 -0.012072974 9.94312e-06 -0.04370012 0.0258667
-0.022974694 0.07451683 0.012749395 -0.027900713 0.07503634 0.017210145 0.027984163 0.005168211
-0.052673113 -0.014155592 -0.047928587 -0.02448465 -0.05989611 -0.053294886 -0.038361523 -0.043467518
0.040713727 -0.03648073 -0.024407677 0.023282941 -0.020834757 -0.02008377 0.0077238465 0.043861948
0.057631332 -0.017767137 -0.019122468 -0.017776119 0.0042864596 -0.01383014 0.052656654 0.020177346
-0.02853968 -0.05209185 -0.05742115 0.040543545 -0.038971424 -0.014988714 -0.02611237 -0.047505252
-0.04125002 0.011287942 0.016670037 -0.0101801 0.013230194 0.042673796 -0.03745863 0.058340266
-0.04516386 0.046848666 0.013723148 -0.0069637042 0.0053460547 0.044771276 -0.02552413 -0.036579594
-0.0024319727 -0.026917744 -0.015045437 -0.046448484 0.025709685 0.015526014 0.00021867034 0.04855081
0.00026800405 -0.0036529594 -0.04634935 0.042290397 0.00074996497 -0.075849034 -0.020374127 -0.012407092
0.0051635583 0.04874996 -0.046322785 0.009276014 -0.011450935 -0.06318224 0.024419997 0.00096512964
0.0045353216 -0.019017458 0.0011065047 -0.021204157 -0.032031193 -0.00529924 0.0052053942 -0.011029253
0.042820647 0.049007695 -0.04036457 0.033089582 -0.017376952 0.06636399 0.019014496 0.0046800575
0.0083698 0.046262845 -0.057978455 0.036322437 -0.03275424 0.05318433 -0.013937107 -0.0142739285
0.031919334 0.038121942 0.048847105 0.042107332 -0.0045850445 0.040929433 -0.01988361 0.022060448
-0.02233158 0.044691358 -0.055858787 0.041228954 -0.036028847 -0.043690432 0.012586271 0.0036738596
-0.04106395 0.07117797 -0.0583566 -0.018040376 -0.034386232 -0.006537157 0.047374677 -0.038825154
0.044415858 0.0447894 0.042873103 0.02540101 0.015434567 -0.016780395 -0.04976327 -0.03263227
-0.011845188 0.051775165 0.038432524 -0.05725351 0.053278405 0.008997637 -0.048164338 0.031979244
-0.03098359 0.045201603 -0.031730805 -0.04388876 0.058655363 0.055702884 -0.05238529 0.021156054
0.020280529 -0.02594474 -0.047688574 0.0021373641 -0.020084662 0.060724407 -0.0012106297 -0.018875629
0.044588443 0.012565188 -0.02116617 0.009380739 0.0042188726 -0.011712291 0.06320293 0.040267102
-0.027014729 -0.0033199177 0.047347855 -0.023023022 0.0064624315 0.045849662 -0.025285624 0.0022592917
0.03318362 -0.050284833 0.0526353 0.06313283 -0.016677875 0.020678537 0.06324494 -0.017707534
0.0011610773 0.049972817 -0.04186162 0.03756219 -0.008302296 0.041490085 -0.030152507 -0.029829789
0.036385205 0.015890019 -0.035649173 -0.02295827 0.041401565 0.054690685 0.006094348 -0.03715546
0.02420821 0.015449313 -0.04321539 0.00071775814 0.00043461044 0.049954742 -0.07455877 0.076786965
0.008833082 0.0033745058 -0.035732497 -0.04771761 0.019945197 0.028860815 -0.03260691 -0.024203567
-0.040373433 -0.013729692 0.0668829 0.044593845 0.046341613 -0.038969636 0.050116625 0.013808661
-0.020884363 0.017283628 0.042994205 -0.03210356 0.021870831 0.030446962 -0.026407305 0.05654747
00000000: 2477 493d 8e96 4f3b f2db 923d c422 dd3c
00000010: 74b7 b83c 7e72 823b 4eb0 513d 6257 51b8
00000020: 2693 a53c 4823 80bd 1d2f 663d 8906 72bd
00000030: 8693 143d 1019 bbbc de1f e9bc c48a 2ebd
00000040: 279f 2cbd a043 543c 27e3 5a3d 89b4 c6bc
00000050: b9cd 45bc 60d1 2637 e6fe 32bd 67e6 d33c
00000060: 6d35 bcbc 489c 983d d7e2 503c 0990 e4bc
00000070: a7ac 993d 4afc 8c3c 0b3f e53c 195a a93b
00000080: c3bf 57bd dbec 67bc c450 44bd 0894 c8bc
00000090: a055 75bd bd4b 5abd f920 1dbd ff0a 32bd
000000a0: 70c3 263d d16c 15bd 9cf2 c7bc debb be3c
000000b0: a7ad aabc b886 a4bc 5218 fd3b 96a8 333d
000000c0: d50e 6c3d 638c 91bc b9a6 9cbc 399f 91bc
000000d0: 6e75 8c3b d097 62bc 81ae 573d f64a a53c
000000e0: 0ccc e9bc 445e 55bd 7132 6bbd fd10 263d
000000f0: 80a0 1fbd 3993 75bc 9ce9 d5bc de94 42bd
00000100: c8f5 28bd 0ff1 383c 9a8f 883c 6fca 26bc
00000110: 75c3 583c b8ca 2e3d 386e 19bd 34f6 6e3d
00000120: bdfd 38bd 63e4 3f3d 0ed7 603c c92f e4bb
00000130: f52d af3b 1662 373d fb17 d1bc 7cd4 15bd
00000140: bb61 1fbb 9a82 dcbc 2381 76bc c440 3ebd
00000150: 1e9d d23c d360 7e3c df4a 6539 37dd 463d
00000160: e582 8c39 7d66 6fbb d1d8 3dbd b238 2d3d
00000170: 4c99 443a bd56 9bbd a4e7 a6bc 1e47 4bbc
00000180: 1133 a93b 0aae 473d f6bc 3dbd 6cfa 173c
00000190: b49c 3bbc b165 81bd 720c c83c c100 7d3a
000001a0: 099d 943b 80ca 9bbc 2308 913a 57b4 adbc
000001b0: 2433 03bd 3fa5 adbb 0392 aa3b 0ab4 34bc
000001c0: b464 2f3d 4bbc 483d 5255 25bd f188 073d
000001d0: 1c5a 8ebc d8e9 873d 4ac4 9b3c 2b5b 993b
000001e0: 7c21 093c 1c7e 3d3d d17a 6dbd d6c6 143d
000001f0: 4f29 06bd d0d7 593d 7758 64bc 32dd 69bc
00000200: d9bd 023d c125 1c3d e713 483d bd78 2c3d
00000210: 243e 96bb 9fa5 273d f4e2 a2bc 1db8 b43c
00000220: b8f0 b6bc 490e 373d 2fcc 64bd b1df 283d
00000230: fc92 13bd bdf4 32bd a636 4e3c 23c5 703b
00000240: ac32 28bd c1c5 913d 5507 6fbd 69c9 93bc
00000250: 94d8 0cbd a635 d6bb f30b 423d 2007 1fbd
00000260: 67ed 353d 1775 373d b59b 2f3d c715 d03c
00000270: 44e1 7c3c 0a77 89bc 92d4 4bbd 6aa9 05bd
00000280: 5212 42bc 3212 543d 6c6b 1d3d a882 6abd
00000290: 753a 5a3d d36a 133c f847 45bd abfc 023d
000002a0: 4cd1 fdbc 5125 393d 29f8 01bd b3c4 33bd
000002b0: 9b40 703d b528 643d f591 56bd 764f ad3c
000002c0: 5a23 a63c 108a d4bc 1855 43bd 0513 0c3b
000002d0: 9788 a4bc 28ba 783d fead 9eba 10a1 9abc
000002e0: 5fa2 363d 38de 4d3c ad64 adbc acb1 193c
000002f0: 783e 8a3b e9e4 3fbc 8a70 813d 1eef 243d
00000300: fe4d ddbc fa92 59bb d3ef 413d c79a bcbc
00000310: cec2 d33b dbcc 3b3d cc23 cfbc a010 143b
00000320: 8ceb 073d 78f7 4dbd 1d98 573d c94b 813d
00000330: 0aa0 88bc 0966 a93c 9086 813d 640f 91bc
00000340: 4a2f 983a 4cb0 4c3d 1777 2bbd d0da 193d
00000350: 5a06 08bc 82f1 293d 6402 f7bc 9a5d f4bc
00000360: a708 153d c92b 823c de04 12bd fb12 bcbc
00000370: b094 293d 5703 603d 19b3 c73b 5330 18bd
00000380: 4c50 c63c 1e1f 7d3c 9f02 31bd ef27 3c3a
00000390: 6ddc e339 589d 4c3d 45b2 98bd 7c42 9d3d
000003a0: a2b8 103c d026 5d3b 3d5c 12bd 8a73 43bd
000003b0: 1c64 a33c 846d ec3c d38e 05bd 8f46 c6bc
000003c0: 9d5e 25bd 81f2 60bc e7f9 883d 09a8 363d
000003d0: b4d0 3d3d a09e 1fbd 1747 4d3d b93d 623c
000003e0: af15 abbc 6596 8d3c b11a 303d 067f 03bd
000003f0: 752a b33c e86b f93c 2254 d8bc 529e 673d

body.2.bias f4 [256]
-0.026740884 -0.0013694536 -0.04544375 0.061900742 -0.034531206 -0.030107765 -0.050572578 -0.032994013
-0.0374438 0.032846123 0.0649036 -0.029674884 -0.06507936 0.0137779405 0.05074557 0.047494162
-0.003931027 -0.060635794 0.044743378 0.0036915746 0.042164523 0.034993198 0.06593037 0.050227985
0.033533208 0.053791944 0.0033335846 0.030576356 0.061943144 -0.060860742 -0.058260687 -0.012136895
0.039663043 -0.007875425 -0.011495128 -0.01724413 -0.0015544306 -0.025821436 -0.027752971 0.057166297
0.034221213 -0.026467247 0.009088401 0.05453523 0.0025008267 -0.050913706 -0.024728386 -0.021269636
-0.023006259 0.009186897 -0.013645473 0.012548231 0.02415866 0.0696384 -0.04892998 -0.012940181
-0.00032879337 -0.048144817 0.047284577 -0.025336726 0.014297704 -0.056827202 0.02930688 -0.036533408
0.0033193193 -0.06572731 0.06752674 0.05119745 0.011025584 -0.017626187 -0.012556427 0.047372017
-0.0025749267 0.032929666 -0.037438173 -0.052952573 0.025912512 -0.03311403 0.032236043 -0.03031145
-0.03766277 0.020658959 -0.009279512 0.014064647 0.0005150347 -0.005320577 0.04968141 -0.01567204
0.008344835 0.014405152 -0.05280164 -0.037003987 0.037361503 0.06256501 0.05512162 0.045252893
0.00025137526 0.048451975 -0.037367873 0.0019557353 -0.024215924 -0.020298203 0.006675857 -0.04270227
-0.05169329 0.018607264 -0.0035450486 0.051691573 0.060358964 -0.009399594 0.021371806 -0.048118208
-0.041066226 0.002892188 0.0223403 -0.056542587 -0.009872566 -0.04964834 -0.049014296 -0.02800932
-0.022341864 -0.040201508 -0.03360463 0.00178504 0.041708555 0.01343898 0.0102268495 0.024570728
0.019889727 0.046131782 -0.007802013 0.06430469 -0.04762283 -0.000114435854 0.04856901 -0.0011664244
-0.0032197786 -0.0032818592 -0.025779162 -0.05787791 0.027872581 0.0070482483 -0.06215991 -0.018161105
0.048727587 0.05768771 -0.010089576 -0.04305897 0.055905387 0.018950911 -0.03946014 -0.012907911
0.019231027 -0.017488455 0.06542937 0.065003365 0.007948151 -0.06951817 0.009382161 0.064136215
-0.06290377 0.027565446 -0.03254914 0.019631721 0.06831287 0.046105415 -0.009974349 0.061551906
-0.00096038124 0.04568942 0.0199759 -0.04537527 -0.039817564 -0.010161917 0.016251948 -0.042644497
0.063427635 -0.03135989 -0.053322256 0.053006567 -0.043745056 -0.07101846 0.013145356 -0.03455574
0.049996346 0.013027113 0.00078382634 -0.021969412 -0.007198771 -0.06021958 -0.029280663 -0.0037259771
0.047868572 0.0362665 -0.041140445 -0.011415414 0.046374485 -0.022140874 -0.027310483 0.008434365
0.020057652 0.00167243 -0.05203858 0.0481716 -0.025007876 -0.023381097 -0.025806993 -0.02148519
0.046464663 0.0033260062 -0.0054882336 -0.014168201 0.0125772115 -0.05184532 0.0015135201 -0.04636745
-0.046468217 0.0033168884 0.071023665 0.057855967 -0.011728333 0.046529837 0.016604248 -0.026398055
-0.0009181853 0.028898712 -0.059911944 0.030652108 -0.050963756 0.02999553 0.05238847 -0.051126786
-0.014016983 -0.05012759 -0.039220456 0.0045450325 -0.016839148 0.046910316 0.06261371 0.05323923
-0.053677253 -0.0026362366 0.059272695 -0.013663121 0.05125758 0.06062863 0.0124957645 -0.003419917
-0.050173894 0.006025692 0.023493307 -0.04565558 -0.021588411 0.025505606 -0.025795244 0.03614309
00000000: b30f dbbc 3d7f b3ba 3a23 3abd a28b 7d3d
00000010: 9870 0dbd 8fa4 f6bc 3125 4fbd bb24 07bd
00000020: ac5e 19bd a889 063d 2eec 843d be18 f3bc
00000030: 5448 85bd dfbc 613c 96da 4f3d 3d89 423d
00000040: d8cf 80bb 3d5d 78bd d544 373d 58ee 713b
00000050: b5b4 2c3d 0755 0f3d 8006 873d dcbb 4d3d
00000060: 1e5a 093d f154 5c3d 4578 5a3b 447b fa3c
00000070: 18b8 7d3d 1d49 79bd c2a2 6ebd d4d9 46bc
00000080: b775 223d ed07 01bc 1056 3cbc 9043 8dbc
00000090: 09be cbba 7a87 d3bc 335a e3bc 3527 6a3d
000000a0: 8b2b 0c3d d7d1 d8bc 84e7 143c 5560 5f3d
000000b0: e9e4 233b e48a 50bd 2f93 cabc a93d aebc
000000c0: 9f77 bcbc a484 163c 4391 5fbc 1897 4d3c
000000d0: 62e8 c53c 949e 8e3d cd6a 48bd 0e03 54bc
000000e0: e661 acb9 8033 45bd 79ad 413d f78e cfbc
000000f0: eb40 6a3c a4c3 68bd fb14 f03c 0ea4 15bd
00000100: f088 593b 0a9c 86bd 764b 8a3d 6bb4 513d
00000110: a7a4 343c cb64 90bc 79b9 4dbc 2909 423d
00000120: 1ac0 28bb 42e1 063d c558 19bd cce4 58bd
00000130: 7a46 d43c 94a2 07bd f109 043d b84f f8bc
00000140: 4744 1abd fa3c a93c 1809 18bc 686f 663c
00000150: 6503 073a 3c58 aebb bc7e 4b3d a662 80bc
00000160: c6b8 083c 9603 6c3c 8846 58bd 7e91 17bd
00000170: 6008 193d 1522 803d 35c7 613d 195b 393d
00000180: 04cb 8339 9475 463d 0e0f 19bd cb2b 003b
00000190: 7960 c6bc 6b48 a6bc 26c1 da3b 93e8 2ebd
000001a0: 58bc 53bd 436e 983c 0c54 68bb 8bba 533d
000001b0: f63a 773d c100 1abc ed13 af3c 9917 45bd
000001c0: 0f35 28bd dd8a 3d3b 0103 b73c 3399 67bd
000001d0: 8bc0 21bc 0f5c 4bbd 37c3 48bd cd73 e5bc
000001e0: 4906 b7bc 56aa 24bd 02a5 09bd 01f8 e93a
000001f0: 97d6 2a3d 2b2f 5c3c 848e 273c 8d48 c93c
00000200: c8ef a23c aef4 3c3d 07a8 ffbb 2db2 833d
00000210: 2810 43bd 48fd efb8 4cf0 463d b5e2 98ba
00000220: ec02 53bb 7614 57bb d22e d3bc 6311 6dbd
00000230: 0a55 e43c fef4 e63b 649b 7ebd 99c6 94bc
00000240: 9496 473d f349 6c3d c04e 25bc 9a5e 30bd
00000250: 0cfd 643d f13e 9b3c f5a0 21bd b47b 53bc
00000260: 638a 9d3c f343 8fbc d5ff 853d 7c20 853d
00000270: f638 023c 8b5f 8ebd a3b7 193c d959 833d
00000280: b1d3 80bd eed0 e13c 3f52 05bd b4d2 a03c
00000290: 9ee7 8b3d 08d9 3c3d 746b 23bc da1d 7c3d
000002a0: 18c2 7bba d424 3b3d 80a4 a33c 6bdb 39bd
000002b0: be17 23bd 2b7e 26bc ce22 853c ffab 2ebd
000002c0: 59e6 813d 3a73 00bd 7068 5abd 6a1d 593d
000002d0: 042e 33bd 2072 91bd 9f5f 573c 528a 0dbd
000002e0: f8c8 4c3d ac6f 553c b279 4d3a 32f9 b3bc
000002f0: abe3 ebbb cea8 76bd 00de efbc 862f 74bb
00000300: d611 443d 2e8c 143d e282 28bd b707 3bbc
00000310: 2cf3 3d3d c760 b5bc 3cba dfbc 4a30 0a3c
00000320: f24f a43c 7035 db3a 6826 55bd 954f 453d
00000330: 51dd ccbc b789 bfbc 3069 d3bc b601 b0bc
00000340: bb51 3e3d 20f9 593b a4d6 b3bb be21 68bc
00000350: a610 4e3c c25b 54bd 4f61 c63a cceb 3dbd
00000360: 7555 3ebd 2760 593b db74 913d 61fa 6c3d
00000370: 3228 40bc 1296 3e3d a205 883c bc40 d8bc
00000380: 5fb2 70ba febc ec3c 3a66 75bd 211a fb3c
00000390: 5fbf 50bd 30b9 f53c 4b95 563d 526a 51bd
000003a0: 7da7 65bc 9652 4dbd a1a5 20bd 7fee 943b
000003b0: 41f2 89bc 0825 403d 9e3b 803d 6111 5a3d
000003c0: aedc 5bbd b6c4 2cbb edc7 723d 48db 5fbc
000003d0: 78f3 513d ba55 783d 09bb 4c3c b020 60bb
000003e0: 2483 4dbd 2b73 c53b 0975 c03c 5801 3bbd
000003f0: 2eda b0bc 22f1 d03c 8c50 d3bc c70a 143d

body.4.weight f4 [128, 256]
-0.017628642 0.049433112 -0.008992528 -0.02944967 0.012242942 0.043212242 0.026516812 -0.023956219
0.03895099 0.017869709 0.018267121 -0.03659237 -0.021563612 0.042737536 0.06141391 0.007463527
0.038037214 -0.025574286 0.036613982 0.05449122 0.003240101 -0.06032796 -0.03705249 -0.027386973
0.017449135 0.038979795 0.05667148 -0.020814255 0.06103568 0.06039845 -0.03419153 -0.05126999
-0.016091943 -0.04387693 0.0054875677 0.05472631 -0.025207678 -0.018747734 0.011894867 0.03951793
-0.055733465 0.05004322 -0.06899174 -0.035804234 0.013253111 0.0362035 0.010329483 0.016845446
-0.028733956 -0.036250528 -0.030584471 -0.002736399 -0.017203482 0.00091131136 0.0055381753 -0.039998997
0.06348857 0.03146485 0.026252301 -0.027429692 -0.042926125 0.03314809 0.015362296 0.040307295
-0.055345483 -0.023661505 0.035798214 -0.0018667033 -0.07168625 0.0050739436 0.04027023 -0.033916175
-0.031531386 0.037475444 0.04190576 -0.05339799 0.0021043622 -0.028333895 0.017514601 0.054522116
-0.017581888 -0.0129367355 0.05546914 -0.054653313 -0.046274275 0.006973681 0.046468154 0.03157128
-0.026401717 0.049653273 0.058721866 -0.0035067867 -0.05799285 -0.015768332 0.013907395 0.014667519
0.037742544 0.039548896 0.01903901 -0.022830207 -0.032000247 -0.010123561 0.023549274 0.010201026
0.026957585 -0.016886625 0.026787747 -0.0039623543 -0.024432754 0.059148725 -0.004022213 -0.026068587
0.050627768 0.055551577 0.005316308 -0.056144238 0.055383712 -0.026095053 -0.0033437982 -0.060867097
0.05385886 0.025280215 -0.04016831 -0.0017205199 0.0263332 -0.02625962 0.052331943 -0.04029068
-0.04066888 -0.053222336 0.018151866 0.06613228 0.011420336 0.041215606 -0.045553766 0.011051649
-0.0361979 -0.0034179613 -0.047749154 -0.04087831 0.04911125 -0.029692069 0.052862387 0.033142015
0.026850061 -0.055083536 -0.0018434649 0.0051457025 0.020662831 0.025234586 0.045127604 -0.04050752
-0.0054733017 0.018990962 0.070285745 -0.008285229 0.0028544108 0.0074224626 0.024694337 -0.035286088
-0.04067016 -0.03732126 -0.04330097 -0.012585779 0.033107635 0.0062767533 -0.028065069 -0.02783601
0.015658624 6.5338005e-05 0.05626509 -0.0005391319 0.020877507 0.051244844 0.0069261314 -0.028926851
-0.039654557 -0.003775474 -0.035834726 0.00069035834 0.031064223 -0.060892675 -0.05056636 0.030038776
0.049552366 0.012643541 0.020455983 0.012495948 -0.044073578 0.018370189 0.056255594 0.044143632
0.0024691138 -0.07225714 0.028551186 0.040701397 0.04747315 0.00885864 -0.0316818 -0.04123255
-0.009815901 0.03319347 0.0065858853 -0.0559751 0.03836106 0.04742196 0.0669058 0.03830623
-0.06439032 0.055496357 -0.011275758 0.061997112 -0.017954454 0.03330275 0.014538277 0.021980217
0.031144576 -0.015354413 -0.04334678 0.0031254548 -0.050746575 -0.018453844 -0.03329887 -0.015783165
0.048246473 0.041775603 0.056848135 -0.015866162 0.012977797 -0.027079504 0.014959204 0.047041416
0.045976013 0.016361969 0.065139994 0.0072200475 -0.02612455 -0.05618591 0.051915735 0.051577244
-0.0565418 0.04801878 0.049526177 -0.038665015 0.04781571 -0.055206977 -0.03332043 0.042337723
0.053103834 0.048189748 -0.000984449 -0.038284726 -0.0047005727 0.0030507129 -0.032656603 0.028132338
00000000: f169 90bc 607a 4a3d 6555 13bc 6f40 f1bc
00000010: 9f96 483c 52ff 303d c939 d93c d53f c4bc
00000020: 138b 1f3d 7f63 923c eea4 953c e2e1 15bd
00000030: 2ca6 b0bc 8e0d 2f3d 278d 7b3d 9a90 f43b
00000040: e9cc 1b3d 2a81 d1bc 8bf8 153d 2f32 5f3d
00000050: e057 543b 731a 77bd 5ac4 17bd a55a e0bc
00000060: 7df1 8e3c 47a9 1f3d 5b20 683d a882 aabc
00000070: 8d00 7a3d 5d64 773d 6b0c 0cbd 7b00 52bd
00000080: 40d3 83bc 4cb8 33bd 0ed1 b33b b228 603d
00000090: 5580 cebc d994 99bc b0e2 423c 8edd 213d
000000a0: c648 64bd 1ffa 4c3d 8b4b 8dbd 76a7 12bd
000000b0: 9423 593c 1f4a 143d fe3c 293c 76ff 893c
000000c0: 7963 ebbc 6f7b 14bd 498c fabc 2855 33bb
000000d0: 51ee 8cbc 12e5 6e3a 9579 b53b fdd5 23bd
000000e0: 4c06 823d 49e1 003d 110f d73c 3cb4 e0bc
000000f0: 4ed3 2fbd 4bc6 073d 24b2 7b3c 4319 253d
00000100: f2b1 62bd c6d5 c1bc 26a1 123d 2bac f4ba
00000110: 3ed0 92bd 5343 a63b 66f2 243d b0eb 0abd
00000120: 0e27 01bd da7f 193d 60a5 2b3d dab7 5abd
00000130: 57e9 093b 7c1c e8bc c87a 8f3c 9552 5f3d
00000140: e407 90bc 9af4 53bc 9c33 633d 27dc 5fbd
00000150: 188a 3dbd 7a83 e43b 6455 3e3d e350 013d
00000160: 6a48 d8bc 3b61 4b3d 5786 703d 1ed2 65bb
00000170: e989 6dbd 972c 81bc d8db 633c 0950 703c
00000180: ed97 1a3d 06fe 213d b3f7 9b3c 6a06 bbbc
00000190: b112 03bd 4bdd 25bc 68ea c03c 3422 273c
000001a0: 27d6 dc3c d255 8abc fa71 db3c a3d6 81bb
000001b0: 3327 c8bc ef45 723d c5cc 83bb ca8d d5bc
000001c0: 105f 4f3d 0d8a 633d 6c34 ae3b 80f7 65bd
000001d0: 08da 623d 4bc5 d5bc a023 5bbb c74f 79bd
000001e0: 1c9b 5c3d 7418 cf3c 8787 24bd 1183 e1ba
000001f0: b9b8 d73c 6a1e d7bc 055a 563d d707 25bd
00000200: 6994 26bd aaff 59bd 39b3 943c 5c70 873d
00000210: 5c1c 3b3c b2d1 283d 9696 3abd fa11 353c
00000220: 4044 14bd e0ff 5fbb 9e94 43bd 0470 27bd
00000230: e128 493d c83c f3bc 3b86 583d ecbf 073d
00000240: a9f4 db3c 469f 61bd 6ba0 f1ba 489d a83b
00000250: 1945 a93c c3b8 ce3c b9d7 383d 37eb 25bd
00000260: 6259 b3bb ef92 9b3c f9f1 8f3d c5be 07bc
00000270: 1111 3b3b 2138 f33b c74b ca3c 2588 10bd
00000280: c195 26bd 2dde 18bd 5c5c 31bd 9534 4ebc
00000290: df9b 073d 39ad cd3b b7e8 e5bc 5808 e4bc
000002a0: 8446 803c 1306 8938 3976 663d 8854 0dba
000002b0: 4e07 ab3c 1de6 513d 9af4 e23b 01f8 ecbc
000002c0: d16c 22bd f16d 77bb 6fc7 12bd 2af9 343a
000002d0: 667a fe3c 996a 79bd ac1e 4fbd e113 f63c
000002e0: 6cf7 4a3d db26 4f3c 4e93 a73c cebb 4c3c
000002f0: 7f86 34bd 147d 963c 446c 663d f4cf 343d
00000300: dbd0 213b 8dfb 93bd 2de4 e93c 82b6 263d
00000310: 3573 423d d423 113c c6c4 01bd 76e3 28bd
00000320: dfd2 20bc e0f5 073d 69ce d73b 2546 65bd
00000330: 7d20 1d3d 873d 423d e805 893d fee6 1c3d
00000340: 12df 83bd 2650 633d f5bd 38bc aff0 7d3d
00000350: 3815 93bc 7768 083d f431 6e3c db0f b43c
00000360: e922 ff3c 1391 7bbc 658c 31bd 6ed4 4c3b
00000370: a4db 4fbd 842c 97bc 6564 08bd b24b 81bc
00000380: 189e 453d e51c 2b3d 97d9 683d c1f9 81bc
00000390: d3a0 543c d6d5 ddbc 7317 753c 80ae 403d
000003a0: 5851 3c3d 8909 863c 1e68 853d 2696 ec3b
000003b0: 2703 d6bc 3223 66bd 98a5 543d a942 533d
000003c0: 6098 67bd 57af 443d f6db 4a3d 355f 1ebd
000003d0: 68da 433d b620 62bd 017b 08bd 526a 2d3d
000003e0: 6883 593d 9d62 453d a108 81ba 72d0 1cbd
000003f0: 4307 9abb 78ee 473b eec2 05bd ca75 e63c

body.4.bias f4 [128]
0.05467981 -0.05465745 -0.034530595 -0.03298936 0.03033828 0.02169588 0.049227677 0.00039339697
0.041988738 -0.016473757 -0.010374022 -0.053875092 0.052509487 -0.06194661 0.06625539 -0.051512644
-0.029099477 -0.025131708 0.017049992 0.017311918 -0.02369969 0.052132312 0.028285652 -0.032241683
0.01213903 0.034564942 -0.024281764 -0.045180865 -0.026608262 -0.02341614 0.036945954 -0.03405539
-0.029794555 -0.05840364 0.037236355 -0.01856531 0.033329614 -0.05489701 -0.019509792 0.0020417492
0.00804963 0.04154903 -0.0466179 0.051004555 0.0008508219 0.062498204 0.040876023 -0.038608145
0.033399962 -0.021658853 0.010907316 -0.0232135 -0.029462533 0.01703224 -0.030607767 -0.04741025
0.010319324 -0.007993446 -0.014660279 -0.033687696 -0.058408134 0.04583036 0.0035908755 -0.06887954
-0.02096655 -0.032321803 -0.009206888 0.060686965 -0.023282118 -0.028285373 -0.017033722 -0.020750549
0.04132856 -0.0075148754 -0.0021029783 0.031105528 -0.011833567 0.049346495 -0.02763017 0.02060672
-0.010577206 0.013281428 0.027180072 -0.036796328 -0.008461352 0.041082323 0.041942693 0.027663913
0.007479029 -0.016267302 -0.003888177 0.040300943 -0.045046125 0.063660026 0.038532775 0.012883298
-0.0017399596 0.0024853575 -0.0062170406 -0.036277283 0.0006803961 -0.010674795 0.010704717 0.047735084
0.023113133 -0.012528699 -0.027652461 -0.047920197 -0.009545214 -0.04076736 0.030631073 -0.036346737
-0.051697887 -0.056070734 -0.04354384 -0.012231531 0.053500094 -0.0014840112 0.0111567015 0.0012421435
0.03933702 -0.049657423 0.05036412 -0.019825721 -0.012601344 0.0062299105 0.06890481 0.008519136
00000000: f0f7 5f3d 7ee0 5fbd f46f 0dbd da1f 07bd
00000010: fc87 f83c 8fbb b13c f6a2 493d d940 ce39
00000020: 62fc 2b3d f9f3 86bc cdf7 29bc 21ac 5cbd
00000030: 3014 573d bbbb 7dbd e8b0 873d ecfe 52bd
00000040: 0762 eebc 03e1 cdbc 6dac 8b3c b9d1 8d3c
00000050: da25 c2bc b188 553d 50b7 e73c db0f 04bd
00000060: c8e2 463c f893 0d3d 8dea c6bc 920f 39bd
00000070: 92f9 d9bc 34d3 bfbc a454 173d aa7d 0bbd
00000080: b613 f4bc a838 6fbd 2685 183d 4716 98bc
00000090: a284 083d b0db 60bd 00d3 9fbc dece 053b
000000a0: 98e2 033c 512f 2a3d 69f2 3ebd 27ea 503d
000000b0: b109 5f3a 1efe 7f3d 9e6d 273d 9323 1ebd
000000c0: 66ce 083d e86d b1bc 99b4 323c 3d2a bebc
000000d0: 695b f1bc 3287 8b3c 24bd fabc 4031 42bd
000000e0: 6212 293c f1f6 02bc ab31 70bc 1cfc 09bd
000000f0: 5e3d 6fbd 9eb8 3b3d e554 6b3b b710 8dbd
00000100: 0bc2 abbc de63 04bd 7dd8 16bc e592 783d
00000110: 24ba bebc bab6 e7bc 4e8a 8bbc 0efd a9bc
00000120: 2348 293d 583f f6bb 1fd2 09bb 05d1 fe3c
00000130: 94e1 41bc 8d1f 4a3d ab58 e2bc 6dcf a83c
00000140: 044c 2dbc 599a 593c bea8 de3c bfb7 16bd
00000150: 7ca1 0abc f045 283d 1acc 2b3d 6e9f e23c
00000160: a412 f53b 0143 85bc c9d0 7ebb 9a12 253d
00000170: 4982 38bd 3060 823d 8bd4 1d3d 7814 533c
00000180: 5b0f e4ba 61e1 223b 51b8 cbbb 7d97 14bd
00000190: 9c5c 323a 56e5 2ebc d662 2f3c dd85 433d
000001a0: c157 bd3c 2c45 4dbc 6a87 e2bc f847 44bd
000001b0: 8763 1cbc adfb 26bd 04ee fa3c 51e0 14bd
000001c0: 2ac1 53bd 6daa 65bd 075b 32bd c266 48bc
000001d0: ea22 5b3d 2783 c2ba 99ca 363c 6bcf a23a
000001e0: db1f 213d 9565 4bbd 9c4a 4e3d 8d69 a2bc
000001f0: de75 4ebc 4724 cc3b f71d 8d3d d993 0b3c

move_head.weight f4 [5, 128]
0.042645223 0.01817247 -0.028293898 0.018944742 0.058344457 0.006085508 0.03641621 -0.002366012
-0.025101565 0.08917048 -0.01926648 -0.042625446 -0.08867535 0.031028204 -0.071276896 0.014224916
-0.056710288 -0.06785647 -0.06687528 -0.00599205 0.077701524 -0.048922412 -0.08619787 -0.07712307
0.04350546 -0.04997809 -0.00033308673 0.003109745 -0.044590212 -0.015545671 0.033522867 -0.023484532
0.0866737 -0.003270341 0.009642581 0.034653686 -0.040017027 -0.03651409 0.056790125 0.04273574
0.051803574 0.06534217 -0.01237412 0.03041577 -0.040097374 -0.03315891 -0.08151638 0.03360112
-0.0697676 0.012299923 0.038153205 -0.060022894 -0.023095168 0.06709424 -0.017343856 -0.08366825
-0.05492541 -0.015429415 0.08094224 0.01238067 0.043910153 0.0047622696 0.061563067 0.010015091
-0.023619115 0.0029236868 -0.020498762 -0.03254332 -0.058472514 -0.08101582 0.07508176 0.036619395
-0.03524336 -0.021035887 0.085205406 -0.00486869 0.060081694 0.063628584 0.012729707 0.013332669
-0.068823256 0.060005244 0.01063603 -0.019229226 -0.07177041 0.032683246 -0.09213024 0.003284303
0.0065930486 -0.006117475 0.075672105 0.0007129232 0.061904296 0.039352104 0.08801701 0.021408515
0.043465283 0.059671752 0.025822746 -0.037183233 -0.08256148 0.04689488 0.05859379 -0.041645125
0.075746 -0.0086936755 -0.06918814 0.035186667 0.019008607 -0.07236323 -0.033660688 0.07331604
-0.048386667 0.004387061 -0.012610361 0.006260409 -0.06071738 0.057992592 0.047995344 0.030060288
-0.086713046 -0.061349753 0.057252668 -0.08396633 -0.03288162 0.08371645 0.053222857 -0.08464379
-0.015849493 -0.033371016 0.08122701 0.01022823 0.050561786 0.026222141 0.006521447 -0.025610525
0.1038666 -0.020391434 -0.035382804 0.044950947 -0.029074479 -0.08889497 0.056233916 -0.09997977
0.015927477 -0.008439815 -0.0077856258 0.040317044 -0.08079534 -0.02467179 -0.008870368 0.07820757
-0.08720446 -0.027443446 0.0311206 0.033279553 -0.019514622 0.0007174008 0.01616746 -0.017165588
-0.050697565 0.03164716 0.047172297 -0.015563299 -0.09310594 0.04461488 -0.037283923 -0.059955005
0.0820248 0.003855906 0.03622599 -0.07296235 0.035039652 0.022804238 0.06543516 0.03334587
0.04411901 0.069800526 0.016263286 0.096364036 0.009105631 -0.052169144 -0.033526525 -0.041018322
0.07575795 0.045250244 -0.0099372445 -0.07413599 0.0434529 0.037809793 -0.07435284 -0.026472684
0.025663419 0.05276512 -0.06737845 -0.080909535 -0.0648891 0.045392215 0.08266758 0.006003478
-0.078344814 0.015425177 -0.033204652 0.10565617 0.0157069 -0.07487169 -0.07261353 -0.061624143
-0.08353473 -0.09050342 0.093168706 -0.06132575 -0.07272614 0.046594262 0.038107995 -0.062908836
-0.07477805 0.06180577 0.02937876 -0.054771587 -0.09781158 -0.05527832 0.06506906 0.006158083
0.06802619 -0.07189787 0.090461046 0.06684791 0.063809596 0.017055484 -0.049799457 0.054940805
-0.012546147 -0.0334388 -0.0076580737 -0.09087588 -0.028782276 -0.04230338 0.04162409 -0.0072177895
-0.0033827634 -0.071819745 0.055414 -0.034892898 0.02262594 -0.030142087 0.07857542 0.044043783
0.04600385 0.006811176 0.022124637 -0.044356354 -0.002955078 -0.09761455 0.079608105 0.07459467
00000000: c2ac 2e3d 6fde 943c 9bc8 e7bc 0132 9b3c
00000010: 99fa 6e3d f168 c73b 2a29 153d 180f 1bbb
00000020: cca1 cdbc 039f b63d bdd4 9dbc 0598 2ebd
00000030: 6c9b b5bd dc2e fe3c 9ff9 91bd 9f0f 693c
00000040: 0c49 68bd 55f8 8abd e8f5 88bd f558 c4bb
00000050: fa21 9f3d de62 48bd 8288 b0bd b3f2 9dbd
00000060: c832 323d d3b5 4cbd 25a2 aeb9 ddcc 4b3b
00000070: 3aa4 36bd 45b3 7ebc 464f 093d a262 c0bc
00000080: fb81 b13d 3853 56bb ebfb 1d3c 06f1 0d3d
00000090: e5e8 23bd cc8f 15bd c39c 683d ac0b 2f3d
000000a0: fc2f 543d 1ed2 853d d2bc 4abc 7e2a f93c
000000b0: 253d 24bd a3d1 07bd 0ff2 a6bd 54a1 093d
000000c0: 51e2 8ebd 9e85 493c 8946 1c3d 91da 75bd
000000d0: 1432 bdbc b468 893d b414 8ebc 425a abbd
000000e0: 77f9 60bd a8cb 7cbc 0cc5 a53d 4bd8 4a3c
000000f0: 22db 333d d00c 9c3b 8e29 7c3d 5616 243c
00000100: e07c c1bc 539b 3f3b 05ed a7bc 254c 05bd
00000110: e080 6fbd 9feb a5bd 77c4 993d 38fe 153d
00000120: 575b 10bd 7453 acbc 2c80 ae3d 8889 9fbb
00000130: 3918 763d b44f 823d 4390 503c 4471 5a3c
00000140: 35f3 8cbd 0fc8 753d be42 2e3c 9c86 9dbc
00000150: 5dfc 92bd dede 053d c7ae bcbd 763d 573b
00000160: 800a d83b 1a75 c8bb faf9 9a3d 77e3 3a3a
00000170: 5c8f 7d3d ac2f 213d 4342 b43d e960 af3c
00000180: a708 323d 5e6a 743d 398a d33c 724d 18bd
00000190: fe15 a9bd d814 403d 0b00 703d 1494 2abd
000001a0: b820 9b3d eb6f 0ebc 83b2 8dbd e51f 103d
000001b0: f0b7 9b3c 2c33 94bd cadf 09bd b826 963d
000001c0: 1931 46bd 56c1 8f3b b09b 4ebc 1e24 cd3b
000001d0: cab2 78bd a489 6d3d c496 443d fe40 f63c
000001e0: 9c96 b1bd e149 7bbd c681 6a3d 8af6 abbd
000001f0: e1ae 06bd 8873 ab3d 3600 5a3d b959 adbd
00000200: ccd6 81bc 0cb0 08bd 595a a63d 4e94 273c
00000210: e019 4f3d d1cf d63c ddb1 d53b 2acd d1bc
00000220: 03b8 d43d f00b a7bc 8fed 10bd 7c1e 383d
00000230: 9a2d eebc 910e b6bd 8955 663d 32c2 ccbd
00000240: 577a 823c 2647 0abc 901e ffbb 7c23 253d
00000250: 0778 a5bd 7e1c cabc 0555 11bc 4a2b a03d
00000260: 4098 b2bd 14d1 e0bc a1f0 fe3c 2450 083d
00000270: 21dd 9fbc f40f 3c3a 9f71 843c d99e 8cbc
00000280: 40a8 4fbd 74a0 013d bd37 413d 35fd 7ebc
00000290: 54ae bebd 18be 363d 07b7 18bd 6193 75bd
000002a0: 9efc a73d 5eb3 7c3b b461 143d 496d 95bd
000002b0: bd85 0f3d f4cf ba3c df02 863d ae95 083d
000002c0: 23b6 343d 94f3 8e3d 953a 853c 825a c53d
000002d0: c92f 153c 50af 55bd 1c53 09bd d402 28bd
000002e0: fc26 9b3d 5258 393d d3cf 22bc 9cd4 97bd
000002f0: abfb 313d 71de 1a3d 4d46 98bd 3edd d8bc
00000300: 173c d23c 3d20 583d b6fd 89bd e6b3 a5bd
00000310: 94e4 84bd 30ed 393d 9f4d a93d d3b8 c43b
00000320: 3f73 a0bd e2b9 7c3c 9a01 08bd 4362 d83d
00000330: c2ab 803c 5456 99bd 67b6 94bd 9969 7cbd
00000340: 4214 abbd db59 b9bd 3ccf be3d b630 7bbd
00000350: 71f1 94bd a0d9 3e3d 2117 1c3d 59d6 80bd
00000360: 3c25 99bd 0c28 7d3d baab f03c 2c58 60bd
00000370: 7051 c8bd 856b 62bd ed42 853d bfc9 c93b
00000380: 5151 8b3d 313f 93bd a443 b93d 8fe7 883d
00000390: 9bae 823d f1b7 8b3c 84fa 4bbd 9c09 613d
000003a0: 5b8e 4dbc 20f7 08bd 94f0 fabb 221d babd
000003b0: cfc8 ebbc 4f46 2dbd 067e 2a3d 3583 ecbb
000003c0: 5ab1 5dbb 3b16 93bd caf9 623d dbeb 0ebd
000003d0: 095a b93c 8aec f6bc 26ec a03d 4167 343d
000003e0: 886e 3c3d 4930 df3b ba3e b53c 02af 35bd
000003f0: fba9 41bb 23ea c7bd 9309 a33d 17c5 983d

move_head.bias f4 [5]
-0.018313989 -0.020913603 0.004387928 -0.04166512 0.0022389255
00000000: 3807 96bc 0153 abbc 9cc8 8f3b 0ba9 2abd
00000010: f0ba 123b
