checkpoints/simple_world_comm_v3_scratch/simple_world_comm_v3_adversary_2_ep1150.pt (torch, 437325 bytes, 8 tensors)

body.0.weight f4 [256, 34]
000000 64 20 16 be ee 9a 24 bd 6e 52 9f 3b 30 37 2d be
       -0.14660794 -0.040186815 0.0048621213 -0.16915584
000010 c1 81 16 3c e3 d8 c3 3d 0b bb 0b be eb e2 50 3b
       0.009186209 0.09562852 -0.1364557 0.0031873535
000020 d8 46 06 be aa 4f 1e 3d 11 fe d5 bd 98 da b2 bd
       -0.13112962 0.038650192 -0.1044885 -0.087331
000030 bd 8e 1a 3e ea cc f0 3d bb a6 c0 bd d9 24 55 3c
       0.15093513 0.11757834 -0.09406801 0.013009273
000040 3d fa 60 bc 92 02 49 3d 81 22 07 be 2d ab 91 3d
       -0.013731536 0.049074717 -0.13196756 0.07112727
000050 bf 18 3f 3c 74 30 ea 3c 82 7e b1 3d f7 df 2d bd
       0.011663615 0.028587557 0.086667076 -0.042449918
000060 a9 bb a5 3d 58 9d 10 3e 0a cc 5a bd 44 02 f8 3d
       0.08092434 0.14122522 -0.053417243 0.12109807
000070 5a 68 39 3e b3 c3 2b 3e 74 ac d9 3d 8e 7f a3 3c
       0.18106213 0.16773872 0.10628596 0.019958284
000080 64 a3 94 3d fe 26 a2 3d 33 93 c9 3d 7f 54 b5 3c
       0.07257727 0.079175934 0.09842529 0.022135017
000090 ac cd 16 3d 34 1e c5 bc cf d4 0d 3e e1 05 1a be
       0.036817238 -0.024062254 0.13850711 -0.15041305
0000a0 ab 4d ba bd 06 33 40 3d 34 56 d6 bd a0 38 eb bd
       -0.09096845 0.04692366 -0.10465661 -0.1148541
0000b0 42 ac c3 ba 22 0a f8 3d 82 35 1a 3e 85 6c 9d bd
       -0.0014928656 0.12111308 0.15059474 -0.07686714
0000c0 9a 3b f8 bd 6a 30 1f bd 91 aa 0f be 82 bd a5 bd
       -0.12120743 -0.03886453 -0.1402991 -0.08092786
0000d0 4e e1 2e 3e 25 73 07 3e 00 14 7d 3d a4 4c f7 bd
       0.17078134 0.13227518 0.06178665 -0.12075165
0000e0 9a 57 b1 bc 87 9f ef bc 96 a8 18 be c2 0d 8b bd
       -0.021648217 -0.029250873 -0.1490806 -0.067897335
0000f0 f9 9d 84 bd 8a f5 dd 3c af 22 d5 bd e9 b8 d2 3d
       -0.064754434 0.027094621 -0.10407006 0.10289175
000100 84 2d 60 3c a5 b4 d0 bd 5e 9b d1 bd a9 b5 8a bd
       0.013682727 -0.10190705 -0.10234712 -0.0677293
000110 99 83 2f 3d fc 6b c7 3d 29 c6 bf 3c 34 db 14 3e
       0.04285011 0.09737393 0.02340992 0.14536744
000120 26 40 08 be 7c ba f6 3d f8 96 c0 bd 93 43 43 be
       -0.1330572 0.12047288 -0.09403795 -0.19068746
000130 c3 41 1d be 08 42 4b 3c 5a f8 3c be fb 1f 9c 3d
       -0.15357117 0.01240588 -0.18454114 0.07623287
000140 be 0c be 3c 88 f7 ec 3d 3a 5c b6 bd c9 cf 48 bd
       0.023199435 0.1157065 -0.089043096 -0.049026284
000150 84 a5 f7 3d 53 12 6c 3b f0 d0 2b 3c 36 9c d4 3d
       0.120921165 0.0036021664 0.010486826 0.10381357
000160 6e 36 39 3c 85 04 0c be c9 8a 34 be 8f 1a 21 be
       0.011304481 -0.13673599 -0.17631067 -0.15732788
000170 86 aa 91 bd 79 ee 0c be d5 c9 06 3e 35 f5 37 bd
       -0.07112603 -0.13762845 0.1316293 -0.044911582
000180 cb 22 05 3e 6c 9a 27 be 15 cd fe 3d 66 46 86 bb
       0.13001554 -0.16367501 0.1244146 -0.0040977476
000190 67 d6 47 bd fd 22 0d 3e 7e f7 24 3e ae 01 ee bc
       -0.048788454 0.13782878 0.16110036 -0.029053535
0001a0 0b ee 37 be 4a 85 c5 bd 80 fb 61 bc 63 ae 09 be
       -0.179619 -0.096445635 -0.013792872 -0.1344543
0001b0 6f 5d 47 bd 1a 02 04 be 16 e0 60 bc 81 6d e2 3d
       -0.04867309 -0.12891427 -0.013725301 0.110560425
0001c0 e4 84 5c 3d f1 e9 a2 3d 0e 0b 10 3e c1 a6 e7 3c
       0.053837672 0.07954777 0.14066717 0.028277757
0001d0 49 88 ef 3d f4 b8 18 be bf b5 0f 3e 07 93 13 be
       0.11695916 -0.14914304 0.14034174 -0.14411555
0001e0 eb 1a fb 3d 4c b1 cc bd ad 5b 8b 3c 0b 73 9a bc
       0.122609936 -0.09994754 0.017011488 -0.018853685
0001f0 3b b6 3a bd 39 b6 1e 3c 86 71 1d 3e 7a ae 1d 3e
       -0.045583945 0.009687 0.15375337 0.15398589
000200 69 4b a9 3d d0 f5 21 bc 62 d7 54 bc ae 2c d7 3b
       0.082663365 -0.009885266 -0.012990804 0.0065666055
000210 08 b0 b3 3d 4b 68 03 3e 57 c2 f0 3d fd f0 05 3e
       0.0877381 0.12832753 0.117558174 0.13080211
000220 d0 7f bd 3d 1a 6a 18 3e 3a 76 01 be 41 53 29 be
       0.09252894 0.14884225 -0.12642756 -0.16535665
000230 79 2a fc bd e9 0c 04 bd fe 3b 78 3d f3 85 af bb
       -0.123127885 -0.032238875 0.060604088 -0.005356544
000240 a9 db 3e 3e d4 d7 1d bd 57 01 11 be 1b 90 28 bd
       0.18638481 -0.038535908 -0.14160667 -0.041153055
000250 6e 3e 24 3e d7 45 b2 bc b2 2a a4 3d d5 5d 24 3d
       0.1603944 -0.021761818 0.08015956 0.040128548
000260 85 01 10 bd 62 df 5d 3d e0 f4 21 3e 5a 86 2c 3e
       -0.0351577 0.054168113 0.15816069 0.16848126
000270 d7 df d3 3d a3 e3 88 bc 3b 57 c6 3d fe b6 ce bd
       0.103454284 -0.016710108 0.09684607 -0.10093497
000280 f7 ae c9 bd 07 cd f0 ba 4d 19 34 3d 87 ba a5 bc
       -0.09847825 -0.001837165 0.04396944 -0.020230545
000290 97 2a 02 be dc 8f c8 bc 45 87 79 3b 6e 09 e1 3c
       -0.12711559 -0.02448266 0.0038075012 0.027470317
0002a0 05 13 db bd 0f f9 09 be 6e 80 90 bc d8 05 7f bd
       -0.10696987 -0.13473915 -0.017639365 -0.062261432
0002b0 98 66 ae bd 81 25 5f 3c 3b 95 0f 3e 80 43 4c 3b
       -0.08515662 0.0136197815 0.1402177 0.0031168163
0002c0 54 3b 1c be ad c6 43 3e b4 b5 4a bd 3e 82 da bd
       -0.15257007 0.19118758 -0.04948969 -0.10669373
0002d0 b9 a2 29 be e9 25 0c be 48 7d 28 3e c3 cf 3b 3e
       -0.1656598 -0.13686337 0.16454041 0.18340974
0002e0 26 fd 8e bd 0c d2 be bd 5b b3 05 3e 04 f6 b3 3d
       -0.06981878 -0.09317407 0.130567 0.08787158
0002f0 fc 77 37 bc 84 9e df 3d 02 07 02 be ad d7 21 3d
       -0.01119804 0.10918906 -0.12697986 0.039512325
000300 4d 96 2e 3c 24 37 e4 3d 40 c8 39 3c fa 0c 68 3d
       0.010655952 0.1114333 0.011339247 0.056653
000310 7f 9b 0c be b5 0a fb bd da 80 e7 3d a5 0c b4 bd
       -0.13731192 -0.122579016 0.11303873 -0.08791474
000320 15 5d 24 3e 4a 0f f9 3d bc d5 1c 3e 4f 8c 98 3c
       0.16051133 0.12161119 0.15315908 0.018621592
000330 2e 7c 2f be 24 d5 75 3a 81 81 df 3d d7 0e 96 3d
       -0.17137215 0.0009377769 0.10913373 0.07327049
000340 59 11 b5 3d 34 1c 0c bd 64 39 d8 3d 3e f6 01 be
       0.088411994 -0.034206584 0.105578214 -0.1269159
000350 64 cf 1c be 02 77 ff bd 77 0c 85 3d 52 5f 7b bd
       -0.15313488 -0.12473871 0.06496518 -0.0613702
000360 5e 26 d3 bd d8 f4 13 be 9d 44 28 bd a9 cb 12 bd
       -0.10310052 -0.14448869 -0.04108106 -0.035838757
000370 47 16 3b bd 64 33 47 bd e7 bf 31 be ac 21 06 be
       -0.045675542 -0.048632994 -0.17358361 -0.13098782
000380 6e bf 37 bd b2 af 41 3d fd fe ca 3d e6 95 df 3d
       -0.044860296 0.047286697 0.099119164 0.10917263
000390 44 74 e0 3d ae 90 69 bd 5b 7b e7 bd b9 54 c2 3d
       0.10959676 -0.057022743 -0.11302825 0.09488816
0003a0 df 0d d7 bd d5 58 56 bd f4 86 89 3d f8 7f eb bd
       -0.105006926 -0.05233081 0.067151934 -0.114990175
0003b0 2e 48 bf bc 8b a9 12 3e cc c1 bf 3d a7 7a c3 bd
       -0.023349848 0.14322488 0.09363136 -0.095448785
0003c0 ac bd 9d bd e8 b3 14 be ac 30 6c 3d 00 70 bb 3c
       -0.07702193 -0.14521754 0.057663605 0.022880554
0003d0 93 54 ae 3d b0 fd a8 bc b3 b9 78 3d 78 0f fa bd
       0.08512225 -0.02062878 0.06072397 -0.12209982
0003e0 bc 69 01 be 23 7e 82 bb 1b 90 01 3e 50 45 97 bc
       -0.1263799 -0.003982322 0.12652628 -0.018465668
0003f0 45 a3 14 be 65 59 b2 ba f6 02 09 3d 7b 41 09 3e
       -0.14515407 -0.0013606964 0.03345009 0.13403885

body.0.bias f4 [256]
000000 3a 7a 2e bd f3 bb f3 3d 1d 72 29 3e 72 32 05 3e
       -0.042597033 0.11901083 0.16547437 0.13007525
000010 50 04 8a bc 95 ba fa bd 08 7e f4 3c 6d 50 e6 bd
       -0.01684776 -0.12242619 0.029845253 -0.11245809
000020 5f 2c a3 bd 6f fa 31 bd 75 6a 11 3e 78 5d 5e 3c
       -0.079674475 -0.043451723 0.14200766 0.013572089
000030 b1 f0 2d bd 32 4e d1 bd 9b 4e 09 3e 08 39 cc 3d
       -0.04246587 -0.10219993 0.13408892 0.09971815
000040 74 90 59 3d 0b 37 06 3e f5 24 11 3e 0d 43 c0 bc
       0.053116277 0.13106935 0.14174254 -0.023469472
000050 d3 96 02 3e 53 19 b0 bd ef c1 0d be 0c f2 fd 3d
       0.12752847 -0.0859858 -0.13843511 0.123996824
000060 a4 05 33 3c 6e 10 ff bd f2 74 05 be b3 ca 29 3c
       0.010926638 -0.124543056 -0.13032892 0.010363269
000070 7d 05 b5 3b f8 84 21 3c c1 64 b1 3c 04 09 a8 3d
       0.005524336 0.009858362 0.021654489 0.082048446
000080 55 8a 7e bd 78 c1 0b bc 36 da fa bd aa 88 91 3d
       -0.062143642 -0.008530013 -0.12248652 0.07106145
000090 0c e6 2b 3e 59 91 4c bd 55 ff 89 bd 2e 57 13 3e
       0.16786975 -0.0499433 -0.06738154 0.14388725
0000a0 92 43 3c bd 55 54 be 3d 49 0c f3 bd c8 cb 54 3d
       -0.045962878 0.09293429 -0.118675776 0.051952153
0000b0 6c 9e 11 be 74 d9 4b bd 4f aa f5 bd 97 67 81 bc
       -0.1422059 -0.049767926 -0.119953744 -0.015796466
0000c0 93 d6 4f bd 28 b8 e6 3d 8c bb 7b bd ce cc d0 3d
       -0.050741743 0.11265594 -0.061458156 0.101953134
0000d0 24 cf be 3d 4c 08 60 bd 38 32 10 be d3 e6 09 bd
       0.09316853 -0.054695413 -0.14081657 -0.033667397
0000e0 f6 2e d9 3d 00 5e 61 bd 13 b5 a0 3d 66 db ad bd
       0.1060466 -0.055021286 0.07847037 -0.084891126
0000f0 33 37 b3 bd 56 ed 2c 3e f3 bc 74 3d 18 97 55 3e
       -0.08750763 0.16887411 0.05975051 0.20858419
000100 49 81 9f 3d 3b d5 8a bd c8 ab 74 bc 7d 26 e0 bd
       0.07788331 -0.06778952 -0.014933534 -0.10944841
000110 a6 16 19 3d ec a6 06 3e d0 6c 03 be 61 47 33 3e
       0.037375115 0.13149613 -0.12834477 0.17507698
000120 cd 06 28 3e 70 7f 17 3d 4e 41 26 be 59 b3 67 bc
       0.16408844 0.03698677 -0.1623585 -0.014141881
000130 d1 a5 fd 3d b0 af b0 3d 0a 42 f5 bc 0a 23 1b 3d
       0.123851426 0.0862726 -0.029938716 0.037875213
000140 84 61 3a 3e 35 91 12 3e 59 c1 85 3d 0a 47 a2 bc
       0.18201262 0.14313205 0.06531019 -0.019809265
000150 6c 4e 81 bc 9b 7c bd bc 8c ff 06 3e 9a f2 5f bd
       -0.015784465 -0.023130706 0.13183421 -0.054674722
000160 f1 28 31 3e ba 0b 08 bd 89 84 9c bd f4 d7 6e bd
       0.17300774 -0.03321431 -0.076424666 -0.058311418
000170 8a f3 10 3e 30 d6 92 3d 58 be c8 bc 23 a9 f6 3c
       0.14155403 0.07169759 -0.024504825 0.030109948
000180 fb 63 81 3b ee a0 01 be 28 9d fb 3c 8f 0e 0c 3e
       0.003948686 -0.12659046 0.030714586 0.13677429
000190 e3 62 0c 3e 07 50 33 3e c6 c7 5a 3c 66 19 63 3d
       0.13709597 0.17510997 0.013353294 0.055444144
0001a0 c6 58 0d 3e 6f 21 26 be af 78 fd bd e9 5b e3 bd
       0.13803396 -0.16223691 -0.12376534 -0.11101515
0001b0 0b 1c 24 3e 25 cf 11 bd 4a 6b 1d bd 2f 20 a0 bd
       0.16026323 -0.03559794 -0.038432397 -0.078186385
0001c0 cf b9 0e be b6 a0 10 3e 14 b7 97 bc 8c 00 81 bd
       -0.13938068 0.14123806 -0.018519916 -0.062989324
0001d0 b1 f0 0f be e6 91 5c 3c 49 80 72 bd 57 77 35 3e
       -0.1405666 0.013462519 -0.059204374 0.17721306
0001e0 1d 1f e4 bd 0e b5 90 bd 34 c3 05 3e a2 c0 97 3d
       -0.11138747 -0.070657834 0.13062745 0.07409789
0001f0 44 05 6b bd 55 a5 7a bd 2b da 96 bd f5 26 e1 3d
       -0.05737807 -0.06119283 -0.07365831 0.109937586
000200 68 8f aa bd b1 1d 28 3e b8 da 95 3d 14 a6 0b be
       -0.08328134 0.16417576 0.07317108 -0.13637573
000210 d8 7c 92 bc 3c 99 07 be 0c ad fc bd 1f e4 d3 3b
       -0.017881796 -0.13242048 -0.123376936 0.006466403
000220 e8 24 fb bc 0e c1 b9 bd a9 7e 1f bd 54 eb 91 3d
       -0.030657247 -0.090700254 -0.038939152 0.071249634
000230 8e 5f e5 bd ea 73 d6 3c 9d c4 93 3d 3b 1a ff bd
       -0.11199866 0.026178319 0.072152354 -0.12456175
000240 9e d1 10 bd 01 8a 8d 3d f6 64 20 be 35 60 11 3e
       -0.035356157 0.06911088 -0.15663514 0.14196856
000250 52 f7 a0 3d 9a 86 22 bd 87 d2 1f 3e 06 d5 29 be
       0.078596726 -0.039679147 0.15607654 -0.16585168
000260 a6 49 b8 3d fa 5b d5 3d 95 a5 cd bd 6d 0f 59 3d
       0.08998422 0.10417934 -0.10041348 0.052993227
000270 a5 77 10 3c 37 21 5f bd 7c 54 30 be 7c ad f2 bc
       0.008817588 -0.054475036 -0.17219728 -0.02962374
000280 97 c9 f3 bd 0b 85 7d bd 7a 0d 82 3d 3c 7e 00 be
       -0.119036846 -0.061894458 0.06350227 -0.12548155
000290 98 ad ce 3a 8f e3 87 bd 2b 9f 87 bc a1 c8 e2 bc
       0.0015768288 -0.066352 -0.01655539 -0.027683558
0002a0 29 af 90 bd 09 f8 55 bd fe 40 2b be 96 0c 00 be
       -0.07064659 -0.052238498 -0.16724011 -0.12504801
0002b0 10 e4 83 bd 59 76 93 bb 58 c5 51 bd 56 99 0f 3d
       -0.06439984 -0.004500192 -0.051213592 0.035058342
0002c0 36 ad 9c 3d a8 29 00 3d ad f7 2c 3e a8 9b 86 3d
       0.07650225 0.031289726 0.16891356 0.06572658
0002d0 ca 3b bb 3a c7 55 19 3e 72 98 6e 3d e1 43 0e be
       0.0014284786 0.14974128 0.058250852 -0.13893081
0002e0 8a 49 27 be 91 a2 8c bd 86 2c a7 39 5e d0 26 3d
       -0.16336647 -0.068669446 0.00031885895 0.04072606
0002f0 ef db 91 3d 50 2c 59 3d e8 b1 0b be 2d 10 31 bd
       0.07122027 0.053020775 -0.13642085 -0.043228317
000300 74 e6 90 3d d2 13 62 3d f7 97 02 be bd b7 2a 3e
       0.070752054 0.055194683 -0.12753282 0.16671653
000310 4d 34 1b 3e df 5f 0b 3d b5 81 35 3d 49 cb 00 3e
       0.1515667 0.034026977 0.04431315 0.12577547
000320 58 0b 28 be 4e 68 80 bd fd 83 35 bd d2 c1 a8 3d
       -0.16410577 -0.062698945 -0.044315327 0.08240093
000330 a0 25 34 bd 36 ad a1 bd a5 ad 35 3e db 2c 1c 3e
       -0.043981194 -0.078943655 0.17742021 0.15251486
000340 ad 1d 1c 3d 1a 48 93 3b 8c 3c a9 bc 3a 8a 10 3b
       0.03811424 0.004494679 -0.020658754 0.0022055046
000350 90 ad 3e 3d a9 62 00 be c1 71 85 bd c6 7e a7 3c
       0.04655224 -0.12537636 -0.065158375 0.020446192
000360 db 52 1b be 2f 69 0b bd ee 0e 6c 3c 3a 00 24 3e
       -0.15168326 -0.034035858 0.014407856 0.16015711
000370 d8 a5 8e 3b 46 07 c8 3d d3 e3 ae bd 10 04 8d bd
       0.004353266 0.09767012 -0.08539548 -0.068855405
000380 6a 87 0d be 07 c5 18 3e c3 ab ee bd 77 20 22 be
       -0.13821188 0.1491891 -0.11653855 -0.15832697
000390 2b 33 74 bb 61 bc b3 bd 5a 20 85 3d 7f ff 1b 3e
       -0.0037261944 -0.08776165 0.06500311 0.15234183
0003a0 13 84 34 be 33 9c 63 3d 2d 6d 12 3c 71 f5 0b 3e
       -0.17628507 0.055568885 0.008937162 0.13667847
0003b0 b2 c3 0d 3e 37 7d fd 3d 41 ce ee 3d f5 02 01 3e
       0.13844183 0.123773985 0.116604336 0.12598784
0003c0 26 b4 92 3d 0d 31 4b 3d b8 6e 6d 3d 71 bf d1 3b
       0.07163267 0.049607325 0.057966918 0.0064009954
0003d0 37 e0 22 3d be 65 f7 bd 31 09 15 be 4c 3f 20 3e
       0.03976461 -0.12079953 -0.14554287 0.15649146
0003e0 a3 44 d4 3d 8f cb 36 be 8f b9 e1 3d fd 28 30 be
       0.10364654 -0.17851089 0.110217206 -0.17203136
0003f0 9d 1a 38 3c c0 27 68 3c b4 0e 89 bd 4f c0 e2 bd
       0.011236814 0.014169633 -0.066922575 -0.11071836

body.2.weight f4 [256, 256]
000000 05 42 48 bc bf 52 8d 3c d3 4a 1b bc be 9f 1a 3d
       -0.0122227715 0.01725137 -0.009478289 0.03775
000010 d2 5f fe 3b a6 dd b2 3c 3d 09 5c bd 9e 2e 9e 3c
       0.0077628875 0.021834206 -0.053719748 0.019309338
000020 00 1d 42 3d a0 d8 81 3c 5d 05 03 3d af 9b bd 3b
       0.047390938 0.015850365 0.031987537 0.005786381
000030 89 49 24 3c bd e9 30 bd ff e7 24 3d 65 ce 76 bd
       0.010027298 -0.04319166 0.04026031 -0.060255427
000040 02 2c 0b 3d 03 1c 5f 3d 4b ef d0 bc 48 8c 07 3d
       0.033977516 0.054470073 -0.025504729 0.033092767
000050 4e 00 29 bd a4 11 5c 3d 5c 35 a2 bc 2e eb ca 3a
       -0.041260056 0.05372776 -0.019800834 0.0015481466
000060 e0 fd 8c bd d4 93 34 3c 3d 65 61 bd 9d 52 61 bd
       -0.0688436 0.011021573 -0.05502819 -0.055010427
000070 ee 12 53 3c bc aa 40 bd c9 de 05 bd 0a 3b e3 b7
       0.012882931 -0.047037825 -0.032683168 -2.7088001e-05
000080 64 10 be 3c e5 99 79 bd d6 21 1d bc 32 5c b2 3b
       0.023201175 -0.06093778 -0.009590587 0.0054431194
000090 1f b9 86 3d 56 2d 61 3c 25 10 ae bc 68 50 08 3d
       0.06578278 0.013743719 -0.021247933 0.033279806
0000a0 24 33 e4 bc dc 85 7b 3d 1f ca 5a bd f7 c3 6a bd
       -0.027856417 0.061406955 -0.053415414 -0.057315793
0000b0 6c 94 91 3d 26 07 b8 3c 4d 67 30 bd e6 ec 4d 3d
       0.07108387 0.022464346 -0.043067265 0.050274752
0000c0 7d 69 6e bd 5c b7 11 3c 7d a5 a5 3c bd d9 01 bd
       -0.05820607 0.008893814 0.020220513 -0.031701792
0000d0 5b a1 15 bd 2f 11 1c 3d 64 2e 27 bc be bc 48 3d
       -0.036530834 0.038102325 -0.0102039315 0.049008124
0000e0 7f f5 f9 bb 79 81 05 bd 25 98 4b 3d 5d 25 f5 3b
       -0.0076281424 -0.032594178 0.049705643 0.0074812607
0000f0 9d 1d 93 bd 73 ae 51 bd 12 cd b5 3c 6f aa 85 bd
       -0.07183383 -0.05119176 0.022192512 -0.06526648
000100 cc ef 1d bd 3d 90 31 3c 75 22 17 3d bd 8f 6b 3d
       -0.038558766 0.010837612 0.036898095 0.057510126
000110 d5 2d 5d 3d 17 a0 59 bd a7 a9 37 3d 54 7f 04 bd
       0.053998787 -0.05313119 0.044839527 -0.032347992
000120 e4 b0 01 3d ca 99 2e 3d 07 18 64 bd ff 8b 9a bd
       0.031662837 0.042627133 -0.055686977 -0.075462334
000130 95 f8 a7 bc 83 8a 8a 3d 5a b3 0b bd 6c 90 ce 3b
       -0.020504275 0.067647 -0.03410659 0.0063038375
000140 20 94 68 3d 2d fd dc 3c 5d b5 6b bc 77 3d 0a bd
       0.056781888 0.026976192 -0.014386502 -0.033750024
000150 5f a9 16 bd a1 53 b4 3c b6 53 07 bd 89 72 30 bd
       -0.03678262 0.022012534 -0.033038817 -0.04307798
000160 36 a6 3d 3d 3d d8 9f b9 b5 8d 81 3b be b1 1c 3d
       0.04630109 -0.00030487953 0.0039536604 0.038255446
000170 f8 b5 07 3d 45 f3 22 3c b1 1e 8a bd 60 04 7d 3d
       0.033132523 0.009945695 -0.06744135 0.06177175
000180 a3 ae c8 3c 98 58 bc bc 18 c8 2f 3d 7a 6f 34 bc
       0.024497336 -0.022991464 0.042915434 -0.011012906
000190 2d ab aa 3c 8c 74 60 bd 83 b3 3d 3d e6 57 21 bc
       0.020833576 -0.054798648 0.046313774 -0.009847617
0001a0 23 71 0f 3d 35 f4 b8 bc c6 45 86 bc f6 2d 83 3a
       0.035020005 -0.022577384 -0.016390692 0.0010008204
0001b0 48 47 c6 bc 3c ca 3d 3b a5 12 2f 3d 6c 99 52 3d
       -0.024203911 0.0028959652 0.04274239 0.051415846
0001c0 8f 3e 07 3d f6 3e c6 bc 87 23 30 3d e6 87 93 bc
       0.033018645 -0.024199944 0.04300263 -0.018009137
0001d0 62 f1 ef 3c 5b 3b 2a bd 72 aa 9d 3c 3d 7a b8 bc
       0.029289905 -0.041560512 0.019246314 -0.022519225
0001e0 ac 48 22 3b 57 59 6b bd 4c 9f 44 3d f9 d9 de 3c
       0.0024762554 -0.057458248 0.04800348 0.027203547
0001f0 25 5b 7a 3d 50 c3 99 3c 7e f3 c4 bc e2 d6 33 3d
       0.06112208 0.01876989 -0.024041887 0.0439061
000200 14 4c 28 3d 26 1f 20 3c 0f 0b 4b 3d 3e 2f 30 bd
       0.04108818 0.009773051 0.049571093 -0.043013804
000210 e1 87 1d bd e1 0b 99 bc ec 3b 1d bd d6 e2 44 bd
       -0.038459662 -0.018682422 -0.038387224 -0.04806789
000220 fd 10 67 3d 0f b6 09 bd f4 49 a2 3c 0c a4 a2 bc
       0.056412686 -0.03362089 0.019810654 -0.019853614
000230 2f a8 4b bd 42 b1 1a 3d a2 c5 4b bd ba 03 0c 3d
       -0.04972094 0.037766702 -0.049749024 0.03418324
000240 19 a2 96 3c 0b ce 6b bd 28 5b 05 bc d5 40 52 3d
       0.018387841 -0.057569545 -0.008139409 0.05133136
000250 67 4c 39 bd ac bb 8e ba 74 c6 02 bd 2d e9 80 3d
       -0.04523888 -0.0010889671 -0.03192754 0.06294475
000260 74 aa e3 3c 95 42 ac 3b 9b 8d 83 3c dc 87 8d 3c
       0.02779124 0.0052569606 0.016058734 0.017276697
000270 86 5e 38 3d 54 f5 43 bc 06 4e e6 bc 39 c6 0e 3b
       0.04501202 -0.011960346 -0.028113376 0.002178563
000280 82 91 1c 3c 29 5c 9b 3b ba 05 45 bc 8b bb e7 3c
       0.009556176 0.004741211 -0.012025291 0.02828767
000290 1b 2c 9d bc fc c8 10 3d c3 1a 84 bd 98 18 2c 3d
       -0.01918607 0.035347924 -0.06450417 0.042015642
0002a0 9c 98 cf bc 33 26 59 bd b3 a0 57 bd e5 d6 50 3d
       -0.025341325 -0.053014945 -0.05264349 0.05098619
0002b0 33 a2 c3 3c fd 27 2d 3d d7 de 3c bd 21 8a 22 3c
       0.023881054 0.042274464 -0.046110954 0.009920628
0002c0 f0 79 23 3d 8b 53 0d bd fe b5 a0 bb d1 26 94 bd
       0.03991121 -0.0345035 -0.0049045077 -0.07233966
0002d0 d8 b1 23 3d 88 bb a3 bc 4e 3c 90 bd 0b 2a 38 3d
       0.039964527 -0.019986883 -0.07042752 0.04496197
0002e0 a4 4e 04 3d 63 65 5c bd 42 d9 51 bd 33 2b ca 3c
       0.03230156 -0.053807627 -0.051232584 0.024678802
0002f0 c1 5b 93 bc ed ca 7b 3c 3d 80 79 bb 37 c7 25 bd
       -0.017988088 0.0153682055 -0.003807082 -0.04047319
000300 f8 24 a8 bd 4a e4 70 bd d4 77 e9 3c 4f cf 07 bd
       -0.08210176 -0.058811463 0.028499521 -0.03315669
000310 27 4c 8a bd 53 73 d7 3c 74 f7 76 3c 2f b1 5a bd
       -0.06752806 0.026300108 0.015073646 -0.05339163
000320 8a d7 01 3d 83 b7 79 3d f2 92 ed bc bd fe 8e 3c
       0.031699695 0.060966026 -0.029000733 0.017455453
000330 f0 29 df bc 68 15 ef bc 70 67 04 3d 1f b9 f2 3b
       -0.027241677 -0.029185012 0.03232521 0.007407322
000340 a2 da 63 bd c7 72 43 3c 49 ca 5c 3d 79 15 43 bd
       -0.055628426 0.0119292205 0.05390385 -0.0476279
000350 cc 01 6d bd 73 63 52 bc f4 1c 7f 3c 02 17 36 3d
       -0.05786304 -0.012841093 0.015570868 0.044455536
000360 01 44 37 bd f3 68 e7 3c e5 ce 2d bd 62 e7 1a 3d
       -0.044742588 0.028248286 -0.042433638 0.03781832
000370 08 30 76 3d 4a 67 26 bd 12 f9 89 3c fe bc e5 3a
       0.0601044 -0.040625848 0.016842399 0.0017527638
000380 e3 4e 01 bd 18 df 65 bd c3 81 91 bc f2 e5 07 bd
       -0.031569373 -0.056120962 -0.01776207 -0.033178277
000390 c8 d9 48 3d 1d d8 22 bd 0d 8a 98 3c 0d 7a 0c bc
       0.049035817 -0.039756883 0.018620515 -0.008574021
0003a0 60 e2 88 3d 73 f8 0c bd 88 43 07 bd 38 23 80 3d
       0.066838026 -0.034416627 -0.033023387 0.062567174
0003b0 7c 79 37 3d 12 c2 b0 37 7b 1a ff bb b0 85 16 bd
       0.04479359 2.1071206e-05 -0.007785139 -0.036748588
0003c0 ee 5d c6 3b e9 be 8d 39 26 8f 92 bd ad 31 51 3d
       0.0060536778 0.00027035855 -0.0715621 0.051072765
0003d0 0f 09 73 3b f3 e9 7e bd d9 c5 08 bd c2 60 0f 3d
       0.0037084257 -0.06223483 -0.033391807 0.035004385
0003e0 08 f9 28 bb 48 28 bc bc 27 10 5c 3c 87 71 4c 3a
       -0.00257832 -0.022968426 0.013431585 0.00077988993
0003f0 bd 43 cd bc 00 41 2c 3a 58 71 61 3a 59 73 87 bd
       -0.025056714 0.0006570965 0.00085999584 -0.06613798

body.2.bias f4 [256]
000000 1c 0e 9e bc 20 68 08 bd b9 ab 9e 3d df 03 2a 3b
       -0.019293837 -0.033302426 0.07747597 0.0025942249
000010 a9 56 16 3d d4 26 72 bc fc 00 36 bd fd 3b 55 3d
       0.03670374 -0.014779765 -0.044434533 0.052059162
000020 a1 8f 18 3d 87 26 1b 3d 5d 22 57 3d 14 ce 1d 3d
       0.03724635 0.03787854 0.052523006 0.03852661
000030 33 db 8a bd d9 93 ec 3c a8 af 18 bb c3 0b c0 bc
       -0.0678009 0.028879093 -0.0023298059 -0.023443108
000040 d0 52 03 bd 11 7e fb bc ef ba 59 bd ea 91 a9 bb
       -0.032061398 -0.030699762 -0.05315679 -0.005174865
000050 a5 9c 4c bd e2 53 52 3d 68 93 60 bd a5 dc df bb
       -0.049954075 0.051349528 -0.054828078 -0.006831723
000060 ea 46 09 bc ff dc 70 bd e5 cc 0b bb 21 eb 0b bc
       -0.008378724 -0.05880451 -0.0021331843 -0.008539946
000070 e6 c1 7a bb 78 cd db bc 2f 06 d5 3c a1 9b f9 3b
       -0.0038262545 -0.026831374 0.026003925 0.0076174294
000080 32 e3 e2 bc 6c 6c 59 bd 02 31 3c bd 9b 94 0c bd
       -0.027696226 -0.053081915 -0.045945175 -0.03432141
000090 23 05 e3 3c 96 36 3e 3d 51 63 b1 3b 8b bb aa bb
       0.02771241 0.046438776 0.0054134508 -0.005210345
0000a0 90 5b e6 3c 29 1f 86 3d 9a 8a 4f bd 27 8f 2c bd
       0.028119832 0.06548912 -0.05066929 -0.04212871
0000b0 a2 00 e4 bc 08 da e5 bc 7b 7a 32 3d 10 fd 39 bd
       -0.027832333 -0.028058067 0.043573838 -0.045407355
0000c0 96 9d 5d 3d e3 6d 7d bc 01 e6 e8 bc a2 7d 06 bc
       0.054105364 -0.015468094 -0.028429987 -0.008208664
0000d0 9e 53 10 bc 83 7e 5d bd 95 38 6d 3d dd 55 31 bd
       -0.008808998 -0.05407573 0.05791529 -0.043294776
0000e0 86 cf 4c bb cd c6 8c 3c 4c 5f a3 bc fa 17 7d bc
       -0.0031251623 0.01718464 -0.019942902 -0.015447611
0000f0 48 f8 56 3d b1 bc 89 3b cd ce 7a bd 96 a7 9c 3c
       0.052482873 0.004203402 -0.061232377 0.01912288
000100 8d 32 33 bc c9 96 e1 bc fb 49 a0 3c 07 1a 7f 3c
       -0.010937345 -0.02753772 0.019566527 0.01557017
000110 de d9 30 3b fa 4e 23 3d fd 68 52 3d ae 41 93 3c
       0.0026985328 0.03987024 0.051369656 0.017975654
000120 47 f0 cc 3a 91 74 16 3d 18 f1 01 bd f6 f4 33 bd
       0.0015635573 0.03673226 -0.031724066 -0.043934785
000130 19 4f 3f bd fb 16 d8 3b 44 ad e0 3b b6 a0 95 3b
       -0.046706293 0.0065945364 0.0068565924 0.0045662774
000140 4d f9 3c bc fd 5a 06 3d 71 16 c7 3c a6 65 49 bd
       -0.011534047 0.032801617 0.024302693 -0.049169205
000150 71 f5 bc 3c cb 57 04 3d e1 54 6a 3d 94 45 82 bc
       0.023066254 0.03231029 0.057209853 -0.015902318
000160 99 01 bc bc 00 46 96 3c c7 8e 82 3b 95 06 61 bd
       -0.02294998 0.018343925 0.0039843055 -0.054937918
000170 97 ae 71 bb 72 e5 8e 3c c3 ab 66 3d ed 48 5f 3d
       -0.0036877745 0.017443392 0.05631615 0.054512907
000180 a4 5d a2 bc 0a 81 5e 3d a2 5a 4f 3d c9 fc 7a bd
       -0.019820042 0.05432228 0.050623544 -0.06127623
000190 af 45 2c bd 8d 60 9c 3c 2d bb e2 3a 74 0c 58 3d
       -0.042058643 0.019089008 0.0017298214 0.05274625
0001a0 91 f3 75 3d cd 96 84 3c b3 ce 4b 3d 14 1f aa 3b
       0.060046736 0.016185189 0.04975767 0.005191693
0001b0 f7 a0 b7 3c cb 5c d1 3c a0 05 89 bc 28 0c 3e bd
       0.022415621 0.025556942 -0.016726315 -0.04639831
0001c0 3f c3 54 bd 80 01 4c bc 16 e8 9d 3c 71 17 0f 3d
       -0.051944014 -0.0124515295 0.019275706 0.034934465
0001d0 d9 9e 95 bc ef 24 dc bb 51 69 af bc 57 fa 84 3d
       -0.018264221 -0.00671827 -0.021412523 0.06493061
0001e0 65 77 fd bb f4 99 1c 3c ce 65 54 3d b4 dd 92 bb
       -0.00773518 0.00955819 0.0518549 -0.0044819955
0001f0 de f0 5b 3c 89 a1 e3 bc b7 5b da 3c f5 6e c1 3c
       0.013424126 -0.027786987 0.026655061 0.023612479
000200 52 ef 0a bd 05 43 00 bc 8b 2c e1 bb be 22 76 3d
       -0.03391964 -0.007828479 -0.006871765 0.060091726
000210 88 40 eb bc 9a a5 af bb 52 ea 38 bd 6d 76 a3 3b
       -0.028717294 -0.0053603174 -0.04514534 0.0049884827
000220 75 c9 84 3d 0b e2 3f bd 9f a9 9e bc 1f 2c 3e 3d
       0.064837374 -0.04684643 -0.019367991 0.046428796
000230 ec 44 7c 3c 55 a1 06 bc 2d 89 62 bc 87 af 65 bd
       0.015397292 -0.0082171755 -0.013826651 -0.0560756
000240 51 81 59 3d 99 65 67 3c 14 a9 e1 3c dd 0c 85 bc
       0.05310184 0.014123344 0.027546443 -0.016241485
000250 16 cf cb ba de 03 fd b9 67 c2 02 3c 3a 88 28 3d
       -0.0015549387 -0.00048258802 0.007980919 0.04114554
000260 4b e2 08 bd d3 26 b2 bb d6 ea 3e 3d 07 ba ee bc
       -0.033418935 -0.005436757 0.046610676 -0.02914144
000270 9b 01 60 bd f0 cc 53 bc 4f 02 08 bd 7e 8a 5d bc
       -0.05468903 -0.012927279 -0.033205327 -0.013521789
000280 ad c6 65 bd 86 d2 b9 39 7a 87 45 3d 62 88 a8 3c
       -0.056097675 0.00035442802 0.048224904 0.020572845
000290 40 1e 10 3d 4c eb 30 3d 0c 66 71 bd 13 b0 68 bd
       0.0351851 0.043193147 -0.05893521 -0.056808542
0002a0 e0 c7 f2 bc 92 cf 01 3d 73 c2 16 3d 4e 5d e0 bc
       -0.029636323 0.031692095 0.036806535 -0.027388241
0002b0 0b d8 23 3d 63 ce 1c 3c 37 3d 20 bd 44 4d 65 bd
       0.040000957 0.009570691 -0.03912088 -0.05598189
0002c0 61 4c 36 bd be b9 68 3d 8c d9 59 3d dd ee ba bc
       -0.044506434 0.056817763 0.053185984 -0.022818977
0002d0 c7 fd 3c bc 68 7b 50 3d 4e ec 42 3d 55 36 16 3d
       -0.011535115 0.05089894 0.04758864 0.03667291
0002e0 aa c1 d2 bc c0 fb 4b b9 b8 03 cc bb bc 3e 42 bd
       -0.025727112 -0.00019453373 -0.0062260292 -0.04742311
0002f0 81 16 79 b9 d4 0a 32 bc 5e fc 8f 3d 97 6d 09 bd
       -0.00023754874 -0.010866839 0.07030557 -0.03355178
000300 5b d0 fd 3c ea e7 6c 3d 4b 55 ea 3c fd 97 82 bd
       0.03098314 0.057838358 0.028605124 -0.06376646
000310 e5 25 53 3d 5b 39 39 bd 85 d2 33 bd 6f 7b 5e 3d
       0.05154981 -0.045220714 -0.04390194 0.054316934
000320 a2 aa 1d 3b 1b e3 ef bc 9b 5c 94 bc 67 43 88 3b
       0.0024058004 -0.029283097 -0.018110564 0.0041584256
000330 81 d9 5a bd 11 c4 24 3d b1 10 57 3d 56 59 54 bd
       -0.053430084 0.040226046 0.052506153 -0.05184301
000340 68 12 6d 3d 55 14 7e 3d c6 27 22 bd 00 22 1a 3d
       0.05787888 0.06203111 -0.039588712 0.03763008
000350 f5 71 a8 bb 9b f9 5c bb f1 03 55 bc 35 b9 25 bc
       -0.005140538 -0.0033718112 -0.013001428 -0.010114958
000360 85 f5 d3 3b 25 0f 07 bd 86 7e ea bc d3 e5 07 bd
       0.006468477 -0.032973427 -0.028624784 -0.03317816
000370 b4 58 32 3d d1 4d 69 bd 1f 0c 55 bd 43 64 62 3b
       0.043541625 -0.056958977 -0.052013513 0.0034544624
000380 35 83 86 3c 83 2a 2d bd 03 61 9f bb 30 d3 8b 3d
       0.016419986 -0.04227687 -0.0048638596 0.0682739
000390 ad 11 06 3d a6 3a 40 bd 67 81 60 3d 91 41 d0 3c
       0.0327317 -0.04693093 0.054810908 0.02542189
0003a0 72 81 49 bd 91 44 85 3c 55 66 e8 3c 79 76 d3 3c
       -0.049195714 0.016268047 0.028369108 0.025813328
0003b0 ee 69 69 3d ba d5 42 3d 31 ef f1 3b af d0 27 bc
       0.056985788 0.047567107 0.00738325 -0.010242625
0003c0 76 ee 81 3d a6 57 f9 bc 7b 5e ec 3b 5f df 1c 3d
       0.06344311 -0.030437302 0.0072134114 0.03829896
0003d0 d2 29 1d 3d 65 47 a5 bc c0 22 cc bc 17 12 e1 3c
       0.03836996 -0.020175645 -0.024918914 0.027474446
0003e0 ed b0 45 bd f7 4a 26 bd 07 22 ec bb 4e d4 3e 3c
       -0.048264433 -0.040598836 -0.007206205 0.011647297
0003f0 4b b1 4c bd 44 c5 8f 3d 5f 59 42 bd d6 cb 16 3d
       -0.049973767 0.07020047 -0.047448512 0.036815487

body.4.weight f4 [128, 256]
000000 97 11 b1 bc e7 18 6c bd 49 76 95 bd 3c 76 6c ba
       -0.021614833 -0.057640936 -0.07297952 -0.0009020304
000010 f9 8f 84 bd ee 96 a6 3c 1e 91 05 3d 1b 5b 38 bd
       -0.06472773 0.02033564 0.032609098 -0.04500876
000020 75 4a 19 bd 9a a5 e7 3c 8d 10 64 3a c8 d6 45 3c
       -0.037424523 0.028277207 0.0008699976 0.012075134
000030 27 bc 65 3c 43 a8 55 3d cc 4a d8 bc 2d b4 45 bc
       0.01402191 0.05216242 -0.026402853 -0.012066883
000040 2c 97 48 bd aa 76 27 bc 6b a8 0d bd 1e 4c 69 bc
       -0.048972294 -0.010221163 -0.034584444 -0.014239339
000050 a6 58 08 bd 44 0c 17 3d 70 76 5c bd 7c 28 86 bb
       -0.033287667 0.03687693 -0.05382389 -0.0040941816
000060 6c da 18 bd 7e 45 28 3c 15 e5 56 3d 09 37 00 bc
       -0.03731768 0.0102704745 0.052464563 -0.007825621
000070 20 55 dc bc 35 43 32 bc 8d 73 5a 3d 54 67 d6 3b
       -0.02689606 -0.010880281 0.053332854 0.0065430794
000080 c3 73 51 3d da c3 2e 3a c6 7f 30 bd ad df f6 bc
       0.05113579 0.00066667574 -0.043090604 -0.030135954
000090 4d 37 49 3c c7 84 63 ba 18 17 a5 bb d7 ab 11 3d
       0.012281251 -0.0008679148 -0.0050381534 0.03556427
0000a0 63 f5 cd bc 7b e5 39 3d 89 00 4e 3d be 6f 1e 3d
       -0.025141424 0.045384865 0.05029348 0.038680784
0000b0 43 a4 85 3d 5a 2b 21 ba c5 1d 06 3c 96 3c 69 3d
       0.06525471 -0.00061481225 0.008185809 0.056942545
0000c0 ad 8d 0a bd e8 93 14 3c e4 ad 05 bc a0 fc 3a 3d
       -0.03382652 0.009068467 -0.008159135 0.04565108
0000d0 0d ec 4a 3c 31 c1 68 bd 1c 2e 58 bb 8c 56 0d 3d
       0.01238538 -0.056824867 -0.0032986468 0.034506366
0000e0 bd 3c 6a bd 54 e9 9d 3c 4a 69 9b 3c fb 30 dd bc
       -0.05718683 0.019276299 0.018971104 -0.027000895
0000f0 8a 90 27 3c 6d ac 72 bc d5 7f 23 bc 4c f0 17 bd
       0.010227332 -0.014811617 -0.009979208 -0.0370944
000100 f4 04 28 3d 19 d1 6e 3d f1 aa 4c bd 5b bd 17 bd
       0.04102035 0.05830488 -0.04996771 -0.037045818
000110 24 93 8a bc 7b 98 f2 3c 39 a6 fa bc 95 0d 86 bb
       -0.016915865 0.029613724 -0.03059684 -0.0040909746
000120 50 6f 88 3c 40 fe 59 3d fb 4f ca 3c fb 09 37 ba
       0.01665464 0.053220987 0.02469634 -0.0006982383
000130 7f 0c 36 3d 29 a0 92 3b 06 4c 11 3d 05 d2 29 3d
       0.04444551 0.004474659 0.035472892 0.041460056
000140 84 92 92 3b a9 c8 f1 3c 14 eb b2 3c 0d 0b 80 3c
       0.0044730324 0.029514628 0.02184061 0.01563027
000150 7c c6 a8 bc 25 dd 00 3d fc a4 d5 3b ee 61 77 3d
       -0.020602457 0.0314609 0.006519912 0.060396127
000160 c6 24 05 bd 4b d8 73 bc c2 c3 37 3d 29 ab 39 3d
       -0.032505773 -0.014883111 0.044864424 0.045329247
000170 29 13 ad 3c 53 c9 29 bb cf f4 69 bd 67 c1 6f bd
       0.0211273 -0.0025907352 -0.057118233 -0.058534052
000180 9a 4d 05 3d 79 ae 91 bb 29 0c 1a 3d 3c a4 61 bd
       0.03254471 -0.0044458476 0.037609253 -0.055088267
000190 0f 82 94 3c 2b d2 2c 3d 53 0f 1f 3d ee 0d 98 bc
       0.018128423 0.04219262 0.038832974 -0.01856133
0001a0 38 d2 8d 3c da 8d 7d bd 18 c3 49 3d 4b 4b 1f 3d
       0.017312154 -0.06190286 0.04925832 0.038890164
0001b0 87 c9 52 3c 7b 6e 4e bd d1 81 58 3d 39 17 e1 3c
       0.012865431 -0.05039833 0.052858178 0.027476894
0001c0 67 ea ea 3c c4 f6 15 3d d0 87 ad 3c 78 fb 83 3c
       0.028676225 0.036612287 0.021182925 0.01611112
0001d0 5e 2e 97 bd 87 5d 8d bd 15 ff b0 bc 4f 82 b8 bc
       -0.07381891 -0.069026046 -0.021606008 -0.022523073
0001e0 19 68 88 bd 24 0c 6a 3c ea 1c 2f bd ce 64 a8 bc
       -0.0666048 0.014285121 -0.042752184 -0.02055588
0001f0 7b 33 cc bc a1 16 69 bd 24 85 01 bd 37 fa 19 bb
       -0.024926892 -0.056906346 -0.031621113 -0.0023495087
000200 8d ab 3e bd f1 fd 46 ba 1d e7 6d bd 9e ae dc bc
       -0.046550322 -0.0007590941 -0.058081735 -0.026938733
000210 7e e8 d9 bc b0 4a 16 bc 45 fc 50 3d 15 fe 04 3b
       -0.026600119 -0.00917308 0.051021833 0.0020293046
000220 3d c7 8f bd 21 77 02 3b e5 18 69 bd f3 e0 85 3d
       -0.070204236 0.0019907432 -0.056908507 0.06537046
000230 b6 74 1f 3d 10 c3 f2 bc 72 e9 52 3d e4 ef 0e 3d
       0.038929664 -0.029634029 0.051492162 0.034896746
000240 60 87 50 bd c7 42 d4 3b 5c cd 6f 3d 83 ee 4b 3d
       -0.050910354 0.006477687 0.058545455 0.04978801
000250 a3 5d 11 3d 9f 3c 45 bd 53 05 84 bb 94 b1 50 3d
       0.03548969 -0.048153516 -0.004028955 0.0509506
000260 b8 c7 06 bd 0a df a8 3c 7a df 47 bc 15 49 2a 3d
       -0.03290531 0.020614166 -0.012199277 0.041573603
000270 85 89 eb bb a6 eb b1 bc cb b6 45 3d a9 17 1f 3d
       -0.0071880245 -0.021718811 0.048270028 0.038840923
000280 1a 57 4b bc e6 c1 45 3c 2c 54 5a bc 54 98 ae 3c
       -0.012410903 0.012070155 -0.013325732 0.02131287
000290 f7 e3 11 3d ae 6e 54 bd 77 c5 04 3d cf 2b 50 3d
       0.035617795 -0.051863365 0.03241488 0.05082303
0002a0 a1 47 36 3c 66 48 ee 38 dc 4c 3c bc 69 9a 13 3d
       0.011125476 0.000113622096 -0.011492934 0.03603593
0002b0 f8 a2 f6 3b dc c1 6f 3c ba 15 a1 bc 77 d6 3b 3d
       0.0075267516 0.014633622 -0.01966368 0.045858826
0002c0 05 db 1f bd f7 82 5f 3d 63 2c ac bc e8 76 f8 bc
       -0.039027233 0.054568257 -0.021017259 -0.030330136
0002d0 20 00 19 bd 9a 9e 91 bd 05 f4 2d bd aa db 93 bd
       -0.037353635 -0.07110329 -0.042469043 -0.07219632
0002e0 28 15 28 3c a8 29 bb bc 23 a8 4c bc 32 c4 0d bd
       0.01025895 -0.022847012 -0.012491259 -0.034610935
0002f0 ea 9d 52 bd 29 2d 9e bd 1f 2a d4 3b 1c 0f 73 bd
       -0.05142013 -0.07723457 0.006474748 -0.05934058
000300 4a 90 7a bd 0b d2 5a 3d ba 8c 8b bd 7f 20 6e bc
       -0.06117276 0.05342297 -0.06813951 -0.014534115
000310 6d a2 3f 3d e7 63 01 3d 35 fb 12 3d 86 ef fd 3c
       0.04678576 0.031589415 0.0358841 0.030998003
000320 9e b1 ed bb eb 5d 43 3d 8b fb 91 bc 42 3f 86 bd
       -0.0072538396 0.04769699 -0.01782014 -0.06555034
000330 ad ab 86 bc ca 2f af 3b fe 75 d5 3a a3 69 8e 3c
       -0.016439283 0.005346273 0.0016285775 0.017384356
000340 f3 58 9b 3a d7 e5 83 3d 13 93 42 3d 39 f3 a4 3c
       0.001185207 0.06440323 0.047503542 0.020135509
000350 a9 a0 4c bd 35 7e 38 bd 25 bb 19 3d 0d bf 29 bc
       -0.049957905 -0.045042235 0.03753199 -0.010360491
000360 11 48 62 bd 8f 2e 5a 3b 56 a4 4c 3d c9 b2 24 3b
       -0.05524451 0.0033291911 0.04996141 0.0025130978
000370 95 71 b6 3c 85 81 7b bb 7a f2 2d bd 38 b9 0e 3d
       0.022270957 -0.003837676 -0.04246757 0.034844607
000380 55 b8 82 3c 12 cd 57 3d 19 ad 60 3d 80 72 97 bd
       0.015957037 0.052685805 0.05485258 -0.07394886
000390 d0 09 4d bd 49 8f 31 bd d6 1d 44 bd 06 f7 78 bc
       -0.050058186 -0.043349538 -0.047880016 -0.015195614
0003a0 ab f5 3e bc 8f c1 a7 3c 39 92 86 3d 1d d6 7c bd
       -0.0116552515 0.020478038 0.065708585 -0.06172763
0003b0 f1 c4 90 3b 78 3a 90 3c 80 dc c1 bc 36 9e 7b 3d
       0.0044180085 0.017606005 -0.023664713 0.06143018
0003c0 f3 4e 8b bd bc 13 32 bc 1d 5e 32 bd e9 2a 6f 3d
       -0.06802168 -0.010868963 -0.043546785 0.05839053
0003d0 65 f0 71 bc f4 f6 ff 3c 9a f1 84 3d 6c 07 ce ba
       -0.014766787 0.031245686 0.06491394 -0.0015718765
0003e0 45 fd 36 bd 4f b2 da 3a 02 91 9a bc 2e 0b e2 3c
       -0.04467513 0.001668522 -0.018867973 0.027593222
0003f0 ba 0e 86 bc 4f d6 8b bc c9 5e 60 bc 44 c8 c7 bc
       -0.016364444 -0.017069964 -0.013694474 -0.024387486

body.4.bias f4 [128]
000000 b6 b2 21 3b b0 39 f5 3c b0 d3 00 bd 80 00 44 bd
       0.002467317 0.029934734 -0.03145188 -0.04785204
000010 7a 66 5d bd 32 15 72 3c 27 3a 54 3d eb 1b ba 3c
       -0.054052807 0.014775561 0.05181327 0.02271839
000020 c5 a9 b1 bc bf 63 04 bd 8d 4a 73 bb 88 a4 22 bd
       -0.021687398 -0.032321688 -0.0037123293 -0.03970769
000030 e7 bb 01 3d 23 0a 01 bd d5 05 33 bd f4 ee 0d 3a
       0.03167334 -0.031503808 -0.043706734 0.000541433
000040 2b 75 d6 3c 2c c3 79 bc 7d 16 50 3d 14 0b 55 bc
       0.026178917 -0.0152442865 0.050802696 -0.0130031295
000050 4d b5 dd 3c fb 4a c5 bc ca a8 0d 3d 95 41 08 3d
       0.02706399 -0.024083605 0.034584798 0.03326567
000060 ee 44 96 bc 80 b7 10 3b f5 9e 14 bc c2 11 61 3c
       -0.018343415 0.002208203 -0.009071101 0.013737144
000070 24 c6 5b 3d 77 5e 95 3c 00 7f 42 3c aa cf 41 bc
       0.05365576 0.01823352 0.0118710995 -0.011829296
000080 4c 93 35 bd 4e cb 38 3c 68 e8 96 bc b2 a7 80 3c
       -0.044329926 0.01127894 -0.018421367 0.015704963
000090 a2 a6 e5 ba 9e 25 83 3c d8 ac 69 3d 15 43 81 3d
       -0.0017520974 0.016009148 0.057049602 0.06311623
0000a0 05 f4 ec bc fc 12 13 3d 02 2e d7 3c e6 22 c7 bc
       -0.028924951 0.035906777 0.026267055 -0.024308633
0000b0 f0 e3 2b bc 0e 34 fe 3c 30 06 bc 3c 80 84 ce bb
       -0.010491356 0.031030681 0.02295217 -0.0063024163
0000c0 7f 89 d7 bb 0a 71 35 3d 4f b7 c6 bc c5 84 c7 3b
       -0.00657767 0.044297256 -0.02425733 0.0060888254
0000d0 fd 68 9f bb 60 a0 f7 3c 3e 4c 6e 3d 91 56 84 3d
       -0.0048648105 0.03022784 0.05817818 0.06461824
0000e0 d2 0b ea bc 14 1b b6 3c eb 53 04 3d 03 cc e4 3c
       -0.02857009 0.022229709 0.032306593 0.027929312
0000f0 5c 31 88 3d b3 0e 79 bd 07 14 07 bd 12 d3 a9 3a
       0.066500396 -0.060805034 -0.032978084 0.0012956581
000100 46 27 66 3d 4d 02 03 3c 0b 28 67 bd dc 4c 16 bd
       0.056189798 0.007996154 -0.056434672 -0.036694393
000110 4d da 14 bc e2 df 07 bd 86 83 f0 3c 0e 5c 2a 3c
       -0.00908525 -0.033172496 0.02935959 0.010397924
000120 55 86 48 3d a5 8e 42 3d 11 13 42 bd 27 5b 8f bc
       0.048956234 0.047499318 -0.047381464 -0.01749952
000130 43 b4 60 bd 2d 6d 7e 3d 6f d3 0f bd 90 55 83 3c
       -0.05485941 0.062115837 -0.03511375 0.01603201
000140 11 e7 a3 bc 27 f7 0f 3c 79 0b 1a bd f6 a3 5b bd
       -0.020007642 0.008786953 -0.037608597 -0.053623162
000150 94 5b c6 bc ad 6b 4a bd 61 5c f9 bc 88 0e a6 bc
       -0.02421359 -0.049419094 -0.030439558 -0.0202706
000160 f3 8b b9 bc b9 b4 df bb 3f 42 1c bd 80 a5 5b bd
       -0.02264974 -0.0068269637 -0.038149115 -0.05362463
000170 fa 59 d1 bc e8 13 c7 bb 49 33 38 3c 40 f3 48 bc
       -0.0255556 -0.006075371 0.011242696 -0.012265027
000180 44 8a e8 bc 39 3d 40 3c 08 6a 01 3d 72 99 57 3b
       -0.028386243 0.011733347 0.03159526 0.0032897857
000190 31 a6 0e 3d 57 50 c4 bc d5 75 f6 bc 1b d2 9d bc
       0.03482646 -0.02396409 -0.030085484 -0.019265225
0001a0 5d a9 d0 3a e1 e2 35 bc 41 b8 32 3c 99 f7 d3 bc
       0.0015919615 -0.011101455 0.010908187 -0.0258749
0001b0 b5 86 19 3d ee b5 82 bd bb f0 ad 3c bb f9 a7 bc
       0.037481982 -0.063823566 0.021232953 -0.020504823
0001c0 f4 b9 fd bc a2 f7 28 3d 97 de 6c 3d af 1d 77 bd
       -0.030972458 0.041251786 0.057829466 -0.060331043
0001d0 b4 8b 5a bd 0f 7b 07 bd 0f 58 09 3d c6 1c c1 bc
       -0.053355888 -0.033076342 0.033531245 -0.02357329
0001e0 e1 a4 ed 3c 27 78 45 bd 75 f1 c8 bb 02 3b 09 bd
       0.029009284 -0.04821029 -0.0061322995 -0.03350354
0001f0 ea 0a 51 3d 60 66 80 3d 18 bb 76 3c 12 42 44 bd
       0.0510358 0.062695265 0.015059255 -0.047914572

move_head.weight f4 [5, 128]
000000 0a 2b 45 3d a2 50 b1 bd 6c 39 ae 3d 41 ad e7 3b
       0.04813675 -0.086579576 0.08507046 0.007070214
000010 4e cb 3d bd 91 da 4c bd 81 07 83 bd 5d 1b ad 3d
       -0.046336465 -0.05001313 -0.06397916 0.08452485
000020 85 53 9f bd d6 cc 60 bc 4c 5a 5e bd 17 fd dd bc
       -0.07779602 -0.013720712 -0.054285333 -0.027098222
000030 09 1e b7 bd 6a 14 a5 bc 9c e8 f5 bc 4a b9 9c 3d
       -0.089412756 -0.020151336 -0.030018143 0.076525286
000040 72 e0 9a bd 83 99 b0 bd 15 55 38 ba 6a ee da 3b
       -0.07562341 -0.0862303 -0.0007031721 0.006681253
000050 93 53 9d 3d 16 a7 5e bd 80 c6 1a bd cb 8e 30 3b
       0.07681956 -0.054358564 -0.03778696 0.002694058
000060 c2 e8 e2 3c 5a c6 fd 3b f2 ac b8 3c 4e f3 64 bd
       0.027698878 0.0077445926 0.022543404 -0.055896096
000070 6d 07 48 3c 18 18 99 bd 4a e1 00 3d b3 ed 1c 3d
       0.012208802 -0.07475299 0.031464852 0.038312625
000080 23 76 14 bd 76 be 3c 3d 73 4d 8d 3d 16 e8 7a bc
       -0.036245476 0.046080075 0.06899538 -0.015314123
000090 90 cc 24 bb 32 e3 1a 3c 2d ac 41 bd 92 3f 9d 3d
       -0.0025146343 0.009453582 -0.04728334 0.07678141
0000a0 0b 1b cc 3c 6b 38 87 bd ec ae 68 bc 0e e2 25 bd
       0.024915239 -0.06602558 -0.014201861 -0.040498786
0000b0 d6 7b 98 bd 7c 85 85 3d 8f ea b1 bd 49 ab e0 3c
       -0.07445495 0.06519601 -0.086873166 0.027425425
0000c0 f0 9c 94 3d 4d 3b 8d 3d 84 ec 13 3d 9b bf 5b bc
       0.07256496 0.06896076 0.03611423 -0.0134123815
0000d0 dc b5 b0 3d b5 b9 eb 3c 58 10 66 3d 20 29 a6 bd
       0.08628437 0.028775075 0.05616793 -0.08113313
0000e0 c5 d4 35 3c bc b5 80 bd 19 4d 84 bd 7f 0f 26 3d
       0.0110980915 -0.06284663 -0.06460018 0.040542122
0000f0 8e 44 8a bd f8 20 cb 3c 41 d1 88 3c e8 08 65 bd
       -0.06751357 0.024795994 0.016701343 -0.055916697
000100 4f 74 aa bd 40 f3 28 3c 6b 99 0e bd 1c e1 a5 3c
       -0.08322965 0.010311902 -0.03481428 0.020248942
000110 b8 a3 0c 3d 2a cb a4 39 b1 f4 26 3d c9 2b 8e bd
       0.034335822 0.00031431887 0.0407607 -0.06941945
000120 df be 99 3d ac 77 ac bd 65 3e f8 bc 9b ab 05 3c
       0.07507109 -0.08421263 -0.03030319 0.00815859
000130 6f 4e 79 3c e7 d1 e5 3c 17 76 67 3d 05 4a 81 3d
       0.015216454 0.02805419 0.056509104 0.06312946
000140 d8 70 3c 3d 77 3f 38 3d 67 2d 9d bd b7 ca 8e 3d
       0.046006054 0.0449824 -0.076746754 0.069722585
000150 77 ed 7f bd 3e bd ac 3d 71 18 0b bd 4e ac 48 3d
       -0.062482323 0.084345326 -0.033958856 0.048992448
000160 4f 0d 4f 3d 43 8b 93 3a 4e 6e 10 3d ea fb ae 39
       0.0505498 0.0011256713 0.035261445 0.00033375557
000170 e9 ef 10 bc ae 59 e3 bc c3 77 9d bd a1 00 97 3d
       -0.008846262 -0.027752724 -0.07688858 0.07373167
000180 82 b3 32 3d df d9 6f bd 1f f4 8a bd 4a 82 24 3c
       0.043628223 -0.058557387 -0.06784844 0.010040829
000190 7c ad 32 3c 5c 78 80 bd 02 a4 c9 bb 13 9d 1b bc
       0.01090562 -0.06272957 -0.0061535845 -0.009497899
0001a0 7c 4d 82 bc a3 2f e3 bc 9a 7b ce bd 70 72 99 3d
       -0.015906088 -0.027732676 -0.10082169 0.0749253
0001b0 a9 f7 4e 3d 67 07 5a 3d 1b 3b c2 bc 91 e0 62 3d
       0.050529156 0.053229716 -0.023709824 0.055389944
0001c0 a7 91 2a bd ab 15 ff bc aa e5 31 3d 7a 3e ac bc
       -0.04164281 -0.031138262 0.043431915 -0.021025885
0001d0 46 bd 9e bd 56 d1 88 bd 60 86 99 bd 65 8e 84 bb
       -0.07750945 -0.06680553 -0.07496333 -0.004045295
0001e0 88 83 09 3b a7 0e 8d 3d 4d 37 45 3d 36 a1 96 3d
       0.002098294 0.0688756 0.048148442 0.07354967
0001f0 0a 2a 57 3b f0 91 4c 3d a2 dd 8a 3d be 54 86 bc
       0.0032831454 0.049943864 0.06780554 -0.01639783
000200 bb 9c 88 3c a6 56 97 3d 80 e3 a3 3d 3d 1a c4 3c
       0.016676297 0.07389574 0.080023766 0.023938293
000210 ef c4 31 3d e6 68 cc 3c 14 43 8e bd 7f 99 2c 3d
       0.0434007 0.024952363 -0.06946388 0.042138573
000220 bb 1d 5a 3d 2f 17 bd 3c be f2 1d 3d eb 29 4d bd
       0.05325101 0.023082344 0.038561575 -0.050088804
000230 b3 e7 bf bd ab 6f 8a 3d ff 6e 96 bd 43 01 4b 3d
       -0.09370365 0.0675958 -0.073453896 0.04956175
000240 5d 97 64 bd d8 ab c6 3d 7a 8b 56 3c aa 43 6b bd
       -0.055808414 0.09700745 0.013094777 -0.057437576
000250 c8 2e 27 bd 1f 91 45 3d a1 9a 85 3d 08 1d 9d bd
       -0.0408161 0.0482341 0.06523634 -0.07671553
000260 cc ba 51 3d 5a 1a 62 3c 28 bc 8b bd ee 9b 20 3c
       0.051203534 0.013800228 -0.06822997 0.009802802
000270 20 26 75 bd 9e 79 99 3d 4d 2e 3c bd cf d4 3e bd
       -0.059850812 0.074939 -0.045942593 -0.04658967
000280 62 73 9a 3d 82 5d 52 bd 01 ae 90 bb 17 9d 8c bd
       0.07541539 -0.051358707 -0.004415274 -0.068659
000290 f7 fc 5b 3c 3f 49 9f bd 7c b4 ab bc aa 3d ae bc
       0.013427011 -0.077776425 -0.020960085 -0.021269638
0002a0 6b 8a d4 3d 66 aa 87 bd a2 4e 2a bd 0a a3 bf 3c
       0.10377964 -0.06624298 -0.041578896 0.023393173
0002b0 79 cd f0 3c 66 bb b6 bd c5 cd 41 bd 5b 27 6e bc
       0.029394852 -0.08922462 -0.047315378 -0.01453575
0002c0 b2 86 72 bc 91 ba 82 bd ef 95 ef bc e2 d5 22 3d
       -0.014802622 -0.06383241 -0.029246299 0.039754756
0002d0 fb db 1d bd 14 65 82 bc cd 86 ea 3c 42 df e6 3b
       -0.038539868 -0.015917338 0.028628731 0.0070456574
0002e0 86 5b 97 3c 84 c1 f9 3b 37 3d a6 3c a7 0e 22 bd
       0.018476259 0.007621946 0.020292861 -0.039564755
0002f0 a8 ae 35 3d f7 ff 38 3d 5b b9 9f bd fd 54 ca 3d
       0.04435602 0.045165982 -0.077990256 0.098794915
000300 9d 5c 78 bd 27 90 bb 3d 54 0b 60 bd 60 7d 80 3d
       -0.060635198 0.09158354 -0.054698303 0.062739134
000310 cf c1 4c 3c 6c c6 a5 3d cb 01 9b bc 56 63 aa 3d
       0.012497379 0.080944866 -0.018921753 0.08319728
000320 65 9d df 3a b6 65 ce 3d 3d a0 17 3d b7 58 9c bd
       0.0017060457 0.100779936 0.03701805 -0.076341085
000330 86 98 a4 3c 9e d0 50 3c be 05 f5 bc a0 9f c3 3d
       0.02009226 0.012745051 -0.029909965 0.095519304
000340 ae 09 d3 3d bf 47 c8 bc b9 45 a9 3d 35 5b 82 3d
       0.10304581 -0.024448274 0.08265252 0.063650526
000350 bb 05 2e 3c 6d d6 22 bd 86 48 cd 3c ee 25 bf 3d
       0.010621483 -0.039755274 0.025058996 0.093334064
000360 49 41 a0 3b 52 ed 91 3d f5 6d 0f bd a1 fb 17 bb
       0.004890595 0.071253434 -0.035016973 -0.0023190754
000370 c1 c9 f4 bc 61 ce 5f 3d 00 be f2 bc 0c 6a 6b bc
       -0.02988136 0.054640178 -0.029631615 -0.014368545
000380 08 1f 62 3c 9c 09 96 3d 0a cf f8 bc 68 ed a7 bc
       0.013801344 0.073260516 -0.030372161 -0.020498946
000390 95 9f a7 3d 7b 57 0e 3d de 54 85 39 c0 29 78 bc
       0.08184735 0.034751397 0.00025430968 -0.015146673
0003a0 78 8b 14 3d 8a 26 cd bc 81 15 a7 bd 7b 93 b8 3d
       0.03626582 -0.02504279 -0.081583984 0.09012505
0003b0 00 ea 2c bc 0b f9 a1 3d c6 0e 71 bd 16 cf 91 bc
       -0.010553837 0.07908829 -0.05885198 -0.017798942
0003c0 36 5b e2 bd 30 00 01 3d 5a 7d 82 bd 51 b8 80 bd
       -0.11052553 0.03149432 -0.06371565 -0.062851556
0003d0 dd e3 61 bd f1 c4 22 3d 95 7b 30 3d 7d 96 9a bd
       -0.055148948 0.0397386 0.043086607 -0.075482346
0003e0 ce 1f 65 bd fb 42 3c 3d 17 f5 ee 3c 05 ab 9b bd
       -0.055938534 0.045962315 0.029169602 -0.07600979
0003f0 8b a5 44 3c e2 1b c7 3d 53 8e 49 bd 11 7e 99 bd
       0.012002359 0.09722115 -0.049207997 -0.074947484

move_head.bias f4 [5]
000000 bf 01 6e 3d 4c 11 9e bc 13 60 54 3d bc f0 26 bd
       0.058107134 -0.019295357 0.051849436 -0.040756926
000010 7e c6 be 3d
       0.09315203
