checkpoints/simple_world_comm_v3_scratch/simple_world_comm_v3_adversary_1_ep550.pt (torch, 437311 bytes, 8 tensors)

body.0.weight f4 [256, 34]
000000 d2 90 ba bd b3 2d ad bd 6b f4 cd bc 5d b1 1d bd
       -0.091096535 -0.08455982 -0.025140962 -0.038499225
000010 0e 2b aa 3d 91 8a 92 3d ac 84 5a bd d2 18 a1 bd
       0.08308993 0.07155336 -0.053349182 -0.07866062
000020 3e bc 17 bd 28 ba 94 3d 18 86 57 3d e4 90 43 3e
       -0.037044756 0.07262069 0.052618116 0.1909824
000030 f9 b2 aa 3d d3 19 0e be cb 90 45 bd 61 11 1f be
       0.083349176 -0.13877039 -0.04823379 -0.15533973
000040 71 60 f2 3d 3a 8b 15 3e 2e 49 d7 3b 63 fe 37 3e
       0.11834801 0.14603892 0.006570003 0.17968135
000050 50 94 42 bd a9 74 69 bd 4c 2e eb bb 7a c0 da bd
       -0.047504723 -0.05699602 -0.00717715 -0.10681243
000060 f8 da ad bd 0b 2b 08 3e 05 0f 06 3e d1 e7 17 bc
       -0.084890306 0.1329767 0.13091667 -0.009271578
000070 c1 9c ea bd 4b a3 88 3d 3b 7f 26 bd b4 a9 3a 3e
       -0.1145568 0.06671771 -0.04064868 0.18228799
000080 7a 8f e7 3d 78 de 89 bd 35 14 e4 3b d3 69 21 3e
       0.11306663 -0.06731886 0.0069604167 0.15763025
000090 47 d8 0c bd cd ea dc 3d cc 9f 9a bd a6 13 04 be
       -0.034385946 0.10786972 -0.0755001 -0.1289812
0000a0 8f e0 70 bd 01 42 06 3e ff d7 19 3e 85 67 cf bd
       -0.058807906 0.13111116 0.15023802 -0.10127167
0000b0 bf e6 e8 3d 61 00 fa 3d 90 e4 02 bd d8 a2 10 be
       0.11372136 0.122071035 -0.031956255 -0.1412462
0000c0 dc 0b 14 3c ed 80 f5 3d 98 03 83 3d 63 45 b7 3d
       0.009036031 0.11987481 0.0639717 0.08948781
0000d0 a4 d9 07 3e ef 8a 86 3d 5d a1 46 3d f1 d5 d2 bd
       0.13266617 0.06569468 0.04849373 -0.10294712
0000e0 32 c1 1a be 0f f3 82 3c e1 8e 56 3d f6 01 0a bd
       -0.1511276 0.01598504 0.052382354 -0.033693276
0000f0 a5 3e c0 3d 39 44 bf bb 75 02 65 3d a4 97 aa bc
       0.093869485 -0.00583699 0.055910546 -0.020824261
000100 e8 e2 ed bd 70 cd 2a 3e 5b fe 92 bd 29 97 b3 bc
       -0.116155446 0.1667993 -0.07177421 -0.021922665
000110 a6 be e6 3d 31 78 46 3c e7 8a 58 bd a2 57 39 3c
       0.11266832 0.012113617 -0.052866843 0.011312397
000120 22 22 33 3e 48 24 cb bd b6 90 28 3e 6e 63 8c bc
       0.1749349 -0.099190295 0.16461453 -0.017137256
000130 b4 df f7 bd 1e c1 1d bd 97 4f d9 3d ae fe 8b 3b
       -0.12103215 -0.03851425 0.10610884 0.0042723035
000140 fa 58 a5 bc 16 e9 62 bd af 56 14 be 19 09 c8 bd
       -0.020184029 -0.05539807 -0.14486192 -0.0976736
000150 91 50 d2 bd 26 d1 1a 3e 87 1a 02 be bb 75 fa bd
       -0.10269273 0.15118846 -0.12705432 -0.122294866
000160 55 cd df 3c a6 73 ee 3d 56 81 21 3d f4 84 92 bd
       0.02731959 0.11643152 0.039429985 -0.07154265
000170 92 d6 89 bb bd 08 18 be dc 2e fe bd 23 f8 c9 3d
       -0.004206487 -0.14847083 -0.124112815 0.098617814
000180 d1 72 0a 3e b4 25 ae 3d 8c 29 e5 bd cc cb 99 bd
       0.13520361 0.08503285 -0.11189565 -0.07509574
000190 3c 7f 69 bd 1d 36 c3 bd 28 51 80 bd e4 0e 13 bd
       -0.057006106 -0.09531806 -0.06265479 -0.035902873
0001a0 de 8d b1 bc a9 5e 31 3e 98 3b 13 be 09 47 17 be
       -0.021674093 0.17321266 -0.14378202 -0.14773192
0001b0 e6 5b 99 3d 9e d6 19 3d e1 2e 39 3e 17 d9 01 bd
       0.07488231 0.03755819 0.18084289 -0.031701174
0001c0 6e a6 0a be 76 c8 b1 3d 6d 53 a9 3d 72 ec 15 3d
       -0.1354005 0.08680813 0.08267865 0.036602445
0001d0 41 11 2a 3e df 61 0d be 34 fe 1a bd da c2 79 bb
       0.16608144 -0.13806866 -0.037840083 -0.0038110525
0001e0 95 bc cf 3d fa bf b7 3c c3 08 0e be 4e ba ef bd
       0.10143391 0.022430409 -0.1387053 -0.11705457
0001f0 7b 59 38 bd 00 1d e7 bd 04 6b 82 bc 52 c7 67 bd
       -0.04500721 -0.11284828 -0.01592017 -0.05658657
000200 c2 16 b6 3d 04 a1 d6 bc 4b 70 bf 3d 12 8f 0d be
       0.088910595 -0.026199825 0.0934759 -0.13824108
000210 41 86 1e 3e ba 49 8e bd 9c 9e 2d be aa ce 17 3e
       0.15480901 -0.06947656 -0.16955036 0.1482493
000220 6a 3b 4a 3d 3f 86 0f bd f9 40 ca 3d 10 c8 20 3e
       0.049373068 -0.035040136 0.09875674 0.15701318
000230 f0 ba 55 bc 4e 2e 3b 3b 84 d2 16 3d 93 69 02 3e
       -0.013045058 0.0028561535 0.036821857 0.12735586
000240 0b c5 43 3c d6 6e c1 3d 4a 88 3d 3c 24 09 2a 3d
       0.011948834 0.094449684 0.011568138 0.041512623
000250 34 95 cb bd 65 a4 73 3c 11 7d 82 bd 73 d0 54 3d
       -0.099405676 0.014870738 -0.06371511 0.051956605
000260 00 fa 16 bd 2a 00 d4 bd f9 5d ec 3d c0 d1 0d 3e
       -0.036859512 -0.10351594 0.11541361 0.13849545
000270 ac 30 1d 3e 7b 5e 5a 3c 70 ea 18 bd a6 a0 0c be
       0.15350598 0.01332819 -0.037332952 -0.13733158
000280 52 75 f3 bc 9c 1b 0a be d7 7c 0a 3e d9 97 c9 bd
       -0.029719029 -0.13487095 0.13524185 -0.09843416
000290 2c 23 00 3e 7b 9a 56 3d e5 88 66 bd 78 f7 7c bd
       0.12513417 0.052393418 -0.056282897 -0.061759442
0002a0 83 7a d0 3c 81 ef 4c 3d 4b 0b f5 3d ae fb a4 3d
       0.025449043 0.050033096 0.119650446 0.080558166
0002b0 e1 c0 0c bd 87 9c 1e 3e c2 6d f7 bd 13 3b c9 bd
       -0.03436363 0.15489398 -0.120814815 -0.09825721
0002c0 f8 df 09 be d0 13 27 be 8b f1 80 3c ea 95 02 bd
       -0.13464344 -0.16316152 0.015740177 -0.03188125
0002d0 41 af 26 be ad 7b 77 3d b7 3a 0d 3e 25 a1 b9 3d
       -0.16277792 0.06042068 0.13791929 0.09063939
0002e0 7d 39 bb 3d 7b 5d 02 be c1 6c 25 be 29 6c bc bd
       0.091418244 -0.12730972 -0.16154768 -0.092003174
0002f0 bf ce eb 3d 0a f6 21 be 24 9f 1e be 73 8e 18 be
       0.11514043 -0.15816513 -0.15490395 -0.1489809
000300 4a dc b9 3d 12 b9 5f 3d ce 50 86 3d 09 ba 1f 3e
       0.0907522 0.054619856 0.06558381 0.1559831
000310 ac 60 9c bd 74 6d 3b 3d 38 ba dd 3c 7e 4b dd 3c
       -0.07635626 0.04575868 0.027066335 0.027013537
000320 b7 61 94 bd c4 d5 a7 3c 1e 9e 04 3e b3 7c 47 3d
       -0.072452 0.020487674 0.12950942 0.048702907
000330 4b 2c 08 3e 72 d2 1d 3d 47 c0 5c 3d b1 da a1 bd
       0.13298146 0.038530774 0.053894307 -0.0790304
000340 6f a2 27 be f3 a5 2b be 2a ff 06 be a2 e8 ce bd
       -0.16370557 -0.16762523 -0.13183275 -0.10102965
000350 5c 74 14 bb 13 d4 f6 3d ef 3c 14 bd 6a e5 15 3e
       -0.0022652363 0.12052169 -0.036190923 0.14638296
000360 ed ff 09 be 56 66 09 be 3c b6 81 bd b7 35 3c 3b
       -0.13476534 -0.13417944 -0.063335866 0.002871854
000370 36 cd 19 be 61 88 93 bd e2 29 ca 3d 41 10 28 3d
       -0.15019688 -0.072037466 0.0987127 0.041031126
000380 e5 e8 9a bd 69 aa ed 3d f3 17 b2 bd 63 0a 05 bd
       -0.07563952 0.11604769 -0.08695974 -0.03248061
000390 05 a5 32 bd 5d 28 f2 3d ec 5c 44 3d 4e d0 67 bc
       -0.043614406 0.11824105 0.04794018 -0.014148785
0003a0 fd 1a 6c bd b3 95 55 bc ff f7 6e 3d 58 96 53 bd
       -0.057642926 -0.013036179 0.058341976 -0.05165705
0003b0 d8 f2 40 3d bb d2 e4 bc 13 92 bc 3d 54 47 89 bc
       0.047106594 -0.027932515 0.09207549 -0.016757645
0003c0 43 b2 d1 3d 42 74 4a 3d 2f 6d 05 3d dd db b3 bd
       0.10239079 0.04942728 0.03257483 -0.0878217
0003d0 0d 3e e9 3d 33 19 00 be f6 bd a8 3c 5d 53 db bd
       0.11388788 -0.12509613 0.020598393 -0.1070926
0003e0 61 c4 72 bd 70 fd 4b 3d ca d8 eb 3d 02 90 15 be
       -0.059269313 0.049802244 0.115159586 -0.14605716
0003f0 d2 1a 41 bd f5 d3 24 be 09 bc 16 3e 10 9b 2a be
       -0.04714472 -0.1609648 0.14720167 -0.16660714

body.0.bias f4 [256]
000000 35 e1 ca bd 23 94 1e be cc e1 51 3b 5d b8 a4 bd
       -0.09906236 -0.15486197 0.0032025455 -0.08042977
000010 d2 d3 15 3e 88 4f 24 3e a0 16 0b 3d cb 4f 0a be
       0.14631584 0.16045964 0.033957124 -0.13507001
000020 05 8e 9b bc 73 bb 03 be 1c e9 b4 3d bc a0 c6 3d
       -0.018988619 -0.12864475 0.088335246 0.096986264
000030 21 bc aa 3d d7 d8 13 3e 7f d8 a6 bb 1c 47 e1 3c
       0.08336664 0.14438187 -0.0050917263 0.027499728
000040 b0 e4 0d 3d 57 e4 4a bd 04 ba 13 3e b7 b0 22 3d
       0.03464192 -0.049534168 0.14426428 0.03971931
000050 ec a9 0f be 25 00 da bd e7 92 88 3c 2a f3 07 3b
       -0.14029664 -0.10644559 0.016671611 0.0020744302
000060 36 c7 ef 3d 25 0c 5f 3d 7d c8 64 bd 40 85 d3 3c
       0.11707918 0.05445494 -0.055855263 0.025820374
000070 94 0c aa 3d ee 7f db bc a1 f2 f9 bd 16 90 f9 3c
       0.0830318 -0.0267944 -0.12204481 0.030464213
000080 67 d8 0d 3e f5 38 8c bd 99 cf 9f 3d 06 21 e8 3c
       0.13852082 -0.06846801 0.07803268 0.02833606
000090 17 14 e3 3d 40 b7 e9 bd 71 67 45 3d b8 7d 5e 3c
       0.11087816 -0.11411905 0.048194353 0.013579778
0000a0 de 58 98 bd 79 30 a2 bd 05 5a 93 3d b9 2b 57 bd
       -0.07438825 -0.07919402 0.07194904 -0.05253193
0000b0 00 9d 09 3e bd dd 29 bd d9 24 1f bd fd 8d d7 bd
       0.13438797 -0.04147123 -0.0388535 -0.10525129
0000c0 e2 3f f4 3d 88 3a e2 bd d0 8d 09 3d ca c3 46 bd
       0.11926247 -0.1104632 0.03358251 -0.048526563
0000d0 b3 41 c7 3c 28 28 2e be d8 b5 12 be 49 00 19 3d
       0.02432332 -0.17007506 -0.1432718 0.037353788
0000e0 7a c9 10 bd 19 66 82 bd a7 13 00 bc 70 63 2d 3e
       -0.035348393 -0.0636713 -0.0078171855 0.16932464
0000f0 dd b5 fa 3d 53 38 32 3e 13 5e 6a bd 74 e3 41 bd
       0.12241719 0.17404298 -0.057218622 -0.047336057
000100 e5 38 02 be 7b 4c e8 3a 22 c8 fa 3d 0e 72 fe bd
       -0.12717016 0.0017722988 0.122452036 -0.12424098
000110 fd 7a 60 bd b3 79 b9 bd 7d 2f 13 3e 10 6e 16 bc
       -0.05480479 -0.090564154 0.14373584 -0.009181514
000120 33 7c 80 bd a0 bf 86 bd 21 bf 00 bd 37 c0 c9 bd
       -0.06273689 -0.06579518 -0.031432275 -0.09851115
000130 3b a8 09 be 44 98 eb 3d 98 d9 06 3e 2d eb ec 3d
       -0.13443081 0.11503652 0.13168943 0.11568294
000140 c6 a9 9d 3d 5c 38 1d 3e c9 3b 8e bd 57 a2 25 3e
       0.07698397 0.1535353 -0.06944997 0.16175209
000150 af c7 e1 bd 6a 6a 90 3c e9 be 1a be 02 3f fc 3d
       -0.11024415 0.017628867 -0.15111889 0.12316705
000160 bd 29 2a 3d 23 f3 b5 3d c8 08 19 3e fd 6f 49 3d
       0.04154371 0.08884265 0.14944756 0.049179066
000170 aa 52 db bd 70 54 0c bd f6 e6 12 be e4 71 5c 3d
       -0.10709126 -0.034260213 -0.14345917 0.053819552
000180 88 bb f0 bd 59 2c 2f 3e ed 99 b7 bd 9e ae 13 3e
       -0.11754519 0.17106761 -0.08964906 0.1442208
000190 2c 49 2d 3e f1 26 6c 3d f6 94 e1 bd 94 d8 03 be
       0.16922444 0.057654325 -0.1101474 -0.12875587
0001a0 09 c3 c6 3d a3 88 99 3b 2d 1c b1 bb f6 74 77 3d
       0.09705169 0.004685478 -0.00540497 0.060414277
0001b0 a6 33 d1 bc e7 e2 ee 3d 50 cc 15 bd 53 85 5e 3d
       -0.025537323 0.11664372 -0.0365718 0.054326367
0001c0 4b ed ae 3d 8c c4 ca bd a8 ba d1 3d be 74 36 bd
       0.08541354 -0.099007696 0.1024068 -0.044544928
0001d0 71 c1 dd bd ca 27 ae bd 39 05 20 3d c5 a4 cd 3d
       -0.10827912 -0.08503683 0.03906748 0.10041193
0001e0 47 ea cf bd 01 66 0a 3d 31 dc e3 3d e1 80 c4 3d
       -0.10152107 0.033788685 0.111259826 0.09594894
0001f0 ed e1 07 3e b8 fb 78 3d 21 36 fb 3c bc 8d 0a 3e
       0.13269778 0.060786933 0.03066546 0.1353063
000200 86 3a d2 bd 92 44 86 3d fa 4a 15 be 14 d4 0d be
       -0.10265069 0.065560475 -0.14579383 -0.13850433
000210 9f 5f 12 be 25 06 bd bc 05 55 95 3d b4 18 fb bd
       -0.14294289 -0.023074219 0.07291607 -0.12260571
000220 23 d1 a6 bd 6a 3c e2 bb fd 31 38 3e 28 1f 73 3d
       -0.081453584 -0.0069041746 0.17987819 0.059355885
000230 af 93 8f bd c1 ae 9e 3d cb 2d 9e bb c8 07 0d 3e
       -0.0701059 0.077481754 -0.0048272363 0.137725
000240 65 b5 24 be 5f 7f dd 3d f8 f4 22 3d e0 a9 c0 3d
       -0.16084822 0.1081531 0.0397844 0.09407401
000250 13 63 00 3e 61 4f c2 bc 48 27 30 3c 62 47 87 3a
       0.12537794 -0.023719491 0.010751553 0.0010320956
000260 8f 9e 90 3d d3 ad 52 bd 19 4f c8 3d fb 06 db 3d
       0.07061493 -0.051435303 0.09780712 0.10694691
000270 0a bd 59 3c c9 86 0d be f7 f1 4f bd 8e cc 0b 3d
       0.013289699 -0.13820948 -0.050767865 0.034130625
000280 dc f1 d3 3d 08 86 15 be e7 fe b9 3b 9b ad ed 3d
       0.103488654 -0.1460191 0.0056761387 0.11605378
000290 25 67 0a bd ed e7 8b 3d 85 92 02 3d 2c c9 97 3d
       -0.033789773 0.06831346 0.031878013 0.07411417
0002a0 ed e6 56 bd d8 86 1c 3e a5 ed 3c bd a6 db 25 3b
       -0.05246632 0.15285814 -0.046125073 0.0025307923
0002b0 66 9b b3 bd ef 44 e2 bd a9 e1 c4 bd 6c b2 c2 bd
       -0.08769874 -0.11048304 -0.09613354 -0.095066875
0002c0 d3 6f 0a be 01 de b7 bd 91 91 fe 3d eb d4 bf bb
       -0.1351922 -0.08977891 0.12430108 -0.005854239
0002d0 f8 1b 98 bd e0 e0 34 3d d6 cd 21 3c 43 ba 2a 3e
       -0.074272096 0.04415977 0.009875735 0.16672616
0002e0 26 bb 30 be fc db 03 3d 1b 17 f7 bd 16 7c 90 bd
       -0.17258891 0.032192215 -0.12064954 -0.070549175
0002f0 25 9b dd 3d b3 6f e5 3d 85 27 c0 3d dc 71 c7 bd
       0.10820607 0.112029456 0.09382538 -0.09738514
000300 fd af 32 3e bf d5 ea 3a a0 cc 44 bd e2 f5 90 bd
       0.17449947 0.0017916485 -0.048046708 -0.070781484
000310 e5 d6 27 3e b9 ad 51 3d 5c 48 fe 3d d6 f0 08 be
       0.1639057 0.051191065 0.12416145 -0.13373122
000320 40 29 1c 3e e1 da cf bd e1 5c 05 be b5 e5 28 bd
       0.1525011 -0.1014917 -0.13023712 -0.04123469
000330 87 31 ce 3c 81 bd b0 3d 76 60 27 3d fd f1 9c 3d
       0.0251701 0.08629895 0.040863477 0.07663343
000340 be b7 9a 3a 30 ab 3c 3c b1 8b fa bd 57 8d 02 be
       0.0011804027 0.011515424 -0.12233675 -0.1274923
000350 d4 11 bd bc 16 11 8c bd ef f1 af 3c e9 79 b9 bd
       -0.02307979 -0.068391964 0.021477668 -0.09056456
000360 22 67 0e be 08 a1 59 3d 0c cb 91 3d 1d 04 04 bc
       -0.1390653 0.053132087 0.07118806 -0.008057621
000370 69 33 09 be b2 c7 21 be 25 99 eb 3c 05 36 23 be
       -0.13398518 -0.15798834 0.028759548 -0.15938576
000380 e9 32 72 3d bb 87 be 3d 8c f0 8f 3d d0 e8 23 3d
       0.059130583 0.09303232 0.070283026 0.04001695
000390 3a 35 ca 3d 37 31 f8 bd 04 1c 12 3e fe 7d 39 3b
       0.098734334 -0.12118762 0.142685 0.0028303857
0003a0 7c 67 fe bc 07 d8 b9 3d c9 94 e8 3d df c3 ae 3d
       -0.031055205 0.09074407 0.113565035 0.08533453
0003b0 f0 35 e8 3c d0 f4 a3 3d f5 e8 fc bd 7c b8 ce bb
       0.028346032 0.08005679 -0.123491205 -0.0063086133
0003c0 15 6a ad bc fb 5f a3 bd 74 69 91 bd f8 4a 01 bd
       -0.021168748 -0.07977291 -0.07100192 -0.031565636
0003d0 63 24 a4 3d dc c4 99 bd 72 d6 96 3d e4 87 7c 3b
       0.08014753 -0.07508251 0.07365121 0.0038533146
0003e0 d6 db 08 be d5 26 e9 3d 45 b8 02 be ce c9 13 be
       -0.13365111 0.1138436 -0.12765606 -0.14432451
0003f0 92 f5 17 be 29 e3 0b 3e c4 62 c9 3d 2f 43 60 bd
       -0.14839771 0.13660873 0.09833291 -0.05475157

body.2.weight f4 [256, 256]
000000 0c 36 31 3d 9e 50 ff ba 56 13 56 3d e5 35 2b bc
       0.043264434 -0.0019478982 0.052264534 -0.010449861
000010 57 9d 47 bd d7 0e de 3c 06 6f 39 bd a3 b7 6a 3d
       -0.048734035 0.027106686 -0.045271896 0.057304036
000020 b5 db 65 3d 89 d1 a0 3c 7f 17 b2 bc 9b 82 04 3c
       0.056117732 0.019631164 -0.02173972 0.008087779
000030 b1 67 20 bd 20 ac 2d 3d 85 0e e6 3c 6c 8d f6 3c
       -0.039161388 0.04240048 0.028083095 0.030096732
000040 92 aa cf 3c 7f 4f b6 3c 40 0d 2d 3d d0 47 29 bd
       0.025349889 0.022254704 0.042248964 -0.04132825
000050 75 d0 96 3c 9b 73 38 3d 23 ab f5 bc 12 d8 de 3c
       0.018409947 0.045032125 -0.02998883 0.02720264
000060 d9 f4 cf 3c 3a b7 f9 bc e0 a3 41 bc 43 c9 68 3b
       0.025385307 -0.030482877 -0.011818856 0.0035520352
000070 3d a8 6b 3d 6c b3 43 3d f0 20 61 bc 77 70 56 bc
       0.05753349 0.047778532 -0.013740763 -0.013088337
000080 02 f9 78 3d eb be df 3c b3 51 9c 3c 7e 1a a9 bc
       0.060784347 0.027312716 0.019081926 -0.020642515
000090 b0 3f ad 3c fd fa cf bb dd a5 37 bd 08 96 b1 3b
       0.021148533 -0.006347059 -0.044835914 0.0054194964
0000a0 d3 42 55 3d e2 5d 59 3d be 57 50 3d 6e 8c d3 3b
       0.05206568 0.05306805 0.050864927 0.0064559495
0000b0 5c d3 3f 3d 4a ab 01 3c 58 af 0e bd 27 a6 75 3d
       0.046832427 0.007914374 -0.03483519 0.05997291
0000c0 a2 89 07 bd be 3f 5c bd 5f ae b3 bb 4d be 95 3d
       -0.03309024 -0.053771727 -0.005483433 0.073116876
0000d0 6f 70 6d 3d 05 63 0f 3d 7e 65 60 3d f4 33 38 bd
       0.057968553 0.03500654 0.05478429 -0.04497142
0000e0 90 d0 69 bd 1f 63 4c bc b8 07 61 3d 4f f2 39 3d
       -0.057083666 -0.012474804 0.054939 0.0453971
0000f0 14 ad 0c bd 99 7e 27 bd d3 cc 8f 3c cf ae 65 bc
       -0.034344748 -0.040892217 0.017553722 -0.014018728
000100 c1 a5 1d bc 5d 55 19 bc ab 25 53 bd 6a ec 06 bd
       -0.009622038 -0.009358731 -0.051549595 -0.032940306
000110 13 86 2a bd ef 64 c2 3c 93 a0 1b 3d 1c a0 63 bd
       -0.04163177 0.02372977 0.037994932 -0.055572614
000120 5d 33 3d 3d 93 5b 1a bd 40 27 19 bd ae d0 a7 bc
       0.046191562 -0.03768499 -0.037390947 -0.020485248
000130 cc 7d 65 3d 0e 52 15 bd d1 c6 28 bd 04 86 6a 3d
       0.056028172 -0.036455207 -0.04120523 0.057256714
000140 5c ca 3f bd 0c 2f 3a 39 09 f1 87 3c 17 4b 42 bd
       -0.046823844 0.00017755869 0.016594427 -0.047434893
000150 86 56 b7 bc 6d df 0f 3d 72 15 4d bd 54 fc 53 3b
       -0.022380125 0.035125185 -0.05006928 0.0032346444
000160 5f 87 05 3d d9 e5 bb bc 12 d8 9c 3c 96 dd 62 bc
       0.032599803 -0.022936748 0.019146 -0.0138467755
000170 8b d1 41 bd 1c 1d 31 3d cf f1 70 3d 12 cb 02 3d
       -0.047318976 0.04324065 0.058824357 0.031931944
000180 3c c5 3f 3d 07 ad 17 3d f8 86 d1 bb 0a 40 04 bd
       0.046818957 0.037030246 -0.0063942634 -0.032287635
000190 b6 c9 6c 3d 23 28 26 3d 3f c7 85 bd d8 08 45 3c
       0.057809554 0.04056562 -0.06532144 0.012026034
0001a0 8b 18 07 3d 06 f8 13 bd cf 9f e4 3c ff 86 2d bd
       0.03298239 -0.036125205 0.027908234 -0.04236507
0001b0 4e a3 73 3d d8 c1 19 3c 61 75 4d bb 54 9c 01 bd
       0.05948191 0.009384595 -0.003135048 -0.031643227
0001c0 d0 74 01 bd 0f 4c af bc ac a1 fb bc 8b 56 a1 3c
       -0.03160554 -0.021398572 -0.03071674 0.019694587
0001d0 bf 62 43 bd 6f e5 8e bc c9 8b 88 bb 50 6d ff bc
       -0.047701593 -0.017443387 -0.0041670543 -0.031180054
0001e0 2b 09 27 bd 6b 70 0e 3c ce d4 d4 3b 11 18 cf 3b
       -0.040780228 0.008693795 0.006495095 0.0063200076
0001f0 cc fd b0 3c 5c f0 4f bd fa c5 84 3d 08 24 6e 3d
       0.021605395 -0.050766334 0.064830735 0.05813983
000200 0f df 29 3d 95 a8 b7 bb 84 a2 e9 bc fb 2e 6b 3c
       0.04147249 -0.0056048133 -0.028519876 0.014354463
000210 a8 33 8a bb 9e ac a0 bc a7 d3 60 3d 2c 2c be 3c
       -0.0042175837 -0.01961356 0.054889347 0.023214422
000220 8a c1 e5 3c 5c 95 39 3b 6e 25 0b bd 8c ea 14 3c
       0.028046388 0.0028317785 -0.033971243 0.009089123
000230 9b 9c 3e bc e7 0f 12 bd 19 43 05 3d 46 e6 e0 3c
       -0.011634017 -0.035659697 0.032534692 0.027453553
000240 66 6b 5a 3d d0 16 3f 3d fa cc 8b 3c 13 76 85 3d
       0.05332508 0.046652615 0.017065514 0.065166615
000250 a9 a8 3d bc 94 c3 dc 3c 9c 8e d1 bc 47 d6 f0 bc
       -0.011575856 0.026948728 -0.025580697 -0.02939905
000260 55 da 76 bd 2b a9 1a 3d 03 3b 1b bd 0a 53 26 3d
       -0.06026681 0.037758987 -0.037898075 0.040606536
000270 0e 8e ac bc c8 2f 5d bc 6b 29 91 3d 6d aa db bc
       -0.02106383 -0.0135001615 0.07087978 -0.026814664
000280 54 a5 ed 3c d3 65 57 bd ec 4f f1 3c f8 81 67 3d
       0.029009499 -0.05258734 0.029457055 0.056520432
000290 e8 9c 37 bd 66 f1 0f 3d 53 37 e5 bc d4 46 fc bb
       -0.04482737 0.035142325 -0.027980482 -0.007698873
0002a0 35 32 e2 bc 68 cd 40 bd b9 9b 9c 3d f1 4b 26 bd
       -0.027611831 -0.04707089 0.07646889 -0.040599767
0002b0 35 4c a5 bc 0b 59 2d bd 8b a4 75 3c 39 e2 0b 3d
       -0.02017794 -0.042321246 0.014992843 0.03415129
0002c0 82 58 c1 ba 17 99 96 3c 57 e1 5d bd 70 4d 77 bd
       -0.0014751109 0.018383546 -0.05416998 -0.060376585
0002d0 94 d5 4e 3c 5f 2a 30 3d 64 48 f7 3c 55 70 37 3d
       0.012624163 0.04300916 0.030185886 0.044784863
0002e0 cd ea 14 3d 77 4d 7c bc 69 2d 9d ba 04 6d f6 bc
       0.036356736 -0.015399328 -0.0011991683 -0.03008128
0002f0 14 73 96 3d 0d 8a 09 bc 75 8f 3f bc 07 60 41 3d
       0.07346168 -0.00839473 -0.011691918 0.04721072
000300 58 98 26 bd a3 80 84 3d 22 c3 31 bd b4 e5 25 bd
       -0.04067263 0.06469848 -0.043398984 -0.040502265
000310 08 71 e0 bb ea 92 19 bd 21 5e 20 bc 63 2e bb 3c
       -0.006849412 -0.037493624 -0.009788067 0.022849267
000320 d3 73 14 3d 7d a3 67 bc 3b 2d 52 3c 36 d5 45 3d
       0.03624327 -0.0141381 0.012828167 0.048299037
000330 98 c7 f7 bb 0e dd 10 bd c1 cf 5d bc ca da c3 bc
       -0.007561635 -0.035367064 -0.013538302 -0.023908038
000340 06 41 35 bd 5d b4 c6 3c aa ae 31 bc 4c 15 01 bd
       -0.044251464 0.024255926 -0.010844866 -0.03151445
000350 7c 36 88 3d 71 0b 06 3d d8 2c 3e bc 8e aa 1d bd
       0.06651017 0.032725755 -0.011607371 -0.03849273
000360 87 36 e4 3a db e5 29 bd 79 89 95 3d c2 b8 e6 3c
       0.001741127 -0.041478973 0.073016115 0.028164271
000370 1c ca 37 bd 4e dd 92 3b 35 7f 98 bc c4 ad 33 3d
       -0.04487048 0.004481948 -0.018615345 0.043866888
000380 f2 93 3c bd 6c 4e 8a bb 43 d2 3c 3c 45 5b 38 3b
       -0.04603953 -0.0042207744 0.01152474 0.0028130573
000390 11 f2 51 3d e8 ff 74 bb cc bf 22 3b 45 33 46 3d
       0.051256243 -0.0037383977 0.0024833558 0.04838874
0003a0 1c 31 88 3d 61 28 54 bc 24 2f 29 bd d1 16 71 3d
       0.06649992 -0.01294908 -0.041304722 0.05885965
0003b0 e6 f6 af bc 4e ce bd 3c 59 19 b3 3c d0 15 0a 3d
       -0.021480035 0.023169663 0.021862673 0.03371221
0003c0 6d 70 04 bd 50 c8 d5 bb cb ec cb 3c aa fd af bc
       -0.03233378 -0.0065241233 0.024893185 -0.021483261
0003d0 3d da 63 3d d1 3e 02 3d 59 04 a2 3c f1 c0 51 3c
       0.05562805 0.031798188 0.019777464 0.0128023485
0003e0 2d ab 15 3d 10 ba 0e bd c7 83 13 3d af a6 2f 3d
       0.0365402 -0.03484541 0.036014345 0.04288357
0003f0 11 a7 72 bc 3f 6c 24 3d 9c aa 72 3d 14 95 dd bc
       -0.01481034 0.040142294 0.059244737 -0.027048625

body.2.bias f4 [256]
000000 d6 bd 29 bc 8f 1e 62 bd e8 a6 d9 3c e2 df a0 3a
       -0.010360202 -0.055204924 0.026568845 0.0012273754
000010 cf 98 3d 3d 2e 5d 1b bd 73 6c 04 bd 73 b8 c5 3b
       0.046288308 -0.03793066 -0.032329988 0.006033951
000020 0c 5a 1d 3d 61 d7 61 bd e9 f4 a5 bc 67 f1 07 3d
       0.038415954 -0.055137042 -0.020258384 0.033189204
000030 6a 97 a1 3b 92 57 72 3c ed 06 80 bc 88 88 8d bc
       0.00493138 0.014791386 -0.015628302 -0.017277017
000040 9e 22 ed 38 88 26 86 3d 52 04 ee bc 47 51 91 b9
       0.000113074886 0.06550318 -0.029054794 -0.00027717112
000050 37 bd 3e bd 43 9e 75 bc 18 d9 d6 bc 0b ed 7a 3d
       -0.046567168 -0.014991346 -0.026226565 0.061261218
000060 d6 90 f3 3c a6 fd 06 bd 8f fe 4e 3d 20 e1 ef bc
       0.02973215 -0.03295674 0.050535735 -0.029282153
000070 39 53 00 3c f8 e8 5b 3d 65 a8 76 3d 9b b8 1b bc
       0.007832342 0.053688973 0.060219187 -0.009504463
000080 5c eb 09 bd 98 0e 66 3b 92 03 ec 3b 61 c0 3f 3d
       -0.03367172 0.0035103913 0.007202574 0.046814326
000090 87 7d 26 3d d9 05 3c ba 2d b1 43 bd 91 34 12 bc
       0.040647056 -0.0007172502 -0.04777639 -0.008923666
0000a0 bc 5d 40 bd 91 b2 bc 3b 80 c7 b3 bb 6b e6 13 3c
       -0.046964392 0.0057585915 -0.0054864287 0.009027104
0000b0 b6 c4 d2 bb 96 88 5f bc 1f d4 81 bd 1a 62 2c bd
       -0.006432141 -0.0136434045 -0.06339287 -0.042085744
0000c0 4b 59 3c bd f0 7d 15 3d df 69 12 bc e7 02 62 bd
       -0.045983594 0.036497056 -0.008936374 -0.05517855
0000d0 6d ce 12 bc 4b ab 30 3d b2 2e c3 3c f3 19 5f bc
       -0.008960349 0.043132108 0.023825977 -0.013617027
0000e0 0d a7 39 3d 8b 29 02 bd 64 0b 26 bd c5 6a 28 bd
       0.045325328 -0.0317779 -0.040538207 -0.04111745
0000f0 03 19 28 3b 04 6f 86 3d 31 f7 c0 3b 15 bc d1 3c
       0.0025649674 0.06564143 0.0058888425 0.02560238
000100 9d ee 38 3d 4e 04 6b bd 14 9b 76 3b 85 0b 46 bd
       0.045149434 -0.057377152 0.0037629055 -0.04835083
000110 22 40 a0 3c ae a5 8b 3b a7 06 6b 3d 75 68 08 bd
       0.01956183 0.004261694 0.05737939 -0.033302743
000120 9d 83 b6 bb ff df ff 3c 19 cf fe bc 3b bc 73 3b
       -0.0055698887 0.03123474 -0.031104611 0.0037191052
000130 f2 a2 d2 bc fd 4d 09 3d 2f 8e 18 bb 57 de 96 bc
       -0.025712464 0.03352164 -0.0023278107 -0.018416567
000140 3c af 23 bc 65 af 67 3d a4 d6 00 bd 41 2e d0 bb
       -0.00999051 0.056563754 -0.031454697 -0.00635317
000150 0b bc 0f bd 30 b4 81 3c 89 f9 52 3b 6e 2c 3a 3d
       -0.03509144 0.01583299 0.0032192192 0.045452528
000160 b9 fc 6c 3c 2f ce 67 3c 4f be 5c 3d 57 20 80 3c
       0.014464551 0.014148279 0.05389243 0.01564042
000170 d5 0c 1f 3d e1 e2 3f bd 32 a4 5e 3d 1f f6 88 3d
       0.038830597 -0.046847228 0.054355808 0.06687569
000180 bf f2 6f 3d 47 a1 ca bb e5 21 21 3c 77 3e 1f bd
       0.05858111 -0.0061837765 0.009834741 -0.03887793
000190 36 59 1c 3d 8e 14 6e 3a f4 4a 14 bb 4c 0f a5 3b
       0.038171016 0.00090820424 -0.0022627683 0.005037224
0001a0 87 98 42 3d 40 53 fa 3c 9f 0f 1c 3c c5 80 1f bd
       0.047508743 0.030557275 0.009525209 -0.038941164
0001b0 0e 43 03 bd b8 08 90 3c e2 01 c2 3b 71 36 f2 3c
       -0.03204637 0.017582282 0.0059206346 0.029566975
0001c0 a0 33 f3 3c 90 58 2e 3d 33 27 0f bd f6 9c 49 bd
       0.029687703 0.04256493 -0.034949493 -0.049221955
0001d0 11 de 1f 3d e6 63 2c 3d 8d 16 6c bd 95 5f 76 bd
       0.03903014 0.042087458 -0.057638694 -0.060149748
0001e0 93 94 b9 bc 25 14 46 bd ca 30 6e 3d ee 83 01 3d
       -0.022653854 -0.048359055 0.058151998 0.03161996
0001f0 1d 04 3f 3c b1 fe 5b bd 5e 27 4b bc a8 4c bb 3c
       0.0116586955 -0.05370969 -0.012399523 0.022863701
000200 80 e3 e7 bc 9a b4 73 3d 50 5d d6 bc aa 02 3c bc
       -0.028306723 0.059498407 -0.026167542 -0.011475245
000210 fe fd 8f 3c ee 13 32 bd c4 9a b9 3c c3 2c 13 bd
       0.017577168 -0.043476038 0.022656806 -0.03593136
000220 e0 b9 60 bd 3e 03 f4 bc df d7 c0 3c 21 5b 58 bc
       -0.054864764 -0.029786702 0.023540435 -0.013205321
000230 26 e2 d6 b9 f0 ac 81 3d d2 58 c1 3c e0 2a 68 bd
       -0.00040985754 0.06331813 0.023601923 -0.056681514
000240 d7 cb 14 3c 06 a0 76 3d 52 c8 1f bd 3d b3 2c 3d
       0.009081802 0.060211204 -0.0390094 0.042163122
000250 dd 60 0a 3d 9d 2c 55 bd 5a 6b 3a 3d 35 52 0d bd
       0.033783782 -0.0520445 0.045512535 -0.034502227
000260 99 6e 83 b9 b2 b6 86 3b 59 cc 31 bd f8 af af 3b
       -0.0002506867 0.0041111344 -0.04340777 0.0053615533
000270 5e 10 3f 3d 74 b6 2c 3d b5 60 30 bd 44 3d 80 3d
       0.04664647 0.04216619 -0.043060977 0.062616855
000280 e4 84 62 bd 37 b0 9a 3c 07 98 eb 3c ec bc 94 39
       -0.055302516 0.018882854 0.028759016 0.00028369518
000290 a0 fc 46 3d 3c 3c 3f bb c3 25 e9 3c 62 b6 31 3d
       0.048580766 -0.002918019 0.028460389 0.043386824
0002a0 0c a6 38 bd fb 1a 0e 3d c9 cd 26 3d 1b f7 4a 3d
       -0.04508023 0.0346937 0.040723596 0.049552064
0002b0 57 50 b2 3c 40 8e 6c 3d 68 df 7e 3d 0a cd 98 bc
       0.021766825 0.057752848 0.062224776 -0.018652458
0002c0 ff 56 04 3d 51 a6 dd 3b 2d a0 7b bb 81 78 e7 bb
       0.03230953 0.006764211 -0.0038395033 -0.0070639257
0002d0 5b b9 24 bc 57 a1 e4 3c cf aa 47 bd c8 53 e6 bc
       -0.010053958 0.027908964 -0.04874688 -0.028116122
0002e0 37 5b 85 3d 79 b5 51 bd 7c 01 b5 bc 5f 27 3f bd
       0.065115385 -0.051198456 -0.022095434 -0.046668407
0002f0 a3 ef 68 3d 0c 56 7c bd ea 0f 81 bd 8e be b8 bb
       0.05686916 -0.0616055 -0.063018635 -0.0056379503
000300 35 53 55 3c 20 cb c7 3c b7 8a a8 3c d7 5d f2 bb
       0.013020326 0.02438885 0.020573957 -0.0073964405
000310 82 db 87 bc 99 01 88 bb 7c bb 3d 3d 71 b9 13 bd
       -0.016584162 -0.004150581 0.046321377 -0.036065523
000320 16 5e 2d 3c be d8 8f 3c 19 d0 9f bb b5 b3 d8 3c
       0.010581514 0.017559405 -0.004877102 0.026452878
000330 70 75 f6 3b 4d 30 2b bd d1 79 09 3c bd 69 86 ba
       0.007521324 -0.04179411 0.00839086 -0.0010254901
000340 cd d5 9d bc 8b 95 10 bd 8d d1 75 3d b1 1e 02 3c
       -0.019266987 -0.035298865 0.060014296 0.007941888
000350 5e 01 65 3d 1e 81 c8 3c 19 34 18 bc 68 3b 12 3d
       0.055909507 0.02447563 -0.009289765 0.035701185
000360 c7 14 cc bc 3f 8b 72 bc 52 1f 30 bd 2a 9b c5 bc
       -0.024912251 -0.014803707 -0.04299862 -0.02412184
000370 18 83 45 3d 61 d7 5e 3d 77 a7 0b 3d 0e dc 96 3c
       0.048220724 0.05440462 0.034095254 0.018415477
000380 84 13 3e bd 19 fc 80 3d 53 9d 56 bd f5 86 2d 3d
       -0.04640533 0.06298084 -0.05239613 0.042365033
000390 39 17 d8 3c f6 b8 31 bd 09 3b f2 3a 0f af 00 3d
       0.02637826 -0.043389283 0.0018480729 0.03141695
0003a0 80 eb 43 bd 5b 1a 37 3d e6 10 4d 3c f3 7d 03 3d
       -0.047832012 0.04470287 0.012516236 0.032102536
0003b0 d0 7e cd bc 32 b2 4e 3d 46 e6 24 3d 33 0b 3c bd
       -0.025084883 0.05046291 0.04025867 -0.045909118
0003c0 f4 3c 99 3c 41 04 d5 bc 83 df 22 bd f9 85 e0 bc
       0.018705823 -0.026003005 -0.03976394 -0.027407633
0003d0 7b 04 db bc 59 50 55 3c 52 9d 25 bd cb d3 60 3d
       -0.026735535 0.013019645 -0.040433235 0.05488948
0003e0 20 dc dd bc 23 af 65 bd cd 79 6d bd 28 14 45 3d
       -0.027082503 -0.056075227 -0.057977486 0.048114926
0003f0 3c 70 8c 3c a3 94 15 bd 96 02 4d 3d 46 69 06 bc
       0.017143361 -0.036518704 0.050051294 -0.00820381

body.4.weight f4 [128, 256]
000000 ab 69 9e 3d dc e5 63 bb fb 8c 03 bd 81 b1 31 3d
       0.07734998 -0.0034774458 -0.03211687 0.04338217
000010 d7 b7 96 3d af 1f 39 3d ab 95 24 bd d0 ed 0a 3d
       0.073592834 0.04519623 -0.040181797 0.033918202
000020 d2 7b 01 3d 85 f4 f5 bc 0c 42 25 bd 8a ed eb 3c
       0.031612225 -0.030023823 -0.04034619 0.02879979
000030 86 a7 2a 3d 56 5f 4b 3d 78 92 2b bd 63 55 17 bd
       0.04166367 0.049651466 -0.04188773 -0.036946665
000040 80 94 44 bc 56 dc 27 bd e6 6d ff 3b 02 87 23 3d
       -0.011998296 -0.040981613 0.0077950833 0.039923675
000050 5f c0 8b 3d 07 32 51 3d db af 7e bd 3c c2 62 bd
       0.06823801 0.0510731 -0.062179428 -0.055361018
000060 27 ab 02 3d 36 d6 d7 3c b9 2a 84 3d 77 ae 01 bd
       0.031901505 0.02634726 0.06453461 -0.031660523
000070 a1 1d 30 3d ea 7a ec 3c 5e 0e f5 3c 45 c7 7f bd
       0.042997006 0.028867204 0.029914077 -0.062445898
000080 0c 43 b4 bc 63 8b 84 bb f1 cf 24 3d 53 50 66 bc
       -0.022004627 -0.0040449365 0.04023737 -0.014057237
000090 6f de 54 bc ad 40 51 bc 24 c1 b6 bc 96 c4 5d bd
       -0.012992485 -0.012771768 -0.022308894 -0.054142557
0000a0 4b 2d 0a bd b2 b8 90 3b 97 20 c4 bc 24 6f 66 3d
       -0.0337346 0.0044165486 -0.023941321 0.056258336
0000b0 e1 a2 9a 3d ca 19 14 bd 73 a2 0b 3d 8e 61 8d bc
       0.07550598 -0.036157407 0.03409047 -0.017258432
0000c0 a2 1a a4 bc 24 94 50 3d 46 56 8b bc 18 0e 53 bc
       -0.02003223 0.050922528 -0.017008912 -0.012881778
0000d0 4a 42 e9 3b f2 1f 0a bc 25 99 63 3d 19 b8 be 3b
       0.007118498 -0.008430468 0.055565972 0.005820286
0000e0 cf 82 6a 3c 75 c2 2b bd 7e 92 78 3d c1 e1 f7 bc
       0.014313414 -0.041933496 0.06068658 -0.030259015
0000f0 7a b5 ae bc 39 e7 93 3d f5 2a 03 bd 9b a4 3a 3d
       -0.02132677 0.072218366 -0.03202339 0.045567136
000100 aa d3 b0 3c de 25 54 3d 13 f7 56 bd 9c 94 2a bd
       0.021585304 0.051793925 -0.052481722 -0.04164563
000110 2f 36 ca 3c e8 c4 4c 3d f2 45 4b bd 13 37 41 bd
       0.02468404 0.049992472 -0.049627252 -0.047171663
000120 89 7f 5c 3d b2 35 5c 3d 09 bb 7d 3c ac 77 45 bd
       0.053832565 0.053762145 0.015486487 -0.04820983
000130 ed be 1d 3d d8 37 a3 3c 44 30 9d bc f6 4d 09 bd
       0.03851216 0.01992409 -0.019188054 -0.033521615
000140 66 b8 78 3d 28 d8 2b 3d 26 1e 2d bd 5b 13 e8 3c
       0.06072273 0.04195419 -0.04226508 0.028329542
000150 bb 07 72 bd 20 fb af bb de fd 0b bc 3e 05 ae bc
       -0.059089404 -0.0053705126 -0.008544413 -0.021242734
000160 0e 30 db bc f6 53 c8 bc ae c9 08 bd d7 67 d3 3c
       -0.026756313 -0.024454098 -0.03339546 0.02580635
000170 ef 3d a9 bc 29 32 2d bc 63 64 74 3d bc 66 2d 3d
       -0.020659415 -0.010571041 0.05966605 0.042334303
000180 1e f0 d7 3a e0 09 81 bc 74 8c 48 bd 5f 30 b4 3c
       0.0016474759 -0.01575178 -0.04896207 0.021995721
000190 f9 0d 23 bd a9 2e 7d 3d 49 00 83 3d 0e 23 14 bd
       -0.039808247 0.061812077 0.06396539 -0.036166243
0001a0 d4 ba 92 3d 59 15 db 3c f4 0f 66 bc 0a d6 86 bc
       0.07164541 0.026743578 -0.014041889 -0.016459484
0001b0 79 fa ef bc fc e6 ee bc 09 dc 7e bd a2 db c4 bc
       -0.02929424 -0.029162876 -0.06222156 -0.02403051
0001c0 cf 14 12 3c 36 d7 71 bc 22 f9 62 3d fc 04 ee bc
       0.008916094 -0.014760783 0.055413373 -0.029055111
0001d0 e6 88 71 3a 40 38 38 bc 52 7b 40 3d 4a ae 2f 3d
       0.000921382 -0.01124388 0.046992607 0.042890824
0001e0 e4 99 22 bd 2a 6b 28 3d 76 5f 2a bd e1 9c b3 3c
       -0.039697543 0.041117825 -0.041594945 0.021925392
0001f0 4d e7 8e bc 91 18 76 3d 28 ec 6e 3d 3c 1d 98 bc
       -0.017444277 0.060082022 0.058330685 -0.018568628
000200 e8 4f b1 bc 4f a9 d3 bc 73 fd 08 bd 3d d7 24 bd
       -0.021644548 -0.025837569 -0.033444833 -0.04024433
000210 14 2c 67 bd 0e c1 9d 3d c7 45 48 3d b7 fc 25 3d
       -0.05643852 0.07702838 0.04889467 0.04052421
000220 fc 73 c5 bc a5 6c 84 bd 01 d4 5a 3d d9 61 46 3c
       -0.024103157 -0.06466035 0.05342484 0.01210829
000230 85 de 11 3d d1 e3 6a 3d 7d 75 c3 b8 d2 8d 57 3d
       0.0356126 0.05734617 -9.3202085e-05 0.052625485
000240 92 2c 60 3d 2f b9 5f 3d 27 1c d7 bc c7 22 f8 3c
       0.054730006 0.054619964 -0.026258541 0.03029002
000250 9e 37 7a 3d 1f 44 9a bd 3d 49 5f bd c1 f5 46 3d
       0.061088197 -0.07532524 -0.054513205 0.048574213
000260 50 8b 7b 3d 1d 8d 15 3d 1f f1 5e bd b7 da c6 3c
       0.061412156 0.03651153 -0.05442917 0.024274213
000270 0b 98 e0 3c 4a 66 c7 bc c6 41 25 ba eb 11 4c bd
       0.02741625 -0.024340767 -0.00063040515 -0.049821775
000280 8e e2 34 3d 79 b1 6e bd 97 c6 29 3d 2d cb 20 3d
       0.044161372 -0.05827472 0.041449156 0.039256264
000290 de 2e 9a bc 36 57 c8 bc f7 23 10 bc 69 df 3a 3b
       -0.018821176 -0.024455648 -0.008797637 0.002851451
0002a0 20 01 81 3d 87 a7 12 bd 92 c3 74 bd 85 39 1f bc
       0.06299043 -0.035804298 -0.059756823 -0.009718304
0002b0 35 be 57 3d 21 08 2a 3d 26 e1 37 3d 09 f7 54 bd
       0.05267163 0.04151166 0.044892453 -0.051993404
0002c0 55 94 69 bc b7 90 8a 3b c0 10 0e 3d 70 b2 c0 3c
       -0.0142565565 0.004228677 0.034683943 0.023522586
0002d0 be 46 75 3c 92 61 dd bc 93 75 f3 ba 52 da ca 3c
       0.0149704795 -0.027024064 -0.0018574469 0.024762306
0002e0 a8 a4 46 bc 2c 0c 2c 3d be 92 52 bd e5 de 3d bd
       -0.012124218 0.042003796 -0.051409476 -0.046355147
0002f0 4e 2a e4 3b 87 58 27 3d 6e 9f 11 3d 44 3a 16 bd
       0.006963051 0.04085591 0.035552435 -0.03667666
000300 15 5e 83 3c 41 e2 b7 bc 1a b1 49 3d b8 62 89 bc
       0.016036073 -0.022446753 0.049241163 -0.016770706
000310 38 bc 4a bd 6d ee 16 bd c8 f8 42 bd 0c 8b 83 bd
       -0.049495906 -0.036848474 -0.047600538 -0.064230055
000320 a7 f1 de bc a1 49 89 bb 7e 6c 11 3d bc 55 2b bc
       -0.027214838 -0.0041896855 0.035503857 -0.010457452
000330 05 c6 5c 3d 3b a8 ca 3a b3 c4 48 3c 54 84 60 3c
       0.053899784 0.0015461514 0.012253928 0.0137034245
000340 ed 5a 6a bd ba 14 65 3d e0 f0 0f bd 04 7e 36 bb
       -0.05721562 0.05592797 -0.035141826 -0.0027846107
000350 32 94 a2 3c 4b 45 1f bc 50 4e 16 bd 36 d7 ce bc
       0.019846056 -0.009721111 -0.03669578 -0.025249105
000360 06 42 67 3d e3 74 04 bd 97 4a bb bc 26 0b 2f 3d
       0.05645945 -0.032338034 -0.022862716 0.04273524
000370 02 56 50 3d d7 6c 66 3c e4 ee 65 3d 85 89 28 3d
       0.050863273 0.014064035 0.056136027 0.041146774
000380 fb 86 80 3b 5a 0b 5b 3d 45 bd 07 bd f0 6a d4 3c
       0.003922341 0.053477623 -0.033139486 0.025929898
000390 dc 2a f9 bc e3 40 12 bd 3b 26 67 3d ed 8b 59 3d
       -0.030415945 -0.035706412 0.056432944 0.05311196
0003a0 e1 6f 7f bc c2 9e 6a bb 5c 77 02 3d a5 b7 27 bd
       -0.015590639 -0.0035800193 0.03185211 -0.04094662
0003b0 c0 26 4f 3d a2 f5 68 bd b4 b4 9c bb 0f 8c 58 bd
       0.050574064 -0.05687488 -0.0047822837 -0.052867945
0003c0 e5 a5 6f bd 94 95 17 bd 12 62 22 bc d6 b9 ad 3c
       -0.05850782 -0.037007883 -0.009911077 0.021206778
0003d0 33 fd 37 3c 3b 34 c9 3c d6 bd 6a 3d 50 4a 41 bd
       0.011229801 0.024561038 0.057309948 -0.04719001
0003e0 07 1a 25 bd 66 e1 01 3d dc 37 a6 3c 11 9a 0a bc
       -0.040308025 0.031709097 0.020290308 -0.008459584
0003f0 d3 0d 3c bd f8 cb 28 bc 9f 1c c2 bc 3d 5b 48 ba
       -0.04591162 -0.010302536 -0.023695288 -0.000764299

body.4.bias f4 [128]
000000 d7 d0 5b 3d a5 3d 07 bd 13 36 fd 3c 33 29 3c 3d
       0.053665962 -0.033017773 0.030909574 0.045937728
000010 8d 43 69 3c cb 3c 9e bb c4 01 97 bc e5 94 13 3d
       0.014237297 -0.0048290244 -0.01843346 0.03603067
000020 41 79 25 3d 70 26 47 3d aa 8a ec 3c b8 75 47 bd
       0.04039884 0.04862064 0.028874714 -0.04869625
000030 77 35 48 3d 62 8e 3d 3d 02 76 2c bd 1d f0 98 bc
       0.048879113 0.046278365 -0.04210473 -0.018669182
000040 74 f8 b4 3c 17 c7 3b bd 6e 22 0f bd ee ad 3a 3c
       0.022091128 -0.045844164 -0.034944944 0.011394007
000050 3f eb 21 bd 56 15 22 3d 9c 01 30 bc 8a cf 79 bc
       -0.03953099 0.03957113 -0.010742571 -0.015247235
000060 86 2f f5 bc 8b 23 53 bd 01 7a f0 3c 9c 0e 03 bd
       -0.029929888 -0.05154757 0.029355051 -0.031996354
000070 09 c4 b2 bc 5a 4e 61 bd 99 17 08 3d 7b fb 09 3d
       -0.021821992 -0.055006362 0.03322563 0.033687096
000080 f8 da ed 3c b1 40 71 3d 11 d3 b5 3c 7a 00 c0 bc
       0.029035076 0.058899585 0.02219537 -0.023437727
000090 5f ba a3 bc 23 de f6 bc 9d a7 24 3d be 9a 40 3d
       -0.01998633 -0.03013522 0.04019891 0.047022574
0000a0 1e 39 ed 3c 52 5a 5f 3d 4a e2 64 3d db 62 27 bb
       0.0289579 0.054529496 0.05587987 -0.00255411
0000b0 fb a1 a4 3c a8 f1 7c bc 91 0b d6 bc f0 57 cf 3c
       0.02009677 -0.015438475 -0.026128562 0.025310487
0000c0 f3 c8 54 3c 97 6a a2 3c 81 7c 11 bd 8e 0a 4e 3d
       0.012987363 0.019826217 -0.035519127 0.050303034
0000d0 59 0b 41 bd f2 1c 99 bc 3d 8a 0e 3d 2a 24 6f ba
       -0.047129963 -0.01869056 0.034799803 -0.00091225153
0000e0 77 23 fa 3c f3 fd cf 3c 5c 9c bc 3c ac 11 5b bd
       0.03053449 0.025389647 0.023023777 -0.05348365
0000f0 8b c3 02 bd 06 43 c9 bc eb fd 77 3d e3 fd d8 bc
       -0.031924766 -0.024568092 0.06054489 -0.02648825
000100 22 50 f5 bb 15 60 5d 3d d4 d9 e3 bc ca 78 20 bd
       -0.007486359 0.05404671 -0.02781383 -0.039177693
000110 fe 8a 0d 3d d0 e1 45 3d 8e 79 b8 3c 48 5a 59 3d
       0.03455638 0.048311055 0.0225189 0.053064615
000120 1b 84 39 3d f5 ee 2f 3d 74 f8 31 bc fc 62 4f bc
       0.045292 0.042952497 -0.0108624585 -0.012657877
000130 5f 6f d2 ba b2 31 0f 3d 42 bf 52 bd 97 41 5f bd
       -0.001605492 0.034959503 -0.05145193 -0.05450591
000140 04 96 d1 3c c1 5c 52 bd 16 63 8a 3c f0 2d 94 3c
       0.025584228 -0.05135799 0.016892951 0.018088311
000150 d5 94 46 bd 87 2c 12 3d e6 5d 99 bb ca 03 15 b9
       -0.04848178 0.035686996 -0.004680383 -0.00014211159
000160 4a 87 12 bc 1d 23 87 3b 85 4d 60 bd 1e 87 b7 bb
       -0.008943388 0.004124059 -0.05476143 -0.005600824
000170 60 83 a1 3c a1 d2 bc bc b1 21 54 bc cc 00 f9 3c
       0.019715965 -0.023049654 -0.012947486 0.030395888
000180 b1 dd aa 3c 22 e4 46 bd 71 38 96 3b f8 17 80 bc
       0.020857664 -0.04855741 0.004584365 -0.01563643
000190 fe dd 42 3b cd 53 bc 3c bd f6 9f 3c 01 0c b6 3c
       0.0029734368 0.022989178 0.019526834 0.02222252
0001a0 ad 77 20 bc 9e a7 15 3c e2 70 88 bc 9d 35 6d bd
       -0.009794158 0.009134201 -0.01665539 -0.057912458
0001b0 35 c0 8a bc 20 0b 9b bb 6c 1d 38 3d be 15 72 3d
       -0.016937355 -0.004731551 0.044949934 0.059102766
0001c0 3f f6 9f bb e7 42 2c 3d d3 15 5f 3c c0 1a 77 bd
       -0.0048816497 0.04205599 0.013616043 -0.060328245
0001d0 23 03 40 3c 22 ca aa bc 6d 6c 25 bd b8 4d 87 bd
       0.011719498 -0.020848338 -0.040386606 -0.066066206
0001e0 ba 8b 76 3d 99 06 ce 3b 0e 59 2e bd b6 8f de ba
       0.060191847 0.0062874076 -0.042565398 -0.0016980085
0001f0 03 23 2c bc fc b2 4a 3d 9c 30 ec bc 31 81 3a 3d
       -0.010506394 0.0494871 -0.028831773 0.045533363

move_head.weight f4 [5, 128]
000000 13 b2 63 bd 86 0a 93 3b 25 15 c3 bd 32 b3 c2 bd
       -0.055589747 0.0044873385 -0.095255174 -0.09506835
000010 18 a4 24 bc 95 96 aa 3d 23 70 c0 bc 7d fe 0f 3d
       -0.010048889 0.083295025 -0.023490971 0.03515481
000020 1f bc e4 bc f8 d2 0b bb 9f 34 9e 3d e3 c1 ad 3b
       -0.027921734 -0.0021335464 0.077248804 0.005302654
000030 da 2b 5a 3d 6a 05 ea 3c d4 c8 8c 3d fd 6c a1 bd
       0.053264476 0.028567035 0.068742424 -0.07882116
000040 88 bf 24 3d 5d 60 82 3d 93 2a 8b bd 44 ee 5a 3d
       0.04022172 0.06366036 -0.0679523 0.053449884
000050 4b ef 8d 3a 6e 93 c2 bc f3 1e 78 bc 2a 1a 26 3c
       0.0010828761 -0.02375194 -0.015144098 0.010138074
000060 ec 44 74 3d 45 83 38 bc b9 f1 7f bc ce c0 ab bd
       0.05963604 -0.011261766 -0.015621596 -0.08386384
000070 ea 31 47 3d 2b 79 05 3b f6 82 d7 3b 86 84 33 3d
       0.048631586 0.0020366411 0.006576891 0.043827556
000080 99 fc a2 bd e4 82 f3 bc 84 21 0d 3c f8 63 4f 3c
       -0.079583354 -0.0297255 0.008613948 0.012658112
000090 6d 86 cf bc b1 f8 5b 3d 68 ac 2d 3d 12 d0 8d bd
       -0.025332654 0.053703967 0.042400748 -0.06924452
0000a0 cd c8 91 bd 85 c1 92 bd da ef 15 bd bd c3 ca bc
       -0.07118378 -0.07165817 -0.036605693 -0.024751538
0000b0 fc a0 8b bd 7a da 45 b9 16 f5 3f 3d 22 12 90 3d
       -0.06817815 -0.00018868773 0.04686459 0.070347086
0000c0 05 aa 9f bd 75 c5 d2 3c 9f d5 a3 bc 03 a6 84 3d
       -0.077961005 0.02572892 -0.019999323 0.06476977
0000d0 e3 74 7f 3d 42 e1 b8 bd 91 cd 61 bd 0c 7a 02 bd
       0.06236733 -0.090273395 -0.055127684 -0.031854674
0000e0 91 c0 84 bb 90 7a 07 bd 1c 6d 90 bb b7 33 a9 bc
       -0.004051276 -0.03307587 -0.004407538 -0.020654542
0000f0 f8 b9 8e 3d cd cc 77 bd 32 22 b4 bd 9b cb 67 bc
       0.069690645 -0.060498048 -0.08795585 -0.014147664
000100 14 02 12 3d 67 f7 0b bd 38 e3 31 3d 1e 79 bd 3c
       0.035646513 -0.034171488 0.043429583 0.023129042
000110 86 7f 78 3d 7f 54 20 bd a4 81 45 3c 69 53 85 3d
       0.06066849 -0.03914308 0.0120548345 0.0651005
000120 65 33 a2 3d 3d 35 10 bd f2 a0 84 bd 22 19 39 bd
       0.07919959 -0.035207022 -0.064760104 -0.045189984
000130 30 3b ba 3d b7 c6 14 bd 24 31 30 3d f7 8d 75 3d
       0.0909332 -0.03632232 0.043015614 0.05994984
000140 6f 78 8c bd a2 0d 07 bd 4d 07 56 3d 9a 97 3d 3d
       -0.068589084 -0.032971986 0.052253056 0.046287157
000150 c5 99 34 bd 49 35 60 bd c2 6f 56 3d 48 33 85 3c
       -0.04409196 -0.054738317 0.052352674 0.016259804
000160 bc eb 33 bd 82 11 c3 3c a2 57 ca 3c 23 a7 0f bd
       -0.043925986 0.02381206 0.02469999 -0.035071503
000170 d0 b6 a4 3d 1c 76 48 3d 3c d5 4c bd 12 6e 3f bd
       0.08042681 0.048940763 -0.050008044 -0.04673583
000180 b7 7b a2 bd 93 80 25 bd 9e 2d 91 bd 5b 96 dd bc
       -0.07933753 -0.04040582 -0.07088779 -0.027049234
000190 fc 7d 54 ba 38 65 5f bd bd 82 b3 bc fc 14 86 3d
       -0.00081059313 -0.05453989 -0.021912927 0.06546971
0001a0 ef a9 45 bc 62 85 88 bd 9c d8 18 3d 68 5e 8d 3d
       -0.012064441 -0.06666066 0.03731595 0.06902772
0001b0 49 34 cf 3c 76 b8 9f bc 06 3f cb 3c 7f 74 ee bb
       0.025293486 -0.019497138 0.024810325 -0.007277071
0001c0 ee 47 3f bd ba f6 83 bd 7e e6 ad bc 1b c4 89 bc
       -0.046699457 -0.06443544 -0.021228071 -0.016817143
0001d0 76 4b 6b 3d 00 b1 8f 3c 8c e7 89 3d 9c 5a 9f 3d
       0.057445012 0.017540455 0.06733617 0.07780954
0001e0 5c c5 51 bd 6a fe f4 ba 61 4f d3 bc 95 68 8d 3d
       -0.051213607 -0.0018691544 -0.025794687 0.06904713
0001f0 ae 1e 06 bd 93 61 80 bc 22 b3 82 3d 68 05 95 3d
       -0.032744102 -0.015671527 0.06381823 0.07276422
000200 b8 1e e3 3b c4 54 83 bd 7f 4e bd bc e5 0b a3 bd
       0.006931152 -0.06412652 -0.023108719 -0.07961253
000210 ac 54 bc 3d e4 7a b5 3c a8 4b a8 bd 49 7a f1 bc
       0.091958374 0.022153325 -0.08217555 -0.029477255
000220 f6 0e 84 bd 6f a4 7f bc fa 26 98 3d 4b d2 3d 3d
       -0.06448166 -0.015603169 0.07429309 0.04634313
000230 00 0d 8c 3c 38 c5 75 bd fb 40 73 3d 20 75 6a bd
       0.017096043 -0.060002536 0.059388142 -0.057240605
000240 43 dd 4d bd 10 12 fd 3c ad f0 a0 3d 0e 9f 1f 3d
       -0.05025984 0.030892402 0.07858405 0.038970046
000250 01 12 96 bc b4 31 d6 bc 99 8d 12 3d cc 5f 4d bc
       -0.018319132 -0.026146747 0.03577957 -0.012535047
000260 43 87 a8 3b 43 b5 ae 3c 8c 48 26 bd e6 e1 b5 3d
       0.0051430776 0.021326667 -0.04059653 0.08880977
000270 b7 21 0f 3c fb 86 57 bd 64 09 52 bd 07 91 39 3d
       0.008736066 -0.05261896 -0.051278487 0.045304324
000280 5a b9 4b bd 97 2b ca 3d 2f dc 4d 3d 50 6c 62 bd
       -0.049737312 0.09871595 0.05025881 -0.055279076
000290 65 ee 07 bd 59 70 2e 3d 69 28 a5 3d 10 fe d8 bc
       -0.033186335 0.04258761 0.08064348 -0.026488334
0002a0 0a 74 af 3d 1e de af bc d1 a3 a0 3d ad 43 4a bd
       0.085670546 -0.021468218 0.078437455 -0.049380947
0002b0 2b da 93 bc 1a 55 59 bd 4e 09 85 3d 02 48 01 bc
       -0.018048367 -0.053059675 0.06495915 -0.007890703
0002c0 8d 40 97 3d 58 6a 58 bd 06 12 2a 3d 6a 37 1c bd
       0.07385359 -0.052835792 0.041521095 -0.038138784
0002d0 d3 73 73 3c ac 44 b0 3d 65 34 93 bc fb 3c f0 bc
       0.014859158 0.08606848 -0.01796932 -0.029325953
0002e0 ac 7e 7f bd 7b 0d 29 bd 64 a3 88 3d 46 32 02 3c
       -0.062376663 -0.04127262 0.06671789 0.007946556
0002f0 7b 3b 92 b9 45 d2 1c 3d 54 a6 b8 3c 27 c3 27 bd
       -0.00027891606 0.038286466 0.022540249 -0.040957596
000300 33 ad 9e 3c 2a 41 92 3d c5 01 25 3d 60 3c 58 bd
       0.019369697 0.07141335 0.04028489 -0.052791953
000310 0d 19 fd bc 06 2e 9c bd 96 fc 9f bd 21 df 67 bd
       -0.030895734 -0.07625966 -0.07811849 -0.056609277
000320 c1 de 45 3d 9f fe 8f bd 5f 89 14 3d 41 ce b2 bd
       0.048308138 -0.07030987 0.03626382 -0.08730746
000330 55 f8 97 3d 68 58 53 3b fa d9 c2 bc 67 62 68 3d
       0.074204125 0.003224874 -0.02378558 0.05673447
000340 eb 16 c2 bc f7 40 0b bd af 33 56 3d 74 c4 ee 3c
       -0.023692569 -0.033997502 0.052295383 0.02914641
000350 c3 04 c4 bc ca f9 c7 3d 34 56 2b 3d d6 f4 02 3d
       -0.023928052 0.0976444 0.041830257 0.031971775
000360 fc d3 38 bc e0 f6 26 3d 52 43 50 bd 49 a3 96 bc
       -0.01128101 0.040762782 -0.05084545 -0.018388407
000370 e6 9b 81 bb 18 6b 12 bd 2e 56 a7 bc f3 46 cd bc
       -0.003955352 -0.035746664 -0.020426836 -0.025058245
000380 88 a8 bd 3c c0 cb 6e bb c9 20 36 bd 45 7d 8f 3c
       0.023151651 -0.0036437362 -0.04446486 0.017515788
000390 c3 83 89 3d 77 b8 42 3d 85 0d 6a bd 64 18 86 bd
       0.06714585 0.0475392 -0.0571418 -0.06547621
0003a0 9c 7d a5 3c e4 54 24 3d 4f d9 8e 3c 96 ca 11 bd
       0.020201497 0.04012002 0.017437605 -0.03559359
0003b0 80 33 ed bc 9c 69 3b bd 49 9b 30 bd 4d 4c 7f bd
       -0.028955221 -0.045755014 -0.04311684 -0.062328625
0003c0 07 a4 7e 3b 25 2e 9f bd db 85 9d 3d a1 dc 73 3d
       0.0038855092 -0.07772473 0.076915465 0.05953658
0003d0 3a 93 dd bb 9f 3f d6 3c ba f8 f3 ba 91 62 01 bd
       -0.0067619355 0.026153384 -0.0018613555 -0.03158814
0003e0 94 21 72 bd e6 d6 b0 bd fc 80 b4 bc 19 bd b4 bd
       -0.059114054 -0.086347386 -0.02203416 -0.0882513
0003f0 c5 48 ee 3c dd 46 54 bd 09 70 07 bc 93 99 cc 3c
       0.029087434 -0.051825393 -0.008266457 0.024975574

move_head.bias f4 [5]
000000 7b 8f 55 bd 08 5b a2 3d d0 29 a8 3d 1d c7 c3 3c
       -0.052138787 0.07927519 0.082111 0.023898656
000010 a1 68 96 bc
       -0.018360438
