checkpoints/simple_world_comm_v3_scratch/simple_world_comm_v3_adversary_2_ep950.pt (torch, 437311 bytes, 8 tensors)

body.0.weight f4 [256, 34]
-0.1462452 -0.033680696 0.009658942 -0.17116544 0.010917045 0.09417846 -0.14301302 0.0010289056
-0.1352831 0.042765558 -0.10566531 -0.088475265 0.14882335 0.123729944 -0.098322585 0.01688604
-0.015010241 0.049135283 -0.13796276 0.06895888 0.008674744 0.030385979 0.0819345 -0.04195447
0.07975347 0.14187106 -0.050134663 0.12243282 0.18213579 0.15678824 0.100953735 0.0228255
0.074688934 0.08822477 0.09634165 0.017186351 0.036113564 -0.022847915 0.13931786 -0.1489603
-0.09053914 0.04350389 -0.10344695 -0.11552261 -0.0021529284 0.12450854 0.14898959 -0.07390593
-0.122994676 -0.04054837 -0.14045045 -0.07976055 0.1710813 0.1324471 0.06550237 -0.12080581
-0.020220246 -0.027704211 -0.14917064 -0.072767735 -0.06707898 0.028638976 -0.105333835 0.103306696
0.019366192 -0.1018763 -0.10619398 -0.06812325 0.04368851 0.089339174 0.01868586 0.13775426
-0.13265729 0.12592787 -0.087738216 -0.17872536 -0.15437375 0.016670592 -0.17842805 0.084319815
0.02400331 0.11508816 -0.089573324 -0.046512354 0.1165219 0.005163725 0.015143174 0.10714369
0.018435178 -0.13588499 -0.17246462 -0.1512657 -0.061484534 -0.13063556 0.12795326 -0.04923291
0.13992678 -0.15441082 0.122156516 -0.01599353 -0.04868637 0.12896247 0.15860523 -0.026891554
-0.17666773 -0.09716175 -0.011176804 -0.13469537 -0.05148251 -0.13464226 -0.012860101 0.11170952
0.051785838 0.07403214 0.13709341 0.032132957 0.11764818 -0.14503048 0.1421074 -0.14368476
0.12363309 -0.09699413 0.014033822 -0.017262556 -0.04808888 0.00919609 0.15469164 0.14507595
0.0815375 -0.006304054 -0.013962551 0.0064952145 0.09084924 0.1357588 0.11607556 0.12882842
0.09076586 0.15084492 -0.12317064 -0.15665814 -0.12478053 -0.037356716 0.056457017 -0.014770428
0.18463583 -0.045202803 -0.14600353 -0.04982513 0.16223066 -0.028671868 0.088186085 0.040026844
-0.029025955 0.056418575 0.15870677 0.1651276 0.09689818 -0.022072177 0.09465287 -0.1127593
-0.1012386 -0.00835811 0.045476384 -0.009431962 -0.13516256 -0.02799349 0.0046748174 0.03532119
-0.110968 -0.13802993 -0.01593838 -0.064273484 -0.08167278 0.016832765 0.13362768 0.009804808
-0.15067123 0.18784012 -0.058029275 -0.10317734 -0.17062534 -0.13269944 0.16007167 0.18097661
-0.05981656 -0.09392483 0.13104603 0.09538609 -0.013673493 0.10829358 -0.12910816 0.044313677
0.008773031 0.10743649 0.01609555 0.0599906 -0.1279539 -0.11480666 0.113791235 -0.085636556
0.14810576 0.12067337 0.16263728 0.009627781 -0.16765729 -0.0058091073 0.10695778 0.069073334
0.08714443 -0.035157274 0.11436737 -0.122496694 -0.15109262 -0.117992096 0.06954702 -0.056410074
-0.100688085 -0.14470851 -0.048823994 -0.037823938 -0.052366085 -0.042620137 -0.16722398 -0.12350011
-0.038549487 0.0518006 0.09786975 0.111059636 0.114400715 -0.05421731 -0.121692464 0.09446989
-0.101138614 -0.045206025 0.070566386 -0.11744767 -0.022297269 0.13780415 0.085707396 -0.092333145
-0.07068408 -0.15013017 0.053253602 0.022700446 0.07959086 -0.015891148 0.05930281 -0.1204583
-0.12800878 -0.0018918593 0.120946266 -0.0075291535 -0.1452449 -0.0031175762 0.031140864 0.1328881
00000000: 4dc1 15be c5f4 09bd 8a40 1e3c fe45 2fbe
00000010: 68dd 323c a3e0 c03d 0172 12be 58dc 863a
00000020: a787 0abe f02a 2f3d 0e67 d8bd 8532 b5bd
00000030: 2665 183e 2066 fd3d 5a5d c9bd 9854 8a3c
00000040: 84ed 75bc 1442 493d 1c46 0dbe 503a 8d3d
00000050: 8320 0e3c 04ec f83c 46cd a73d 73d8 2bbd
00000060: ca55 a33d a646 113e 015a 4dbd 0fbe fa3d
00000070: ce81 3a3e 198d 203e d5c0 ce3d 8bfc ba3c
00000080: 83f6 983d 30af b43d c54e c53d 64ca 8c3c
00000090: d1eb 133d 8d2b bbbc 57a9 0e3e 0d89 18be
000000a0: 966c b9bd 2331 323d ffdb d3bd 1e97 ecbd
000000b0: 2518 0dbb 55fe fe3d ba90 183e fe5b 97bd
000000c0: a2e4 fbbd 0c16 26bd 3ed2 0fbe 8059 a3bd
000000d0: f02f 2f3e 36a0 073e 1b26 863d 0969 f7bd
000000e0: eea4 a5bc f1f3 e2bc 30c0 18be 4007 95bd
000000f0: b460 89bd 499c ea3c 44b9 d7bd 7692 d33d
00000100: d9a5 9e3c 86a4 d0bd 3b7c d9bd 3484 8bbd
00000110: b9f2 323d 75f7 b63d 1713 993c 740f 0d3e
00000120: 50d7 07be 3cf3 003e 18b0 b3bd c803 37be
00000130: 2714 1ebe c490 883c d8b5 36be deaf ac3d
00000140: 97a2 c43c 57b3 eb3d 3872 b7bd bd83 3ebd
00000150: 09a3 ee3d 7734 a93b 131b 783c 276e db3d
00000160: 5f05 973c 6f25 0bbe 919a 30be 65e5 1abe
00000170: 35d7 7bbd 54c5 05be 2e06 033e 73a8 49bd
00000180: f748 0f3e df1d 1ebe 322d fa3d dd04 83bc
00000190: 5c6b 47bd bd0e 043e 6969 223e ad4b dcbc
000001a0: 63e8 34be bdfc c6bd ea1e 37bc 95ed 09be
000001b0: 53df 52bd a9df 09be 2cb3 52bc f6c7 e43d
000001c0: 631d 543d 2a9e 973d 3762 0c3e d99d 033d
000001d0: 87f1 f03d df82 14be 9a84 113e 1922 13be
000001e0: 5833 fd3d dca4 c6bd 1eee 653c 346a 8dbc
000001f0: d8f8 44bd 32ab 163c 7c67 1e3e ca8e 143e
00000200: 22fd a63d 3d92 cebb 2fc3 64bc cfd5 d43b
00000210: 2b0f ba3d 5b04 0b3e 06b9 ed3d 99eb 033e
00000220: 74e3 b93d 1777 1a3e e340 fcbd fe6a 20be
00000230: ef8c ffbd 5b03 19bd 793f 673d aaff 71bc
00000240: 2d11 3d3e 9326 39bd f381 15be 6f15 4cbd
00000250: cb1f 263e 44e1 eabc e89a b43d 30f3 233d
00000260: d7c7 edbc 2a17 673d 0784 223e 3617 293e
00000270: 8e72 c63d b6d0 b4bc 5dd9 c13d 59ee e6bd
00000280: 2f56 cfbd 74f0 08bc 7245 3a3d 8488 1abc
00000290: 0e68 0abe 9b52 e5bc 362f 993b f4ac 103d
000002a0: 3143 e3bd b857 0dbe 3591 82bc d1a1 83bd
000002b0: 0f44 a7bd dee4 893c b2d5 083e 58a4 203c
000002c0: 8f49 1abe 2959 403e 1bb0 6dbd a44e d3bd
000002d0: 69b8 2ebe 5de2 07be d4e9 233e ef51 393e
000002e0: 3602 75bd a95b c0bd ee30 063e c859 c33d
000002f0: c906 60bc 06c9 dd3d ee34 04be 4282 353d
00000300: c2bc 0f3c aa07 dc3d d1da 833c b4b8 753d
00000310: 5906 03be c11f ebbd 610b e93d 3862 afbd
00000320: 09a9 173e 9a23 f73d 638a 263e d7bd 1d3c
00000330: 5aae 2bbe 535a bebb ae0c db3d 5276 8d3d
00000340: c778 b23d 1301 10bd 7139 ea3d 8cdf fabd
00000350: 06b8 1abe d7a5 f1bd ab6e 8e3d 400e 67bd
00000360: 8e35 cebd 782e 14be abfb 47bd 46ed 1abd
00000370: d27d 56bd 7492 2ebd c33c 2bbe a0ed fcbd
00000380: 11e6 1dbd de2c 543d ef6f c83d 3c73 e33d
00000390: ec4a ea3d f812 5ebd e639 f9bd 6e79 c13d
000003a0: c321 cfbd f429 39bd 1c85 903d 6788 f0bd
000003b0: c3a8 b6bc 881c 0d3e 5c87 af3d 2919 bdbd
000003c0: d1c2 90bd b9bb 19be 7320 5a3d 49f6 b93c
000003d0: 8800 a33d 272e 82bc 81e7 723d d7b2 f6bd
000003e0: bc14 03be 44f8 f7ba adb2 f73d 1eb7 f6bb
000003f0: 14bb 14be 4050 4cbb 201b ff3c d113 083e

body.0.bias f4 [256]
-0.03789732 0.1203747 0.15114963 0.13583922 -0.014192866 -0.12880448 0.027625106 -0.11579123
-0.076895714 -0.046408802 0.14343457 0.0131073175 -0.040939074 -0.11796718 0.13311163 0.10906879
0.04365955 0.13115884 0.14083032 -0.029454598 0.12701733 -0.0881544 -0.13251714 0.12540981
0.0077531775 -0.118921034 -0.13203347 0.0062379017 0.003071341 0.011607368 0.02346093 0.07534764
-0.070682764 -0.017213548 -0.1237307 0.07322832 0.16999812 -0.04403449 -0.07227634 0.14453444
-0.05039935 0.08548642 -0.13181819 0.049136776 -0.14295697 -0.06166842 -0.120098874 -0.021294158
-0.062202875 0.10192534 -0.06674453 0.102370866 0.0917479 -0.05427709 -0.14871484 -0.048203662
0.10064404 -0.0578402 0.072087616 -0.08759815 -0.082819894 0.17399295 0.06496433 0.19837962
0.0839629 -0.058923405 -0.011326944 -0.10415758 0.034350626 0.11971708 -0.124003425 0.17225374
0.16203344 0.039747298 -0.15080237 -0.00695003 0.11030857 0.08296483 -0.028394379 0.02982413
0.1760411 0.1412112 0.057644248 -0.012869464 -0.018481188 -0.022884542 0.1233875 -0.053978972
0.16903009 -0.022000184 -0.08149182 -0.05593445 0.15032774 0.075861074 -0.020348929 0.020782143
0.0034657433 -0.13596329 0.031579077 0.14695153 0.1352639 0.17134008 0.018581264 0.047112692
0.14767447 -0.1625964 -0.121416196 -0.11022541 0.15120997 -0.036622792 -0.04068886 -0.073304035
-0.14407782 0.15098228 -0.02088148 -0.06876279 -0.13644072 0.022021692 -0.06348212 0.17626882
-0.107423075 -0.06654135 0.12273144 0.07096813 -0.06332212 -0.05156997 -0.068166375 0.11511495
-0.077977635 0.16931744 0.073170036 -0.1377547 -0.013732216 -0.12136289 -0.12455007 -0.011629751
-0.027996702 -0.07700538 -0.031904195 0.08345602 -0.099862956 0.026422547 0.07258828 -0.12349615
-0.024665596 0.071926184 -0.15686324 0.145505 0.079409204 -0.049278207 0.16145435 -0.16899046
0.08954038 0.10443388 -0.101716585 0.049715217 0.012110228 -0.057165172 -0.16653936 -0.022673631
-0.1167381 -0.0502887 0.07220023 -0.13871287 -0.004842898 -0.061491862 -0.009084102 -0.030270271
-0.07055845 -0.054492496 -0.15831791 -0.133185 -0.062048864 -0.0130873 -0.043971073 0.03348122
0.07049789 0.03554745 0.16590035 0.07006529 -0.0028681976 0.15678342 0.06421653 -0.13403893
-0.166895 -0.070854746 0.0074177724 0.032413796 0.066695526 0.054953128 -0.1343385 -0.0428153
0.06863631 0.06234262 -0.12098665 0.17368492 0.14278169 0.034857884 0.05101822 0.11677295
-0.15670808 -0.07147222 -0.056046616 0.09079855 -0.041674424 -0.07136449 0.16917546 0.14806192
0.03141817 0.010343103 -0.01710635 0.008560959 0.052739 -0.12406357 -0.053072277 0.025977798
-0.15283217 -0.04043847 0.009184915 0.1506312 -0.0051392033 0.095922135 -0.083959885 -0.07678306
-0.14379445 0.15686378 -0.119756855 -0.16377571 -0.008189438 -0.08554584 0.06650551 0.14548422
-0.1721828 0.059680965 -0.005152827 0.13364178 0.14090124 0.11801946 0.11101686 0.12525034
0.0653455 0.057019304 0.059022147 0.012993714 0.036992967 -0.115754575 -0.1461783 0.15730321
0.09978706 -0.17926596 0.119641215 -0.16626036 0.015887076 0.02500821 -0.06737657 -0.11277515
00000000: 383a 1bbd 0387 f63d f8c6 1a3e 7019 0b3e
00000010: 3289 68bc 52e5 03be 0c4e e23c f423 edbd
00000020: 807b 9dbd 2817 3ebd 83e0 123e 13c0 563c
00000030: bbaf 27bd c798 f1bd 6a4e 083e 755f df3d
00000040: 5bd4 323d 814e 063e d335 103e c54a f1bc
00000050: d510 023e 4b8a b4bd 93b2 07be 6e6b 003e
00000060: 5e0e fe3b df8c f3bd c833 07be 5067 cc3b
00000070: 8d48 493b d42c 3e3c 2331 c03c dd4f 9a3d
00000080: 20c2 90bd 6d03 8dbc 8566 fdbd bbf8 953d
00000090: fd13 2e3e 825d 34bd 9e05 94bd d600 143e
000000a0: 8c6f 4ebd 8113 af3d 59fb 06be a543 493d
000000b0: 5063 12be 0698 7cbd 66f6 f5bd 1671 aebc
000000c0: 71c8 7ebd 3cbe d03d 5bb1 88bd d1a7 d13d
000000d0: 53e6 bb3d a751 5ebd b448 18be 3471 45bd
000000e0: 761e ce3d d8e9 6cbd aca2 933d a966 b3bd
000000f0: 7a9d a9bd 352b 323e 050c 853d 0724 4b3e
00000100: bef4 ab3d ab59 71bd a694 39bc 9250 d5bd
00000110: 3eb3 0c3d 3a2e f53d 82f5 fdbd 4963 303e
00000120: 18ec 253e 10ce 223d f06b 1abe 14bd e3bb
00000130: 76e9 e13d 77e9 a93d 549b e8bc bc51 f43c
00000140: 1e44 343e ab99 103e 601c 6c3d 72da 52bc
00000150: dc65 97bc 5d78 bbbc 96b2 fc3d 0e19 5dbd
00000160: 3916 2d3e bb39 b4bc 2fe5 a6bd 861b 65bd
00000170: 84ef 193e 0d5d 9b3d ccb2 a6bc 503f aa3c
00000180: 8621 633b f639 0bbe 1059 013d 767a 163e
00000190: 9f82 0a3e c673 2f3e bc37 983c 3df9 403d
000001a0: fa37 173e ac7f 26be 0ea9 f8bd dcbd e1bd
000001b0: c9d6 1a3e c801 16bd 5da9 26bd 6d20 96bd
000001c0: 2389 13be 199b 1a3e a30f abbc 81d3 8cbd
000001d0: 1eb7 0bbe d666 b43c ea02 82bd d07f 343e
000001e0: a100 dcbd d546 88bd 9f5a fb3d bd57 913d
000001f0: 07af 81bd 083b 53bd d09a 8bbd 63c1 eb3d
00000200: bdb2 9fbd 8d61 2d3e 2cda 953d 910f 0dbe
00000210: 17fd 60bc 1b8d f8bd 1b14 ffbd b68a 3ebc
00000220: 5759 e5bc ffb4 9dbd f9ad 02bd fdea aa3d
00000230: f384 ccbd 1974 d83c 2aa9 943d 8deb fcbd
00000240: 810f cabc 094e 933d c2a0 20be 43ff 143e
00000250: 4ba1 a23d f2d7 49bd 4a54 253e d60b 2dbe
00000260: f260 b73d 6ee1 d53d c950 d0bd 2fa2 4b3d
00000270: fa69 463c 0726 6abd 4b89 2abe 0dbe b9bc
00000280: 6314 efbd 86fb 4dbd b7dd 933d bf0a 0ebe
00000290: 2cb1 9ebb e4de 7bbd 7cd5 14bc 5cf9 f7bc
000002a0: f380 90bd 8633 5fbd 171e 22be a661 08be
000002b0: f326 7ebd 1d6c 56bc 031b 34bd 9b23 093d
000002c0: 3361 903d 349a 113d c8e1 293e 647e 8f3d
000002d0: 5ff8 3bbb d58b 203e f583 833d 8041 09be
000002e0: 86e6 2abe 4b1c 91bd c910 f33b 54c4 043d
000002f0: aa97 883d 8816 613d 0890 09be 195f 2fbd
00000300: 3291 8c3d fa5a 7f3d d9c7 f7bd 76da 313e
00000310: 5d35 123e 24c7 0e3d 7bf8 503d a826 ef3d
00000320: 1578 20be 0760 92bd 2391 65bd 97f4 b93d
00000330: cdb2 2abd 8c27 92bd 553c 2d3e 8b9d 173e
00000340: 57b0 003d 1e76 293c 9e22 8cbc 4443 0c3c
00000350: da04 583d 0a15 febd 5162 59bd 64cf d43c
00000360: 0980 1cbe cfa2 25bd 537c 163c 113f 1a3e
00000370: c366 a8bb d372 c43d 29f3 abbd 7040 9dbd
00000380: da3e 13be e6a0 203e 1543 f5bd d2b4 27be
00000390: fe2c 06bc a832 afbd 0a34 883d d1f9 143e
000003a0: b050 30be 0774 743d 0cd9 a8bb 64d9 083e
000003b0: 6a48 103e 30b4 f13d cf5c e33d a041 003e
000003c0: ddd3 853d 138d 693d 35c1 713d 96e3 543c
000003d0: f085 173d bc10 edbd c4af 15be 1814 213e
000003e0: 285d cc3d 7f91 37be 7406 f53d 2840 2abe
000003f0: 9d25 823c 05de cc3c bafc 89bd a8f6 e6bd

body.2.weight f4 [256, 256]
-0.018216055 0.009114793 -0.012683598 0.036320932 0.008499583 0.018175479 -0.046866182 0.019807883
0.046103988 0.019887386 0.033129513 0.005951616 0.015640015 -0.044516902 0.04178718 -0.06076001
0.031556487 0.058747794 -0.025453765 0.037435032 -0.03790365 0.053925727 -0.021389054 0.0008385733
-0.064002916 0.010455808 -0.053831853 -0.053358838 0.014826398 -0.04826095 -0.036432687 0.0026280996
0.030298254 -0.055560887 -0.0013026863 0.0051462795 0.06557095 0.015601989 -0.013106428 0.034996994
-0.0261203 0.06464252 -0.049472857 -0.058476377 0.07252675 0.030203585 -0.045385636 0.04830605
-0.050772246 0.010380488 0.027975425 -0.029792724 -0.038569793 0.031079916 -0.002493158 0.051096126
-0.008051987 -0.030959891 0.0545609 0.008392023 -0.063366175 -0.05775793 0.029863356 -0.05974098
-0.03562044 0.01072714 0.03612837 0.05495548 0.053286668 -0.049314544 0.044488575 -0.028899034
0.031078288 0.042689804 -0.057885993 -0.06467181 -0.015966436 0.071470916 -0.029974664 0.007084177
0.056825496 0.02956201 -0.008341342 -0.03446987 -0.032248765 0.021872664 -0.027142087 -0.03859781
0.048696075 -0.00018491645 0.00066407747 0.04381331 0.037548322 0.013332349 -0.06628678 0.063683644
0.020857489 -0.021126792 0.04804775 -0.008619294 0.026848283 -0.05361712 0.050186407 -0.010069023
0.03592224 -0.02162395 -0.008840041 -0.0022114902 -0.032504667 0.0056760046 0.04419661 0.045729034
0.031964824 -0.024411183 0.044186607 -0.012078525 0.024874706 -0.043685146 0.01735791 -0.025295077
0.003851422 -0.06524481 0.050901 0.02948439 0.05683038 0.021034844 -0.024906894 0.044568826
0.041824546 0.0028596963 0.053849623 -0.03359196 -0.03128062 -0.011334072 -0.03979703 -0.03329575
0.056957986 -0.033486217 0.020948587 -0.019380953 -0.047086243 0.0368853 -0.05301904 0.034844626
0.020924883 -0.062038135 -0.0007423218 0.0499659 -0.041603062 0.00085663446 -0.034342997 0.06504943
0.033861358 0.0074562593 0.018523041 0.012296608 0.048728373 -0.0054938244 -0.025918985 0.0024980574
0.012910768 0.004738439 -0.013022178 0.035195116 -0.016621483 0.034214575 -0.062093344 0.04349658
-0.025914002 -0.05214001 -0.049369857 0.05382796 0.03082739 0.048151743 -0.041111097 0.011181458
0.041259743 -0.036578815 -0.008578559 -0.06850067 0.039748132 -0.021635585 -0.06735016 0.03954485
0.029161358 -0.055196833 -0.048473462 0.022070292 -0.014292084 0.010430092 0.0011949636 -0.03441189
-0.0774918 -0.053265825 0.035686463 -0.029103987 -0.06196329 0.027269067 0.016875485 -0.043908913
0.028089508 0.06020975 -0.026878282 0.023599325 -0.03127381 -0.022674713 0.03680612 0.009041141
-0.0587175 0.019031955 0.055118684 -0.056140125 -0.061250936 -0.0082324 0.0173415 0.03981742
-0.043442544 0.027138133 -0.037581947 0.04070611 0.06346388 -0.03939796 0.013506249 0.0028998235
-0.03343518 -0.057033017 -0.016861584 -0.02748725 0.05208399 -0.040785078 0.020948129 -0.003962231
0.07039382 -0.03854904 -0.032909594 0.062140472 0.044030722 0.0004106522 -0.0030122628 -0.035445724
0.0101064425 -0.0023053847 -0.06745916 0.052836195 0.011486356 -0.058679592 -0.026362492 0.036883242
-0.0009840386 -0.02259745 0.01208045 -0.0023331153 -0.026024017 0.004588385 9.444953e-06 -0.0622095
00000000: d639 95bc 3656 153c dece 4fbc 42c5 143d
00000010: d641 0b3c bee4 943c c1f6 3fbd 2444 a23c
00000020: 89d7 3c3d dfea a23c d0b2 073d c605 c33b
00000030: 7d1f 803c 5b57 36bd 0929 2b3d 7ddf 78bd
00000040: 6041 013d 87a1 703d 6a84 d0bc 7a55 193d
00000050: dc40 1bbd 39e1 5c3d 1938 afbc b4d3 5b3a
00000060: f613 83bd d64e 2b3c ca7e 5cbd cc8e 5abd
00000070: 6cea 723c 46ad 45bd 713a 15bd 323c 2c3b
00000080: 0b34 f83c d093 63bd e6be aaba 1fa2 a83b
00000090: 104a 863d 7c9f 7f3c 58bc 56bc 0259 0f3d
000000a0: 3dfa d5bc 4c63 843d 0da4 4abd ed84 6fbd
000000b0: e888 943d 826d f73c 4ae6 39bd 91dc 453d
000000c0: 8ff6 4fbd ec12 2a3c b82c e53c df0f f4bc
000000d0: 5cfb 1dbd 4f9b fe3c 4064 23bb 2c4a 513d
000000e0: 7bec 03bc 999f fdbc 407b 5f3d b27e 093c
000000f0: 20c6 81bd 9493 6cbd ffa3 f43c f5b2 74bd
00000100: bde6 11bd e3c0 2f3c 57fb 133d ff18 613d
00000110: 1f43 5a3d 0cfe 49bd a739 363d abbd ecbc
00000120: e597 fe3c 81db 2e3d dd19 6dbd a772 84bd
00000130: 0bcc 82bc 585f 923d 6d8d f5bc 6222 e83b
00000140: dac1 683d 072c f23c 20aa 08bc 4730 0dbd
00000150: 4817 04bd 4d2e b33c 1559 debc bd18 1ebd
00000160: 8975 473d 22e6 41b9 7c15 2e3a 9675 333d
00000170: 45cc 193d ed6f 5a3c 5dc1 87bd 926c 823d
00000180: 53dd aa3c 1812 adbc b8cd 443d f037 0dbc
00000190: eef0 db3c a09d 5bbd 4390 4d3d 8bf8 24bc
000001a0: 3323 133d b624 b1bc d2d5 10bc a6ee 10bb
000001b0: 9d23 05bd c7fd b93b 8107 353d 5e4e 3b3d
000001c0: 8ced 023d f6f9 c7bc 04fd 343d 01e5 45bc
000001d0: 0ac6 cb3c 32ef 32bd 2d32 8e3c 9f37 cfbc
000001e0: 2468 7c3b 129f 85bd 917d 503d 3f89 f13c
000001f0: f9c6 683d 4451 ac3c 8b09 ccbc cd8d 363d
00000200: 3750 2b3d be69 3b3b 6c91 5c3d b997 09bd
00000210: 1b20 00bd 8bb2 39bc 3602 23bd 2061 08bd
00000220: c74c 693d d828 09bd 5f9c ab3c cec4 9ebc
00000230: 81dd 40bd 0a15 173d 7e2a 59bd 3db9 0e3d
00000240: a96a ab3c b31b 7ebd 5f98 42ba 0ba9 4c3d
00000250: f967 2abd c48f 603a 3eab 0cbd a338 853d
00000260: 35b2 0a3d a353 f43b a2bd 973c b677 493c
00000270: 6797 473d 8a05 b4bb 0d54 d4bc 73b6 233b
00000280: b087 533c e844 9b3b f95a 55bc c128 103d
00000290: c729 88bc 9524 0c3d 9755 7ebd 7829 323d
000002a0: 9a49 d4bc c390 55bd 0c38 4abd b57a 5c3d
000002b0: b989 fc3c c33a 453d 1c64 28bd 6f32 373c
000002c0: faff 283d abd3 15bd 168d 0cbc 144a 8cbd
000002d0: f0ce 223d 1c3d b1bc e1ee 89bd c8f9 213d
000002e0: cde3 ee3c 1316 62bd 1c8c 46bd c2cc b43c
000002f0: 5829 6abc fae2 2a3c 53a0 9c3a 7bf3 0cbd
00000300: 05b4 9ebd 442d 5abd f82b 123d 7c6b eebc
00000310: 38cd 7dbd 6163 df3c 753e 8a3c d5d9 33bd
00000320: f81b e63c 809e 763d d82f dcbc 5f53 c13c
00000330: f718 00bd 52c0 b9bc 04c2 163d 4b21 143c
00000340: c381 70bd e7e8 9b3c 21c4 613d 30f3 65bd
00000350: 43e2 7abd 30e1 06bc c30f 8e3c 9717 233d
00000360: cff0 31bd ca50 de3c 87ef 19bd 73bb 263d
00000370: 5af9 813d c15f 21bd 5049 5d3c f70a 3e3b
00000380: 54f3 08bd 749b 69bd 4e21 8abc f12c e1bc
00000390: 0656 553d 410e 27bd 699b ab3c 9ad5 81bb
000003a0: a32a 903d 99e5 1dbd 36cc 06bd 0287 7e3d
000003b0: 8f59 343d ce4c d739 6269 45bb 892f 11bd
000003c0: 7e95 253c f015 17bb 0728 8abd c46a 583d
000003d0: 4531 3c3c 035a 70bd 27f6 d7bc e212 173d
000003e0: dbfa 80ba 4a1e b9bc 14ed 453c 2ee7 18bb
000003f0: 5230 d5bc 2a5a 963b c475 1e37 64cf 7ebd

body.2.bias f4 [256]
-0.017248312 -0.03526011 0.06922783 0.0025895713 0.044409253 -0.022302115 -0.04292122 0.060868002
0.03390602 0.038500704 0.047816426 0.032299858 -0.06790688 0.036688954 0.0015510399 -0.026204355
-0.031969804 -0.035539255 -0.05633332 0.0001811988 -0.047918603 0.056726817 -0.05496096 -0.009002451
-0.007684923 -0.059908517 -0.0008947185 -0.015481007 -0.00839864 -0.026599012 0.030264983 0.013361412
-0.021530272 -0.05573009 -0.04398029 -0.038083035 0.037157167 0.04871794 -0.00057850033 -0.005704456
0.028148262 0.062044997 -0.04276839 -0.042132903 -0.02537464 -0.033235595 0.03706961 -0.044177145
0.047035564 -0.028343502 -0.03689633 -0.007608583 -0.013557997 -0.051147822 0.05908987 -0.044439476
-0.0038861209 0.020634163 -0.022989323 -0.008271622 0.053616833 0.004345386 -0.059366666 0.025614295
-0.0130989365 -0.018077904 0.01962783 0.023989527 0.0031319582 0.049401823 0.06141326 0.013980734
-0.008990163 0.03001037 -0.0341901 -0.04577122 -0.053872373 0.0075145997 0.007349701 0.013232046
-0.003268643 0.02994226 0.026567323 -0.053732205 0.02726592 0.039784018 0.059484035 -0.014232102
-0.018208018 0.022139005 0.0039843055 -0.05449237 -0.0037469268 0.0074925064 0.054299206 0.041640602
-0.010956637 0.054041136 0.048865315 -0.062154494 -0.042265497 0.01623027 0.012768825 0.04840512
0.049888875 0.012284502 0.05387206 0.0039572604 0.025129454 0.017756943 -0.017140204 -0.049211144
-0.05696297 -0.009971774 0.024735868 0.034321796 -0.01674452 -0.014838094 -0.01990221 0.05820917
-0.009215299 0.0135949645 0.05537512 -0.005559706 0.010450548 -0.01900691 0.0253886 0.027119191
-0.031985022 -0.00921731 -0.013073048 0.055553846 -0.028717294 -0.00057976047 -0.035784744 -0.0041540386
0.056636553 -0.062259667 -0.018929645 0.045670994 0.01352303 -0.0015275113 -0.018549297 -0.049616724
0.04669306 0.007884387 0.029007986 -0.014883151 -0.006143509 -0.006989987 0.008268214 0.039867613
-0.03298796 -0.011908663 0.053656705 -0.029432107 -0.053665195 -0.013888918 -0.040636525 -0.016829584
-0.054418504 -0.006828568 0.048424926 0.014430922 0.036337897 0.04497917 -0.056350198 -0.04997586
-0.026193267 0.03092486 0.043909676 -0.027700234 0.040618647 0.010303664 -0.037651572 -0.05431342
-0.042249165 0.049185 0.057279088 -0.02380743 -0.0139935305 0.043571156 0.04099823 0.032643747
-0.03078381 -0.004866099 0.0020727941 -0.045809165 0.00029881744 -0.013050575 0.062434018 -0.027851416
0.034119107 0.0618331 0.028395955 -0.06376646 0.048954934 -0.048546012 -0.04463876 0.05886186
0.0001286924 -0.026049756 -0.022766352 0.0059754318 -0.04385809 0.039281826 0.05916383 -0.054610133
0.06517645 0.057109356 -0.034532283 0.03052973 0.00015143811 -0.012071616 -0.015385099 -0.010995756
0.007650381 -0.037419494 -0.024974683 -0.0411453 0.03475565 -0.061242413 -0.048909616 -0.00042678515
0.015107335 -0.04083575 -0.013956162 0.06646646 0.03856103 -0.049922794 0.044757064 0.025323858
-0.048602127 0.019405559 0.02589172 0.029875237 0.050344706 0.054836106 0.007079879 -0.008396326
0.05826347 -0.033985958 0.0074064513 0.037912413 0.04719145 -0.019196862 -0.023277156 0.021366166
-0.04379005 -0.03642388 -0.005360906 0.013602673 -0.056077354 0.05934666 -0.05215689 0.04447249
00000000: 554c 8dbc e86c 10bd 52c7 8d3d ccb5 293b
00000010: 7ae6 353d edb2 b6bc 29ce 2fbd ba50 793d
00000020: 0ae1 0a3d eab2 1d3d 28db 433d db4c 043d
00000030: c312 8bbd 2847 163d 434c cb3a 84aa d6bc
00000040: c5f2 02bd 9c91 11bd c4bd 66bd 2f00 3e39
00000050: 4c46 44bd 615a 683d be1e 61bd 047f 13bc
00000060: ced1 fbbb a262 75bd 8b8b 6aba 0da4 7dbc
00000070: 739a 09bc 2ce6 d9bc 45ee f73c d3e9 5a3c
00000080: 4160 b0bc 3c45 64bd ad24 34bd f5fc 1bbd
00000090: 1d32 183d 768c 473d 80a6 17ba 72ec babb
000000a0: 2f97 e63c e522 7e3d e82d 2fbd 8d93 2cbd
000000b0: 7ade cfbc 0c22 08bd 4ed6 173d 18f3 34bd
000000c0: 5da8 403d a230 e8bc 9b20 17bd 6c51 f9bb
000000d0: 5c22 5ebc 6180 51bd 3808 723d 2b06 36bd
000000e0: 4aae 7ebb fa08 a93c 1b54 bcbc b285 07bc
000000f0: 539d 5b3d bd63 8e3b 762a 73bd 12d5 d13c
00000100: ec9c 56bc 1d18 94bc 8bca a03c af85 c43c
00000110: 8a41 4d3b 9159 4a3d 788c 7b3d 730f 653c
00000120: 7a4b 13bc 4fd8 f53c eb0a 0cbd 9a7a 3bbd
00000130: 47a9 5cbd 083d f63b c3d5 f03b 39cb 583c
00000140: bb36 56bb 7849 f53c b7a3 d93c 4d16 5cbd
00000150: c75c df3c 91f4 223d 88a5 733d c32d 69bc
00000160: fb28 95bc dc5c b53c c78e 823b 6433 5fbd
00000170: 008f 75bb b383 f53b d868 5e3d 568f 2a3d
00000180: 7783 33bc 3d5a 5d3d ff26 483d b695 7ebd
00000190: 961e 2dbd 58f5 843c 5534 513c 7244 463d
000001a0: 4758 4c3d f044 493c f3a8 5c3d e8ab 813b
000001b0: 49dc cd3c 0277 913c 9d69 8cbc a091 49bd
000001c0: 0152 69bd a760 23bc e0a2 ca3c 0395 0c3d
000001d0: ce2b 89bc 7a1b 73bc f609 a3bc bd6c 6e3d
000001e0: c4fb 16bc 6abd 5e3c 06d1 623d 322e b6bb
000001f0: c638 2b3c 61b4 9bbc c1fb cf3c 1129 de3c
00000200: ba02 03bd 3304 17bc 5630 56bc 6e8c 633d
00000210: 8840 ebbc 11fb 17ba 0693 12bd 9a1e 88bb
00000220: bbfb 673d fe03 7fbd 5812 9bbc 8211 3b3d
00000230: b38f 5d3c c636 c8ba b2f4 97bc e83a 4bbd
00000240: 3941 3f3d 842d 013c 28a2 ed3c 76d8 73bc
00000250: 7d4f c9bb 430c e5bb 6777 073c 394c 233d
00000260: 621e 07bd 8e1c 43bc 22c7 5b3d 9a1b f1bc
00000270: 09d0 5bbd 588e 63bc 7c72 26bd 32de 89bc
00000280: f0e5 5ebd 2ec2 dfbb 3759 463d ad6f 6c3c
00000290: 0cd7 143d 143c 383d 77cf 66bd 7db3 4cbd
000002a0: 4393 d6bc 2256 fd3c a2da 333d 9aeb e2bc
000002b0: bd5f 263d b3d0 283c 8938 1abd c077 5ebd
000002c0: 760d 2dbd 3676 493d 7a9d 6a3d cd07 c3bc
000002d0: 1f45 65bc ab77 323d c3ed 273d 73b5 053d
000002e0: 542e fcbc cc73 9fbb b7d7 073b 64a2 3bbd
000002f0: 99aa 9c39 14d2 55bc d0ba 7f3d a728 e4bc
00000300: 7ac0 0b3d b444 7d3d a29e e83c fd97 82bd
00000310: f884 483d 2fd8 46bd 22d7 36bd 2219 713d
00000320: 9af1 0639 4c66 d5bc 8080 babc 8ecd c33b
00000330: 8aa4 33bd fbe5 203d c655 723d e0ae 5fbd
00000340: 3b7b 853d 80eb 693d b971 0dbd 7c19 fa3c
00000350: 5ccb 1e39 07c8 45bc c811 7cbc 8b27 34bc
00000360: 0cb0 fa3b 2f45 19bd b597 ccbc f987 28bd
00000370: f15b 0e3d 53d9 7abd 7355 48bd 22c2 dfb9
00000380: c184 773c 6343 27bd 63a8 64bc 911f 883d
00000390: 2cf2 1d3d d87b 4cbd 2f53 373d fb73 cf3c
000003a0: 0613 47bd 68f8 9e3c df1a d43c eabc f43c
000003b0: 4036 4e3d d39b 603d 54fe e73b be90 09bc
000003c0: ada5 6e3d dc34 0bbd d1b1 f23b 0c4a 1b3d
000003d0: d24b 413d bd42 9dbc bcaf bebc 1908 af3c
000003e0: 325d 33bd 3531 15bd 8aaa afbb bfdd 5e3c
000003f0: 5eb1 65bd 7c15 733d 77a2 55bd c928 363d

body.4.weight f4 [128, 256]
-0.0168466 -0.057012394 -0.07051454 -5.5496617e-05 -0.06411023 0.023623643 0.034208875 -0.039148197
-0.03658371 0.028207375 0.002422364 0.0155275995 0.01393375 0.056100886 -0.02347092 -0.012470669
-0.048964452 -0.0066071884 -0.032292113 -0.014341204 -0.030500332 0.040568132 -0.053902686 -0.0041535315
-0.03735799 0.010224546 0.05547471 -0.006655909 -0.02371309 -0.01067005 0.05665496 0.008334081
0.05372365 0.0015700498 -0.04260658 -0.030211648 0.018828133 -0.0008838416 -0.001690359 0.035882022
-0.025177334 0.048457008 0.053103626 0.038678527 0.06705498 0.00025174668 0.010306771 0.05693639
-0.03379125 0.011294106 -0.005759308 0.046220712 0.0152459955 -0.05695412 0.0003706777 0.036199197
-0.057185065 0.022690745 0.01970932 -0.021386497 0.012239191 -0.014981565 -0.0103504965 -0.03453955
0.041999582 0.061073896 -0.048094574 -0.03661679 -0.016675891 0.033917245 -0.026075073 -0.0027962797
0.019309923 0.058982037 0.0368275 5.0777107e-05 0.04750991 0.004212864 0.035480242 0.047263082
0.008395694 0.031920105 0.026486656 0.016175885 -0.017615864 0.0332677 0.007241932 0.060443435
-0.028159665 -0.009859631 0.044864424 0.045591604 0.023165826 0.0010626859 -0.05240299 -0.045843847
0.034967497 -0.0048563345 0.038047887 -0.055096447 0.018128108 0.044081725 0.043659944 -0.01170446
0.017911531 -0.0601078 0.050326027 0.040152527 0.018574947 -0.048986163 0.057491943 0.030205034
0.029099409 0.041304022 0.024827326 0.015699102 -0.07347246 -0.066287 -0.019546565 -0.018763974
-0.06683838 0.016226992 -0.041742627 -0.020559454 -0.025364535 -0.05340349 -0.03216681 0.0008365295
-0.046660583 0.0003571473 -0.052305907 -0.02405225 -0.026600119 -0.0057378104 0.05305693 0.004604741
-0.067896955 0.005724046 -0.057094865 0.0639776 0.043285735 -0.027611194 0.05133921 0.035513602
-0.046789832 0.0078644315 0.05853977 0.049675506 0.039287228 -0.047791183 -0.0039691147 0.05025181
-0.032873195 0.022900993 -0.008087841 0.041548803 -0.007880023 -0.021745604 0.052977145 0.041342292
-0.011097271 0.01395037 -0.013301591 0.023617787 0.03822178 -0.05214022 0.035529353 0.051786136
0.025983417 -0.0005193608 -0.008670998 0.036035832 0.0074237064 0.01768394 -0.019154305 0.045817416
-0.034888726 0.056753185 -0.020418277 -0.02891915 -0.034126878 -0.06870832 -0.04127297 -0.070550375
0.012562101 -0.019620204 -0.012869974 -0.030199504 -0.05142809 -0.076772414 0.009427739 -0.058018643
-0.061001997 0.057217885 -0.068291895 -0.014534115 0.05241535 0.03968162 0.036097586 0.036499776
-0.0058185696 0.04912406 -0.015118287 -0.06497142 -0.0110965995 0.0061277724 0.0056270645 0.021286378
0.005225301 0.06974761 0.04988622 0.020172745 -0.04579799 -0.04104145 0.039317157 -0.010402717
-0.05437951 0.0046496564 0.051386986 0.008150663 0.023857277 -0.0035205642 -0.037991073 0.03489459
0.016998462 0.055699248 0.05766413 -0.07363118 -0.051597834 -0.036564775 -0.04575635 -0.0027717487
-0.0071004205 0.020742735 0.06624664 -0.060137004 0.006494005 0.020403678 -0.020720255 0.063920744
-0.06500285 -0.007662481 -0.043546792 0.060144503 -0.010576492 0.031180967 0.065016046 0.0010540669
-0.043333583 0.006099985 -0.019149408 0.029684238 -0.01361571 -0.0136754885 -0.012000646 -0.020884398
00000000: e201 8abc d485 69bd ed69 90bd 0ac5 68b8
00000010: 394c 83bd 5f86 c13c 9b1e 0c3d dc59 20bd
00000020: cdd8 15bd 2713 e73c 86c0 1e3b 7967 7e3c
00000030: 624a 643c 0bca 653d 1646 c0bc c751 4cbc
00000040: f38e 48bd 1d81 d8bb bc44 04bd 5ff7 6abc
00000050: d5db f9bc c52a 263d 10c9 5cbd 591a 88bb
00000060: b104 19bd db84 273c 7339 633d d019 dabb
00000070: f441 c2bc 6fd1 2ebc 080f 683d ab8b 083c
00000080: 540d 5c3d 21ca cd3a 3d84 2ebd 6b7e f7bc
00000090: 753d 9a3c 9bb1 67ba 098f ddba 07f9 123d
000000a0: b240 cebc db7a 463d 3083 593d 606d 1e3d
000000b0: 1f54 893d defc 8339 bbdd 283c 2236 693d
000000c0: b268 0abd ea0a 393c 94b8 bcbb ee51 3d3d
000000d0: 57ca 793c b948 69bd 8557 c239 9c45 143d
000000e0: e33a 6abd f1e1 b93c 7175 a13c bc32 afbc
000000f0: e386 483c 3d75 75bc 2195 29bc 5879 0dbd
00000100: c107 2c3d 9f28 7a3d d1fe 44bd 7dfb 15bd
00000110: e19b 88bc cfec 0a3d 649b d5bc ca41 37bb
00000120: d82f 9e3c 2697 713d 6fd8 163d 81f9 5438
00000130: c099 423d 110c 8a3b bb53 113d ef96 413d
00000140: 188e 093c a8be 023d 8bfa d83c 4a83 843c
00000150: 254f 90bc b643 083d bb4d ed3b 8993 773d
00000160: 19af e6bc 4a8a 21bc c2c3 373d 43be 3a3d
00000170: 42c6 bd3c d249 8b3a 85a4 56bd c2c6 3bbd
00000180: 143a 0f3d e321 9fbb 1ad8 1b3d d0ac 61bd
00000190: 6681 943c 0a8f 343d c5d4 323d 10c4 3fbc
000001a0: 34bb 923c 9933 76bd aa22 4e3d fa76 243d
000001b0: 7d2a 983c b7a5 48bd ac7c 6b3d 8c70 f73c
000001c0: e261 ee3c 682e 293d ad62 cb3c 679b 803c
000001d0: bb78 96bd 7bc1 87bd 1e20 a0bc e8b6 99bc
000001e0: 90e2 88bd 78ee 843c 51fa 2abd 4d6c a8bc
000001f0: 49c9 cfbc 9ebd 5abd 58c1 03bd 8b4a 5b3a
00000200: 2b1f 3fbd 803f bb39 b83e 56bd 3909 c5bc
00000210: 7ee8 d9bc 3e04 bcbb 3952 593d 5ee3 963b
00000220: 8f0d 8bbd c790 bb3b 4edc 69bd b006 833d
00000230: 624c 313d df30 e2bc 1049 523d b676 113d
00000240: b2a6 3fbd d1d9 003c 66c7 6f3d 8b78 4b3d
00000250: a5eb 203d b0c0 43bd 590f 82bb d8d4 4d3d
00000260: 0ba6 06bd dd9a bb3c dd82 04bc 142f 2a3d
00000270: 361b 01bc d623 b2bc 90fe 583d 8956 293d
00000280: 54d1 35bc 1890 643c ebee 59bc 177a c13c
00000290: 718e 1c3d fc90 55bd 3a87 113d b31d 543d
000002a0: 2ddb d43c b725 08ba cd10 0ebc 4f9a 133d
000002b0: 9042 f33b e9dd 903c 7de9 9cbc 0bab 3b3d
000002c0: 7be7 0ebd 0776 683d 3b44 a7bc dae7 ecbc
000002d0: a0c8 0bbd f3b6 8cbd d90d 29bd b77c 90bd
000002e0: 45d1 4d3c 8dba a0bc 95dc 52bc f364 f7bc
000002f0: 43a6 52bd db3a 9dbd ce76 1a3c f5a4 6dbd
00000300: 3bdd 79bd 4d5d 6a3d 9fdc 8bbd 7f20 6ebc
00000310: 7ab1 563d 3289 223d 10db 133d ca80 153d
00000320: b3a9 bebb 4f36 493d b1b2 77bc bc0f 85bd
00000330: 83ce 35bc 7bcb c83b 3d63 b83b c560 ae3c
00000340: 0039 ab3b d6d7 8e3d 7e55 4c3d 5041 a53c
00000350: ac96 3bbd 141b 28bd 070b 213d 2870 2abc
00000360: 0dbd 5ebd 255c 983b 297b 523d 5c8a 053c
00000370: 5670 c33c 44b9 66bb 879c 1bbd a1ed 0e3d
00000380: 5c40 8b3c e524 643d 3931 6c3d f2cb 96bd
00000390: 4058 53bd f2c4 15bd 036b 3bbd 3aa6 35bb
000003a0: a5aa e8bb abec a93c 52ac 873d 3852 76bd
000003b0: aacb d43b 9d25 a73c 86bd a9bc e1e8 823d
000003c0: 3720 85bd 8d15 fbbb 1f5e 32bd 155a 763d
000003d0: 0649 2dbc 3a6f ff3c 2227 853d 9e28 8a3a
000003e0: 8e7e 31bd 62e2 c73b 38df 9cbc 5c2c f33c
000003f0: 6d14 5fbc 280f 60bc 5c9e 44bc c215 abbc

body.4.bias f4 [128]
0.0057983315 0.030797604 -0.036973786 -0.04785204 -0.052704945 0.015309306 0.05181775 0.019380746
-0.022488 -0.031707153 -0.0020420288 -0.03970769 0.03299774 -0.027531689 -0.042201385 -0.0037479333
0.026495129 -0.01817662 0.05067921 -0.013002983 0.019997388 -0.025893465 0.03513686 0.03899154
-0.018976804 -0.0010939388 -0.0115783205 0.01387339 0.05084872 0.018836057 0.011522111 -0.013052102
-0.045634642 0.014421475 -0.018084865 0.018276054 0.006519115 0.01700815 0.058326993 0.060178977
-0.034506936 0.037307315 0.033443585 -0.024425292 -0.010051718 0.031381644 0.03068731 0.0006232094
-0.011504625 0.048593815 -0.024091251 0.0064261337 -0.011629318 0.028133404 0.049567237 0.062421083
-0.028604424 0.022117896 0.034765366 0.028425712 0.06080618 -0.060805034 -0.03279601 -0.004136568
0.06096656 0.0054065883 -0.056780096 -0.035931088 -0.0024502168 -0.0412385 0.030791664 0.01242807
0.052836787 0.043117117 -0.047381464 -0.01749952 -0.050251476 0.059702296 -0.03511375 0.01081267
-0.023921855 0.0013242203 -0.037694957 -0.053623162 -0.02421359 -0.047714192 -0.033876196 -0.03154419
-0.022647336 -0.014411201 -0.037770107 -0.05311247 -0.01769862 -0.0044182474 0.012396906 -0.011799866
-0.025070535 0.01706654 0.027057094 0.0036907725 0.030976085 -0.022107588 -0.031544115 -0.01743321
0.0015919615 -0.009767803 0.018456561 -0.03457529 0.041889124 -0.06332729 0.021232953 -0.022388784
-0.028330952 0.039704163 0.057211924 -0.060331043 -0.053484023 -0.032717653 0.0343669 -0.01973694
0.028977474 -0.047849014 -0.0012784454 -0.03350354 0.04909665 0.05279709 0.011480422 -0.037810408
00000000: eeff bd3b 424b fc3c d371 17bd 8000 44bd
00000010: 24e1 57bd e2d3 7a3c d93e 543d 5fc4 9e3c
00000020: c138 b8bc 5cdf 01bd 8fd3 05bb 88a4 22bd
00000030: a328 073d 238a e1bc 5cdb 2cbd e39f 75bb
00000040: 500c d93c 23e7 94bc 0195 4f3d 770a 55bc
00000050: 90d1 a33c 881e d4bc abeb 0f3d 98b5 1f3d
00000060: 3e75 9bbc 7f62 8fba ffb2 3dbc 374d 633c
00000070: bf46 503d 134e 9a3c 3cc7 3c3c 7cd8 55bc
00000080: 64eb 3abd 0d48 6c3c b626 94bc aab7 953c
00000090: 4d9e d53b ad54 8b3c 49e8 6e3d 3b7e 763d
000000a0: 2557 0dbd 8ecf 183d 24fc 083d 8d17 c8bc
000000b0: f6af 24bc 0a8a 003d f463 fb3c e05e 233a
000000c0: e57d 3cbc 4f0a 473d 045b c5bc 5192 d23b
000000d0: e588 3ebc 0678 e63c 0407 4b3d 40ad 7f3d
000000e0: d353 eabc 9730 b53c 2166 0e3d 0add e83c
000000f0: e70f 793d b30e 79bd 1c55 06bd 0c8c 87bb
00000100: 12b8 793d c029 b13b 3f92 68bd 7a2c 13bd
00000110: d193 20bb b4e9 28bd cd3e fc3c 1b9f 4b3c
00000120: 636b 583d 939b 303d 1113 42bd 275b 8fbc
00000130: 7ed4 4dbd 658a 743d 6fd3 0fbd a027 313c
00000140: c4f7 c3bc 7691 ad3a 0766 1abd f6a3 5bbd
00000150: 945b c6bc f56f 43bd c4c1 0abd 7b34 01bd
00000160: e886 b9bc f51c 6cbc d4b4 1abd 768c 59bd
00000170: b2fc 90bc f2c6 90bb 641c 4b3c 3a54 41bc
00000180: b960 cdbc 21cf 8b3c d7a6 dd3c e3e0 713b
00000190: 8fc1 fd3c f91a b5bc 6734 01bd 17d0 8ebc
000001a0: 5da9 d03a 2309 20bc 3732 973c d29e 0dbd
000001b0: ee93 2b3d bdb1 81bd bbf0 ad3c af68 b7bc
000001c0: 5016 e8bc d5a0 223d 0d57 6a3d af1d 77bd
000001d0: 1012 5bbd f202 06bd 4ec4 0c3d 5daf a1bc
000001e0: 2b62 ed3c 54fd 43bd 8291 a7ba 023b 09bd
000001f0: 9219 493d c341 583d 6118 3c3c 16df 1abd

move_head.weight f4 [5, 128]
0.052302066 -0.084884934 0.07550892 0.007070214 -0.05209291 -0.050039522 -0.07084748 0.08034571
-0.08444907 -0.0077647544 -0.047409467 -0.027098222 -0.08846523 -0.011669214 -0.03433708 0.066857524
-0.07568037 -0.08671353 -0.00077616354 0.0066812946 0.06522667 -0.05369288 -0.037651274 0.0071342597
0.027817763 0.0022355572 0.008488075 -0.055902135 0.006837925 -0.07162283 0.027150955 0.04231722
-0.032493938 0.04931698 0.06920418 -0.015206335 0.007126009 0.013353259 -0.049019065 0.077865325
0.022890387 -0.07165258 -0.010980322 -0.040500112 -0.074665084 0.07002947 -0.07672742 0.03527433
0.06485695 0.075930275 0.03612717 -0.012530344 0.06766869 0.019299226 0.055419955 -0.07942338
0.0112348255 -0.05773404 -0.05623208 0.040538162 -0.07113199 0.024795994 0.016932538 -0.05732581
-0.07486105 0.0049678185 -0.03479939 0.02128398 0.043237127 -0.008187849 0.040534195 -0.06363631
0.07768465 -0.08574264 -0.03030319 0.00815859 0.03066892 0.021121014 0.056509104 0.05436342
0.041727025 0.033576056 -0.0754697 0.069722585 -0.062482323 0.08463715 -0.030384721 0.04610773
0.050549403 -0.00078264147 0.035127163 0.0006479017 -0.0020355403 -0.019369686 -0.084408924 0.07374814
0.04951668 -0.05192678 -0.070554316 0.008907276 0.0065823714 -0.065464966 -0.004759354 -0.005540738
-0.015906088 -0.020566273 -0.091704756 0.06807841 0.05712982 0.05324951 -0.023709824 0.049794495
-0.040034365 -0.03424904 0.039106548 -0.021025885 -0.08558408 -0.073686756 -0.07319102 -0.018620905
0.0020840566 0.06925764 0.05500406 0.07354967 0.0058169584 0.04732982 0.05827316 -0.0058705984
0.015527426 0.06521771 0.07338852 0.023938293 0.045812186 0.025059097 -0.06907062 0.03925318
0.05265877 0.012396052 0.034727834 -0.050088804 -0.09460471 0.05422693 -0.07451567 0.05112704
-0.05589728 0.08824897 0.013115785 -0.057437573 -0.04098748 0.038368165 0.064992696 -0.081031695
0.051201772 0.012120343 -0.06732431 0.00983932 -0.0574418 0.06464376 -0.051247023 -0.047722835
0.06542199 -0.051992904 -0.0043724338 -0.06903742 0.0028201921 -0.08338308 -0.024796868 -0.026980307
0.09594961 -0.063735485 -0.042964824 0.023392264 0.029401112 -0.09087163 -0.056091882 -0.01994243
-0.015585408 -0.06711403 -0.029263876 0.03473321 -0.026568376 -0.015333715 0.023941724 0.00030159185
0.018333726 0.0056066858 0.012020514 -0.039568115 0.038069926 0.045165982 -0.077905975 0.08984834
-0.066781804 0.08907191 -0.05469536 0.06295047 0.0069013787 0.07807688 -0.019135224 0.07699308
0.00014655657 0.093214974 0.03701805 -0.076341085 0.016202444 0.014762204 -0.029909965 0.09020495
0.094220735 -0.025147043 0.07490388 0.063650526 0.010621483 -0.039655272 0.014392396 0.08471767
0.004890691 0.06232706 -0.03510683 -0.0018599506 -0.03356027 0.04617286 -0.026637433 -0.014380391
0.0032997022 0.06583279 -0.03597059 -0.020822728 0.077045925 0.034716975 0.00013373196 -0.016566841
0.03626582 -0.034221068 -0.08973315 0.08575711 -0.015557732 0.07910559 -0.05885198 -0.019981574
-0.11369579 0.026579274 -0.061768822 -0.062851556 -0.053688135 0.039587054 0.03711 -0.07490066
-0.056130704 0.045958742 0.02104028 -0.07600979 0.0036476846 0.09023564 -0.05039335 -0.08269339
00000000: b13a 563d 27d8 adbd 6ca4 9a3d 41ad e73b
00000010: 605f 55bd 3ef6 4cbd 7c18 91bd 4b8c a43d
00000020: a2f3 acbd 7b6f febb 6e30 42bd 17fd ddbc
00000030: 422d b5bd 3b30 3fbc 0aa5 0cbd 99ec 883d
00000040: 4ffe 9abd dd96 b1bd 7477 4bba c3ee da3b
00000050: 8f95 853d 11ed 5bbd 3938 1abd 82c6 e93b
00000060: 14e2 e33c 6d82 123b 9111 0b3c a3f9 64bd
00000070: ac10 e03b feae 92bd ae6b de3c d254 2d3d
00000080: 5d18 05bd 9a00 4a3d ecba 8d3d fe23 79bc
00000090: 4c81 e93b a1c7 5a3c 37c8 48bd db77 9f3d
000000a0: 9f84 bb3c 96be 92bd cfe6 33bc 72e3 25bd
000000b0: 02ea 98bd 9c6b 8f3d 4423 9dbd d17b 103d
000000c0: b8d3 843d 5581 9b3d 15fa 133d 124c 4dbc
000000d0: e295 8a3d 6919 9e3c 0900 633d baa8 a2bd
000000e0: 4612 383c 877a 6cbd 9c53 66bd 580b 263d
000000f0: a6ad 91bd f820 cb3c 1bb6 8a3c 78ce 6abd
00000100: c050 99bd 15c9 a23b ce89 0ebd be5b ae3c
00000110: 6a19 313d 5426 06bc 2f07 263d c153 82bd
00000120: 2119 9f3d d699 afbd 653e f8bc 9bab 053c
00000130: 633d fb3c fa05 ad3c 1776 673d 2dac 5e3d
00000140: f5e9 2a3d 0c87 093d dc8f 9abd b7ca 8e3d
00000150: 77ed 7fbd 3e56 ad3d 61e9 f8bc 76db 3c3d
00000160: e40c 4f3d 2e2a 4dba 80e1 0f3d f2d7 293a
00000170: b366 05bb 2dad 9ebc 96de acbd 4409 973d
00000180: 01d2 4a3d 2db1 54bd c87e 90bd d3ef 113c
00000190: efb0 d73b 7f12 86bd 5bf4 9bbb 148f b5bb
000001a0: 7c4d 82bc 9a7a a8bc b4cf bbbd b26c 8b3d
000001b0: f500 6a3d 281c 5a3d 1b3b c2bc 50f5 4b3d
000001c0: 13fb 23bd b948 0cbd 302e 203d 7a3e acbc
000001d0: b546 afbd 15e9 96bd 2ce5 95bd de8a 98bc
000001e0: ab94 083b f3d6 8d3d f04b 613d 36a1 963d
000001f0: 2f9c be3b eadc 413d d6af 6e3d 265e c0bb
00000200: bf66 7e3c dd90 853d b84c 963d 3d1a c43c
00000210: 8fa5 3b3d bc48 cd3c e674 8dbd f1c7 203d
00000220: b9b0 573d cf18 4b3c c63e 0e3d eb29 4dbd
00000230: 1dc0 c1bd 0f1d 5e3d ac9b 98bd 966a 513d
00000240: 8cf4 64bd e0bb b43d 97e3 563c a943 6bbd
00000250: 7de2 27bd f027 1d3d e41a 853d f2f3 a5bd
00000260: f3b8 513d 6794 463c 54e1 89bd 1935 213c
00000270: 1848 6bbd f363 843d 66e8 51bd 0579 43bd
00000280: f7fb 853d 83f6 54bd a246 8fbb 7e63 8dbd
00000290: f9d2 383b c0c4 aabd cd22 cbbc ce05 ddbc
000002a0: 3b81 c43d c087 82bd e2fb 2fbd 22a1 bf3c
000002b0: 9ada f03c e81a babd 9ac0 65bd 4f5e a3bc
000002c0: f059 7fbc 1573 89bd ccba efbc 6944 0e3d
000002d0: eca5 d9bc 433a 7bbc 6f21 c43c f91e 9e39
000002e0: 9c30 963c 4ab8 b73b b1f1 443c 2d12 22bd
000002f0: 36ef 1b3d f7ff 383d 2b8d 9fbd 6802 b83d
00000300: e6c4 88bd 556b b63d 3e08 60bd 2dec 803d
00000310: f624 e23b c5e6 9f3d 79c1 9cbc 8cae 9d3d
00000320: fbac 1939 7ee7 be3d 3da0 173d b758 9cbd
00000330: fdba 843c 2cdd 713c be05 f5bc 5fbd b83d
00000340: cdf6 c03d 2c01 cebc 3567 993d 355b 823d
00000350: bb05 2e3c 916d 22bd 16ce 6b3c 7580 ad3d
00000360: 1742 a03b a94a 7f3d 2ecc 0fbd 96c9 f3ba
00000370: 7e76 09bd c11f 3d3d bf36 dabc bb9b 6bbc
00000380: d13f 583b 58d3 863d e655 13bd 6d94 aabc
00000390: 41ca 9d3d 6333 0e3d 663a 0c39 2fb7 87bc
000003a0: 788b 143d 642b 0cbd 04c6 b7bd 6ca1 af3d
000003b0: dce5 7ebc 1d02 a23d c60e 71bd 66b0 a3bc
000003c0: 57d9 e8bd c7bc d93c 4e01 7dbd 51b8 80bd
000003d0: 17e8 5bbd 0926 223d a800 183d 8465 99bd
000003e0: 4fe9 65bd 3c3f 3c3d aa5c ac3c 05ab 9bbd
000003f0: fe0d 6f3b 77cd b83d 4269 4ebd 275b a9bd

move_head.bias f4 [5]
0.055781376 -0.023115318 0.056538913 -0.03563363 0.089372784
00000000: 037b 643d 565c bdbc 5995 673d 92f4 11bd
00000010: 1409 b73d
