checkpoints/simple_world_comm_v3_scratch/simple_world_comm_v3_adversary_0_ep125.pt (torch, 437311 bytes, 8 tensors)

body.0.weight f4 [256, 34]
000000 9c 60 83 3d e0 b9 fa bd db c0 ff 3d 78 5d 0a 3e
       0.06414911 -0.12242484 0.12487956 0.13512218
000010 9c 77 84 3b 62 12 3e 3d b1 26 b5 3d 71 7a d1 3c
       0.004042579 0.04640425 0.088452704 0.02557108
000020 30 40 b9 bd 0c cd 07 be a2 a0 f4 bd ae e1 a6 3d
       -0.09045446 -0.13261813 -0.11944701 0.08148514
000030 e6 a8 01 3e 17 72 d8 3d 90 e8 1c be 7a be 20 be
       0.12662086 0.10568636 -0.1532309 -0.15697661
000040 e0 fe 2d be 6d 03 23 3e 64 6b 45 3d da fc 28 be
       -0.16991758 0.15919276 0.04819812 -0.16502705
000050 5b 05 3c bd c5 e6 d1 bd 19 38 94 3d da 0d d6 bc
       -0.045903545 -0.10249094 0.07237262 -0.026129652
000060 36 70 2c 3d e4 a7 6c 3d 3f 83 3f 3c be 43 27 3e
       0.0420992 0.0577773 0.011689006 0.16334435
000070 a3 76 9b bd 6f f6 1e bd 61 c2 6e 3c 58 c5 19 3e
       -0.075909875 -0.038809236 0.014572711 0.15016687
000080 77 fc bf 3d 69 3d ca ba 7b 38 d4 3d 10 dc ea bd
       0.09374326 -0.0015429679 0.10362335 -0.11467755
000090 2e 2b 67 3c e2 19 2e 3d bf d8 0d 3c 14 9f 25 be
       0.014109416 0.042505153 0.008657633 -0.16173965
0000a0 d9 87 d1 bd 22 39 ee 3d f9 2a b3 3c 9a 5b 2b 3e
       -0.10230989 0.11631991 0.021871077 0.16734162
0000b0 73 2c fe 3c e2 a8 64 3d 4b 64 1f be 6e 45 5b 3d
       0.031027054 0.05582512 -0.15565602 0.05353301
0000c0 cf f3 97 bd 87 89 28 3d c6 bb 47 bc 40 62 1b bc
       -0.0741955 0.04114678 -0.012190765 -0.009483874
0000d0 bc 86 05 3e f0 33 b1 3d be 82 03 be 7c 20 18 be
       0.13039678 0.086524844 -0.12842843 -0.14856142
0000e0 72 41 ae 3d b9 fa a8 bd 04 4f 03 3e dd 07 b3 bd
       0.085085765 -0.082509466 0.12823111 -0.08741734
0000f0 7d 22 05 be 8f 18 68 bc f1 ef 88 bd 85 06 24 be
       -0.13001437 -0.0141660115 -0.0668639 -0.16018112
000100 07 27 32 be 17 c0 81 3d d5 68 96 bd ec 32 d2 3d
       -0.173977 0.06335466 -0.07344214 0.10263619
000110 41 aa 07 bd 54 b4 db bd e1 a9 15 be 69 b9 04 be
       -0.03312135 -0.10727754 -0.14615585 -0.12961353
000120 c0 88 c1 3d 32 83 05 be d7 d4 b3 bd 84 ac f5 bd
       0.09449911 -0.13038328 -0.0878083 -0.11995795
000130 87 0c 68 bd 51 28 05 3e 2a 91 a5 bd c7 29 04 3e
       -0.056652572 0.1300366 -0.080843285 0.12906562
000140 6e 07 70 bd 42 de f7 bd f7 36 ba bd 83 70 f6 bd
       -0.058600836 -0.12102939 -0.09092515 -0.12033179
000150 90 2a b6 3d b1 47 00 bd 98 d9 e7 3d bd 18 e1 3c
       0.08894837 -0.03131837 0.113207996 0.027477616
000160 3d ff 27 be a5 ba 01 3c fe 54 10 be 2a e7 fa 3d
       -0.1640596 0.007918035 -0.14094922 0.12251122
000170 8f ab 34 bd a4 44 0c 3e e4 a0 16 3e 38 6c 23 be
       -0.044108924 0.1369806 0.14709812 -0.15959251
000180 60 5d b0 3d 2a fe 87 3c 48 0d 05 be bc 7f ce 3d
       0.0861156 0.016600687 -0.12993348 0.10082957
000190 69 28 09 3d 73 db a4 bc 29 db fa bd 41 e9 0a 3d
       0.033485804 -0.020124173 -0.12248833 0.033913855
0001a0 f3 9a 49 bd 5b 54 0e 3e d2 d1 5d 3d 52 6b e0 bd
       -0.049220037 0.13899367 0.05415518 -0.1095797
0001b0 e8 6b a0 bd 87 fa 05 bd a3 8f 8f 3d d1 45 eb 3d
       -0.078330815 -0.032709625 0.070098184 0.11487926
0001c0 ff 52 04 3d ff 81 25 be 6a 0a 86 bb 8f fd 1d be
       0.032305714 -0.16162871 -0.004090597 -0.15428756
0001d0 66 5d b6 3d ba b5 11 be 2e 42 d5 3d ad e4 bc 3d
       0.08904533 -0.1422948 0.104130134 0.09223304
0001e0 5c 8a c5 bc 24 34 25 be 1d 3e 28 be 18 e5 a8 bd
       -0.024113826 -0.16133171 -0.16429944 -0.08246821
0001f0 88 f3 1c be d5 8f 14 be f4 a9 06 be c9 81 07 3e
       -0.15327275 -0.14507993 -0.1315077 0.13233103
000200 b7 79 01 be f2 21 c6 bb af 28 02 3e 11 60 ff bc
       -0.12644087 -0.006046527 0.12710832 -0.031173738
000210 66 e8 0e bd 12 09 13 3d ad 2e af bd e9 99 e5 bd
       -0.0348896 0.035897322 -0.085538246 -0.11210997
000220 82 f1 19 3e be a8 59 3d d0 e1 c5 3d a5 e8 90 3c
       0.15033534 0.05313944 0.09662211 0.017689059
000230 42 3f 33 be f0 28 8f 3d cc 95 c8 bd 6b 89 01 3d
       -0.175046 0.0699023 -0.097941965 0.031625193
000240 3d 74 af 3c 94 06 13 be 1c a5 08 be 23 0d 17 bd
       0.021417731 -0.14357978 -0.13344234 -0.036877763
000250 05 71 92 bd 13 cb cb 3d 3c c9 68 bd 88 7c 60 3c
       -0.07150463 0.09950843 -0.056832537 0.013701566
000260 89 28 b3 bd fb 7f 47 bd c4 fc cd 3d 9f 21 c6 bb
       -0.08747966 -0.048706036 0.10057977 -0.0060464884
000270 57 3c 67 3d 38 95 ae 3a cd f0 00 3e ef 05 1f be
       0.05645403 0.0013319617 0.12591858 -0.15529607
000280 80 ca 3f bd bd d9 92 bd c7 07 c8 bd 12 c7 21 bd
       -0.04682398 -0.071704365 -0.097671084 -0.03949649
000290 41 f4 f3 3d 13 11 19 3e 9a ff 8e 3d a8 26 1b 3c
       0.11911822 0.1494792 0.06982346 0.009469666
0002a0 a4 fa ae 3c 02 f4 ab 3d 98 a4 de 3d 02 33 6d 3d
       0.02135975 0.0839615 0.108712375 0.057909973
0002b0 40 79 41 3d 7d 4b e0 bd 5c 61 da 3c 01 3c 1e 3e
       0.047234774 -0.10951898 0.026657753 0.15452577
0002c0 94 9b c3 bc 6b c8 f4 bd fd 14 bd 3b 36 8a ea bc
       -0.023877896 -0.11952289 0.0057703243 -0.028630357
0002d0 e1 c9 aa bc 7e 89 27 be a6 5c f2 3d 91 56 19 3e
       -0.020848216 -0.16361043 0.118340775 0.14974429
0002e0 1b c8 3a 3c 5f ef ad bc 92 fd 28 3e 38 48 8c 3d
       0.011400248 -0.021232305 0.1650298 0.06849712
0002f0 c8 b9 e8 3d 1a bf 0d 3e ca 35 fe 3d 39 02 9d 3d
       0.1136356 0.1384243 0.12412603 0.076664396
000300 23 63 aa 3d 31 38 11 be 22 02 e4 3b ce b2 0b be
       0.0831969 -0.14181592 0.006958262 -0.13642427
000310 db 26 9a 3d 41 83 9c 3d 6d 9e 00 3c c5 7c 1e be
       0.07526942 0.07642222 0.007850272 -0.15477283
000320 ad e1 d8 bd 86 33 76 bd 90 1f 02 be 35 1b 52 3d
       -0.10589919 -0.06010773 -0.12707353 0.051295478
000330 2f 79 12 3e 80 33 ff 3d 71 52 2c 3e e0 f6 72 bc
       0.1430404 0.12460995 0.16828324 -0.014829367
000340 95 fe 4c 3d 03 a6 12 bd 96 b5 30 be be c6 0a 3e
       0.050047476 -0.035802852 -0.1725677 0.13552377
000350 e2 c2 24 be 34 14 09 3e ef f6 55 3c 29 a5 26 be
       -0.16089967 0.13386613 0.013059362 -0.16273941
000360 3e de 2e 3d 8d 96 dd bd 33 a1 77 bd 8e f3 2d 3e
       0.042692415 -0.10819731 -0.060456466 0.1698744
000370 ab 58 df 3d 8c e9 37 bc 44 ab e1 3d 70 93 92 bd
       0.10905584 -0.0112251155 0.110189945 -0.07157028
000380 e5 24 a4 bc ef f7 0a 3e dd 6c 1d bd 64 d2 a5 3d
       -0.020037124 0.13571142 -0.0384339 0.080967695
000390 f2 38 b4 bd ae be bc bd 8c 92 1a bc 8f b3 95 3d
       -0.08799924 -0.09216057 -0.009434354 0.07309639
0003a0 a3 38 4f bc d3 f1 ba 3d 00 4b 82 3d ba 46 f0 3d
       -0.012647781 0.091281556 0.06361961 0.1173224
0003b0 62 37 21 be 1f 9d 6c bd fb 1d 19 3e 94 65 d5 bd
       -0.15743783 -0.05776703 0.14952843 -0.10419765
0003c0 b7 63 d1 bd 6b a1 f1 3d 67 d8 20 3e 5c f4 0a be
       -0.10224097 0.11798366 0.15707551 -0.13569778
0003d0 9e 8b ef bd ea c2 d4 bd a2 12 87 3d 6c a6 00 be
       -0.11696552 -0.103887394 0.06595351 -0.12563485
0003e0 f7 a3 13 be c8 8e 91 3c a1 c6 af bd dc 4f 06 3d
       -0.14418016 0.017768279 -0.08582807 0.032791004
0003f0 ad 92 21 3e 59 8e 80 bd 95 5e 22 3e 41 e4 0f 3e
       0.15778609 -0.06277151 0.15856393 0.14051916

body.0.bias f4 [256]
000000 e0 ea 70 3d 46 0b ac bb 40 3c 1e 3c 6b 6a 8c bd
       0.058817744 -0.0052503673 0.009657919 -0.06856235
000010 d9 af 95 3d 97 72 ab ba a9 b3 ed bd ff 3f 23 be
       0.07308931 -0.0013080415 -0.11606533 -0.15942381
000020 c2 f6 6c bd 24 5f 23 3d 0e 73 1e 3d 67 c2 01 3e
       -0.057852514 0.039885655 0.038683943 0.12671815
000030 4f 4e 87 3d 8d d8 db 3d f4 01 fd bb d9 9b 24 be
       0.06606733 0.10734663 -0.00772118 -0.16075076
000040 74 d4 1a bd 3f 7f 0a 3c 4f 38 6f bc 91 0c 11 3b
       -0.037800267 0.008453189 -0.014600827 0.0022132734
000050 1b 3e f8 3d fd a1 8b bd 40 49 08 3e b7 ec 37 3d
       0.12121221 -0.06818006 0.13309193 0.044903483
000060 26 f6 a7 bd 7b 43 b4 3d e0 45 52 bd be 1a 12 3e
       -0.08201246 0.088019334 -0.05133617 0.14268014
000070 f8 7a 10 3e ab c1 04 3e 6f 20 d7 bd 23 a5 0c 3d
       0.14109409 0.12964503 -0.10504233 0.034337174
000080 01 a4 b0 bd dc fa de bb c2 fc e2 3d 4d bc e1 3d
       -0.08625031 -0.006804807 0.11083366 0.11022244
000090 eb e8 8a 3c 8e 63 ea bd 3e 5d e5 bb ae 71 dd bd
       0.016956767 -0.1144477 -0.0069996407 -0.10812698
0000a0 44 ba 15 3e 1d 2c 7a bd 84 3f 1c 3e 89 30 0d 3e
       0.14621836 -0.061077226 0.15258604 0.13788046
0000b0 f6 b3 90 bc 58 a9 29 be dc b8 20 bb 08 7c 20 be
       -0.017663937 -0.16568506 -0.0024524247 -0.15672314
0000c0 9f 47 89 bc 8a cd 36 bd 75 d4 28 3e c0 88 0f 3e
       -0.016757784 -0.04462961 0.16487296 0.1401701
0000d0 02 ac f8 3d 44 9f 82 bd d6 7d a8 bd e3 c9 fd bb
       0.12142183 -0.06378034 -0.08227126 -0.007745014
0000e0 d7 60 18 be 62 f6 db 3d 18 28 c6 3d 89 a8 17 3d
       -0.14880691 0.10740353 0.09675616 0.037025962
0000f0 3c 5d 80 3c 4f 2f f0 bd 55 9c fc bd c9 f4 09 3e
       0.015669458 -0.117277734 -0.123345055 0.13472284
000100 17 23 d7 3d 02 47 09 be b5 dc 16 be 6e a2 a2 3d
       0.1050474 -0.13405994 -0.1473263 0.07941137
000110 45 bc 28 3e 34 f1 ae 3d 39 e2 23 3e 09 ad 0f 3e
       0.16478069 0.085420996 0.16004266 0.14030851
000120 0e e5 2e 3e fe f6 4d bd 15 71 88 bd 02 29 a1 3a
       0.17079565 -0.05028438 -0.06662194 0.0012295546
000130 a5 78 90 3c ef f3 1d 3e 7c 26 0e 3e db 93 cb 3d
       0.017635653 0.15425085 0.13881868 0.099403106
000140 80 64 a1 3c ba 38 18 3e 34 85 ba bd db a7 db 3b
       0.019701242 0.1486539 -0.09107438 0.0067033595
000150 37 c1 21 3e 36 81 88 bd a2 14 b4 3b cf 37 d9 3d
       0.15796362 -0.0666527 0.0054956237 0.10606348
000160 fb 76 5f bd db 82 d0 3b 1d 04 24 be 63 04 c1 3c
       -0.054556828 0.0063632554 -0.16017194 0.023561662
000170 35 3d a6 bd 64 bf ec bd c5 84 58 bd e1 18 f0 3b
       -0.08117143 -0.11559942 -0.052860994 0.0073271845
000180 e8 05 b3 bd ce 11 a6 3d 98 75 90 bd e3 56 ef bc
       -0.08741361 0.08108865 -0.07053679 -0.029216236
000190 e2 86 0c 3e 21 72 32 bd 3d 49 24 be a1 c2 d9 bd
       0.13723329 -0.043565873 -0.16043563 -0.10632826
0001a0 c9 7f 2f be 46 39 d9 bd d2 bc 2a 3e a4 e7 3a 3d
       -0.1713859 -0.10606627 0.16673592 0.045631066
0001b0 d4 d6 af 3d 61 bd ea 3d 57 67 f6 bd b2 45 67 bd
       0.08585897 0.114619024 -0.12031429 -0.05646295
0001c0 cb 5e 14 bc 71 e4 2d 3e 4b 5d 10 be 6b d3 32 be
       -0.0090558035 0.16981675 -0.14098088 -0.17463462
0001d0 9a 56 09 be 4c 97 ee 3d f9 37 a7 bd 5f c0 8c bc
       -0.13411942 0.11649951 -0.08164973 -0.017181573
0001e0 ce dc 02 3e cc f9 c7 3d a5 df d9 bd 67 e4 d3 3d
       0.12779543 0.09764442 -0.1063836 0.10346299
0001f0 f8 5a 97 bd 6b d5 e2 bd 51 bf 16 3d 08 5c cb bc
       -0.07390398 -0.110758625 0.036803547 -0.024824157
000200 bf ce 5b bd 6e 75 20 be ee 92 27 3e 13 60 a3 3c
       -0.053663965 -0.15669796 0.16364643 0.019943273
000210 b8 bd 64 3d df 72 ec 3d fc a5 b1 bc 2d b0 a9 bd
       0.055844992 0.115453474 -0.021685593 -0.08285556
000220 e1 f5 97 3d 70 88 38 bd 77 bd 7f bc ab 59 1f 3e
       0.074199446 -0.045051992 -0.015609137 0.1556155
000230 93 51 04 3e 4f ca fa bd 20 f0 95 bd 17 b3 04 be
       0.12921743 -0.122456186 -0.07321191 -0.12958942
000240 e5 07 9e 3d b2 f1 30 bd 09 29 31 be 96 d2 27 3e
       0.077163495 -0.04319925 -0.1730081 0.16388926
000250 76 4e 27 be 41 db 8d bb 3e 31 d4 3d b8 df 52 3c
       -0.16338524 -0.0043291156 0.10360955 0.0128707215
000260 3d 80 b5 3c 92 28 fa 3c eb 40 9a 3d 8c f9 e5 bd
       0.022155875 0.030536924 0.07531913 -0.11229238
000270 27 23 ce bd 26 c1 25 3d 4a d2 ba bd e7 97 df bd
       -0.100652985 0.040467404 -0.09122141 -0.10917645
000280 ed 18 71 bc b7 5c c0 bc c7 c7 0e be 51 f9 d6 bd
       -0.014715415 -0.02348171 -0.13943397 -0.10496772
000290 b6 b2 9c bd 2a 46 25 3e e9 96 40 3d 1f ef af 3d
       -0.07651274 0.16140047 0.04701892 0.085905306
0002a0 04 8b 91 bd 9d c1 0a 3e df 5c f9 3d fd 7d c1 3d
       -0.07106593 0.1355042 0.12175917 0.094478585
0002b0 c2 df 17 3d b8 48 26 3e 1a f1 92 3a ba ee 05 3e
       0.037078626 0.16238678 0.001121077 0.13079348
0002c0 cc a7 eb 3d 1e c9 b6 ba c9 15 2e 3d 91 7c f7 bd
       0.11506614 -0.0013945436 0.042501245 -0.12084306
0002d0 53 a0 cc 3d 2c 2e 0f 3e 2b b1 0b 3e 53 48 0f 3d
       0.09991517 0.13982457 0.13641803 0.034981083
0002e0 b0 58 f8 b9 02 cc 66 bd 38 71 9d 3d 24 77 cd bd
       -0.00047368323 -0.0563469 0.076876104 -0.1003249
0002f0 d5 e3 19 be 74 90 c3 bd b0 30 ff bd cf 7e f9 3d
       -0.15028317 -0.095490366 -0.12460458 0.1218239
000300 bc 66 0d 3e e5 17 83 3d 0b e9 71 3c b2 a4 8c 3d
       0.13808721 0.06401042 0.014765034 0.06867351
000310 e4 8a a1 3d 9d 6b 32 bd 96 ab f3 3d ca 53 40 3d
       0.078878194 -0.04355966 0.11897962 0.046954907
000320 cd 92 13 be da f4 fc 3c eb 35 52 3d cc 02 0c 3d
       -0.14411469 0.030878473 0.05132095 0.034182355
000330 87 b5 11 be a4 64 f8 bd cf f8 86 3a 34 bb 86 3d
       -0.14229403 -0.12128571 0.0010297539 0.06578675
000340 f0 66 d1 3d e4 83 9c 3d aa c4 37 bd 4b d4 12 bd
       0.10224712 0.07642344 -0.044865288 -0.03584699
000350 2d f2 2a 3e 08 c1 12 3e 9e 15 ca bd 92 4c a6 bc
       0.16693945 0.14331448 -0.098674044 -0.020300183
000360 02 fe 01 3e e7 7a d2 3d 89 58 78 bc d1 4f 6b 3c
       0.12694553 0.10277348 -0.015157827 0.014362291
000370 e4 35 3c 3d 26 fd 16 be 25 3c f6 3d 65 85 ae 3d
       0.04594983 -0.14745006 0.120231904 0.08521537
000380 e8 5d 81 bd 43 99 e2 3d 62 c4 dc 3d 6d 7e 25 3d
       -0.06316739 0.110643886 0.107796445 0.040403772
000390 9e 2a c5 bd f8 b9 e5 3d 97 0c 01 bd a7 17 b4 bc
       -0.09627269 0.11217111 -0.031506147 -0.021983935
0003a0 43 d7 90 bd 40 2a 03 bd 02 7d 0c bd 3d b3 86 3d
       -0.07072308 -0.032022715 -0.034298904 0.06577156
0003b0 dd 74 27 be 78 17 09 3c b6 22 cf bd f7 a9 01 3e
       -0.16353174 0.008367412 -0.101140425 0.12662493
0003c0 5c 27 21 be cc 0d a7 bd 8c fb f8 3d 51 59 58 3d
       -0.1573767 -0.081569284 0.12157354 0.052819554
0003d0 e6 b8 83 3d a7 3d a0 3d 76 97 ff 3b 43 99 e1 bd
       0.06431751 0.07824259 0.007800038 -0.110155605
0003e0 d5 28 c8 3d a6 a4 f2 bd f4 88 a4 3c 74 28 f4 3b
       0.09773413 -0.118478104 0.020084836 0.0074511115
0003f0 61 5b 1a be ef ad 87 bd 8d a0 f8 bd ca 27 69 bd
       -0.15073921 -0.06624972 -0.12139998 -0.05692271

body.2.weight f4 [256, 256]
000000 b2 4a 11 3d 2c b7 93 bb 6c df 62 3d ab 7c 57 3c
       0.035471626 -0.00450792 0.055388853 0.013152282
000010 b5 d4 ea 3b 4b 6e 80 3c 18 a6 67 3d 77 82 b8 bb
       0.00716647 0.015677592 0.056554884 -0.005630787
000020 49 b0 8a 3c 84 c1 59 bd 91 41 79 3d bf d7 78 bd
       0.016929762 -0.053163067 0.060853545 -0.060752627
000030 e7 0a f2 3c 5e db d3 bc ec 50 e0 bc 73 f0 25 bd
       0.029546214 -0.025861438 -0.027382337 -0.040512513
000040 cf 85 11 bd d7 c2 e5 3a fc b1 48 3d 28 67 13 bd
       -0.035528 0.001752938 0.048997864 -0.03598705
000050 d7 ed 2f bc aa 5a ec bb 5b 13 34 bd 25 f2 5d 3c
       -0.010737858 -0.0072129564 -0.04396377 0.013546501
000060 68 4d c5 bc 1a 78 7c 3d b2 d9 c3 3c 6f b6 06 bd
       -0.024084762 0.061637975 0.023907516 -0.032888826
000070 bf c7 60 3d 44 ce 89 3b 82 a1 c8 3c 2d 6b 4d bc
       0.054877993 0.004205497 0.024491075 -0.01253776
000080 84 84 3e bd d3 2c c5 ba b7 41 41 bd 00 cc fa bc
       -0.046513095 -0.0015043266 -0.04718181 -0.030614853
000090 3e 0a 4c bd c8 41 52 bd 76 7d 07 bd 5a 49 06 bd
       -0.049814455 -0.051332265 -0.033078633 -0.032784797
0000a0 aa aa 05 3d 4a 6d 3d bd 4a 31 8e bc ac d8 d8 3c
       0.03263346 -0.046246804 -0.017357487 0.026470505
0000b0 e6 80 44 bc 74 65 5b bc bd b8 88 3c db a9 58 3d
       -0.011993622 -0.0133908875 0.016689653 0.05289636
0000c0 04 0c 54 3d 48 f6 88 bc 2b 18 1a bd 92 92 bf bc
       0.05176927 -0.016718999 -0.037620705 -0.02338532
0000d0 04 ff 0f bc 71 87 04 bc 7b 62 1d 3d 54 13 b4 3b
       -0.008788828 -0.008088932 0.038423996 0.005495468
0000e0 37 94 aa bc 0f 87 4a bd b9 1f 6c bd b9 d5 3c 3d
       -0.020822627 -0.04944521 -0.05764744 0.04610226
0000f0 cb 79 01 bd e5 8c d2 bc 8f 13 f3 bc ac de 3e bd
       -0.03161029 -0.02570195 -0.029672412 -0.046599075
000100 66 aa 4f bd 08 c9 61 3c e3 c0 00 3c bb 2e ac bc
       -0.050699614 0.01378084 0.007858488 -0.021018377
000110 89 e1 80 3c 58 b1 51 3d ca fc 06 bd 5d f8 27 3d
       0.015732544 0.05119452 -0.032955922 0.041008342
000120 b2 18 3b bd 26 e5 77 3d 7e 9a e4 3b 5c 3c dd ba
       -0.04567785 0.060521267 0.0069764247 -0.001687895
000130 2d 9c 20 3b 9c af 38 3d 6c e8 fd bc f4 d3 06 bd
       0.002450715 0.04508935 -0.030994616 -0.032916978
000140 64 a1 c5 3b 57 79 2e bd 09 48 b9 bc d2 de 49 bd
       0.006031202 -0.042596187 -0.022617357 -0.049284764
000150 c4 a9 b6 3c e6 62 3d 3c b8 7b 93 bc db ce 60 3d
       0.022297747 0.011559224 -0.01800333 0.054884773
000160 73 bd 57 bc 2a 36 7c bc 13 ed 5a bd 9c 59 0d 3d
       -0.013167727 -0.015393773 -0.053448748 0.034509286
000170 6e 0e d8 bb 7b fa 70 bd 7f 78 a7 bc cc c2 5e bc
       -0.006593517 -0.058832627 -0.0204432 -0.013596248
000180 b2 f1 81 3c b0 77 45 3d ba d5 3a bd 7b cf c2 3b
       0.01586232 0.048209846 -0.04561398 0.0059451438
000190 0f 04 8b bc 57 cf 6b bd 58 c9 09 3d 19 e4 72 3c
       -0.016969709 -0.05757078 0.033639282 0.0148248905
0001a0 04 b7 f4 bb 12 48 d5 bc d2 1c dc bb 37 98 af bc
       -0.007468106 -0.026035342 -0.006717303 -0.021434886
0001b0 4a c3 03 bd 78 f0 1c bc bd fe f2 3b de 1f 92 bc
       -0.032168664 -0.009578817 0.007415621 -0.017837461
0001c0 65 37 e5 3c 6a 2f 21 3d e5 46 f9 bc 47 80 bd 3c
       0.027980516 0.03935186 -0.030429313 0.023132456
0001d0 e5 20 ed bc f5 10 3a 3d c0 40 5d 3c 08 98 c6 3b
       -0.02894635 0.045426328 0.013504207 0.006060604
0001e0 a3 06 2e 3c c5 4f 22 3d d3 78 71 bd 47 80 b9 3c
       0.0106216995 0.039626855 -0.058953118 0.022644175
0001f0 6b b7 a8 bc e9 a6 58 3d db 30 7e bc c0 be b8 bc
       -0.020595273 0.052893553 -0.015514578 -0.022551894
000200 9e b8 b3 3c cc 8e d6 3c e7 55 58 3d 74 48 2d 3d
       0.021938618 0.026191138 0.052816298 0.042305425
000210 f4 96 17 3c bb 6c 1d 3d 35 14 f7 bc f3 d6 ec 3b
       0.009252299 0.03843377 -0.030161003 0.0072277724
000220 ad 82 41 bd 69 40 08 3d 02 a7 86 bd f5 d5 1c 3d
       -0.047243763 0.03326455 -0.06574823 0.038289983
000230 38 72 ad bc 43 d3 2a bd 7b 24 01 bc 73 07 4b 3b
       -0.021172628 -0.04170538 -0.007882233 0.0030979782
000240 83 23 3d bd dc 97 80 3d 19 e9 4f bd b9 46 ea bc
       -0.046176445 0.06278965 -0.05075941 -0.028598176
000250 e9 bb 15 bd bf a8 b9 bc 5c d8 2a 3d eb 0c 2e bd
       -0.03655616 -0.022663472 0.041710243 -0.04249279
000260 f4 2f e2 3c a7 54 53 3d 91 cb 0a 3d 50 c4 2b 3c
       0.027610756 0.051594403 0.033885542 0.010483816
000270 a7 64 96 3c 44 80 06 bd 3e 47 5b bd 09 b7 26 bd
       0.018358542 -0.032837167 -0.05353474 -0.0407019
000280 34 f1 36 bc 38 87 1f 3d dd a2 3f 3d 17 81 5d bd
       -0.011165906 0.038947314 0.046786178 -0.054078188
000290 3c 5f 63 3d c7 57 f7 3b 32 67 39 bd 4b 78 12 3d
       0.055510744 0.0075483057 -0.04526443 0.03575925
0002a0 d6 28 b6 bc 61 94 5c 3d f9 88 1f bd bf ed 29 bd
       -0.022236269 0.053852443 -0.038948987 -0.041486498
0002b0 82 7d 32 3d 8b 27 29 3d 02 57 81 bd c2 de 0d 3d
       0.043576725 0.041297477 -0.063154235 0.034636267
0002c0 e3 76 85 3c 57 6c 0f bd 45 f5 4a bd 6d 0a 1b bc
       0.016292041 -0.03501543 -0.049550314 -0.009462935
0002d0 8f be de bc 5d 67 32 3d f3 f1 df bb b2 60 53 bc
       -0.027190475 0.043555606 -0.0068342625 -0.012901472
0002e0 0b d3 18 3d 13 2a aa 3c 4c d9 12 bd 58 0f a3 3c
       0.03731064 0.020772016 -0.03585176 0.019904777
0002f0 b4 3c 24 bc 98 c9 e3 bc d2 79 59 3d 1b 2f 1e 3d
       -0.010024238 -0.027806088 0.053094693 0.038619142
000300 fc f8 02 bd b3 19 a7 b9 bc 18 1b 3d 5c 48 27 bd
       -0.03197573 -0.0003187187 0.037865385 -0.04084049
000310 e9 46 11 3c 69 32 0a 3d 06 22 12 bd 28 42 48 bb
       0.008867004 0.03373948 -0.03567698 -0.003055701
000320 d0 46 94 3c 44 d5 4f bd 9a ba 35 3d d0 66 7a 3d
       0.018100172 -0.050740495 0.04436741 0.061133206
000330 3b 9a b2 bc da f2 0b 3d 9d 1d 59 3d 76 b3 86 bc
       -0.021802058 0.03416715 0.053006757 -0.016442996
000340 42 b6 62 3c 61 79 26 3d 83 1d 28 bd 61 e3 ed 3c
       0.013837399 0.0406431 -0.04104377 0.029039087
000350 6f d0 3c bc 5e 49 ec 3c 99 89 15 bd 19 a7 06 bd
       -0.011524304 0.028843578 -0.036508176 -0.0328742
000360 73 58 28 3d 6d 3c 86 3c c1 d7 49 bd 7b 39 fb bc
       0.041099977 0.016386235 -0.049278025 -0.030667057
000370 fb 4f da 3c a6 a0 62 3d 7d 66 d8 bb b9 c5 41 bd
       0.026649466 0.055328988 -0.0066040144 -0.047307704
000380 39 a7 16 3c e7 d4 a9 3c 2e 72 1b bd ac 99 1f 3c
       0.009195142 0.020731403 -0.037950687 0.009741228
000390 1c 8e c4 3b 98 16 3a 3d c4 7f 62 bd dc dd 62 3d
       0.005998386 0.045431703 -0.055297628 0.055387363
0003a0 23 c6 02 bc 56 81 45 ba 3c 6a 17 bd 88 28 4e bd
       -0.00798181 -0.0007534226 -0.036966547 -0.050331622
0003b0 12 68 2f 3c 88 46 05 3d fc 47 06 bd 6c 99 04 bd
       0.010705965 0.032537967 -0.032783493 -0.032372877
0003c0 1e 27 0b bd f4 f8 ba bc 63 a8 70 3d bf d8 e4 3c
       -0.033972852 -0.022823788 0.058754336 0.027935384
0003d0 53 cc 38 3d ad 44 0e bd a3 b2 42 3d 62 e4 46 b9
       0.045116734 -0.034733463 0.047533643 -0.0001896783
0003e0 b5 f0 05 bd 98 12 92 3c fe 39 06 3d 63 a1 00 bd
       -0.03270026 0.017831132 0.03277015 -0.03140391
0003f0 fb 1f 18 3c 93 6d 28 3d db 47 1a bd 59 2d 6d 3d
       0.0092849685 0.041120123 -0.037666183 0.057904575

body.2.bias f4 [256]
000000 5c e0 16 bd 04 40 df b9 4f a3 5b bd a7 a6 5d 3d
       -0.03683506 -0.0004258157 -0.05362254 0.05411401
000010 cb 05 e3 bc af 20 0a bd bd 8c 3d bd 48 b3 e4 bc
       -0.027712723 -0.033722576 -0.046276797 -0.02791752
000020 f1 e4 5b bd 23 b9 e5 3c ef ff 6b 3d aa ec 09 bd
       -0.053685132 0.028042382 0.057617124 -0.033672966
000030 29 65 64 bd 30 21 4c 3c 68 80 5a 3d 50 85 21 3d
       -0.055760536 0.012459084 0.053345114 0.039433777
000040 0c 38 43 bc aa f4 64 bd 54 99 30 3d c1 9b ae ba
       -0.011915218 -0.055897392 0.043114975 -0.0013321565
000050 5b a7 0b 3d 56 29 35 3d e5 f0 7b 3d 5c 6c 30 3d
       0.03409515 0.044228874 0.06150903 0.04307209
000060 e7 03 23 3d 0b fa 3b 3d cd 6b bf bb 1c 41 1f 3d
       0.039798643 0.045892756 -0.0058417083 0.038880453
000070 1a 5b 7e 3d f5 64 71 bd 56 48 61 bd 11 1b e1 bb
       0.0620986 -0.05893417 -0.055000626 -0.0068696816
000080 12 7b 34 3d 56 f5 3b bc 06 22 33 bc 89 36 86 bc
       0.04406268 -0.011472067 -0.010933405 -0.016383426
000090 54 92 d7 3a 7e 49 b5 bc 86 48 bb bc ec 9b 48 3d
       0.0016446807 -0.02212977 -0.02286173 0.048976824
0000a0 a1 05 b0 3c ba bf 9c bc e9 c7 64 3b c8 c1 57 3d
       0.02148706 -0.019134391 0.0034909195 0.05267504
0000b0 55 00 96 3a 4c 1f 83 bd ae fc d3 bc 35 c7 9c bc
       0.0011444191 -0.06402454 -0.025877323 -0.019137958
0000c0 91 55 29 bd e4 12 67 3b 26 28 7e bc ec 3c 0e 3c
       -0.041341368 0.0035259062 -0.015512502 0.008681517
0000d0 2c da aa 3c 22 94 7f 3d a6 6e 66 bd 14 76 bd bc
       0.020855986 0.06239713 -0.056257866 -0.023127593
0000e0 73 c9 6f 3b 0d 66 36 bd 5e 4f 5c 3d d0 4f e8 bc
       0.003658858 -0.044530917 0.053786628 -0.02835837
0000f0 2b b8 fc 3b 51 18 57 bd e4 62 1c 3d 13 9c 27 bd
       0.007712384 -0.052513424 0.038180247 -0.04092033
000100 44 88 d9 3b e4 c1 82 bd 32 cf 73 3d ce b9 37 3d
       0.0066385586 -0.06384638 0.05952377 0.04485493
000110 ed e2 7d ba e1 77 89 bc c1 82 30 bc 16 e2 3e 3d
       -0.00096849987 -0.016780796 -0.010773362 0.04660233
000120 fb ec 34 bc 97 c7 c7 3c f2 f2 18 bd 95 78 80 bd
       -0.011042829 0.024387164 -0.037341066 -0.06272999
000130 9a f7 a6 3c 36 36 b0 bc 54 a1 05 3d 3f 7e 39 bd
       0.020381738 -0.021510225 0.032624558 -0.045286413
000140 00 86 11 bd b9 64 9d 3c aa 11 02 bb aa 1c 80 3c
       -0.035528183 0.019213067 -0.0019846954 0.015638668
000150 e3 8a e1 3b 3c ff 3a bc 78 fb 2b 3d 43 9c 9a bc
       0.0068830117 -0.011413392 0.041987866 -0.01887334
000160 c7 6c 9d 3b 0a 67 82 3c 38 35 3b bd bc 58 48 bd
       0.004804227 0.015918273 -0.04570505 -0.04891275
000170 2a 1d a2 3c f3 11 6d 3d e9 7b 58 3d 26 91 3f 3d
       0.019789297 0.057878446 0.052852545 0.046769284
000180 7b e7 b2 3b ea a4 3b 3d 65 8b fa bc d3 b6 b7 ba
       0.0054597235 0.04581157 -0.030584047 -0.0014016278
000190 51 7c aa bc 94 ad 0b bd 9b 59 c3 bb b8 6a 3d bd
       -0.020811232 -0.034101084 -0.0059616095 -0.046244353
0001a0 f2 2a 2b bd 93 e4 b3 3c 8d 5a 1a 3b d2 b8 53 3d
       -0.041789003 0.021959579 0.0023552508 0.05168993
0001b0 97 c3 7a 3d 2e b1 35 bc d1 28 e5 3b 8f ee 69 bd
       0.061221685 -0.011089606 0.006993391 -0.057112273
0001c0 a8 20 23 bd 56 81 9f bb 90 4a e6 3c 10 41 5e bd
       -0.039826065 -0.004867713 0.028111726 -0.054261267
0001d0 ef e7 95 bb 69 a3 4a bd 42 31 58 bd eb 1c f8 bc
       -0.004574768 -0.049472246 -0.05278135 -0.030287227
0001e0 e7 46 d4 bc 7f 80 22 bd 06 74 cb bc 12 98 24 bb
       -0.025912715 -0.039673325 -0.024835598 -0.0025115055
0001f0 f0 ed 48 3d c7 b0 3a 3c e3 a6 83 3c f5 20 c7 3b
       0.04905504 0.011394686 0.016070789 0.006076927
000200 87 68 b1 3c 06 32 3a 3d 54 b0 82 bc e7 c1 52 3d
       0.021656288 0.045457862 -0.01595322 0.05145445
000210 fa 60 7f bd 9b 43 84 bb 16 4e 4c 3d 86 df 2b bc
       -0.062348343 -0.0040363795 0.049879156 -0.010490304
000220 37 ce af bb 57 df f7 ba 67 91 f2 bc 50 d2 6a bd
       -0.005365159 -0.0018911165 -0.029610349 -0.057329476
000230 39 38 11 3d 22 27 aa 3b dc 63 6f bd 22 7c 45 bc
       0.03545401 0.0051926533 -0.058444843 -0.012053521
000240 f7 5a 64 3d 2b 83 53 3d f7 60 1c bc 3d aa 3b bd
       0.055750813 0.051638763 -0.009544603 -0.04581665
000250 2c 94 5a 3d 08 05 bc 3c 55 d9 ed bc 4a 77 b6 bb
       0.053363964 0.022951618 -0.029034296 -0.0055684196
000260 98 72 c6 3c 53 97 2e bc 01 77 65 3d 00 ef 78 3d
       0.024224564 -0.010656196 0.056021694 0.060774803
000270 88 d7 45 3a 92 39 8b bd b5 bf bf 3b e4 4e 73 3d
       0.000754707 -0.0679809 0.0058517107 0.059401408
000280 52 fd 84 bd 8f 93 97 3c b5 14 ec bc 49 92 ba 3c
       -0.064936295 0.018502979 -0.028818468 0.022774832
000290 73 f0 81 3d 44 62 1e 3d 73 31 86 bc 3b f4 69 3d
       0.0634469 0.038667932 -0.016381001 0.057117682
0002a0 b7 43 d0 bb a7 3e 40 3d 9b 3a a6 3c 61 a0 1c bd
       -0.0063557285 0.04693475 0.020291617 -0.038238887
0002b0 b9 7f 57 bd 3b d3 84 bb 08 9a d2 3c 37 38 52 bd
       -0.05261204 -0.004053501 0.025708213 -0.051323142
0002c0 ea 1b 6a 3d 9a f3 09 bd 0f 7c 47 bd 35 44 38 3d
       0.057155527 -0.033679582 -0.048702296 0.044986922
0002d0 92 ce 0b bd ff 03 7e bd 72 43 44 3c fd b8 40 bd
       -0.034132548 -0.06201553 0.011978971 -0.04705142
0002e0 be 35 68 3d a7 e5 68 3c 3a 98 de 39 cc 07 78 bc
       0.056691878 0.01421491 0.00042456557 -0.015138578
0002f0 ad e8 68 bc 42 a3 83 bd f2 f9 f5 bc 5e 99 b2 3a
       -0.0142156305 -0.06427623 -0.03002641 0.0013626029
000300 75 5c 4d 3d 95 a4 d7 3c a6 38 1d bd f3 3c 90 bc
       0.050137002 0.026323596 -0.038384102 -0.017607188
000310 b5 0f 1a 3d f3 db 7b bc 7d 0f cb bc 2f ca 5f bb
       0.037612636 -0.015372264 -0.024787659 -0.003414761
000320 3e c9 15 3c 3b e6 b2 bb 2a 0d 4a bd 83 d9 4b 3d
       0.009142218 -0.0054595745 -0.04932896 0.049767982
000330 4c 36 fb bc 40 6e f9 bc ab e6 93 bc 60 91 f1 bc
       -0.03066554 -0.03044808 -0.018054327 -0.029488266
000340 1e fd 55 3d a7 79 89 3a 65 4e 71 bb cc 09 9e bc
       0.052243344 0.0010488526 -0.0036820408 -0.01929178
000350 7f 9a 4d 3c 10 99 2d bd 08 da a8 38 23 fa 5e bd
       0.012549042 -0.0423823 8.051476e-05 -0.054437768
000360 1a 57 5c bd 7a 3e df 3b 36 84 79 3d 6a 4a 58 3d
       -0.053794004 0.0068128677 0.0609171 0.05280534
000370 7a af 37 bc 34 8b 54 3d 88 f2 6f 3c 4c 28 d0 bc
       -0.0112112705 0.051890567 0.014645226 -0.02540984
000380 46 a0 b5 3b a1 6a eb 3c ba f3 77 bd ca 3d 1d 3d
       0.0055427877 0.028737368 -0.06053517 0.038389005
000390 92 07 6f bd 9c 4e 8c 3c 15 a4 57 3d 63 7e 48 bd
       -0.05835683 0.017127328 0.052646715 -0.048948657
0003a0 4e be 54 bc 2a fb 42 bd c0 12 18 bd eb ba 37 bb
       -0.012984825 -0.04760281 -0.037127256 -0.0028034996
0003b0 4f 71 e7 bb 28 c8 43 3d 62 c5 73 3d 5c b5 51 3d
       -0.007063068 0.047798306 0.05951441 0.05119835
0003c0 d5 93 5c bd f9 dd ee 3a 50 26 3d 3d 1f 33 9b bc
       -0.05385192 0.0018224112 0.046179116 -0.018945275
0003d0 cd 64 29 3d 0d 4e 67 3d d8 8b 75 3b 6e 4f 95 bc
       0.041355897 0.05647092 0.0037467387 -0.018226352
0003e0 3f 6c 43 bd ad ab 63 3c 82 0f d8 3c 58 62 3f bd
       -0.047710653 0.013895911 0.026374582 -0.046724647
0003f0 41 86 fe bc 37 80 a8 3c c9 20 28 bd 42 ca ff 3c
       -0.031069877 0.02056895 -0.04104689 0.031224374

body.4.weight f4 [128, 256]
000000 c4 a7 48 bc 17 30 7b 3d 6c d0 cf 3b ea 42 20 bd
       -0.01224703 0.06132516 0.0063419845 -0.039126314
000010 22 05 54 3c e9 6e 2a 3d 85 f3 df 3c fa 5e 9c bc
       0.012940677 0.04160968 0.027337799 -0.019088257
000020 ca d5 da 3c b1 70 af 3c 3d 00 aa 3b 11 bc ff bc
       0.02671327 0.02141604 0.0051880167 -0.031217607
000030 88 5f a6 bc 4d ae 2f 3d 4f f0 7d 3d 49 40 90 3c
       -0.020309225 0.042890836 0.061996754 0.017608779
000040 5d a4 17 3d 54 7e e0 bc 1e dd df 3c 7e 32 3f 3d
       0.037021983 -0.027403988 0.027327117 0.046679012
000050 c5 63 b7 3b 95 59 73 bd 38 16 cb bc 23 a3 e5 bc
       0.0055966103 -0.059411604 -0.024790868 -0.028031891
000060 cb 4a 87 3c f5 37 20 3d b9 34 39 3d 1c 90 45 bc
       0.016515156 0.039115865 0.045216296 -0.012058284
000070 aa 42 52 3d 36 7d 6d 3d 36 88 0e bd f6 db 1e bd
       0.051333107 0.05798074 -0.03479787 -0.03878399
000080 dc 5b 8c bc 5f ee 34 bd 43 4c 1b 3b b8 9c 5c 3d
       -0.017133646 -0.04417264 0.0023696579 0.053860396
000090 da 6d c9 bc f2 c5 5e bc 78 b4 26 3c 6a 51 2e 3d
       -0.024588514 -0.0135969985 0.010174863 0.04255811
0000a0 1b 5e 52 bd 03 cb 59 3d 2f 14 63 bd f8 bf ad bc
       -0.051359277 0.053172123 -0.05543917 -0.021209702
0000b0 4f 58 8d 3c 58 d7 0a 3d 0a 94 83 3b 58 fe d9 3c
       0.017254023 0.033896774 0.0040154504 0.026610538
0000c0 f9 25 3b bd ed 5f 3a bd 24 e2 00 bd 00 b8 0a bb
       -0.04569051 -0.04550164 -0.031465665 -0.0021166801
0000d0 7d 29 a4 bc d8 39 45 3b 26 c5 4b 3c ec 88 4c bd
       -0.020039314 0.0030094292 0.012437141 -0.049935266
0000e0 f8 0c 80 3d d8 7a e7 3c b0 e8 e5 3c 49 81 e1 bc
       0.062524736 0.028256819 0.028065056 -0.027527468
0000f0 3b 22 62 bd 0e e7 0c 3d 85 d3 0b 3c 87 29 0c 3d
       -0.055208426 0.03440004 0.008534317 0.03421929
000100 73 86 64 bd b4 b1 ab bc 98 44 4c 3d cf dc 40 bc
       -0.055792283 -0.020958759 0.049870104 -0.011771395
000110 a5 55 68 bd bc c7 21 3b e7 a3 2f 3d 6e 63 ee bc
       -0.056722302 0.0024685701 0.04288092 -0.029100146
000120 3f fb dc bc 79 71 00 3d 09 a0 21 3d 3c df 14 bd
       -0.026975272 0.031358216 0.039459262 -0.036345705
000130 a2 4e ab 3b 43 20 ff bc 42 e5 c2 3c 28 1d 13 3d
       0.0052278796 -0.031143313 0.02379096 0.035916477
000140 78 de 8c bc b0 ea 40 bc 27 7f 74 3d 7e 70 5a bd
       -0.017195925 -0.011774704 0.059691574 -0.053329937
000150 20 8b 31 bd 16 0f 46 3c c5 14 42 3d 98 f1 eb 3c
       -0.04334557 0.012088558 0.04738309 0.028801724
000160 ab e5 b1 bc 33 de 45 3d 19 a4 7f 3d 03 05 e1 3b
       -0.02171596 0.04830761 0.062412355 0.0068670525
000170 b4 da 50 bd 55 94 d5 bc 47 c3 64 3c 9b b3 6c 3c
       -0.05098982 -0.026071707 0.013962573 0.014447118
000180 90 b4 09 3d 34 e4 1c 3d 1a 3f aa 3c 04 df d3 bc
       0.033619463 0.03830357 0.020782042 -0.025863178
000190 e8 38 05 bd 9d 2b 4b bc 64 7f 55 3c c9 2b 67 3c
       -0.032524973 -0.012400535 0.013030861 0.01410956
0001a0 ca 01 ce 3c f7 32 94 bc d2 e1 ca 3c 60 33 9f bb
       0.025147337 -0.018090708 0.024765883 -0.0048584193
0001b0 41 5c ea bc 0f 16 76 3d fc bc 55 ba df b2 e5 bc
       -0.028608443 0.06007963 -0.0008153466 -0.028039394
0001c0 6a 54 4c 3d 25 76 81 3d df c9 9f 3b 28 9f 69 bd
       0.04988519 0.063213624 0.00487636 -0.05703655
0001d0 6b a9 6e 3d f1 32 a5 bc 73 eb e7 bb b2 5a 62 bd
       0.05826704 -0.020165892 -0.0070776283 -0.055262275
0001e0 ca 84 58 3d 1b 44 d7 3c 78 20 1e bd a1 6b ca bb
       0.052861013 0.026277592 -0.038605183 -0.006177381
0001f0 c6 83 00 3d b0 15 e5 bc 26 b7 44 3d 94 e2 25 bd
       0.03137567 -0.027964443 0.048026226 -0.040499285
000200 1e ae 2e bd f6 19 59 bd f6 ac 2c 3c 5e cd 30 3d
       -0.04264652 -0.053003274 0.010539284 0.043164603
000210 6a d2 c5 3c d9 a4 f3 3c 34 a5 40 bd 78 9a 9c 3c
       0.024148185 0.029741691 -0.04703255 0.019116625
000220 16 2b 38 bd db ea f3 bb a6 aa 14 bd ec 4a 28 bd
       -0.044962965 -0.0074437684 -0.036295556 -0.041087076
000230 22 02 3e 3d 0f 34 b7 bc d4 71 4e 3d 1d ef 15 3d
       0.046388753 -0.02236369 0.050401524 0.03660499
000240 e7 c9 09 3d 3c 54 3d bd c2 37 45 3b 2f df bb 3b
       0.033639815 -0.04622291 0.0030093049 0.0057333927
000250 f7 e7 7b 3c 86 e7 fe 3c 14 31 4b 3d 1a ed 0d bd
       0.015375129 0.031116258 0.04960735 -0.034649946
000260 1f f3 22 ba bd 65 50 3c 1f f4 57 3d f5 7d 09 bb
       -0.00062160374 0.012719569 0.052723046 -0.0020979617
000270 ce ff 3c 3c 4c 23 d5 3b 2e a5 e0 3c 75 fc df bc
       0.011535598 0.006504452 0.027422514 -0.02734206
000280 10 00 28 bd 35 7a 17 bd 83 ea 33 bd da dd 4d bc
       -0.041015685 -0.03698178 -0.04392482 -0.012565101
000290 c1 dd 28 3d 6c d2 22 3c 85 37 09 bd 09 61 d4 bc
       0.041227106 0.009937864 -0.033500213 -0.025925176
0002a0 a1 6a 9c 3c 9a cb 1e ba 23 5f 5e 3d 38 e6 6c 3b
       0.019093813 -0.00060575607 0.05428995 0.0036147963
0002b0 3e 87 c5 3c d2 2a 4c 3d 6b a9 51 3c 41 da 24 bc
       0.02411234 0.049845524 0.01279674 -0.010061801
0002c0 1e a5 14 bd e7 fa 27 3b 85 38 09 bd f5 78 39 bc
       -0.03629028 0.0025631727 -0.033501167 -0.011320342
0002d0 35 08 08 3d 7e 02 68 bd 38 9a 14 bd 46 56 aa 3c
       0.03321095 -0.056643 -0.036279887 0.020793092
0002e0 fa c5 43 3d a4 db fd 3b fc dd a1 3c 92 78 90 3c
       0.047796227 0.0077471305 0.01975917 0.017635617
0002f0 93 dc 15 bd c5 d6 85 3c 93 85 60 3d a9 6b 3c 3d
       -0.03658731 0.016337762 0.054814886 0.04600111
000300 22 87 bb 3b eb db 7f bd 52 5d e1 3c 63 92 20 3d
       0.005722896 -0.06246559 0.027510319 0.039202105
000310 7f 17 50 3d 4e fd 0a 3c c3 fa 01 bd da fe 17 bd
       0.050803658 0.008483244 -0.031733286 -0.03710828
000320 7d ef 63 3b ef d2 00 3d 37 d5 80 3c 35 33 42 bd
       0.0034780197 0.031451162 0.015726669 -0.047412116
000330 41 cb 1f 3d 2e 44 5d 3d 01 dd 83 3d cb e9 13 3d
       0.039012197 0.0540201 0.064386375 0.036111634
000340 6b ca 79 bd 97 ec 6f 3d 3a a5 ca bb 2c 2a 69 3d
       -0.060984056 0.05857524 -0.0061842473 0.056924984
000350 45 01 39 bc 1f c3 1e 3d 97 7c 45 3c 89 62 d8 3c
       -0.011291807 0.0387603 0.01205363 0.026414173
000360 72 e8 c5 3c 32 6b 3b bc 13 60 41 bd bb 34 43 3b
       0.02415869 -0.011439132 -0.047210764 0.0029786068
000370 8e 20 4c bd ba 37 98 bc 8a 1e 0e bd 1a d2 0c bc
       -0.049835734 -0.01858126 -0.034697093 -0.008595014
000380 d5 bb 50 3d 28 da 41 3d 72 3f 72 3d f9 79 5e bc
       0.05096038 0.04732719 0.059142537 -0.013578885
000390 7c a2 47 3c 4a 96 18 bd 7b 1b 8b 3c 0d 85 50 3d
       0.012184735 -0.0372527 0.016980877 0.050908137
0003a0 10 3c 3b 3d c9 e5 ab 3c d7 23 77 3d 33 f9 19 3c
       0.045711577 0.020983594 0.060336914 0.009397793
0003b0 66 46 b9 bc 3c d1 6c bd bb 1c 3d 3d e7 8c 63 3d
       -0.022616576 -0.05781673 0.046169978 0.055554297
0003c0 b2 b6 55 bd b4 5e 44 3d 74 0d 52 3d c5 b3 1a bd
       -0.052176185 0.04794188 0.05128236 -0.037769098
0003d0 0f 0c 1c 3d b3 8c 5c bd 5a 2d 1d bd 93 a1 ea 3c
       0.038097437 -0.05384512 -0.03837333 0.028641498
0003e0 71 f2 63 3d b5 66 52 3d 2c 9a 53 ba 2a 9e 2e bd
       0.055651132 0.05136748 -0.00080719846 -0.042631306
0003f0 ee c8 2f ba 4c f2 66 3c 4c 31 bb bc af ba 08 3d
       -0.0006705661 0.014095854 -0.022850655 0.03338116

body.4.bias f4 [128]
000000 3f fb 61 3d c5 0a 56 bd 6e ee 09 bd ae 8d 15 bd
       0.055171248 -0.052256364 -0.03367465 -0.03651207
000010 30 5a 0f 3d 06 72 3c 3c 8e 3f 65 3d 91 80 ea 3b
       0.03499812 0.011501795 0.055968814 0.0071564396
000020 5d 46 04 3d 7d 32 79 bc d0 03 9a bb df 3e 54 bd
       0.032293666 -0.015209791 -0.0047001615 -0.05181777
000030 cf 19 4b 3d 45 dd 77 bd e4 bf 7e 3d 68 bf 64 bd
       0.04958516 -0.060513753 0.06219472 -0.0558466
000040 e8 de 25 bd 7d 00 07 bd e6 0b b0 3c cf 0c 54 3c
       -0.040495783 -0.03295945 0.021490049 0.012942507
000050 46 44 ab bc c5 1e 64 3d b8 4d c4 3c 15 8d 2d bd
       -0.020906579 0.055693407 0.02396284 -0.042370874
000060 62 7f 61 3b 5a 92 ed 3c c2 ea 06 bd b4 2a 32 bd
       0.0034408201 0.02900045 -0.032938726 -0.043497756
000070 bb 6b c8 bc 45 d3 7f bc 85 57 1d 3d c0 0c 04 bd
       -0.024465432 -0.015614335 0.038413543 -0.03223872
000080 98 b1 a9 bc 93 9d 61 bd 80 ca 17 3d aa c0 5b bc
       -0.020714566 -0.055081915 0.037058353 -0.013412634
000090 61 8e d2 3c 9e 7e 78 bd 83 66 99 bc 79 5a fa 3b
       0.025702657 -0.060667627 -0.01872564 0.0076401797
0000a0 ca 64 39 3c 46 1d 46 3d b9 3b 26 bd 08 61 4a 3d
       0.011315534 0.04836776 -0.0405843 0.049408942
0000b0 c4 60 21 3b 5e 90 7b 3d ff 23 04 3d be 3a 59 bd
       0.0024624327 0.061416976 0.03226089 -0.053034537
0000c0 44 ab a4 3c 8c d6 9f bc 0b 2d 5a 3c a9 0c 04 bd
       0.020101197 -0.019511484 0.013316403 -0.032238636
0000d0 24 91 dd bc 7a 26 a8 3c 3e b8 04 bd 61 d9 36 bd
       -0.027046748 0.02052616 -0.03240227 -0.044640902
0000e0 3d fd 54 3c 1f f6 3c bc 41 a4 9f bc 5f 90 1a bd
       0.01299983 -0.011533289 -0.019487502 -0.03773534
0000f0 9f 6b 5f bd f3 04 48 3d d5 56 01 3c d7 80 81 bd
       -0.054545995 0.048832845 0.0078942375 -0.063234024
000100 c6 c1 be bc 26 3a 2d bd da b3 f2 bb 40 d9 61 3d
       -0.023285758 -0.042291783 -0.007406694 0.055138826
000110 e4 1b de bc 61 e0 1b bd 66 39 76 bc ca 0b b8 bc
       -0.027112909 -0.03805578 -0.015028333 -0.022466559
000120 30 59 2b 3d a8 75 75 bc c1 2a ef 3a 55 ca 95 3c
       0.041833103 -0.014981665 0.0018246995 0.018284956
000130 2c e7 cc bb d4 ba 55 3d c3 61 be bc cf bb be 3c
       -0.006253144 0.052180126 -0.023239976 0.023282913
000140 68 3e c4 bc a3 95 57 3c df c4 c8 3c 67 30 0d bd
       -0.023955539 0.013158235 0.024507938 -0.03446999
000150 56 98 50 bc c2 67 2b 3d 2d d7 09 3d 84 3c cd 3c
       -0.012731632 0.041846998 0.033652473 0.02505327
000160 5b 53 83 3a c5 28 58 bc 15 b2 df b9 f0 48 1a 3d
       0.0010019349 -0.013193314 -0.00042666556 0.037667215
000170 fe 9a 63 bd 18 02 6c 3d f9 f6 39 3d e1 f0 f7 3b
       -0.055567734 0.057619184 0.045401547 0.007566557
000180 33 5d 68 39 3d 21 d6 3b a3 d1 bc bb f7 f9 56 bd
       0.00022159964 0.006534724 -0.0057622953 -0.05248448
000190 75 bc f4 bb 21 1d 13 bc 6f 50 8b 3b 1d 9f 22 3d
       -0.007468755 -0.008979113 0.004251532 0.039702523
0001a0 4f 9a fb 3c ff 56 70 bc da 51 f6 bc be 2e 5b bd
       0.030713229 -0.014669179 -0.030068327 -0.053511374
0001b0 ae 84 ca bb 21 af 45 bd 26 48 c1 3c f3 71 05 bd
       -0.0061803674 -0.04826272 0.023593973 -0.032579374
0001c0 77 c4 4f bd fb 84 61 bd 29 77 2e bd d1 d7 28 bc
       -0.050724473 -0.05505846 -0.04259411 -0.010305361
0001d0 6f 4b 48 3d 42 9b a9 ba b4 14 61 3c 3a ed 6b 3a
       0.048900064 -0.0012939947 0.013737846 0.0008999888
0001e0 6b 23 c3 3c 01 68 30 bd c5 9b 61 3d 3a b8 f3 bc
       0.0238206 -0.043067936 0.055080194 -0.029750932
0001f0 96 0d b5 bb b6 40 83 bb 95 93 83 3d 78 f0 7f 3b
       -0.005525301 -0.004005517 0.064246334 0.0039053243

move_head.weight f4 [5, 128]
000000 10 d8 36 3d 49 1e a5 3c e9 63 ea bc 2d a5 0f 3d
       0.044639647 0.020156043 -0.028612094 0.035069633
000010 bf d6 9b 3d 32 75 df 3c 9b e5 26 3d 7f 6e 25 3b
       0.07609319 0.027277563 0.040746313 0.0025242863
000020 79 ca a5 bb 88 c9 b8 3d 26 1c 58 bc 89 da 14 bd
       -0.005059537 0.09022814 -0.013190305 -0.036341224
000030 c7 3e aa bd 6e 3b 00 3d b7 6b 84 bd 92 f4 4b 3c
       -0.08312755 0.031306677 -0.064658575 0.012448447
000040 7a a8 23 bd e1 ba 9f bd 90 7d 8e bd eb 0b fc bb
       -0.039955594 -0.07799316 -0.06957543 -0.0076918504
000050 03 d4 ad 3d e2 9f 4b bd f9 f5 ad bd d2 9b a0 bd
       0.08487704 -0.049713023 -0.08494181 -0.0784222
000060 0e 4f 2b 3d 55 d2 03 bd 5a f4 ce 3b 34 2d 18 3c
       0.04182344 -0.03218301 0.00631575 0.009288121
000070 a8 ea 0e bd 70 e0 8d bc 5d bb e7 3c 72 f8 c0 bc
       -0.034891754 -0.017318934 0.028287584 -0.023555968
000080 8e 10 bd 3d 54 a0 50 bb 2f 29 b1 3c 94 b5 10 3d
       0.09231673 -0.0031833844 0.021626083 0.035329416
000090 e6 d8 30 bd 8e 41 e7 bc 94 36 70 3d 0c 3c 4c 3d
       -0.0431756 -0.028229501 0.0586458 0.049861953
0000a0 9d c2 86 3d 00 a8 a3 3d 20 ee a4 bc 63 19 04 3d
       0.06580088 0.07991028 -0.020133078 0.032250773
0000b0 52 c3 26 bd 06 a9 ed bc 14 f6 8e bd 98 47 63 3d
       -0.040713616 -0.02901126 -0.069805294 0.0554882
0000c0 2b 02 43 bd ef 0c 28 3c a5 81 22 3d 2b 70 37 bd
       -0.04760949 0.01025699 0.03967442 -0.044784706
0000d0 d8 de cf bc 14 41 8e 3d 94 6f b1 bc a9 32 ae bd
       -0.025374815 0.069460064 -0.02165965 -0.085057564
0000e0 a4 25 65 bd 9f 5c 44 3a 6b 78 ab 3d e8 60 cc 3b
       -0.0559441 0.0007490608 0.08372577 0.006237138
0000f0 db 15 66 3d 01 38 4a 3c 9e c3 82 3d b2 4a 3f 3c
       0.056173187 0.012342454 0.06384967 0.011675524
000100 5d 32 1a bc 54 e1 93 3c 95 bd 49 bc 85 85 09 bd
       -0.009411422 0.01805178 -0.012313266 -0.0335746
000110 dc 56 56 bd c8 51 a5 bd 5b 13 c3 3d 5c 7f 24 3d
       -0.05232893 -0.08072239 0.09525176 0.040160522
000120 fb 49 11 bd 99 e8 1a bc 26 ec b7 3d d4 4b 75 3c
       -0.035470944 -0.00945487 0.089805886 0.014971692
000130 89 48 92 3d d1 c4 93 3d 55 fd 18 3c 9a 4d 5e 3c
       0.07142741 0.07215274 0.009337743 0.013568306
000140 fc 6e a7 bd 4d 1b 75 3d 7c 2b cc 3c b3 9d a2 bc
       -0.081754655 0.05984049 0.024923079 -0.019850587
000150 dd 1c 7f bd 8e e3 33 3d 7a 5b a2 bd 84 f8 ef ba
       -0.062283386 0.043918185 -0.07927604 -0.0018308316
000160 2a 73 93 3c 6f 44 6b bc 1e e1 9a 3d c2 3d 8f 3c
       0.01799925 -0.014359578 0.07562469 0.017485503
000170 c7 be 6d 3d e3 59 2b 3d 85 e0 b8 3d f8 63 b7 3c
       0.058043268 0.04183377 0.09027199 0.022386536
000180 11 ca 33 3d 89 b6 63 3d 54 cf 23 3d 24 d4 91 bc
       0.043893877 0.055594 0.039992645 -0.017801352
000190 40 e2 9d bd 80 06 42 3d 82 7e 6e 3d 2c ce d4 bc
       -0.077091694 0.04736948 0.058226116 -0.025977217
0001a0 ec 80 b0 3d 9c 06 82 bc a1 5b 92 bd 43 ef f6 3c
       0.0861834 -0.015872292 -0.07146383 0.030143386
0001b0 f3 fd af 3c a0 ac 8f bd 05 d6 96 bc 23 55 9a 3d
       0.021483397 -0.070153475 -0.0184126 0.0753577
0001c0 b8 0b 4a bd 16 67 5e 3b 8f 01 4f bc 47 43 06 3c
       -0.049327582 0.0033935956 -0.012634649 0.008194751
0001d0 c4 93 44 bd 08 04 83 3d 6c 49 89 3d 6c 19 2a 3d
       -0.047992483 0.06397253 0.06703457 0.04152815
0001e0 26 7a 9c bd 3e 6b 80 bd 08 04 8e 3d e7 84 b6 bd
       -0.076404855 -0.06270455 0.06934363 -0.08912068
0001f0 01 2d 23 bd ac b0 a0 3d c9 87 98 3d 6a 10 a6 bd
       -0.03983784 0.078461975 0.07447774 -0.081085995
000200 2b af 6d bc 40 d1 17 bd 48 31 b0 3d 81 ba 2a bc
       -0.014507095 -0.03706479 0.0860315 -0.010420443
000210 8e 75 02 3d 63 21 92 3b e9 ab ea 3b ae 8c e2 bc
       0.03185039 0.0044595464 0.0071616066 -0.027654972
000220 c8 a3 a7 3d 8b e1 aa bc f8 95 3a bd e4 86 35 3d
       0.08185536 -0.0208595 -0.045553178 0.044318095
000230 06 fd 27 bd d0 fa b5 bd a8 a6 40 3d 5f fa b6 bd
       -0.041012786 -0.08885729 0.047033936 -0.08934473
000240 2c e3 94 bb fa 7a 80 bc 32 31 cf bb b1 4a 2f 3d
       -0.0045436826 -0.01568364 -0.006323003 0.04279584
000250 db 8d a9 bd d2 34 d1 bc 8f 1d 70 bc 3d fd 98 3d
       -0.0827901 -0.025537882 -0.014655485 0.07470176
000260 57 7f 95 bd 36 df 68 bd 5b 63 f7 3c 30 05 0d 3d
       -0.07299679 -0.056853496 0.030198744 0.034428775
000270 05 3c ce bc 0c 25 f7 3b 02 f7 d2 3c f7 ec 89 bc
       -0.025175104 0.007542258 0.025752548 -0.016836626
000280 2d ca 60 bd 10 f2 12 3d de 7d 0b 3d 3e 36 8e bc
       -0.05488031 0.03587538 0.034055583 -0.017359849
000290 09 6a a6 bd 20 15 c7 3c ff 8e 0c bd 48 3a 79 bd
       -0.08125693 0.024302065 -0.03431606 -0.060846597
0002a0 3b 0e 90 3d 47 8d 74 bc 8c 4d 48 3d 22 11 87 bd
       0.07033964 -0.014926261 0.04890208 -0.06595065
0002b0 d9 62 10 3d c8 41 c8 3c 2d 79 53 3d 90 c0 06 3c
       0.03525052 0.02444543 0.051629234 0.008224621
0002c0 70 04 9b 3c 85 31 93 3d bc b7 7a 3c 4b 2e 90 3d
       0.018923014 0.071871795 0.015302595 0.0704008
0002d0 25 e1 35 3c 37 14 4c bd b8 ef fd bc 0b c7 27 bd
       0.011101042 -0.049823966 -0.030998096 -0.040961307
0002e0 14 f5 9e 3d ed 59 bd 3c 0c 51 e3 bb a5 de 80 bd
       0.07761589 0.023114169 -0.006937152 -0.06292466
0002f0 d7 06 93 3c 59 1b 27 3d 3b b8 a3 bd f0 4e ed bc
       0.017947597 0.040797565 -0.079941235 -0.028968304
000300 58 bb 96 3b 32 4a f1 3c 88 14 94 bd 93 0f a1 bd
       0.00459997 0.029454324 -0.072304785 -0.07864299
000310 96 99 8e bd 6c b6 4a 3d 4f ec 72 3d 2e ad 46 3c
       -0.06962888 0.049490377 0.059307393 0.01212625
000320 cd 37 a4 bd e6 90 eb 39 35 5f 10 bd a4 fe 9b 3d
       -0.08018456 0.0004493065 -0.035247047 0.07616928
000330 1d e8 67 bb 1b 13 a1 bd e1 a3 96 bd 91 9c 78 bd
       -0.0035386153 -0.07864972 -0.07355476 -0.06069619
000340 6f 20 5d bd ff 66 ab bd 1a 0f 9c 3d 7d 90 80 bd
       -0.05398601 -0.08369254 0.07620068 -0.06277559
000350 cb 80 b0 bd ba 9c 01 3d 98 33 c0 3c e6 d5 4f bd
       -0.08618315 0.031643607 0.023462102 -0.0507411
000360 a8 47 a6 bd f9 3c 76 3d 50 21 f2 3c ca 26 80 bd
       -0.08119136 0.06011674 0.0295569 -0.062573984
000370 b2 1c ac bd aa 5e 43 bd f7 c6 81 3d f3 86 14 3c
       -0.08403911 -0.0476977 0.06336778 0.0090653775
000380 a0 59 8b 3d 09 61 a7 bd 27 7c 8c 3d 99 26 21 3d
       0.06804204 -0.08172805 0.06859618 0.03934345
000390 a1 ea 54 3d 7b 66 8f 3c 19 9a 21 bd 98 28 00 3d
       0.051981572 0.017504921 -0.0394536 0.031288713
0003a0 76 fb aa bc 55 de a6 bc 5a 5b 25 bc 40 24 92 bd
       -0.020871859 -0.020369688 -0.010092581 -0.071358204
0003b0 ed 6c f1 bc 8d 26 40 bd 7a 05 ac 3c e8 60 d8 bb
       -0.029470885 -0.046911765 0.020998705 -0.006603349
0003c0 2a 0b 43 bb 01 c1 7f bd df 53 64 3d 80 6e 1a bd
       -0.0029761293 -0.062439922 0.05574405 -0.037703037
0003d0 ce be 1d 3c d7 34 11 bd c0 0c 59 3d 09 6e f8 3c
       0.009628011 -0.035450783 0.052990675 0.030325906
0003e0 88 68 cc 3c 9d 65 ad ba a7 01 3f 3c 67 24 0d bd
       0.024952188 -0.0013229136 0.011658109 -0.034458544
0003f0 9b 12 f8 3a 3b d6 ab bd fc b6 64 3d c4 0e 74 3d
       0.0018926443 -0.083904706 0.05583857 0.059584394

move_head.bias f4 [5]
000000 a8 97 e0 bb 9d 27 e9 bc c0 27 43 3b 10 9e 46 bd
       -0.0068540163 -0.028461272 0.0029778332 -0.048490584
000010 3f 37 b9 3b
       0.005652338
