checkpoints/simple_world_comm_v3_scratch/simple_world_comm_v3_adversary_1_ep600.pt (torch, 437311 bytes, 8 tensors)

body.0.weight f4 [256, 34]
0	0xbdbdf3db	-0.09275027
1	0xbdae0c0f	-0.08498394
2	0xbcbfabac	-0.02339729
3	0xbd25d816	-0.04048928
4	0x3da31591	0.07963098
5	0x3d938349	0.07202775
6	0xbd63c513	-0.055607866
7	0xbd9ae11d	-0.07562468
8	0xbd1a7ea5	-0.037718434
9	0x3d961530	0.0732826
10	0x3d578f6b	0.05262701
11	0x3e4539a2	0.19260266
12	0x3dab70da	0.08371134
13	0xbe0c8fde	-0.13726756
14	0xbd4fe1c4	-0.050752416
15	0xbe1e0bad	-0.15434141
16	0x3df0fe55	0.1176726
17	0x3e144f5c	0.14483398
18	0x3c1dcbac	0.009631079
19	0x3e381ee9	0.17980541
20	0xbd4446a3	-0.047918927
21	0xbd6347d1	-0.05548841
22	0xbc199099	-0.009372854
23	0xbdd44da0	-0.10366368
24	0xbdb51596	-0.08842008
25	0x3e075a81	0.13218118
26	0x3e080f44	0.13287073
27	0xbbbbb916	-0.005728851
28	0xbdf2910b	-0.11844071
29	0x3d878ef5	0.06619064
30	0xbd287633	-0.04112835
31	0x3e39653d	0.18105026
32	0x3ded24f2	0.115793124
33	0xbd88bf02	-0.06677057
34	0x3bbdf101	0.005796552
35	0x3e2459d1	0.16049887
36	0xbd049167	-0.03236523
37	0x3ddc658d	0.10761557
38	0xbd99f896	-0.07518117
39	0xbe05008d	-0.12988491
40	0xbd76e17d	-0.060273636
41	0x3e06d486	0.13167009
42	0x3e1877a7	0.14889394
43	0xbdcafae4	-0.09911135
44	0x3de9fe20	0.114254236
45	0x3df6ad78	0.12044805
46	0xbd01ddb0	-0.03170556
47	0xbe1093fb	-0.1411895
48	0x3c0cbffa	0.008590693
49	0x3df7eb52	0.12105431
50	0x3d8189b6	0.063250944
51	0x3db5e7c4	0.088820964
52	0x3e0611da	0.13092747
53	0x3d839c83	0.064263366
54	0x3d4a4347	0.049380567
55	0xbdd34f9c	-0.10317919
56	0xbe1bf4e7	-0.15230142
57	0x3c831649	0.016001837
58	0x3d521b12	0.051295348
59	0xbd105ee7	-0.035246756
60	0x3dbe2ade	0.0928552
61	0xbb8e5aac	-0.004344305
62	0x3d6209f9	0.055185292
63	0xbca97d4f	-0.020689635
64	0xbdea45cb	-0.11439093
65	0x3e282b68	0.16422808
66	0xbd93ebb6	-0.07222693
67	0xbcabe2db	-0.020982197
68	0x3de491d7	0.11160629
69	0x3c61973e	0.013768969
70	0xbd616c65	-0.055035014
71	0x3c3b6da8	0.011439718
72	0x3e34b0c7	0.1764556
73	0xbdc9685c	-0.09834358
74	0x3e2a35a0	0.16622019
75	0xbc9a0c9e	-0.018804844
76	0xbdf59e53	-0.119930886
77	0xbd1cae4a	-0.038252153
78	0x3ddc3116	0.1075155
79	0x3b4a8a19	0.0030905067
80	0xbcaa4358	-0.020784065
81	0xbd5def20	-0.054183125
82	0xbe12923a	-0.14313594
83	0xbdc5843e	-0.09644364
84	0xbdd24400	-0.10266876
85	0x3e1b3880	0.15158272
86	0xbe0166ba	-0.12636843
87	0xbdfa8ca0	-0.12233853
88	0x3cdd0af2	0.026982758
89	0x3def987b	0.11699005
90	0x3d246634	0.04013653
91	0xbd929d0c	-0.071588606
92	0xbb98a9ce	-0.004658914
93	0xbe19834b	-0.1499149
94	0xbe00d522	-0.12581304
95	0x3dc8cc5c	0.098046035
96	0x3e0a05b1	0.13478734
97	0x3dafc322	0.085821405
98	0xbdde0a3b	-0.10841795
99	0xbd983723	-0.074323915
100	0xbd6f0be6	-0.058360957
101	0xbdc1f5c2	-0.09470703
102	0xbd79cc7e	-0.060986035
103	0xbd1ec26f	-0.038759645
104	0xbcca005a	-0.02465837
105	0x3e2fd802	0.17172244
106	0xbe0e3050	-0.13885617
107	0xbe166bab	-0.1468951
108	0x3d9ac6a4	0.07557419
109	0x3d1cc095	0.038269598
110	0x3e3b0de2	0.18267015
111	0xbcff9be0	-0.031202257
112	0xbe075425	-0.13215692
113	0x3db893c0	0.09012556
114	0x3db0cac2	0.08632423
115	0x3d249bff	0.040187832
116	0x3e2a8db6	0.16655621
117	0xbe0a9457	-0.1353315
118	0xbd0432c0	-0.03227496
119	0xbad13372	-0.0015960766
120	0x3dce0992	0.10060419
121	0x3cc95208	0.024575248
122	0xbe0a7869	-0.13522495
123	0xbde800f9	-0.113283105
124	0xbd33caf9	-0.04389474
125	0xbded1dcf	-0.11577951
126	0xbc6fe0ea	-0.014641026
127	0xbd6815dd	-0.056661475
128	0x3daf105a	0.08548041
129	0xbd03a0f6	-0.032135926
130	0x3dbba74b	0.09162768
131	0xbe0d3f5f	-0.13793705
132	0x3e19a419	0.15004005
133	0xbd8eca3d	-0.06972168
134	0xbe301011	-0.17193629
135	0x3e19a7b1	0.15005375
136	0x3d45a0a8	0.048248917
137	0xbd0fd269	-0.035112772
138	0x3dccc8a0	0.09999204
139	0x3e208308	0.15674984
140	0xbc50f066	-0.012752628
141	0x3b6490a0	0.0034876242
142	0x3d0ec5c4	0.034856573
143	0x3e024ee4	0.12725407
144	0x3c32130c	0.010868799
145	0x3dc1f94c	0.09471378
146	0x3c3f044d	0.01165874
147	0x3d29a85d	0.04142033
148	0xbdcbdfe3	-0.099548124
149	0x3c69c787	0.014268762
150	0xbd85f7d3	-0.06541409
151	0x3d56debd	0.052458514
152	0xbd155bf9	-0.036464665
153	0xbdd328fa	-0.1031055
154	0x3defeb77	0.11714833
155	0x3e0db0d5	0.13836987
156	0x3e1bda03	0.15219884
157	0x3c5bff9b	0.01342764
158	0xbd170429	-0.0368692
159	0xbe0c5a6e	-0.13706371
160	0xbce0dae2	-0.027448121
161	0xbe08dd46	-0.13365659
162	0x3e0ac048	0.13549912
163	0xbdc6636c	-0.09686932
164	0x3dff8b88	0.12477785
165	0x3d5e4d57	0.054272976
166	0xbd6ca2dd	-0.057772506
167	0xbd8563ee	-0.06513201
168	0x3cdc9cc7	0.026930226
169	0x3d4b8334	0.049685672
170	0x3dfb65b3	0.12275257
171	0x3dab57ce	0.08366357
172	0xbcf76674	-0.03020022
173	0x3e1b22ab	0.15149944
174	0xbdfc3c65	-0.12316207
175	0xbdbc54ca	-0.0919586
176	0xbe0ae243	-0.13562874
177	0xbe28301d	-0.16424604
178	0x3c344444	0.011002604
179	0xbcf57cdf	-0.02996677
180	0xbe253bec	-0.1613614
181	0x3d765239	0.060137007
182	0x3e0a6c2e	0.1351783
183	0x3dbd18e6	0.092332646
184	0x3db6ebde	0.08931707
185	0xbdff9f59	-0.12481565
186	0xbe2606d0	-0.16213536
187	0xbdb48aa4	-0.08815506
188	0x3de10306	0.10986905
189	0xbe1d3927	-0.15353833
190	0xbe22c75e	-0.15896365
191	0xbe174df8	-0.14775836
192	0x3dbc3449	0.0918966
193	0x3d5f28f0	0.0544824
194	0x3d8505b1	0.06495226
195	0x3e1e56dc	0.15462822
196	0xbda1b95a	-0.07896681
197	0x3d2e74ef	0.042591985
198	0x3cf50977	0.02991174
199	0x3d1040dc	0.035218105
200	0xbda4a008	-0.08038336
201	0x3c9fa72b	0.019488892
202	0x3e00d66d	0.12581797
203	0x3d41e9d2	0.04734213
204	0x3e0a85b2	0.13527563
205	0x3d2063e5	0.039157767
206	0x3d5fcbb4	0.054637626
207	0xbda37214	-0.07980743
208	0xbe2651ba	-0.16242114
209	0xbe29e5da	-0.16591588
210	0xbe080697	-0.13283764
211	0xbdcd9eae	-0.100400314
212	0xbb071c9a	-0.0020616413
213	0x3df790d8	0.12088174
214	0xbd11fbf6	-0.03564068
215	0x3e172488	0.1476003
216	0xbe079c70	-0.1324327
217	0xbe097bab	-0.13426082
218	0xbd841de4	-0.06451014
219	0x3bd39349	0.0064567667
220	0xbe189d6e	-0.14903805
221	0xbd926c78	-0.07149595
222	0x3dc6a954	0.097002655
223	0x3d2c7c94	0.042110994
224	0xbd9bb717	-0.07603281
225	0x3deab79e	0.114608034
226	0xbdaf4ff6	-0.08560173
227	0xbd060591	-0.032720152
228	0xbd35293c	-0.044228777
229	0x3df624f3	0.12018766
230	0x3d4a44ae	0.049381904
231	0xbc8c5c5c	-0.017133884
232	0xbd6187c1	-0.055061106
233	0xbc44526a	-0.01198254
234	0x3d5afdf4	0.053464845
235	0xbd5af999	-0.05346069
236	0x3d47c798	0.04877433
237	0xbcea4f8d	-0.028602386
238	0x3dbdde1a	0.09270878
239	0xbc85d86f	-0.016338555
240	0x3dced41a	0.10099049
241	0x3d4d82f9	0.050173733
242	0x3d02252c	0.03177373
243	0xbdb287bf	-0.08717298
244	0x3dea4fd2	0.11441006
245	0xbe0273a3	-0.12739424
246	0x3ca1fe4f	0.019774584
247	0xbddf0ccd	-0.108911134
248	0xbd721674	-0.059103444
249	0x3d551eaf	0.052031215
250	0x3def2b51	0.11678184
251	0xbe126fd8	-0.14300478
252	0xbd486cd6	-0.04893192
253	0xbe258256	-0.16163
254	0x3e17d67c	0.14827913
255	0xbe2abbec	-0.16673249

body.0.bias f4 [256]
0	0xbdc8c654	-0.09803453
1	0xbe1fe96c	-0.15616387
2	0x3b94c6ef	0.0045403163
3	0xbdaa9a7b	-0.08330246
4	0x3e139d00	0.1441536
5	0x3e1c0d10	0.15239358
6	0x3cfbddcb	0.030745408
7	0xbe0a5f31	-0.13512875
8	0xbc8005ae	-0.015627708
9	0xbe03b9a1	-0.1286378
10	0x3dac4a93	0.084126614
11	0x3dc4ada3	0.09603431
12	0x3da94e01	0.08266831
13	0x3e14240e	0.14466879
14	0xbbd25c38	-0.0064196847
15	0x3ce04b12	0.027379546
16	0x3d0a8b4f	0.03382426
17	0xbd4e852f	-0.050419983
18	0x3e157ad7	0.14597641
19	0x3d27221f	0.040804025
20	0xbe0ef1ee	-0.13959476
21	0xbddf251c	-0.1089575
22	0x3c746e55	0.014918883
23	0x3b6a4d76	0.0035751737
24	0x3dee061d	0.1162226
25	0x3d57b8c1	0.05266643
26	0xbd6b4595	-0.057439405
27	0x3cb82dd3	0.022482788
28	0x3daa0447	0.08301597
29	0xbccd27d4	-0.025043406
30	0xbdfab6c2	-0.122418895
31	0x3d0c18e9	0.034203444
32	0x3e090221	0.13379718
33	0xbd963840	-0.073349476
34	0x3da89071	0.08230675
35	0x3ce64d2c	0.02811297
36	0x3de843e8	0.11341077
37	0xbded0836	-0.11573832
38	0x3d3d77d1	0.046256844
39	0x3c902c31	0.017599197
40	0xbd987ae2	-0.07445313
41	0xbda2f31a	-0.07956524
42	0x3d8f2b67	0.069907
43	0xbd5626ae	-0.05228298
44	0x3e0a8080	0.13525581
45	0xbd324821	-0.04352582
46	0xbd26ec03	-0.040752422
47	0xbddf9212	-0.109165326
48	0x3df612c0	0.12015295
49	0xbde6519c	-0.112460345
50	0x3d0ff519	0.035145853
51	0xbd514ea6	-0.051100396
52	0x3cc07538	0.023493394
53	0xbe2f5969	-0.17123951
54	0xbe10016a	-0.1406304
55	0x3d1a4358	0.03766188
56	0xbd05e88e	-0.032692485
57	0xbd81369c	-0.06309244
58	0xbb6f9066	-0.0036554574
59	0x3e2a11e2	0.16608384
60	0x3df74773	0.12074175
61	0x3e34700c	0.17620867
62	0xbd71271b	-0.058875185
63	0xbd3de866	-0.04636421
64	0xbe013db6	-0.12621197
65	0x3a0dc29e	0.00054077234
66	0x3dfa6722	0.12226702
67	0xbdfc9909	-0.12333877
68	0xbd4d7be6	-0.050166987
69	0xbdc06688	-0.09394556
70	0x3e10db66	0.14146194
71	0xbbf83c72	-0.007575565
72	0xbd804124	-0.062624246
73	0xbd86f08f	-0.06588852
74	0xbd09353a	-0.033498026
75	0xbdca03d7	-0.09864014
76	0xbe0784f2	-0.13234308
77	0x3defb9ee	0.11705385
78	0x3e0bd37f	0.13654898
79	0x3dee8dbd	0.11648128
80	0x3d9a8cb0	0.07546365
81	0x3e19f1b4	0.15033609
82	0xbd9807c3	-0.074233554
83	0x3e232c8e	0.15934965
84	0xbde57824	-0.11204556
85	0x3c9fd0d1	0.019508751
86	0xbe1d204e	-0.15344355
87	0x3e0170e0	0.12640715
88	0x3d277988	0.040887386
89	0x3db8065c	0.08985588
90	0x3e1ab5da	0.15108433
91	0x3d4f22ab	0.05057017
92	0xbde06d67	-0.10958367
93	0xbd25a0da	-0.040436603
94	0xbe11c3fc	-0.14234918
95	0x3d5947cc	0.053046986
96	0xbdf01e38	-0.11724514
97	0x3e32a691	0.17446353
98	0xbdb4706d	-0.08810506
99	0x3e147855	0.14499028
100	0x3e2a7d66	0.16649398
101	0x3d71d1b1	0.059037868
102	0xbde4de97	-0.11175268
103	0xbe01aaa2	-0.12662748
104	0x3dc4ec03	0.09615328
105	0x3b936b20	0.0044988543
106	0xbbad9fd9	-0.0052985963
107	0x3d7ea34a	0.062167443
108	0xbccc2c61	-0.024923505
109	0x3de92c02	0.11385347
110	0xbd2bf6fe	-0.041983597
111	0x3d692d11	0.056927744
112	0x3dabea90	0.083943486
113	0xbdbfeb68	-0.09371072
114	0x3dce73b6	0.10080664
115	0xbd2f330f	-0.042773303
116	0xbdd8ec8f	-0.10591995
117	0xbdb04457	-0.08606785
118	0x3d18105e	0.037124984
119	0x3dcb2093	0.099183224
120	0xbdcca38e	-0.09992133
121	0x3d029124	0.031876698
122	0x3de2513d	0.11050651
123	0x3dc1c003	0.094604515
124	0x3e0d8104	0.13818747
125	0x3d855121	0.06509615
126	0x3d0d27ae	0.03446167
127	0x3e072dd9	0.13201083
128	0xbddb0c6a	-0.10695727
129	0x3d8a98a9	0.06767399
130	0xbe16024a	-0.1464931
131	0xbe0c53ba	-0.13703814
132	0xbe1190e6	-0.1421543
133	0xbcd40dc5	-0.025885472
134	0x3d9506aa	0.07276662
135	0xbe00e432	-0.1258705
136	0xbdb3c3f3	-0.08777609
137	0xbc3c948b	-0.011510025
138	0x3e3ae5f7	0.18251787
139	0x3d6f4f21	0.058425073
140	0xbd8bdadf	-0.06828856
141	0x3d9e6994	0.07734981
142	0xbb94f52b	-0.004545828
143	0x3e0f60dd	0.14001794
144	0xbe264a12	-0.16239193
145	0x3de0112f	0.109407775
146	0x3d2079c0	0.03917861
147	0x3dbe9971	0.093066104
148	0x3dfe4b89	0.12416751
149	0xbcca5319	-0.024697827
150	0x3c217868	0.009855367
151	0x3b247f2f	0.0025100221
152	0x3d964827	0.07337981
153	0xbd6407c0	-0.055671453
154	0x3dc76d61	0.09737659
155	0x3dddead7	0.10835808
156	0x3c6a9d01	0.014319659
157	0xbe0f1d32	-0.13975981
158	0xbd5631b3	-0.05229349
159	0x3cf7d3b2	0.030252311
160	0x3dd7a564	0.10529593
161	0xbe159e3d	-0.14611144
162	0x3b12d707	0.0022405998
163	0x3ded1ccf	0.115777604
164	0xbd128ef3	-0.03578086
165	0x3d89d2ec	0.06729683
166	0x3d0551ab	0.032548588
167	0x3d9b5473	0.07584467
168	0xbd48b280	-0.048998356
169	0x3e1d5d64	0.15367657
170	0xbd567226	-0.052354954
171	0xba8997ff	-0.0010497569
172	0xbdb6e226	-0.08929853
173	0xbddb2613	-0.107006215
174	0xbdc8ad99	-0.09798736
175	0xbdcd496b	-0.10023769
176	0xbe0bcf12	-0.1365321
177	0xbdb71a16	-0.089405224
178	0x3e02c681	0.12771036
179	0xbb096be8	-0.0020968858
180	0xbd8edd38	-0.06975788
181	0x3d2e3e58	0.042539924
182	0x3c45908b	0.0120583875
183	0x3e2984f0	0.16554618
184	0xbe30704c	-0.17230338
185	0x3cffe0e9	0.031235175
186	0xbdfbd622	-0.12296702
187	0xbd902ead	-0.07040153
188	0x3dd90939	0.10597462
189	0x3de5e296	0.112248585
190	0x3dbf7493	0.09348407
191	0xbdbcb405	-0.092140235
192	0x3e33a4d6	0.17543349
193	0x3ae7faf3	0.001769869
194	0xbd49e523	-0.049290787
195	0xbd928736	-0.07154696
196	0x3e28a6cb	0.16469876
197	0x3d5fcda7	0.054639485
198	0x3dfc49aa	0.12318738
199	0xbe0f603e	-0.14001557
200	0x3e2015a0	0.1563325
201	0xbdde710d	-0.108614065
202	0xbe06890d	-0.13138218
203	0xbd261157	-0.04054388
204	0x3cd1e787	0.025623096
205	0x3db075ba	0.086162046
206	0x3d149b40	0.03628087
207	0x3d963da1	0.073359735
208	0x3b7c3fa2	0.0038490077
209	0x3c1a92ff	0.009434461
210	0xbdfe9d73	-0.12432375
211	0xbdffa56e	-0.12482725
212	0xbcdcf06e	-0.026970115
213	0xbd8a7a49	-0.06761605
214	0x3ca1c9f4	0.019749619
215	0xbdb9bfd9	-0.09069795
216	0xbe124be9	-0.1428677
217	0x3d5f54b3	0.054524135
218	0x3d904830	0.07045019
219	0xbbdc25df	-0.006718382
220	0xbe069653	-0.13143282
221	0xbe219ea5	-0.15783174
222	0x3ced58f3	0.028973078
223	0xbe217013	-0.15765409
224	0x3d7529af	0.059854206
225	0x3dc0c760	0.09413028
226	0x3d97cb6c	0.074118465
227	0x3d2aa759	0.0416635
228	0x3dc11226	0.0942729
229	0xbdfc0d4e	-0.12307225
230	0x3e14e14c	0.14539069
231	0xbb9f69ee	-0.0048649227
232	0xbcf2b256	-0.029626053
233	0x3db8f8d6	0.09031837
234	0x3dea0b4a	0.114279345
235	0x3db1af46	0.08676009
236	0x3cde45b3	0.027132845
237	0x3da68066	0.08129959
238	0xbdfd402c	-0.123657554
239	0xbc550888	-0.013002522
240	0xbcc8fde1	-0.024535121
241	0xbda21d4c	-0.07915744
242	0xbd8b2a22	-0.067951456
243	0xbd0cb1f0	-0.034349382
244	0x3d9ef78f	0.07762062
245	0xbd9a90be	-0.07547139
246	0x3d914064	0.0709236
247	0x3b65f406	0.0035088076
248	0xbe09f507	-0.13472377
249	0x3dea90aa	0.11453374
250	0xbe060591	-0.13088061
251	0xbe165caa	-0.14683786
252	0xbe14de36	-0.14537892
253	0x3e0a4c53	0.13505678
254	0x3dc90b57	0.09816616
255	0xbd5b67df	-0.053565856

body.2.weight f4 [256, 256]
0	0x3d3d3dd2	0.046201535
1	0x3b095185	0.002095313
2	0x3d5d656c	0.0540518
3	0xbc023bb6	-0.0079488065
4	0xbd543c1b	-0.051815134
5	0x3cd39012	0.025825534
6	0xbd447ff5	-0.04797359
7	0x3d69fb43	0.057124387
8	0x3d77b729	0.06047741
9	0x3c9e2a57	0.019307299
10	0xbcca64fb	-0.024706354
11	0x3c22df35	0.009940912
12	0xbd1776e8	-0.036978632
13	0x3d30439e	0.043033235
14	0x3cdcd703	0.026957994
15	0x3d0d5bc3	0.03451134
16	0x3cce48ef	0.025181262
17	0x3cad75b1	0.021174284
18	0x3d3883a7	0.04504743
19	0xbd220047	-0.039551046
20	0x3c942b4a	0.018087048
21	0x3d409765	0.04701938
22	0xbcfe40f2	-0.031036828
23	0x3cbfc25f	0.023408113
24	0x3cf39543	0.02973426
25	0xbd0a4d08	-0.03376487
26	0xbc83c282	-0.01608396
27	0x3b243f4a	0.0025062137
28	0x3d702aab	0.05863444
29	0x3d35f0d2	0.044419117
30	0xbc5d3599	-0.013501548
31	0xbc5d9a39	-0.013525539
32	0x3d773054	0.060348824
33	0x3cfbf0d0	0.030754477
34	0x3ca1a1cb	0.01973047
35	0xbcc2049e	-0.023683842
36	0x3cc94e42	0.024573449
37	0xbbd3e0be	-0.0064660003
38	0xbd388ae2	-0.045054324
39	0x3aea8d49	0.001789489
40	0x3d61ec8c	0.05515723
41	0x3d6d0d6b	0.057874124
42	0x3d581eb1	0.052763645
43	0x3c08ca83	0.008349064
44	0x3d4a6f49	0.049422536
45	0x3c1ea546	0.009682959
46	0xbd18a56f	-0.037267145
47	0x3d750905	0.059823055
48	0xbcf97844	-0.030452855
49	0xbd56e0ba	-0.05246041
50	0xbc156e48	-0.009120531
51	0x3d98e50b	0.074655615
52	0x3d71fb3b	0.059077483
53	0x3d068cc2	0.03284908
54	0x3d728d7e	0.05921697
55	0xbd3e1c2f	-0.046413597
56	0xbd70d53a	-0.0587971
57	0xbc250d07	-0.010073907
58	0x3d6ad68a	0.057333507
59	0x3d32f7e9	0.043693457
60	0xbd1746e7	-0.036932852
61	0xbd21aaeb	-0.03946964
62	0x3caa264a	0.02077021
63	0xbc505902	-0.012716534
64	0xbbdf9d43	-0.006824167
65	0xbc32e860	-0.01091966
66	0xbd36f397	-0.0446659
67	0xbce95c7e	-0.028486487
68	0xbd25320e	-0.04033094
69	0x3cb8b4e4	0.022547193
70	0x3d1a7a4f	0.0377143
71	0xbd4b2eca	-0.04960517
72	0x3d4110cb	0.047135156
73	0xbd2d9cca	-0.042385854
74	0xbd15a173	-0.036530923
75	0xbcb9930c	-0.022653125
76	0x3d782f83	0.060592186
77	0xbd083e8d	-0.033262778
78	0xbd381d79	-0.044949982
79	0x3d7bdd5a	0.061490394
80	0xbd33b43c	-0.043873057
81	0x3b8b8e14	0.0042588804
82	0x3c6fc5b3	0.0146345375
83	0xbd3e5aa4	-0.04647316
84	0xbcaf7fa8	-0.021423176
85	0x3d132944	0.035928026
86	0xbd456e8b	-0.048201125
87	0x3b942b6a	0.004521777
88	0x3d07a751	0.03311855
89	0xbcb0d910	-0.021587878
90	0x3c94d686	0.018168699
91	0xbc30845f	-0.010773747
92	0xbd2bbb34	-0.041926578
93	0x3d24bab0	0.0402171
94	0x3d5d71a6	0.05406346
95	0x3d0a6ddf	0.033796187
96	0x3d4e1fbf	0.050323244
97	0x3d1fbd6c	0.038999006
98	0x3a732b5f	0.0009276177
99	0xbd0e5e23	-0.034757745
100	0x3d6dd34e	0.058062844
101	0x3d21e572	0.039525457
102	0xbd828e4e	-0.06374799
103	0x3c504b70	0.012713298
104	0x3cf5ad34	0.029989816
105	0xbd02c9e5	-0.031930823
106	0x3ce91af0	0.028455228
107	0xbd1dcc43	-0.038524877
108	0x3d5c561a	0.05379305
109	0x3bd15d57	0.006389301
110	0xbbe06189	-0.0068475646
111	0xbd03c30e	-0.03216844
112	0xbd08ce3e	-0.033399813
113	0xbcbf5df3	-0.023360228
114	0xbcf56198	-0.029953763
115	0x3cd56e1e	0.026053485
116	0xbd2b0046	-0.041748308
117	0xbc7d2295	-0.0154501395
118	0xbb950aa8	-0.0045483895
119	0xbd089c97	-0.03335246
120	0xbd34b5b7	-0.04411861
121	0x3c36c126	0.011154449
122	0x3c1c81fb	0.009552474
123	0x3bc0a4da	0.005879027
124	0x3c81a691	0.015826495
125	0xbd62bb15	-0.055354197
126	0x3d8f53c6	0.069984004
127	0x3d6d7416	0.057972036
128	0x3d31c108	0.04339698
129	0xbb56f97f	-0.003280252
130	0xbcea91d6	-0.028633993
131	0x3c6e1adf	0.014532774
132	0xbb4ffb7a	-0.0031735585
133	0xbca5164c	-0.020152234
134	0x3d5e4821	0.054268006
135	0x3c9f064e	0.019412186
136	0x3cc5a9f8	0.024128899
137	0xb981887e	-0.00024706492
138	0xbd041399	-0.032245252
139	0x3c16e8fa	0.009210819
140	0xbc0892dd	-0.008335796
141	0xbcea1d21	-0.028578343
142	0x3d0c5892	0.034264155
143	0x3cefa396	0.029252809
144	0x3d57e253	0.052706074
145	0x3d50c18d	0.050965834
146	0x3c6a37f1	0.014295564
147	0x3d887c7e	0.0666437
148	0xbc121a2d	-0.008917374
149	0x3cf08365	0.029359529
150	0xbcbb0dda	-0.022833753
151	0xbd09cc71	-0.033642236
152	0xbd72e4ce	-0.059300236
153	0x3d23a49d	0.03995191
154	0xbd10b48b	-0.03532843
155	0x3d28e229	0.041231308
156	0xbca0550c	-0.019571804
157	0xbc29eaf9	-0.010370963
158	0x3d90ed15	0.0707647
159	0xbce7fcdf	-0.02831882
160	0x3cf5dc56	0.03001229
161	0xbd42c3ac	-0.04754989
162	0x3cec2ba8	0.02882941
163	0x3d575e5f	0.052580234
164	0xbd29e8da	-0.04148183
165	0x3d2eec1d	0.042705644
166	0xbce40a1c	-0.027836852
167	0xbc14768b	-0.009061466
168	0xbcd757bf	-0.026286958
169	0xbd43f2b3	-0.047838878
170	0x3d966bce	0.07344781
171	0xbd2ddc4f	-0.04244643
172	0xbc9ffc93	-0.019529616
173	0xbd2c8520	-0.042119145
174	0x3c3fd6ec	0.011708956
175	0x3d0294c4	0.031880155
176	0xbaf39de3	-0.0018586483
177	0x3c8729f7	0.016499503
178	0xbd50b7e9	-0.05095664
179	0xbd7a2592	-0.061070986
180	0x3c5b88a4	0.013399277
181	0x3d20eed7	0.039290275
182	0x3cd175f7	0.025568945
183	0x3d350bc4	0.044200674
184	0x3d1b86a0	0.037970185
185	0xbc6f81c2	-0.014618339
186	0x3a1af395	0.00059109303
187	0xbcf0b00f	-0.029380826
188	0x3d9d06f7	0.07667344
189	0xbba3e73a	-0.0050019296
190	0xbc4768d5	-0.01217099
191	0x3d627932	0.055291362
192	0xbd18042f	-0.037113365
193	0x3d85fa1d	0.06541846
194	0xbd2fdcdb	-0.042935234
195	0xbd1a13f2	-0.037616678
196	0xbc0b2917	-0.008493683
197	0xbd115964	-0.03548564
198	0xbbf216d4	-0.007387975
199	0x3cb10e50	0.02161327
200	0x3d2c5750	0.042075455
201	0xbc841421	-0.01612288
202	0x3c7e7f92	0.015533345
203	0x3d4abed7	0.049498405
204	0xbbdc1072	-0.0067158276
205	0xbd0b88d0	-0.03406602
206	0xbc800461	-0.015627088
207	0xbcb2ae0c	-0.021811508
208	0xbd31c556	-0.043401085
209	0x3cb7dbaa	0.022443611
210	0xbbdde340	-0.006771475
211	0xbd08f721	-0.033438805
212	0x3d888b47	0.0666719
213	0x3d114e30	0.035474956
214	0xbc404e29	-0.011737385
215	0xbd1e6f57	-0.0386804
216	0x3b9a331c	0.0047057997
217	0xbd23bed2	-0.039976902
218	0x3d99a15f	0.07501482
219	0x3cdd47ca	0.02701177
220	0xbd2f7b11	-0.042841975
221	0x3b830e28	0.0039994903
222	0xbca226ae	-0.019793835
223	0x3d3b3747	0.045707013
224	0xbd3a290c	-0.0454493
225	0xbc1ca5df	-0.009561031
226	0x3bc05ad8	0.0058702044
227	0x3bb44a4d	0.0055020214
228	0x3d4be6f2	0.049780793
229	0xbb72636c	-0.003698553
230	0x3c18a985	0.00931776
231	0x3d324357	0.04352125
232	0x3d8d167e	0.06889056
233	0xbc60e2ba	-0.013725931
234	0xbd1b1f6d	-0.037871767
235	0x3d71dc42	0.059047945
236	0xbcafa4e3	-0.021440929
237	0x3cd0b4fd	0.025476927
238	0x3cb8cc8f	0.022558479
239	0x3d083f04	0.03326322
240	0xbcf8136c	-0.030282699
241	0xbbd87c11	-0.0066065867
242	0x3ce6c275	0.028168896
243	0xbc9263ef	-0.017869918
244	0x3d53ae09	0.051679645
245	0x3d11b9f6	0.035577737
246	0x3cbe91db	0.023262909
247	0x3c38bec5	0.011275952
248	0x3d0ae6c3	0.033911478
249	0xbceeabe4	-0.029134698
250	0x3d1f8d38	0.038953036
251	0x3d287afd	0.041132916
252	0xbc86ab5f	-0.016439138
253	0x3d280bff	0.041027065
254	0x3d646dd1	0.05576879
255	0xbcc5a3ad	-0.024125898

body.2.bias f4 [256]
0	0xbc1a0b00	-0.009402037
1	0xbd5d0680	-0.053961277
2	0x3cd54005	0.026031503
3	0x3ba8c2ba	0.0051501663
4	0x3d39881f	0.04529583
5	0xbd191009	-0.037368808
6	0xbd04cdaa	-0.0324227
7	0x3bda9fe8	0.0066718943
8	0x3d144432	0.03619785
9	0xbd64d8a8	-0.055870682
10	0xbcc56e0f	-0.024100332
11	0x3d082c52	0.033245392
12	0x3bdc35fb	0.006720302
13	0x3c3b7ec3	0.011443797
14	0xbc72f117	-0.014827988
15	0xbc88c790	-0.016696721
16	0xba8daf8f	-0.0010809767
17	0x3d882e00	0.06649399
18	0xbcd15603	-0.025553709
19	0xb7ee7bca	-2.8429455e-05
20	0xbd46faae	-0.04857891
21	0xbc9357cb	-0.017986199
22	0xbce6b00c	-0.028160118
23	0x3d7eb8a0	0.06218779
24	0x3d002c64	0.031292334
25	0xbd0c9883	-0.034325134
26	0x3d465dec	0.048429415
27	0xbce2f998	-0.027706906
28	0x3c343c13	0.011000651
29	0x3d5a236d	0.05325644
30	0x3d72b286	0.059252284
31	0xbbe9923f	-0.0071280296
32	0xbd02a802	-0.031898506
33	0x3b559ed0	0.003259588
34	0x3bc2d187	0.0059453878
35	0x3d3e3379	0.046435807
36	0x3d244343	0.04010321
37	0xbafe7637	-0.0019413893
38	0xbd4e8804	-0.050422683
39	0xbc0eed09	-0.008723506
40	0xbd409943	-0.04702116
41	0x3ba0daa1	0.004908875
42	0xbb92ecc0	-0.004483789
43	0x3c3e1925	0.011602675
44	0xbc0eefde	-0.008724181
45	0xbc7f7ee9	-0.015594223
46	0xbd809c24	-0.062797815
47	0xbd2705c3	-0.04077698
48	0xbd53712b	-0.051621597
49	0x3d10cd0f	0.03535181
50	0xbc22489e	-0.009905009
51	0xbd6b5887	-0.057457473
52	0xbc0560fa	-0.008140797
53	0x3d2bf363	0.04198016
54	0x3ccb3afd	0.024808401
55	0xbc442f06	-0.011974102
56	0x3d39949c	0.04530774
57	0xbd00e8ce	-0.03147202
58	0xbd261efb	-0.04055689
59	0xbd2e1182	-0.042497166
60	0x3b312836	0.0027032024
61	0x3d83018f	0.06396782
62	0x3aa77946	0.0012777231
63	0x3cc81e3d	0.024428481
64	0x3d3dfa2c	0.04638116
65	0xbd684a36	-0.056711398
66	0x38d6abd1	0.000102363185
67	0xbd45379a	-0.04814873
68	0x3ca45b43	0.020063048
69	0x3b837aae	0.0040124273
70	0x3d7580c0	0.05993724
71	0xbd15cee0	-0.036574244
72	0xbbc47755	-0.005995671
73	0x3cf56acc	0.029958151
74	0xbd080188	-0.033204585
75	0xb98d2906	-0.0002692418
76	0xbccab982	-0.02474666
77	0x3d12a625	0.03580298
78	0xbb14d3fc	-0.002270936
79	0xbc7cc373	-0.015427458
80	0xbc2adaf6	-0.010428181
81	0x3d548fcc	0.051894948
82	0xbd0072b9	-0.031359408
83	0xbbd49f11	-0.0064886888
84	0xbd181d7d	-0.037137497
85	0x3c840ae0	0.016118467
86	0x3b9dccd4	0.004815677
87	0x3d4cb762	0.049979575
88	0x3c960146	0.018311154
89	0x3c83f4a0	0.016107857
90	0x3d62366a	0.055227675
91	0x3c86fd7d	0.016478295
92	0x3d1c5e63	0.03817595
93	0xbd443b77	-0.047908273
94	0x3d617908	0.055047065
95	0x3d86f553	0.06589761
96	0x3d8050cd	0.062654115
97	0xbb8372a6	-0.00401147
98	0x3c0e9942	0.008703532
99	0xbd23de50	-0.040006936
100	0x3d157da0	0.03649676
101	0x3a831c43	0.001000293
102	0xbb24a0fa	-0.0025120364
103	0x3bd7053a	0.0065619024
104	0x3d4972b3	0.04918165
105	0x3d02714c	0.03184633
106	0x3c22a7b5	0.00992768
107	0xbd19cbd9	-0.03754792
108	0xbceddd8a	-0.029036302
109	0x3c9e52cf	0.019326596
110	0x3b994e59	0.004678529
111	0x3cf75ce2	0.030195657
112	0x3cfd6dce	0.030936148
113	0x3d2f8caf	0.042858776
114	0xbd12224b	-0.035677236
115	0xbd48849a	-0.048954584
116	0x3d28b204	0.041185394
117	0x3d344c26	0.044017933
118	0xbd64d848	-0.055870324
119	0xbd7865be	-0.060643904
120	0xbcb2b40b	-0.021814367
121	0xbd4ed0b0	-0.05049199
122	0x3d6e7bc9	0.05822352
123	0x3d0dfa34	0.03466244
124	0x3c354125	0.011062895
125	0xbd5d9de9	-0.054105673
126	0xbc770b30	-0.015078351
127	0x3cbacc82	0.022802595
128	0xbce96225	-0.028489182
129	0x3d6f641e	0.05844509
130	0xbcd3a183	-0.02583385
131	0xbc2fd2df	-0.010731428
132	0x3c9f9bba	0.019483436
133	0xbd3d9a29	-0.046289597
134	0x3cb2e563	0.021837896
135	0xbd0e69b4	-0.034768775
136	0xbd5cd475	-0.053913552
137	0xbcee0cf5	-0.029058913
138	0x3cc47c05	0.023984918
139	0xbc44348d	-0.01197542
140	0xbac18446	-0.0014764152
141	0x3d75a965	0.059976
142	0x3cbf7d4d	0.023375178
143	0xbd71beac	-0.05901973
144	0x3c1faf80	0.009746432
145	0x3d753f4a	0.05987481
146	0xbd2512c6	-0.040301107
147	0x3d2c5f37	0.04208299
148	0x3cffa2a2	0.031205479
149	0xbd4d5e4a	-0.05013875
150	0x3d393302	0.04521466
151	0xbd17e865	-0.037086863
152	0x398c573a	0.0002676787
153	0x3b668d39	0.003517939
154	0xbd2942bc	-0.04132341
155	0x3beac648	0.0071647502
156	0x3d3acbb5	0.045604426
157	0x3d2486a7	0.040167477
158	0xbd4167d8	-0.047218174
159	0x3d7f87aa	0.06238524
160	0xbd697744	-0.056998506
161	0x3c9acc1b	0.018896153
162	0x3cec10b4	0.028816558
163	0x3b0b1267	0.0021220685
164	0x3d453c4e	0.048153214
165	0xbb419a05	-0.0029541266
166	0x3ced8c83	0.028997665
167	0x3d2f9191	0.042863432
168	0xbd2b6d2a	-0.041852154
169	0x3d1584ab	0.036503475
170	0x3d2d6f3f	0.04234242
171	0x3d406d48	0.04697922
172	0x3cb491f9	0.022042261
173	0x3d5e5c12	0.054287024
174	0x3d80027a	0.06250472
175	0xbc947b79	-0.018125283
176	0x3d02be5a	0.031919815
177	0x3be08a28	0.006852407
178	0xbb0b490f	-0.0021253263
179	0xbbe40d57	-0.006959598
180	0xbc09e8e8	-0.008417346
181	0x3cf0659d	0.029345328
182	0xbd47ee5b	-0.048811298
183	0xbcfe4b4d	-0.031041766
184	0x3d80edc3	0.062953494
185	0xbd3ca63e	-0.04605698
186	0xbcce41a6	-0.025177788
187	0xbd450933	-0.048104476
188	0x3d6e7002	0.058212288
189	0xbd7e972e	-0.062155895
190	0xbd810f0a	-0.063016966
191	0xbb2547f2	-0.0025219885
192	0x3c676ab2	0.014124559
193	0x3cb946b3	0.02261672
194	0x3cc5ad64	0.02413053
195	0xbc12216b	-0.0089191
196	0xbc7fc9d4	-0.015612084
197	0xbb973c84	-0.0046153683
198	0x3d3a46df	0.045477744
199	0xbd1604dd	-0.03662573
200	0x3c6af88e	0.014341487
201	0x3c96638a	0.01835801
202	0xbbeed4e3	-0.0072885617
203	0x3cce2d0c	0.025167964
204	0x3bb26952	0.005444684
205	0xbd2d83af	-0.04236191
206	0x3c0eb7d8	0.008710824
207	0xb988edd2	-0.0002611713
208	0xbc974329	-0.018464642
209	0xbd0ea34a	-0.034823693
210	0x3d78144e	0.06056624
211	0x3c0152c4	0.007893268
212	0x3d654c39	0.055980895
213	0x3cb05a7f	0.021527527
214	0xbc30878e	-0.010774506
215	0x3d126ac0	0.035746336
216	0xbcea84f4	-0.02862785
217	0xbc95366f	-0.018214433
218	0xbd301f52	-0.04299862
219	0xbcc6c258	-0.024262592
220	0x3d3fa56b	0.046788614
221	0x3d5e8457	0.054325428
222	0x3cf0980d	0.029369378
223	0x3c931d9c	0.017958455
224	0xbd536790	-0.051612437
225	0x3d8096ed	0.06278787
226	0xbd56bb6c	-0.052424833
227	0x3d24e78d	0.040259887
228	0x3cc4d343	0.024026519
229	0xbd31af0d	-0.043379832
230	0x3af0c9de	0.0018370708
231	0x3d004188	0.031312495
232	0xbd3db7b4	-0.04631777
233	0x3d3d45df	0.046209212
234	0x3c20367a	0.009778613
235	0x3d0279af	0.031854328
236	0xbcbcba4c	-0.023038052
237	0x3d5919fd	0.0530033
238	0x3d1cad68	0.03825131
239	0xbd3a9cab	-0.045559566
240	0x3c951d58	0.018202469
241	0xbcf461b5	-0.029831747
242	0xbd306019	-0.043060396
243	0xbcd508ce	-0.026005175
244	0xbcc23917	-0.023708863
245	0x3c4de524	0.012566838
246	0xbd299f78	-0.041411847
247	0x3d63895c	0.055550918
248	0xbcea6bb0	-0.028615803
249	0xbd65b158	-0.05607733
250	0xbd6e4a1f	-0.058176156
251	0x3d41906f	0.047256883
252	0x3c8dcf1e	0.017310675
253	0xbd1614b6	-0.036640845
254	0x3d45ac36	0.048259936
255	0xbbe32273	-0.006931597

body.4.weight f4 [128, 256]
0	0x3d980046	0.07421927
1	0xbb7aab92	-0.0038249237
2	0xbd02bc3c	-0.031917796
3	0x3d323c56	0.043514572
4	0x3d919fcd	0.07110558
5	0x3d2d97ef	0.042381223
6	0xbd259521	-0.040425424
7	0x3d0cd8bb	0.034386378
8	0x3cf7cd28	0.030249193
9	0xbd039554	-0.032124832
10	0xbd2b1b11	-0.04177386
11	0x3ced8e14	0.028998412
12	0x3d2e36d5	0.04253276
13	0x3d48068a	0.04883436
14	0xbd34150d	-0.043965388
15	0xbd177ff7	-0.03698727
16	0xbc40ef1b	-0.011775757
17	0xbd2bd73e	-0.041953318
18	0x3c03e634	0.00805049
19	0x3d1d0a83	0.038340103
20	0x3d8c1eb7	0.06841796
21	0x3d46e050	0.048553765
22	0xbd803147	-0.06259399
23	0xbd6a41b0	-0.05719155
24	0x3cfad3fa	0.030618656
25	0x3cd814c7	0.026377095
26	0x3d7ff1e5	0.062486548
27	0xbd020727	-0.031745102
28	0x3d328ea8	0.04359308
29	0x3cde19af	0.027111856
30	0x3cdefe53	0.02722088
31	0xbd828960	-0.063738585
32	0xbcc1a815	-0.023639718
33	0xbb883907	-0.004157189
34	0x3d1f1585	0.038838882
35	0xbc5f26c7	-0.013620085
36	0xbc6dd7df	-0.0145168
37	0xbc72876a	-0.014802793
38	0xbcd3ff1d	-0.025878483
39	0xbd5ac72d	-0.053412605
40	0xbd121ccd	-0.035671998
41	0x3b6f2cc1	0.0036495181
42	0xbcd4d846	-0.025982033
43	0x3d5fdb92	0.054652758
44	0x3d95fa6c	0.07323155
45	0xbd1883ad	-0.03723495
46	0x3d076827	0.03305831
47	0xbc8d0d5f	-0.01721829
48	0xbcc2794c	-0.02373948
49	0x3d4ac766	0.049506567
50	0xbc92e585	-0.017931709
51	0xbc48d865	-0.012258624
52	0x3c007219	0.007839703
53	0xbc114d37	-0.008868507
54	0x3d5fe5de	0.054662578
55	0x3b9d3ea7	0.0047987285
56	0x3c53b15a	0.012920702
57	0xbd29f483	-0.04149295
58	0x3d6c82a9	0.057741795
59	0xbcfce8c1	-0.030872704
60	0xbcabd2a1	-0.02097446
61	0x3d908bb0	0.07057893
62	0xbd0d86a2	-0.034552224
63	0x3d349374	0.044085935
64	0x3cb1da08	0.02171041
65	0x3d560513	0.052250933
66	0xbd5e8852	-0.054329224
67	0xbd2a8138	-0.04162714
68	0x3cc693fc	0.024240486
69	0x3d4e7561	0.05040491
70	0xbd4e043e	-0.050297014
71	0xbd48df34	-0.049040988
72	0x3d5581c4	0.052125707
73	0x3d52e535	0.05148812
74	0x3c83cfcb	0.016090294
75	0xbd565bfd	-0.05233382
76	0x3d33ce41	0.04389787
77	0x3c9b064a	0.018923897
78	0xbc9cee40	-0.019156575
79	0xbd0ce06a	-0.034393705
80	0x3d785bdf	0.06063449
81	0x3d1b7034	0.037948802
82	0xbd2d0f7b	-0.04225109
83	0x3ce8603a	0.028366197
84	0xbd6de0a5	-0.058075566
85	0xbba97b98	-0.005172204
86	0xbc2e04d5	-0.010621269
87	0xbcaec84c	-0.021335743
88	0xbcee8084	-0.029114015
89	0xbcca38c1	-0.024685265
90	0xbd0485ce	-0.03235417
91	0x3cd208a6	0.02563889
92	0xbcaae8f9	-0.020863043
93	0xbc4f0af5	-0.01263689
94	0x3d747055	0.05967744
95	0x3d2511d9	0.040300224
96	0x3a0b4355	0.00053124625
97	0xbc85fd71	-0.016356202
98	0xbd4c114c	-0.049821183
99	0x3ca7ff40	0.020507455
100	0xbd251be6	-0.04030981
101	0x3d7da70b	0.061926883
102	0x3d7e3886	0.062065624
103	0xbd1714ac	-0.03688495
104	0x3d90a0d3	0.07061925
105	0x3cd238f8	0.02566193
106	0xbc7ef83d	-0.015562114
107	0xbc8ba3bf	-0.017045854
108	0xbcfa6bed	-0.030569041
109	0xbcf432bc	-0.029809348
110	0xbd655a0e	-0.055994086
111	0xbcc2132f	-0.023690788
112	0x3c1613b9	0.009159976
113	0xbc824c39	-0.015905486
114	0x3d60f965	0.05492534
115	0xbcf249cd	-0.029576207
116	0x3a39e9a4	0.0007092005
117	0xbc3a873f	-0.011384784
118	0x3d40ff8d	0.047118712
119	0x3d2dae33	0.042402457
120	0xbd27d5bd	-0.04097532
121	0x3d20faa6	0.039301537
122	0xbd302300	-0.04300213
123	0x3cadb0cf	0.021202473
124	0xbc920fb3	-0.017829752
125	0x3d7668b4	0.060158446
126	0x3d5c4255	0.053774197
127	0xbc983af3	-0.018582797
128	0xbcb31e74	-0.021865107
129	0xbcdabe9f	-0.026702223
130	0xbd097700	-0.033560753
131	0xbd2ee656	-0.042700134
132	0xbd58d6c9	-0.05293921
133	0x3d9f1ce1	0.0776918
134	0x3d45c08e	0.048279338
135	0x3d288ca6	0.041149758
136	0xbce168e4	-0.027515836
137	0xbd86a934	-0.06575242
138	0x3d604744	0.054755464
139	0x3c297b82	0.010344388
140	0x3d0dbfff	0.03460693
141	0x3d5d081c	0.05396281
142	0xb8adfe83	-8.296689e-05
143	0x3d55fdb8	0.05224392
144	0x3d5e0a05	0.054208774
145	0x3d611f8e	0.054961734
146	0xbcd626ee	-0.02614161
147	0x3cf5896a	0.02997275
148	0x3d6c8054	0.05773957
149	0xbd9c9222	-0.0764506
150	0xbd5ee26d	-0.054415155
151	0x3d3a6ffa	0.045516945
152	0x3d6fda4c	0.058557793
153	0x3d14eee2	0.03636063
154	0xbd5fd004	-0.05464174
155	0x3cadc616	0.021212619
156	0x3cce2ebe	0.025168773
157	0xbcd0788f	-0.025448112
158	0xbb9484d2	-0.004532435
159	0xbd54a2f4	-0.051913217
160	0x3d2d307c	0.042282566
161	0xbd6d34b0	-0.057911575
162	0x3d29ecf9	0.04148576
163	0x3d1d8db4	0.038465217
164	0xbcb6d209	-0.02231695
165	0xbcc78565	-0.0243556
166	0xbc067be1	-0.008208246
167	0x3a8ff87b	0.0010984087
168	0x3d7dd1d9	0.061967704
169	0xbd10d1f4	-0.035356477
170	0xbd76fce3	-0.060299765
171	0xbc4e18b6	-0.012579134
172	0x3d4fc11d	0.050721277
173	0x3d2378c1	0.03991008
174	0x3d3285b4	0.04358454
175	0xbd5856dd	-0.052817214
176	0xbc69d546	-0.01427204
177	0x3aee0ca5	0.0018161727
178	0x3d062043	0.03274561
179	0x3ca1dc0d	0.019758249
180	0x3c79f964	0.015257213
181	0xbcdcad72	-0.026938174
182	0xbb1516c0	-0.0022749156
183	0x3cbca0c7	0.023025883
184	0xbc62658a	-0.013818154
185	0x3d33a841	0.04386163
186	0xbd587dab	-0.05285422
187	0xbd3ce476	-0.046116315
188	0x3baaf538	0.0052172206
189	0x3d26dfee	0.0407409
190	0x3d11b224	0.03557028
191	0xbd140684	-0.036139026
192	0x3c742559	0.0149014825
193	0xbccc1284	-0.024911173
194	0x3d4632d2	0.04838831
195	0xbc8d31d6	-0.017235678
196	0xbd510c49	-0.051037107
197	0xbd1ba7f5	-0.038001973
198	0xbd438870	-0.04773754
199	0xbd8436b9	-0.0645575
200	0xbce9558d	-0.028483177
201	0xbb9119d3	-0.0044281273
202	0x3d0c3be2	0.034236796
203	0xbc34f46f	-0.011044606
204	0x3d5697dd	0.05239092
205	0x3ad1355d	0.0015961338
206	0x3c4f2cf1	0.012644992
207	0x3c51b76f	0.012800082
208	0xbd68cea0	-0.056837678
209	0x3d62203d	0.055206526
210	0xbd1a12a3	-0.03761543
211	0xbb736f4e	-0.00371452
212	0x3c8be9f6	0.017079335
213	0xbc23b175	-0.0099910395
214	0xbd190b29	-0.03736416
215	0xbcd70095	-0.026245395
216	0x3d5cdd6a	0.053922094
217	0xbd099d94	-0.033597544
218	0xbcbb4a97	-0.022862716
219	0x3d2dfb08	0.04247573
220	0x3d507534	0.050893024
221	0x3c53212d	0.012886328
222	0x3d58e809	0.05295566
223	0x3d20b35d	0.039233554
224	0x3acab8d4	0.001546646
225	0x3d54f130	0.051987827
226	0xbd07bbae	-0.03313797
227	0x3cd145b7	0.025545938
228	0xbd017f6a	-0.031615652
229	0xbd124177	-0.035706963
230	0x3d6834eb	0.05669109
231	0x3d5856e0	0.052817225
232	0xbc7f4bd0	-0.01558204
233	0xbb8a04ff	-0.0042120214
234	0x3cf83f44	0.030303605
235	0xbd2cdb0e	-0.042201094
236	0x3d42ce98	0.047560304
237	0xbd6fa6bf	-0.05850863
238	0xbc041b66	-0.008063173
239	0xbd58d234	-0.05293484
240	0xbd730012	-0.05932624
241	0xbd23b024	-0.039962903
242	0xbc3e5e0a	-0.0116191
243	0x3c9ff3ad	0.019525373
244	0x3c448579	0.011994713
245	0x3cc88b50	0.024480492
246	0x3d5ebe7d	0.054380883
247	0xbd4236cf	-0.04741555
248	0xbd258b66	-0.040416144
249	0x3d01e216	0.031709753
250	0x3caaad43	0.02083457
251	0xbc09e3cf	-0.00841613
252	0xbd3c38d3	-0.04595263
253	0xbc355b78	-0.011069171
254	0xbcc68e23	-0.024237698
255	0xba439512	-0.0007460873

body.4.bias f4 [128]
0	0x3d549863	0.05190314
1	0xbcfc467b	-0.030795326
2	0x3ce46f96	0.02788524
3	0x3d3855f3	0.045003843
4	0x3c527a56	0.01284655
5	0xbb9e4604	-0.004830124
6	0xbc9701c4	-0.01843346
7	0x3d103653	0.035208058
8	0x3d2ba2a5	0.041903157
9	0x3d3bd5cf	0.0458582
10	0x3ceaf747	0.028682364
11	0xbd432609	-0.047643695
12	0x3d402c12	0.04691703
13	0x3d3c3ba0	0.0459553
14	0xbd25741d	-0.040393937
15	0xbcaf1946	-0.021374356
16	0x3cc3e76c	0.023914061
17	0xbd3b4633	-0.045721244
18	0xbd21a4a6	-0.03946366
19	0x3c360c63	0.011111352
20	0xbd1d3667	-0.03838196
21	0x3d21d840	0.039512873
22	0xbc30019c	-0.010742571
23	0xbc79cf8a	-0.015247235
24	0xbcf5bc3d	-0.029996986
25	0xbd575598	-0.052571863
26	0x3cf89fef	0.0303497
27	0xbd03ba3a	-0.03216002
28	0xbcb2eab8	-0.021840438
29	0xbd641acb	-0.055689614
30	0x3d032526	0.03201785
31	0x3d09bdbf	0.03362822
32	0x3cecb0eb	0.028892955
33	0x3d6b120a	0.05739025
34	0x3cacc184	0.02108837
35	0xbcc0b3b2	-0.023523185
36	0xbca08b67	-0.019597722
37	0xbcf6de23	-0.03013522
38	0x3d2019c6	0.03908708
39	0x3d40b61a	0.047048666
40	0x3ced4f85	0.028968582
41	0x3d5b510a	0.05354408
42	0x3d61e938	0.055154055
43	0xbb77b424	-0.003779658
44	0x3c97df9c	0.018539242
45	0xbc8b5721	-0.01700932
46	0xbcd5f99d	-0.026120001
47	0x3ccd434d	0.025056506
48	0x3c54c8f3	0.012987363
49	0x3cbea3af	0.02327141
50	0xbd117c81	-0.035519127
51	0x3d5c689f	0.053810712
52	0xbd40def4	-0.047087625
53	0xbca11fc0	-0.01966846
54	0x3d02f75e	0.03197419
55	0xbaecb43c	-0.0018059085
56	0x3cf1bee6	0.029509973
57	0x3ccf6ea5	0.025321314
58	0x3cbf55cd	0.023356343
59	0xbd55032e	-0.052004986
60	0xbcf7134d	-0.03016057
61	0xbcce1e88	-0.025161043
62	0x3d738df0	0.059461534
63	0xbcf1fca8	-0.029539421
64	0xbc29b576	-0.010358205
65	0x3d5f54d5	0.05452426
66	0xbce45f58	-0.027877495
67	0xbd1422c0	-0.036165953
68	0x3d11c4e7	0.03558817
69	0x3d3bb211	0.045824114
70	0x3cce67b3	0.025195932
71	0x3d6499a9	0.055810604
72	0x3d31ba8d	0.0433908
73	0x3d3c799b	0.04601441
74	0xbc3daade	-0.011576382
75	0xbc506113	-0.012718457
76	0xbae7e8fa	-0.0017693334
77	0x3d0d6226	0.03451743
78	0xbd449a3b	-0.047998648
79	0xbd5f4197	-0.05450591
80	0x3cc03f4f	0.023467688
81	0xbd54a891	-0.05191857
82	0x3c8be5f5	0.017077425
83	0x3c8e6311	0.017381223
84	0xbd429390	-0.047504008
85	0x3d0951fe	0.03352546
86	0xbb4b26b0	-0.0030998401
87	0xba901452	-0.0010992384
88	0xbbdacff1	-0.0066776206
89	0x3b059940	0.0020385534
90	0xbd604d85	-0.05476143
91	0xbbb7871e	-0.005600824
92	0x3cb7a3ba	0.022416938
93	0xbcbcd2a2	-0.023049656
94	0xbc5421b1	-0.012947486
95	0x3d035bd6	0.032070003
96	0x3ca15d17	0.019697709
97	0xbd4ac1ac	-0.049501106
98	0x3b9e8786	0.004837933
99	0xbc98ee41	-0.018668296
100	0x3b706a64	0.0036684508
101	0x3cbe9391	0.023263725
102	0x3c9b7dea	0.018980939
103	0x3cb93e65	0.02261276
104	0xbc157424	-0.009121928
105	0x3c1de5e9	0.009637334
106	0xbc8990e6	-0.016792726
107	0xbd68b63a	-0.05681441
108	0xbc8ab384	-0.016931303
109	0xbbc15e92	-0.0059011662
110	0x3d3b165e	0.045675628
111	0x3d6ab8d0	0.057305157
112	0xbbb87f9d	-0.005630447
113	0x3d2cf71a	0.042227842
114	0x3c57badc	0.013167109
115	0xbd742096	-0.05960139
116	0x3c1b40ee	0.00947593
117	0xbcb4763b	-0.022029033
118	0xbd240e73	-0.040052842
119	0xbd8899d6	-0.06669967
120	0x3d67e140	0.0566113
121	0x3bc477ea	0.00599574
122	0xbd30e25d	-0.043184627
123	0x3aa218c1	0.0012366996
124	0xbc3a9c27	-0.011389769
125	0x3d4b39a2	0.04961551
126	0xbcf413c9	-0.02979459
127	0x3d43f0fe	0.04783725

move_head.weight f4 [5, 128]
0	0xbd5bb722	-0.053641446
1	0x3c0277ef	0.007963165
2	0xbdc29774	-0.09501544
3	0xbdbd87ec	-0.09254441
4	0xbc237e53	-0.0099788485
5	0x3daa96aa	0.08329518
6	0xbcc07023	-0.023490971
7	0x3d19c503	0.0375414
8	0xbce1999b	-0.027539065
9	0xbac385a4	-0.0014917147
10	0x3d9c9943	0.0764642
11	0x3bc7fca1	0.0061031138
12	0x3d5c4d5b	0.05378471
13	0x3d04e779	0.032447312
14	0x3d884324	0.06653431
15	0xbd9fc117	-0.07800501
16	0x3d3087ad	0.04309814
17	0x3d825ca4	0.06365326
18	0xbd8897c6	-0.066695735
19	0x3d6b7a2d	0.057489563
20	0x3ba5ea04	0.005063297
21	0xbcb7992c	-0.022411905
22	0xbc781ef3	-0.015144098
23	0x3c261a2a	0.010138074
24	0x3d742def	0.05961412
25	0xbc25e923	-0.010126385
26	0xbc5aa574	-0.013345111
27	0xbdabce5d	-0.0838897
28	0x3d467afc	0.04845713
29	0x3a96f750	0.0011517797
30	0x3bf0c183	0.007347287
31	0x3d366a76	0.044535123
32	0xbda2fcf2	-0.07958402
33	0xbcf805d5	-0.030276218
34	0x3c11dca4	0.0089027025
35	0x3c4f370a	0.0126474
36	0xbccce02e	-0.025009241
37	0x3d5bf8b1	0.053703967
38	0x3d24c92b	0.04023091
39	0xbd8c3b4b	-0.06847247
40	0xbd8fc474	-0.07019892
41	0xbd901cf0	-0.070367694
42	0xbd0eac09	-0.034832034
43	0xbcc82794	-0.024432935
44	0xbd8af9ef	-0.06785952
45	0x3b0f8892	0.002190147
46	0x3d3ff4f3	0.04686446
47	0x3d900319	0.07031841
48	0xbd9faa05	-0.077961005
49	0x3cf57237	0.029961688
50	0xbca3d59f	-0.019999323
51	0x3d89c930	0.067278266
52	0x3d7f63db	0.06235109
53	0xbdbaa011	-0.091125615
54	0xbd5fc0c1	-0.054627184
55	0xbd02e92f	-0.031960662
56	0xbad2014e	-0.0016022117
57	0xbd0760ea	-0.03305141
58	0xbba0a12d	-0.004902026
59	0xbc9783b4	-0.018495418
60	0x3d9c4a83	0.076313995
61	0xbd6cd743	-0.057822477
62	0xbdae2fd0	-0.08505213
63	0xbc6f2afa	-0.014597649
64	0x3d15fe04	0.0366192
65	0xbd030e75	-0.03199621
66	0x3d31edd1	0.04343969
67	0x3cd427c5	0.02589787
68	0x3d850ed2	0.064969674
69	0xbd1efc89	-0.038815055
70	0x3c801f69	0.015639978
71	0x3d8db5a7	0.06919413
72	0x3da5d70d	0.08097658
73	0xbd069ed9	-0.032866333
74	0xbd805abb	-0.062673055
75	0xbd1b8c52	-0.037975617
76	0x3db7e649	0.0897947
77	0xbd1710ba	-0.036881186
78	0x3d3800a8	0.0449225
79	0x3d758df7	0.05994984
80	0xbd8b45cc	-0.06800422
81	0xbcef31b3	-0.029198503
82	0x3d57272b	0.052527588
83	0x3d3bb364	0.045825377
84	0xbd27633a	-0.040866114
85	0xbd5b9dfd	-0.053617466
86	0x3d58f156	0.05296453
87	0x3c73fe37	0.0148921525
88	0xbd3290bd	-0.043595064
89	0x3cc32845	0.023822913
90	0x3cca57a2	0.02469999
91	0xbd0fa723	-0.035071503
92	0x3dab25ee	0.08356844
93	0x3d48761c	0.048940763
94	0xbd4cd53c	-0.050008044
95	0xbd316354	-0.043307617
96	0xbda3f6cb	-0.080060564
97	0xbd1f9ab9	-0.038965914
98	0xbd8c4ae8	-0.06850225
99	0xbcc89351	-0.024484308
100	0xbaaacead	-0.0013031565
101	0xbd5b9f96	-0.05361899
102	0xbc9a5ddc	-0.018843584
103	0x3d8b67a3	0.068068765
104	0xbc460f2a	-0.012088576
105	0xbd83df55	-0.064390816
106	0x3d189c55	0.037258465
107	0x3d92f6ff	0.07176017
108	0x3ccf355f	0.025294004
109	0xbc8edfd6	-0.017440718
110	0x3cd16c81	0.025564434
111	0xbbba40b0	-0.005683981
112	0xbd3d53ac	-0.046222374
113	0xbd788938	-0.060677737
114	0xbca45d28	-0.020063952
115	0xbc7b838a	-0.015351186
116	0x3d71d701	0.059042934
117	0x3cb0c6e2	0.02157921
118	0x3d89d202	0.06729509
119	0x3d9f2792	0.07771219
120	0xbd5007d3	-0.05078871
121	0xbaf594ed	-0.00187364
122	0xbcc625bf	-0.02418792
123	0x3d9b42e7	0.0758112
124	0xbcea0492	-0.028566632
125	0xbc4541e6	-0.012039637
126	0x3d86eb37	0.065878324
127	0x3d9c486f	0.07631003
128	0x3ba28654	0.004959861
129	0xbd8c695c	-0.06856033
130	0xbcc60599	-0.024172591
131	0xbda17610	-0.07883847
132	0x3dbec60d	0.09315119
133	0x3cb57b3a	0.022153486
134	0xbda84ba8	-0.08217555
135	0xbcffe1bf	-0.031235574
136	0xbd874114	-0.066042095
137	0xbc8a4332	-0.016877744
138	0x3d98611a	0.07440396
139	0x3d41bca4	0.047299042
140	0x3c87cd9d	0.016577536
141	0xbd84f738	-0.06492466
142	0x3d78d4da	0.060749866
143	0xbd6a31be	-0.057176344
144	0xbd5c05a6	-0.053716324
145	0x3cfcff70	0.03088352
146	0x3da2d003	0.07949831
147	0x3d17b404	0.03703691
148	0xbcaea995	-0.021321097
149	0xbceb9a32	-0.02876005
150	0x3d128d99	0.03577957
151	0xbc4d5fcc	-0.012535047
152	0x3ba7d32e	0.00512161
153	0x3cb0e99f	0.021595774
154	0xbd307985	-0.04308464
155	0x3db5d0fe	0.08877753
156	0x3c1137b8	0.008863382
157	0xbd5570e3	-0.05210961
158	0xbd56fe85	-0.052488822
159	0x3d374bd6	0.044750057
160	0xbd4bb5d3	-0.049733948
161	0x3dcbfee5	0.09960727
162	0x3d4da92f	0.050210174
163	0xbd6285bc	-0.05530332
164	0xbd08f60e	-0.03343778
165	0x3d2e7059	0.04258761
166	0x3da6efd0	0.08151209
167	0xbcdbaf8f	-0.026817111
168	0x3db0b597	0.086283855
169	0xbcae69a7	-0.021290613
170	0x3da1545f	0.07877421
171	0xbd48c8d3	-0.049019646
172	0xbc94aab3	-0.018147802
173	0xbd63a061	-0.05557287
174	0x3d850956	0.06495921
175	0xbc014fac	-0.00789253
176	0x3d97408d	0.07385359
177	0xbd692af0	-0.056925714
178	0x3d2a1206	0.041521095
179	0xbd202981	-0.03910208
180	0x3c73406d	0.014846903
181	0x3db3b8af	0.0877546
182	0xbc967d73	-0.018370366
183	0xbcfbbcd2	-0.030729685
184	0xbd85aa7b	-0.06526657
185	0xbd293c6f	-0.0413174
186	0x3d8a678a	0.0675803
187	0x3bca8ae7	0.006181109
188	0xbba65721	-0.0050763045
189	0x3d1f3e03	0.0388775
190	0x3cb7e1a1	0.022446455
191	0xbd22ed9d	-0.039777387
192	0x3c92e086	0.017929327
193	0x3d909624	0.07059887
194	0x3d24f82b	0.040275734
195	0xbd686c67	-0.056744006
196	0xbd05caf1	-0.032664243
197	0xbd9da523	-0.07697513
198	0xbda4f919	-0.08055324
199	0xbd77b030	-0.06047076
200	0x3d412b7d	0.047160614
201	0xbd955b9a	-0.07292862
202	0x3d11afaf	0.035567936
203	0xbdb1809a	-0.08667107
204	0x3d981974	0.0742673
205	0x3b5904a7	0.0033114345
206	0xbcd3206a	-0.025772292
207	0x3d686267	0.05673447
208	0xbcbbace5	-0.022909591
209	0xbd0c1c2a	-0.034206547
210	0x3d55bc70	0.05218166
211	0x3ceaffb3	0.02868638
212	0xbcd5415b	-0.02603214
213	0x3dc88484	0.097909
214	0x3d34a762	0.04410494
215	0x3d06011b	0.032715898
216	0xbc6fd237	-0.0146375215
217	0x3d2b17b7	0.041770663
218	0xbd504352	-0.05084545
219	0xbc96a349	-0.018388407
220	0xbbb7229c	-0.0055888426
221	0xbd126b18	-0.035746664
222	0xbca7562e	-0.020426836
223	0xbcd41081	-0.025886776
224	0x3cc4a7b1	0.024005743
225	0xbb4ad5af	-0.003095012
226	0xbd387d60	-0.045041442
227	0x3c8f829f	0.01751834
228	0x3d8bdb94	0.068289906
229	0x3d453ec4	0.04815556
230	0xbd6a547d	-0.05720948
231	0xbd8b565d	-0.06803582
232	0x3ca32747	0.01991619
233	0x3d235289	0.039873634
234	0x3c8f197a	0.017468203
235	0xbd1ed536	-0.038777553
236	0xbced3242	-0.028954629
237	0xbd3ced1e	-0.04612457
238	0xbd3914a2	-0.045185693
239	0xbd829772	-0.06376542
240	0x3b92550d	0.0044657052
241	0xbda1a9c8	-0.07893711
242	0x3d9b959b	0.07596894
243	0x3d78427b	0.060610276
244	0xbc13ed6c	-0.009028774
245	0x3ccdd965	0.025128076
246	0xbb17bf21	-0.0023154693
247	0xbd01542d	-0.031574417
248	0xbd71df1e	-0.05905067
249	0xbdb0c493	-0.086312436
250	0xbcbd9dad	-0.023146475
251	0xbdbbe245	-0.09174017
252	0x3cefff3e	0.029296514
253	0xbd57c447	-0.05267742
254	0xbc1d6666	-0.009606933
255	0x3cb9f56b	0.022700032

move_head.bias f4 [5]
0	0xbd4ddfc4	-0.050262228
1	0x3d9fcf28	0.07803184
2	0x3dab4d64	0.083643705
3	0x3cb1757d	0.021662468
4	0xbc952bd6	-0.01820938
