checkpoints/simple_world_comm_v3_scratch/simple_world_comm_v3_adversary_2_ep300.pt (torch, 437311 bytes, 8 tensors)

body.0.weight f4 [256, 34]
00000000: 6b1d 18be 92fc b4bc e290 713c ec10 2dbe
00000010: 95be cc3b bb7b c53d 7949 16be 3733 3ebb
00000020: c4ec 14be 9437 253d ca34 d7bd 3e9a c3bd
00000030: 30da 163e a820 f83d 656f cabd a87e 9a3c
00000040: a07c 70bc 5992 413d 260d 0cbe 85ab 953d
00000050: d990 263c 8424 f33c 8bf7 ab3d 6006 23bd
00000060: bf0f 953d 2453 143e 1739 4cbd 161e ff3d
00000070: 4f0a 3d3e 76f3 213e 419d df3d 8172 ad3c
00000080: 037d 9c3d 15e3 c63d e650 d23d f324 fb3b
00000090: b6cc 203d 6b95 96bc aecc 0c3e 9ce6 19be
000000a0: 407e d3bd 7496 303d 6d05 ddbd bf18 f4bd
000000b0: b490 50bc 881a e23d 1d8e 153e beb7 a9bd
000000c0: 2a0c 05be ea80 58bd a59d 17be dc7b 9dbd
000000d0: 8506 2d3e c917 0a3e da02 623d a995 efbd
000000e0: f935 f6bc b4e3 08bd d61b 12be fae0 5fbd
000000f0: df1c bcbd aef8 f73c bb5b e8bd eff7 c83d
00000100: 9b92 d03c fd77 d1bd 5bf7 d3bd 662a 82bd
00000110: aa6c 693d 6f37 a63d 2e10 683b c710 0f3e
00000120: 174c 0dbe 5ea2 043e 709d 9abd 1459 3bbe
00000130: 76ae 16be ee9e 843c 383b 21be 1cf8 b83d
00000140: 5056 1e3d d2c5 ea3d e06a a2bd 9f31 34bd
00000150: 67fa f33d 8d00 e63b 2a77 313b db3b e23d
00000160: 48da fb3c d0f4 0abe ef23 2dbe 56ba 24be
00000170: 398b 7cbd da6f 07be b756 f53d c0a8 55bd
00000180: 601c 053e 3bcb 2cbe 87a3 043e 2a86 a0bc
00000190: e4fc 62bd 2641 123e 14d6 243e 7880 81bc
000001a0: 1ad5 38be 9ae1 cabd fb89 5dbb 5cdc 03be
000001b0: 89de 59bd f995 01be c4f4 30bc e23e de3d
000001c0: cb35 4a3d dfea 8e3d df1c 013e 55cd 0c3d
000001d0: 29d3 fd3d 1429 1abe cbf4 0f3e d2c6 06be
000001e0: 0806 0b3e ebee c1bd 7e0b 173c d5e4 91bc
000001f0: 8e03 6abd c2ee 483c a63e 1e3e b25a 153e
00000200: d779 ab3d deb8 0bbc fc60 79bc 0b2f 8b3b
00000210: 131a c33d bcf0 113e 744a 023e 570f 043e
00000220: dbd7 b43d 8047 183e 3d11 f9bd b9ac 21be
00000230: c234 efbd 84fc 12bd 8990 4b3d 1124 1fbc
00000240: 9d10 373e fc1f 3cbd 5555 11be d4b3 43bd
00000250: 2f8b 1d3e 2ed9 04bd cb68 b63d 3cec 293d
00000260: 3536 dfbc 4eef 783d 643b 313e cca3 293e
00000270: 5890 c43d 3d94 69bc 2573 aa3d 4417 d1bd
00000280: c6e2 dabd 1004 8fbb cd37 2e3d cb12 c8bc
00000290: 2bf7 10be 3d51 8ebc 872f a7bb 276d 2f3d
000002a0: 2b9c c5bd 41b7 02be 3ee6 8ebc db06 6fbd
000002b0: 3cf9 babd 5b0f d93c 3a6d 063e abfd 353c
000002c0: bbab 07be a15a 2e3e 3842 65bd 0fc0 f7bd
000002d0: 8b3d 2bbe 2492 14be 7113 273e 8728 303e
000002e0: b5ce 34bd fe4f c7bd 5075 0d3e 010f 983d
000002f0: f901 2dbc bb4f c93d 092d f6bd c495 ef3c
00000300: fe8d ba3c 4d62 b93d cd3b 1e3c 4884 813d
00000310: 1969 ffbd 1d3d e1bd 7f4e fb3d 643b 84bd
00000320: df79 033e ae81 f13d 3295 1f3e c26d 0b3b
00000330: 1cdb 2abe b90b a2ba 841d cd3d 7b2f 903d
00000340: 89c2 a73d 8aab 04bd dd4c e53d 5ac9 fabd
00000350: feba 19be 89ae 02be 3727 963d 1460 75bd
00000360: 5795 dfbd 49eb 17be 0aaf 45bd 981f 1bbd
00000370: bc7f 34bd cb3a dfbc 8075 2fbe d774 f5bd
00000380: af6f 19bd a115 5b3d 5842 b43d 2867 d93d
00000390: b3d6 e13d eed0 3cbd e983 03be 7256 ae3d
000003a0: d919 dcbd b6d7 6cbd 8bd2 823d 0e8b debd
000003b0: 4abb 92bc 2fb0 163e 94f3 aa3d d090 adbd
000003c0: 7dcf 64bd 6d1c 1dbe 1287 3e3d f9c3 6e3c
000003d0: 5a9e 923d b75a c9bb 201a 3b3d 2199 ecbd
000003e0: 8347 0abe 49f8 8f3b 809a e23d 6037 e1bb
000003f0: 81d3 13be 51ed 2f3a 84ac d93c 66aa 093e
-0.14854972 -0.022093091 0.014744015 -0.16900986 0.006248305 0.0964274 -0.14676465 -0.0029022226
-0.14543444 0.040336207 -0.105081156 -0.09550904 0.1473167 0.12115604 -0.09884528 0.018859223
-0.01467815 0.04725871 -0.1367689 0.073081054 0.01016637 0.029680498 0.083968244 -0.039801
0.07278394 0.1448484 -0.049859133 0.1245691 0.18460964 0.15815529 0.10918666 0.021172764
0.076410316 0.09711281 0.102693364 0.007664317 0.039257728 -0.018381795 0.13749954 -0.15029377
-0.10326815 0.043112233 -0.107920505 -0.119187824 -0.012729812 0.11040217 0.14604993 -0.08286999
-0.12992921 -0.052857317 -0.1480623 -0.0768964 0.16897018 0.13485636 0.0551785 -0.11698467
-0.030055033 -0.03342028 -0.14268431 -0.054657914 -0.09185194 0.030269947 -0.11345621 0.098129146
0.025460532 -0.10227964 -0.10349914 -0.06355743 0.056988396 0.08116042 0.0035410034 0.13971244
-0.13798557 0.12952563 -0.0754956 -0.182957 -0.14714989 0.016189065 -0.15745246 0.09031698
0.038656533 0.114635125 -0.07930541 -0.043992635 0.11912995 0.0070191086 0.0027079084 0.11046573
0.030743733 -0.13569951 -0.16908239 -0.16086707 -0.06165621 -0.13226262 0.1197943 -0.052162886
0.12999105 -0.16874401 0.12953006 -0.019595224 -0.055416957 0.14282665 0.1609729 -0.015808329
-0.18050042 -0.09906311 -0.0033804167 -0.12877029 -0.05319074 -0.12654866 -0.010800544 0.10851838
0.049367707 0.06978392 0.1260867 0.034375507 0.12393791 -0.15054733 0.14058225 -0.13161781
0.1357652 -0.09469398 0.009219049 -0.01780931 -0.057132296 0.012263956 0.15453586 0.14585379
0.083728485 -0.0085279625 -0.015220877 0.0042475513 0.09526458 0.14251989 0.12723714 0.12896477
0.08830234 0.14871025 -0.12161491 -0.15788545 -0.11679985 -0.03588535 0.049698386 -0.009713189
0.17877431 -0.04592894 -0.14192708 -0.04777892 0.15385126 -0.03243368 0.089067064 0.041485056
-0.027247528 0.060775094 0.17307812 0.1656639 0.09597844 -0.014256534 0.08322743 -0.10209516
-0.10687785 -0.004364498 0.042533685 -0.024423024 -0.14156787 -0.017372722 -0.0051021012 0.042828705
-0.09648927 -0.12765218 -0.017443772 -0.058356147 -0.09129569 0.02649658 0.13127604 0.011107842
-0.13249104 0.1702676 -0.055971354 -0.12097179 -0.16722696 -0.14508873 0.1631601 0.1720296
-0.044142444 -0.09732054 0.13814282 0.07424737 -0.010559552 0.098296605 -0.120203085 0.029246219
0.022772785 0.090519525 0.009657812 0.06324059 -0.12471218 -0.109979846 0.12270831 -0.0645664
0.12839459 0.117923126 0.15584257 0.0021275138 -0.16685146 -0.0012363113 0.10015395 0.07040306
0.081914015 -0.032390155 0.11196301 -0.12245436 -0.15012738 -0.12761892 0.073316984 -0.05990608
-0.10917156 -0.14835848 -0.048262633 -0.037871927 -0.04406713 -0.027249714 -0.17134666 -0.11985176
-0.037460025 0.053487424 0.088017166 0.106153786 0.11027279 -0.04609769 -0.12843288 0.08512582
-0.107471175 -0.057822905 0.06387814 -0.10866366 -0.017911572 0.14715646 0.0834724 -0.084748864
-0.05586194 -0.15342875 0.04651553 0.014573091 0.071591094 -0.0061448473 0.04567921 -0.115526445
-0.13503842 0.0043936116 0.11064625 -0.0068730563 -0.14436151 0.0006711083 0.02657152 0.13443908

body.0.bias f4 [256]
00000000: 52f6 efbc 8448 043e b5ce 203e cc7c 173e
00000010: 4675 84bb cd47 17be d2a8 143d 60fb f7bd
00000020: 310c 83bd 04fe 32bd d2c9 1a3e 96a2 0d3c
00000030: 6340 41bd dfca fdbd e2d6 0e3e e3ad e93d
00000040: 8c50 4c3d a257 fd3d e1d8 1a3e ac43 e5bc
00000050: c298 fb3d 279a c9bd 9bac 03be 8a16 f73d
00000060: a120 103c 0350 efbd a9e4 0bbe a281 b33b
00000070: b727 483c a08a c73c 5775 f73c d5c4 943d
00000080: e0c0 96bd c323 fdbc 67eb 02be 198f a43d
00000090: ca22 2f3e e0ea 2cbd c504 7fbd a8fa 1d3e
000000a0: d44b 35bd 209b 953d 1917 0cbe 6595 643d
000000b0: 028a 15be 40ad 84bd 600e e0bd a9fb 05bd
000000c0: 9113 86bd 356b cb3d 61d0 98bd f41a d43d
000000d0: b246 b03d 0117 7cbd bb5c 19be f6ab 3abd
000000e0: b14b c23d 8a93 aabd 0298 a43d 3ffa 9ebd
000000f0: 7ab5 b6bd 4d47 313e 7826 a13d 1217 2f3e
00000100: 43a0 b03d ee22 90bd 66c9 53bc 2b5b d5bd
00000110: 52b7 1f3d 6137 e63d ad85 ebbd 5133 243e
00000120: 8d04 253e fb3c 3a3d bbb5 21be 4952 55bc
00000130: fd40 d43d eb04 b43d ec57 f0bc 97be 163d
00000140: e204 343e d450 113e 5534 5b3d dcd7 84bc
00000150: c95d 9cbc 21c8 08bd 6a4c 003e b4f5 45bd
00000160: 2a0d 313e 3f71 9dbc fab4 a3bd ae98 65bd
00000170: 83fd 283e 55a0 903d 0f79 0abc 7ffa c03c
00000180: d6c8 45bb 986a 19be a52c dd3c 370c 033e
00000190: f7b3 073e 5ad8 2b3e 3291 dd3c 8c60 153d
000001a0: 3c4d 253e fde5 2bbe 4743 fabd 9d18 d5bd
000001b0: aec2 203e 9094 f9bc a517 28bd c8fe a7bd
000001c0: cc77 28be a9d4 1e3e 26c7 a2bb 6e3e a5bd
000001d0: 8618 01be 3744 d13c 118b 9ebd fa07 2d3e
000001e0: d19e cfbd 2569 90bd 8794 f83d 92b0 9d3d
000001f0: 0a76 8ebd 877c 71bd b1ad 75bd 4ecc e83d
00000200: f279 8bbd 0282 233e 7508 853d dc15 10be
00000210: 1405 63bc 857e 04be bfcd ffbd f7cc 0fbc
00000220: 37a0 71bd debe 9abd f0bb 4abd 2335 b53d
00000230: 2e51 dcbd 58cc 2b3d fd2b 9e3d e781 06be
00000240: 5885 10bd 8a43 b13d cae4 16be 6201 183e
00000250: 91ea 873d bea7 37bd 3201 293e b800 34be
00000260: 6056 c93d a6d6 df3d 6d2c eebd c69a 633d
00000270: dc4e cc3a 66e0 71bd dae6 2ebe 0a1f 06bd
00000280: a098 e7bd b1bb 61bd 5745 963d 2231 15be
00000290: c6c6 eabb e4f3 7fbd 4a20 dbbb 71a1 0fbd
000002a0: 6692 b9bd 3639 4abd 0213 1cbe 733c 18be
000002b0: b161 66bd 0bde 2dbc d277 4fbd 8c75 ff3c
000002c0: c81a 9a3d 97cb 1d3d ada1 323e 4cf4 a13d
000002d0: bd48 b03a ab85 1c3e 7722 733d 4806 f8bd
000002e0: fcb7 26be e3ec 98bd e07a 2bba 9103 b33c
000002f0: bc09 973d 3fdb 783d 01e5 0fbe bc90 08bd
00000300: 14e9 7f3d a2df 8a3d ffd4 01be 96a1 363e
00000310: 4284 0b3e 0a0f a93c 9d8f 4e3d 3425 fe3d
00000320: f3c8 1bbe 0410 9fbd f088 90bd 5c3b b63d
00000330: d62a 4fbd 252d 85bd 9ff1 1a3e 53c4 1f3e
00000340: 4524 ab3c 9378 3a3c ecf8 41bc 72d6 523c
00000350: a0c7 5a3d 954c febd cb2f 97bd b7d0 cb3c
00000360: a46b 0bbe b12d 47bd 94c9 483c f9b7 0c3e
00000370: bd66 923a 238c d53d 712a afbd 5849 91bd
00000380: be0f 17be 30a3 2a3e 50df 0abe 5241 2cbe
00000390: c4ed 42bc 03ba a8bd 69eb 933d 0170 143e
000003a0: 74e2 2cbe b2b8 643d aeca 5cbc 1e1f 033e
000003b0: c846 063e 4e43 e93d dc35 f33d 2675 ec3d
000003c0: a5e9 8e3d 78c5 553d 742d 7a3d 3133 983c
000003d0: 4e88 fe3c 0d81 f7bd 9c16 13be cf41 1f3e
000003e0: 63fc aa3d 142c 2fbe e5b4 f83d b6d8 1fbe
000003f0: 75a7 8c3c 8964 f53c 1b09 abbd 97ae f7bd
-0.02929226 0.12918288 0.15703852 0.147937 -0.0040423004 -0.14773484 0.036293812 -0.12108493
-0.0639881 -0.04369928 0.15116051 0.008644721 -0.047180545 -0.1239221 0.13949159 0.114101194
0.049881503 0.1237023 0.15121795 -0.02798637 0.122849956 -0.09843855 -0.12858813 0.12064846
0.008796842 -0.11685183 -0.13661446 0.0054781 0.0122165 0.024358094 0.03020732 0.07264105
-0.07361007 -0.030900842 -0.12785111 0.08035106 0.17103115 -0.04221618 -0.062260408 0.15427649
-0.04426177 0.07304978 -0.13680686 0.055806536 -0.14603427 -0.06478357 -0.10940242 -0.032710705
-0.06546701 0.099325575 -0.0746162 0.103567034 0.08607234 -0.061545376 -0.1497678 -0.04557415
0.09487093 -0.08328922 0.08036806 -0.077625744 -0.08921333 0.17312355 0.078686655 0.17098644
0.086243175 -0.07037912 -0.012926435 -0.104177795 0.038993187 0.112410314 -0.11500106 0.160352
0.16115017 0.04546831 -0.15791981 -0.013020107 0.10363958 0.087900005 -0.0293388 0.036802854
0.17579988 0.1419099 0.053516705 -0.016216211 -0.019087689 -0.033393983 0.1252915 -0.048330024
0.17290178 -0.019219039 -0.07993503 -0.05605381 0.16502957 0.07061831 -0.008451714 0.023556946
-0.0030179522 -0.14982069 0.026998827 0.12797628 0.13252245 0.1678175 0.027046774 0.036469027
0.16142744 -0.16786952 -0.122198634 -0.10405085 0.15699264 -0.030466348 -0.041038174 -0.082028925
-0.16451949 0.15510811 -0.004967588 -0.08068548 -0.12607011 0.025545223 -0.077413686 0.16897574
-0.10137714 -0.07051305 0.12137704 0.07699694 -0.06956108 -0.05895665 -0.0599801 0.11367093
-0.068103686 0.15967563 0.06495754 -0.14070839 -0.013856191 -0.12938888 -0.12490415 -0.008776895
-0.058990683 -0.07555936 -0.049495637 0.08848026 -0.10757671 0.041942924 0.07723234 -0.13135491
-0.035283417 0.0865546 -0.14735714 0.14844278 0.06636537 -0.044837706 0.16504362 -0.17578399
0.09830928 0.10929613 -0.11629567 0.055567525 0.0015587467 -0.059051894 -0.1708025 -0.032744445
-0.11308408 -0.055110637 0.07337444 -0.14569524 -0.007164809 -0.06248845 -0.0066871988 -0.035066072
-0.090611264 -0.049370967 -0.15241626 -0.1486681 -0.05624551 -0.010612021 -0.05065138 0.03118398
0.07524639 0.038524237 0.17444487 0.07907924 0.0013449412 0.15285365 0.05935904 -0.12110573
-0.16281122 -0.074670576 -0.0006541442 0.021852287 0.073749036 0.060755964 -0.14052202 -0.033341154
0.06247814 0.06780936 -0.12678908 0.17835078 0.13624671 0.020637054 0.05042993 0.1240944
-0.15213375 -0.077667266 -0.07057369 0.08898041 -0.05057796 -0.06502751 0.15131234 0.15602235
0.020891318 0.011381286 -0.011839133 0.012868511 0.053413033 -0.124169506 -0.07382163 0.024879796
-0.1361528 -0.04862756 0.012255091 0.13742055 0.0011169534 0.104271196 -0.08553017 -0.07094067
-0.14752099 0.16663814 -0.1356175 -0.16821793 -0.011897508 -0.08238604 0.07222635 0.14495851
-0.1688326 0.0558402 -0.013476057 0.12804839 0.13112938 0.113897905 0.11875507 0.11545782
0.06978158 0.052190274 0.061078504 0.018579097 0.031070855 -0.12085161 -0.14364094 0.15552448
0.0834892 -0.17106658 0.12143878 -0.15610012 0.017169693 0.029955165 -0.08351346 -0.12093847

body.2.weight f4 [256, 256]
00000000: 929b 11bd c139 693c 11df b6bc 8f0e 333d
00000010: 6676 723b 58c5 033c 92d4 5bbd 8cf4 9f3c
00000020: dc90 443d 348d 373c c434 ae3c 0a61 363a
00000030: 9da9 b83c 6f64 3ebd a78e fb3c 9c6d 72bd
00000040: 3581 c43c bcc6 4b3d 27b7 a8bc 02c9 c43c
00000050: ffd4 3bbd 1a7a 403d 1efd d3bc 21a4 9bb9
00000060: 2972 84bd 5a9f 833c acb2 5abd 4c84 6abd
00000070: ee6f 753c 18cf 41bd 07cf c4bc c97b 35bc
00000080: cbf4 a23c 0ac1 83bd 75be 243c 1e71 163c
00000090: f3f3 5f3d 7252 e33b 2564 24bc 39ba e13c
000000a0: 6747 fdbc b646 5b3d e659 33bd 87c7 5cbd
000000b0: bccc 5f3d 02bc 0b3d 1304 37bd 97f4 683d
000000c0: 24a5 3ebd 6cab 3c3b b076 a13c 0cf0 32bd
000000d0: 7d57 3cbd 4e18 d93c f325 d13b c7af 1b3d
000000e0: 4643 9ebc 0b2a c7bc 9b4a 4a3d 4ae3 b4bb
000000f0: 1021 81bd 4811 82bd 419e fd3c c188 8bbd
00000100: 7245 15bd 6d9d 2d3c 30d9 1c3d d50a 443d
00000110: eea0 763d dce8 86bd 0c59 383d acfc 28bd
00000120: f40f ab3c b544 2b3d 7f09 4bbd 9cea 6cbd
00000130: 1690 b0bc 8712 363d b070 c5bc 0aa0 cd39
00000140: 3606 2a3d d114 343c dad8 babc ebfb d1bc
00000150: 0d8b 12bd 914a 8d3c 6794 07bd 88a9 5cbd
00000160: be4e 213d 88a5 43b8 228e e139 cc41 553d
00000170: e557 0e3d 879b e23a 8757 6ebd 394c 683d
00000180: f93d cc3c 9b27 d2bc 3f0a 3c3d 3a2a 91bc
00000190: dfef d53c 73a1 71bd 6a2f 623d 5bb9 89bc
000001a0: bbf0 183d b7ce dcbc 125f 053c 1b6c 55bc
000001b0: 5946 37bd e879 0f3c da34 0c3d c80f 5e3d
000001c0: 6f7a c93c fc46 91bc 5a61 043d de41 abbc
000001d0: 5279 d93c 97df 2abd 897f e5b9 8b7b 28bd
000001e0: a98a f13b 0b2a 5fbd 9580 fb3c 301c d43c
000001f0: 060b 513d 57c9 aa3c b55f 26bd e59f 193d
00000200: f651 d43c c084 8e39 ef0d 2a3d 43d8 e8bc
00000210: 48b9 2fbd b5c0 32bc 9c7f 29bd 6e5e 2bbd
00000220: 2219 673d 3b3e 39bd 2f15 aa3c 08e1 96bc
00000230: db13 05bd 8395 133d 8f85 58bd 1623 043d
00000240: 8771 7a3c 34b1 7ebd 23bd 0a3c b019 153d
00000250: 5f8d 5ebd a511 04bb cbca 0dbd 7029 5f3d
00000260: edcf 123d 5a92 7dbb ecfd 9b3c aea2 0c3c
00000270: c28f 633d e279 9abb b1db 95bc 6e3b f9bb
00000280: 9a3e d13c 0897 7dba 2d1f b8bc 7523 003d
00000290: f78a babc 775e e63c c894 74bd 5ba1 3c3d
000002a0: 2783 37bd 557b 78bd 0f8d 47bd 136e 703d
000002b0: cf5f b73c 6003 453d 3543 4cbd 1c89 5abb
000002c0: 0dfe ca3c 2bce 40bd fd45 c5bc 84cc 8bbd
000002d0: 3fb5 193d 5238 c1bc a053 25bd f99f 1c3d
000002e0: f03d a03c 25db 68bd 11f1 45bd 5e44 e53c
000002f0: b1ad 03bc d876 193c 0d21 d93b c646 2fbd
00000300: ea41 80bd 6796 47bd aa75 203d b515 06bd
00000310: 48d9 86bd f199 243d bbcc fc3b 6ed6 6cbd
00000320: 8f84 063d 85db 493d 3637 08bd 555c ac3c
00000330: d5a1 e8bc e797 d1bc 0445 1a3d 9b08 a9bb
00000340: af39 4bbd 3ea9 b93c 7e8b 563d 8fca 73bd
00000350: 14b9 86bd fbd2 d0bc 0724 133d 54a8 ef3c
00000360: 672c 41bd 0604 c03c 6921 68bd a521 ec3c
00000370: 7841 543d 1126 d8bc 2316 de3c 5ba7 e339
00000380: eec4 30bd 06da 51bd 219e 0abd d153 c2bc
00000390: 1af7 f93c ee01 40bd 9d3f c73c a523 95bc
000003a0: 5739 6c3d 2780 e7bc ed31 22bd 6c36 5d3d
000003b0: f646 113d 3bac a1bc 18b2 863b 289a 3bbd
000003c0: 74e1 eeb9 94aa 53bc 9068 7dbd 5801 4c3d
000003d0: af36 053c 2694 82bd e4ba c6bc d38d 963c
000003e0: c5b7 3bbc d55a d5bc c2e9 9c3c ba0d 3abc
000003f0: 9d46 99bc 1732 363b 9e60 8fbc 250c 77bd
-0.035548754 0.014234961 -0.022323163 0.043715056 0.003699684 0.008042656 -0.05366952 0.019525789
0.04798971 0.011203099 0.021265395 0.0006957209 0.022541815 -0.0464825 0.03070767 -0.059186563
0.023987392 0.049750075 -0.020595146 0.02402163 -0.045857426 0.046991445 -0.025877532 -0.0002968619
-0.06467087 0.016067196 -0.05339305 -0.057255074 0.014980299 -0.04731664 -0.0240245 -0.011076876
0.019892117 -0.06433304 0.010055174 0.009182243 0.054676007 0.0069373185 -0.010033642 0.027554618
-0.030917836 0.053534232 -0.043786906 -0.05390122 0.05463861 0.034114845 -0.04468162 0.056873884
-0.04654421 0.00287887 0.019709915 -0.043685958 -0.045981873 0.026500847 0.0063826977 0.03800943
-0.019319188 -0.02431204 0.049387556 -0.005520259 -0.06305134 -0.063509524 0.03095925 -0.06813193
-0.03644318 0.010596615 0.038293064 0.047861893 0.06021207 -0.06587383 0.045006797 -0.04125659
0.02088163 0.04181357 -0.049569603 -0.05784093 -0.02155308 0.044451263 -0.024101585 0.00039219885
0.04150983 0.010991291 -0.022808481 -0.02563282 -0.03577714 0.01724747 -0.033100512 -0.053872615
0.039381735 -4.6645786e-05 0.0004302124 0.052064702 0.03475179 0.0017288782 -0.05818894 0.056713317
0.024931895 -0.025653651 0.04590821 -0.01772033 0.026115356 -0.05899186 0.055221 -0.016812017
0.037338953 -0.026954038 0.008140342 -0.013026263 -0.044744823 0.008757092 0.03423009 0.05421427
0.024594514 -0.017734043 0.032319404 -0.020905431 0.026547108 -0.04171714 -0.00043773305 -0.041133445
0.007371266 -0.054483455 0.030700961 0.025892347 0.051035903 0.02084796 -0.040618617 0.037506003
0.025917988 0.00027183257 0.041517194 -0.028423434 -0.042901307 -0.010910203 -0.041381463 -0.041838102
0.056420453 -0.045225363 0.020762054 -0.01841785 -0.03248964 0.036031257 -0.052861746 0.032260023
0.015285856 -0.062180713 0.008467945 0.03640145 -0.05433404 -0.0020152119 -0.034617227 0.054482877
0.035842825 -0.0038691969 0.019041978 0.008583708 0.05555702 -0.0047142366 -0.018293234 -0.0076059615
0.025542546 -0.00096736895 -0.022475803 0.031283814 -0.022771342 0.028121216 -0.0597122 0.046052318
-0.04480281 -0.060664494 -0.04871851 0.058698725 0.022384552 0.04809892 -0.04986878 -0.0033345884
0.024779344 -0.047071617 -0.024081225 -0.06826118 0.037526365 -0.023586426 -0.040362954 0.0382385
0.019560784 -0.056849618 -0.048325602 0.027986702 -0.008037017 0.009366713 0.0066262544 -0.042792104
-0.06262572 -0.04872742 0.039174713 -0.032735545 -0.06584412 0.040185872 0.0077148355 -0.057821684
0.03284126 0.049281616 -0.03325578 0.021040121 -0.02839748 -0.025585128 0.037663475 -0.0051584966
-0.04961556 0.022663709 0.052379124 -0.059519347 -0.065782696 -0.025491228 0.03592303 0.02925507
-0.047161486 0.023439419 -0.056672487 0.028824637 0.05182025 -0.026385339 0.027110165 0.00043421504
-0.043156557 -0.051233314 -0.03384221 -0.023721607 0.030513335 -0.04687684 0.024322325 -0.018205473
0.05767187 -0.02825935 -0.039598394 0.05400698 0.035468064 -0.019735446 0.004110586 -0.04580131
-0.00045562873 -0.012919087 -0.061867297 0.04980597 0.008130713 -0.06375913 -0.024259038 0.018378174
-0.011457388 -0.026044289 0.019154433 -0.011355812 -0.018710429 0.0027800852 -0.017502125 -0.060314316

body.2.bias f4 [256]
00000000: 409b e2bc 5d2f 05bd 160f 893d 9330 853a
00000010: c7ca 253d 9bca c3bc 4850 34bd 4827 6a3d
00000020: 3f71 fc3c 5cd5 3b3d 9765 563d 0c95 e83c
00000030: 4690 86bd 5381 fb3c 25fb da3b 195c c2bc
00000040: f934 dabc 0e13 0fbd fde3 59bd 0346 8fba
00000050: c756 55bd cd7f 843d 0328 43bd 87ad dabb
00000060: 5112 35ba 1ca3 48bd 26b0 813b d7a4 a7bc
00000070: 3deb f9bb db72 d8bc d1c7 263d 80b8 883c
00000080: 063b d3bc eb42 43bd 86b2 3cbd 210d 39bd
00000090: a591 293d 5b81 5f3d 1cc9 7bbb 6c85 8d3b
000000a0: 1ffe 173d 42b6 853d 1b9b 32bd a52c 20bd
000000b0: 27b1 b4bc 636e 10bd e2c1 ed3c 5121 03bd
000000c0: f892 4b3d d157 ecbc a673 24bd cfec f6bb
000000d0: 84ea 84bc 6999 4bbd 5b0d 7d3d 00f0 3abd
000000e0: 74a8 a33a 5800 a63c ca6d 9abc 6929 0fbc
000000f0: d174 583d 8665 003c d013 63bd e404 8b3c
00000100: 7a10 90bc e182 4dbc 0864 aa3c deff e73c
00000110: 5cfb 4c3b 713c 553d d7b6 1d3d 7002 913c
00000120: 85ab a9bb a1e0 f63c 1807 21bd cdf4 24bd
00000130: 52d3 50bd 2ee9 373c 51b4 403c 699d e63b
00000140: b997 1abc 3ec3 1a3d 71c0 fe3c 1f67 4dbd
00000150: e0a5 b93c 7e25 1b3d 9871 873d 3162 84bc
00000160: 6b07 8abc bafa 943c a185 b73b caeb 43bd
00000170: 1ca0 4e3a afa3 c639 5aa0 423d 8d88 163d
00000180: 2516 cbbb 6521 693d 2550 5d3d 4442 70bd
00000190: 8b8d 09bd 7501 1b3c 409d 3c3c 1836 243d
000001a0: 6362 4e3d 8429 9d3b e67a 713d 7a2d 4e3c
000001b0: 6d2a d13c 5f71 863c 8b07 4fbc 7ca8 4bbd
000001c0: e7d5 5ebd 9063 4abc 0004 df3c 982f fd3c
000001d0: fd1a 15bd e3b5 86bc 6e08 75bc 73d7 533d
000001e0: 3115 1cbc 9386 a33c e75d 793d ba44 493b
000001f0: 0e63 423c 99c2 85bc dc7b 123d f1de cc3c
00000200: 0e2d e2bc aac2 0e3b 8d05 63bc 6f1f 603d
00000210: 2e4e d5bc 1359 90bb 6fc0 32bd a36c 1dbb
00000220: 1838 7a3d 9225 6ebd 1fe2 8dbc 09ad 533d
00000230: d459 673c 8d7f ecbb 5213 73bc f3d0 6fbd
00000240: 6022 4e3d 5186 2b3b 14ae f63c 39c1 27bc
00000250: 323a 4d39 011e 99bb d723 743c 9cde 013d
00000260: 78db 00bd accf 6abc 44c6 553d ccb6 c8bc
00000270: 5023 3cbd baee 51bc b4aa 54bd 6365 a1bc
00000280: a182 3cbd 8c35 88bb 9825 6c3d fcb6 113c
00000290: 0a69 d03c df60 4e3d 93cc 51bd 1784 3abd
000002a0: fa36 10bd 817a 223d 7272 2b3d 2a47 cdbc
000002b0: a0b7 293d 5407 b83b 5727 14bd 808f 3bbd
000002c0: 3f39 25bd 732c 463d 49b9 5d3d e2eb cebc
000002d0: f056 85bc ddb7 0e3d fe40 363d d71e df3c
000002e0: 81f7 e7bc 172d 0c3b c097 6abc 5b40 2bbd
000002f0: 097d a43b a06c cebc 1e5b 763d 1ea5 2abd
00000300: 49bb fe3c 0f06 6a3d 8ea6 1a3d af74 7fbd
00000310: c9bd 3b3d a390 3cbd aaf0 19bd 5765 5e3d
00000320: 03a2 aa39 c312 b5bc bc93 d9bc 10d9 7a3b
00000330: a5bc 64bd d258 1c3d 14d7 423d a035 5ebd
00000340: 79be 853d d5f1 5f3d 1ae1 eabc d5d2 283d
00000350: e668 72bb 2b2c 92bc 52a5 71bc 9b0a 97bc
00000360: a3fa 313c 4fb0 3bbd 5be0 f6bc 9da7 40bd
00000370: e972 073d 935a 82bd 9f78 5dbd db83 97ba
00000380: 4d77 c43c 8076 34bd b814 4cbc 2fd4 8b3d
00000390: 0491 313d c378 82bd 3c41 433d ecb0 8f3c
000003a0: 636d 5fbd 6e74 ca3c 1e20 3b3d f704 c03c
000003b0: ebe4 523d 9075 6a3d 6302 2e3c d46a adbb
000003c0: 3495 603d 823e e7bc b132 383c 403a 343d
000003d0: b223 1e3d 0a1f 08bc 1776 afbc 5533 9a3c
000003e0: a9e7 18bd fea0 34bd 3bc5 3b39 bbdb 883c
000003f0: 9c06 5bbd 76a0 7f3d 5369 49bd b144 1b3d
-0.02766192 -0.032515872 0.066923305 0.0010161571 0.040476587 -0.02390032 -0.044021875 0.057166368
0.030815719 0.045857772 0.052342977 0.028391384 -0.06570487 0.030701315 0.006682771 -0.023725556
-0.026636587 -0.03493028 -0.053195942 -0.0010930899 -0.05208471 0.064696886 -0.04764558 -0.006673518
-0.00069073314 -0.04898368 0.003957766 -0.020464344 -0.0076269195 -0.026421955 0.040717904 0.016689539
-0.02578498 -0.04767124 -0.04606869 -0.045178536 0.041398663 0.054566722 -0.003841943 0.0043188836
0.037107583 0.065289035 -0.04360495 -0.039105076 -0.02205713 -0.035261523 0.029023115 -0.032014195
0.049700707 -0.028850468 -0.040149353 -0.007535554 -0.016225107 -0.04970685 0.061780315 -0.045639038
0.0012486116 0.020263836 -0.01885118 -0.0087379 0.05284578 0.007836705 -0.055438817 0.016970105
-0.017585982 -0.012543411 0.020799652 0.02832025 0.0031277752 0.052059595 0.038504448 0.017701358
-0.0051779174 0.030136408 -0.039313406 -0.040272523 -0.05098278 0.011225028 0.011761741 0.0070378077
-0.009435588 0.037783854 0.031097623 -0.050147172 0.022662103 0.037877552 0.06613463 -0.016160103
-0.01684924 0.018185962 0.0056006466 -0.047832288 0.00078821345 0.00037887457 0.047516204 0.03675132
-0.006197708 0.056916613 0.05403151 -0.058656946 -0.03358225 0.009460797 0.011512101 0.04009065
0.050386798 0.004796209 0.058955096 0.012584085 0.025532926 0.016411481 -0.012636076 -0.049721226
-0.054403212 -0.012352839 0.027223587 0.030906484 -0.03640269 -0.016444152 -0.014955623 0.05171914
-0.009526537 0.01996163 0.060880568 0.003071113 0.011864437 -0.016328143 0.035762653 0.02500865
-0.027609374 0.002178351 -0.013856304 0.054717477 -0.026038256 -0.0044051497 -0.04364055 -0.0024021051
0.06108865 -0.0581413 -0.017319737 0.05167869 0.014120538 -0.0072173537 -0.014836149 -0.05854888
0.05032575 0.0026172588 0.030112304 -0.010238939 0.00019572003 -0.004672766 0.014901123 0.031706437
-0.0314593 -0.014331739 0.052191034 -0.024501227 -0.045932114 -0.0128132645 -0.051920608 -0.019701665
-0.046023015 -0.004156774 0.05765304 0.0088937245 0.025440712 0.050385352 -0.051220488 -0.045536127
-0.03520868 0.03966761 0.04185719 -0.025058348 0.041434884 0.005616108 -0.03617033 -0.04579115
-0.040337797 0.048382234 0.05413178 -0.025258962 -0.016276807 0.034843314 0.044495575 0.027236385
-0.028316261 0.002138918 -0.014318407 -0.04180942 0.005019788 -0.02519828 0.06014549 -0.041661374
0.031095164 0.057134684 0.037756495 -0.062367138 0.04583529 -0.046036374 -0.03758303 0.054295864
0.00032545635 -0.022103673 -0.026559703 0.0038276352 -0.055843968 0.038170643 0.047568396 -0.05425036
0.065304704 0.05467399 -0.02867179 0.04121669 -0.0036988794 -0.017843327 -0.014748888 -0.018437674
0.010862979 -0.045822438 -0.030136278 -0.04703485 0.03306857 -0.06364932 -0.05407011 -0.0011559682
0.023982668 -0.044058323 -0.012456112 0.0682758 0.04335119 -0.0637069 0.047669634 0.017540418
-0.05454768 0.024713721 0.045684926 0.023439867 0.051487844 0.057241023 0.010620686 -0.005292276
0.05482979 -0.028228048 0.0112425545 0.044000864 0.03860826 -0.008308182 -0.021418614 0.018823305
-0.037330303 -0.044098847 0.00017907184 0.016706338 -0.0534731 0.062408887 -0.04917271 0.037907306

body.4.weight f4 [128, 256]
00000000: ad8d 72bc 1252 5abd cb03 6abd f34a 993b
00000010: 0a68 71bd 4406 983c 8f8f 103d 0aca 2bbd
00000020: c460 e3bc 7851 ed3c 5a29 973b 7f4a 723c
00000030: 0874 843c c124 693d 5638 babc bc31 1ebb
00000040: 19ea 49bd c4aa c1bb 33df 04bd bb91 6abc
00000050: 906d d4bc 253d 2f3d f66c 6cbd d832 5ebb
00000060: 2a11 14bd d89f 3c3c b546 6f3d 314d f73a
00000070: bf2e bfbc 4d39 42bc 0f06 7c3d 39bd 0c3c
00000080: 9b33 643d 580f c83b 1621 f4bc 3e2b ebbc
00000090: e5f7 bd3c 73d8 b03b b018 093b 3bf8 1c3d
000000a0: a572 a7bc 757d 4b3d 3c11 5e3d 2318 223d
000000b0: b126 8d3d 9a8d c13b ad5f b23c 7dab 7c3d
000000c0: bc57 dfbc 4dd6 853c ece5 543a 2f22 3f3d
000000d0: 11bc 813c b381 66bd e37c 8c3b 0aa5 173d
000000e0: ae72 6cbd 8829 bd3c 6058 b53c d903 c6bc
000000f0: d8c1 743c dfa4 81bc 8f2f 14bc 58f4 02bd
00000100: e8d7 453d c798 893d f693 31bd 34bc f7bc
00000110: 7949 94bc 9c11 113d 7967 71bc 3e83 973b
00000120: 2bf7 ad3c b57c 773d 0f96 173d b8f4 73ba
00000130: a3f8 563d 7c08 e93b 5f84 163d 9bef 383d
00000140: 6315 4f3c d6cd 163d 4fc7 d63c 6afa 683c
00000150: 8cb2 a4bc 42a7 2c3d ab0e 5d3c 23e9 663d
00000160: 88c5 c0bc d5ce 0fbc 3e2f 463d aac4 4c3d
00000170: 193a c43c 1875 573b d4d9 5ebd aa7d 16bd
00000180: 4f05 1e3d f508 7abb e7b4 163d c331 62bd
00000190: dbee 993c 7bf4 253d 12bd 303d 533f 4bbc
000001a0: 641e 903c d186 21bd 36f5 573d a164 2a3d
000001b0: 77ec b43c 68d7 2ebd 75d2 603d bcb2 f83c
000001c0: a186 f93c d7f6 233d 5126 e63c c4f3 f03c
000001d0: b771 47bd 28c8 5dbd 4575 76bc e11f eebb
000001e0: 165a 75bd d5bb 933c 3637 18bd 5def a6bc
000001f0: 641e a8bc aa28 49bd 99a5 05bd 1b22 fa3a
00000200: 6817 37bd 049d b13b 5971 5ebd 28dc 8abc
00000210: 0561 f1bc 0b0f 4bbb 1d8b 573d caa1 693b
00000220: 2f9c 67bd cb57 b93b f6c0 61bd 5ff5 8d3d
00000230: b57c 363d 1ca8 d9bc f182 503d 5fda 4f3d
00000240: af02 30bd 894b 283c e797 713d 8e33 533d
00000250: 02e4 3d3d f8c4 26bd 051f 47bc d217 703d
00000260: ccec fdbc 6f46 053d 485a afbb 4fea 263d
00000270: 4cd9 e1ba 7828 b3bc 7cf5 833d 2f27 403d
00000280: e3a2 14bc f544 a63c 7cb1 32bc 21bb 033d
00000290: 53d9 3d3d 5fdb 36bd 37c3 fc3c 9158 623d
000002a0: b196 f83c 12e6 1cba 3bc4 3dbc fb1c 133d
000002b0: b238 b73b be8d 893c 4e25 99bc 10ec 2b3d
000002c0: 0b1f 05bd ee9c 703d 72fc 08bc e19e d1bc
000002d0: 254c f9bc 59db 6ebd 06fc 1cbd e3d9 70bd
000002e0: 7644 463c 3483 95bc e463 9a3b 3f18 04bd
000002f0: 6f5a 52bd 7580 81bd 9cc4 4a3c 0cbb 4ebd
00000300: 2a6d 3dbd 662c 693d 6a84 76bd 7f20 6ebc
00000310: ff89 523d ea83 253d 3624 213d d24a 093d
00000320: a492 9e3a 554d 563d e840 0dbc 1b8b 6abd
00000330: 2e45 90bc 7e70 923b e224 513c 8f3e 9a3c
00000340: 5a3e e03b 0b39 903d d90d 563d 17a5 e13c
00000350: 052d 25bd 3b2e 1ebd 9260 543d be3c ef3a
00000360: c88a 66bd cc17 023c b7f4 753d db2d 523c
00000370: bbd3 043d 71cf 553a 72d1 15bd 3855 1e3d
00000380: 00c3 843c 572a 4b3d 7da3 753d c8f4 76bd
00000390: 014a 36bd 9b8c 18bd 0b0f 16bd ff71 253b
000003a0: effb d7ba 250e 823c 5a7a 863d e54c 56bd
000003b0: 2a65 943b c389 a93c 19a6 9abc fde8 863d
000003c0: 14b0 71bd 61de babb b7e9 30bd 67f9 873d
000003d0: 3a32 94bc 003c 093d f713 843d 7c7d 553c
000003e0: 96f4 26bd 1d9d 353c 6255 9cbc 75b5 163d
000003f0: 556e 4cbc 94db 6fbc 924f 5dbc 2922 8bbc
-0.014804286 -0.053300925 -0.057132524 0.004678124 -0.05893711 0.018557675 0.03529316 -0.041940726
-0.027756102 0.028969511 0.004613084 0.014788269 0.01616861 0.056919817 -0.022731941 -0.002413853
-0.04929552 -0.0059102494 -0.03243942 -0.014316971 -0.02593115 0.04278292 -0.0577211 -0.0033904817
-0.03614918 0.011512719 0.05841704 0.0018867609 -0.02333772 -0.011854482 0.061529215 0.008590036
0.055713277 0.0061053447 -0.029800933 -0.028707143 0.023189494 0.0053968965 0.0020919256 0.03832267
-0.020440409 0.049680192 0.054215655 0.0395738 0.068921454 0.005906773 0.021774137 0.06168698
-0.027263515 0.016337538 0.0008121419 0.04666346 0.015836747 -0.056276035 0.0042873486 0.037022628
-0.057726555 0.023091093 0.022136867 -0.024171757 0.014938794 -0.015825687 -0.009044542 -0.031971306
0.048301607 0.06718593 -0.043353997 -0.03024111 -0.01810144 0.035417184 -0.014734142 0.0046237996
0.021236023 0.060421664 0.03700834 -0.000930618 0.052483212 0.007111607 0.036747333 0.04515038
0.012639376 0.036817394 0.026218085 0.01421986 -0.020104669 0.042151697 0.013492267 0.05637468
-0.02353169 -0.00877734 0.048384897 0.04999224 0.023953484 0.003287619 -0.054406956 -0.036740936
0.03857928 -0.0038152311 0.036793616 -0.055223238 0.018790653 0.040516358 0.04314906 -0.012405234
0.017592616 -0.03943521 0.052724086 0.041599873 0.022085411 -0.042685896 0.054888207 0.030358665
0.030459704 0.040030327 0.028094443 0.029413112 -0.04869243 -0.054145962 -0.015042608 -0.007266984
-0.059900366 0.018033901 -0.03716203 -0.02037781 -0.020522304 -0.049111046 -0.03262863 0.001908365
-0.044700056 0.005420329 -0.054307315 -0.016950682 -0.029465208 -0.0030984308 0.052622903 0.0035649412
-0.056545433 0.0056562177 -0.055115663 0.069315664 0.044552524 -0.026569419 0.050906125 0.050745364
-0.04297131 0.010271915 0.058982756 0.05156284 0.046360023 -0.040715188 -0.012153392 0.058616467
-0.030996703 0.032537874 -0.0053513385 0.040750798 -0.0017230897 -0.021869883 0.06443307 0.04691237
-0.009072038 0.020296553 -0.010906573 0.032160882 0.046349835 -0.044642802 0.030854804 0.055260245
0.030345293 -0.0005985211 -0.0115824295 0.03591631 0.0055914754 0.01679122 -0.018694546 0.041973174
-0.032500308 0.05874341 -0.008360969 -0.025588455 -0.030431816 -0.058314655 -0.038326286 -0.058801543
0.012101283 -0.01825104 0.004711615 -0.032249685 -0.051355775 -0.06323329 0.012375977 -0.05047135
-0.046246685 0.056927107 -0.060184874 -0.014534115 0.051401135 0.040409006 0.039341174 0.03351862
0.0012098146 0.052319843 -0.008621432 -0.057261568 -0.017611112 0.0044689765 0.012765141 0.018828658
0.0068433704 0.0704213 0.0522593 0.027544541 -0.040326137 -0.038618308 0.05184991 0.0018252356
-0.056284696 0.007940244 0.06004783 0.012828316 0.032428484 0.00081562164 -0.036576696 0.03865549
0.016206264 0.049600925 0.059970368 -0.060292035 -0.04450417 -0.037243467 -0.03663544 0.002524495
-0.001647828 0.015875885 0.065663055 -0.052319426 0.0045286613 0.020695573 -0.01887803 0.06587408
-0.05900581 -0.005702779 -0.043191638 0.066393666 -0.018090356 0.033504486 0.064491205 0.013030406
-0.0407606 0.011084822 -0.019083682 0.036794145 -0.012477477 -0.014639754 -0.013507741 -0.016984062

body.4.bias f4 [128]
00000000: 4664 2c3c 0f7e 063d 2c9b 1dbd 8000 44bd
00000010: 5aee 3dbd 5b22 c33c 83ff 4f3d 0fc8 ce3c
00000020: c9b5 90bc b93a 20bd 2d82 fa3a 694f 1bbd
00000030: f55f de3c 6724 e1bc b4eb 34bd ee30 473b
00000040: a90a d13c f1c8 b4bc bafe 523d 7ae1 2dbc
00000050: fc1c 673c 5258 bfbc d1f4 153d e4e8 df3c
00000060: b667 46bc d125 40bc 370d 9bbc 1963 6d3c
00000070: 036d 5a3d 62f7 5d3c b73d 593c 45d6 febb
00000080: d001 4ebd 71be 923c 20cd 87bc b46c 993c
00000090: 2b8f 33ba e603 e13b 5ad7 4f3d 7919 513d
000000a0: 25a9 0cbd 5793 233d 2198 e53c 36c3 c3bc
000000b0: aafb d7bb b4ed cb3c afea ae3c 7999 81ba
000000c0: 5074 afbc 3fd2 2f3d f173 8cbc d20d 953b
000000d0: 4c61 6fbc 93bc a53c 0d99 383d 9f8b 853d
000000e0: 2762 e1bc 1a22 d53c c00e 123d c137 ed3c
000000f0: 14ed 733d 4ec1 70bd 84f4 fcbc 2d72 92bb
00000100: 55a8 723d 1893 a23b 1975 64bd 5da3 dcbc
00000110: d311 89bb 4312 47bd c9d6 023d 81ff 8b3c
00000120: d324 4f3d c6b1 473d c069 34bd c4fd 8abc
00000130: 067e 5ebd c41a 753d 44f3 0bbd 960f 353c
00000140: c648 a8bc 6f2c 14bc 3e29 1cbd f6a3 5bbd
00000150: 745b c6bc e523 41bd 09f1 2abd 709e f1bc
00000160: 1d50 b7bc 0267 53bc eb16 19bd eef2 30bd
00000170: ed7f cdbc f0cd b5bb fb92 2c3c 330d 3ebc
00000180: d5e8 fbbc 9ebf 5b3c 2908 fc3c 054b ab3b
00000190: 72ce 103d e23a b4bc f0a1 e0bc 6b48 0bbc
000001a0: 243f bc3b c910 45bc c3b0 393c 0490 13bd
000001b0: 8fb4 343d 5b9a 7abd d1f3 ad3c 9001 e0bc
000001c0: 544a 41bd 44ce 423d 0dc1 5c3d a15c 70bd
000001d0: fd95 63bd 18f0 d5bc 9e95 263d e58f eabc
000001e0: b863 ed3c 92c3 28bd 4a34 95bb 023b 09bd
000001f0: faa6 323d 4e4b 573d 49c4 ab3b c733 36bd
0.010521954 0.032835063 -0.03847806 -0.04785204 -0.046369888 0.023820093 0.050780784 0.02524188
-0.017664807 -0.039118502 0.0019112282 -0.03791753 0.027145365 -0.027483178 -0.044170097 0.0030394155
0.025517778 -0.022068473 0.051512457 -0.01061284 0.0141060315 -0.023357544 0.03661043 0.02733273
-0.012109688 -0.011727766 -0.0189272 0.014488959 0.053326618 0.01354775 0.013259343 -0.0077770078
-0.050294697 0.017913075 -0.016577303 0.018728592 -0.0006849642 0.00686692 0.050742485 0.051049683
-0.034340996 0.039935436 0.028026642 -0.023896795 -0.00659128 0.02489362 0.02135214 -0.0009887657
-0.021417767 0.042925116 -0.017145129 0.0045487667 -0.0146106 0.02023152 0.045067836 0.06520771
-0.027512623 0.026017237 0.035658598 0.02895725 0.059552267 -0.0587781 -0.030878313 -0.004469177
0.059242565 0.0049613826 -0.055775736 -0.026933366 -0.004183033 -0.0486014 0.031943116 0.017089607
0.050572228 0.048753522 -0.044046164 -0.016966708 -0.054319404 0.05983998 -0.034167543 0.011051079
-0.020542514 -0.009043797 -0.03812527 -0.053623162 -0.02421353 -0.047153372 -0.041733775 -0.029494494
-0.022377068 -0.012902977 -0.037375372 -0.043200426 -0.025085414 -0.0055482313 0.01053309 -0.011599827
-0.030750671 0.013412384 0.03076561 0.005227449 0.03535313 -0.022000734 -0.027420968 -0.0085011525
0.0057448316 -0.012027928 0.011333647 -0.036026016 0.044117507 -0.06118236 0.021234425 -0.027344495
-0.047190025 0.04755999 0.053895045 -0.058682088 -0.05556296 -0.026115462 0.04067003 -0.028633067
0.028978214 -0.041202135 -0.0045533525 -0.03350354 0.043616273 0.05256205 0.005241905 -0.044482972

move_head.weight f4 [5, 128]
00000000: 0bc3 603d 050a b0bd aa7e a03d 41ad e73b
00000010: a33e 56bd 1a97 6abd b07c 9bbd e207 a23d
00000020: a9f6 b0bd c11d a9bb aee0 30bd c65d e3bc
00000030: 0ff1 b7bd 993c 87bc 9278 11bd 6069 8a3d
00000040: 20c3 9abd d734 adbd 1988 09ba 598d 973b
00000050: f630 803d 6cdb 52bd d365 17bd 1874 563b
00000060: ad4d a43c 3b51 be3b 2a28 713c c936 65bd
00000070: 4b4f ec3b 5e55 90bd faaa ef3c 32aa 1e3d
00000080: 8b86 f3bc be04 623d ca53 863d d309 70bc
00000090: 084e d63b e720 503c 8b21 4bbd cf42 9b3d
000000a0: 7931 c43c 823c 9dbd 97fd 67bc 44f2 24bd
000000b0: 9110 9abd 6bcd 8c3d a79d 9cbd 94e2 1c3d
000000c0: c559 8a3d 78c8 a23d 75c9 223d 0eb7 87bc
000000d0: 2d10 853d 6de3 623c 0e6e 583d 1e6e b0bd
000000e0: 935e 303c 4476 80bd eea6 62bd 3642 263d
000000f0: fb53 8abd 9992 c33c d1e9 893c 31fe 5dbd
00000100: 4134 9dbd 890f 143c b2dd 0fbd fd27 bb3c
00000110: e561 4b3d bf82 0d3b 8315 343d 2e76 84bd
00000120: f4bb 933d 5d9a adbd 964c f1bc 1bb3 043c
00000130: e9f7 243d 0765 ad3c 80bf 663d 45f0 6b3d
00000140: e152 2c3d 3687 ed3c 0e23 92bd b7ca 8e3d
00000150: 77ed 7fbd 551b ad3d dec4 ddbc 89ca 413d
00000160: 5bba 443d 7452 203b 01db 0f3d c063 4a3b
00000170: 8e79 14bc d7ff 9abc 1ba7 9dbd c2ca 993d
00000180: a19b 693d 0651 4bbd 2b7d 8ebd f59d 233c
00000190: d836 bb3b 1087 8bbd b6a2 d8ba d71e e6bb
000001a0: a040 afbc 4cd8 b9bc 66d3 b9bd a310 933d
000001b0: e619 5e3d d07a 593d 393b c2bc 79ff 4a3d
000001c0: 41cc 41bd a6ff 04bd 49b8 173d 042f aabc
000001d0: 9b86 a9bd 07bc 95bd 410a 95bd ec4c 58bc
000001e0: ab94 083b 63b9 8b3d be25 853d 36a1 963d
000001f0: 4b1f 903b ba2c 443d 800d 7b3d 2877 efbb
00000200: 9a26 da3c 0e33 873d 0e61 963d 3d1a c43c
00000210: fc12 7a3d 1bab 233d 809d 6ebd 5f1f 5b3d
00000220: 699a 823d 5157 0f3c da67 493d c0b7 4cbd
00000230: ddb0 95bd 60f6 a33d 22b1 60bd 57da 8d3d
00000240: dd20 65bd 673f ac3d 8b76 4b3c 8676 6bbd
00000250: 332d 38bd 2793 313d de5c 873d c73e 5dbd
00000260: 3a45 713d 4616 8c3c 4ac9 58bd c0fa 223c
00000270: 8d1f 6dbd 0e91 823d bef9 4fbd a250 03bd
00000280: 6044 8d3d d8b9 55bd 33cd 8f3b cc15 91bd
00000290: c6d2 503c 3060 97bd a12d eabc 74ec 0dbd
000002a0: 9abb bc3d 38a6 17bd 0c9c c7bc adab bf3c
000002b0: 2ee6 f83c 86b5 8abd cb59 3abd fbec 1ebc
000002c0: 8a8f 35bc 769d 70bd dc7b fcbc 5ee9 103d
000002d0: 6291 cebc 3f05 4f3c 103d a53c b983 573c
000002e0: aca1 983c 5749 993c c8ef 9b3c 0c0a 22bd
000002f0: 2afb f83c 7920 393d 42d4 a1bd e29c b13d
00000300: 8b32 4abd cf11 b13d 71da 5fbd 4339 943d
00000310: 61ac 8e3c 15e6 873d 7799 7bba 52f7 b03d
00000320: 0c57 db3b 8288 ba3d 7e50 1a3d ea61 9cbd
00000330: adae ea3c ba6b 083d 049c f3bc 3f56 bb3d
00000340: e310 ba3d bcd7 eabc 16ba a23d 355b 823d
00000350: b105 2e3c 3abf 22bd f490 383c cf2a a73d
00000360: 1fee a73b 30c6 533d ffe8 0fbd e93b 563c
00000370: f10d 62bc 59c9 483d 203e f6bb 3c0f 71bc
00000380: 1071 e03b 5f74 963d 9f48 0ebd ddb1 aaba
00000390: f5cb 9c3d 01df 2e3d fc8a c63b 9355 d9ba
000003a0: bb1b f93c 04f2 18bd 16ec 9dbd 0974 aa3d
000003b0: 5711 e03a 0c3c a23d d10e 71bd 52bb b5bc
000003c0: 6170 a6bd 3aff fd3c 0772 33bd 5746 82bd
000003d0: 9094 52bd 1f73 883d 210a 243d beab 89bd
000003e0: 54e9 65bd 4327 5d3d a956 e13c 05ab 9bbd
000003f0: 454e 6f3a cc7b ac3d 021e 04bd f919 80bd
0.054873507 -0.08595661 0.07836659 0.007070214 -0.05230583 -0.057273008 -0.07592142 0.0791166
-0.08640797 -0.0051610176 -0.04318302 -0.027754676 -0.08981525 -0.016508387 -0.035515375 0.0675838
-0.075567484 -0.08457344 -0.00052464154 0.0046250043 0.062593386 -0.05147879 -0.03696234 0.0032723006
0.02005657 0.0058080233 0.0147190485 -0.05596045 0.007211601 -0.070475325 0.029256333 0.03873653
-0.029727241 0.055180304 0.0655895 -0.01465078 0.006540064 0.012703157 -0.049592536 0.07581102
0.023949372 -0.076775566 -0.014159582 -0.040270105 -0.07522691 0.06875118 -0.07647257 0.03830202
0.067554034 0.07948393 0.039742906 -0.01656678 0.06497226 0.013848168 0.05283933 -0.08614753
0.010764736 -0.062725574 -0.055334978 0.040590487 -0.06754299 0.023873614 0.016835125 -0.054197494
-0.07675982 0.009036907 -0.035123535 0.022846216 0.049653906 0.0021592823 0.043965828 -0.064678535
0.072135836 -0.08476708 -0.029455464 0.008099343 0.040275488 0.021166338 0.056334972 0.057602186
0.042071227 0.028995138 -0.071355924 0.069722585 -0.062482323 0.08452479 -0.027071413 0.047312293
0.048029285 0.0024463208 0.035120968 0.003088221 -0.009062184 -0.018920822 -0.076978885 0.07509376
0.057033185 -0.049637817 -0.06957468 0.00998639 0.005713325 -0.068128705 -0.0016527984 -0.0070227194
-0.02139312 -0.022686146 -0.09073524 0.071809076 0.054223917 0.05309564 -0.02370988 0.049560044
-0.047313932 -0.032470368 0.037040982 -0.020774372 -0.08277627 -0.07311254 -0.072773464 -0.013201933
0.0020840566 0.06822469 0.065013394 0.07354967 0.0043982617 0.047894217 0.06129217 -0.0073079057
0.026629735 0.06601535 0.073427305 0.023938293 0.06105326 0.0399581 -0.058255672 0.053496715
0.06377108 0.008748845 0.049171306 -0.049979925 -0.073091246 0.08005977 -0.054856427 0.06926411
-0.055939544 0.084105305 0.0124184 -0.05748608 -0.04496498 0.043353226 0.0660951 -0.054014947
0.05890391 0.017100465 -0.05292634 0.009947479 -0.057891417 0.06375323 -0.050775282 -0.03205932
0.06897807 -0.052179188 0.0043884753 -0.070842355 0.012745565 -0.07391393 -0.02858621 -0.034649327
0.0921547 -0.037023753 -0.024366401 0.023397291 0.030383196 -0.06772904 -0.04549579 -0.009700055
-0.011081586 -0.058743916 -0.03082078 0.035378806 -0.025215808 0.012635528 0.020170718 0.013153964
0.018631779 0.018711729 0.019035235 -0.039560363 0.030393202 0.045196984 -0.07901813 0.08672501
-0.049364608 0.08645975 -0.05465168 0.07237484 0.017416181 0.066356815 -0.0009597758 0.086409226
0.0066937264 0.09108068 0.03767442 -0.07635863 0.028647745 0.03330586 -0.02973748 0.091473095
0.09085252 -0.028667323 0.07945649 0.063650526 0.010621474 -0.03973315 0.011265028 0.08162462
0.005124822 0.05170268 -0.03513431 0.013075807 -0.013797269 0.049020145 -0.00751473 -0.014713105
0.0068494156 0.07346415 -0.034737226 -0.0013022978 0.07656089 0.04269314 0.0060590487 -0.0016581289
0.03040873 -0.03734018 -0.077110454 0.08322913 0.0017095011 0.07921609 -0.05885202 -0.022184048
-0.08126903 0.03100549 -0.043809917 -0.063610725 -0.05141121 0.066625826 0.040048722 -0.0672221
-0.056130722 0.05399252 0.027507143 -0.07600979 0.00091287895 0.0842205 -0.03225518 -0.06254954

move_head.bias f4 [5]
00000000: 800d 643d a362 8ebc 856e 713d cd6b 29bd
00000010: 7b85 b13d
0.055676937 -0.017381018 0.05894329 -0.041362572 0.086680375
