checkpoints/simple_world_comm_v3_scratch/simple_world_comm_v3_adversary_0_ep375.pt (torch, 437311 bytes, 8 tensors)

body.0.weight f4 [256, 34]
000000 b8 da 77 3d 6f 57 ee bd fd 35 f3 3d 04 23 17 3e
       0.06051132 -0.116377704 0.11875532 0.14759451
000010 bf 16 57 3c 6e 38 18 3d dd d7 c4 3d 7b 0f 5d 3c
       0.013127982 0.03716319 0.09611485 0.01349246
000020 4e 82 b3 bd 32 57 0e be dc 7a e7 bd ef a1 95 3d
       -0.08765088 -0.1390045 -0.113027304 0.07306277
000030 ab 96 00 3e b6 3f bb 3d 80 be 15 be 75 0b 2e be
       0.12557475 0.09143011 -0.14623451 -0.16996558
000040 a2 36 25 be 14 c8 1b 3e 0e a1 4b 3d c1 91 39 be
       -0.16134122 0.15213042 0.04971414 -0.18122007
000050 a8 d7 32 bd 29 d1 e3 bd 36 05 96 3d 35 4b 12 bd
       -0.043662697 -0.111238785 0.07325213 -0.035716254
000060 19 ea 34 3d bd 07 85 3d 6f 38 c8 3b 55 07 23 3e
       0.044168565 0.064956166 0.006110243 0.15920766
000070 7a 5f a6 bd 58 0e 4c bd d7 8b 54 3c 44 4e 22 3e
       -0.081236795 -0.049818367 0.012972794 0.15850168
000080 57 3a d8 3d e9 62 15 bc 4d 42 dc 3d ca 0f f7 bd
       0.105580024 -0.00911782 0.10754833 -0.120635584
000090 06 e0 49 3c 27 f1 36 3d a5 55 1e 3c 3a e4 23 be
       0.012321478 0.044663575 0.009663974 -0.1600503
0000a0 cd 18 d0 bd bc b3 ec 3d ea 42 b6 3c c2 c5 24 3e
       -0.101609804 0.11557719 0.022248704 0.16091064
0000b0 27 19 0f 3d 26 33 50 3d 16 5b 1e be c4 9d 51 3d
       0.034936097 0.05083003 -0.15464434 0.051175848
0000c0 3e de 8f bd a2 f4 2c 3d e4 b7 71 bb 1c b8 57 bc
       -0.07024811 0.042225488 -0.003688329 -0.013166454
0000d0 87 c2 09 3e 3a ed b2 3d 45 ec fd bd 44 cc 19 be
       0.13453113 0.087366536 -0.123985805 -0.15019327
0000e0 12 72 b4 3d 49 ac ae bd 2d be 01 3e 82 61 ad bd
       0.0881082 -0.085289545 0.12670203 -0.08465864
0000f0 40 bd fa bd be f9 80 bc 6c 02 7a bd ea 90 1e be
       -0.12243128 -0.015744086 -0.061037466 -0.15484968
000100 55 c8 32 be 4f 20 7f 3d e5 b2 9b bd a0 e2 c2 3d
       -0.17459233 0.06228667 -0.07602481 0.095158815
000110 08 1a e3 bc 2b 90 c3 bd 80 6a 08 be 83 89 fb bd
       -0.027722374 -0.09548982 -0.13321877 -0.12282088
000120 61 9e b3 3d 21 31 10 be d3 96 c7 bd 9e 95 ff bd
       0.08770443 -0.14081241 -0.09745564 -0.12479709
000130 06 72 92 bd 3d 6e 06 3e 5c 7c b6 bd 1a 98 01 3e
       -0.071506545 0.1312799 -0.089104384 0.12655678
000140 0c 7f 8d bd 76 75 fb bd f6 66 c9 bd e7 3d 04 be
       -0.06908998 -0.12278263 -0.09834091 -0.12914239
000150 d1 66 ab 3d ef 2c 13 bd 46 35 d2 3d a9 29 bb 3c
       0.0836922 -0.035931524 0.10264067 0.022847014
000160 f7 c4 2f be da 42 79 3b c6 2d 19 be 9e 0b f7 3d
       -0.1716498 0.0038034231 -0.14958867 0.12062763
000170 47 fc 48 bd 90 78 13 3e 1b 42 11 3e 18 49 23 be
       -0.049068715 0.1440146 0.14185373 -0.15945852
000180 50 62 94 3d b7 27 b0 ba f4 85 f6 bd 1b bd f1 3d
       0.07245314 -0.001343957 -0.12037268 0.11803647
000190 c2 1e 35 3d 46 f1 a4 bc c3 9a e9 bd eb 09 e0 3c
       0.044218786 -0.02013458 -0.114064716 0.02734848
0001a0 03 60 43 bd 8d 72 08 3e 4a 0b 70 3d 41 1d da bd
       -0.047698986 0.13324948 0.058604516 -0.10650111
0001b0 01 ae a2 bd 63 70 d2 bc ec 31 82 3d f1 ab ec 3d
       -0.07943345 -0.025688356 0.06357178 0.11556233
0001c0 d9 bd 04 3d f9 e0 23 be da 56 0d bb ea 01 1a be
       0.032407615 -0.16003789 -0.002156666 -0.15039793
0001d0 40 ec b8 3d b3 88 0a be b3 f5 d4 3d 7e 57 be 3d
       0.09029436 -0.13528709 0.10398426 0.092940316
0001e0 b4 1f ec bc fc 58 1d be 69 8a 2c be ab 8a aa bd
       -0.028823711 -0.15365976 -0.16849674 -0.0832723
0001f0 1a 9f 20 be b1 52 10 be 87 79 06 be 57 7a 05 3e
       -0.15685692 -0.14094044 -0.13132297 0.1303495
000200 2e c2 f6 bd 03 8a 14 bc de 6e 06 3e 81 93 f7 bc
       -0.120487556 -0.009066108 0.1312823 -0.030221703
000210 1a b8 2e bd 7f f5 1c 3d 07 0b a4 bd bf 31 01 be
       -0.04265604 0.03832006 -0.08009916 -0.12616633
000220 75 7d 1e 3e ec b4 5f 3d 35 23 c9 3d dc ff b0 3c
       0.15477546 0.0546159 0.09821168 0.021606378
000230 c0 43 38 be a4 18 85 3d 72 69 cd bd 57 3c d8 3c
       -0.17994595 0.064988405 -0.10029878 0.02639596
000240 83 13 a3 3c dc 9b 11 be 85 6b 07 be a1 c2 27 bd
       0.019906765 -0.14219612 -0.13224609 -0.040957097
000250 b2 89 94 bd 99 fb c4 3d 36 b2 69 bd f5 55 3a 3c
       -0.07252826 0.09618301 -0.05705472 0.011373033
000260 9c 30 af bd 65 52 4c bd d9 d0 ca 3d db 62 14 bc
       -0.085541934 -0.049883265 0.09903116 -0.009056772
000270 e1 37 6e 3d 51 27 50 ba 32 5c ff 3d b2 0e 25 be
       0.05815876 -0.0007940429 0.12468757 -0.16118887
000280 f2 30 58 bd 62 0d 83 bd ef 62 d4 bd 2b 97 3b bd
       -0.052781053 -0.06399037 -0.103704326 -0.045798462
000290 5e 5d f0 3d 17 02 18 3e 66 a6 88 3d 78 c0 68 3c
       0.117365584 0.14844547 0.06672363 0.014206044
0002a0 06 f4 af 3c 48 51 a1 3d ba 6a d2 3d ad 2e 5b 3d
       0.021478664 0.07876831 0.10274263 0.05351131
0002b0 ea df 35 3d aa 1f e3 bd 3c b0 c9 3c 79 a8 21 3e
       0.044402994 -0.11090024 0.024620168 0.15786923
0002c0 6b fe e6 bc 00 1b f0 bd 26 46 d2 3b 3e ae 0c bd
       -0.028197488 -0.117239 0.0064170538 -0.034345858
0002d0 f9 3c af bc d3 82 27 be ec fd ef 3d 7a 5c 1b 3e
       -0.021391379 -0.16358499 0.11718354 0.15171996
0002e0 23 36 20 3c 8c 1f 88 bc 93 23 28 3e 8c 95 8f 3d
       0.009778532 -0.016616605 0.1641982 0.07010946
0002f0 25 63 fa 3d 01 ed 0e 3e 1c 1b f8 3d 55 b7 a1 3d
       0.122259416 0.13957597 0.12114546 0.07896296
000300 33 49 af 3d fc 31 11 be bb 86 28 3c ed 97 10 be
       0.085588835 -0.14179224 0.0102860285 -0.14120455
000310 6b 60 9a 3d 7a c1 aa 3d ad 13 31 3c 86 75 1b be
       0.075379215 0.08337684 0.010807914 -0.1518155
000320 e1 6b df bd cf e5 65 bd b1 83 04 be 17 fa 2f 3d
       -0.10909248 -0.056127366 -0.12940861 0.042963114
000330 23 81 13 3e 25 8d 01 3e 0a c7 2a 3e fa aa 13 bc
       0.1440473 0.12651499 0.1667749 -0.009012932
000340 ff 79 53 3d f1 30 2e bd 21 0f 2e be db 14 06 3e
       0.051630016 -0.042527143 -0.16997959 0.13093893
000350 19 5f 24 be 4e 27 08 3e 3d cc 69 3c 13 ea 29 be
       -0.16051902 0.13296244 0.014269886 -0.16593198
000360 a9 6a 2b 3d 37 08 e9 bd e9 f3 6e bd fc cf 26 3e
       0.041849766 -0.1137852 -0.05833808 0.16290277
000370 e9 a9 e3 3d c6 64 90 bc ea bb eb 3d 88 7c 95 bd
       0.11116392 -0.017626178 0.11510451 -0.07299143
000380 88 2f 94 bc 93 85 08 3e f1 ef 17 bd e3 4b 95 3d
       -0.01808907 0.13332205 -0.03709406 0.07289865
000390 ba 62 ca bd 81 ca b3 bd fa 4e 24 bc 01 f9 91 3d
       -0.09882112 -0.08778859 -0.010028595 0.07127572
0003a0 7e d3 0c bc 5d 96 b8 3d f8 8b 79 3d 91 71 ee 3d
       -0.008595346 0.090130545 0.0609245 0.11642755
0003b0 74 d0 25 be 95 92 80 bd 63 b5 12 3e df f4 e6 bd
       -0.161928 -0.06277958 0.14327006 -0.11277174
0003c0 cc 42 bc bd 80 23 e7 3d 5e fc 19 3e e5 da 08 be
       -0.09192428 0.11286068 0.15037677 -0.13364752
0003d0 80 22 03 be 01 bf cb bd 6e b0 5d 3d 27 bf fc bd
       -0.1280613 -0.099485405 0.054123335 -0.12341147
0003e0 69 bf 1c be 15 32 a6 3c fb aa be bd 58 f7 12 3d
       -0.15307392 0.020287553 -0.09309956 0.035880417
0003f0 e1 f5 1c 3e 64 d0 68 bd b1 70 1e 3e 53 f7 0e 3e
       0.1532817 -0.05683936 0.15472676 0.13961534

body.0.bias f4 [256]
000000 e2 d2 85 3d 43 dc 3f bc 50 9e fa 3c 1e 13 9a bd
       0.06534363 -0.011710229 0.030593067 -0.075231776
000010 1d 67 93 3d 00 a0 b8 bb 9f ae fd bd 5d 31 28 be
       0.07197402 -0.005634308 -0.12386822 -0.1642508
000020 8a 44 48 bd c8 61 19 3d 63 c2 39 3d ae 2f f5 3d
       -0.04889349 0.037446767 0.045351397 0.11971985
000030 c4 d8 83 3d 0f c7 ef 3d 5a 21 6f bc f7 1a 26 be
       0.06437829 0.11707889 -0.014595354 -0.16221224
000040 2c 13 09 bd cd 83 85 3c 81 e9 8f bc 31 95 f7 3b
       -0.03346555 0.0162982 -0.017567398 0.007555627
000050 46 6a fb 3d ec 90 89 bd fd 0e 12 3e df 20 4e 3d
       0.122761294 -0.06717095 0.1426353 0.050324317
000060 c3 29 b8 bd f3 54 c4 3d ac eb 4d bd 86 d7 0c 3e
       -0.089923404 0.09586515 -0.050273582 0.1375409
000070 8f 74 23 3e 91 94 0d 3e 9f 15 e4 bd 29 7e f5 3c
       0.15962432 0.13826205 -0.111369364 0.029967384
000080 53 1c bd bd a3 70 af bb 68 b9 e5 3d d5 64 e8 3d
       -0.09233918 -0.0053540035 0.11217004 0.11347357
000090 89 3b b4 3c e9 53 ee bd 23 5b c0 3a 58 dc e0 bd
       0.022001045 -0.11637098 0.0014675598 -0.10979527
0000a0 54 92 12 3e 81 73 75 bd bb f2 19 3e e7 95 12 3e
       0.14313632 -0.059924606 0.15034 0.14314996
0000b0 c4 a7 48 bc f4 b3 25 be 5c 43 67 b9 38 d5 21 be
       -0.01224703 -0.16181928 -0.0002205497 -0.15803993
0000c0 91 29 df b9 85 23 37 bd 95 cf 26 3e e9 27 0a 3e
       -0.00042564844 -0.04471161 0.16290124 0.13491787
0000d0 80 4c f9 3d f3 25 64 bd 01 3a ba bd 4d 3c 2a 3b
       0.12172794 -0.055700254 -0.090930946 0.0025975883
0000e0 9e 96 1e be 00 b6 d9 3d aa 45 cf 3d 87 92 26 3d
       -0.15487143 0.10630417 0.10120709 0.040667083
0000f0 cd 46 37 3c 35 64 eb bd 01 ab 01 be 6b 6e 02 3e
       0.011186314 -0.11493722 -0.12662889 0.12737434
000100 64 17 d5 3d 13 a5 06 be d2 10 26 be 5e 26 8b 3d
       0.10404852 -0.13148908 -0.16217354 0.06794427
000110 f9 47 32 3e 65 3c b6 3d 56 fa 24 3e e2 db 14 3e
       0.17410268 0.08898238 0.1611112 0.14537004
000120 e6 50 28 3e 12 6e 4f bd 5a 5f 6e bd 23 a6 a4 3a
       0.1643711 -0.05064208 -0.058196403 0.001256172
000130 cc 08 d4 3c af 5d 16 3e 1e 88 0c 3e 1d 7b be 3d
       0.0258831 0.14684175 0.137238 0.09300826
000140 77 5b 6f 3c da d3 1c 3e d0 ea b2 bd de fc 02 3c
       0.014609209 0.1531519 -0.08736193 0.007994859
000150 9e 98 23 3e 9d 41 8a bd ad e4 ca 3b e8 4d df 3d
       0.15976188 -0.06750796 0.006191811 0.10903531
000160 24 7c 6b bd 90 77 b8 b9 ba d7 1f be 71 93 c7 3c
       -0.057491437 -0.00035184296 -0.15609637 0.024362298
000170 65 c2 96 bd 1c 23 e1 bd ad 6e 5c bd 62 a8 b3 ba
       -0.073612966 -0.10993025 -0.053816486 -0.0013706798
000180 c0 7b a3 bd 48 fc a9 3d b0 43 90 bd 1e 33 d7 bc
       -0.07982588 0.08300072 -0.0704416 -0.026269492
000190 ae df 0b 3e a2 6e 41 bd cf d0 1b be e4 6b dd bd
       0.13659546 -0.04722465 -0.15216373 -0.10811594
0001a0 7a 00 35 be 0e d9 e4 bd 2d d8 2a 3e a4 87 38 3d
       -0.17675963 -0.111742124 0.16684027 0.045051232
0001b0 b8 c5 b5 3d f3 6e df 3d 5d fb e4 bd 3d bf 82 bd
       0.088756025 0.10909834 -0.11180756 -0.06384132
0001c0 da ce 1a 3b ff 7c 35 3e e9 35 17 be 89 99 2c be
       0.0023621828 0.17723463 -0.14766659 -0.16855444
0001d0 6b 50 0f be 8d 4c e5 3d 93 2f b7 bd 07 f8 c2 bc
       -0.13995521 0.111962415 -0.08944621 -0.02379991
0001e0 2e 1b 06 3e bd 0d cd 3d 4e 38 d9 bd 3c d2 c9 3d
       0.13096306 0.10012386 -0.106064424 0.09854552
0001f0 9f aa 8e bd f0 2a e8 bd 7c 9e 24 3d f1 9a d6 bc
       -0.06966137 -0.11336315 0.040190205 -0.026196929
000200 38 f8 4b bd 40 6d 17 be f6 a9 2b 3e fc bb c2 3c
       -0.049797267 -0.1478777 0.16764054 0.023771279
000210 d3 9d 5c 3d d3 52 ee 3d 90 75 d9 bc bc ad bd bd
       0.05386145 0.11636891 -0.026545316 -0.09261653
000220 29 37 a5 3d 1f 89 51 bd 18 fd 6c bc b2 d7 1a 3e
       0.080671616 -0.05115616 -0.014464639 0.15121344
000230 95 52 04 3e c2 80 e7 bd 9a f7 b3 bd f4 63 02 be
       0.12922128 -0.113038555 -0.087874606 -0.12733442
000240 be f3 a1 3d 9c 7e 30 bd 67 f3 35 be 20 70 2b 3e
       0.07907818 -0.043089494 -0.17768632 0.16741991
000250 1a e2 22 be 22 ff 14 bb 43 6c d5 3d e5 f1 63 3c
       -0.15906563 -0.0022735079 0.1042104 0.013912653
000260 b4 57 7e 3c 09 ee 09 3d 16 f2 a9 3d 5c 9a e7 bd
       0.01552384 0.033674274 0.08298127 -0.113087386
000270 76 57 cd bd 85 26 f5 3c bc a3 ba bd ba 06 e4 bd
       -0.100264475 0.029925594 -0.09113261 -0.111340955
000280 11 12 f3 bb 8d b7 dc bc f8 2f 10 be 0f 0d dd bd
       -0.007417925 -0.026942993 -0.14080799 -0.10793506
000290 17 df 9b bd 4b 37 31 3e f9 a7 56 3d 3b fb b0 3d
       -0.076109104 0.17306249 0.052406285 0.086416684
0002a0 9f f4 89 bd 6b b9 0c 3e 60 c6 04 3e 0a 46 c3 3d
       -0.06736111 0.13742606 0.12966299 0.09534843
0002b0 79 7f 1d 3d 60 08 2b 3e be a5 01 bc 09 7e 00 3e
       0.038451646 0.16702414 -0.007913051 0.12548079
0002c0 a9 2b e8 3d 88 ea 3c ba 83 b0 39 3d 21 ae f0 bd
       0.113364525 -0.0007206579 0.04533435 -0.117519625
0002d0 7d bc f2 3d 62 f7 0c 3e e8 4e 0c 3e 10 8f 1a 3d
       0.118523575 0.13766244 0.13701975 0.03773409
0002e0 ba 5b ea ba 2f fc 6e bd c0 97 99 3d 5f fb d2 bd
       -0.001788012 -0.05834597 0.07499647 -0.103018515
0002f0 fd 42 14 be 6f 67 cf bd 26 07 f8 bd af 77 f8 3d
       -0.14478679 -0.1012715 -0.121107385 0.12132203
000300 81 66 11 3e 02 4a 88 3d 70 70 3a 3c ce ef 81 3d
       0.14199258 0.06654741 0.011379346 0.06344567
000310 23 6b a4 3d 22 e7 15 bd 2c b7 e0 3d 14 6a 3d 3d
       0.08028247 -0.03659738 0.10972437 0.046243742
000320 47 58 12 be 03 f0 b9 3c ac 67 31 3d 53 fb 3e 3d
       -0.14291488 0.022697454 0.04331176 0.0466264
000330 d1 f3 15 be 15 04 ec bd c4 34 98 3b b3 ec 7b 3d
       -0.1464379 -0.11524216 0.004644962 0.06150503
000340 cc 6d cb 3d 0b 9a 94 3d 8d 96 2e bd 1a a8 12 bd
       0.099330515 0.07255944 -0.042624045 -0.035804845
000350 c0 01 23 3e a3 cd 16 3e b2 75 c8 bd f2 9a cb bc
       0.15918636 0.14726882 -0.097880736 -0.024854157
000360 52 3b 03 3e cb 47 cd 3d 32 df a4 bc 78 f6 33 3c
       0.12815598 0.10023459 -0.020125959 0.010984056
000370 cc 22 43 3d 6e 34 19 be ec 89 eb 3d 48 11 aa 3d
       0.047640607 -0.14961407 0.11500916 0.083040774
000380 18 1d 79 bd 73 d2 e1 3d 85 27 da 3d 00 bf 08 3d
       -0.06081876 0.11026468 0.10652069 0.033385277
000390 0b ad c6 bd 3f 27 e3 3d c6 7c f0 bc 4a 3a c0 bb
       -0.09700974 0.1109147 -0.029356372 -0.0058663236
0003a0 7e f9 8b bd 24 e3 01 bd 8f ff cc bc b6 88 90 3d
       -0.06834696 -0.03171076 -0.025024204 0.070573255
0003b0 3e ba 15 be 26 ef 1d 3c dd 15 c5 bd 95 ca f5 3d
       -0.14621827 0.009639537 -0.09623311 0.1200153
0003c0 65 b9 23 be 9a a3 a9 bd 2b a3 00 3e f4 58 54 3d
       -0.15988691 -0.08283158 0.12562244 0.051842645
0003d0 b2 71 97 3d 77 4b a0 3d 49 d0 81 3c 5f 28 f0 bd
       0.073947325 0.07826894 0.015846388 -0.1172645
0003e0 b6 77 b6 3d af e7 f1 bd ef 3d 89 3c e4 a8 65 3b
       0.08909552 -0.11811768 0.016753165 0.0035043294
0003f0 a1 90 1e be 6b bb 92 bd c5 7a f2 bd 29 93 47 bd
       -0.15484859 -0.071646534 -0.11839823 -0.048724327

body.2.weight f4 [256, 256]
000000 7a 5a 3b 3d 4b 12 4c bb 7e 92 82 3d 72 e2 b0 3c
       0.045740582 -0.0031138833 0.063755974 0.021592353
000010 40 e8 32 3c 40 f9 26 3c 0d d7 5d 3d 40 61 d7 bb
       0.0109196305 0.010191262 0.054160167 -0.0065728724
000020 63 d9 9d 3c 2d 78 71 bd 72 39 74 3d 67 44 73 bd
       0.019268697 -0.0589525 0.059625097 -0.059391405
000030 88 0b 09 3d 76 62 bd bc 5a 67 d3 bc f3 0e 24 bd
       0.033458263 -0.023118239 -0.025806118 -0.04005332
000040 92 ec 2c bd c5 3c e1 3b 26 10 5a 3d af f5 1a bd
       -0.0422178 0.0068736994 0.053238057 -0.03783196
000050 d0 e0 03 bc 48 75 d2 bb 83 4c 31 bd 3e 89 a5 3c
       -0.008049205 -0.0064226724 -0.043285858 0.020207044
000060 bd e5 9f bc de 08 8a 3d 37 26 a7 3c 91 34 ca bc
       -0.019518727 0.067399725 0.020403964 -0.024683269
000070 9f bd 75 3d 97 0f 25 3c fd 8c c5 3c af 3f d7 bb
       0.05999529 0.010074518 0.02411508 -0.006568871
000080 e4 64 53 bd 1b c9 45 bc 11 f1 2b bd b0 1e b9 bc
       -0.05160989 -0.012071873 -0.041977946 -0.02259764
000090 38 30 54 bd 82 72 47 bd 43 eb 01 bd 2d 36 1f bd
       -0.051803797 -0.048693188 -0.031718504 -0.038870025
0000a0 88 0c 1c 3d d3 d5 22 bd 81 c8 b2 bc f3 fe d1 3c
       0.03809789 -0.0397547 -0.021824123 0.025634265
0000b0 40 2c 8a bc 75 9b 87 bc 9c 33 6a 3c 8a 33 54 3d
       -0.016866803 -0.01655362 0.014294531 0.051806964
0000c0 b9 df 5b 3d b3 1f 92 bc 85 e7 dc bc b9 98 a0 bc
       0.053680155 -0.017837381 -0.026965866 -0.019604074
0000d0 7a 3d 11 bb c4 9b 6f bc 1d 8a 2c 3d 92 2f 76 3c
       -0.0022161887 -0.01462454 0.042123903 0.01502599
0000e0 b0 54 d4 bc 22 db 4a bd 50 58 80 bd 71 44 36 3d
       -0.025919288 -0.049525388 -0.06266844 0.044498865
0000f0 56 9a 11 bd 91 95 a7 bc 87 d1 dc bc 1c 7f 2e bd
       -0.035547577 -0.020457061 -0.02695538 -0.04260169
000100 cb 14 32 bd e3 93 99 3c f8 11 f6 3b 26 15 86 bc
       -0.04347686 0.018747276 0.0075094663 -0.016367506
000110 66 4b 83 3c 47 72 33 3d ca d1 0b bd 37 22 55 3d
       0.016027164 0.043810155 -0.034135617 0.052034583
000120 9c 56 43 bd 27 6f 51 3d 2b 61 8c 3c dc 89 2e bb
       -0.04769002 0.051131394 0.017136177 -0.0026632464
000130 d7 38 e4 3a 5d f3 2f 3d 1d aa 05 bd 97 04 13 bd
       0.0017411959 0.0429567 -0.032632936 -0.03589305
000140 6b 39 43 3b 9c fe 15 bd 64 b9 94 bc 93 21 36 bd
       0.0029788862 -0.036619768 -0.018154807 -0.044465613
000150 8b c1 a2 3c 2e 67 82 3c da 0d 41 bc 22 8a 54 3d
       0.01986768 0.01591834 -0.011783088 0.051889546
000160 82 a0 8c bb fc 19 28 bc c5 18 48 bd e7 e1 20 3d
       -0.004291595 -0.010260101 -0.048851747 0.039277937
000170 7d ce c3 bb df ae 8a bd 5a 8d b7 bc 49 9e 1b bc
       -0.005975543 -0.06771635 -0.022406269 -0.009498187
000180 3d 7f 45 3c 3a a4 3d 3d 1d fc 39 bd 5d ac 13 3c
       0.012054262 0.046299197 -0.04540645 0.009013263
000190 54 5b 45 bc b6 7c 80 bd 94 78 ed 3c ed 58 25 3c
       -0.0120457 -0.06273787 0.02898816 0.010092002
0001a0 25 22 67 bb 30 c8 ae bc bc 63 8c ba 10 62 ab bc
       -0.0035268154 -0.021335691 -0.0010710876 -0.020920783
0001b0 ad 80 f8 bc 38 31 8e bb 19 37 ab 3b 96 74 47 bc
       -0.030334795 -0.0043393634 0.005225074 -0.012173792
0001c0 61 a6 12 3d 61 04 3b 3d b5 38 fc bc b0 8b de 3c
       0.035803203 0.045658473 -0.030788759 0.027166218
0001d0 7b 1a c4 bc 3f e1 60 3d 35 bf 78 3c 2d 7e 0c 3c
       -0.023938408 0.05490231 0.015182306 0.0085750045
0001e0 34 be 34 3c f1 93 2f 3d bb ba 7c bd e8 c7 00 3d
       0.011031676 0.042865697 -0.061701518 0.031440645
0001f0 58 50 da bc f7 58 57 3d 3d b8 85 bc da ab 91 bc
       -0.026649639 0.052575078 -0.016323203 -0.01778214
000200 34 a1 c3 3c dd c0 ce 3c 93 4d 59 3d c3 ce 25 3d
       0.023880579 0.025238449 0.053052496 0.040480386
000210 f2 73 93 3b 4d 4b 2e 3d 52 85 ae bc b6 bb 51 3c
       0.0044999057 0.04255228 -0.021303806 0.012801101
000220 e0 6f 0e bd f1 47 21 3d e8 20 7d bd 80 47 27 3d
       -0.03477466 0.03937525 -0.06179896 0.040839672
000230 64 db 05 bd e3 f5 30 bd 17 db cf 39 f5 fb 26 3b
       -0.03267993 -0.043203246 0.0003964535 0.0025479768
000240 a7 81 2b bd 0d c9 8f 3d 40 51 5f bd 8e 9a ce bc
       -0.041871693 0.07020769 -0.054520845 -0.025220182
000250 02 3e 0d bd a1 a6 5f bc 37 91 49 3d 01 23 27 bd
       -0.034482963 -0.013650567 0.049210753 -0.040804867
000260 b2 81 12 3d 52 e7 3d 3d 21 08 13 3d 1f 0e 9a 3c
       0.03576822 0.046363182 0.035896424 0.018805562
000270 3d 60 7f 3c cb a4 d2 bc 0b c2 52 bd 70 a6 1b bd
       0.01558691 -0.025713345 -0.051454585 -0.038000524
000280 f7 7f 68 bc fe 58 40 3d 2b c8 2e 3d af f3 67 bd
       -0.014190665 0.04695987 0.042671364 -0.05662888
000290 80 30 59 3d 85 b0 01 3c 90 de 54 bd ea 02 0d 3d
       0.05302477 0.007915621 -0.051970065 0.034426607
0002a0 94 d1 db bc f9 ec 47 3d 4f 99 09 bd 94 fa 37 bd
       -0.026833333 0.04880998 -0.033593472 -0.044916704
0002b0 47 ee 46 3d c8 75 3c 3d ba 6d 7c bd 4f 88 f8 3c
       0.048567083 0.046010762 -0.06162808 0.030338435
0002c0 65 14 ab 3c 67 f4 0a bd 45 ea 5c bd 09 d2 a6 bb
       0.020883748 -0.033924486 -0.053934354 -0.005090956
0002d0 8c e4 db bc 26 07 4b 3d 79 db 08 bc ba 66 9a bc
       -0.026842378 0.049567364 -0.008353108 -0.018847812
0002e0 7d fd 20 3d b0 40 a0 3c 2d 21 07 bd 49 ee 6d 3c
       0.039304245 0.019562095 -0.032990623 0.014522144
0002f0 a7 f5 b7 bb 66 8d aa bc ee 8f 69 3d 7b ac 20 3d
       -0.005614001 -0.020819377 0.057022028 0.03922699
000300 aa 8d f6 bc 8c 2a 8c bb 53 9e 24 3d ad 05 0a bd
       -0.030096848 -0.004277533 0.040190052 -0.03369682
000310 04 52 2c 3c 9a a3 1d 3d eb a4 de bc 4c c1 69 3b
       0.010517601 0.0384861 -0.027178248 0.0035668192
000320 8b 89 b5 3c de 31 3a bd 86 0d 52 3d 9d f9 82 3d
       0.022160312 -0.045457713 0.05128243 0.06395266
000330 f4 cc a5 bc b5 68 e4 3c f4 95 61 3d 2c 75 74 bc
       -0.02023933 0.02788196 0.055074647 -0.014920514
000340 0f af 23 3c 0b 33 4b 3d 28 24 24 bd 35 bd 02 3d
       0.009990468 0.049609225 -0.040073544 0.031918723
000350 73 b9 0e bc f3 41 16 3d 9e 8f 04 bd bc ab ea bc
       -0.008711207 0.036683988 -0.032363527 -0.028646342
000360 0c 51 20 3d dc 7a 8b 3c 02 47 3f bd 99 2c d4 bc
       0.039139792 0.017026357 -0.046698578 -0.025900172
000370 34 f9 0b 3d 9a 87 5f 3d a7 8d 8b bb bf a5 11 bd
       0.034173205 0.05457268 -0.0042588296 -0.03555846
000380 79 59 80 3c 99 da 9f 3c 77 08 1f bd d9 9e c7 3b
       0.015667664 0.019513415 -0.038826432 0.006091934
000390 3f 46 4a 3b 0f 84 3d 3d d2 93 8a bd 71 d2 88 3d
       0.0030864624 0.04626852 -0.06766476 0.066807635
0003a0 b4 fc 09 39 df 69 08 3a 72 e6 14 bd 11 33 43 bd
       0.00013159477 0.00052037643 -0.036352582 -0.047656123
0003b0 1b 3b 3e 3c c1 f3 03 3d f7 4e 05 bd cf 6b d7 bc
       0.0116107715 0.032214884 -0.03254601 -0.026296524
0003c0 95 8b 0b bd 0b 74 bd bc 7b 81 7f 3d 21 e9 00 3d
       -0.034068663 -0.023126623 0.06237934 0.03147233
0003d0 d8 26 36 3d 8d 3e 15 bd 8f 41 51 3d a5 66 59 3b
       0.044470638 -0.036436606 0.051087912 0.0033172753
0003e0 e6 56 01 bd b7 25 5a 3c 49 0d 00 3d 33 40 0b bd
       -0.031577013 0.013314656 0.03126267 -0.033996772
0003f0 f8 86 71 3c 5c a2 14 3d 20 6b ec bc a8 f4 67 3d
       0.014741652 0.03628765 -0.028859675 0.056629807

body.2.bias f4 [256]
000000 34 c4 fe bc 64 ea c0 bb db ef 56 bd 13 b7 70 3d
       -0.031099416 -0.0058873165 -0.052474838 0.058768343
000010 a4 de 0c bd 92 4e 06 bd 32 68 4b bd e8 31 10 bd
       -0.034392014 -0.032789774 -0.049659915 -0.035203844
000020 4a 8b 2e bd 87 9a 09 3d 02 c5 74 3d a2 52 1d bd
       -0.042613305 0.033594634 0.059758194 -0.038408883
000030 8b a2 83 bd 02 25 f5 3b 7e d5 57 3d d3 88 36 3d
       -0.06427487 0.0074812183 0.052693836 0.04456408
000040 bd ba 0e bc 7e 5e 7a bd b7 47 34 3d 17 fa 9e 3b
       -0.008711514 -0.06112527 0.044013705 0.0048515904
000050 a6 10 3f 3d 26 ea 18 3d 7c 11 88 3d 70 45 49 3d
       0.046646737 0.037332676 0.0664396 0.049138486
000060 50 b4 11 3d fb 49 40 3d d1 ec 85 bb e9 4d f8 3c
       0.03557235 0.046945553 -0.0040870686 0.030310588
000070 a2 de 6c 3d 52 f7 83 bd e4 ab 68 bd 52 ae da bb
       0.057829507 -0.06443657 -0.056804553 -0.0066736126
000080 96 99 29 3d c5 a0 65 bc 87 a1 3d bc ed db a0 bc
       0.041406237 -0.014015381 -0.011574156 -0.019636119
000090 fb d9 7f ba a8 43 d1 bc 80 ab de bc ba d5 67 3d
       -0.00097599596 -0.025544956 -0.027181387 0.05660031
0000a0 84 8c 11 3d 60 ce c6 bc f3 5d eb 3b 48 e8 76 3d
       0.035534397 -0.02426833 0.0071828305 0.060280114
0000b0 de 8a 24 3b 82 9a 6e bd 20 6c fb bc e5 71 b1 bc
       0.0025107185 -0.05825282 -0.030691206 -0.021660754
0000c0 39 cf 08 bd 0a f8 b8 3b 1f 4d 79 bc 7d fb 3e 3c
       -0.033400748 0.005644803 -0.015216141 0.011656639
0000d0 63 0d 96 3c df 28 93 3d 21 bd 6e bd 84 86 81 bc
       0.01831693 0.0718553 -0.058285836 -0.015811212
0000e0 3b f8 4c ba d4 34 53 bd 59 1b 47 3d 4f f2 f3 bc
       -0.00078189716 -0.051564053 0.048610065 -0.029778628
0000f0 36 4c d8 3b 91 58 6b bd c6 29 e6 3c ee ac 1a bd
       0.006600882 -0.05745751 0.028096091 -0.037762575
000100 53 f7 b7 3b bf 44 8a bd c9 36 85 3d 43 5d 32 3d
       0.0056142 -0.067513935 0.0650459 0.043545973
000110 77 86 45 3c a6 1b 93 bc 79 89 5f bc fc 24 42 3d
       0.012055985 -0.01795752 -0.013643616 0.047398552
000120 ae a5 b8 ba 8f 7a ee 3c 5d 26 1d bd a0 62 40 bd
       -0.0014087462 0.029111175 -0.038366664 -0.046969056
000130 59 33 e5 3c 2d b8 fe bc d6 ff 05 3d 43 34 1e bd
       0.027978586 -0.031093681 0.032714687 -0.03862406
000140 13 93 1e bd 9b e5 9c 3c 62 0d d4 bb fc 10 93 3c
       -0.03871448 0.019152453 -0.006471322 0.017952435
000150 b7 81 06 3b 57 fc 2d bc 1b 4e 41 3d de 7c 7c bc
       0.0020524093 -0.010619245 0.047193628 -0.01541063
000160 d7 68 35 3c b4 31 a5 3c b2 67 4f bd 46 57 3d bd
       0.011072359 0.020165302 -0.050636 -0.04622581
000170 96 46 e0 3c 13 3a 6a 3d c4 5d 5c 3d b2 a5 3a 3d
       0.027377408 0.05718429 0.05380036 0.045568176
000180 e3 32 cf 3b 7f 43 2e 3d e3 12 da bc 54 9e e2 3a
       0.006323205 0.042544838 -0.026620334 0.0017289617
000190 c4 89 bc bc cd a0 f2 bc 34 ac bb 3b 16 74 3b bd
       -0.02301491 -0.029617691 0.0057273153 -0.045765005
0001a0 31 6c 3d bd e5 ab 9f 3c f9 3a 97 bb e0 fd 3e 3d
       -0.046245757 0.019491145 -0.0046151844 0.046628833
0001b0 7a a6 76 3d bc b5 49 bc cd 65 ad 3c 05 ce 58 bd
       0.06021736 -0.012311395 0.021166706 -0.05293085
0001c0 76 df 25 bd 2b 00 39 3a 2a e0 b1 3c d0 98 5b bd
       -0.040496312 0.0007057215 0.021713335 -0.05361253
0001d0 42 e2 1c bc 9d 2d 4e bd ee 69 64 bd f3 64 fd bc
       -0.009575428 -0.05033647 -0.055765085 -0.030931925
0001e0 49 6f b5 bc 96 45 2d bd a5 d8 ef bc ce 65 9e ba
       -0.022147791 -0.04230269 -0.029278109 -0.0012084784
0001f0 82 e3 3d 3d 00 c4 30 3c c9 dd 56 3c 91 b4 2f 3c
       0.046359546 0.010788918 0.013114401 0.010724203
000200 5f fe 91 3c 9e 52 30 3d 2a a0 3d bc 3d 3b 7e 3d
       0.017821489 0.04304754 -0.011573831 0.062068213
000210 50 f1 47 bd 94 0e 6b b8 30 33 45 3d 5d 69 10 bc
       -0.048814118 -5.6041943e-05 0.04814452 -0.008814183
000220 2c c7 01 bc 45 59 b4 bb a9 48 bc bc 4b 40 6f bd
       -0.007921021 -0.005503806 -0.022983866 -0.058410924
000230 3d 7d 04 3d 32 31 d1 ba 57 61 7e bd b3 e8 89 bc
       0.032346 -0.0015960096 -0.06210455 -0.016834592
000240 d3 3a 4c 3d f6 e2 5c 3d f6 38 34 bc 48 f1 43 bd
       0.049860787 0.053927384 -0.010999909 -0.047837526
000250 98 bb 59 3d 57 0f cb 3c 57 60 1d bd 76 99 04 bc
       0.05315742 0.024787588 -0.038421955 -0.008093229
000260 fa 5c 8f 3c e4 9c 82 bc 55 40 77 3d 4d e1 7c 3d
       0.01750039 -0.015943952 0.060364086 0.0617383
000270 58 8e be 3b de d6 8c bd 9e d4 b1 3a a1 51 83 3d
       0.0058153085 -0.0687692 0.0013567393 0.06412054
000280 7d 40 7c bd 11 c3 a7 3c ac 11 05 bd 97 31 a2 3c
       -0.06158494 0.020478757 -0.032487556 0.019799037
000290 f6 88 89 3d 4a 7e 41 3d 98 14 a8 bc 26 3e 6f 3d
       0.06715576 0.04723958 -0.020517632 0.05840888
0002a0 fd ac ea bb 2d e8 3a 3d c1 ee ab 3c 6e 7d 45 bd
       -0.007161735 0.045631576 0.02098787 -0.048215322
0002b0 9a 0c 26 bd c5 df ee bb f6 f3 9e 3c a4 d2 31 bd
       -0.04053936 -0.007289859 0.019403439 -0.043413773
0002c0 1d 39 61 3d e2 0e 13 bd 65 08 53 bd af b3 3f 3d
       0.054986108 -0.035902865 -0.051521678 0.04680222
0002d0 c8 3a 31 bd 11 0b 8d bd 97 cc 4f 3c 16 7c 31 bd
       -0.04326895 -0.068868764 0.012683055 -0.04333123
0002e0 cd d3 4c 3d 58 88 52 3c b6 ed 44 bb b9 15 ad bc
       0.050006676 0.01284989 -0.0030048913 -0.021128522
0002f0 0e 53 ec bb 7d a6 79 bd 06 09 04 bd a4 77 3f 3a
       -0.0072120493 -0.06094979 -0.032235168 0.00073038996
000300 db 11 44 3d 58 67 12 3d 1f c1 28 bd 3b 55 81 bc
       0.04786859 0.035743088 -0.0411998 -0.015787711
000310 e1 e6 13 3d a7 53 ab bc 1a f5 d3 bc 3b 0b df 3b
       0.036108855 -0.020913912 -0.02587371 0.0068067587
000320 80 d8 9b 3c 49 19 6f bb b8 69 3f bd 4f f2 3a 3d
       0.019024134 -0.0036483577 -0.04673168 0.04564124
000330 f5 29 ed bc 2a eb 08 bd 20 e7 a2 bc fa 9c bb bc
       -0.02895067 -0.033427395 -0.0198856 -0.022902
000340 b3 5b 4a 3d e9 e1 15 bb 4a 41 fc bb bf 7a b4 bc
       0.049403857 -0.0022870249 -0.0076982128 -0.022031186
000350 72 17 2f 3c 24 06 48 bd b2 08 03 3b ae 34 4f bd
       0.010686742 -0.04883398 0.0019994196 -0.05058735
000360 ff 04 51 bd 72 1c aa 3b 70 b3 79 3d 32 66 48 3d
       -0.051030155 0.005191379 0.06096214 0.048925586
000370 53 98 62 bc 41 7a 3a 3d 9c 66 3b 3c 1b f8 dc bc
       -0.013830262 0.045526747 0.011438038 -0.026973775
000380 d1 ac 6b 3a 48 0e f9 3c 35 d1 79 bd ee da 05 3d
       0.000899029 0.030402318 -0.06099053 0.03267949
000390 6a f0 57 bd 4f da aa 3c 4d cd 51 3d bf bd 5a bd
       -0.05271951 0.02085605 0.05122118 -0.053403612
0003a0 81 a6 73 bc 98 8f 5b bd 85 87 20 bd 79 c1 47 3b
       -0.014871241 -0.05360374 -0.03919174 0.003048031
0003b0 03 30 77 bc 43 bc 40 3d fe 6c 6a 3d b0 a0 44 3d
       -0.0150871305 0.04705454 0.05723285 0.048004806
0003c0 83 6a 4f bd 02 ec 9d b8 05 ce 51 3d 3e b3 81 bc
       -0.050638687 -7.530303e-05 0.051221866 -0.01583254
0003d0 6a ac 34 3d f7 8d 72 3d 8c 7f 18 3c 5b f9 93 bc
       0.04410974 0.05921742 0.009307753 -0.018063238
0003e0 c0 41 4f bd 49 65 df 3b 27 2b e1 3c 39 22 4e bd
       -0.050599813 0.006817494 0.027486397 -0.050325606
0003f0 49 fa cc bc 8d 2e cd 3c d3 48 f1 bc e4 91 ff 3c
       -0.025021689 0.025046611 -0.02945367 0.031197496

body.4.weight f4 [128, 256]
000000 47 73 98 bc 0b e7 4e 3d 89 76 61 bb a6 c2 21 bd
       -0.018609656 0.05051331 -0.0034402928 -0.03949227
000010 67 03 52 3c 87 c9 2b 3d c0 7b d8 3c 45 ee b8 bc
       0.012818194 0.04194024 0.026426196 -0.022574553
000020 55 36 fa 3c d8 4d a1 3c 8c 5b 28 3c ed fa 0f bd
       0.030543486 0.01969044 0.010275733 -0.03515141
000030 83 7f b0 bc 54 e1 22 3d 4e 57 7e 3d 04 e2 f3 3b
       -0.021545177 0.03976567 0.06209498 0.0074427146
000040 16 7c 08 3d 09 b2 d1 bc be 36 f6 3c b7 1d 4d 3d
       0.033321463 -0.02559759 0.0300554 0.050077166
000050 ba ac cf ba 4f 9a 7c bd 7b cb 17 bd 79 44 01 bd
       -0.0015844323 -0.061670598 -0.03705929 -0.03155944
000060 85 be 91 3c b9 1f 10 3d 6e d1 53 3d 6e f2 91 bc
       0.017791042 0.035186503 0.0517134 -0.017815795
000070 29 58 60 3d c9 c5 71 3d 04 bd 13 bd f9 7f 4d bd
       0.054771576 0.059026513 -0.03606893 -0.050170872
000080 89 a0 93 bc af bc 3b bd 08 2a 60 b9 62 3a 5a 3d
       -0.018020885 -0.04583424 -0.00021377963 0.053278334
000090 06 ef c3 bc 5b 09 96 bc 3f f4 42 3c fc d4 15 3d
       -0.023917686 -0.018315008 0.011899053 0.03658007
0000a0 89 5e 8d bd a8 51 52 3d 79 67 87 bd ad d5 06 bd
       -0.06902797 0.051347405 -0.06611533 -0.03291862
0000b0 00 de 3b 3c fb d5 04 3d a1 57 86 3b aa d4 83 3c
       0.011466503 0.03243063 0.0040998016 0.016092617
0000c0 4f 08 17 bd 8b 92 39 bd 1c 03 00 bd 35 3c 14 ba
       -0.036873158 -0.04530577 -0.031252965 -0.00056547235
0000d0 c9 ba 9f bc c2 e6 35 bb fb d6 16 3c 14 f9 3c bd
       -0.019498246 -0.002775595 0.009206529 -0.046135977
0000e0 0c 2d 85 3d f4 86 01 3d af 3d d5 3c a8 28 e8 bc
       0.06502733 0.031622842 0.02603039 -0.028339699
0000f0 87 89 48 bd c2 5a f4 3c 2d 7b 7f 3c 21 5e 12 3d
       -0.04895928 0.029828433 0.015593332 0.0357343
000100 a5 ce 60 bd 56 ff c5 bc 27 5c 0f 3d 7f c6 f7 bb
       -0.05488457 -0.024169605 0.034999993 -0.0075615044
000110 be a3 8f bd 5d f6 9b 3b aa 12 32 3d 7a b1 0b bd
       -0.07013653 0.0047595934 0.04347483 -0.0341048
000120 87 55 f0 bc 3d 81 f3 3c 22 24 20 3d 63 0f 64 bd
       -0.029337658 0.029724712 0.03909696 -0.055678736
000130 d5 fd ab 39 5f 15 eb bc ef 39 7d 3c ff f5 32 3d
       0.0003280478 -0.028696714 0.015455707 0.04369163
000140 1c ea 9c bc be 4f 81 bc 78 2c 64 3d 5c a7 68 bd
       -0.0191546 -0.015785094 0.05570647 -0.05680023
000150 77 06 3d bd 62 8f 70 3b fd 72 2e 3d a4 95 e9 3c
       -0.046148743 0.0036706557 0.04259013 0.028513737
000160 c0 00 f2 bc 58 33 4a 3d 69 ea 72 3d e6 8f 67 bb
       -0.029541373 0.04936537 0.059305582 -0.0035333573
000170 3f 67 76 bd 0f bd ac bc 4b 6d 58 3c 15 f2 65 3c
       -0.060157057 -0.021086244 0.013209651 0.014034768
000180 23 1e 15 3d 42 47 10 3d 74 2e 87 3c 5d 5f f7 bc
       0.036405694 0.035224207 0.016501643 -0.03019684
000190 ba 82 00 bd d1 2c 8f bc 7e 9e 7a 3c af 63 1c 3c
       -0.03137467 -0.017477425 0.015296577 0.009545251
0001a0 8e fd e7 3c 92 da 85 bc 7d f8 c3 3c 03 ba b4 bb
       0.028319146 -0.016339574 0.0239222 -0.0055153384
0001b0 8d c8 f5 bc 2b ec 5d 3d a0 04 cd bb bc b4 05 bd
       -0.030002857 0.054180305 -0.006256655 -0.032643065
0001c0 e1 a6 4f 3d 31 9b 61 3d fc 7c 9b 3b ee 6e 6d bd
       0.050696258 0.055079643 0.004745124 -0.05796712
0001d0 53 a5 62 3d 48 24 d5 bc 34 cf f7 bb 8d d9 85 bd
       0.055333447 -0.026018277 -0.0075625423 -0.06535635
0001e0 85 48 59 3d e6 8e c2 3c 8b 11 24 bd 83 7e f5 bb
       0.053047676 0.02374978 -0.040055793 -0.007491888
0001f0 6c b0 c7 3c da 75 ff bc ca ea 45 3d b9 cb 31 bd
       0.024376117 -0.031184126 0.048319615 -0.043407176
000200 c1 13 22 bd e7 ef 64 bd 93 95 e7 3b 22 9b 5d 3d
       -0.03956962 -0.05589285 0.007067391 0.054103024
000210 9c 9a 2f 3c b1 f5 0d 3d 4a db 4c bd ca 19 10 3c
       0.010718014 0.034658138 -0.050013818 0.008795211
000220 68 69 2d bd 77 81 cb bb 7c 65 42 bd c6 23 29 bd
       -0.04233685 -0.006210502 -0.047460064 -0.04129388
000230 7e cd 3f 3d c7 90 08 bd df 12 5c 3d d7 e1 09 3d
       0.046826832 -0.033341195 0.053728934 0.033662643
000240 bb db d2 3c 70 1c 5b bd 46 2e 2d ba 52 16 b7 3a
       0.025739541 -0.053493917 -0.00066063215 0.0013968444
000250 91 cf 7b 3c 7d 08 c6 3c 19 40 37 3d bd 9f 21 bd
       0.015369312 0.02417397 0.044738863 -0.03945898
000260 88 66 b6 bb d8 4a 9d 3c a7 01 5d 3d b9 d6 1b bc
       -0.005566422 0.019200727 0.053956654 -0.009511643
000270 56 66 b4 3b 3f 2f f5 3b ac 86 a3 3c da e5 07 bd
       0.0055053635 0.007482439 0.019961677 -0.033178188
000280 ee 4f 23 bd 97 30 18 bd 01 5a 31 bd fb df 3d bc
       -0.03987115 -0.037155714 -0.043298725 -0.011589046
000290 56 2e 02 3d 01 01 8b 3b d5 d7 02 bd 3f 93 08 bd
       0.03178247 0.004242063 -0.031944115 -0.03334355
0002a0 3c 9e 62 3c b7 df 10 b8 1f f4 67 3d 40 ae 09 3a
       0.013831671 -3.4540626e-05 0.056629296 0.00052521005
0002b0 7d e9 9b 3c d7 d0 4c 3d 90 7e dd 3b c6 d1 cd bc
       0.019032234 0.050003853 0.006759472 -0.025124442
0002c0 ca 3e 00 bd 19 46 cd bb 1d 4a 24 bd c9 15 e7 bb
       -0.03130988 -0.00626446 -0.040109742 -0.0070521575
0002d0 b4 fe ff 3c fb 3f 79 bd e2 25 44 bd 87 0e b6 3c
       0.031249382 -0.060852032 -0.04788769 0.022223724
0002e0 26 46 4b 3d 77 74 3e 3c bc 6a 8d 3c 18 c3 35 3c
       0.049627446 0.011624447 0.017262809 0.011093877
0002f0 01 fe 36 bd c5 b8 4d 3c 56 66 63 3d 70 9b 2e 3d
       -0.04467583 0.0125562595 0.055517517 0.042628706
000300 6e d1 21 3b 94 64 97 bd 45 17 e3 3c 5f 08 19 3d
       0.002469148 -0.07392231 0.027721057 0.0373615
000310 d6 b9 3b 3d 54 d5 0f 3c 18 ec 02 bd 55 4f 31 bd
       0.045831524 0.008778889 -0.031963438 -0.043288548
000320 8b 9e 41 bc 4f c7 d4 3c 2d 1c 71 3b 7e a7 5f bd
       -0.011817585 0.025973944 0.0036790476 -0.054603092
000330 4c 28 15 3d 2e 69 5a 3d 3a 38 83 3d 5a dd 11 3d
       0.036415383 0.053322963 0.06407209 0.035611488
000340 0d ef 83 bd a7 64 5c 3d 64 61 26 bc df a7 67 3d
       -0.0644208 0.053806927 -0.010155056 0.05655658
000350 2b e4 8b bc 46 13 06 3d ad 62 15 3c ba c4 6a 3c
       -0.017076572 0.032733224 0.009117764 0.01432913
000360 85 c5 bf 3c 9a 2e 77 bc c4 fe 44 bd 62 1d c2 3a
       0.023409614 -0.015086794 -0.048094526 0.0014809782
000370 69 b4 55 bd d8 eb 8a bc 47 d9 12 bd 65 ce 7f bc
       -0.052174006 -0.016958162 -0.035851743 -0.015613173
000380 fc 1e 4a 3d d3 23 2a 3d 85 ba 65 3d a5 25 6f bc
       0.049345955 0.04153807 0.056086082 -0.0145963775
000390 4c 54 33 3c f2 92 15 bd 93 f7 3d 3c 0a b2 47 3d
       0.010945391 -0.03651709 0.011594671 0.048753776
0003a0 04 f5 2e 3d 2d 75 7e 3c 83 7d 81 3d 8a d8 0b 3c
       0.042714134 0.015530867 0.063227676 0.008535514
0003b0 ae bb d6 bc 9c 8c 6e bd e5 b2 32 3d 9a c5 56 3d
       -0.02621254 -0.058239564 0.04362764 0.05243454
0003c0 a7 8b 67 bd b0 2b 43 3d 59 87 4a 3d d0 f2 34 bd
       -0.056529667 0.047649086 0.049445484 -0.044176877
0003d0 7c 60 24 3d e3 16 7e bd de cb 20 bd a6 76 12 3d
       0.040131077 -0.062033545 -0.039256923 0.035757683
0003e0 78 10 4e 3d b5 79 44 3d 1c 14 4a bb b3 53 28 bd
       0.050308675 0.04796763 -0.003083474 -0.041095447
0003f0 9d 62 b1 bb b5 60 68 3b 13 8a 20 bd 4c 47 f4 3c
       -0.005413367 0.0035458033 -0.039194178 0.029819153

body.4.bias f4 [128]
000000 0c 83 4b 3d 4d 0a 61 bd a2 9a 0b bd 7e fa 1a bd
       0.049685523 -0.054941464 -0.034083016 -0.037836544
000010 7e e8 f8 3c 0b ad a5 3c 56 00 51 3d 66 3a 29 3b
       0.030384298 0.020224115 0.05102571 0.0025822162
000020 a8 9d 32 3d c7 58 86 bc ff cf 12 bc 9e 87 5c bd
       0.043607384 -0.016399754 -0.008960723 -0.053840272
000030 33 ea 50 3d 01 44 7d bd ac 53 8f 3d 4a 6c 66 bd
       0.0510046 -0.06183243 0.06998381 -0.056255616
000040 2c 20 f4 bc a9 a6 01 bd b7 15 a5 3c 6d f8 73 3c
       -0.029800497 -0.03165308 0.020151956 0.014890772
000050 45 95 c6 bc 9d cb 5f 3d 73 08 f8 3c 01 09 14 bd
       -0.0242411 0.05463754 0.030277466 -0.0361414
000060 67 ac a5 3b 94 be f0 3c 7d 2d 00 bd df 42 2e bd
       0.0050559524 0.02938775 -0.03129338 -0.042544242
000070 a9 0c c9 bc b3 55 9f bc da ac 18 3d f9 76 05 bd
       -0.02454217 -0.019450044 0.03727422 -0.032584164
000080 80 43 f4 bc 0a 78 65 bd 45 3f 23 3d 40 22 95 bc
       -0.029817343 -0.05602268 0.03985526 -0.018204808
000090 f0 ef dc 3c 52 e0 65 bd f1 a1 bf bc c4 f6 2a 3b
       0.02696988 -0.05612213 -0.02339265 0.0026087025
0000a0 90 84 25 3c 1d 21 2d 3d da 2c 32 bd 95 18 3f 3d
       0.010102406 0.042267907 -0.043499805 0.046654303
0000b0 c2 3b e3 3a 5d d2 8a 3d 72 53 32 3d dd 74 29 bd
       0.0017336535 0.06778405 0.04353661 -0.041371215
0000c0 73 9c 0d 3d cd 2b ae bc b3 fe 0b 3c ef 83 c8 bc
       0.03457303 -0.02126112 0.008544612 -0.024476973
0000d0 e0 1b eb bc f2 15 8a 3c bc 2f fb bc d9 74 41 bd
       -0.028699815 0.016856167 -0.03066241 -0.047230575
0000e0 b7 2c 2c 3c 0c 5c e4 bb 15 18 b0 bc c1 90 1d bd
       0.010508708 -0.0069689807 -0.021495858 -0.038468126
0000f0 3f 34 61 bd 88 49 43 3d 61 0c 84 3b 78 da 8c bd
       -0.054981466 0.047677547 0.004029796 -0.06877607
000100 0c 84 cb bc 45 21 04 bd 8a 79 65 bc a5 2d 5d 3d
       -0.024843238 -0.03225829 -0.014006028 0.05399861
000110 0b 1b e0 bc 1e 77 0c bd 24 01 8d bc 59 d2 b3 bc
       -0.027356645 -0.034293287 -0.017212458 -0.021950888
000120 37 c9 29 3d 19 b9 7c bc d4 cd 39 bb 71 d9 ff 3c
       0.04145166 -0.01542499 -0.0028351443 0.031231614
000130 fe d1 37 bc b5 28 3a 3d 70 66 e2 bc ca c4 a0 3c
       -0.0112195 0.045448978 -0.027636737 0.019625086
000140 c3 64 74 bc 4e 7c 47 3c cc 20 ed 3c bf b7 16 bd
       -0.014916602 0.012175633 0.028946303 -0.036796328
000150 97 ec 5e bc 56 92 3b 3d 6b 2f 1b 3d de 67 be 3c
       -0.013606212 0.045793854 0.03788702 0.023242887
000160 2e 28 6d 3a ee 42 85 bc 1c 6f 5e bb ad ba 0e 3d
       0.000904682 -0.016267266 -0.0033940738 0.034845997
000170 af 37 59 bd 31 c7 67 3d 81 bd 24 3d d3 bc c8 3b
       -0.05303162 0.056586448 0.040219788 0.006126025
000180 d1 40 91 ba 4e 83 af 3b af 4b ae bb 29 07 18 bd
       -0.0011081939 0.005356229 -0.005319081 -0.037116203
000190 71 5b af ba d6 1a 2f bc fc 4c 6a 3b 04 cf 42 3d
       -0.0013378692 -0.0106875505 0.0035751453 0.047560707
0001a0 af 06 c5 3c 02 0e 5a bc 0a ec f9 bc 32 a4 5b bd
       0.024051039 -0.013309004 -0.03050806 -0.053623386
0001b0 83 1a f4 bb 7b c7 33 bd 95 f8 ee 3c 73 98 10 bd
       -0.0074494495 -0.04389141 0.029171268 -0.035301637
0001c0 20 c1 53 bd 08 0b 67 bd 07 5b 32 bd ed bc 40 bc
       -0.05169785 -0.056407005 -0.04354384 -0.011763793
0001d0 65 bb 6a 3d c0 b1 d5 bb 63 1c 43 3c 88 c5 26 3b
       0.05730762 -0.0065214336 0.011908623 0.0025447328
0001e0 61 57 11 3d 19 db 49 bd 1d 4a 4a 3d 57 5c a1 bc
       0.03548372 -0.049281213 0.049387086 -0.019697351
0001f0 60 73 4e bc 37 22 2e bb db 4d 84 3d a4 23 d7 3b
       -0.01260075 -0.0026570687 0.06460162 0.006565528

move_head.weight f4 [5, 128]
000000 4c 37 26 3d 86 05 94 3c ab 5d f2 bc af 6b c3 3c
       0.04058008 0.01806904 -0.02958568 0.023855058
000010 0c aa 7e 3d 1f d6 23 3b d5 fc 12 3d 78 8e ca 3a
       0.062173888 0.0024999452 0.03588565 0.0015453836
000020 82 8d b5 bc 5c aa b6 3d 2b 46 a2 bc 18 98 2e bd
       -0.022162203 0.08919212 -0.01980885 -0.042625517
000030 23 b1 b7 bd b0 45 fe 3c 22 f1 96 bd 3d 19 2a 3c
       -0.08969333 0.031039089 -0.07370211 0.010381994
000040 54 eb 65 bd 2d 88 97 bd 7e b3 8b bd fb 44 fa bb
       -0.05613263 -0.0739902 -0.06821345 -0.0076376176
000050 b5 a3 a1 3d 6f bd 4a bd 4a 9a ba bd 58 50 a4 bd
       0.07892553 -0.049497064 -0.091114596 -0.08023137
000060 67 08 1f 3d ee a4 0b bd 9b ed d7 ba 80 2e ab 3b
       0.038826372 -0.034092836 -0.001647401 0.005224049
000070 1c 8f 18 bd 60 d7 46 bc a9 de c2 3c 23 8a c3 bc
       -0.037245855 -0.01213631 0.023787813 -0.02386958
000080 8e 85 b1 3d 8f 4c 5c bb 17 64 08 3c 8c c6 0d 3d
       0.08668052 -0.0033614968 0.0083246445 0.034613177
000090 d6 ca 2a bd 50 78 1e bd 03 53 5e 3d 0b 33 35 3d
       -0.041697346 -0.038688958 0.054278385 0.04423813
0000a0 2f d7 61 3d b7 f3 88 3d 62 46 a0 bc ae 79 e3 3c
       0.055136856 0.0668711 -0.019564811 0.027767982
0000b0 ea 78 25 bd 77 e6 12 bd 8f 56 a7 bd 4d 6c 38 3d
       -0.040398516 -0.03586432 -0.081708066 0.04502516
0000c0 05 47 91 bd 1f 48 42 3c 6c 6c 17 3d fc cc 62 bd
       -0.07093624 0.011858015 0.036968634 -0.05537127
0000d0 be 19 bf bc cc 83 89 3d 9e ea a0 bc 45 54 ab bd
       -0.023327705 0.067145914 -0.019643124 -0.083656825
0000e0 61 f5 60 bd 61 87 63 bc e5 c6 a3 3d 10 7d a3 3b
       -0.05492151 -0.013887257 0.079969205 0.004989274
0000f0 a0 d9 60 3d fd 98 ef 3b 33 57 7c 3d df a4 21 3c
       0.054895043 0.007311939 0.061606597 0.0098659685
000100 39 ae c0 bc 95 40 a3 3b 66 7f 9e bc 32 15 16 bd
       -0.023520576 0.004982064 -0.019347858 -0.036641307
000110 16 f8 6f bd 33 b9 a5 bd 82 1b a4 3d d8 25 0a 3d
       -0.058586203 -0.080919646 0.08013059 0.033727497
000120 5f 57 10 bd f9 f8 e6 bb 9b 83 ab 3d 55 55 bf ba
       -0.035239574 -0.007048723 0.08374711 -0.0014597574
000130 10 b2 6c 3d 7e 47 85 3d 2c 97 50 3c c0 71 52 3c
       0.057787 0.06507777 0.012731355 0.012844503
000140 ae 94 9e bd 39 1b 70 3d ed 54 59 3c 9c 86 9d bc
       -0.07743202 0.05861971 0.013264877 -0.019229226
000150 f8 13 8a bd 02 ef 09 3d 9e f8 b0 bd 40 77 28 bb
       -0.0674209 0.0336752 -0.0864117 -0.0025705844
000160 06 23 33 3c 57 75 c8 bb b5 70 9b 3d 7b 70 f1 3b
       0.010933643 -0.0061175036 0.075898565 0.007368145
000170 75 1f 67 3d c0 6d 2b 3d 09 76 b4 3d d4 46 97 3c
       0.056426484 0.041852713 0.08811576 0.01846639
000180 12 20 32 3d f4 78 75 3d 21 a7 cc 3c 7b fe 09 bd
       0.043487616 0.059929803 0.024982037 -0.033689957
000190 54 48 a5 bd b2 f1 3f 3d 67 03 62 3d c1 ca 26 bd
       -0.08070436 0.046861358 0.055179026 -0.040720705
0001a0 fa 54 9d 3d dd ff 69 bc 79 97 96 bd db 5f e6 3c
       0.076822236 -0.014282194 -0.0735311 0.02812188
0001b0 64 eb 93 3c f0 a7 97 bd 65 94 00 bd 57 cc 98 3d
       0.018056579 -0.074050784 -0.03139152 0.0746085
0001c0 19 31 46 bd 26 07 ac 3b b0 9b 4e bc 1a eb c7 3b
       -0.048386667 0.0052498756 -0.012610361 0.0061010243
0001d0 c6 c5 7d bd 22 93 68 3d 39 34 4f 3d b0 cd ed 3c
       -0.06195619 0.05678094 0.050586913 0.029028744
0001e0 9c c6 af bd 16 c9 7c bd 01 5f 79 3d c9 37 bb bd
       -0.085828036 -0.061715208 0.06088162 -0.091414995
0001f0 35 af 06 bd 8f 3c 9d 3d ec e5 70 3d c0 fb a7 bd
       -0.032881934 0.07677566 0.05881302 -0.082023144
000200 d0 e7 44 bc 28 d3 07 bd 42 78 ae 3d 45 b7 eb 3b
       -0.012018159 -0.03316036 0.08519031 0.0071934783
000210 4d 8f 40 3d ec fb dd 3c 55 43 f9 3b 4c 6a d3 bc
       0.047011662 0.027097665 0.0076069036 -0.025807522
000220 9c f8 cd 3d 10 0c a7 bc c5 55 18 bd 21 22 38 3d
       0.10057184 -0.020391494 -0.03719117 0.044954423
000230 cf d9 fd bc 86 16 b6 bd 11 90 67 3d 12 e0 bb bd
       -0.030987648 -0.08891015 0.056533877 -0.091735974
000240 5f 34 58 3c 87 f6 7f bc 9a 11 ff bb 17 fd 2c 3d
       0.01319608 -0.015622742 -0.0077840807 0.042233553
000250 db 45 a5 bd 5e b7 d0 bc 54 44 f6 bb 26 c0 96 3d
       -0.080699645 -0.025478061 -0.0075154696 0.07360868
000260 ed c9 9d bd ce 0b 10 bd 2c 2e 13 3d 03 d0 0d 3d
       -0.0770453 -0.035167508 0.035932705 0.034622204
000270 ae 15 c3 bc ba 7c 73 3b 1b d1 cd 3c 0b 3d 8b bc
       -0.023814049 0.00371532 0.025124123 -0.016996881
000280 6f a2 4f bd 90 7e 16 3d a5 29 3f 3d 67 13 7b bc
       -0.050692018 0.036741793 0.046670575 -0.01532445
000290 c0 34 ac bd 7b a9 11 3d 90 5d 05 bd 54 2a 66 bd
       -0.08408499 0.03556202 -0.03255993 -0.05619271
0002a0 26 19 a1 3d 09 bc c5 b9 9d ae 47 3d 38 54 85 bd
       0.07866125 -0.00037714865 0.04875051 -0.06510204
0002b0 0f bb 10 3d ec f2 e8 3c b5 61 86 3d 7e d8 ed 3c
       0.035334643 0.028436147 0.06561605 0.029033896
0002c0 ca 90 31 3d f7 10 8f 3d 0a b7 92 3c 8c 51 b7 3d
       0.043350972 0.06985658 0.017909545 0.08951101
0002d0 31 5c 12 3c b5 7e 4b bd 68 73 03 bd 1f ed 27 bd
       0.008933113 -0.049681384 -0.03209248 -0.04099762
0002e0 16 24 9b 3d 5e 29 30 3d d2 dc 47 bb 8d b6 87 bd
       0.07575242 0.0430082 -0.003049661 -0.06626616
0002f0 ee 89 b0 3c 5c db 2b 3d 40 4a 98 bd 7a 1b d8 bc
       0.021550145 0.041957244 -0.07436037 -0.02638029
000300 4f b1 9f 3c 46 73 42 3d 39 e3 83 bd b9 be 98 bd
       0.019493727 0.047473215 -0.06439824 -0.074582525
000310 fb 4c 7f bd ee d7 48 3d 0e b2 98 3d cd 9f 46 3c
       -0.062329274 0.04903405 0.07455836 0.01212306
000320 a6 7d a0 bd 7c d8 19 3b f3 95 02 bd 20 4b d2 3d
       -0.078364655 0.0023474982 -0.031881284 0.10268235
000330 13 33 27 3c b2 c7 93 bd e4 b5 94 bd 81 34 72 bd
       0.010205048 -0.07215823 -0.072612554 -0.059132103
000340 06 b0 89 bd 78 5d af bd 80 3b b5 3d b6 30 7b bd
       -0.06723027 -0.085627496 0.08849239 -0.06132575
000350 54 1e 95 bd bc b5 45 3d 95 0c 12 3d a0 26 5a bd
       -0.07281175 0.04826902 0.03565653 -0.053259492
000360 25 19 91 bd 07 28 7d 3d a0 ce f0 3c 10 5d 58 bd
       -0.07084874 0.06180575 0.029395401 -0.052823126
000370 d1 cd b5 bd e7 1f 44 bd 71 1a 85 3d d6 61 17 3c
       -0.08877147 -0.047881987 0.06499184 0.0092396345
000380 5f 68 8b 3d d3 2a 99 bd 51 7a ab 3d 51 d2 7c 3d
       0.068070166 -0.07478871 0.083729394 0.06172401
000390 ba a2 80 3d 3e 99 8c 3c 45 29 21 bd a8 16 4c 3d
       0.06281038 0.017162915 -0.039346 0.049826294
0003a0 41 e2 56 bc d3 97 cd bc f4 d1 39 bc 53 d6 a3 bd
       -0.013115467 -0.02509681 -0.011341561 -0.079998635
0003b0 47 c0 e1 bc 5f 00 1f bd 71 63 20 3d 71 c8 e0 bb
       -0.027557505 -0.038818713 0.039157335 -0.006859832
0003c0 65 b1 5d bb 0b 8d 8a bd ca f9 62 3d b3 b1 0f bd
       -0.003382766 -0.06765183 0.055414 -0.035081577
0003d0 7d c7 b8 3c 5b f1 f3 bc 8b 66 92 3d 2d 1a 2e 3d
       0.02255606 -0.029778173 0.07148465 0.042505432
0003e0 a2 03 3d 3d ea fb e2 3b 76 20 ad 3c 53 33 24 bd
       0.046146043 0.006927003 0.021133643 -0.04008801
0003f0 35 ab 41 bb bb 8f a9 bd 1b 32 99 3d 45 ef 87 3d
       -0.002955151 -0.082793675 0.0748026 0.06637434

move_head.bias f4 [5]
000000 70 24 8f bc f6 1c 92 bc 64 af 56 3b a9 b1 3e bd
       -0.01747343 -0.017836075 0.003275835 -0.04655615
000010 6d 4b 89 3b
       0.0041898997
