checkpoints/simple_world_comm_v3_scratch/simple_world_comm_v3_adversary_1_ep475.pt (torch, 437311 bytes, 8 tensors)

body.0.weight f4 [256, 34]
0	0xbdc5b49e	-0.096535906
1	0xbdbea2eb	-0.09308418
2	0xbcf0fce6	-0.029417466
3	0xbd11bd24	-0.03558077
4	0x3db7830d	0.08960543
5	0x3d88654d	0.066599466
6	0xbd5318a1	-0.05153716
7	0xbda45551	-0.08024085
8	0xbd0101ec	-0.031495973
9	0x3d8ed68b	0.069745146
10	0x3d6095c5	0.05483033
11	0x3e4342ee	0.190685
12	0x3da9e287	0.0829516
13	0xbe1041fc	-0.14087671
14	0xbd526acd	-0.051371384
15	0xbe1cd15b	-0.15314238
16	0x3dfdd23b	0.12393614
17	0x3e0ea333	0.13929443
18	0x3c2bdc12	0.010489481
19	0x3e33b5cd	0.1754982
20	0xbd1df9ba	-0.038568236
21	0xbd6cb126	-0.05778613
22	0xbc0fb43b	-0.008770998
23	0xbde77302	-0.11301233
24	0xbdc75aa9	-0.09734089
25	0x3e0cd615	0.13753541
26	0x3e08d18b	0.13361184
27	0xbba1f0cc	-0.0049420353
28	0xbde6d797	-0.11271589
29	0x3d86f12c	0.06588969
30	0xbd095f12	-0.03353793
31	0x3e35cf20	0.17754793
32	0x3ded3b62	0.11583592
33	0xbd8b903d	-0.06814621
34	0x3b987c28	0.0046534725
35	0x3e21c9a3	0.15799575
36	0xbd0bee85	-0.034163017
37	0x3de190c8	0.11013943
38	0xbd9f95d4	-0.07792249
39	0xbe036a9b	-0.12833636
40	0xbd7548f3	-0.059884023
41	0x3e07d65e	0.13265368
42	0x3e18238d	0.14857312
43	0xbdd74c2d	-0.10512576
44	0x3de95519	0.11393184
45	0x3df7dd07	0.121027045
46	0xbcfc8273	-0.030823922
47	0xbe140ac1	-0.14457227
48	0x3c30b209	0.010784634
49	0x3df1e4b5	0.118112005
50	0x3d86c801	0.065811165
51	0x3dbc027a	0.0918016
52	0x3e0899fe	0.13339993
53	0x3d887000	0.06661987
54	0x3d40020c	0.046876952
55	0xbddc56f5	-0.10758773
56	0xbe1c595e	-0.15268466
57	0x3c725b9b	0.014792348
58	0x3d53e2c4	0.051729932
59	0xbcef18d4	-0.029186644
60	0x3dc1ff75	0.09472553
61	0xbb498aa0	-0.0030752793
62	0x3d5c278f	0.053748664
63	0xbcbd755f	-0.023127256
64	0xbdf49d95	-0.11944119
65	0x3e30ac09	0.17253126
66	0xbd8ee6eb	-0.06977638
67	0xbcb116d5	-0.021617332
68	0x3df02a9f	0.11726879
69	0x3c24b46a	0.01005278
70	0xbd72cc77	-0.059277024
71	0x3bf240c6	0.0073929755
72	0x3e384531	0.17995144
73	0xbdcad3c8	-0.09903675
74	0x3e2f51ef	0.17121099
75	0xbc6c2ca2	-0.014414938
76	0xbdeeeab6	-0.11665861
77	0xbd1036d2	-0.03520853
78	0x3de545f2	0.11194982
79	0x3c0dc5b5	0.008653094
80	0xbc7ccaef	-0.0154292425
81	0xbd53402a	-0.051574863
82	0xbe13476e	-0.14382717
83	0xbdc64625	-0.09681348
84	0xbdcc566e	-0.09977423
85	0x3e1e7202	0.15473178
86	0xbdfdbd17	-0.12389582
87	0xbdf6a9d3	-0.1204411
88	0x3cfca3fe	0.030839916
89	0x3df055a6	0.11735086
90	0x3d2f222c	0.0427572
91	0xbd9078ef	-0.07054316
92	0x38cd7641	9.797188e-05
93	0xbe195aeb	-0.14976089
94	0xbe01800e	-0.12646505
95	0x3dc6d310	0.09708226
96	0x3e06b608	0.13155377
97	0x3da4a433	0.08039131
98	0xbde5d488	-0.11222178
99	0xbd8bcfd3	-0.06826749
100	0xbd72f55f	-0.059316035
101	0xbdbfa6f0	-0.09358013
102	0xbd5ffbb4	-0.054683402
103	0xbd01ed01	-0.031720165
104	0xbc83b66e	-0.0160782
105	0x3e2a41d2	0.16626671
106	0xbe15a9e0	-0.14615583
107	0xbe0f93fe	-0.14021298
108	0x3d9385b0	0.07203233
109	0x3d35fcef	0.04443067
110	0x3e34d074	0.17657644
111	0xbd026e4a	-0.03184346
112	0xbe0cbd0c	-0.1374399
113	0x3db62fe3	0.088958524
114	0x3da27dcf	0.07934152
115	0x3d285490	0.04109627
116	0x3e2889ca	0.16458812
117	0xbe0e7f8b	-0.13915841
118	0xbd04e4a6	-0.03244462
119	0xbb8b80f6	-0.0042573167
120	0x3dc2d2b7	0.09512847
121	0x3d00cfbf	0.031448122
122	0xbe14893b	-0.14505474
123	0xbdf0630a	-0.1173764
124	0xbd3dd3c5	-0.046344537
125	0xbdd86da5	-0.10567788
126	0xbc28cabf	-0.010302245
127	0xbd7e7699	-0.062124822
128	0x3db479e4	0.08812311
129	0xbd20495d	-0.039132465
130	0x3dd8df6b	0.105894886
131	0xbe0b08e0	-0.13577604
132	0x3e161bfe	0.14659116
133	0xbd888edf	-0.066678755
134	0xbe2ded61	-0.16985084
135	0x3e155f1d	0.14587064
136	0x3d46638c	0.04843478
137	0xbd0bd56b	-0.034139078
138	0x3dc24c1f	0.09487175
139	0x3e2017e2	0.1563411
140	0xbc3318db	-0.010931219
141	0x3b857724	0.0040730406
142	0x3d25f7b1	0.04051942
143	0x3e02e18f	0.12781356
144	0x3c8d355a	0.017237354
145	0x3dc0ab61	0.09407688
146	0x3c636f21	0.013881476
147	0x3d36e844	0.0446551
148	0xbdbf2ba0	-0.09334493
149	0x3c853d19	0.016264485
150	0xbd7c478b	-0.061591666
151	0x3d536222	0.05160726
152	0xbd0a34f5	-0.03374191
153	0xbdd32908	-0.103105605
154	0x3df1b2ec	0.11801705
155	0x3e0eda2b	0.13950412
156	0x3e1da23f	0.15393923
157	0x3c899bd5	0.01679794
158	0xbd1068ec	-0.03525631
159	0xbe0b61ca	-0.13611522
160	0xbcf40230	-0.0297862
161	0xbe0ab052	-0.13543823
162	0x3e0e507f	0.13897894
163	0xbdced36c	-0.10098919
164	0x3e02364c	0.12716025
165	0x3d48b26d	0.048998285
166	0xbd5e40ef	-0.054261144
167	0xbd6e13c7	-0.05812433
168	0x3cbe36eb	0.023219546
169	0x3d4c2588	0.04984048
170	0x3e00ea27	0.12589322
171	0x3da3d28e	0.079991445
172	0xbd11b2fb	-0.03557108
173	0x3e193420	0.1496129
174	0xbdf87f0c	-0.12133607
175	0xbdbbfabc	-0.09178683
176	0xbe086af9	-0.13322057
177	0xbe1fcadf	-0.15604733
178	0x3c812b6f	0.015767781
179	0xbd041e5e	-0.032255523
180	0xbe23701f	-0.1596074
181	0x3d86c62d	0.06580768
182	0x3e133987	0.14377414
183	0x3dc66dd1	0.096889146
184	0x3db855f2	0.09000768
185	0xbdfd8f51	-0.12380851
186	0xbe1c9116	-0.15289721
187	0xbdb3e563	-0.087839864
188	0x3deda0b0	0.11602914
189	0xbe1dc182	-0.15405849
190	0xbe1e1eda	-0.15441456
191	0xbe157db0	-0.14598727
192	0x3dc4cb52	0.09609093
193	0x3d787adc	0.060664043
194	0x3d777760	0.06041658
195	0x3e1e967f	0.15487097
196	0xbd9e046f	-0.077156894
197	0x3d2736e8	0.040823847
198	0x3cf02ce8	0.029318288
199	0x3ce8a96e	0.028401103
200	0xbda2d595	-0.07950894
201	0x3d060d84	0.032727733
202	0x3dfa4524	0.12220219
203	0x3d3b69d8	0.045755237
204	0x3e0964de	0.13417384
205	0x3d1fe5fa	0.039037682
206	0x3d57b445	0.052662153
207	0xbda36b78	-0.079794824
208	0xbe265b37	-0.16245733
209	0xbe29bd6c	-0.16576165
210	0xbe08feb1	-0.13378407
211	0xbdc43f1d	-0.095823504
212	0xbb5641ca	-0.0032693022
213	0x3df81156	0.121126816
214	0xbd14cbaa	-0.03632704
215	0x3e17bed4	0.14818889
216	0xbe0ad60d	-0.13558216
217	0xbe09a052	-0.13440064
218	0xbd86abd9	-0.06575746
219	0x3a02a038	0.0004982981
220	0xbe18a00e	-0.14904806
221	0xbd92ab5f	-0.07161593
222	0x3dc5c777	0.096571855
223	0x3d2c6cca	0.042095937
224	0xbd9b7155	-0.07589976
225	0x3df38749	0.11891038
226	0xbdb37fd6	-0.08764617
227	0xbcef0644	-0.029177792
228	0xbd478755	-0.048713047
229	0x3df3857b	0.11890694
230	0x3d3c5b2c	0.045985386
231	0xbc8f1dd6	-0.017470282
232	0xbd707747	-0.0587075
233	0xbc3d686a	-0.011560539
234	0x3d6696cf	0.056296166
235	0xbd40e9d4	-0.047097996
236	0x3d3d251f	0.04617798
237	0xbcf0c0da	-0.029388834
238	0x3dc1d4c9	0.09464414
239	0xbc8f91ab	-0.017525515
240	0x3dd1ec3f	0.102501385
241	0x3d3f12b3	0.046648692
242	0x3d07db0a	0.033167876
243	0xbda39ea1	-0.079892404
244	0x3de6788c	0.11253461
245	0xbdfebecb	-0.124387346
246	0x3c834263	0.016022867
247	0xbddcc32e	-0.10779415
248	0xbd70e80f	-0.05881506
249	0x3d4228a3	0.047402035
250	0x3de75b4b	0.112967096
251	0xbe14884e	-0.14505121
252	0xbd3acec5	-0.045607347
253	0xbe22ed43	-0.1591082
254	0x3e18b983	0.14914517
255	0xbe2a3586	-0.1662198

body.0.bias f4 [256]
0	0xbdc8852a	-0.09791024
1	0xbe1a196a	-0.15048757
2	0x3be7f7b3	0.0070790886
3	0xbdad95f7	-0.08475869
4	0x3e175527	0.14778577
5	0x3e234ff1	0.15948464
6	0x3d0fe6b0	0.03513211
7	0xbe0ea87d	-0.1393146
8	0xbc73e3b6	-0.0148858335
9	0xbe035958	-0.1282705
10	0x3db25737	0.08708041
11	0x3dbce353	0.09223046
12	0x3dafb860	0.085800886
13	0x3e12f7f7	0.14352404
14	0xbbaa80bf	-0.005203336
15	0x3ce44f09	0.027869718
16	0x3d06fb29	0.03295437
17	0xbd52643a	-0.051365115
18	0x3e0f887a	0.14016905
19	0x3d19cb38	0.03754732
20	0xbe0aaebb	-0.13543217
21	0xbdd13bed	-0.10216508
22	0x3c8de31c	0.017320208
23	0xbaab6a50	-0.0013077948
24	0x3ded4ff0	0.115875125
25	0x3d6635c6	0.056203626
26	0xbd6a5295	-0.057207663
27	0x3cbbdcc4	0.022932418
28	0x3da17da5	0.07885293
29	0xbce42d9d	-0.027853781
30	0xbe00b6d2	-0.1256974
31	0x3d08ae21	0.033369187
32	0x3e098c88	0.13432515
33	0xbd923f80	-0.07141018
34	0x3d9b524b	0.075840555
35	0x3d028d45	0.031873006
36	0x3de78a2d	0.11305652
37	0xbdf0f800	-0.11766052
38	0x3d3f9a01	0.04677773
39	0x3c654ab6	0.013994863
40	0xbd9ae4d2	-0.07563175
41	0xbda79295	-0.08182255
42	0x3d9506e8	0.07276708
43	0xbd4e4d2d	-0.05036657
44	0x3e0abe6b	0.13549201
45	0xbd26bf63	-0.040709864
46	0xbd2e1bef	-0.04250711
47	0xbde2df74	-0.110777766
48	0x3df5186d	0.119675495
49	0xbddc4f39	-0.10757298
50	0x3d0a33e4	0.033740893
51	0xbd64af89	-0.055831466
52	0x3c9d1ab7	0.019177778
53	0xbe2cee00	-0.16887665
54	0xbe0931af	-0.13397859
55	0x3d185bac	0.0371968
56	0xbcf59509	-0.029978292
57	0xbd848167	-0.06469994
58	0xbbb8049d	-0.0056157843
59	0x3e27eff3	0.16400127
60	0x3dff985c	0.12480232
61	0x3e3315cc	0.17488784
62	0xbd717adf	-0.05895507
63	0xbd520271	-0.05127186
64	0xbe0053c2	-0.12531951
65	0x3b5a9c96	0.0033357493
66	0x3dfab429	0.12241394
67	0xbdfc2ff4	-0.12313834
68	0xbd7f2c85	-0.062298317
69	0xbdbdfe2a	-0.092769936
70	0x3e148efc	0.14507669
71	0xbbdf3def	-0.006812803
72	0xbd80cb95	-0.0628883
73	0xbd846dbb	-0.06466242
74	0xbd0f3064	-0.03495826
75	0xbdcb8700	-0.099378586
76	0xbe08ea07	-0.13370524
77	0x3df13697	0.1177799
78	0x3e079d24	0.13243538
79	0x3df82159	0.121157356
80	0x3d9f2da0	0.07772374
81	0x3e201fd6	0.15637144
82	0xbd915a55	-0.070973076
83	0x3e1f77c3	0.15573029
84	0xbddeb6e2	-0.10874726
85	0x3c75150e	0.014958633
86	0xbe182803	-0.14859013
87	0x3df9fe1e	0.12206672
88	0x3d3644db	0.04449926
89	0x3db2a6a0	0.087231874
90	0x3e1b928a	0.15192619
91	0x3d4b1d31	0.049588386
92	0xbddb7b55	-0.10716883
93	0xbd060464	-0.03271903
94	0xbe0f0b05	-0.13969047
95	0x3d59e795	0.05319937
96	0xbde9a23f	-0.11407899
97	0x3e3207b9	0.17385758
98	0xbdb57fae	-0.088622436
99	0x3e14a3de	0.14515635
100	0x3e2b46fa	0.16726294
101	0x3d6b89b4	0.05750437
102	0xbdebeddd	-0.11519978
103	0xbe01c27f	-0.1267185
104	0x3dbf4ea8	0.09341174
105	0x3b9b54ae	0.004740319
106	0xbc22ec50	-0.009944037
107	0x3d83b858	0.06431645
108	0xbccfb29f	-0.025353728
109	0x3df1c267	0.118046574
110	0xbd1a5f10	-0.037688315
111	0x3d658768	0.056037337
112	0x3da71728	0.081587136
113	0xbdc7c75e	-0.09754823
114	0x3dd57f6a	0.10424693
115	0xbd2b7bee	-0.041866235
116	0xbdda40e4	-0.10656908
117	0xbdaeeacf	-0.0854088
118	0x3d2647c1	0.040595774
119	0x3dca1954	0.09868112
120	0xbdd07086	-0.10177712
121	0x3cef743e	0.029230233
122	0x3ddb3680	0.107037544
123	0x3dbd15a5	0.09232644
124	0x3e08a3da	0.13343754
125	0x3d80c397	0.06287306
126	0x3d13d4ae	0.0360915
127	0x3e09c02f	0.13452218
128	0xbddebdcd	-0.108760454
129	0x3d8bed6f	0.06832396
130	0xbe160833	-0.14651565
131	0xbe0f083b	-0.13967983
132	0xbe124470	-0.1428392
133	0xbcd150c4	-0.025551207
134	0x3d955f62	0.072935835
135	0xbdfe64ba	-0.12421556
136	0xbda41a05	-0.08012775
137	0xbc0758c6	-0.008260911
138	0x3e35fa5a	0.17771283
139	0x3d7fe8bf	0.062477823
140	0xbd888374	-0.06665698
141	0x3da2f138	0.07956165
142	0xbb3c6374	-0.0028745802
143	0x3e0a1087	0.13482867
144	0xbe275037	-0.16339193
145	0x3dd872fb	0.10568806
146	0x3d2130c7	0.03935316
147	0x3db6ea05	0.089313544
148	0x3dff22af	0.12457787
149	0xbcb36122	-0.021896902
150	0x3c5392a2	0.012913378
151	0x3b90496b	0.0044032834
152	0x3d914940	0.070940495
153	0xbd5358ba	-0.051598288
154	0x3dc529ec	0.096271366
155	0x3dde7156	0.10861461
156	0x3c2a73f8	0.010403626
157	0xbe0d8eba	-0.13823977
158	0xbd4cc49f	-0.0499922
159	0x3cf35401	0.029703142
160	0x3dd4867c	0.10377213
161	0xbe157c60	-0.14598227
162	0x3b432059	0.002977392
163	0x3ded20b1	0.11578501
164	0xbd23b922	-0.03997148
165	0x3d8d19a0	0.06889653
166	0x3d13461b	0.03595553
167	0x3d94ee7e	0.07272051
168	0xbd4b2cd8	-0.049603313
169	0x3e1f4eb9	0.15557374
170	0xbd54901f	-0.051895257
171	0x3a6dbe7c	0.0009069217
172	0xbdbb351c	-0.09140989
173	0xbde8e4a8	-0.11371738
174	0xbdc9b4ee	-0.09848963
175	0xbdca25ee	-0.09870516
176	0xbe08dec9	-0.13366236
177	0xbdb403b9	-0.087897725
178	0x3dff83a2	0.12476279
179	0xbc372e1c	-0.011180427
180	0xbd96b747	-0.07359176
181	0x3d374823	0.04474653
182	0x3c12037c	0.008911964
183	0x3e29df70	0.16589141
184	0xbe2dd4cf	-0.16975711
185	0x3d021356	0.03175672
186	0xbdeb3e7e	-0.11486529
187	0xbd8c1a3e	-0.06840943
188	0x3dda0d00	0.10647011
189	0x3de917a7	0.113814645
190	0x3dc95ee3	0.09832551
191	0xbdc1f49e	-0.09470485
192	0x3e31f83e	0.17379853
193	0x3b598a09	0.0033193848
194	0xbd2e39d4	-0.042535618
195	0xbd8cb3ed	-0.068702556
196	0x3e2a6e22	0.16643575
197	0x3d4c79ff	0.049921032
198	0x3dfd2e57	0.12362354
199	0xbe11413d	-0.14185043
200	0x3e1de89d	0.15420766
201	0xbddae5dc	-0.106883734
202	0xbe0327a6	-0.12808093
203	0xbd0f42a1	-0.03497565
204	0x3cab1eed	0.02088877
205	0x3db60293	0.0888721
206	0x3d154cfc	0.03645037
207	0x3d96a726	0.073561
208	0x3b7485c8	0.0037311185
209	0x3c0ce702	0.008599998
210	0xbdfc96e6	-0.12333469
211	0xbdf78a73	-0.12086954
212	0xbcef5492	-0.029215131
213	0xbd94e40a	-0.072700575
214	0x3c8e147a	0.017343748
215	0xbdb63618	-0.08897036
216	0xbe118d8c	-0.14214152
217	0x3d54d0cd	0.05195694
218	0x3d912cd0	0.070886254
219	0xba901667	-0.0010993005
220	0xbe0e0b65	-0.13871534
221	0xbe1e4950	-0.15457654
222	0x3ce2fb2f	0.027707664
223	0xbe21079c	-0.15725559
224	0x3d6b5a34	0.05745907
225	0x3dbd4738	0.092420995
226	0x3d940dca	0.072291926
227	0x3d2d7b4f	0.042353924
228	0x3dc3d0fb	0.09561344
229	0xbdf69da0	-0.12041783
230	0x3e141299	0.1446022
231	0xbb4359ac	-0.0029808087
232	0xbd08dcce	-0.0334137
233	0x3db3047d	0.087410904
234	0x3de81066	0.11331253
235	0x3db434c0	0.08799124
236	0x3cdc58a3	0.026897734
237	0x3da02050	0.07818663
238	0xbe04a950	-0.12955213
239	0xbbf4b246	-0.007467541
240	0xbcc07f1d	-0.023498112
241	0xbd9b27ce	-0.075759515
242	0xbd9b5708	-0.07584959
243	0xbd0158bb	-0.03157876
244	0x3d998fa7	0.07498103
245	0xbd976593	-0.073924206
246	0x3d9457c0	0.072432995
247	0x3b77f5d6	0.0037835739
248	0xbe1187aa	-0.14211908
249	0x3df1b142	0.11801387
250	0xbe0e8c32	-0.13920668
251	0xbe1af9af	-0.15134309
252	0xbe183865	-0.14865263
253	0x3e0efc5b	0.13963453
254	0x3dca91f7	0.09891122
255	0xbd5f43e1	-0.054508094

body.2.weight f4 [256, 256]
0	0x3d307b58	0.04308638
1	0x39cf5347	0.00039544163
2	0x3d5ee297	0.05441531
3	0xbc58378b	-0.013196836
4	0xbd559c6b	-0.052151125
5	0x3cab0535	0.020876506
6	0xbd505ce0	-0.050869823
7	0x3d618c39	0.055065367
8	0x3d64949a	0.05580578
9	0x3c8b3a41	0.016995551
10	0xbccdbd80	-0.025114775
11	0x3c011bb4	0.00788014
12	0xbd1f1f25	-0.03884806
13	0x3d334ff9	0.04377744
14	0x3ce3dc7d	0.027815098
15	0x3d06f8ad	0.032952
16	0x3cc645bd	0.024203176
17	0x3c96a748	0.018390313
18	0x3d3c353a	0.0459492
19	0xbd31a749	-0.043372426
20	0x3c812c52	0.015768204
21	0x3d3725f9	0.044713948
22	0xbced8296	-0.028992932
23	0x3ce4167f	0.027842758
24	0x3cc4b377	0.024011357
25	0xbd0ccf7b	-0.034377556
26	0xbc83899e	-0.016056832
27	0xba0ef855	-0.00054538745
28	0x3d5d3473	0.054005098
29	0x3d3e9fa4	0.046538964
30	0xbc5bafdb	-0.013408626
31	0xbc8d357f	-0.017237423
32	0x3d5fa13b	0.05459712
33	0x3cd5b443	0.026086932
34	0x3cabbe85	0.02096487
35	0xbcb34708	-0.021884456
36	0x3c9c8b4f	0.019109396
37	0xbc22fa91	-0.009947435
38	0xbd456907	-0.048195865
39	0xbb5b1cf8	-0.0033434015
40	0x3d49389d	0.049126256
41	0x3d4b871f	0.04968941
42	0x3d4127cf	0.047157105
43	0x3c07dd2f	0.00829248
44	0x3d3fe62f	0.04685038
45	0x3c47b2c1	0.012188614
46	0xbd159560	-0.03651941
47	0x3d798f79	0.06092784
48	0xbcf1ddb3	-0.02952466
49	0xbd5816d7	-0.052756157
50	0xbbffaf0a	-0.0078028487
51	0x3d8f8776	0.07008259
52	0x3d7733a0	0.060351968
53	0x3d09247e	0.033482067
54	0x3d64e25e	0.055879943
55	0xbd3796d6	-0.044821583
56	0xbd6dce3d	-0.058058012
57	0xbc549564	-0.012975071
58	0x3d5c4304	0.05377485
59	0x3d31ee75	0.0434403
60	0xbd14f980	-0.036370754
61	0xbd2f2c2b	-0.04276673
62	0x3c28141f	0.0102587035
63	0xbc9b8e44	-0.018988736
64	0xbc171dd0	-0.009223416
65	0xbc4fc4dd	-0.012681213
66	0xbd444d2f	-0.04792517
67	0xbce1b5db	-0.027552536
68	0xbd165aea	-0.036707796
69	0x3c9f78d8	0.019466802
70	0x3d187714	0.037222937
71	0xbd5db9be	-0.054132216
72	0x3d29cf08	0.041457206
73	0xbd1f8f4c	-0.038955018
74	0xbd30319d	-0.043016065
75	0xbcbee5b1	-0.023302885
76	0x3d44fef5	0.04809471
77	0xbd17b43f	-0.03703713
78	0xbd36f175	-0.044663865
79	0x3d580392	0.05273778
80	0xbd4c96dd	-0.049948562
81	0xbb4c6119	-0.0031185804
82	0x3c4a37d2	0.01234241
83	0xbd53ff2b	-0.05175702
84	0xbca637d6	-0.020290297
85	0x3d16b0d7	0.03678974
86	0xbd517570	-0.051137388
87	0xb92e1543	-0.00016601854
88	0x3d053f29	0.032530937
89	0xbcb9687a	-0.022632826
90	0x3c42c1c3	0.011887017
91	0xbc7bf3b3	-0.015377927
92	0xbd584773	-0.052802514
93	0x3d21e0f8	0.039521188
94	0x3d61e5ef	0.055150922
95	0x3d1d8c8b	0.03846411
96	0x3d2c1f28	0.0420219
97	0x3d0cc3b8	0.03436634
98	0xbc1a8b2b	-0.009432594
99	0xbd0fee37	-0.03513929
100	0x3d63fd71	0.055661622
101	0x3d29f478	0.04149291
102	0xbd80bf5b	-0.06286498
103	0x3bd616b1	0.0065334667
104	0x3cfbab25	0.030721257
105	0xbd30015d	-0.04297005
106	0x3cca5dfd	0.02470302
107	0xbd38ce5f	-0.045118686
108	0x3d69d81d	0.057090867
109	0x3b434024	0.002979287
110	0xbbc01993	-0.0058624237
111	0xbd053cb7	-0.032528605
112	0xbd121621	-0.035665635
113	0xbcda6a48	-0.026662007
114	0xbd0242c5	-0.031801958
115	0x3cbf1caf	0.023329107
116	0xbd31003b	-0.04321311
117	0xbc8d41f4	-0.017243363
118	0xbba77aa3	-0.005111055
119	0xbd1ddf41	-0.03854299
120	0xbd20be58	-0.039244026
121	0x3bcfb40e	0.006338603
122	0x3c4fe430	0.0126886815
123	0xb9ad4d70	-0.00033054827
124	0x3c96aff2	0.018394444
125	0xbd51b02d	-0.051193405
126	0x3d85f731	0.06541289
127	0x3d4c06ce	0.049811177
128	0x3d114fc8	0.035476476
129	0xbc08a241	-0.008339466
130	0xbcfc4c26	-0.03079803
131	0x3bf6a84c	0.007527387
132	0xbb52c38d	-0.0032160014
133	0xbce38dae	-0.02777752
134	0x3d575d90	0.052579463
135	0x3ca73fbc	0.020416133
136	0x3cca69df	0.024708686
137	0xb9c95cb6	-0.00038406783
138	0xbcf35394	-0.02970294
139	0x3c2d5c6e	0.010581119
140	0xbc5f2458	-0.013619505
141	0xbd065cb0	-0.032803237
142	0x3d0a5291	0.033770148
143	0x3cdfb18e	0.027306344
144	0x3d5965f5	0.05307575
145	0x3d4bda6b	0.049768846
146	0x3c83cbd3	0.016088402
147	0x3d7da6ed	0.06192677
148	0xbc2fba6b	-0.010725598
149	0x3cc71c6b	0.024305543
150	0xbcc084a0	-0.02350074
151	0xbd02b496	-0.0319105
152	0xbd734869	-0.059395228
153	0x3d3db93a	0.046319224
154	0xbd24094b	-0.040047925
155	0x3d0f346b	0.0349621
156	0xbcc1c245	-0.023652205
157	0xbc8fc38d	-0.0175493
158	0x3d898901	0.067155845
159	0xbcf6836b	-0.030091962
160	0x3cd9fcba	0.026609767
161	0xbd45a866	-0.0482563
162	0x3cd29d5a	0.025709797
163	0x3d56e2b8	0.05246231
164	0xbd263784	-0.040580288
165	0x3d1b1231	0.037859146
166	0xbce930dd	-0.028465683
167	0xbbf6fde4	-0.0075375903
168	0xbcf517eb	-0.029918632
169	0xbd53742e	-0.05162447
170	0x3d938f22	0.07205035
171	0xbd3b6503	-0.04575063
172	0xbca0a71a	-0.01961093
173	0xbd2ccb0f	-0.04218584
174	0x3c55ef6f	0.013057574
175	0x3cfec850	0.031101376
176	0xbc0491b5	-0.00809138
177	0x3c85d875	0.016338566
178	0xbd639060	-0.05555761
179	0xbd5825e8	-0.052770525
180	0x3c4b9731	0.012426184
181	0x3d26062a	0.040533222
182	0x3ce785de	0.028262075
183	0x3d22b158	0.03971991
184	0x3d220694	0.039557055
185	0xbc90db7e	-0.017682787
186	0xba58b690	-0.000826695
187	0xbd05cce2	-0.032666095
188	0x3d94a42c	0.07257876
189	0xbbf1b2a6	-0.007376033
190	0xbc123b9e	-0.008925347
191	0x3d47c808	0.04877475
192	0xbd19e548	-0.037572175
193	0x3d7e7afb	0.062129002
194	0xbd35fdab	-0.04443137
195	0xbd1fde69	-0.039030466
196	0xbc0fc72a	-0.008775512
197	0xbd26b444	-0.04069926
198	0xbc472b2a	-0.012156287
199	0x3c673ac2	0.01411313
200	0x3d0cd93b	0.034386855
201	0xbc8bc5ec	-0.01706215
202	0x3c7dda34	0.015493918
203	0x3d3c067f	0.045904633
204	0xbc4fbebb	-0.012679751
205	0xbd212331	-0.0393402
206	0xbca9c454	-0.0207235
207	0xbcc59e28	-0.024123266
208	0xbd2fff82	-0.04296828
209	0x3c900f0b	0.017585298
210	0xbc0a2479	-0.008431547
211	0xbd14aeee	-0.03629964
212	0x3d7b7d01	0.06139851
213	0x3d117dd3	0.035520386
214	0xbc7de460	-0.015496343
215	0xbd31c084	-0.043396488
216	0x3c10cda0	0.008838087
217	0xbd21da30	-0.03951472
218	0x3d93bc7f	0.07213687
219	0x3cc386c4	0.023867972
220	0xbd40eb80	-0.04709959
221	0x3b7dc7e1	0.0038723873
222	0xbca1f0b3	-0.019768095
223	0x3d30e9d0	0.04319173
224	0xbd4168af	-0.047218975
225	0xbbe857de	-0.0070905527
226	0x3c0b2769	0.008493283
227	0x3c092945	0.008371656
228	0x3d3b7733	0.045767974
229	0xbb7cb01d	-0.003855712
230	0x3b1f6fde	0.0024328153
231	0x3d3bd9fc	0.045862183
232	0x3d80e39c	0.06293413
233	0xbc6c0b29	-0.014406958
234	0xbd2922ca	-0.041292943
235	0x3d61629f	0.055025693
236	0xbc93bcf1	-0.01803443
237	0x3cd76a53	0.026295817
238	0x3c8b7046	0.01702131
239	0x3cee5808	0.029094711
240	0xbd0e4071	-0.034729425
241	0xbc1bd5cc	-0.009511422
242	0x3cacfef6	0.021117669
243	0xbca7c860	-0.020481288
244	0x3d4b1860	0.049583793
245	0x3d021219	0.03175554
246	0x3caf8813	0.02142719
247	0x3c2374b1	0.009976552
248	0x3d08dac6	0.033411764
249	0xbd0eeb48	-0.03489235
250	0x3ceead6e	0.029135432
251	0x3d23c2ee	0.03998082
252	0xbc81c1ee	-0.015839543
253	0x3d04ef87	0.032454994
254	0x3d5a2f7d	0.053267945
255	0xbcceb3ac	-0.025232159

body.2.bias f4 [256]
0	0xbc66e73b	-0.014093216
1	0xbd621e8f	-0.055204924
2	0x3cccbf68	0.024993613
3	0xb916e95a	-0.00014392045
4	0x3d3f9034	0.046768382
5	0xbd2d94c1	-0.04237819
6	0xbd052381	-0.032504562
7	0x3c2176ac	0.009854954
8	0x3d16e15f	0.036836024
9	0xbd596b02	-0.053080566
10	0xbcb0a029	-0.021560745
11	0x3d0c57b3	0.034263324
12	0x3baec960	0.0053340644
13	0x3c5e63b8	0.0135735795
14	0xbc8677b1	-0.016414495
15	0xbc78fa7d	-0.01519644
16	0xb998c0e8	-0.00029135426
17	0x3d854fb1	0.065093406
18	0xbcde8b2d	-0.027165974
19	0xbb808efd	-0.0039232955
20	0xbd42d27d	-0.04756402
21	0xbc915ef1	-0.017745467
22	0xbcd95e6b	-0.02653428
23	0x3d7acd28	0.06123081
24	0x3d006306	0.031344436
25	0xbd09ca5b	-0.033640247
26	0x3d5999d7	0.05312523
27	0xbcf3287e	-0.029682394
28	0x3c277f7e	0.010223268
29	0x3d57c9c0	0.05268264
30	0x3d733f51	0.059386555
31	0xbbfa541c	-0.007639421
32	0xbd062a16	-0.03275498
33	0x3a3137e0	0.000676034
34	0x3bb80827	0.005616206
35	0x3d40539e	0.046954744
36	0x3d232e87	0.039839294
37	0xbb5c8e6b	-0.0033654224
38	0xbd4a15ff	-0.049337383
39	0xbc26b09f	-0.010173946
40	0xbd42bfc2	-0.047546156
41	0x3be490d9	0.006975275
42	0xbb4c0875	-0.003113297
43	0x3c1f3323	0.009716782
44	0xbc2a57f2	-0.010396944
45	0xbc65031d	-0.013977793
46	0xbd78bd9e	-0.060727708
47	0xbd23123e	-0.03981232
48	0xbd488358	-0.048953384
49	0x3d14d8e1	0.036339644
50	0xbc10b481	-0.008832098
51	0xbd6b5ad9	-0.057459686
52	0xbc2677cc	-0.010160398
53	0x3d3153e6	0.043292902
54	0x3cd68917	0.026188416
55	0xbc58e193	-0.013237375
56	0x3d435d11	0.047696177
57	0xbcf6140c	-0.030038856
58	0xbd3572f5	-0.044299085
59	0xbd300133	-0.042969894
60	0x3b49eb9d	0.0030810602
61	0x3d84e8a4	0.06489685
62	0x3b8b3b0e	0.004248983
63	0x3cc17564	0.023615547
64	0x3d45ee41	0.04832292
65	0xbd6c4739	-0.05768511
66	0x3b62e65d	0.003462217
67	0xbd44c9c8	-0.048043996
68	0x3c9c87b5	0.019107679
69	0x3b89c6d2	0.0042046094
70	0x3d6c679a	0.05771599
71	0xbd1963b5	-0.037448604
72	0xbbb83674	-0.0056217257
73	0x3cff7f9e	0.031188782
74	0xbd0a83a6	-0.033816956
75	0x3a276f20	0.00063871033
76	0xbd04a441	-0.032383207
77	0x3d0b5482	0.03401614
78	0xba9a44bd	-0.0011769753
79	0xbc9cfe41	-0.019164206
80	0xbc15c6dc	-0.00914165
81	0x3d5dae44	0.05412127
82	0xbcf80986	-0.030277979
83	0xbbd17e30	-0.0063932166
84	0xbd0eacd1	-0.03483278
85	0x3c8aaa34	0.016926862
86	0x3b9e380e	0.0048284596
87	0x3d3c9efc	0.046050057
88	0x3c72b153	0.014812785
89	0x3c77a871	0.015115843
90	0x3d624b34	0.0552475
91	0x3c8d3a9f	0.017239867
92	0x3d1ee61a	0.03879366
93	0xbd44725c	-0.047960624
94	0x3d571c9c	0.05251752
95	0x3d86ee6d	0.06588445
96	0x3d72c189	0.0592666
97	0xbba1ba3a	-0.00493553
98	0x3c3d6491	0.011559621
99	0xbd21a377	-0.039462533
100	0x3d222658	0.03958735
101	0x3a4e4ebf	0.00078700104
102	0xbb3833a3	-0.002810695
103	0x3b8d7c71	0.004317813
104	0x3d3e5395	0.04646643
105	0x3ceda50e	0.029009368
106	0x3c000335	0.007813265
107	0xbd1a19c9	-0.037622247
108	0xbd069375	-0.03285547
109	0x3c9c8215	0.019104997
110	0x3b127b48	0.0022351313
111	0x3cf6b597	0.030115886
112	0x3cf38d16	0.029730361
113	0x3d2c625f	0.042086
114	0xbd2d5968	-0.042321593
115	0xbd412a2e	-0.047159366
116	0x3d22bef5	0.039732892
117	0x3d334041	0.04376245
118	0xbd6abe55	-0.05731042
119	0xbd771a0b	-0.06032757
120	0xbca8def8	-0.020614132
121	0xbd49f081	-0.049301628
122	0x3d76c338	0.06024477
123	0x3ce19e09	0.027541177
124	0x3c3e36f9	0.011609786
125	0xbd538a6f	-0.051645692
126	0xbc4383aa	-0.011933247
127	0x3cbaead9	0.022817062
128	0xbcd9869a	-0.02655344
129	0x3d7dfca4	0.062008515
130	0xbcc8cf2b	-0.024512848
131	0xbc101901	-0.008795024
132	0x3c4aad20	0.012370378
133	0xbd35939b	-0.04433022
134	0x3cc796bd	0.02436387
135	0xbd0c60cf	-0.03427201
136	0xbd6daeea	-0.05802814
137	0xbcfc3e8d	-0.030791545
138	0x3cc26cc4	0.023733504
139	0xbc2cf33e	-0.01055604
140	0xbb5c15fb	-0.0033582437
141	0x3d7720fc	0.06033419
142	0x3ccb0bbc	0.024785869
143	0xbd635ff7	-0.05551144
144	0x3c59fa9a	0.013304377
145	0x3d8040f9	0.062623926
146	0xbd18473c	-0.03717731
147	0x3d2eb7ba	0.042655684
148	0x3d00547c	0.03133057
149	0xbd5aaf5b	-0.05338989
150	0x3d2e4652	0.04254753
151	0xbd161887	-0.036644485
152	0xba1c14fd	-0.0005954055
153	0x3bb1df79	0.0054282513
154	0xbd3201dc	-0.043458804
155	0x3bb835a3	0.0056216284
156	0x3d381abd	0.044947375
157	0x3d2ca5a3	0.04215015
158	0xbd3f1cd1	-0.04665834
159	0x3d836160	0.06415057
160	0xbd76a4c2	-0.06021572
161	0x3ca2cf19	0.019874142
162	0x3cf0178e	0.029308107
163	0x3b2f9c08	0.0026795883
164	0x3d37dde2	0.04488934
165	0xbb160529	-0.002289126
166	0x3ce05276	0.02738307
167	0x3d2ee002	0.0426941
168	0xbd38e9b4	-0.04514475
169	0x3d0e76b7	0.034781184
170	0x3d2ca4d9	0.0421494
171	0x3d46b674	0.048513845
172	0x3cb88a5d	0.022526914
173	0x3d66fc12	0.056392737
174	0x3d80eba9	0.062949486
175	0xbc9bd436	-0.019022088
176	0x3d0c1ae2	0.034205325
177	0x3c16bb22	0.009199889
178	0xbb7fd697	-0.0039037818
179	0xbc0fc038	-0.008773856
180	0xbbcecf88	-0.0063113607
181	0x3cf10096	0.029419225
182	0xbd52432f	-0.051333603
183	0xbd01d1bb	-0.031694155
184	0x3d849198	0.06473082
185	0xbd6e9bc9	-0.058254037
186	0xbcb85804	-0.022502907
187	0xbd3c51af	-0.045976337
188	0x3d658227	0.056032326
189	0xbd8066b7	-0.06269591
190	0xbd7d8e74	-0.061903432
191	0xbb9a7591	-0.004713722
192	0x3c771c28	0.015082397
193	0x3cd6e878	0.026233897
194	0x3ca69b2f	0.02033767
195	0xbbf55641	-0.007487089
196	0xbc71e49f	-0.01476398
197	0xbb8ae124	-0.0042382646
198	0x3d4482c3	0.047976267
199	0xbd1175a1	-0.03551257
200	0x3c743972	0.014906274
201	0x3c89d23e	0.016823884
202	0xbbf688a2	-0.007523612
203	0x3cf2a70d	0.029620672
204	0x3bfb969c	0.007677866
205	0xbd2aa06c	-0.041656896
206	0x3c2565b4	0.010095049
207	0xba87a5f9	-0.0010349146
208	0xbc6a9e19	-0.01431992
209	0xbd111b94	-0.03542669
210	0x3d74be3e	0.05975174
211	0x3bd8662c	0.0066039767
212	0x3d70f461	0.058826808
213	0x3cbdf09b	0.023186019
214	0xbc1b7a79	-0.009489649
215	0x3d0c706a	0.034286894
216	0xbcd324a6	-0.025774311
217	0xbc821675	-0.015879849
218	0xbd301f52	-0.04299862
219	0xbcceda59	-0.0252506
220	0x3d4b17ab	0.04958312
221	0x3d656de0	0.056012988
222	0x3d02c939	0.031930182
223	0x3c8c9e33	0.017165279
224	0xbd49cea6	-0.04926934
225	0x3d773a78	0.060358495
226	0xbd4b96ec	-0.049704477
227	0x3d3793df	0.044818755
228	0x3ccf6d84	0.025320776
229	0xbd317eeb	-0.04333393
230	0x3b53a70e	0.0032295617
231	0x3cf68d51	0.030096682
232	0xbd3dc199	-0.046327207
233	0x3d2c9546	0.042134546
234	0x3c30f20c	0.010799896
235	0x3d10b14f	0.035325345
236	0xbce64085	-0.028106937
237	0x3d4e20bd	0.05032419
238	0x3d1e4b20	0.038645864
239	0xbd3ab840	-0.04558587
240	0x3c9f1ed3	0.019423878
241	0xbce10995	-0.02747039
242	0xbd2f70f3	-0.042832326
243	0xbcca48f2	-0.024692986
244	0xbcdc5d6a	-0.026900012
245	0x3c79c814	0.015245456
246	0xbd2ecd0a	-0.04267601
247	0x3d62b92f	0.055352386
248	0xbce619c4	-0.028088458
249	0xbd61a19f	-0.055085775
250	0xbd6a1499	-0.05714855
251	0x3d48631b	0.04892264
252	0x3c8c3f8b	0.017120143
253	0xbd12d7c8	-0.035850316
254	0x3d479a51	0.048731152
255	0xbbfd7c94	-0.007735798

body.4.weight f4 [128, 256]
0	0x3d94521a	0.07242222
1	0xbb63e5dc	-0.0034774458
2	0xbd0227ea	-0.031776346
3	0x3d317c22	0.043331273
4	0x3d920886	0.07130532
5	0x3d33f4e1	0.043934707
6	0xbd250834	-0.040291026
7	0x3d0684c9	0.032841478
8	0x3cf422ac	0.02980169
9	0xbce189d5	-0.027531544
10	0xbd31bc71	-0.043392602
11	0x3cf0dfad	0.029403532
12	0x3d2d1144	0.042252794
13	0x3d444df9	0.047925923
14	0xbd288b48	-0.041148454
15	0xbd174b3e	-0.03693699
16	0xbc3efb05	-0.011656527
17	0xbd268377	-0.04065272
18	0x3c003443	0.00782496
19	0x3d20f386	0.039294742
20	0x3d8964e1	0.06708694
21	0x3d311646	0.043234132
22	0xbd802d68	-0.062586606
23	0xbd669519	-0.056294534
24	0x3ce8bbec	0.02840992
25	0x3cd4ad29	0.025961475
26	0x3d7762c0	0.06039691
27	0xbd03514d	-0.032059956
28	0x3d2c7014	0.042099074
29	0x3cf45e2f	0.029830066
30	0x3cd9c4d7	0.026583118
31	0xbd784404	-0.06061174
32	0xbcbb80f0	-0.02288863
33	0xbb5adc72	-0.0033395556
34	0x3d1bde6c	0.038053915
35	0xbc62b748	-0.013837643
36	0xbc5d3dc1	-0.013503493
37	0xbc7f0fd1	-0.015567736
38	0xbcd9aa17	-0.026570363
39	0xbd5d5729	-0.0540382
40	0xbcf97799	-0.030452536
41	0x3b85fd50	0.004089035
42	0xbcdd31e1	-0.027001323
43	0x3d5d6f63	0.054061305
44	0x3d958628	0.07300979
45	0xbd1581f8	-0.0365009
46	0x3d0de72b	0.034644287
47	0xbc8a09f2	-0.016850445
48	0xbcce9581	-0.025217773
49	0x3d4d420a	0.050111808
50	0xbc89527a	-0.01676296
51	0xbc76872a	-0.015046874
52	0x3bdfad61	0.0068260883
53	0xbbe805e9	-0.0070807827
54	0x3d5cf0df	0.05394065
55	0x3b716af1	0.0036837424
56	0x3c5332e8	0.012890555
57	0xbd271ef7	-0.040801015
58	0x3d6511ad	0.05592506
59	0xbcecd05e	-0.028907951
60	0xbcb22098	-0.021744058
61	0x3d8e0a03	0.06935503
62	0xbd17ad23	-0.03703035
63	0x3d2c1404	0.042011276
64	0x3ca582bd	0.020203942
65	0x3d52e3ec	0.051486894
66	0xbd5f6c6a	-0.05454675
67	0xbd2a9e22	-0.041654713
68	0x3cc685ac	0.024233662
69	0x3d4c9022	0.049942143
70	0xbd4d2456	-0.05008348
71	0xbd4a382e	-0.049369983
72	0x3d569604	0.05238916
73	0x3d5724b9	0.052525256
74	0x3c3c1bed	0.011481267
75	0xbd5105c5	-0.051030893
76	0x3d1a9f28	0.03774944
77	0x3ca5edc6	0.02025498
78	0xbc9bb328	-0.019006327
79	0xbd0b67d4	-0.034034565
80	0x3d76d239	0.060259078
81	0x3d1b3428	0.037891537
82	0xbd2d479d	-0.042304624
83	0x3ce821cf	0.028336434
84	0xbd646375	-0.055758912
85	0xbbb0af4e	-0.0053919917
86	0xbc028251	-0.00796564
87	0xbc9e98bd	-0.01935994
88	0xbcbdc7f3	-0.023166632
89	0xbcc590f8	-0.024116978
90	0xbd0db25b	-0.03459392
91	0x3cd71f0b	0.02625992
92	0xbca9e7d6	-0.02074043
93	0xbc167b5b	-0.009184684
94	0x3d7541bb	0.05987714
95	0x3d2de0c2	0.042450674
96	0x3a1cb968	0.00059785554
97	0xbc7e4590	-0.015519515
98	0xbd4884d9	-0.04895482
99	0x3ca3d6c4	0.01999987
100	0xbd200410	-0.039066374
101	0x3d7cdc5e	0.061733596
102	0x3d7e3ca2	0.062069543
103	0xbd0baa59	-0.034098003
104	0x3d90ec8d	0.070763685
105	0x3cf800aa	0.030273754
106	0xbc5983ad	-0.013276023
107	0xbc84b52b	-0.016199669
108	0xbce6e192	-0.028183732
109	0xbcedb60b	-0.029017469
110	0xbd754556	-0.059880577
111	0xbcc3018a	-0.023804445
112	0x3c1abd09	0.009444484
113	0xbc5ade8a	-0.0133587215
114	0x3d6363a8	0.05551496
115	0xbcf8aa9b	-0.030354789
116	0x3a1bd28d	0.0005944155
117	0xbc42e2ec	-0.011894923
118	0x3d42bc00	0.047542572
119	0x3d30527a	0.043047406
120	0xbd2324e0	-0.03983009
121	0x3d23d2d6	0.03999599
122	0xbd29aa37	-0.041422095
123	0x3c98695a	0.018604923
124	0xbc8c0fa7	-0.017097307
125	0x3d6f9c62	0.058498748
126	0x3d66110d	0.056168605
127	0xbc974b96	-0.01846866
128	0xbcb06162	-0.02153081
129	0xbce89ea4	-0.028395958
130	0xbd0810f5	-0.033219296
131	0xbd33542a	-0.043781437
132	0xbd59ae88	-0.05314496
133	0x3d97af4c	0.07406482
134	0x3d3f8eeb	0.046767157
135	0x3d289e35	0.041166503
136	0xbce4474c	-0.027866028
137	0xbd7fe122	-0.062470563
138	0x3d56382d	0.052299667
139	0x3c41902f	0.011814161
140	0x3d0be724	0.03415598
141	0x3d5cef64	0.05393924
142	0x3a28dc76	0.00064415426
143	0x3d5062e1	0.05087555
144	0x3d5f5756	0.05452665
145	0x3d530a62	0.051523574
146	0xbce3a96a	-0.027790744
147	0x3cf773dc	0.030206613
148	0x3d67fce4	0.05663766
149	0xbd929b18	-0.07158488
150	0xbd59cdb0	-0.053174675
151	0x3d3553a5	0.044269223
152	0x3d6f962b	0.05849282
153	0x3d175a01	0.03695107
154	0xbd5db2ab	-0.05412547
155	0x3cb623e9	0.02223392
156	0x3ccf077c	0.025272124
157	0xbcd5436d	-0.026033128
158	0xbb9ddd6e	-0.0048176562
159	0xbd5adc19	-0.053432558
160	0x3d2e2a08	0.042520553
161	0xbd6b2861	-0.057411555
162	0x3d2b6820	0.04184735
163	0x3d1ac17f	0.03778219
164	0xbcaddb68	-0.021222785
165	0xbcc6ea1d	-0.024281556
166	0xbbf9e1a9	-0.0076257777
167	0x3ad199ce	0.0015991272
168	0x3d74ff55	0.059813816
169	0xbd0fee14	-0.03513916
170	0xbd709dfd	-0.05874442
171	0xbc5c3c7a	-0.013442153
172	0x3d588ce8	0.052868754
173	0x3d233410	0.039844573
174	0x3d2d2641	0.04227281
175	0xbd53ad1c	-0.05167876
176	0xbc736d9a	-0.014857674
177	0x3bd04e40	0.0063569844
178	0x3d145e85	0.036222953
179	0x3cb4bb5e	0.022062
180	0x3c96013f	0.018311141
181	0xbcf084ce	-0.029360201
182	0xbacc6ebb	-0.0015596965
183	0x3caf8e34	0.021430112
184	0xbc65a9db	-0.0140175475
185	0x3d33460c	0.043767974
186	0xbd52f831	-0.051506225
187	0xbd3f2a40	-0.046671152
188	0x3c183c43	0.009291711
189	0x3d27d695	0.040976126
190	0x3d0f9e23	0.03506292
191	0xbd16a1b5	-0.03677531
192	0x3c718bc6	0.014742797
193	0xbcd0efc2	-0.02550495
194	0x3d4d1c2d	0.0500757
195	0xbc81cde7	-0.015845252
196	0xbd52d16b	-0.051469248
197	0xbd1a63dd	-0.037692893
198	0xbd414843	-0.047188055
199	0xbd832df2	-0.06405248
200	0xbcdf2183	-0.02723766
201	0xbb65f07a	-0.0035085962
202	0x3d0ebc0b	0.0348473
203	0xbc212a43	-0.009836736
204	0x3d55e966	0.05222454
205	0x3aa610f1	0.0012669844
206	0x3c49f7a6	0.01232711
207	0x3c79987b	0.015234108
208	0xbd6f1de0	-0.0583781
209	0x3d690466	0.05688896
210	0xbd1293e0	-0.035785556
211	0xbbb7e12f	-0.005611561
212	0x3c987586	0.018610727
213	0xbbf4e4a4	-0.007473545
214	0xbd16c0dc	-0.03680502
215	0xbccd214c	-0.025040291
216	0x3d5ee301	0.054415707
217	0xbd06cf5e	-0.032912605
218	0xbcbb4ab2	-0.022862766
219	0x3d2482bc	0.04016374
220	0x3d5262d0	0.051363766
221	0x3c694e2f	0.014239832
222	0x3d5243bc	0.051334128
223	0x3d1dc7e2	0.0385207
224	0x3b1ae336	0.0023633963
225	0x3d4fe3d1	0.050754372
226	0xbd072e85	-0.03300335
227	0x3cd3cba5	0.025853941
228	0xbcfdfcf7	-0.031004412
229	0xbd1238a8	-0.035698563
230	0x3d64d556	0.055867516
231	0x3d5587f2	0.0521316
232	0xbc6185c7	-0.013764805
233	0xbba8063c	-0.0051276963
234	0x3cfbd858	0.03074281
235	0xbd2aaef8	-0.04167077
236	0x3d575471	0.052570764
237	0xbd6fc367	-0.05853596
238	0xbc16f720	-0.009214193
239	0xbd57a78d	-0.052650023
240	0xbd70becf	-0.05877572
241	0xbd29eb69	-0.04148427
242	0xbc5b412c	-0.013382237
243	0x3cbf64e5	0.02336354
244	0x3c2e4493	0.010636467
245	0x3cc7274a	0.024310727
246	0x3d607293	0.054796766
247	0xbd431480	-0.047626972
248	0xbd238868	-0.03992501
249	0x3d013e68	0.031553656
250	0x3ca28c79	0.019842373
251	0xbc0ac811	-0.008470551
252	0xbd40fcbe	-0.047116034
253	0xbc2b5815	-0.010458012
254	0xbccc8ac3	-0.02496851
255	0xba34929a	-0.00068883004

body.4.bias f4 [128]
0	0x3d56964e	0.052389435
1	0xbd02605a	-0.03183017
2	0x3ce59a5c	0.028027706
3	0x3d373164	0.044724837
4	0x3c686fa6	0.014186775
5	0xbb906074	-0.0044060294
6	0xbc97013e	-0.01843321
7	0x3d0c9145	0.034318227
8	0x3d23ccb5	0.039990146
9	0x3d3f648c	0.04672675
10	0x3cf01268	0.029305652
11	0xbd464ba0	-0.048411965
12	0x3d471819	0.048606966
13	0x3d3343a4	0.04376568
14	0xbd28209e	-0.04104673
15	0xbcb232cd	-0.02175274
16	0x3cad2db0	0.02113995
17	0xbd3ccd0d	-0.04609399
18	0xbd13f7db	-0.036125045
19	0x3c3a87ef	0.011384948
20	0xbd21a36f	-0.039462503
21	0x3d1b5ccd	0.0379303
22	0xbc2ffe70	-0.010741815
23	0xbc79cf8a	-0.015247235
24	0xbcf5ef1f	-0.030021248
25	0xbd530d01	-0.051526073
26	0x3d00c00d	0.031433154
27	0xbcfef8ea	-0.03112455
28	0xbcb2c409	-0.021821992
29	0xbd58a994	-0.052896097
30	0x3d05a35b	0.03262649
31	0x3d0fd0ce	0.03511124
32	0x3cee6383	0.029100185
33	0x3d72d2a9	0.059282932
34	0x3ccd2093	0.025039947
35	0xbcc0007a	-0.023437727
36	0xbcae8cd2	-0.021307383
37	0xbcf6de23	-0.03013522
38	0x3d293d15	0.041318018
39	0x3d4866a2	0.048926003
40	0x3cf3d5b6	0.029764991
41	0x3d5afb42	0.053462274
42	0x3d6daec5	0.058028
43	0xbb70e6e2	-0.003675871
44	0x3caa4bfa	0.020788182
45	0xbc93637e	-0.017991778
46	0xbcd616d0	-0.026133925
47	0x3cd1bb8d	0.025602126
48	0x3c54c8f3	0.012987363
49	0x3ca3bc41	0.019987227
50	0xbd117c81	-0.035519127
51	0x3d4a49f4	0.049386933
52	0xbd404af8	-0.046946496
53	0xbc935c60	-0.017988384
54	0x3d077105	0.03306677
55	0xba05a14d	-0.0005097583
56	0x3cea4509	0.028597372
57	0x3cd01104	0.025398739
58	0x3ccaabaf	0.024740068
59	0xbd55b461	-0.052173976
60	0xbd0d0cb6	-0.03443595
61	0xbcc142eb	-0.02359148
62	0x3d7907c1	0.06079841
63	0xbce97ec1	-0.028502824
64	0xbc11f46d	-0.008908373
65	0x3d65ad48	0.056073457
66	0xbce2a2a7	-0.02766545
67	0xbd240b65	-0.04004993
68	0x3d09f592	0.03368146
69	0x3d3f184e	0.046654038
70	0x3cc51fea	0.02406307
71	0x3d57952a	0.05263249
72	0x3d350f6d	0.044204164
73	0x3d332631	0.043737594
74	0xbc20aeab	-0.009807269
75	0xbc7ac491	-0.015305654
76	0xbb126238	-0.0022336375
77	0x3d0e271a	0.03470526
78	0xbd5c7534	-0.05382271
79	0xbd5f4197	-0.05450591
80	0x3cc3331d	0.023828084
81	0xbd501e6a	-0.050810255
82	0x3c8b74df	0.017023502
83	0x3c925186	0.017861139
84	0xbd3f2389	-0.04666475
85	0x3d0ed557	0.034871425
86	0xbb6889d8	-0.0035482552
87	0x3a76947e	0.00094062823
88	0xbc17227e	-0.009224532
89	0x3b04be14	0.0020254897
90	0xbd604d85	-0.05476143
91	0xbbb78704	-0.005600812
92	0x3caf2115	0.02137808
93	0xbcbc9df4	-0.023024537
94	0xbc5421b1	-0.012947486
95	0x3ced906f	0.028999535
96	0x3ca3ec27	0.020010067
97	0xbd4bbd81	-0.049741272
98	0x3b9cf2c7	0.0047896835
99	0xbc812187	-0.015763057
100	0x3b875563	0.004130052
101	0x3cc72d89	0.024313705
102	0x3c98d586	0.018656503
103	0x3ca94bcf	0.020666031
104	0xbc144797	-0.0090502715
105	0x3c2d1afb	0.010565515
106	0xbc885bbf	-0.01664531
107	0xbd70f7af	-0.05882996
108	0xbc89503f	-0.016761897
109	0xbbe52709	-0.0069931787
110	0x3d2b5f4d	0.041838933
111	0x3d67deba	0.056608893
112	0xbbb35ab4	-0.005473459
113	0x3d2bd0e8	0.041947275
114	0x3c7441bd	0.014908251
115	0xbd759f82	-0.05996657
116	0x3c27c495	0.01023974
117	0xbcb17250	-0.021660954
118	0xbd1e74b4	-0.038685516
119	0xbd874db8	-0.066066206
120	0x3d69c9df	0.057077285
121	0x3bccc19d	0.0062486664
122	0xbd31e936	-0.043435298
123	0xbba5c027	-0.0050583067
124	0xbc196a28	-0.0093636885
125	0x3d47afbb	0.048751574
126	0xbcfed52d	-0.03110751
127	0x3d3b6b3f	0.045756575

move_head.weight f4 [5, 128]
0	0xbd621167	-0.055192377
1	0x3b4661d1	0.0030270705
2	0xbdc040e8	-0.0938738
3	0xbdc2ca66	-0.09511261
4	0xbc22fde2	-0.009948226
5	0x3daa7c02	0.08324434
6	0xbcc0700b	-0.023490926
7	0x3d130874	0.035896733
8	0xbce07df2	-0.027403805
9	0x3aec6a76	0.0018037099
10	0x3da1af4f	0.078947656
11	0x3ba77b74	0.0051111523
12	0x3d662e8c	0.056196734
13	0x3d1fea08	0.03904155
14	0x3d91cbd2	0.07118954
15	0xbd9d62ef	-0.07684886
16	0x3d279bc7	0.040920045
17	0x3d822b69	0.06355936
18	0xbd900ad1	-0.07033313
19	0x3d57b100	0.052659035
20	0x38a8b9c6	8.045467e-05
21	0xbcce1306	-0.025155555
22	0xbc7822a8	-0.015144981
23	0x3c261a2a	0.010138074
24	0x3d73f349	0.059558187
25	0xbc276dc7	-0.010219044
26	0xbc885bb5	-0.016645292
27	0xbdabd705	-0.08390621
28	0x3d4731ea	0.048631586
29	0x3bb830d0	0.0056210533
30	0x3b87a45b	0.0041394657
31	0x3d449fbb	0.048003893
32	0xbda2fd22	-0.079584375
33	0xbce6a921	-0.028156819
34	0x3bd709bc	0.0065624397
35	0x3c4f63f8	0.012658112
36	0xbcca69a1	-0.02470857
37	0x3d5bf8b1	0.053703967
38	0x3d24c793	0.04022939
39	0xbd910999	-0.07081909
40	0xbd93377b	-0.071883164
41	0xbd902e4d	-0.07040081
42	0xbd161768	-0.036643416
43	0xbcc0713a	-0.02349149
44	0xbd8c55e2	-0.06852318
45	0x3aa913d6	0.0012899588
46	0x3d4001af	0.046876606
47	0x3d900cbf	0.07033681
48	0xbd9faa05	-0.077961005
49	0x3cd09b45	0.025464663
50	0xbca3d59f	-0.019999323
51	0x3d83cd28	0.06435615
52	0x3d7f84dd	0.062382568
53	0xbdb7465b	-0.08948966
54	0xbd58fed4	-0.052977398
55	0xbd0164e8	-0.031590372
56	0xbb00397e	-0.0019565518
57	0xbd0759e7	-0.033044722
58	0xbb306b29	-0.0026919341
59	0xbcb68ae8	-0.022283033
60	0x3d8e554a	0.06949861
61	0xbd822909	-0.06355483
62	0xbdb62b1c	-0.08894941
63	0xbc3cd4ab	-0.011525313
64	0x3d196c40	0.03745675
65	0xbd0f9290	-0.035051882
66	0x3d31514b	0.043290418
67	0x3cb1b0c6	0.021690737
68	0x3d7e6d9e	0.062116258
69	0xbd19c5f6	-0.037542306
70	0x3c292346	0.010323351
71	0x3d830a45	0.06398443
72	0x3da8a8c9	0.08235318
73	0xbd140d0f	-0.036145266
74	0xbd877141	-0.06613398
75	0xbd554163	-0.05206431
76	0x3db9d93b	0.090746365
77	0xbd15bfea	-0.036559977
78	0x3d43849e	0.047733895
79	0x3d758df7	0.05994984
80	0xbd8ad397	-0.06778639
81	0xbd1be11a	-0.03805647
82	0x3d55fa07	0.052240398
83	0x3d3cd276	0.04609915
84	0xbd3b4235	-0.045717437
85	0xbd5a190b	-0.05324654
86	0x3d5711c5	0.05250718
87	0x3c9c8ac3	0.019109135
88	0xbd35a176	-0.044343434
89	0x3cd33ced	0.025785888
90	0x3cca57a2	0.02469999
91	0xbd0fa723	-0.035071503
92	0x3da2e5ba	0.07953973
93	0x3d487316	0.04893788
94	0xbd4cd53c	-0.050008044
95	0xbd42d86b	-0.047569674
96	0xbd9efdc8	-0.07763249
97	0xbd28bcec	-0.041195795
98	0xbd93a797	-0.072096996
99	0xbccdc2e2	-0.025117341
100	0xb961ff67	-0.00021552817
101	0xbd63111d	-0.055436242
102	0xbcbd4183	-0.023102527
103	0x3d87fb27	0.066397004
104	0xbc45343b	-0.0120363785
105	0xbd8bcdcf	-0.06826364
106	0x3d18da0e	0.03731733
107	0x3d8e2394	0.0694038
108	0x3ccf955c	0.025339775
109	0xbc9294b5	-0.017893175
110	0x3ceeafbf	0.029136537
111	0xbba2e5c8	-0.0049712397
112	0xbd3f3d84	-0.046689525
113	0xbd86e607	-0.06586843
114	0xbcaa03a5	-0.020753691
115	0xbc9c20c3	-0.01905859
116	0x3d775187	0.060380485
117	0x3c67ad91	0.014140503
118	0x3d8bfb52	0.06835045
119	0x3d9f5a9c	0.07780954
120	0xbd3b5289	-0.04573301
121	0xbaf53dcb	-0.0018710432
122	0xbcd4496e	-0.02591392
123	0x3d8b98ba	0.0681624
124	0xbd146f34	-0.036238864
125	0xbc8ffff1	-0.017578097
126	0x3d871e56	0.06597583
127	0x3d92aa8f	0.07161438
128	0x3bfeb803	0.0077734008
129	0xbd84f46b	-0.064919315
130	0xbcb6bea4	-0.022307701
131	0xbda44547	-0.08021026
132	0x3dbe1199	0.092807
133	0x3cb50ca4	0.022100754
134	0xbda84bb0	-0.08217561
135	0xbceefce6	-0.029173326
136	0xbd82ef1c	-0.06393263
137	0xbc65e7c6	-0.01403231
138	0x3d97ab05	0.07405666
139	0x3d44ba0f	0.048029
140	0x3c946817	0.01811604
141	0xbd814c95	-0.06313435
142	0x3d720834	0.059089854
143	0xbd6be51a	-0.057591535
144	0xbd4a0f91	-0.04933125
145	0x3cfd49a0	0.030918896
146	0x3dab54d8	0.08365792
147	0x3d20ed6e	0.03928893
148	0xbc928e2e	-0.017890062
149	0xbcd408e3	-0.025883144
150	0x3d128db0	0.035779655
151	0xbc4d5fcc	-0.012535047
152	0x3ba8d112	0.0051518762
153	0x3cc98cdf	0.024603305
154	0xbd25bf72	-0.04046578
155	0x3db60b35	0.08888856
156	0x3c0f21b7	0.008736066
157	0xbd5e701c	-0.054306135
158	0xbd4be20f	-0.049776133
159	0x3d38205b	0.04495273
160	0xbd4bba5b	-0.04973827
161	0x3dcd26b3	0.10017147
162	0x3d515104	0.051102653
163	0xbd626c50	-0.055279076
164	0xbd072cc2	-0.03300167
165	0x3d2e7059	0.04258761
166	0x3da6e342	0.08148815
167	0xbcdc5118	-0.026894137
168	0x3db2d4ab	0.087319694
169	0xbca8a0ff	-0.020584581
170	0x3da2220c	0.0791665
171	0xbd4aeacb	-0.049540322
172	0xbc954a5b	-0.018223932
173	0xbd52bc87	-0.051449325
174	0x3d850809	0.06495673
175	0xbc015dc2	-0.007895889
176	0x3d97408d	0.07385359
177	0xbd57c4e2	-0.052677996
178	0x3d2a1206	0.041521095
179	0xbd17a96f	-0.03702682
180	0x3c72e8f0	0.014826044
181	0x3db5877e	0.08863734
182	0xbc8b5346	-0.017007481
183	0xbcef1265	-0.029183576
184	0xbd7c643b	-0.061619025
185	0xbd2976c0	-0.041373014
186	0x3d8eddf0	0.06975925
187	0x3c02ec2c	0.007990878
188	0x3b34c11d	0.0027580925
189	0x3d2283fb	0.039676648
190	0x3cbe9a07	0.023266805
191	0xbd26bad8	-0.04070553
192	0x3ca21bce	0.019788649
193	0x3d9441d3	0.072391175
194	0x3d255307	0.040362384
195	0xbd567094	-0.052353457
196	0xbcfd7665	-0.030940244
197	0xbd9a30be	-0.07528828
198	0xbd9f9200	-0.07791519
199	0xbd67efcd	-0.056625176
200	0x3d49ec65	0.04929771
201	0xbd8ea0f8	-0.06964296
202	0x3d157814	0.03649147
203	0xbda869a7	-0.082232766
204	0x3d9f6692	0.077832356
205	0x3b988780	0.0046548247
206	0xbcbf532f	-0.023355095
207	0x3d686267	0.05673447
208	0xbcbb7d0e	-0.02288678
209	0xbd09403b	-0.03350852
210	0x3d560781	0.05225325
211	0x3cf269f5	0.02959154
212	0xbcc7142a	-0.024301607
213	0x3dcb72e3	0.09934022
214	0x3d2c4708	0.04205993
215	0x3d01790a	0.031609572
216	0xbc2a28b1	-0.010385678
217	0x3d28222b	0.04104821
218	0xbd504352	-0.05084545
219	0xbc96a349	-0.018388407
220	0xbb5c8ced	-0.0033653334
221	0xbd127214	-0.035753325
222	0xbca7562e	-0.020426836
223	0xbccdd50e	-0.025126006
224	0x3cbdf515	0.023188153
225	0xbb44a218	-0.0030003842
226	0xbd35d5a9	-0.044393215
227	0x3cb5ecb7	0.022207601
228	0x3d8b2d76	0.0679578
229	0x3d494b43	0.04914404
230	0xbd6de3be	-0.05807852
231	0xbd85b980	-0.06529522
232	0x3ca526f6	0.02016018
233	0x3d28ed5d	0.041241992
234	0x3c8ed6f9	0.017436491
235	0xbd0e9153	-0.03480656
236	0xbced988b	-0.029003402
237	0xbd3a8dce	-0.04554539
238	0xbd2f9679	-0.04286811
239	0xbd7b5767	-0.06136265
240	0x3b8c0c83	0.0042739525
241	0xbd9f7a13	-0.07786956
242	0x3da0b11c	0.07846281
243	0x3d77d192	0.060502596
244	0xbba44727	-0.005013365
245	0x3cda6a49	0.026662009
246	0xbb44cfcb	-0.003003108
247	0xbd016291	-0.03158814
248	0xbd706031	-0.058685485
249	0xbdb0d80e	-0.08634959
250	0xbcb43a9c	-0.022000603
251	0xbdb69787	-0.0891562
252	0x3cf6298e	0.030049112
253	0xbd5745de	-0.052556865
254	0xbc00b328	-0.007855214
255	0x3ccd3655	0.025050322

move_head.bias f4 [5]
0	0xbd550de1	-0.05201519
1	0x3da444da	0.08020945
2	0x3dab64c6	0.083688304
3	0x3cb39096	0.02191953
4	0xbc9cdacb	-0.019147297
