checkpoints/simple_world_comm_v3_scratch/simple_world_comm_v3_agent_0_ep1200.pt (torch, 431125 bytes, 8 tensors)

body.0.weight f4 [256, 28]
0	0xbc596f51	-0.013271169
1	0x3c49922c	0.0123029165
2	0xbd9ce137	-0.07660144
3	0xbda07501	-0.07834817
4	0x3dc24feb	0.094878994
5	0xbe1a1d21	-0.15050174
6	0xbe49abb3	-0.19694404
7	0x3e195091	0.1497214
8	0xbd9e4995	-0.077288784
9	0xbe002e74	-0.1251772
10	0xbd1c337a	-0.03813503
11	0x3da73c40	0.08165789
12	0x3dfc155f	0.12308764
13	0xbc4729dd	-0.012155977
14	0xbdea49a2	-0.114398256
15	0xbc6f55b9	-0.01460784
16	0x3ddc96ac	0.10770926
17	0x3c85a4f6	0.016314011
18	0xbdead250	-0.11465895
19	0x3b0d54a9	0.0021565354
20	0x3d7e8e0a	0.062147178
21	0x3db6cfc5	0.08926348
22	0xbd5c11d0	-0.053727925
23	0x3dd53ec8	0.10412365
24	0x3d5adebd	0.053435076
25	0xbdc8226a	-0.09772189
26	0xbdb089f4	-0.086200625
27	0x3de89a42	0.11357547
28	0xbd9c6606	-0.07636647
29	0xbe2e7bdc	-0.17039436
30	0x3e49098e	0.19632551
31	0x3d341b4b	0.04397134
32	0x3dd5c85f	0.104386084
33	0x3dab0c11	0.08351911
34	0xbe5a125c	-0.21296066
35	0xbd8c0ee8	-0.06838781
36	0xbe4cf9ea	-0.2001721
37	0x3e35b1b9	0.17743577
38	0xbe45c2f2	-0.19312647
39	0xbd71680a	-0.05893711
40	0xbe2a69ef	-0.16641973
41	0xbe25d5c7	-0.16194831
42	0x3d206297	0.039156523
43	0xbd81188c	-0.0630351
44	0xbdfc2f19	-0.12313671
45	0xbd326b0e	-0.043559127
46	0xbd9d82db	-0.07690974
47	0xbdfbff50	-0.12304556
48	0xbd857039	-0.065155454
49	0xbe404027	-0.18774472
50	0xbcf2e076	-0.029648047
51	0x3b987d54	0.004653612
52	0xbc4924b2	-0.012276815
53	0x3e064a2e	0.13114235
54	0xbdbd221f	-0.09235024
55	0xbd9864a5	-0.074410714
56	0xbe254105	-0.16138084
57	0xbd3c14ad	-0.045918155
58	0xbd00baab	-0.03142802
59	0x3e3e975a	0.18612424
60	0x3de8b380	0.11362362
61	0xbe01dabe	-0.126811
62	0xbc69b34f	-0.014263942
63	0x3d53708e	0.051621012
64	0x3e192c72	0.14958361
65	0x3d202ab2	0.039103217
66	0xbe191956	-0.14951071
67	0x3d0cb49b	0.034351926
68	0xbd5e9602	-0.054342277
69	0xbe20def0	-0.15710044
70	0xbe19efec	-0.15032929
71	0xbe1f57fa	-0.15560904
72	0x3de32942	0.11091854
73	0xbdcc5282	-0.099766746
74	0xbdeb88a6	-0.11500673
75	0xbce7b3cf	-0.028283982
76	0xbe1f867f	-0.1557865
77	0x3e3a6959	0.1820425
78	0x3dd338e5	0.10313586
79	0xbe11104c	-0.14166373
80	0x3df73be0	0.12071967
81	0x3e0ce897	0.13760601
82	0x3db9a219	0.09064121
83	0xbd92f3f7	-0.07175439
84	0x3e330ec0	0.17486095
85	0xbe1c4425	-0.1526037
86	0x3e39615f	0.1810355
87	0x3d20ad16	0.039227568
88	0x3cf4264b	0.029803416
89	0xbdbf06a1	-0.09327436
90	0xbe062671	-0.13100602
91	0x3e249b2c	0.16074818
92	0x3d31036a	0.043216147
93	0x3c3ed81c	0.011648204
94	0xbe3650f6	-0.17804322
95	0x3d056972	0.032571264
96	0xbe463a16	-0.19358096
97	0xbdcf2e03	-0.10116198
98	0x3b81bafc	0.003959058
99	0xbe32af24	-0.17449623
100	0x3cbe26d9	0.023211883
101	0xbd96fea9	-0.07372791
102	0xbe1f0952	-0.15530899
103	0x3e0315f7	0.12801348
104	0x3da96352	0.08270897
105	0xbe0edc31	-0.13951184
106	0x3da05881	0.07829381
107	0x3e38f6d5	0.18062909
108	0xbd8d4a43	-0.0689893
109	0x3cc0446e	0.02347013
110	0xbe01e6d9	-0.12685718
111	0x3dc68024	0.0969241
112	0xbde75c01	-0.11296845
113	0x3e07b75b	0.13253538
114	0xbd53a89d	-0.051674474
115	0x3de61a6d	0.11235509
116	0x3e28b619	0.16475715
117	0x3dbb2049	0.09137017
118	0x3e291af1	0.16514184
119	0x3e1d2c23	0.15348868
120	0xbe2ee59e	-0.1707978
121	0x3e1bdcf4	0.15221006
122	0xbde5a8dc	-0.11213848
123	0x3e080713	0.13283949
124	0x3dd122a9	0.10211689
125	0x3e19d994	0.15024406
126	0xbdb3ab7f	-0.08772945
127	0xbe20a335	-0.15687259
128	0xbdbc373a	-0.09190221
129	0x3e2ffbc6	0.17185888
130	0x3b5ea9f4	0.0033975812
131	0x3df3a00c	0.11895761
132	0x3e12f255	0.14350255
133	0x3dc12996	0.0943176
134	0xbe0e409c	-0.13891834
135	0x3ded9ca7	0.11602145
136	0xbc404e52	-0.011737423
137	0xbe023063	-0.1271377
138	0xbe007aa2	-0.1254678
139	0xbd8356bd	-0.064130284
140	0xbd32291e	-0.043496244
141	0xbcc69120	-0.024239123
142	0x3e1bafee	0.1520383
143	0x3da29fe3	0.07940652
144	0xbe3d9bee	-0.18516514
145	0xbde5f3e8	-0.11228162
146	0x3e266c61	0.16252281
147	0x3e107610	0.14107537
148	0xbe14947c	-0.14509767
149	0x3dd255c5	0.102702655
150	0xbcb395c3	-0.021921998
151	0xbe1d5d1a	-0.15367547
152	0xbdef1911	-0.11674703
153	0xbd654793	-0.05597646
154	0x3d210f45	0.039321203
155	0xbd3392f9	-0.043841336
156	0xbdae93e5	-0.085243024
157	0x3d64b55f	0.05583703
158	0xbe0e6933	-0.13907318
159	0x3d801285	0.06253532
160	0x3e16866a	0.14699712
161	0xbe02b534	-0.12764436
162	0xbcdf0efc	-0.027228825
163	0x3e1b1b09	0.15147032
164	0x3e10771e	0.1410794
165	0x3d8e4b77	0.069479875
166	0xbdf87734	-0.12132111
167	0x3d805aef	0.06267344
168	0x3db68d9b	0.08913728
169	0xbd66abc6	-0.05631616
170	0xbdd6b226	-0.10483198
171	0xbe029fff	-0.12756346
172	0xbcbe879a	-0.02325802
173	0xbded04a1	-0.115731485
174	0xbe419af0	-0.1890676
175	0x3cbfd39f	0.023416338
176	0xbe513561	-0.20430519
177	0x3e0368dc	0.1283297
178	0x3e21985a	0.15780774
179	0x3e12baf1	0.14329125
180	0x3d871e7e	0.06597613
181	0xbe22d7d2	-0.15902641
182	0xbdcf90e5	-0.10135058
183	0xbdd219b4	-0.10258809
184	0xbdbb98fe	-0.0916004
185	0xbde99b8d	-0.11406622
186	0xbc21c352	-0.009873228
187	0x3e0c7218	0.13715398
188	0xbd9256c6	-0.07145457
189	0xbb5f14e5	-0.0034039554
190	0xbc8bf1c4	-0.017083056
191	0xbd6b3277	-0.057421174
192	0xbe38fb33	-0.18064575
193	0x3e288fc4	0.16461092
194	0xbdc98c3e	-0.09841202
195	0xbe1e78c8	-0.15475762
196	0x3dc410c2	0.09573509
197	0x3de372f1	0.11105908
198	0xba326451	-0.00068051094
199	0x3dd3c97f	0.10341167
200	0xbe00f1b6	-0.12592205
201	0xbe2e45be	-0.17018792
202	0x3d71f17e	0.059068196
203	0x3e106c77	0.14103876
204	0x3d2e60a9	0.04257265
205	0x3baad25e	0.005213066
206	0x3e1b1389	0.15144171
207	0x3d149230	0.036272228
208	0x3e01f1f1	0.1268995
209	0x3d1a32bf	0.03764605
210	0xbb940f0a	-0.0045183944
211	0xbd1dbf7d	-0.038512696
212	0x3da5ae87	0.08089929
213	0x3dc5d0c6	0.09658961
214	0xbd3b8fa6	-0.04579129
215	0xbdb13153	-0.08651986
216	0x3e1ca411	0.15296961
217	0x3d8f0346	0.06983046
218	0xbdad21c3	-0.08453705
219	0xbe3e5137	-0.18585669
220	0xbdeab524	-0.11460331
221	0x3b9c3d60	0.0047680587
222	0xbe29dbb1	-0.16587712
223	0x3e1da0a7	0.15393315
224	0xbe45c0eb	-0.19311874
225	0xbde5e569	-0.11225397
226	0xbd59a67f	-0.0531373
227	0xbe4ab071	-0.1979387
228	0xbddea1f1	-0.108707316
229	0xbe58bf40	-0.21166706
230	0xbd6c794d	-0.05773287
231	0x3da83d19	0.082147785
232	0xbe16cf98	-0.14727628
233	0xbd018769	-0.031623278
234	0x3e1a45f7	0.15065752
235	0xbe2852ef	-0.16437887
236	0x3e2201d4	0.1582101
237	0x3c7f0e0f	0.015567317
238	0x3e3a7c26	0.18211421
239	0xbcc0906e	-0.02350637
240	0xbe1feacc	-0.15616912
241	0x3d81de7d	0.063412644
242	0x3e23ed9d	0.16008611
243	0x3dedf318	0.11618632
244	0xbdb8c12e	-0.09021221
245	0xbcc26ada	-0.023732591
246	0xbdd47491	-0.10373796
247	0x3d5ed216	0.054399572
248	0x3cfd4bd4	0.030919947
249	0x3cfbe439	0.030748473
250	0x3d601e5e	0.05471646
251	0xbd130f8d	-0.035903502
252	0xbd9d3340	-0.07675791
253	0x3d9db925	0.07701329
254	0xbe3e681f	-0.18594407
255	0x3e290b54	0.16508228

body.0.bias f4 [256]
0	0x3e285ead	0.16442366
1	0xbda25490	-0.07926285
2	0x3c8c2d55	0.01711146
3	0x3e335c3d	0.17515655
4	0xbda57c6b	-0.080803715
5	0xbd7dffe4	-0.062011614
6	0x3d097a9d	0.0335642
7	0x3d144851	0.03620178
8	0xbdb360e1	-0.087587126
9	0xbd75ec39	-0.060039733
10	0xbdc61f47	-0.096739344
11	0x3d8aa329	0.067694016
12	0xbe2b1bad	-0.16709776
13	0xbe0c9cf2	-0.13731745
14	0x3e3b9ffa	0.18322745
15	0x3dee95dd	0.11649678
16	0xbdcc7b7b	-0.099844895
17	0xbdce365d	-0.10068963
18	0x3d759ffd	0.05996703
19	0xbdccd6d7	-0.10001915
20	0xbd62da7e	-0.05538415
21	0xbe06e4de	-0.13173243
22	0xbd541750	-0.051780045
23	0x3e227ae6	0.15867195
24	0x3e32608a	0.17419639
25	0x3e33e892	0.17569187
26	0x3c89a501	0.016802313
27	0xbd0cd8f8	-0.034386605
28	0xbe128f5c	-0.143125
29	0x3d464384	0.04840423
30	0x3e4f28b3	0.2023037
31	0x3d906f3e	0.07052468
32	0x3dc2ee5e	0.09518121
33	0xbe1e2f4a	-0.15447727
34	0x3bf82ba6	0.0075735627
35	0x3df8ba71	0.12144936
36	0xbd265b1e	-0.04061424
37	0x3c6157f0	0.013753876
38	0xbe2f616b	-0.17127006
39	0xbcd7ac10	-0.026327163
40	0x3dfca045	0.123352565
41	0xbde0321c	-0.109470576
42	0x3dea5b4c	0.11443195
43	0x3dafb3a6	0.08579187
44	0x3e2585c1	0.16164304
45	0xbe1c09da	-0.15238133
46	0x3e3c1f58	0.18371332
47	0x3e42df57	0.1903051
48	0x3c117e4c	0.008880209
49	0xbe38727e	-0.18012425
50	0xbd048802	-0.03235627
51	0x3d9e4fbf	0.07730054
52	0x3cc16b3c	0.023610704
53	0xbe1dbdb5	-0.15404399
54	0x3da3cc9c	0.079980105
55	0x3cc8969b	0.024485877
56	0x3ca8896e	0.020573344
57	0x3e16e1e3	0.14734606
58	0x3dfb1e31	0.12261618
59	0xbe23590d	-0.15951939
60	0xbd3a1f8a	-0.045440234
61	0x3cc59b4e	0.024121907
62	0xbd99289e	-0.0747845
63	0x3d9495bd	0.07255123
64	0x3e3efd52	0.18651322
65	0xbe2dc9e6	-0.1697155
66	0x3ccef354	0.025262512
67	0xbd43bb2f	-0.047785934
68	0x3e17b55a	0.14815274
69	0xbd0bb402	-0.034107216
70	0xbd170ee1	-0.036879424
71	0xbe269849	-0.1626903
72	0x3e2df4df	0.16987942
73	0xbd1dd4e3	-0.038533103
74	0x3e3a21c9	0.1817695
75	0xbdb54eea	-0.08852942
76	0x3dbd9434	0.09256783
77	0xbe256106	-0.16150293
78	0x3e2130e8	0.15741313
79	0x3dd1b7eb	0.10240158
80	0x3e37f496	0.17964396
81	0x3da2f7bd	0.079574086
82	0x3d7a92e7	0.061175253
83	0xbdcbc140	-0.09948969
84	0x3c136af4	0.008997668
85	0x3c900b54	0.017583527
86	0xbe030410	-0.12794518
87	0x3db1f0cc	0.086885065
88	0x3d8284c2	0.06372978
89	0xbdf3062c	-0.118664116
90	0xbe30f451	-0.172807
91	0xbc1b7317	-0.009487889
92	0xbe1a82a1	-0.15088893
93	0xbcbae5a3	-0.022814577
94	0x3e02845a	0.127458
95	0xbe1be1aa	-0.15222803
96	0xbcf417fb	-0.029796591
97	0x3d7163dd	0.058933128
98	0xbd0f2d23	-0.034955155
99	0xbe1fcc85	-0.15605362
100	0x3e1305a9	0.14357628
101	0xbd8c7e4b	-0.06860026
102	0x3da583d4	0.08081785
103	0x3d8d7181	0.06906415
104	0xbd140bb7	-0.036143985
105	0xbcfa5d09	-0.03056194
106	0xbdc59973	-0.09648409
107	0x3df2930f	0.118444555
108	0xbe2c1bfd	-0.16807552
109	0xbe246377	-0.16053568
110	0xbda4d2e2	-0.08048035
111	0xbdb38f77	-0.08767598
112	0x3dd67299	0.104710765
113	0x3d9465b2	0.07245959
114	0xbd899536	-0.06717913
115	0xbe02a4b3	-0.1275814
116	0x3de7635d	0.11298249
117	0x3e3bc69a	0.18337479
118	0x3d56a7e2	0.0524062
119	0x3d5a4bac	0.053294823
120	0x3e02de00	0.12779999
121	0x3e00cb26	0.12577495
122	0xbd780e23	-0.060560357
123	0xbe0bd1dd	-0.13654275
124	0xbdbe8c7d	-0.0930414
125	0xbd1d1ecd	-0.038359452
126	0xbe48a278	-0.19593227
127	0xbc3b221f	-0.011421709
128	0xbe198c5c	-0.14994949
129	0x3dceaff6	0.10092156
130	0xbc85d2f7	-0.016335947
131	0xbe0a4708	-0.13503659
132	0xbd7010e5	-0.058609862
133	0xbc1d381b	-0.009595896
134	0x3d5799d4	0.052636936
135	0x3e1d63de	0.15370128
136	0xbdf71228	-0.1206401
137	0x3dc6dd6f	0.09710204
138	0x3c6421f9	0.013924115
139	0x3d550936	0.052010737
140	0xbe0d936a	-0.13825765
141	0x3e00d685	0.12581833
142	0x3e2254e2	0.15852693
143	0x3dd307d5	0.10304228
144	0xbe06d6be	-0.13167855
145	0x3d53a7c7	0.051673677
146	0xbbbc0c95	-0.0057388046
147	0xbadc84fe	-0.0016824303
148	0x3cb03ee9	0.021514373
149	0xbe2038d6	-0.15646681
150	0x3bd0172c	0.0063504186
151	0xbd708345	-0.05871894
152	0xbdbd71b6	-0.09250204
153	0x3e269fa9	0.16271843
154	0xbdb81ae8	-0.08989507
155	0x3e131110	0.14361978
156	0x3d661407	0.056171443
157	0x3d06f26b	0.03294603
158	0x3de5826b	0.11206516
159	0x3e242d73	0.16032963
160	0xbe44552b	-0.19173114
161	0x3e10f3aa	0.1415545
162	0xbcc2287b	-0.023700943
163	0x3e25113f	0.1611986
164	0x3d462b13	0.048380923
165	0xbd1ca3f1	-0.038242284
166	0xbd915621	-0.07096506
167	0xbcf34714	-0.029696979
168	0xbd514302	-0.051089294
169	0x3e440406	0.1914216
170	0xbdb83f1e	-0.08996414
171	0xbd38fc70	-0.04516262
172	0xbe00e685	-0.12587936
173	0x3e3c4d3b	0.18388836
174	0x3e0b6aa5	0.136149
175	0x3d112564	0.03543605
176	0xbd909573	-0.07059755
177	0x3ddc0c93	0.10744586
178	0xbe3766ad	-0.17910261
179	0xbc0bae8d	-0.008525503
180	0xbdfe1d75	-0.12407962
181	0xbd11dce5	-0.035611052
182	0xbe00e9e6	-0.12589225
183	0xbe18e47c	-0.1493091
184	0x3d813815	0.06309525
185	0x3dd24c11	0.10268415
186	0x3c49cb11	0.012316481
187	0x3e2946b9	0.16530885
188	0x3dc19f27	0.09454184
189	0x3df89bdc	0.12139103
190	0x3ccb833b	0.024842849
191	0xbdaeecab	-0.085412346
192	0xbe1fe60e	-0.15615103
193	0x3da6e61e	0.0814936
194	0xbdf34780	-0.11878872
195	0x3ca33609	0.019923227
196	0x3de9a16b	0.11407741
197	0xbda46a6f	-0.08028113
198	0x3c8356ae	0.016032543
199	0x3c5861af	0.013206883
200	0x3d7fd781	0.06246138
201	0x3c88536e	0.016641345
202	0x3d24284d	0.040077496
203	0x3e1113ac	0.1416766
204	0x3d022e9e	0.03178274
205	0x3ddbc06d	0.10730062
206	0x3c99187d	0.018688435
207	0x3e2285ea	0.15871397
208	0x3d4b9e21	0.04971135
209	0xbde5a20c	-0.112125486
210	0x3d482c12	0.048870154
211	0x3cdda301	0.027055265
212	0x3dcfe9db	0.10152026
213	0xbcb1b769	-0.021693902
214	0xbe47705c	-0.19476455
215	0x3db2f443	0.087379955
216	0xbcd9fe50	-0.026610523
217	0x3da271b1	0.07931841
218	0xbe38ccc9	-0.1804687
219	0xbdbdc4d1	-0.092660554
220	0xbd84687f	-0.064652435
221	0x3e04f6d9	0.1298479
222	0x3dff7052	0.12472595
223	0xbdf7ab1a	-0.12093182
224	0x3dcc138c	0.09964666
225	0xbc36b7a3	-0.011152181
226	0x3d80c227	0.062870316
227	0xbde4a2c4	-0.111638576
228	0xbdbbdcd4	-0.09172979
229	0x3e27faee	0.16404316
230	0x3ddd1e79	0.10796828
231	0xbe18af90	-0.14910722
232	0x3c183d4f	0.009291961
233	0xbe44872c	-0.19192189
234	0x3e1759a4	0.14780289
235	0xbdfbc3bb	-0.12293192
236	0xbe1eb8b2	-0.15500143
237	0xbc7c5de5	-0.015403246
238	0x3c54dab1	0.012991593
239	0x3d9e2ee4	0.077237874
240	0xbe03e20f	-0.12879203
241	0x3d3dbc88	0.046322376
242	0xbdbe67aa	-0.09297116
243	0x3de61435	0.11234323
244	0x3cdc72a3	0.026910132
245	0xbe170c72	-0.14750841
246	0xbdd30b78	-0.10304922
247	0xbcdab8da	-0.026699472
248	0xbdbc95a4	-0.09208229
249	0xbc53bf23	-0.0129239885
250	0xbd974547	-0.073862605
251	0x3deeefd4	0.11666837
252	0x3ceaf5f2	0.028681729
253	0x3e207db3	0.1567295
254	0xbe2fbf9c	-0.17162937
255	0xbda6e028	-0.08148223

body.2.weight f4 [256, 256]
0	0xbc61ae7b	-0.01377451
1	0x3c8dbb01	0.017301084
2	0xbc8dd9cb	-0.017315766
3	0xbcafa992	-0.021443162
4	0xbd2f3eb6	-0.042784415
5	0x3b28814e	0.0025711837
6	0xbb77a04d	-0.0037784756
7	0x3b119743	0.0022215403
8	0x3ca23d69	0.019804673
9	0xba6ee5f6	-0.00091132463
10	0x3d42652f	0.047459777
11	0xbc27a84f	-0.010232999
12	0x3cc8e90a	0.024525184
13	0x3d55093b	0.052010756
14	0xbd27b15a	-0.04094062
15	0xbd42cd99	-0.047559354
16	0x3ba6e389	0.0050930423
17	0x3b917767	0.0044392827
18	0xbcaba3ff	-0.020952223
19	0x3b27d815	0.0025610973
20	0xbceed56b	-0.0291545
21	0xbd607aac	-0.05480449
22	0xbd169642	-0.03676439
23	0xbce2624d	-0.027634764
24	0xbd0e93a1	-0.03480876
25	0xbbaca30a	-0.005268459
26	0x3c3836d5	0.011243542
27	0x3b0bceda	0.002133301
28	0xbd1c183d	-0.038109053
29	0xbd00c440	-0.03143716
30	0x3d42d819	0.047569368
31	0xbd5dcbc4	-0.054149404
32	0xbd0d0cc9	-0.03443602
33	0xbd691579	-0.056905244
34	0xbc1e488a	-0.009660849
35	0x3c6a3c97	0.014296672
36	0x3cf1b2fb	0.02950429
37	0xbaab812d	-0.0013084762
38	0x3d9bfa69	0.07616121
39	0x3d709f8f	0.058745917
40	0x3d7db94c	0.06194429
41	0xbd1ccab7	-0.03827926
42	0x3c965cc6	0.018354785
43	0xb93135aa	-0.00016900027
44	0xbd6bfe19	-0.057615373
45	0x3d5986c9	0.053107057
46	0xbd7215c9	-0.059102807
47	0xbda1f96f	-0.07908904
48	0x3d021499	0.031757925
49	0x3cab11e6	0.020882558
50	0x3d56c57b	0.052434426
51	0x3d984722	0.074354425
52	0x3cf39487	0.02973391
53	0xbcd30b75	-0.0257623
54	0xbcffad44	-0.03121055
55	0x3d039644	0.032125726
56	0xbccd1868	-0.025036052
57	0xbd859aff	-0.06523704
58	0xbd907730	-0.07053983
59	0x3d0c39c0	0.034234762
60	0xbd560e91	-0.052259985
61	0x3cb1a606	0.021685611
62	0x3d0a6cc8	0.033795148
63	0x3d2bbace	0.041926198
64	0xbc275eac	-0.010215443
65	0x3d3a9669	0.0455536
66	0x3bded91e	0.0068007847
67	0x3cd64709	0.02615692
68	0x3cd7e26e	0.026353087
69	0x3ca19e80	0.019728899
70	0x3d263592	0.040578432
71	0xbc9f74d7	-0.019464893
72	0xbd0d3426	-0.03447356
73	0xbcdd5c40	-0.027021527
74	0xbd85558a	-0.06510456
75	0x3a24a3d0	0.00062805135
76	0x3d36aff8	0.04460141
77	0xbcea6024	-0.028610297
78	0x3d3a68a1	0.04550994
79	0x3d6b5c2c	0.05746095
80	0x3c6d1078	0.0144692585
81	0x3cdd60e2	0.027023736
82	0x3d198878	0.037483662
83	0x3bc1e4a5	0.005917149
84	0x3d09d8f6	0.033654176
85	0xbc8885f9	-0.016665446
86	0xbcda9b8f	-0.026685504
87	0x3d404315	0.046938974
88	0xbca24067	-0.0198061
89	0x3d8e302c	0.06942782
90	0x3d855b32	0.06511535
91	0xbc899f18	-0.016799495
92	0x3d16bc4f	0.03680068
93	0x3d7509d2	0.05982382
94	0x3cbc2069	0.022964673
95	0xbcf32621	-0.029681267
96	0xbdac6d03	-0.0841923
97	0xbd05675e	-0.03256928
98	0x3c345268	0.011005975
99	0x3b8d6fa3	0.0043162866
100	0x3d63c486	0.05560734
101	0xbd4322ee	-0.047640733
102	0xbbc752da	-0.0060828747
103	0xbd2345d0	-0.0398615
104	0xbcd6bb5d	-0.026212389
105	0x3c0dc21f	0.008652239
106	0xbd1904b0	-0.037357986
107	0xbd29ae36	-0.041425906
108	0xbc71aee5	-0.014751171
109	0xbd2db9a0	-0.042413354
110	0x3d1fb7bc	0.038993582
111	0xb9a5df19	-0.00031637473
112	0x3d059f14	0.03262241
113	0xbc1568b0	-0.009119198
114	0x3c0079cf	0.007841541
115	0x3c5abf3e	0.01335126
116	0x3c7b6471	0.015343771
117	0x3b1da180	0.002405256
118	0x3be7889b	0.007065845
119	0x3ba9368f	0.0051639746
120	0xbc8e3f26	-0.017364096
121	0x3c8a1254	0.016854443
122	0x3b7763f8	0.0037748795
123	0x3d6b4e19	0.057447527
124	0xbc44d9c0	-0.012014806
125	0x3b906485	0.004406514
126	0xbc7146be	-0.014726339
127	0xbb9a34f6	-0.0047060205
128	0xbcd11c5e	-0.025526222
129	0x3c8e959c	0.017405324
130	0xbd6b2288	-0.05740598
131	0xbc8f32eb	-0.017480334
132	0xbcf828a2	-0.030292813
133	0xbd851386	-0.064978644
134	0x3d107132	0.0352642
135	0xbc6e3092	-0.014537947
136	0x3c8dae8f	0.01729515
137	0x3ccad15c	0.024758033
138	0xbc485153	-0.01222642
139	0x3c484b5a	0.012224996
140	0x3cc51644	0.024058469
141	0x3d6738df	0.05645072
142	0xbbb3fef9	-0.0054930416
143	0xbd72a48d	-0.05923896
144	0x3d8cde82	0.068783775
145	0xbca6ffc4	-0.02038563
146	0xbd824986	-0.0636168
147	0x3d66b6bb	0.05632661
148	0x3c9b6483	0.018968826
149	0x3d52104b	0.05128507
150	0x3b9f3409	0.004858498
151	0xbc8bdc08	-0.017072693
152	0x3d6d4fef	0.05793756
153	0x3b7cc8c4	0.0038571814
154	0xbda24014	-0.07922378
155	0xbce0d394	-0.027444638
156	0xbd155149	-0.036454473
157	0xbca93dde	-0.020659383
158	0xbd553571	-0.05205292
159	0xbd06ea59	-0.032938335
160	0xbd3bdaee	-0.045863084
161	0x3d3b338b	0.045703452
162	0x3d8e250a	0.069406584
163	0xbcbb6fbd	-0.02288043
164	0xbd4e3cd9	-0.050350998
165	0x3d4428c8	0.047890455
166	0x3d0d13a6	0.034442566
167	0x3d66628b	0.05624632
168	0xbc1bce82	-0.0095096845
169	0xbb805e07	-0.003917459
170	0x3cce2a0d	0.025166536
171	0xbcaeff2f	-0.021361915
172	0x3d5e5f66	0.054290198
173	0xbd4ca489	-0.0499616
174	0xbcd75aad	-0.026288355
175	0xbc88ad15	-0.016684094
176	0x3d19372b	0.037406128
177	0xbd1b1aff	-0.037867542
178	0x3c182032	0.00928502
179	0xbd4dbb94	-0.050227717
180	0xbca8b23b	-0.0205928
181	0x3ca1ff77	0.019775135
182	0xbd28d0c6	-0.041214727
183	0xbafb447b	-0.0019170189
184	0x3d30c30c	0.04315476
185	0x3c528e19	0.0128512615
186	0xbce4d117	-0.027931733
187	0xb878281c	-5.9165162e-05
188	0x3d6bdad2	0.05758173
189	0xbd17713b	-0.03697322
190	0x3d231d67	0.039822962
191	0xbd33d420	-0.04390347
192	0xbbea1759	-0.0071438965
193	0x3d2c1906	0.04201605
194	0xbd4f9e76	-0.05068823
195	0xbd100f7a	-0.03517101
196	0xbba0a65d	-0.0049026445
197	0xbd0d5996	-0.034509264
198	0x3d36c634	0.044622615
199	0xbc86c495	-0.01645116
200	0x3d36ece8	0.044659525
201	0xbd851534	-0.06498185
202	0x3d672057	0.056427326
203	0xbb74dc43	-0.0037362732
204	0xbd3541af	-0.044252094
205	0x3c7a3daa	0.015273491
206	0x3b89ad2f	0.0042015533
207	0x3bf447ad	0.0074548335
208	0x3c14c7fe	0.009080885
209	0x3c66dd62	0.014090868
210	0x3c0a0189	0.008423218
211	0xbcc14ac5	-0.023595223
212	0xbd74ec42	-0.059795626
213	0xbd7eaa8f	-0.062174376
214	0x3d7cdfb1	0.061736766
215	0x3c85185a	0.016246963
216	0xbd1a3730	-0.037650287
217	0xbc1693fa	-0.009190554
218	0x3d4a5d43	0.049405348
219	0xbd028250	-0.031862557
220	0x3d7bbf05	0.061461467
221	0x3d0e6b6f	0.034770425
222	0x3c9624ee	0.018328156
223	0xbd6c35c8	-0.057668477
224	0x3d98e314	0.07465187
225	0x3d90c874	0.070694834
226	0xbca5257b	-0.020159474
227	0xbc8b053f	-0.016970275
228	0x3d73e8f3	0.05954833
229	0xbcbdab28	-0.023152903
230	0xbd51d234	-0.051225856
231	0x3d2b78c1	0.041863207
232	0x3d008288	0.031374484
233	0xbd3f0f1c	-0.04664527
234	0x3bcbe428	0.0062222667
235	0x3caae1e2	0.020859662
236	0x3c81e727	0.015857292
237	0x3d38f1b1	0.04515237
238	0xbd2d9e2e	-0.04238718
239	0xbb5671da	-0.003272167
240	0xbd075b8d	-0.033046294
241	0x3ccc1f92	0.024917398
242	0x3d45f100	0.04832554
243	0x3cf0ebdd	0.029409343
244	0xbd8482d3	-0.06470265
245	0xbd56b656	-0.052419983
246	0xbd596b51	-0.05308086
247	0x3c7fec70	0.015620336
248	0x3d455a1a	0.04818163
249	0xbd24d474	-0.040241674
250	0x3d1f9b64	0.03896655
251	0x3d32e580	0.0436759
252	0xbce8a904	-0.028400905
253	0xbca55ae3	-0.02018494
254	0xbd2bb966	-0.041924857
255	0x3c37e176	0.011223188

body.2.bias f4 [256]
0	0xbcd1816f	-0.025574414
1	0xbd4cc80c	-0.049995467
2	0xbce7ea00	-0.028309822
3	0xbb3c6b32	-0.0028750417
4	0xbc8c2241	-0.017106177
5	0x3d63b511	0.0555926
6	0x3cc24402	0.02371407
7	0xbd49d790	-0.049277842
8	0x3d82dd3a	0.06389852
9	0xbcd9e3c0	-0.026597857
10	0xbd37f958	-0.044915527
11	0xbcc37dbb	-0.023863664
12	0xbbc85412	-0.0061135376
13	0xbd0543ba	-0.032535292
14	0x3ccad69e	0.02476054
15	0x3cf49933	0.029858207
16	0x3d3fe357	0.046847668
17	0x3d8016f2	0.062543765
18	0xbb635a5e	-0.0034691314
19	0xbc8c6141	-0.017136218
20	0xbce5d653	-0.0280563
21	0x3d185002	0.037185676
22	0x3d3e8b68	0.046519667
23	0xbcf9de18	-0.03050141
24	0x3c4730bc	0.012157615
25	0xbce5290a	-0.02797367
26	0xbc3d3345	-0.011547868
27	0x3d63f16e	0.055650167
28	0xbd14e62f	-0.036352333
29	0x3c9535de	0.018214162
30	0xbd12852d	-0.035771538
31	0x3c94736d	0.018121446
32	0xbd2787ce	-0.040900998
33	0x3cbf1e8d	0.023329997
34	0x3c6baa4c	0.014383864
35	0xbb963f0e	-0.0045851534
36	0xbc429474	-0.011876214
37	0x3cbb11d3	0.022835648
38	0x3d561281	0.05226374
39	0x3b2056a2	0.00244657
40	0xbc2fc83e	-0.010728894
41	0xbd56a725	-0.052405495
42	0xbc5835ae	-0.013196392
43	0x3c0b383c	0.008497294
44	0x3c2ef076	0.010677448
45	0xbbc2a76e	-0.0059403693
46	0xbd86b357	-0.06577175
47	0x3d68c109	0.056824718
48	0x3d9bd8eb	0.07609733
49	0xbbafd413	-0.0053658574
50	0xbd68802f	-0.05676287
51	0xbd26bf78	-0.040709943
52	0x3d58730a	0.052844085
53	0xbd4393b8	-0.047748297
54	0xbd2d2bf9	-0.042278264
55	0xbd2380d4	-0.039917782
56	0x3cf25dd0	0.029585749
57	0x3d3d5d5e	0.04623162
58	0x3d0da417	0.034580316
59	0x3cffec3a	0.031240571
60	0x3d050876	0.032478772
61	0x3d5925b3	0.05301447
62	0xbc69623f	-0.014244615
63	0xbd880e22	-0.066433206
64	0x3b54a99a	0.0032449723
65	0x3d26ad9c	0.04069291
66	0x3bfb2c00	0.0076651573
67	0xbc7be434	-0.015374232
68	0x3c9e8201	0.0193491
69	0x3c017773	0.007902014
70	0x3c8aba19	0.016934441
71	0xbba79d22	-0.0051151672
72	0x3d761d27	0.060086396
73	0x3c95a9f0	0.01826951
74	0x3d30c5c1	0.043157343
75	0xbd239eb3	-0.03994627
76	0xbd488afc	-0.04896067
77	0x3c7f22ae	0.015572233
78	0x3cb74492	0.022371564
79	0xbcee30dc	-0.029076032
80	0x3cdd4b6f	0.027013509
81	0x3cff98a0	0.031200707
82	0xbd14cd7e	-0.036328785
83	0x3d81e682	0.06342794
84	0xbd32f5c5	-0.043691415
85	0x3d281066	0.041031264
86	0xbd0c8bb3	-0.034312915
87	0x3b999bec	0.004687777
88	0xbcd407fb	-0.025882712
89	0xbcdd53ff	-0.027017592
90	0x3d52ee05	0.051496524
91	0xbd75c35f	-0.060000774
92	0x3c89e4e7	0.016832782
93	0x3c822603	0.015887266
94	0x3a6a6f33	0.00089429616
95	0x3d48321a	0.048875906
96	0xbcdfd871	-0.027324887
97	0x3d6592a8	0.056048065
98	0xbd3c7510	-0.046010077
99	0xbd00883e	-0.03137993
100	0xbd42e9b7	-0.04758617
101	0xba37abbc	-0.00070064864
102	0xbc41c67e	-0.011827109
103	0xbc646fd3	-0.013942677
104	0xbc4abe4a	-0.01237447
105	0xbcfdbd29	-0.030973988
106	0x3d4faf87	0.050704505
107	0xbd459229	-0.048235092
108	0x3d7ca5cb	0.06168155
109	0xbbf4a2d0	-0.007465698
110	0xbc83759e	-0.016047295
111	0x3d468e9c	0.048475847
112	0x3cd94df8	0.026526436
113	0x3cbd5665	0.023112485
114	0x3cc9f7d4	0.024654306
115	0x3c39061a	0.011292959
116	0x3cea9991	0.02863768
117	0xbc286a04	-0.010279182
118	0x3befc0f2	0.007316702
119	0x3b9682a6	0.004593211
120	0x3d1e4a63	0.03864516
121	0x3bfe9e3e	0.007770329
122	0xbbf7bdcc	-0.0075604673
123	0x3d6b8b9d	0.057506192
124	0x3c3d9251	0.011570529
125	0xbbd20762	-0.0064095715
126	0x3c14361b	0.009046103
127	0x3cb0eeff	0.021598337
128	0x3bbc75d2	0.00575135
129	0xbb9b2364	-0.0047344435
130	0xbcc861b5	-0.024460653
131	0xbc98c9a7	-0.018650843
132	0x3d28f59c	0.041249856
133	0x3b881ead	0.0041540475
134	0x3b940ecc	0.0045183655
135	0x3d727db7	0.059201922
136	0x3d6451e3	0.055742156
137	0xbd09ee3b	-0.03367446
138	0xbc2c3839	-0.010511451
139	0xbd59723a	-0.05308745
140	0xbd41bb93	-0.047298025
141	0xbcbdec7e	-0.023184057
142	0x3d3dd3b0	0.04634446
143	0xbbb33d29	-0.0054699373
144	0xbc844a06	-0.016148578
145	0x3d1f6ab0	0.038920105
146	0x3d72bf37	0.059264388
147	0x3b93b0ff	0.0045071836
148	0xbca29631	-0.019847007
149	0x3d06803b	0.032837134
150	0xbd6dcb7b	-0.058055382
151	0xbd242d52	-0.040082283
152	0xbcdc0ce4	-0.026861615
153	0xbc99135c	-0.01868599
154	0x3c1e5035	0.0096626775
155	0xbd1a68b7	-0.03769752
156	0x3d0d3739	0.034476493
157	0xbce83d97	-0.02834968
158	0xbc5251e9	-0.012836912
159	0x3d37b529	0.044850502
160	0x3d23bd90	0.039975703
161	0xbc8a7ed3	-0.016906178
162	0xbd02954f	-0.031880673
163	0x3cfb0ea4	0.03064663
164	0xbd1e0d41	-0.03858686
165	0xbc9c8d91	-0.019110473
166	0x3be9bb31	0.0071329107
167	0xbd0c1a9a	-0.034205057
168	0x3d5a495d	0.05329262
169	0xbd5cc360	-0.05389726
170	0x3ade9838	0.001698262
171	0x3cd79779	0.026317345
172	0x3d6a52ff	0.057208057
173	0xbcb01569	-0.021494584
174	0x3c5563ee	0.013024313
175	0xbd6ab584	-0.057302013
176	0xbd73ff74	-0.05956979
177	0xbd1776d6	-0.036978565
178	0x3d337341	0.043811087
179	0x3d586931	0.052834693
180	0x3c4f861f	0.012666254
181	0x3c3f4684	0.011674527
182	0xbd4f1bbc	-0.05056356
183	0xbd8136e1	-0.063092954
184	0x3d2e66b1	0.042578403
185	0xbd15ba71	-0.036554758
186	0x3a2a64e6	0.00065000204
187	0x3ca07b02	0.019589905
188	0x3d6c5c79	0.057705376
189	0x3c6d6cb0	0.014491245
190	0x3d74b848	0.059746057
191	0xbd7d89a6	-0.06189885
192	0xbce1fbb9	-0.027585851
193	0xbcab0da6	-0.020880532
194	0x3d382a05	0.044961948
195	0x3ac56c69	0.0015062216
196	0x3b495d10	0.0030725636
197	0xbd688de7	-0.056775954
198	0x3d57c732	0.0526802
199	0x3cf19273	0.029488778
200	0xbcada6fc	-0.021197788
201	0x3d53767c	0.051626667
202	0xbac04696	-0.0014669474
203	0x3d76678b	0.06015734
204	0x3d1115fe	0.035421364
205	0x3d2c5ec7	0.042082574
206	0xbd352869	-0.04422799
207	0xbcb826f6	-0.022479516
208	0x3d2516d1	0.040304963
209	0x3d2b1c8f	0.041775282
210	0xbd2c7e7c	-0.042112812
211	0x3d386e9c	0.04502736
212	0x3d4e136f	0.050311502
213	0x3d6b5c24	0.05746092
214	0x3c45519d	0.012043384
215	0xba89bf67	-0.0010509313
216	0xbd3d2c46	-0.0461848
217	0xbd745ea7	-0.05966058
218	0x3d6c48d6	0.05768665
219	0x3cdf3ad8	0.027249739
220	0xbd0a0bb8	-0.033702582
221	0x3d71649e	0.058933847
222	0xbd7dfc42	-0.06200815
223	0xbd30074b	-0.042975705
224	0xbc1f6ce7	-0.009730554
225	0xbd1d8e23	-0.03846563
226	0x3d571fd9	0.052520607
227	0xbd364b97	-0.04450568
228	0x3d540f43	0.051772367
229	0x3d3296a3	0.04360069
230	0xbce86e51	-0.028372915
231	0x3ce7d957	0.028301878
232	0x3d21a635	0.039465148
233	0xbd25c7cc	-0.040473744
234	0x3cbd956c	0.023142539
235	0x3c81496e	0.015782084
236	0x3d3b5748	0.045737535
237	0x3d01c47b	0.03168152
238	0xbd369a79	-0.04458091
239	0xbd0f7dde	-0.035032146
240	0x3ccdb8c3	0.025112515
241	0xbd66f59e	-0.056386583
242	0xbd091a89	-0.03347257
243	0x3bf6249e	0.0075116893
244	0x3d3d58cb	0.046227258
245	0x3bb376e0	0.0054768175
246	0xbcbc61e9	-0.022995906
247	0xbd6f904d	-0.058487225
248	0xbd7b6375	-0.061374146
249	0xbc58787f	-0.013212322
250	0xbd82e046	-0.06390433
251	0x3d0f61e6	0.035005473
252	0x3d178fab	0.037002247
253	0x3ce64878	0.028110728
254	0x3c9aadda	0.018881727
255	0xbc738122	-0.014862331

body.4.weight f4 [128, 256]
0	0xbc656127	-0.014000214
1	0x3b66e209	0.0035229942
2	0xbd3b90dd	-0.04579245
3	0x3d92e424	0.071724206
4	0xbc551ade	-0.013006894
5	0x39c4b4c1	0.00037518705
6	0x3d80ba8a	0.062855795
7	0x3d45028d	0.048098136
8	0x3c403a02	0.01173258
9	0xbd70c5cc	-0.058782384
10	0xbd782062	-0.060577758
11	0x3d5cace8	0.053875834
12	0xbcba0d90	-0.022711545
13	0xbd228d3e	-0.03968548
14	0x3b3cf8fc	0.002883493
15	0xbd3fd0c0	-0.04682994
16	0x3d4bf7c3	0.04979683
17	0x3d0f5d69	0.035001192
18	0x3c7bd16e	0.015369756
19	0xbbc00e4c	-0.0058610793
20	0xbc2202cb	-0.009888361
21	0xbcf88fd2	-0.030342016
22	0x3d01a922	0.03165544
23	0xbd627c95	-0.055294592
24	0xbc877e6d	-0.016539777
25	0x3a978701	0.001156062
26	0x3c5125bd	0.012765345
27	0x3d35c096	0.044373117
28	0xbd02a05f	-0.031891223
29	0xbb998a38	-0.0046856664
30	0xbc2ad565	-0.010426854
31	0xbba4fb52	-0.0050348425
32	0xbc3d9119	-0.0115702385
33	0x3da8e116	0.08246057
34	0x3aeac59f	0.0017911679
35	0x3cd9fc13	0.026609456
36	0x3c9f5747	0.019450797
37	0x3d01b4e9	0.03166667
38	0x3d2dff3b	0.042479735
39	0xbc5642e8	-0.013077475
40	0x3d30f384	0.043200985
41	0xbb803fc5	-0.003913852
42	0xbd8e41b7	-0.06946128
43	0x3cd7eb4e	0.02635732
44	0xbd75a249	-0.05996922
45	0xbc4125ff	-0.011788844
46	0xbcf1171e	-0.029429968
47	0x3d94b9ab	0.07261976
48	0xbcf366c7	-0.029712094
49	0x3cbd672e	0.023120489
50	0x3d2b837d	0.041873444
51	0xbd970099	-0.07373161
52	0x3d6233bf	0.05522513
53	0xbbb4d364	-0.005518364
54	0xbd0f063b	-0.03491805
55	0x3d1b3a21	0.037897233
56	0x3d39c555	0.045354206
57	0xbbdfc653	-0.006829062
58	0x3d4911ab	0.049089115
59	0xbcbf0061	-0.02331561
60	0x3d8896e0	0.06669402
61	0xbd125811	-0.035728518
62	0xbc0e5761	-0.008687825
63	0xbc085a68	-0.008322336
64	0x3c72d2fd	0.014820811
65	0xbd101d7d	-0.035184372
66	0x3d02e484	0.03195621
67	0x3ca623bb	0.02028071
68	0x3d7baf69	0.06144658
69	0xbc7d1cff	-0.015448808
70	0x3cc75bd8	0.024335787
71	0x3cf96332	0.030442808
72	0x3c7093c2	0.014683666
73	0x3b275a7b	0.0025536108
74	0xbcd04677	-0.025424225
75	0xbc5a33ad	-0.0133179845
76	0xbce4f4eb	-0.027948817
77	0xbd4cb6c8	-0.049979
78	0x3d54ed3e	0.051984064
79	0x3bdd3a2b	0.006751319
80	0x3d5cb1e9	0.053880606
81	0x3d02792e	0.031853847
82	0xbd31c850	-0.043403924
83	0xbd297f25	-0.04138102
84	0x3d670bc9	0.056407724
85	0x3c84c1f6	0.016205769
86	0x3d2c9234	0.042131618
87	0x3bacceff	0.0052736993
88	0xbd80b8ed	-0.06285272
89	0x3d8308db	0.063981734
90	0xbbd35541	-0.006449372
91	0xbd386fef	-0.045028623
92	0x3d0b778e	0.034049563
93	0xbc720f9e	-0.014774231
94	0x3cccf330	0.025018305
95	0x3b3d955c	0.0028928136
96	0xbce6fa77	-0.028195603
97	0xbb4817ce	-0.0030531767
98	0x3bb034d9	0.0053773937
99	0xbced1f55	-0.028945604
100	0xbd351227	-0.044206765
101	0x3c96a1f4	0.018387772
102	0xbd0671ee	-0.032823496
103	0x3d523b72	0.051326223
104	0xbcd8c8f6	-0.026463013
105	0x3d1b6c11	0.037944857
106	0xbd907b97	-0.07054823
107	0x3d6be26b	0.057588976
108	0x397666b3	0.00023498647
109	0x3ba93b89	0.005164568
110	0xbd21f772	-0.039542623
111	0xbb6d29ee	-0.0036188322
112	0x3d6f7f1b	0.058470827
113	0x3c9830b8	0.018577918
114	0xbd092fd4	-0.033492878
115	0xbd20a625	-0.039220948
116	0x3d7c3915	0.061577875
117	0x3d6d5b6e	0.057948522
118	0xbd189026	-0.037246846
119	0xbd4af292	-0.04954774
120	0xbd0a8c17	-0.033825006
121	0xbcaeb21f	-0.02132517
122	0xbb98e76b	-0.004666259
123	0x3d1dd79a	0.03853569
124	0x3d13826f	0.036013063
125	0x3c420f4e	0.011844469
126	0xbd4b6966	-0.049661063
127	0xbc8ca6c6	-0.017169368
128	0xbcfa08d5	-0.03052179
129	0xbd1f2867	-0.03885689
130	0xbcb8102e	-0.022468653
131	0xbcace683	-0.02110601
132	0x3d0d148f	0.034443434
133	0x3cd1abe4	0.02559466
134	0x3c7e6e68	0.015529253
135	0x3c20d805	0.009817128
136	0x3cc39552	0.023874912
137	0xbd558bc8	-0.05213526
138	0xbc9a282a	-0.01881798
139	0x3d9617f0	0.073287845
140	0x3cc52c23	0.024068898
141	0x3d0265a0	0.0318352
142	0x3cf615ef	0.030039756
143	0x3d4f8969	0.050668154
144	0xbd605694	-0.054770067
145	0x3d18fa19	0.037347887
146	0xbd19846e	-0.03747981
147	0xbba9a9ff	-0.005177736
148	0xbbffdaca	-0.007808064
149	0xbd74a1c8	-0.0597246
150	0xbc6e8b1d	-0.014559534
151	0xbcfeded1	-0.031112107
152	0x3d20a776	0.039222203
153	0x3d83e2f3	0.064397715
154	0xbcca21b8	-0.024674281
155	0x3d8462ec	0.0646418
156	0xbbb0dd13	-0.005397448
157	0xbd90e1d7	-0.070743255
158	0xbd22021f	-0.039552804
159	0x3c62ad9e	0.013835339
160	0xbc27835d	-0.010224191
161	0xbd2166a1	-0.039404515
162	0x3d0d1069	0.034439478
163	0xbd41c9c5	-0.047311563
164	0x3d08221a	0.033235647
165	0xbc773457	-0.015088162
166	0x3cb63bbf	0.022245286
167	0x3d05c74e	0.032660775
168	0x3c717f6a	0.014739851
169	0xbb8fba02	-0.0043861875
170	0x3b96f040	0.0046062768
171	0x3d5f79c8	0.0545595
172	0xbcca98c4	-0.024731047
173	0xbcac7929	-0.021053867
174	0x3d347958	0.044061035
175	0xbcd82765	-0.026385972
176	0x3d1559d8	0.036462635
177	0x3d564512	0.052311964
178	0xbd42171f	-0.04738533
179	0xbd6049b1	-0.054757778
180	0xbceb674a	-0.028735776
181	0x3cd95398	0.026529118
182	0xbd037475	-0.032093484
183	0x3d5691a4	0.052384987
184	0x3cf7f295	0.03026704
185	0x3c87604b	0.016525408
186	0x3baf10f0	0.0053425953
187	0x3d3178e3	0.043328177
188	0x3d046daa	0.032331146
189	0xbcb75244	-0.022378094
190	0x3c87ecf5	0.016592482
191	0xbd0a62ef	-0.033785757
192	0xbb39f2d9	-0.0028373508
193	0x3d4c6b3a	0.049906947
194	0x3d2bea0c	0.04197125
195	0xbd3d1744	-0.046164766
196	0x3d07bf79	0.033141587
197	0x3d31a7b2	0.043372817
198	0xbca6b199	-0.020348357
199	0x3bae2d2e	0.0053154444
200	0x3d528f80	0.051406384
201	0x3cdfe3ca	0.027330298
202	0x3ca5ff8a	0.020263452
203	0xbd278fa4	-0.04090847
204	0x3c57085b	0.013124551
205	0x3d8f3d6f	0.069941394
206	0xbc139206	-0.009006983
207	0x3c75020b	0.0149541
208	0x3d8d6e31	0.06905783
209	0x3bf7b43b	0.007559327
210	0xbcf77abf	-0.030209897
211	0x3d2c479a	0.042060472
212	0x3c675256	0.0141187515
213	0xbd4fc2f6	-0.05072304
214	0x3cd2b602	0.025721554
215	0x3c353cb4	0.011061836
216	0x3d674d40	0.056470156
217	0xbd2fe3a2	-0.042941697
218	0xbb95140d	-0.0045495094
219	0xbbc8085d	-0.0061045126
220	0xbcdcdd04	-0.026960857
221	0xbd622143	-0.055207502
222	0xbd2e3b8e	-0.042537265
223	0x3d6883fb	0.05676649
224	0xbb0a8067	-0.0021133663
225	0x3c69e58a	0.014275918
226	0xbc3d3ab3	-0.0115496395
227	0x3cabfa43	0.020993358
228	0x3d518a47	0.051157262
229	0xbcc180d5	-0.023621002
230	0x3d37f3b8	0.044910163
231	0x38c60042	9.441424e-05
232	0xbd27114b	-0.040787976
233	0x3d235c0c	0.039882705
234	0xbd00926c	-0.03138964
235	0x3c7a4922	0.015276225
236	0x3cdbb34f	0.0268189
237	0x3c092ce1	0.008372516
238	0xbc890626	-0.016726565
239	0x3d194fc9	0.037429605
240	0x3d3f9fa5	0.04678311
241	0x3cd9e11a	0.026596595
242	0xbd159ee6	-0.03652849
243	0xbb3e6362	-0.0029050936
244	0xbcf492fb	-0.029855242
245	0x3d2caf6e	0.04215949
246	0xbd46fbbb	-0.048579913
247	0x3c2b3e81	0.010451914
248	0xbcfc6131	-0.030808063
249	0x3cf788d5	0.030216614
250	0xbd1362e5	-0.035982985
251	0xbceb5aaf	-0.028729765
252	0x3bc47fe6	0.005996692
253	0xbd18676f	-0.037208017
254	0x3c104832	0.008806275
255	0x3d0a21db	0.033723693

body.4.bias f4 [128]
0	0x3d33c809	0.04389194
1	0xbc886bf8	-0.016653046
2	0x3a922e0f	0.0011152643
3	0x3d001a42	0.03127504
4	0x3c1c508c	0.009540688
5	0x3d674890	0.056465685
6	0xbc3c42c3	-0.011490527
7	0x3cf9ffc8	0.030517474
8	0x3cc7a7a8	0.024371937
9	0x3d741c60	0.059597373
10	0xbc726282	-0.014793994
11	0xbd19c419	-0.03754053
12	0xbcc62d5b	-0.024191549
13	0x3cb8c1df	0.022553382
14	0xbd18717d	-0.037217606
15	0x3c8cf92e	0.017208662
16	0x3ccf76ca	0.025325198
17	0xbcd2718e	-0.025688913
18	0x3c9b0c9b	0.01892691
19	0xbd3aa826	-0.045570515
20	0x3cb16c75	0.021658162
21	0x3b8dadaa	0.004323681
22	0x3d04a834	0.032386974
23	0xbd5150dc	-0.051102504
24	0xbd51b85f	-0.05120122
25	0xbd4b3d64	-0.049619094
26	0x3d185a1b	0.037195306
27	0x3d474fec	0.048660204
28	0xbd042dda	-0.03227029
29	0xbcae2020	-0.021255553
30	0xbd15dcd4	-0.03658755
31	0x3bd95be4	0.0066332687
32	0xbd498181	-0.04919577
33	0x3c8e4d72	0.017370913
34	0x3cb70e04	0.02234555
35	0x3d308a0e	0.04310041
36	0x3d98e787	0.07466035
37	0xbc5a6071	-0.0133286575
38	0x3ccd2b7f	0.025045155
39	0xbd1255c8	-0.03572634
40	0xbd32a16a	-0.043610968
41	0xbc3a8864	-0.011385057
42	0xbd501618	-0.05080232
43	0x3d7f20c4	0.062287107
44	0x3ada80ea	0.00166705
45	0x3d29c616	0.041448675
46	0x3a75ddbf	0.0009379051
47	0x3d363d43	0.044492017
48	0xbd1906b6	-0.037359916
49	0xbcd8835c	-0.026429825
50	0xbca68582	-0.020327333
51	0x3cbefd70	0.023314208
52	0xbd355ffc	-0.04428099
53	0xbc98a913	-0.018635308
54	0xbd18be51	-0.037290875
55	0xbd7c384b	-0.061577123
56	0xbd781a4c	-0.060571954
57	0xbb8d9762	-0.0043210248
58	0x3d50a01e	0.05093395
59	0x3befcd16	0.0073181493
60	0x3cf49b1a	0.029859114
61	0xbc9f8a14	-0.01947502
62	0x3c4e4a72	0.012590991
63	0xbb9c23aa	-0.0047649937
64	0xb9e98804	-0.00044542563
65	0xbd15a7b8	-0.036536902
66	0xbbbccdcd	-0.005761838
67	0xbd6089bc	-0.054818854
68	0xbd46047d	-0.048344124
69	0x3c39fa6e	0.011351211
70	0x3d1e8f72	0.03871102
71	0x3d29923d	0.04139923
72	0xbd43e35c	-0.04782425
73	0x3c4b8cbb	0.0124236895
74	0x3d5abaa9	0.05340067
75	0x3cc01e60	0.023451984
76	0xbcd65e9e	-0.026168164
77	0x3cbf4cdf	0.023352085
78	0x3d033c63	0.03204001
79	0x3d0e6f6e	0.034774236
80	0x3b414edc	0.0029496467
81	0xbd4fb6d0	-0.050711453
82	0x3c9b11f2	0.018929455
83	0x3d6d0ba8	0.057872444
84	0xbbd97da0	-0.00663729
85	0xbd6046ba	-0.05475495
86	0xbcb52180	-0.0221107
87	0x3c35a95b	0.011087741
88	0x3ceb40d2	0.028717432
89	0xbc9209a8	-0.01782687
90	0xbd558866	-0.052132033
91	0x3c7555f7	0.014974109
92	0xbb195f57	-0.0023402774
93	0xbd073884	-0.033012882
94	0xbb427d25	-0.0029676643
95	0x3ca540f6	0.020172577
96	0xbc344916	-0.011003753
97	0xbd3c792e	-0.046014003
98	0x3d8b80e0	0.0681169
99	0xbc499f2e	-0.012306018
100	0x3d17e90c	0.037087485
101	0x3d6d5112	0.057938643
102	0xbd5a6d94	-0.053327158
103	0xbd023987	-0.031793144
104	0x3c9a68e4	0.018848844
105	0x3d30136b	0.04298727
106	0xbcac221d	-0.02101236
107	0x3d80aaf9	0.062826104
108	0x3d70d52b	0.058797043
109	0xbd16516a	-0.036698736
110	0xbd150716	-0.03638371
111	0xbc91a12e	-0.017777052
112	0xbcfd760b	-0.030940076
113	0x3d129d9d	0.035794843
114	0xbaf05bf5	-0.0018337952
115	0xbca71279	-0.02039455
116	0xbc8ba6da	-0.017047334
117	0x3d2257ea	0.039634623
118	0xbcbeb1b6	-0.023278099
119	0xbcfa18c3	-0.030529385
120	0x3cff565a	0.031169105
121	0x3cabd61c	0.020976119
122	0x3d2c0af9	0.04200265
123	0x3ccb810f	0.024841813
124	0x3b9b6d88	0.0047432818
125	0x3d604336	0.054751597
126	0xbd13d684	-0.03609325
127	0x3d16eed2	0.03684885

move_head.weight f4 [5, 128]
0	0x3bb6e6d2	0.005581715
1	0xbcc74751	-0.024325998
2	0xbd989e96	-0.07452123
3	0x3da4cefd	0.080472924
4	0xbd7beb8c	-0.061503932
5	0xbd026eb1	-0.031843845
6	0x3cc410eb	0.023933848
7	0xbb48e62c	-0.0030654771
8	0x3d93ba52	0.07213272
9	0x3d45d1da	0.048295833
10	0xbd8df7e9	-0.06932051
11	0xbd9f1556	-0.077677414
12	0x3d6539f5	0.055963475
13	0x3b068e7c	0.0020531705
14	0x3d8dc6eb	0.06922706
15	0xbbab0230	-0.0052187666
16	0xbcbc0097	-0.0229495
17	0xbd8d3eee	-0.068967685
18	0xbd561036	-0.052261554
19	0xbda0c6d4	-0.078504235
20	0x3d467c11	0.048458163
21	0x3d58d5fd	0.05293845
22	0xbd7e9b18	-0.062159628
23	0xbd8dedd5	-0.069301285
24	0xbd52c085	-0.051453132
25	0xbd890919	-0.06691188
26	0x3d6b1122	0.057389386
27	0xbbf5d9d6	-0.0075027747
28	0x3d82266c	0.06354985
29	0x3cc8c30c	0.024507068
30	0xbd99ba25	-0.075062074
31	0xbd2ddecc	-0.042448804
32	0x3c8f227c	0.017472498
33	0x3d95a7a4	0.073073655
34	0x3becea90	0.0072301105
35	0xbda8b3ec	-0.082374424
36	0x3db577aa	0.08860715
37	0xbd151796	-0.036399446
38	0x3d91b688	0.07114893
39	0x3c99a29a	0.018754292
40	0xbda96c54	-0.08272615
41	0xbb444e20	-0.0029953793
42	0xbd2776bc	-0.04088472
43	0x3c2d16aa	0.010564486
44	0x3d9219ca	0.07133825
45	0x3c113b04	0.008864168
46	0x3d41e14f	0.04733401
47	0x3cf6c738	0.030124292
48	0x3bb5ccd1	0.0055480977
49	0x3d99cb6e	0.07509504
50	0xbc4fdb0e	-0.012686504
51	0x3c5f7c4f	0.013640477
52	0xbc2f9850	-0.0107174665
53	0x3d8bc0be	0.06823872
54	0x3b57c54e	0.0032924
55	0xbd181ab4	-0.03713484
56	0xbd5feef2	-0.054671235
57	0xbd1a2a4b	-0.03763799
58	0xbc94baab	-0.018155416
59	0xbc54ec6e	-0.012995822
60	0x3d9d93f9	0.07694239
61	0xbd13a0b4	-0.03604193
62	0xbd7e5a41	-0.06209779
63	0xbccf7b8d	-0.025327468
64	0x3d066351	0.03280956
65	0xbd01b135	-0.03166314
66	0xbcc171fe	-0.023613926
67	0xbd105097	-0.035233106
68	0xbd773092	-0.060349055
69	0x3c9be052	0.019027863
70	0xbcc365ce	-0.023852255
71	0xbd54f134	-0.05198784
72	0x3d0837f0	0.03325647
73	0x3d82634f	0.06366598
74	0x3cdb9ac0	0.026807189
75	0xbdb98f3b	-0.09060522
76	0xbc6c7a0b	-0.014433394
77	0xbd50941e	-0.050922506
78	0xbda02b1a	-0.07820721
79	0xbd8d4fc4	-0.0689998
80	0x3db7e1a9	0.08978588
81	0x3ceca7f6	0.028888684
82	0xbd92c262	-0.07165982
83	0x3d078913	0.03308971
84	0x3daad2e3	0.08341005
85	0xbbd88d8f	-0.006608672
86	0x3d92db02	0.07170679
87	0xbd052800	-0.03250885
88	0xbd8cc45c	-0.0687339
89	0x3d8ac844	0.06776479
90	0x3da46a5c	0.08028099
91	0xbd3ab457	-0.04558214
92	0xbd278bfe	-0.04090499
93	0xbdb38d14	-0.08767143
94	0xbd11dc8e	-0.035610728
95	0x3a56393c	0.0008171981
96	0x3c809069	0.01569386
97	0x3cf96d14	0.03044752
98	0x3d8bdf52	0.06829704
99	0x3cf0e2d7	0.02940504
100	0xbd903038	-0.07040447
101	0x3d7128f1	0.058876935
102	0x3cd7ff40	0.02636683
103	0xbd973ac9	-0.07384259
104	0xbd99da70	-0.07512367
105	0xbd967c89	-0.07347972
106	0xbda119a1	-0.078662165
107	0x3d6ea64f	0.058264073
108	0xbd4cec92	-0.0500303
109	0xbd06f284	-0.032946125
110	0x3d2d6f2d	0.042342354
111	0xbc1914ef	-0.00934337
112	0x3cab7628	0.020930365
113	0x3da62a53	0.081135415
114	0x3cc1463f	0.023593066
115	0x3d7aac71	0.06119961
116	0x3d54f20e	0.051988654
117	0xbd81916a	-0.06326564
118	0x3dca0f4a	0.098661974
119	0xbba126c5	-0.0049179518
120	0xbd168c6b	-0.036755007
121	0x3d6988a7	0.057015087
122	0xbd357e2b	-0.044309776
123	0xbd7e3541	-0.062062506
124	0x3b9aa314	0.0047191475
125	0xbda2bbd7	-0.07945984
126	0xbd9bc506	-0.076059386
127	0xbd0b26c7	-0.033972528
128	0xbd99c094	-0.075074345
129	0xbd98bead	-0.074582435
130	0xbcd3eb40	-0.025869012
131	0xbd838b6c	-0.06423077
132	0x3d69ec85	0.05711033
133	0xbda21ecc	-0.0791603
134	0x3d12a077	0.035797562
135	0xbd145a1e	-0.036218755
136	0xbd0b0d8f	-0.033948477
137	0xbdac75a0	-0.08420873
138	0x3d920004	0.07128909
139	0xbd9a9067	-0.07547074
140	0xbd27ed13	-0.040997576
141	0xbd9020c7	-0.07037502
142	0xbd5f37c6	-0.05449655
143	0xbb1c0213	-0.0023804947
144	0x3d8acb72	0.06777085
145	0x3b93ebaf	0.0045141797
146	0xbd8f3d56	-0.06994121
147	0x3d5d0175	0.053956468
148	0xbd9af5f7	-0.07566445
149	0xbcd20138	-0.025635347
150	0xbd9356cf	-0.07194292
151	0x3da07903	0.07835581
152	0x3d46e019	0.04855356
153	0x3c97ef82	0.018546823
154	0x3db75ec8	0.08953625
155	0x3d9652a2	0.0733998
156	0xbd1de87f	-0.038551804
157	0x3d813eb9	0.063107915
158	0xbcbbeed2	-0.022941027
159	0x3c13829b	0.009003307
160	0xbda3b48f	-0.07993423
161	0x3d4a2071	0.049347345
162	0xbd5bb73e	-0.05364155
163	0x3da97c20	0.08275628
164	0x3dabf64b	0.08396586
165	0xbd506fd9	-0.050887916
166	0xbd94d5ec	-0.07267365
167	0x3ce3f222	0.027825419
168	0x3dc4a1b1	0.09601153
169	0x3d21b5d9	0.039480064
170	0xbd44efae	-0.04808014
171	0xbd45ca41	-0.048288587
172	0x3d08cd98	0.033399194
173	0x3ca09474	0.019602038
174	0x3cda4c4e	0.026647713
175	0x3cd6f748	0.02624096
176	0x3d7ae414	0.06125267
177	0x3c917e48	0.01776041
178	0xbd89fa6e	-0.06737219
179	0xbce109ce	-0.027470496
180	0xbc8f19ef	-0.01746842
181	0x3d913069	0.07089312
182	0x3d9a0c35	0.075218596
183	0x3bac90ae	0.0052662706
184	0x3d5cb3e4	0.053882495
185	0xbcc4f47e	-0.024042364
186	0xbd9ea06b	-0.07745441
187	0xbd621dba	-0.05520413
188	0xbd978c6e	-0.07399832
189	0x3c85aef8	0.016318783
190	0xbdd9ce4b	-0.106350504
191	0xbd7a569a	-0.061117746
192	0xbd94f6bb	-0.072736226
193	0x3c0ebe8d	0.008712423
194	0xbdc93a27	-0.09825545
195	0xbda0e92b	-0.07856973
196	0xbd441468	-0.047871023
197	0xbd133dae	-0.035947494
198	0x3d191f81	0.03738356
199	0x3d5528de	0.052040927
200	0xbd0a15ca	-0.033712186
201	0x3c684999	0.014177703
202	0xbda18022	-0.078857675
203	0x3db02341	0.08600474
204	0xbcc0ef15	-0.023551503
205	0xbd9a6000	-0.07537842
206	0x3d67a525	0.05655398
207	0x3dc4d524	0.09610966
208	0xbd2ccc5a	-0.042187072
209	0xbd47a365	-0.04873981
210	0x3d161201	0.036638264
211	0x3cfcdf70	0.030868262
212	0x3d546407	0.051853206
213	0x3d36dd45	0.044644613
214	0xbd1b6f7a	-0.03794811
215	0xbd9223b1	-0.07135714
216	0x3c4b796c	0.012419086
217	0xbc238167	-0.009979582
218	0x3cca6fe1	0.024711551
219	0xbcf0a441	-0.029375197
220	0x3d00797d	0.03136586
221	0xbd5dba62	-0.054132827
222	0xbd48554b	-0.048909467
223	0x3d67f4f4	0.05663009
224	0x3cbfd2b1	0.023415895
225	0xbd64fb5d	-0.05590378
226	0x3db07a1f	0.08617043
227	0x3aea6a67	0.0017884494
228	0xbced750e	-0.02898648
229	0xbce0c019	-0.02743535
230	0x3be50d4d	0.006990111
231	0x3c6d2afd	0.014475581
232	0xbd5595a7	-0.052144673
233	0x3d1e1fae	0.03860443
234	0x3b53ba56	0.003230711
235	0xbd5aa076	-0.053375684
236	0x3db771e6	0.08957271
237	0x3d9eed8c	0.07760152
238	0x3cb82c18	0.022481963
239	0x3d9a88b2	0.07545604
240	0x3d9b0b1b	0.075704776
241	0xbd1b7781	-0.037955765
242	0xbd188d84	-0.037244335
243	0xbd138004	-0.036010757
244	0x3bb67e6a	0.005569269
245	0xbd9daf14	-0.07699409
246	0x3d9fbfa4	0.078002244
247	0x3c3792f6	0.011204472
248	0xbc866fa1	-0.01641065
249	0xbd91cd1e	-0.07119201
250	0xbbabeec0	-0.005246967
251	0x3c1f35b0	0.00971739
252	0xbda98b23	-0.08278491
253	0xbd81eab0	-0.06343591
254	0x3d636a68	0.0555214
255	0xbca7f5fb	-0.020503035

move_head.bias f4 [5]
0	0x3d1654b5	0.036701877
1	0xbd9b81d3	-0.075931214
2	0xbd8921fe	-0.066959366
3	0x3d33b3dc	0.0438727
4	0x3cfb7700	0.030696392
