checkpoints/simple_world_comm_v3_transfer/simple_world_comm_v3_adversary_0_ep1125.pt (torch, 437325 bytes, 8 tensors)

body.0.weight f4 [256, 34]
-0.09666474 -0.07666682 0.07661548 -0.072423376 -0.093290046 -0.13348696 0.059525058 0.043982185
0.09113489 0.100228354 -0.14215526 -0.097806066 0.06931145 0.031037178 0.16661532 -0.10083085
0.15140529 -0.15972464 -0.08446585 0.120315894 0.034256674 -0.12271929 0.01169558 0.08277687
0.09572119 -0.12444652 -0.03849081 -0.002747278 0.08816607 0.00792293 -0.013507449 -0.058292434
0.16006887 0.12523988 -0.16156034 -0.012491631 0.015342327 -0.08084488 0.17987843 0.029830875
-0.061390776 -0.009952049 -0.14409898 0.094489835 0.022336965 0.024282062 0.20198981 -0.14060262
-0.12312668 0.065148205 0.0170601 -0.019116687 0.17084886 -0.043855455 0.17943814 -0.14654669
-0.027327377 0.048370022 -0.077192985 0.17004478 -0.07138817 -0.04274149 0.09001912 -0.11799796
-0.15668492 0.06300902 -0.097791076 -0.14398742 -0.15403561 0.104863785 -0.04155103 -0.15419461
0.12978734 0.07247572 0.14387539 -0.14932095 -0.121148705 -0.07761548 0.16914071 -0.034990355
0.03636239 -0.03703589 0.06431833 0.074056216 0.0925171 -0.035888694 -0.097072355 -0.018682659
-0.12574977 -0.15820493 0.17805396 -0.026353527 0.097230576 -0.13518248 0.034918662 -0.06193344
0.07769768 -0.14863627 0.123221636 -0.054453287 0.1782911 0.0581407 -0.12828815 -0.110843636
-0.038468182 -0.038707577 0.11355694 0.0109444605 0.14224045 0.032783728 0.0055409875 0.1542873
-0.030534895 0.028744275 -0.1363786 0.15761346 0.13572364 0.17213468 0.13121863 0.11783484
-0.0556521 -0.008365055 0.15727596 0.07761045 -0.1394573 -0.047012676 0.0040943893 -0.060238063
-0.006265098 0.047469337 0.051735196 0.120186605 0.1614806 -0.12140427 0.005536049 0.11339762
-0.005562309 0.13351749 0.11499987 -0.15736231 0.088303536 0.13569893 0.047623117 -0.0038307612
0.016427845 -0.04183104 -0.081103034 -0.05417896 -0.015397076 0.056605507 0.060423054 0.022905106
-0.108956195 -0.0086032925 0.031533077 0.039389316 0.17366351 -0.13319933 0.04166171 -0.060239248
0.0043597603 -0.11512242 -0.16374655 0.10144899 -0.004626103 -0.09759629 0.10727285 0.084696904
0.08720361 0.15863642 0.065755986 -0.043838378 0.11533881 -0.11473643 0.081358105 0.011773022
-0.03539623 0.0017326794 -0.15989806 -0.16024365 -0.16372673 0.18008617 -0.1324954 0.008142044
-0.087834254 0.12273609 -0.1520907 -0.08205509 0.13056573 0.07050718 -0.16949767 -0.064317636
0.037589844 -0.009103298 0.09053532 -0.099087894 -0.012136069 -0.1897837 0.018485386 -0.14383946
0.046280768 0.053449012 0.11230709 -0.07186127 0.08461312 -0.07710964 -0.054257095 0.08623487
-0.050612584 0.18271905 0.02410362 0.035689175 -0.1037853 -0.13697796 0.15233797 0.18249205
0.08104542 -0.017479297 -0.05118119 -0.15906769 -0.040952254 0.020295743 -0.021300176 -0.058896165
-0.060561042 0.094632074 -0.14538148 -0.06042645 -0.11018246 -0.09172748 -0.13804053 -0.053506177
0.009422106 -0.07630421 -0.15327254 -0.116794005 0.054708105 0.15696466 -0.11088855 0.13792811
-0.12890723 -0.056676354 0.16304271 -0.11939706 0.16881438 -0.120518684 -0.04933709 -0.06353596
0.09739172 -0.11635033 0.05764044 0.03679276 0.13693629 0.15434834 -0.10564716 0.028717294
00000000: 2af8 c5bd 7e03 9dbd 94e8 9c3d b552 94bd
00000010: da0e bfbd ceb0 08be 8cd0 733d aa26 343d
00000020: eea4 ba3d 8644 cd3d 2691 11be 8c4e c8bd
00000030: 29f3 8d3d ae41 fe3c 359d 2a3e 6880 cebd
00000040: fd09 1b3e db8e 23be 6efc acbd 2e68 f63d
00000050: ba50 0c3d 4054 fbbd d19e 3f3c eb86 a93d
00000060: 7909 c43d d1dd febd 8aa8 1dbd ad0b 34bb
00000070: 6a90 b43d 2dcf 013c 594e 5dbc 0cc4 6ebd
00000080: 18e9 233e e23e 003e 1370 25be b3a9 4cbc
00000090: 625e 7b3c 0092 a5bd 0d32 383e e15f f43c
000000a0: e574 7bbd eb0d 23bc af8e 13be e383 c13d
000000b0: 03fc b63c 2deb c63c 6bd6 4e3e 22fa 0fbe
000000c0: d729 fcbd 6c6c 853d 9fc1 8b3c 999a 9cbc
000000d0: 01f3 2e3e c7a1 33bd a2be 373e 5610 16be
000000e0: aadd dfbc a51f 463d 5b17 9ebd 3820 2e3e
000000f0: f633 92bd b311 2fbd f25b b83d eaa8 f1bd
00000100: 0372 20be e00a 813d b046 c8bd 7071 13be
00000110: 83bb 1dbe d3c2 d63d 6a31 2abd 31e5 1dbe
00000120: f9e6 043e 266e 943d 1254 133e 97e7 18be
00000130: d01c f8bd ddf4 9ebd 3933 2d3e 0c52 0fbd
00000140: bbf0 143d f2b2 17bd 54b9 833d c9aa 973d
00000150: 9b79 bd3d 0600 13bd dfcd c6bd 600c 99bc
00000160: 8cc4 00be 7900 22be c753 363e 5ae3 d7bc
00000170: d320 c73d 476d 0abe df06 0f3d ebad 7dbd
00000180: f61f 9f3d 1b34 18be a05b fc3d 690a 5fbd
00000190: f191 363e f124 6e3d f85d 03be fd01 e3bd
000001a0: d090 1dbd d68b 1ebd 8a90 e83d 6550 333c
000001b0: 7ba7 113e 3b48 063d 2c91 b53b 7dfd 1d3e
000001c0: 5124 fabc 1d79 eb3c d5a6 0bbe 6c65 213e
000001d0: 23fb 0a3e 1344 303e 2d5e 063e 6553 f13d
000001e0: 75f3 63bd 950d 09bc f30c 213e 3af2 9e3d
000001f0: e5cd 0ebe 5d90 40bd 3a2a 863b 30bc 76bd
00000200: 744b cdbb 356f 423d 49e8 533d 6524 f63d
00000210: 2c5b 253e cda2 f8bd bf67 b53b 033d e83d
00000220: 0844 b6bb cfb8 083e 0d85 eb3d 9623 21be
00000230: 7cd8 b43d a9f4 0a3e 7510 433d 820d 7bbb
00000240: b093 863c 0657 2bbd 5919 a6bd c2ea 5dbd
00000250: 0444 7cbc 2ddb 673d 2a7e 773d 7da3 bb3c
00000260: 6d24 dfbd d3f4 0cbc d428 013d b156 213d
00000270: d9d4 313e 6865 08be 78a5 2a3d 6ebd 76bd
00000280: 52dc 8e3b 4ec5 ebbd 2dad 27be 7dc4 cf3d
00000290: 9196 97bb 90e0 c7bd deb1 db3d 9275 ad3d
000002a0: ce97 b23d 9671 223e 13ab 863d df8f 33bd
000002b0: c136 ec3d effa eabd 149f a63d a2e3 403c
000002c0: a3fb 10bd 131b e33a 51bc 23be e916 24be
000002d0: fba7 27be 8268 383e e0ac 07be 3566 053c
000002e0: 72e2 b3bd 0f5d fb3d aabd 1bbe 800c a8bd
000002f0: 06b3 053e 1266 903d cc90 2dbe f7b8 83bd
00000300: cff7 193d 0026 15bc 956a b93d 98ee cabd
00000310: 5dd6 46bc a956 42be aa6e 973c a74a 13be
00000320: e790 3d3d 5aed 5a3d 4201 e63d 002c 93bd
00000330: a549 ad3d a9eb 9dbd b03c 5ebd e89b b03d
00000340: 244f 4fbd b41a 3b3e f474 c53c d02e 123d
00000350: 638d d4bd f343 0cbe 7cfe 1b3e 32df 3a3e
00000360: 24fb a53d be30 8fbc 5ea3 51bd a4e2 22be
00000370: 8dbd 27bd 4243 a63c b57d aebc 1b3d 71bd
00000380: db0e 78bd 76ce c13d e2de 14be ba81 77bd
00000390: 57a7 e1bd 9edb bbbd 7f5a 0dbe 4b29 5bbd
000003a0: 2d5f 1a3c 6245 9cbd 7af3 1cbe b231 efbd
000003b0: 9b15 603d 58bb 203e 8919 e3bd 073d 0d3e
000003c0: 4200 04be 7725 68bd abf4 263e 7286 f4bd
000003d0: addd 2c3e 80d2 f6bd b015 4abd 241f 82bd
000003e0: 4f75 c73d 1549 eebd 6218 6c3d 01b4 163d
000003f0: 0739 0c3e 7e0d 1e3e 8a5d d8bd 8840 eb3c

body.0.bias f4 [256]
-0.043863498 -0.13160077 0.11832024 0.12873797 0.14040437 0.19222267 -0.126504 -0.06350817
0.0082268845 -0.16649042 -0.13625646 0.10203383 0.116071396 -0.1012967 -0.12892492 -0.035184618
-0.07158752 -0.0626595 -0.06459824 0.004345903 0.0884725 0.13320138 -0.04741465 0.06654541
-0.10290668 -0.10261254 0.028660078 0.068237744 0.10378308 0.15232964 -0.07393289 -0.100410536
-0.104721315 0.1383918 0.10249371 0.08147245 0.08382643 0.07314409 0.05253512 0.15739752
-0.02389865 -0.028050587 0.16520016 -0.027822051 0.007614689 0.07603532 -0.019420885 -0.050898522
-0.107788734 0.1332965 0.047090586 0.11836475 -0.13327123 -0.0637296 -0.025331274 -0.058021594
0.04979557 0.06758667 0.05475161 0.13818337 -0.1461774 0.04834034 0.09063059 0.0023421682
0.040046874 0.021474972 0.11991614 0.15294974 0.03923982 -0.0020955591 0.00130728 -0.08886316
0.12592924 0.08070349 -0.09883025 0.09319383 0.14675014 0.11702702 0.14576276 0.021876657
-0.0807806 0.061659083 -0.012429107 0.14676537 0.17007545 -0.0002820107 -0.08350579 0.02363526
0.10590296 0.124803215 0.04496031 -0.11378607 0.008863407 -0.018219924 -0.13002802 0.15944016
0.107403584 -0.002968805 0.109403305 -0.15346901 -0.13318926 0.026228476 0.02167533 -0.059520982
0.11122128 -0.06772687 -0.13950579 0.09185952 -0.035567775 0.07206733 0.033683058 -0.07240365
0.009445957 -0.14632791 0.15769352 0.066583015 0.09390979 -0.12840779 0.12156936 0.017099904
-0.10940644 0.008448705 -0.012011069 -0.09156883 -0.019678272 0.07547938 0.045804977 -0.036648717
-0.1209558 -0.0826652 -0.002916773 -0.0047835954 0.026803983 0.09211059 0.106557496 0.13513674
-0.14915931 0.109370105 0.14702569 -0.117168196 0.070643604 -0.104987 -0.07076688 -0.079217814
-0.07497137 0.11877008 -0.03592495 0.11597761 -0.030504704 -0.13118625 0.0076546776 -0.064954914
-0.06942115 0.13321602 0.013264757 0.12953043 -0.12815899 -0.116134144 0.10722679 0.1051126
0.15896045 -0.084491335 -0.06467879 0.0105584385 0.03508601 -0.13858974 -0.04900282 -0.123144105
0.07693003 0.12900218 -0.073496185 -0.0643406 -0.12785906 -0.11939234 0.14130515 -0.15614074
0.005993638 0.109045945 -0.038648546 -0.07243789 -0.11624931 0.12939681 0.15579529 0.046082508
0.054274157 -0.12503853 -0.035479084 0.09778287 0.05554563 -0.037308574 -0.14883064 -0.00079085625
0.1526877 -0.051875796 0.13086802 -0.061229322 0.041372795 0.08004682 0.078705646 0.0153955985
-0.02477075 0.028512359 0.1368226 0.10734357 -0.022235727 -0.18109654 0.17418249 0.08581469
0.1344793 -0.014011485 0.026623914 0.07667922 -0.1429498 0.008973985 0.13507336 -0.1006058
0.18425353 0.008064817 0.023477681 0.010384936 -0.115740485 0.029217768 0.0879349 -0.08137274
-0.06104994 -0.12303903 -0.0004638573 0.009697938 -0.0642004 -0.02498444 0.12136864 -0.05851917
-0.09661582 -0.019314084 -0.057989586 -0.08264668 -0.13719538 0.11016175 0.03926524 0.091489166
0.0500227 0.01713976 -0.12327635 -0.075561285 0.045002606 0.037323806 0.010122565 0.013960738
0.028616423 -0.11264037 0.10876471 0.004258523 -0.11717291 0.049103186 0.13935429 0.12786816
00000000: 36aa 33bd 5ac2 06be e251 f23d e3d3 033e
00000010: 2ac6 0f3e 05d6 443e 448a 01be 9210 82bd
00000020: 0eca 063c 777c 2abe d086 0bbe 1df7 d03d
00000030: d7b6 ed3d a574 cfbd e504 04be bf1d 10bd
00000040: 7a9c 92bd a053 80bd 154c 84bd 1468 8e3b
00000050: 1231 b53d f165 083e dd35 42bd f648 883d
00000060: bdc0 d2bd 8626 d2bd 8ac8 ea3c 3bc0 8b3d
00000070: 398c d43d 4dfc 1b3e 216a 97bd 0aa4 cdbd
00000080: 2178 d6bd 94b6 0d3e 39e8 d13d 07db a63d
00000090: 31ad ab3d 92cc 953d 112f 573d d12c 213e
000000a0: 1ac7 c3bc 58ca e5bc 3b2a 293e 12eb e3bc
000000b0: a484 f93b 68b8 9b3d 8c18 9fbc f87a 50bd
000000c0: 57c0 dcbd e17e 083e 0fe2 403d 3869 f23d
000000d0: 4178 08be aa84 82bd 8883 cfbc 0da8 6dbd
000000e0: 71f6 4b3d e16a 8a3d 3943 603d f17f 0d3e
000000f0: 87af 15be 8500 463d 889c b93d 107f 193b
00000100: 3108 243d 48ec af3c 9896 f53d db9e 1c3e
00000110: efb9 203d a655 09bb 0a59 ab3a e3fd b5bd
00000120: 98f3 003e df47 a53d 8467 cabd 68dc be3d
00000130: ab45 163e ddab ef3d d542 153e ad36 b33c
00000140: 4d70 a5bd 3c8e 7c3d 74a3 4bbc a949 163e
00000150: 4228 2e3e d6da 93b9 1505 abbd bc9e c13c
00000160: a7e3 d83d d498 ff3d 4d28 383d ac08 e9bd
00000170: d337 113c f341 95bc 1126 05be 4844 233e
00000180: 69f6 db3d 4890 42bb d70e e03d fb26 1dbe
00000190: c462 08be 1add d63c 7690 b13c 46cc 73bd
000001a0: fcc7 e33d 63b4 8abd 9bda 0ebe d820 bc3d
000001b0: 84af 11bd 0998 933d 3ff7 093d 5d48 94bd
000001c0: 37c3 1a3c fcd6 15be 697a 213e ad5c 883d
000001d0: c753 c03d 557d 03be 5bf9 f83d 1915 8c3c
000001e0: 7c10 e0bd 706c 0a3c 13ca 44bc 7088 bbbd
000001f0: 5434 a1bc ef94 9a3d 009e 3b3d f71c 16bd
00000200: adb7 f7bd 5f4c a9bd 5527 3fbb b5bf 9cbb
00000210: 0794 db3c 7aa4 bc3d d13a da3d 4961 0a3e
00000220: 38bd 18be 6ffd df3d e78d 163e e1f5 efbd
00000230: 98ad 903d 6d03 d7bd 3aee 90bd f33c a2bd
00000240: 978a 99bd ba3d f33d 0a26 13bd ab85 ed3d
00000250: 00e5 f9bc b055 06be 17d4 fa3b 1507 85bd
00000260: ad2c 8ebd c869 083e 6c54 593c a0a3 043e
00000270: 1c3c 03be bdd7 edbd b899 db3d 4645 d73d
00000280: 87c6 223e cb09 adbd 5076 84bd 4dfd 2c3c
00000290: 59b6 0f3d 78ea 0dbe 2eb7 48bd fa32 fcbd
000002a0: 7e8d 9d3d 2619 043e 2b85 96bd 01c5 83bd
000002b0: 7ced 02be f983 f4bd 4cb2 103e 5ce3 1fbe
000002c0: 4866 c43b 7b53 df3d f04d 1ebd 515a 94bd
000002d0: 1e14 eebd 9980 043e cd88 1f3e 03c1 3c3d
000002e0: 944e 5e3d 1a0a 00be 8452 11bd 6342 c83d
000002f0: d183 633d e0d0 18bd 0f67 18be 7751 4fba
00000300: 2a5a 1c3e b77b 54bd 4402 063e 99cb 7abd
00000310: 8576 293d 96ef a33d 6d30 a13d d23d 7c3c
00000320: 07ec cabc c092 e93c 391b 0c3e f2d6 db3d
00000330: b327 b6bc 5f71 39be e55c 323e 9dbf af3d
00000340: f1b4 093e 6d90 65bc 651a da3c ff09 9d3d
00000350: 6f61 12be 9f07 133c ac50 0a3e 6a0a cebd
00000360: f5ac 3c3e 4b22 043c 4454 c03c 9425 2a3c
00000370: 5909 edbd 1a5a ef3c 3617 b43d c0a6 a6bd
00000380: 800f 7abd e3fb fbbd df31 f3b9 1ae4 1e3c
00000390: 807b 83bd 2bac ccbc 1f90 f83d ccb1 6fbd
000003a0: 84de c5bd 9238 9ebc 7d86 6dbd aa42 a9bd
000003b0: f27c 0cbe 7c9c e13d 97d4 203d ac5e bb3d
000003c0: 9ae4 4c3d af68 8c3c 5078 fcbd e0bf 9abd
000003d0: a754 383d d9e0 183d 1dd9 253c 94bb 643c
000003e0: fd6c ea3c ffaf e6bd 08c0 de3d 158b 8b3b
000003f0: 5af8 efbd 6c20 493d e4b2 0e3e dfef 023e

body.2.weight f4 [256, 256]
-0.061504453 -0.05311185 -0.012903796 -0.043483183 -0.049246207 -0.044763114 0.030637894 0.02046867
-0.02821424 0.045784984 -0.050690394 -0.0028737334 -0.05151462 0.014880269 0.044751897 -0.05804965
0.045816764 0.011800189 -0.06118044 -0.059835833 -0.020397183 -0.035002805 -0.048765097 -0.017734589
-0.029518317 -0.05712527 0.059545852 -0.022648992 0.008611928 0.008164048 0.014426377 -0.059256494
-0.0019975991 -0.037672617 0.027184617 0.005076485 -0.011323327 -0.011339966 -0.052911986 -0.044143777
0.02697505 -0.039549086 0.03154591 0.033866864 -0.056105435 0.014798507 0.021668192 0.05501208
0.030235043 0.04893199 0.012800873 0.0040022703 0.027719984 0.06517716 -0.019866703 -0.026577009
0.05275066 0.0029591061 -0.04807827 -0.0031925733 -0.05194804 0.009585842 -0.05989548 -0.007411365
-0.05672257 0.0020007417 0.04766417 0.0009509592 -0.011155939 0.037766214 -0.04473 -0.01857418
-0.028064016 0.014813929 -0.044508245 -0.044289418 -0.035182644 0.043355655 -0.061569493 0.020620802
-0.023801114 0.052794963 0.02697545 -0.048615128 -0.034141306 -0.059395425 -0.001046653 0.03767619
-0.030389477 0.036615048 -0.024198527 -0.0046148747 -0.019219745 0.009574571 0.050554883 -0.044818074
-0.035344165 -0.0027415603 -0.051368702 -0.031429235 -0.05281374 -0.013187233 -0.060326215 0.041094296
-0.040556207 0.036738127 0.06232916 0.043305095 -0.003842345 -0.047833614 -0.009658497 -0.02420528
0.053908695 0.027076682 -0.0038773792 0.05911099 -0.018645937 -0.00165926 -0.03924662 -0.002903443
0.015760126 -0.040203195 0.007021374 -0.041568026 0.056183808 -0.061569814 -0.02019688 -0.034634665
0.01921847 0.063714445 -0.04857564 -0.00614669 -0.031741843 0.0015440894 0.02505378 -0.033217385
0.03019618 -0.06630462 0.0043425085 -0.040579077 0.030695008 0.047921065 -0.034073934 0.059393935
0.059585456 -0.057437938 0.05322563 -0.034568425 0.04241428 0.014679231 -0.050524596 -0.04358671
0.027202502 0.0041604317 0.0024579142 0.021980185 0.04033231 -0.05547404 -0.0344524 -0.033121716
-0.045012586 -0.059255835 -0.0142864 -0.0087178815 -0.032256536 0.02076312 -0.036453698 -0.0119587835
0.015274185 0.022351108 -0.035402905 0.002003947 0.054495983 0.039248466 0.020468675 -0.00969558
-0.05266383 0.0037390138 0.047849275 -0.041210942 0.03877831 -0.052076835 -0.017325193 -0.028361883
-0.0031457962 0.059546623 -0.011585224 -0.015723964 0.029702168 -0.0038718684 0.0025216164 -0.020262875
-0.039813217 -0.04847667 -0.022182148 0.047909614 0.008208487 -0.012812867 -0.059758298 0.040546898
-0.0053406325 -0.013242267 0.03827561 0.0074724387 -0.046116184 0.010186109 0.023205074 -0.022190023
0.021222109 -0.025712015 -0.014253836 -0.037374787 0.049929243 -0.037595943 0.007065444 0.019184606
-0.037036415 0.01587043 -0.060022593 0.062507994 -0.020358419 -0.015697235 0.03193524 -0.029574485
0.016465174 0.015124328 0.024932588 0.054947358 -0.047513332 -0.032806233 -0.04919019 -0.056179244
0.060344916 -0.01871446 -0.021708956 0.022944104 0.057609204 -0.010101932 0.03583027 -0.037310123
0.011772998 0.05031629 0.041781094 -0.026902879 0.028048147 0.031427942 -0.022535436 -0.014060857
-0.03173378 -0.04900705 -0.017602984 -0.040962853 -0.054317646 -0.05623831 -0.047120906 0.009717779
00000000: 18ec 7bbd d08b 59bd 716a 53bc 6c1b 32bd
00000010: 64b6 49bd 8759 37bd 52fc fa3c eaad a73c
00000020: 8d21 e7bc 0989 3b3d bba0 4fbd 3f55 3cbb
00000030: ff00 53bd 5fcc 733c c44d 373d 78c5 6dbd
00000040: 5caa 3b3d 9455 413c 5798 7abd 6b16 75bd
00000050: fe17 a7bc 1a5f 0fbd e9bd 47bd 2148 91bc
00000060: 66d0 f1bc 30fc 69bd 5ae6 733d 618a b9bc
00000070: 0b19 0d3c 80c2 053c 9c5c 6c3c f0b6 72bd
00000080: 27ea 02bb 9a4e 1abd 46b2 de3c a558 a63b
00000090: 7a85 39bc 44cb 39bc 3dba 58bd 1bd0 34bd
000000a0: c8fa dc3c 39fe 21bd 4936 013d fbb7 0a3d
000000b0: d0ce 65bd 7075 723c 7e81 b13c 5954 613d
000000c0: 7baf f73c e96c 483d c1ba 513c 7a25 833b
000000d0: 0515 e33c 9a7b 853d 7fbf a2bc 07b8 d9bc
000000e0: 1311 583d 90ed 413b b8ed 44bd 7e3a 51bb
000000f0: 78c7 54bd ef0d 1d3c f654 75bd 09db f2bb
00000100: ed55 68bd e01e 033b 813b 433d cb49 793a
00000110: 66c7 36bc bfb0 1a3d ce36 37bd e128 98bc
00000120: 82e6 e5bc 1fb6 723c 474e 36bd d268 35bd
00000130: ad1b 10bd b395 313d 4b30 7cbd f5ec a83c
00000140: 8efa c2bc 883f 583d 9efb dc3c a820 47bd
00000150: c1d7 0bbd 9e48 73bd d92f 89ba 5952 1a3d
00000160: 5af3 f8bc a9f9 153d fd3b c6bc 6038 97bb
00000170: ba72 9dbc a9de 1c3c a312 4f3d 2893 37bd
00000180: 0bc5 10bd c0ab 33bb fd67 52bd f1bb 00bd
00000190: 3853 58bd 440f 58bc 9f18 77bd 7e52 283d
000001a0: 441e 26bd b87a 163d dc4c 7f3d af60 313d
000001b0: dacf 7bbb 2eed 43bd ac3e 1ebc 274a c6bc
000001c0: 5dcf 5c3d ebcf dd3c a11b 7ebb 5e1e 723d
000001d0: 5dbf 98bc 877b d9ba 10c1 20bd b147 3ebb
000001e0: 611b 813c 1bac 24bd 8e13 e63b 3c43 2abd
000001f0: fe20 663d a130 7cbd ed73 a5bc 14dd 0dbd
00000200: 0e70 9d3c b87c 823d 40f7 46bd 2c6a c9bb
00000210: bc03 02bd 0b63 ca3a 963d cd3c f40e 08bd
00000220: fb5d f73c b7ca 87bd 9a4b 8e3b 3f36 26bd
00000230: 1974 fb3c e148 443d 1c91 0bbd 0e47 733d
00000240: e10f 743d 0b44 6bbd 1e03 5a3d 9f97 0dbd
00000250: 99ba 2d3d 2881 703c e1f2 4ebd fa87 32bd
00000260: c8d7 de3c 3b54 883b f514 213b ca0f b43c
00000270: 7e33 253d bf38 63bd f61d 0dbd a3aa 07bd
00000280: 1e5f 38bd 3fb6 72bd 8111 6abc 72d5 0ebc
00000290: 6e1f 04bd 6b17 aa3c 7950 15bd c6ee 43bc
000002a0: 9340 7a3c ac19 b73c a302 11bd a754 033b
000002b0: 2e37 5f3d 00c3 203d ecad a73c 36da 1ebc
000002c0: 07b6 57bd 3e0a 753b 9afd 433d cecc 28bd
000002d0: 01d6 1e3d 854e 55bd 90ed 8dbc 2e57 e8bc
000002e0: b429 4ebb 29e7 733d f4cf 3dbc 8bcf 80bc
000002f0: f651 f33c 2cbf 7dbb b441 253b 54fe a5bc
00000300: 2f13 23bd 798f 46bd 56b7 b5bc df3c 443d
00000310: e47c 063c 0fed 51bc 1ec5 74bd 8114 263d
00000320: 7900 afbb 18f6 58bc e3c6 1c3d 5cdb f43b
00000330: 53e4 3cbd a3e3 263c 9118 be3c dac7 b5bc
00000340: fdd9 ad3c 01a2 d2bc ec88 69bc 4e16 19bd
00000350: 9b82 4c3d 34fe 19bd 3d85 e73b 0929 9d3c
00000360: 7fb3 17bd b402 823c 40da 75bd 3104 803d
00000370: b3c6 a6bc 7d97 80bc 87ce 023d 3146 f2bc
00000380: f9e1 863c 08cc 773c 6d3f cc3c 7b10 613d
00000390: 579d 42bd d45f 06bd a77b 49bd 351c 66bd
000003a0: 3b2c 773d 114f 99bc fbd6 b1bc 46f5 bb3c
000003b0: a1f7 6b3d 9382 25bc c3c2 123d 80d2 18bd
000003c0: 88e3 403c 7418 4e3d a722 2b3d 6d63 dcbc
000003d0: 3ac5 e53c 96ba 003d 3c9c b8bc 825f 66bc
000003e0: 48fb 01bd 9ebb 48bd 2234 90bc aac8 27bd
000003f0: 2e7c 5ebd 245a 66bd da01 41bd 5237 1f3c

body.2.bias f4 [256]
-0.04992121 0.032403935 0.045651905 -0.019698566 -0.037215114 -0.043741066 0.010382875 -0.011717153
-0.04150063 0.0042403303 0.00059508503 -0.056620654 -0.018626833 -0.010555519 0.0026421894 0.021334933
-0.030606778 0.0409624 -0.03566218 0.058187436 0.0058996165 0.046828695 0.07423854 0.03875256
0.043285333 0.047691375 0.01717004 -0.03913363 0.051435787 0.02940596 -0.006827943 0.021770094
0.021836964 0.030348882 0.056516554 -0.06578787 0.027332043 -0.03293787 -0.020450352 0.036211327
-0.04112789 -0.05703995 0.07594088 -0.005673233 -0.025881369 0.04047147 -0.03523639 0.054692686
-0.040320493 0.055707715 0.01965637 0.044508852 -0.007835807 -0.033294495 -0.033032913 0.058667723
-0.048453473 0.022426538 -0.05729207 -0.06573004 -0.048606813 0.013506136 0.0003053067 -0.021066483
-0.015507901 0.061528105 -0.02008467 -0.0370139 -0.0012189293 0.036338482 -0.05270208 0.06164501
-0.022740118 -0.025986625 -0.04917589 -0.04074793 0.05007944 0.0034931921 -0.047104154 0.029691245
0.045027845 -0.058615003 -0.028859226 0.03451986 0.006552455 0.0008521313 0.053859007 0.01648814
0.035053942 -0.022433063 0.052963357 -0.044233885 -0.023811748 -0.01319363 -0.0003499493 -0.015090382
0.032630883 -0.0057079657 -0.040699452 0.009478518 -0.018210515 0.016510963 -0.052935228 0.019060658
0.040445372 0.05377732 0.020417448 0.0514796 -0.0027697321 0.045957327 0.04456635 -0.0047545917
0.012444493 0.047782827 -0.031930156 -0.028658446 -0.00452927 -0.005391393 0.06404426 0.011756279
0.06391409 0.04391914 -0.013785863 -0.04015013 0.021908987 -0.01399978 0.018229231 -0.04919843
0.051552836 -0.014441517 0.020314706 -0.053819165 0.055513952 0.07651608 -0.0049584084 -0.04232874
0.03595029 0.058291607 -0.047525037 -0.026405979 0.023062868 0.040091664 -0.03901023 -0.01512109
-0.017577285 -0.053289752 0.053827953 0.019312732 0.06292415 0.0028615682 -0.034462526 -0.034660164
-0.008205772 0.048653964 0.030869363 -0.04293667 -0.027351962 -0.051009033 -0.014321022 -0.013134437
-0.014693688 -0.019069606 0.019307058 0.057517517 0.045222733 -0.027518598 0.058864355 0.03256669
-0.022756012 0.055984918 0.009264128 0.045260984 0.04615926 -0.03236195 0.027729267 0.0658724
0.03296263 0.012663395 0.028694488 0.04770306 -0.01692961 -0.032544896 0.036502965 0.026795458
0.01701589 -0.01489416 -0.058144912 0.00365136 -0.018587619 0.026888369 0.005828684 0.02775624
0.025423916 0.008606525 0.025328275 -0.01911467 -0.011864348 -0.031502783 0.059027504 0.04457711
-0.022129826 0.030711327 -0.013465735 -0.033877347 0.03664928 0.045366347 -0.041841954 -0.032569084
-0.050349858 0.013942806 -0.028879987 0.06485597 -0.047374938 -0.03467991 -0.040959213 -0.049161978
0.0021739597 -0.014596514 0.035739247 -0.007481768 -0.031238228 -0.05055032 -0.04046358 0.019105427
-0.010621485 -0.0007294192 -0.041069504 -0.037922766 0.008035475 0.014904349 0.028432822 -0.049847484
-0.023822397 0.0063828873 -0.0003873666 -0.042681262 0.035400502 -0.018680215 -0.04723406 0.054073233
0.0017209463 -0.06778118 -0.010070406 0.030318635 0.03409497 -0.049297836 0.056938585 -0.038889777
0.05904392 -0.047747385 -0.022877395 0.022081548 -0.050645128 0.040353246 0.048752442 -0.021520404
00000000: 2f7a 4cbd fdb9 043d 7efd 3a3d e35e a1bc
00000010: e06e 18bd d529 33bd ef1c 2a3c 4df9 3fbc
00000020: 91fc 29bd 78f2 8a3b 7bff 1b3a 0feb 67bd
00000030: 4d97 98bc 0ef1 2cbc 9528 2d3b 99c6 ae3c
00000040: 11bb fabc 31c8 273d 8212 12bd f355 6e3d
00000050: 9251 c13b 72cf 3f3d 600a 983d 01bb 1e3d
00000060: f64b 313d 0858 433d 2fa8 8c3c 964a 20bd
00000070: 55ae 523d c5e4 f03c f0bc dfbb 3257 b23c
00000080: 6fe3 b23c 389e f83c e77d 673d cabb 86bd
00000090: 73e7 df3c dce9 06bd 7f87 a7bc 5452 143d
000000a0: b875 28bd b9a2 69bd e486 9b3d 87e6 b9bb
000000b0: 2a05 d4bc 6ac5 253d 0854 10bd 7005 603d
000000c0: 1a27 25bd c62d 643d 6506 a13c ea4e 363d
000000d0: c261 00bc cf5f 08bd 854d 07bd 914d 703d
000000e0: 2677 46bd dcb7 b73c 17ab 6abd 799d 86bd
000000f0: f017 47bd d748 5d3c 9211 a039 9e93 acbc
00000100: da14 7ebc e504 7c3d 9b88 a4bc e39b 17bd
00000110: 7bc4 9fba a9d7 143d 23de 57bd 7a7f 7c3d
00000120: 7c49 babc e7e1 d4bc a86c 49bd 4de7 26bd
00000130: 1920 4d3d 0aee 643b 49f0 40bd 0e3b f33c
00000140: 1e6f 383d 4916 70bd 2f6a ecbc b264 0d3d
00000150: fab5 d63b 9061 5f3a 439b 5c3d 2312 873c
00000160: b994 0f3d 8bc5 b7bc 1bf0 583d 972e 35bd
00000170: db10 c3bc 182a 58bc 6679 b7b9 a63d 77bc
00000180: f6a7 053d e309 bbbb 78b4 26bd c94b 1b3c
00000190: 382e 95bc 0042 873c 9cd2 58bd 1925 9c3c
000001a0: 0caa 253d 9b45 5c3d 7e42 a73c 46dc 523d
000001b0: 6584 35bb c03d 3c3d 348b 363d 68cc 9bbb
000001c0: fde3 4b3c edb7 433d 32c9 02bd 1ec5 eabc
000001d0: 456a 94bb 48aa b0bb a329 833d 689d 403c
000001e0: 64e5 823d 8ee4 333d 1ade 61bc 7674 24bd
000001f0: 7a7a b33c 555f 65bc 7855 953c 4b84 49bd
00000200: 1129 533d 1d9c 6cbc 076b a63c 7c71 5cbd
00000210: 9962 633d 76b4 9c3d 257a a2bb e760 2dbd
00000220: 9c40 133d 2ec3 6e3d 9da9 42bd 5a51 d8bc
00000230: 57ee bc3c 2837 243d 31c9 1fbd 73be 77bc
00000240: 3dfe 8fbc 5b46 5abd b37a 5c3d bc35 9e3c
00000250: 60de 803d 2689 3b3b 9428 0dbd d1f7 0dbd
00000260: 8171 06bc 6149 473d bfe1 fc3c 5dde 2fbd
00000270: 3911 e0bc d9ee 50bd b8a2 6abc d231 57bc
00000280: cbbd 70bc dd37 9cbc d629 9e3c 7d97 6b3d
00000290: 793b 393d af6e e1bc c01b 713d a664 053d
000002a0: d16a babc 7150 653d 92c8 173c 9563 393d
000002b0: 7e11 3d3d f78d 04bd 7d28 e33c 1ce8 863d
000002c0: d303 073d 217a 4f3c b410 eb3c 4964 433d
000002d0: f7af 8abc cc4d 05bd 2284 153d 2682 db3c
000002e0: e864 8b3c a306 74bc 5c29 6ebd a84b 6f3b
000002f0: 1045 98bc ff44 dc3c 8cfe be3b 0e61 e33c
00000300: d145 d03c 6202 0d3c 3e7d cf3c 5e96 9cbc
00000310: af62 42bc 1009 01bd d3c6 713d 7d96 363d
00000320: 9c49 b5bc 5296 fb3c 639f 5cbc f9c2 0abd
00000330: 8e1d 163d 10d2 393d 7862 2bbd 2967 05bd
00000340: a73b 4ebd 5e70 643c b995 ecbc 35d3 843d
00000350: 390c 42bd 850c 0ebd d9c4 27bd 125e 49bd
00000360: fe78 0e3b 3826 6fbc 5163 123d 9e29 f5bb
00000370: 50e7 ffbc da0d 4fbd 24bd 25bd fc82 9c3c
00000380: bd05 2ebc 7e36 3fba 7f38 28bd e754 1bbd
00000390: 3aa7 033c 5f31 743c f3eb e83c e02c 4cbd
000003a0: 3027 c3bc 8a27 d13b 7717 cbb9 8cd2 2ebd
000003b0: 1e00 113d 4007 99bc 8078 41bd e57b 5d3d
000003c0: 6091 e13a dcd0 8abd 58fe 24bc c95e f83c
000003d0: 2ba7 0b3d 87ec 49bd 6f38 693d e34a 1fbd
000003e0: 0ad8 713d c392 43bd 6069 bbbc 5de4 b43c
000003f0: 4471 4fbd 7249 253d a4b0 473d 8f4b b0bc

body.4.weight f4 [128, 256]
-0.055931997 -0.05190253 0.01832069 -0.048874326 0.055766057 -0.022037575 0.04533772 -0.05700854
-0.03669954 -0.006603287 0.050313573 0.034327008 0.01598744 0.0052202777 -0.025747368 0.052184425
0.017628388 -0.027327625 -0.0003538247 0.012221269 -0.052270114 0.015115294 0.008398906 -0.015780332
0.04947455 -0.003576355 -0.054347716 0.0482096 -0.0025768492 0.051812988 0.059837006 -0.03257159
-0.06502181 0.009911965 -0.001980704 0.053342987 0.041957036 0.02376767 0.03447235 0.021244986
-0.01729215 0.016992781 0.008277868 -0.034801923 0.032347776 0.009343004 -0.044164192 0.03684573
-0.051553387 -0.0558672 -0.026262818 0.046175722 -0.06908179 0.00071433815 -0.05052523 0.007867874
0.057275563 -0.018185204 -0.053165317 0.037789162 0.048529234 0.05462171 0.05991887 0.014839015
-0.026460558 -0.03241809 -0.06237785 -0.02821224 -0.038848497 -0.012078508 -0.03657913 0.028664986
-0.054237604 0.019431325 0.0012613514 -0.027482752 -0.045076605 0.0441019 0.0051562116 0.043331925
0.04310771 0.013224296 -0.009069365 0.0026196544 -0.010584628 0.018110488 0.021575486 0.02807672
0.048732568 -0.04309913 0.045449123 0.0056932834 0.040087763 -0.014087144 -0.05921518 -0.0007922261
0.024991682 0.024743546 0.008493994 -0.058193237 -0.005659609 0.043213375 -0.05798632 -0.04905207
-0.018534772 0.018330686 -0.011977264 -0.059795085 0.039427143 -0.026298745 -0.0018320461 0.03170371
0.022547351 0.004884619 0.0013485044 0.05046787 -0.034964066 0.05118037 -0.06293755 0.0059897327
-0.06426427 -0.051310025 -0.03290325 0.014901803 0.0027203462 -0.05626817 -0.022146422 -0.055105533
0.028086053 -0.056873504 -0.003188342 -0.036510892 -0.05605049 0.031864107 -0.03565279 -0.03080971
0.012755223 -0.041268922 0.062028572 -0.04284294 0.027829431 0.009034201 -0.051788673 -0.029777424
0.047645945 -0.0033676436 -0.042099662 0.023033626 0.056437396 0.041570514 -0.039601356 0.029159278
-0.063409075 0.014087683 -0.01943564 -0.015805697 -0.021620404 -0.027313879 -0.007826428 -0.015149336
0.05307308 0.030254703 0.04692639 0.015680892 -0.011776317 0.054609053 -0.05099835 -0.0026175138
-0.044382043 -0.02352797 -0.045737606 -0.031223632 0.041070525 0.042080212 0.020546688 -0.054381236
-0.020867843 -0.055758078 0.0037259103 -0.047868386 -0.009044485 -0.037317034 -0.038869288 0.031370964
0.026719287 0.049976 0.0086721415 0.036873724 0.01681192 0.059621867 -0.049242463 -0.06418673
-0.039411567 -0.015460685 0.05515887 0.0015844052 -0.03965921 0.036154218 0.047458343 0.04968655
0.0371868 0.048672467 0.04638355 -0.035977874 0.053588286 0.035439935 0.039101347 -0.019634018
-0.031729463 -0.031369764 0.015970616 -0.0003958577 0.025822703 -0.0014897697 0.033686034 -0.026855728
-0.0014135437 0.05295576 -0.046460427 0.03055109 -0.045855653 -0.044492815 -0.0676547 -0.032110605
0.018362746 -0.050743535 -0.055953298 -0.046530508 -0.0330722 0.036384605 0.022289628 -0.024832383
-0.06503399 -0.060030285 0.017745972 -0.014828946 0.01423576 0.023278343 -0.04427198 -0.0029226139
-0.05751644 0.03945902 -0.048548322 0.051879533 -0.0499942 -0.059511777 -0.04244763 -0.032150283
0.03590756 -0.053722143 -0.016412102 -0.050632317 0.04201356 0.019188657 -0.06765197 0.032679092
00000000: f318 65bd bf97 54bd 4615 963c 7230 48bd
00000010: f36a 643d 2588 b4bc 0cb4 393d c981 69bd
00000020: 4252 16bd 6360 d8bb 9b15 4e3d 7a9a 0c3d
00000030: 17f8 823c dd0e ab3b 25ec d2bc 56bf 553d
00000040: 6969 903c 2fde dfbc 8c81 b9b9 b83b 483c
00000050: 3019 56bd 23a6 773c 919b 093c c145 81bc
00000060: d3a5 4a3d 4861 6abb b69b 5ebd 6e77 453d
00000070: 5be0 28bb db39 543d a617 753d ca69 05bd
00000080: 282a 85bd cb65 223c b3ce 01bb 2d7e 5a3d
00000090: 24db 2b3d 6bb4 c23c e132 0d3d f709 ae3c
000000a0: 44a8 8dbc 7234 8b3c e59f 073c 768c 0ebd
000000b0: 1a7f 043d 6613 193c 83e5 34bd 8ceb 163d
000000c0: a529 53bd 01d5 64bd 1f25 d7bc c122 3d3d
000000d0: c17a 8dbd 6c42 3b3a 8bf3 4ebd 41e8 003c
000000e0: c899 6a3d 23f9 94bc e0c3 59bd cfc8 1a3d
000000f0: 97c6 463d 04bb 5f3d 7d6d 753d 571f 733c
00000100: d0c3 d8bc d5c8 04bd eb7f 7fbd 5b1d e7bc
00000110: 9a1f 1fbd efe4 45bc ffd3 15bd d5d2 ea3c
00000120: 4028 5ebd 712e 9f3c ee53 a53a 8223 e1bc
00000130: 3fa2 38bd 32a4 343d 70f5 a83b d17c 313d
00000140: b691 303d b8aa 583c ad97 14bc 82ae 2b3b
00000150: 266b 2dbc 725c 943c 13bf b03c 2601 e63c
00000160: cd9b 473d b788 30bd dc28 3a3d b98e ba3b
00000170: 1133 243d c4cd 66bc 9e8b 72bd 65ad 4fba
00000180: 5bbb cc3c fab2 ca3c 652a 0b3c 085c 6ebd
00000190: 3e74 b9bb 8200 313d 1083 6dbd d3ea 48bd
000001a0: 3cd6 97bc 3c2a 963c 493c 44bc b1eb 74bd
000001b0: 5b7e 213d 7770 d7bc 4421 f0ba c0db 013d
000001c0: 39b5 b83c 270f a03b 4dc0 b03a 66b7 4e3d
000001d0: 7b36 0fbd 82a2 513d 67e5 80bd 8545 c43b
000001e0: fc9c 83bd 762a 52bd 8fc5 06bd b126 743c
000001f0: d647 323b 7479 66bd 6a6c b5bc 57b6 61bd
00000200: b914 e63c 31f4 68bd 81f3 50bb 728c 15bd
00000210: 3395 65bd f083 023d a908 12bd a564 fcbc
00000220: 48fb 503c 9a09 29bd ac11 7e3d 147c 2fbd
00000230: 8cfa e33c 2f04 143c 5c20 54bd c9ef f3bc
00000240: 6528 433d afb3 5cbb b270 2cbd 04b1 bc3c
00000250: e62a 673d d845 2a3d 0835 22bd 70df ee3c
00000260: 9edc 81bd 06d0 663c 7e37 9fbc f37a 81bc
00000270: 461d b1bc 5bc1 dfbc 6b3a 00bc ec34 78bc
00000280: 2863 593d b6d8 f73c e335 403d 3775 803c
00000290: 74f1 40bc bead 5f3d a5e3 50bd 988a 2bbb
000002a0: f2c9 35bd bbbd c0bc 5b57 3bbd b4c8 ffbc
000002b0: 9139 283d 4d5c 2c3d 8751 a83c dcbe 5ebd
000002c0: 0af3 aabc 9562 64bd 672e 743b a411 44bd
000002d0: 522f 14bc bfd9 18bd 6735 1fbd d77e 003d
000002e0: 68e2 da3c a2b3 4c3d 9915 0e3c e708 173d
000002f0: 27b9 893c 0f36 743d 77b2 49bd 5574 83bd
00000300: 066e 21bd d04e 7dbc 44ee 613d d1ab cf3a
00000310: b271 22bd 7216 143d ae63 423d 2084 4b3d
00000320: 3051 183d c85c 473d adfc 3d3d 895d 13bd
00000330: 647f 5b3d 7729 113d bc28 203d 85d7 a0bc
00000340: c1f6 01bd 957d 00bd cfd4 823c 1f8b cfb9
00000350: 228a d33c 6044 c3ba 5efa 093d 8b00 dcbc
00000360: a846 b9ba 24e8 583d 4a4d 3ebd 4846 fa3c
00000370: 23d3 3bbd 193e 36bd 8c8e 8abd 6986 03bd
00000380: 786d 963c 74d8 4fbd 492f 65bd c696 3ebd
00000390: b776 07bd 0608 153d bd98 b63c 486d cbbc
000003a0: 8a30 85bd 51e2 75bd 0060 913c 1cf5 72bc
000003b0: 1b3d 693c 39b2 be3c 8956 35bd 5389 3fbb
000003c0: 5c96 6bbd c89f 213d 9bda 46bd a27f 543d
000003d0: b8c6 4cbd 9fc2 73bd 91dd 2dbd 04b0 03bd
000003e0: ce13 133d c00b 5cbd ac72 86bc d563 4fbd
000003f0: 6916 2c3d 8831 9d3c 1e8d 8abd 83da 053d

body.4.bias f4 [128]
0.01072285 -0.046497233 0.022394797 -0.026019836 -0.004305444 0.041957963 -0.019833835 0.058384053
0.021855671 -0.028689789 -0.039860453 0.020604387 0.022825086 -0.05804429 -0.045277193 0.04065551
-0.047524143 0.013015174 0.020124022 -0.031192055 -0.045786228 0.00411398 0.057312157 0.057916827
0.053335465 0.03477927 -0.046096824 -0.017731713 0.030221218 -0.010235634 0.017494753 -0.016975421
0.055525184 -0.030529723 0.026022458 0.03253258 -0.043558322 -0.0059710057 0.04164553 -0.0037141747
0.021293905 -0.029545274 -0.037005987 -0.04036568 0.022644272 0.0010775249 -0.048006095 0.06267053
-0.017180542 0.018057093 -0.025861153 0.06678756 -0.008794192 0.035321575 -0.042548515 0.051086996
0.065983176 -0.032504775 -0.015835753 -0.06681483 -0.04722745 -0.03867407 0.047304545 -0.05944427
0.009056829 -0.036564257 -0.04146854 -0.056042485 -0.058725994 0.07072382 0.06028018 0.042025585
0.0655117 -0.03457087 -0.023648938 0.0077334633 -0.031582113 -0.03428716 -0.051274393 0.05692302
0.004558838 0.047984954 0.041444253 -0.041342653 -0.010982857 -0.040496703 -0.03621237 -0.053341735
0.03539403 0.0032173356 0.03339678 -0.011343076 -0.02110318 0.0028649706 0.019458491 0.019776925
0.04575558 0.017353823 0.016527979 0.034228485 -0.0024092172 -0.06614518 0.05630976 0.057283863
0.030828122 0.0021984512 -0.018280752 0.028723614 0.03277031 0.008661006 0.046654716 -0.028427053
0.00883822 -0.011068402 0.035395443 -0.01136543 -0.03930263 0.020168304 0.058875654 0.037522115
-0.053794663 0.04385202 -0.05000209 0.046477616 0.0065298844 0.0020697117 0.0009113163 -0.056758903
00000000: e5ae 2f3c e273 3ebd 4b75 b73c 8d27 d5bc
00000010: af14 8dbb 1ddc 2b3d 917a a2bc 1e24 6f3d
00000020: aa0a b33c d906 ebbc b744 23bd 88ca a83c
00000030: adfb ba3c d9bf 6dbd 9474 39bd 6486 263d
00000040: ada8 42bd 993d 553c 22db a43c 7b86 ffbc
00000050: 578a 3bbd 91ce 863b 27c0 6a3d 323a 6d3d
00000060: 4a76 5a3d b574 0e3d 06d0 3cbd 1942 91bc
00000070: 7d92 f73c 5cb3 27bc 2851 8f3c 0a10 8bbc
00000080: 606e 633d 7819 fabc 0d2d d53c e240 053d
00000090: 366a 32bd 6da8 c3bb 8194 2a3d 8369 73bb
000000a0: 8e70 ae3c ee08 f2bc 9793 17bd 7c56 25bd
000000b0: 7b80 b93c bc3b 8d3a 0aa2 44bd 6859 803d
000000c0: 35be 8cbc 78ec 933c c5da d3bc ebc7 883d
000000d0: 8415 10bc 5bad 103d 5a47 2ebd 9940 513d
000000e0: 3022 873d ba23 05bd fbb9 81bc 37d6 88bd
000000f0: 9271 41bd b468 1ebd 69c2 413d d67b 73bd
00000100: 1863 143c 67c4 15bd eada 29bd ce8c 65bd
00000110: ab8a 70bd a6d7 903d 5ae8 763d 0523 2c3d
00000120: 002b 863d 2f9a 0dbd 6bbb c1bc fe68 fd3b
00000130: 3f5c 01bd b170 0cbd 1905 52bd 1d28 693d
00000140: 4e62 953b df8b 443d 73c1 293d ea56 29bd
00000150: 71f1 33bc dfdf 25bd 6c53 14bd dd7c 5abd
00000160: 55f9 103d efd9 523b 10cb 083d 4fd8 39bc
00000170: 93e0 acbc 3bc2 3b3b 6a67 9f3c 3803 a23c
00000180: 346a 3b3d 9b29 8e3c af65 873c 2b33 0c3d
00000190: f5e3 1dbb 2077 87bd 10a5 663d 7ca2 6a3d
000001a0: 428b fc3c e413 103b 84c1 95bc c94d eb3c
000001b0: 293a 063d e4e6 0d3c 0419 3f3d dadf e8bc
000001c0: 2ece 103c 3e58 35bc d0fa 103d 1236 3abc
000001d0: cbfb 20bd 0038 a53c 9927 713d cab0 193d
000001e0: cb57 5cbd 2d9e 333d fece 4cbd 505f 3e3d
000001f0: a4f8 d53b 00a4 073b 67e5 6e3a 067c 68bd

move_head.weight f4 [5, 128]
-0.039914355 0.024740212 -0.037349712 0.05022428 -0.06472942 0.07301713 0.032909922 -0.07555734
0.06302754 0.08507344 -0.05982795 0.016818043 -0.03607014 0.020088574 0.06991259 0.0015800488
-0.043300625 0.07606781 0.058410715 -0.049743686 0.00029096316 -0.009468411 0.07904518 0.01623462
-0.06849597 -0.045370843 -0.051708683 0.070874415 -0.031611644 -0.082637906 -0.06787517 0.02442509
-0.060242783 0.063806914 -0.030927597 0.059409946 -0.05991983 0.062613 -0.036553875 0.02804039
-0.0139828585 -0.03781391 0.094938025 0.04188838 0.04756713 -3.8102582e-05 0.06445814 -0.043004356
-0.023911433 0.012849777 -0.0787666 -0.036982626 0.044555306 0.028662138 -0.06371772 0.081650764
0.066818155 -0.028042123 0.02485372 -0.011029137 -0.029295882 0.04682939 0.06450173 0.05327736
0.0602234 -0.010754506 -0.038219377 0.029589633 0.031617876 -0.02117233 0.008893651 0.010458977
0.07581304 -0.018848417 -0.007968917 0.06594319 0.06899717 0.081314616 0.08064658 0.07108984
-0.064012654 0.043740053 0.041491188 0.04692368 0.085303485 0.069241725 -0.016378079 -0.076662324
-0.02273914 -0.09165412 0.010905368 0.008199911 0.066347644 0.09171551 0.034170073 -0.037358906
-0.071480215 -0.04982466 0.05951877 0.062609 -0.07331208 0.023826577 -0.017742433 -0.029887173
0.07431252 -0.010021821 -0.020990219 -0.024539456 0.017639417 0.040511094 0.08423357 -0.07184229
-0.019000387 -0.040353592 0.08558176 0.019786406 0.06971935 0.07030713 0.0725764 0.07814967
0.06922078 0.05980186 0.036261972 -0.058143493 0.029148156 0.040196646 -0.004034042 0.05691209
-0.081132494 0.021909513 -0.0044849967 0.033990063 0.021539692 -0.074502796 0.0066868765 -0.01978631
0.05016545 0.033965286 -0.018476805 0.027915087 0.034307174 -0.024960475 -0.030283006 0.04480441
-0.054761257 0.012013165 -0.015427137 -0.05172701 -0.014419753 -0.06356739 -0.08815108 0.07317152
0.0491225 -0.04702121 -0.052134465 -0.04452638 0.04694702 -0.0009099837 -0.0025410336 -0.05941593
0.03170306 -0.07584403 0.008017176 0.03948991 0.006905458 -0.014329515 -0.038728192 -0.025688048
0.037393034 0.07974083 0.03256916 0.051037434 0.015356677 -0.031834915 0.009869241 -0.06262727
0.033247948 -0.010963271 0.03173767 0.01670756 -0.03891662 -0.0671034 0.051541656 0.08524986
0.09128146 0.06853943 -0.009693099 -0.03614414 0.005739685 0.06637132 -0.043431997 0.012515237
-0.046391238 0.009855733 0.07645877 0.07534507 0.034690157 -0.10190969 -0.041355208 -0.055228464
0.018414408 0.015523892 -0.0007263857 0.034999166 -0.027433107 -0.06620327 -0.045475863 0.03453999
-0.07902734 -0.03297581 0.09477795 -0.028580109 -0.027650695 -0.04774814 0.024653243 0.016231218
0.091772795 -0.01985292 -0.00015410519 -0.06472541 -0.086849615 0.028300928 0.0018514883 0.06330471
-0.008658363 0.055270184 -0.069708176 0.011400837 0.078376755 -0.042954475 0.046282627 0.06565555
0.071199685 -0.030051269 0.0768092 -0.023064839 -0.024279254 0.07302476 0.06921948 0.01868735
-0.035394367 -0.0077414857 -0.038321894 -0.012091015 0.050571647 -0.015079069 -0.030319955 0.03833091
-0.05634496 0.060993113 0.045597944 0.011932312 -0.0378266 0.043986816 0.003053452 -0.05686561
00000000: 3c7d 23bd fcab ca3c 03fc 18bd fab7 4d3d
00000010: dc90 84bd 018a 953d 8ecc 063d cfbd 9abd
00000020: 9514 813d fc3a ae3d 270e 75bd fec5 893c
00000030: 48be 13bd cb90 a43c 552e 8f3d a419 cf3a
00000040: ff5b 31bd 71c9 9b3d 1340 6f3d 09c0 4bbd
00000050: 6a8c 9839 6521 1bbc 70e2 a13d 77fe 843c
00000060: 9d47 8cbd c7d6 39bd 7ccc 53bd 9b26 913d
00000070: 367b 01bd 103e a9bd 2302 8bbd 2017 c83c
00000080: 23c1 76bd 33ad 823d df5b fdbc d857 733d
00000090: 7f6e 75bd 3f3b 803d 84b9 15bd f6b4 e53c
000000a0: 5c18 65bc c2e2 1abd de6e c23d 2693 2b3d
000000b0: c0d5 423d 56d0 1fb8 a102 843d 5625 30bd
000000c0: e9e1 c3bc df87 523c 6250 a1bd 187b 17bd
000000d0: a07f 363d dccc ea3c 707e 82bd 8438 a73d
000000e0: f5d7 883d 98b8 e5bc 079a cb3c 8eb3 34bc
000000f0: ebfd efbc 2dd0 3f3d 7c19 843d 5c39 5a3d
00000100: d0ac 763d ab33 30bc ec8b 1cbd f565 f23c
00000110: bf81 013d 9871 adbc adb6 113c 215c 2b3c
00000120: de43 9b3d ff67 9abc 0f90 02bc 390d 873d
00000130: 634e 8d3d 4788 a63d 092a a53d 8d97 913d
00000140: 1119 83bd c528 333d aaf2 293d 0b33 403d
00000150: 98b3 ae3d 9bce 8d3d 522b 86bc 2301 9dbd
00000160: 6f47 babc 28b5 bbbd 6eac 323c eb58 063c
00000170: 46e1 873d 57d5 bb3d ebf5 0b3d a705 19bd
00000180: 3864 92bd f114 4cbd f4c9 733d 2639 803d
00000190: a524 96bd f42f c33c 9458 91bc f2d5 f4bc
000001a0: 2a31 983d 9032 24bc aef3 abbc f806 c9bc
000001b0: 8a80 903c f6ee 253d a682 ac3d 0d22 93bd
000001c0: b3a6 9bbc cf49 25bd 7d45 af3d 1a17 a23c
000001d0: 05c9 8e3d 2ffd 8f3d f0a2 943d ef0c a03d
000001e0: a0c3 8d3d ccf2 743d 6f87 143d df27 6ebd
000001f0: 1dc8 ee3c 3da5 243d ff2f 84bb a71c 693d
00000200: cb28 a6bd 947b b33c e1f6 92bb 2a39 0b3d
00000210: 0274 b03c ec94 98bd 961d db3b e616 a2bc
00000220: 497a 4d3d 2f1f 0b3d ab5c 97bc 2eae e43c
00000230: ae85 0c3d e979 ccbc 1114 f8bc d484 373d
00000240: 574d 60bd ded2 443c 1ac2 7cbc b4df 53bd
00000250: d440 6cbc 9f2f 82bd 8e88 b4bd f3da 953d
00000260: ad34 493d 5099 40bd f38a 55bd 4b61 36bd
00000270: 854b 403d f98b 6eba 7887 26bb 1e5e 73bd
00000280: 11db 013d 1d54 9bbd 795a 033c 2cc0 213d
00000290: 2e47 e23b 58c6 6abc 74a1 1ebd be6f d2bc
000002a0: 7029 193d 294f a33d 3d67 053d a10c 513d
000002b0: 929a 7b3c 5465 02bd 99b2 213c ba42 80bd
000002c0: 002f 083d 4b9f 33bc 5cff 013d 4bde 883c
000002d0: 0967 1fbd 826d 89bd 581d 533d 7b97 ae3d
000002e0: c6f1 ba3d 675e 8c3d cecf 1ebc e10b 14bd
000002f0: f813 bc3b b0ed 873d c0e5 31bd b50c 4d3c
00000300: bd04 3ebd f179 213c 6a96 9c3d 844e 9a3d
00000310: 4417 0e3d 07b6 d0bd 1464 29bd 3e37 62bd
00000320: d0d9 963c ec57 7e3c eb6a 3eba 495b 0f3d
00000330: 65bb e0bc 9495 87bd e644 3abd ce79 0d3d
00000340: 16d9 a1bd a511 07bd f11a c23d d520 eabc
00000350: b683 e2bc 8e93 43bd 99f5 c93c 55f7 843c
00000360: 60f3 bb3d 97a2 a2bc 4c97 21b9 c18e 84bd
00000370: 36de b1bd 59d7 e73c a3ad f23a e6a5 813d
00000380: cedb 0dbc fd62 623d 29c3 8ebd 94ca 3a3c
00000390: fe83 a03d 08f1 2fbd da92 3d3d 6b76 863d
000003a0: 24d1 913d 142e f6bc 244e 9d3d 79f2 bcbc
000003b0: 49e5 c6bc 018e 953d f1c2 8d3d 3716 993c
000003c0: aff9 10bd 4aac fdbb 6bf7 1cbd 6519 46bc
000003d0: 3724 4f3d 330e 77bc 8e61 f8bc df00 1d3d
000003e0: f9c9 66bd ead3 793d e9c4 3a3d be7f 433c
000003f0: 11f0 1abd 852b 343d 6c1c 483b eaeb 68bd

move_head.bias f4 [5]
0.07648466 0.07498919 0.019417442 0.041306056 0.08418995
00000000: fda3 9c3d ef93 993d 5411 9f3c 8a30 293d
00000010: c86b ac3d
