checkpoints/simple_world_comm_v3_transfer/simple_world_comm_v3_adversary_2_ep500.pt (torch, 437311 bytes, 8 tensors)

body.0.weight f4 [256, 34]
00000000: e624 31be 7376 c6bd cafe f73d 4ee3 c03c
00000010: ac2a e0bd ed79 a1bd bff4 e43d 1da6 1bbe
00000020: 1999 d93d d6ae 12be 1134 173e 2b8e a73d
00000030: f3c4 a43d e057 e43d 6d24 efbd 0cd6 95bd
00000040: d3cf e23d 0a27 273e d5eb 773d 9e27 af3a
00000050: 941d c93d 4637 b43b f1b8 b03d 944f 1d3e
00000060: 5d21 19be ab05 c83d b061 09be 4705 88bc
00000070: 03b5 dcbd a910 09be 13b3 25bd 543e 02bc
00000080: 54f7 c4bd 3a45 a93d 7e33 023e a538 09bd
00000090: 35fe 653d 05bf 043e becb 28be c934 753d
000000a0: bb1b b9bd 889f f0bd 3511 fb3c a267 153e
000000b0: c5fa 8cbd 6654 2f3e 966f 853b e102 c03a
000000c0: a08f 66bc a5b5 04be 1157 dcbd ddd7 8f3d
000000d0: 199f 20be a151 c6bd ab4f 6ebd f885 1c3e
000000e0: 4c83 66bd 2f81 103e 97d4 a5bd 015b 1e3e
000000f0: c7cd 503d 2b6a e8bd 7195 6ebd c1fc 14be
00000100: fb35 12be 2462 c33d 938c f53d 254a 173e
00000110: 5cfd 2cbd ac6e 203e b361 82bc b409 9c3c
00000120: db37 183e ee07 f1ba b9ca 09bd a2bf b33d
00000130: 7621 1e3e f7da 293d bbde 343d bdd1 8d3d
00000140: 3a06 f1bc 878d 273e 578d 733d acb7 09be
00000150: 5a35 29be 26c4 abbd 0a86 27bd 0d49 e2bd
00000160: f953 eabd 5c3e 683d 2bde 273e 1d7d cebd
00000170: 94c6 c53c eb1e 2d3e 104e 103e c705 09be
00000180: b4d0 a4bc 96a7 c03d 79c3 4d39 ef72 2f3c
00000190: 65c3 293e 797d dd3d ee7c bd3d fdae cd3b
000001a0: a178 c33c f3f6 28be f829 183e a5b0 fabd
000001b0: 9f7a 24be e268 043e 5dac 053e abfc 103e
000001c0: 2218 ad3c 0869 2abe c418 053e c61a 94bd
000001d0: 6a11 ad3d 215d dd3c 4e83 a3bd 9dfc 76bd
000001e0: 003c 1d3e 870a debd 4f42 863d f2d5 37bd
000001f0: 8e2c 613c 7b0d d13d 51f8 2c3e 9cf2 e8bd
00000200: 2f56 fe3d 86b8 163e 4dc9 04bd 89cc 303e
00000210: f3c6 68bd f015 1f3e b771 84bd 500b 1fbe
00000220: 8469 8bbc dee9 cc3d 7a09 fe3d 0842 31bd
00000230: 7689 e2bc 9f19 eabd 6df4 313b 35a1 2fbd
00000240: 0951 9ebd 929b 943d 8009 09be 24af 21be
00000250: b9cd 3dbe 4c64 5b3d 8b3b c3bd 76b6 50bd
00000260: e593 05be e4dc 963d 7690 01be a827 d8bd
00000270: 757d 29bd 7afa 29be a0bc fe3d a8ca 06bd
00000280: 1c5b 193e 692d 7ebd d547 2e3e 998f c6bd
00000290: 8b61 d33d b504 b03d 505d 183d e9e6 dc3d
000002a0: d864 4dbd da92 c93d 5774 333e 1bd3 76bd
000002b0: 4125 39bd 655f 11be 7fd3 b1bb 1d5b 233b
000002c0: d61c 80bd 679c c8bc 8c68 833c 9b47 cd3d
000002d0: e7a4 ff3d f5b7 233e 67cb d4bd e6e7 d7bc
000002e0: 01d2 90bc c94d 32be bb43 dabc 10c0 bf3d
000002f0: 45cd c43d b310 0fbe 5c23 19be 7de0 1cbe
00000300: d6f8 8abd 74d2 5b3d e75c 1a3d 72e3 0e3e
00000310: 782f 76bd 1e75 2fbe f050 8a3d fac7 163e
00000320: e423 963d a18e 093e f54d 41bd c0ae ed3d
00000330: 4bc1 4f3d c3bb a93d 0649 d2bb 13bb 1a3e
00000340: 4e5f 753d b50c 10be b344 e9bd 547a 9cbc
00000350: a58d a5bc eafa ecbc 1988 2f3e 9d6a 5f3d
00000360: 624c 40bd f72b 913d 98fd 1b3e 4a27 0abe
00000370: beb0 74bc afc6 9ebd 18d9 0a3e c4e4 17be
00000380: 0870 263e 3d67 f63d 8011 5d3d 6b8e 1f3e
00000390: 226b 8bbd b1b0 133e 5968 133d d2ca 063e
000003a0: db4e babd 3168 15bd 8726 f73d 647a 293e
000003b0: a3a0 683b a0bc 14be d42c b9bd 8623 5f3d
000003c0: 449e 1ebe fd7f 0e3e 0013 46bd 6d04 773d
000003d0: 86a3 0cbe c9ae 65bc 4d70 e63d be3d 89bd
000003e0: 66aa a1bd 0aa6 a1bd 6689 09be f267 0ebd
000003f0: 8a16 1d3d a606 2e3c 9106 2e3d 0198 e1bd
-0.17299232 -0.09690561 0.12109144 0.023545887 -0.10945639 -0.078845836 0.11179494 -0.15200086
0.10624904 -0.14324507 0.14765956 0.08181413 0.080453776 0.11149573 -0.116768695 -0.07316217
0.110747956 0.16323486 0.06052764 0.0013363247 0.09820095 0.005499753 0.08629025 0.15362388
-0.14954133 0.09766706 -0.13416171 -0.016604079 -0.10776713 -0.13385262 -0.04045398 -0.0079494305
-0.096174866 0.08265157 0.12714955 -0.033501286 0.056150634 0.12963493 -0.16483971 0.059864793
-0.09038492 -0.11749178 0.030647853 0.14590314 -0.06883768 0.17122039 0.00407214 0.0014649295
-0.014072329 -0.12959917 -0.10758794 0.070235945 -0.15685691 -0.09683538 -0.058181446 0.1528548
-0.05627756 0.1411178 -0.08097189 0.15464403 0.050977495 -0.11348375 -0.058247987 -0.14549543
-0.14278404 0.09540203 0.11989703 0.14774378 -0.04223381 0.15667218 -0.015915727 0.019047596
0.14865057 -0.0018389204 -0.033640597 0.087767854 0.15442452 0.041468587 0.044157725 0.0692477
-0.029421914 0.16362582 0.059460964 -0.13448972 -0.16524258 -0.08387022 -0.040899314 -0.110490896
-0.11441798 0.056700096 0.16393344 -0.10082457 0.024142541 0.16906326 0.14092278 -0.1338111
-0.020119049 0.094069645 0.00019623143 0.010708555 0.16578443 0.10814948 0.09252344 0.0062769637
0.023861231 -0.16500454 0.1485976 -0.122407235 -0.16062401 0.12930635 0.13054033 0.14158885
0.021129671 -0.16641629 0.12997729 -0.07231669 0.08450587 0.027021946 -0.07984029 -0.060299505
0.1535492 -0.10841852 0.06555616 -0.04488177 0.013743533 0.10207649 0.168916 -0.11374399
0.12418782 0.14718828 -0.032418538 0.17265524 -0.056830358 0.15535712 -0.06467002 -0.15531659
-0.017018087 0.10005544 0.12404151 -0.043275863 -0.027653437 -0.11430668 0.0027153746 -0.04287835
-0.077303 0.07256235 -0.1338253 -0.15789467 -0.18535508 0.053562447 -0.09532841 -0.05095526
-0.13044699 0.0736635 -0.12652764 -0.10554439 -0.04137941 -0.16599455 0.12438321 -0.03290811
0.14976162 -0.062055025 0.17019589 -0.09695358 0.10321339 0.08594648 0.037198365 0.1078623
-0.050145 0.09842463 0.17524849 -0.06025992 -0.045201544 -0.14196546 -0.0054268236 0.0024926134
-0.062555 -0.024488641 0.016041063 0.10023423 0.124826245 0.15988143 -0.103903584 -0.026355695
-0.017678263 -0.17412485 -0.026643625 0.09362805 0.096094646 -0.13971214 -0.14954895 -0.1532001
-0.06785743 0.0536675 0.037686255 0.13953951 -0.060103863 -0.1713452 0.06753719 0.14724723
0.07331064 0.13433315 -0.047193486 0.116055965 0.050721448 0.08287766 -0.0064173965 0.15110426
0.059905343 -0.14067347 -0.113900565 -0.0191013 -0.020209143 -0.028928239 0.17141761 0.054545034
-0.046947844 0.07088464 0.15233457 -0.1349155 -0.014934717 -0.0775274 0.13559377 -0.14833361
0.16253674 0.1203141 0.053971767 0.15581672 -0.06807543 0.14422871 0.035988186 0.13163307
-0.09097072 -0.036476318 0.120678954 0.16550595 0.0035496138 -0.1452508 -0.090417534 0.054477237
-0.15490061 0.13916011 -0.048357964 0.060306955 -0.13734254 -0.014018723 0.112518884 -0.067012295
-0.07893829 -0.078929976 -0.1343132 -0.0347671 0.038351573 0.010621702 0.04248673 -0.110153206

body.0.bias f4 [256]
00000000: 937e 35be 38f9 1b3d 5c05 b3bd 1c89 21be
00000010: 4aad ad3d bd56 1dbe d92c b03d d220 b53d
00000020: 7b13 2d3d 9623 853d 69a3 383d 9a32 0c3e
00000030: f232 51bd 8572 05bd e017 2d3e 322d 113e
00000040: 89d8 57bd b00a a9bd 4e2f d73d 8358 bc3d
00000050: 6106 cabd 7e01 75bd cd9f 243e a403 913d
00000060: fc4d d93d b878 afbd 57bb 15be bb52 1b3e
00000070: 51f4 aabd ab04 323e 378b 8b3d 57c1 973d
00000080: 45d2 22be 3ec1 a33d 3d74 6abd 6b6b babc
00000090: b05a 2fbe 29d4 fabd 10e4 203e 8ec5 49bc
000000a0: 1189 fabc 6083 93ba 3847 ccbc 81fe 8d3d
000000b0: 0b80 0dbd 736f d9bc 68f4 b13d 2d97 4a3d
000000c0: cb65 083c acc3 f43d bbdc 3cbd ec01 44bc
000000d0: 56ea 1b3c a0d4 69bd 98b0 bd3d 9362 84bd
000000e0: 8466 57bd e703 c23b dd13 d9bd 38a8 343d
000000f0: 0681 023e f8ce 30be 80ed 063d d83b 04be
00000100: ea78 ac3d 04d4 373e f529 073b 653a 193e
00000110: 7093 153d 771a d93d 8409 0b3e 4a4f 0e3c
00000120: 9152 dbbd 2086 a8bd e194 05be aaf7 25be
00000130: b487 113e 098c 0d3e 2c33 f13d 2b0f 1c3e
00000140: 087c e2bd fa16 363d 5a09 40bd 6b0e 223e
00000150: c82e 173e eda9 0e3c c5ee 44bd 7100 87bd
00000160: d305 9bbd 4442 b23d 7f54 a63d e51e 67bd
00000170: 3dfa 283e 786c 0cbc f7b1 5d3d 1a4e ddbd
00000180: 2f29 173e 8082 5f3d 560d 88bc d002 2ebe
00000190: 695d e93c b5fb a8bd e1a8 513d 2168 35be
000001a0: bab1 bcbd a31c 173e d0f3 e8bd c472 86bc
000001b0: 74aa 1c3d 7786 0ebe 5db6 473c 3bce 9ebd
000001c0: 8444 4e3d b2d6 d1bd 9408 c0bd 6888 d03d
000001d0: e5bd b3bd a895 9cbd ec4d ab3c 9633 263e
000001e0: a029 8d3c 9e64 1abe a6aa 993b ada0 f93d
000001f0: 8a61 f03d 25b2 1cbc ca8c 723d 5308 0ebe
00000200: aada a93d fcea f13d 8123 2e3e 47a1 c4bd
00000210: 7726 f6bd f96f 063d f221 663d c37d 14be
00000220: 1686 763d 29ee 1f3e 3fda 283d ac00 e7bd
00000230: 4164 733d bb90 aebd 39e8 afbd ad4a c13c
00000240: 8974 ddbd 00fc 2c3c 3cb2 6c3d 2a98 a43c
00000250: 7077 773c 4954 023e f908 743d 2fea 2bbd
00000260: 111c 863d 9d51 86bd fcae 893c b387 bb3c
00000270: e0a4 1dbe 7987 28be 3410 f93d adad 2cbc
00000280: 9f0a 053e 1785 ecbd 5535 283e d2e7 6fbd
00000290: a3d6 66bd f573 03bd 5537 86bd 368b f4bd
000002a0: fd94 c3bd 123c 11bc 17c2 7abd b722 4f3d
000002b0: a992 3d3d fce8 0dbb fabf 0bbe 4c9f 153e
000002c0: ce8c d2bd a38c 95bd 0c51 a83d 4e5c 0c3e
000002d0: 646f 07bd 0e68 d5bd 84af 633d 53e6 b73d
000002e0: 1f4a 863d 3aff 0ebe 91b8 02be 77e9 293d
000002f0: d9c3 0a3e 1cad aabc 3644 4ebc 5cbd 13bd
00000300: c40c ab3c a709 b23d a542 e83c 647e 133e
00000310: b4a6 153c e331 8bbd fc70 863d 8776 043e
00000320: 8c55 bf3d 552d 963c 3be2 823d a081 e13c
00000330: 4843 003e 23fa 083e 1ba8 0d3e 8960 123e
00000340: 4791 c13d f1f7 543c 40a3 5f3d 2c42 88bd
00000350: f299 9b3c 5dc8 1b3e e9f8 273e 8431 ab3d
00000360: 377a 90bc 01f7 9fbd e320 9fbd 0619 c3bd
00000370: c94a 8dba 9a3f 203d 8b57 583b 0105 93bd
00000380: c14b 203e 5acf babd 048f 10be bbc1 5d3d
00000390: f96a 203d 0131 b3bc c49e 1ebd 68b6 13be
000003a0: b086 f0bd acf0 d2bc 9204 203d 08aa 12be
000003b0: 0970 ffbd 1c7f c43d 9249 0b3e bb2e c03b
000003c0: 44ed cf3d 9cdc aebd aca6 4cbc 19df 0f3d
000003d0: c6a4 b43d 062f eb3d f706 ae3d 1096 ebbb
000003e0: ecc1 343c 5f05 a93d 540f 5b3c d2ef 93bd
000003f0: 07af 0fbc 12a8 65bd 6ec6 c7bd 0d7b 83bd
-0.17724065 0.03807947 -0.087412566 -0.1577496 0.08480318 -0.1536512 0.08602304 0.088441506
0.042254906 0.06500928 0.045077715 0.13691178 -0.051073976 -0.032579917 0.16903639 0.14177397
-0.05269674 -0.082539916 0.105070695 0.0919657 -0.09864498 -0.059815876 0.16076584 0.070807725
0.106105775 -0.08567947 -0.14622246 0.15168278 -0.08347381 0.17384593 0.068136625 0.074099235
-0.15900524 0.079958424 -0.05723976 -0.022756299 -0.17124438 -0.122474976 0.15711999 -0.012315167
-0.030582936 -0.0011254363 -0.024936303 0.069333084 -0.03454594 -0.026542401 0.08689195 0.04946058
0.008325051 0.11951384 -0.046108942 -0.011963349 0.009516319 -0.05708754 0.09262198 -0.06464114
-0.052588 0.0059208754 -0.10599492 0.04410574 0.12744531 -0.17266452 0.03294134 -0.12913454
0.084215 0.17951971 0.0020624374 0.14963682 0.03651756 0.10600751 0.13577849 0.008685896
-0.10709108 -0.08228707 -0.13045074 -0.16207758 0.14211923 0.1382295 0.117773384 0.15240161
-0.11058813 0.044455506 -0.04688392 0.15825813 0.1476394 0.008707506 -0.04807927 -0.06591881
-0.0756947 0.087040454 0.08121585 -0.056425948 0.16501708 -0.008570783 0.0541248 -0.10805912
0.14761804 0.054567814 -0.016607922 -0.1699326 0.028486924 -0.08251134 0.051186446 -0.17715503
-0.09213586 0.14757018 -0.113746285 -0.016412146 0.038248494 -0.13918482 0.012189475 -0.07754179
0.05035831 -0.10246028 -0.09376636 0.101822674 -0.08776454 -0.07645732 0.02091118 0.16230616
0.017231762 -0.15077445 0.0046895323 0.121888496 0.11737354 -0.009563957 0.0592163 -0.13870363
0.0829366 0.11812398 0.17005731 -0.09601074 -0.12019055 0.03282163 0.056184717 -0.145011
0.060186468 0.15618195 0.04122376 -0.11279425 0.05942178 -0.08523699 -0.08589215 0.023595178
-0.10813243 0.010558128 0.057787165 0.020092089 0.01510416 0.12727465 0.05957887 -0.04197138
0.06548322 -0.06558535 0.016807072 0.022891855 -0.15394926 -0.16457929 0.121612936 -0.010539454
0.12992333 -0.115488224 0.16426595 -0.05857069 -0.056357037 -0.032093007 -0.065535225 -0.11940615
-0.09549902 -0.00886442 -0.061220255 0.050570216 0.046282444 -0.0021653762 -0.13647452 0.14611548
-0.102807626 -0.07302215 0.082185835 0.13707086 -0.033065215 -0.104202375 0.055587307 0.08979478
0.06557106 -0.13964549 -0.12765719 0.041482415 0.13551272 -0.020834498 -0.012589505 -0.03606926
0.02088011 0.08693247 0.028352091 0.14403683 0.009133983 -0.067966245 0.06564519 0.1293584
0.09342489 0.018332163 0.06390806 0.02752763 0.12525666 0.1337667 0.13833658 0.14294638
0.094515376 0.012998567 0.054599047 -0.06653246 0.018994305 0.15213151 0.16403545 0.08359054
-0.017636402 -0.07810784 -0.077699445 -0.09526257 -0.0010779734 0.039123155 0.0033011164 -0.07178689
0.15653898 -0.091215804 -0.14117056 0.054139834 0.039164517 -0.021873953 -0.03872563 -0.14425051
-0.117444396 -0.025749527 0.03906686 -0.14322674 -0.12472541 0.09594557 0.13602284 0.0058649457
0.10152677 -0.08538172 -0.01249091 0.035124872 0.088204905 0.114835784 0.08497422 -0.0071895197
0.011032563 0.082529776 0.013370354 -0.072234765 -0.008769757 -0.056068487 -0.09754644 -0.064199544

body.2.weight f4 [256, 256]
00000000: 6dbd 87bc ae93 703d 0ba6 74bd 0051 4f3b
00000010: 253f dcbc fad8 5bbd d01b 673d 8c86 bbba
00000020: 4e5f 9b3c 53cb e9bc 51ee 153d 0e9f 783d
00000030: cd81 47bd 3a28 0d3d 0589 f63c a879 cdbc
00000040: 1f1a be3c 30d6 90bc 4ead 863d 0b8d 88bd
00000050: bc35 6b3b ab9c 783d 3f68 2abd 7524 8abd
00000060: 971a 80bc 7039 233d 33ca 5fbc ca29 233d
00000070: fc08 573b eabe 7cbd 9c1d 50bd 8caa 1ebd
00000080: 5a1d 073d b8ed e13c d1ea 6bbc fb8e 58bd
00000090: bc53 b7bc e83b 5b3c abaf 49bd a7de 193c
000000a0: dcd4 753c 5c2e db3c f245 63bd d4fc 7abd
000000b0: 38b3 58bd 8cf0 c9bc 4059 733d 2ab6 033d
000000c0: 740d 113c 44cf 3fbd 154c 203d 065b 5abd
000000d0: faea a8bc 7798 d03c cdfe fa3c 1874 d83b
000000e0: a506 3bbd e7d9 d0bc 61c0 6bbd 8545 493d
000000f0: 2527 43bd 0019 c63c a052 823b 13cf cf3c
00000100: 09e7 833b 1a36 48bc fc61 263d 4a93 79bd
00000110: cfb5 d9bc 247e 6bbd dab1 a9bc 7a72 70bd
00000120: ad2d 4cbd 1172 003d b51f 0bbd c9f6 59bd
00000130: 5d0d 7fbd 3875 f93c 8cdb f4bc 6c17 0c3d
00000140: 600f bf3c 87de ac3c 5354 2e3c f823 2fbc
00000150: e714 a0bc a632 143c 8080 13bc a4f1 2dbd
00000160: 0791 223c f3f2 fcbc 11a4 18bd 2199 ebbc
00000170: 4fa3 89bd d1a1 b4bc 173b 3a3d 1523 5e3c
00000180: 7927 043d 32c8 193d 3901 e9bc e74e e5bc
00000190: c6a1 98bc 1827 cbb7 95af 023d dd53 d23c
000001a0: 7de3 2c3d 9038 2dbd dad0 4d3d 8f37 61bc
000001b0: 1f92 113c a816 75bd ed44 003d ffb8 01bd
000001c0: fa96 e0bc 171a d73b 3387 c9bc b050 4b3d
000001d0: ea4c 47bd 093f 2e3d 8f43 423d 7e07 48bc
000001e0: 8050 693a 87ba 263c 637c 2ebd eb38 78bd
000001f0: 4cc6 353d a2e3 e13b ea1b b33b fce1 0abd
00000200: c6a7 37bd 4e22 503d a42e a43c 0a3b 84bc
00000210: 7f22 6bbc 6f97 16bd 1e3e 4fbd 4855 95bc
00000220: c417 50bd e115 bc3c 5a4b f23c c454 dd3c
00000230: 122c f7bc c8d7 313d f22d 363c 829d 43bd
00000240: d70b 93bc 7c6b ee3a 5d02 e3bc dfd7 5a3d
00000250: 6b06 023d 2a5e f53c a70c 5ebc ebc1 bfbc
00000260: 3767 d43c 673a 6ebb 012c 913b f21f 0b3d
00000270: 59e7 8bbc dd54 d2bc 8b94 13bd ea38 fcbc
00000280: 0307 6d3c 0487 3dbd 7aeb 413d 5c2c 233d
00000290: c89f 103d 1f0b 603c 34c2 3d3d de4f 65bd
000002a0: ce2d c0bb 2d08 3f3d e64d 46bd e5bb f33c
000002b0: 83a3 9b3c cae4 743d e124 c8bc f87b 40bc
000002c0: 268c 1b3d 7224 afbc cc1e fbbc e551 653d
000002d0: f352 213b 55c4 36bd 434d 253c 7029 b73c
000002e0: fbc5 0ebd eb19 aabc 1e43 083d 8223 3c3d
000002f0: 9f2c 4cbd c7a1 eb3b 5d93 333d 8684 1abd
00000300: a361 bf3a 0d32 48bd 06f3 30bd df48 42bd
00000310: c445 173d 506a 91bd f37e 803d 696c 3b3c
00000320: b68e ba3c e1d1 483d feb2 14bd 2bfe 3b3d
00000330: e254 cb3c b3a5 4c3d 50c2 983c a9a5 45bc
00000340: b8e0 7ebd 3756 7c3d fda4 8e39 680b 593d
00000350: 24c4 973b 29c5 b1bb e9c4 0c3d 65dd 3fbd
00000360: c98a 073d 9ce5 a4bc 1a8c 493d be11 343c
00000370: c950 553d 1c7d 47bd 3063 d13b 758d 053d
00000380: 8ae0 e33b b12d 40bd 122f 7cbd 559f 2c3d
00000390: 7a1c 81bd 2b62 54bd ef16 3ebc 93fd 0ebb
000003a0: 2965 03bd 3c94 a239 ee32 2ebd bbdd f7bb
000003b0: 5edf be3b ee09 923c 7af9 70bc ac03 083d
000003c0: 3750 05bd fbb4 75bd 1b58 a13c 38e8 0dbd
000003d0: a695 153d 78b8 033d f756 823b 850a 50bc
000003e0: 69b2 c03c e5d9 2a3a 6f0b 023b 604f 413d
000003f0: f311 28bd cf96 edbc 5dd4 02bd d6c2 7b3c
-0.016569817 0.05873459 -0.059728663 0.0031633973 -0.026885578 -0.05367372 0.05642301 -0.0014307066
0.018966343 -0.028539335 0.03660423 0.06069856 -0.048707772 0.03446219 0.030094633 -0.025082424
0.023205815 -0.017680258 0.06576024 -0.06667527 0.0035890182 0.060696285 -0.041603323 -0.06745235
-0.015637679 0.0398497 -0.013659048 0.039834775 0.0032811752 -0.061705507 -0.050809488 -0.038736865
0.032986976 0.027579173 -0.014399246 -0.05287073 -0.022378795 0.013380982 -0.049239796 0.009391463
0.015004363 0.026755504 -0.055486627 -0.061276272 -0.05290529 -0.024650835 0.059411287 0.032156147
0.008853305 -0.046828523 0.039135057 -0.053309463 -0.020619858 0.025463326 0.030639077 0.0066056363
-0.045660634 -0.025494529 -0.057556514 0.049138565 -0.047644753 0.024181843 0.003977135 0.025367295
0.0040253443 -0.01221993 0.04062079 -0.06093148 -0.02657595 -0.057493344 -0.020714689 -0.058702923
-0.049848247 0.031358782 -0.033965785 -0.05321387 -0.062268604 0.030451402 -0.029889844 0.034202024
0.023322761 0.021102203 0.010640222 -0.010689728 -0.019541217 0.009045279 -0.009002805 -0.042466775
0.0099222725 -0.030877566 -0.03726584 -0.028759541 -0.06720602 -0.022049816 0.04546651 0.013558169
0.032264207 0.037544437 -0.028442966 -0.027991725 -0.018631827 -2.421769e-05 0.03190573 0.025674755
0.042209137 -0.04229027 0.050248004 -0.013746156 0.008884936 -0.05983606 0.031315733 -0.031670567
-0.027415741 0.0065643894 -0.0246006 0.049637496 -0.048657335 0.042540584 0.04742771 -0.0122088175
0.000890024 0.0101763075 -0.042599093 -0.060601156 0.044378564 0.006893591 0.005465974 -0.03390692
-0.044837736 0.050813965 0.020041771 -0.016141433 -0.014351486 -0.036765512 -0.05059635 -0.018229142
-0.050803915 0.022959651 0.029576946 0.027017958 -0.030172382 0.043418676 0.011119353 -0.047757633
-0.017949982 0.0018189992 -0.027711088 0.053428527 0.031744402 0.029952127 -0.013552821 -0.023407897
0.025928123 -0.0036350728 0.0044302945 0.033966012 -0.017078089 -0.025675232 -0.036030333 -0.030788857
0.014467004 -0.04627134 0.04734371 0.039837226 0.03530863 0.0136745265 0.046327785 -0.05598437
-0.0058648353 0.046638656 -0.048414133 0.029752681 0.018998867 0.059788503 -0.024431648 -0.011748306
0.037975453 -0.021379683 -0.030654334 0.055986304 0.0024616092 -0.04462083 0.010089221 0.022358626
-0.034856778 -0.020764312 0.033267133 0.0459323 -0.04984724 0.007190916 0.04384171 -0.03772404
0.0014601242 -0.048875857 -0.043200515 -0.047432777 0.036931768 -0.071003556 0.06274214 0.011439421
0.022773128 0.04902828 -0.036303513 0.04589669 0.024820749 0.04996271 0.018647343 -0.012063422
-0.062226027 0.06160566 0.00027207276 0.052989393 0.004631536 -0.0054251147 0.034367476 -0.046841998
0.03309134 -0.020129018 0.049205877 0.010990558 0.052078996 -0.048703298 0.006389998 0.032605607
0.0069542574 -0.046918575 -0.061568327 0.04214414 -0.063042596 -0.051851433 -0.0116021475 -0.0021818622
-0.032078896 0.0003100949 -0.04252904 -0.007564274 0.0058249673 0.017827 -0.014707917 0.033206627
-0.032547202 -0.05998705 0.019695332 -0.03464529 0.03651967 0.032158345 0.003977652 -0.012697821
0.023522573 0.0006517454 0.001984324 0.04719484 -0.041032743 -0.029002575 -0.031940807 0.015366277

body.2.bias f4 [256]
00000000: 5d42 48bd 1596 513d c642 78bd f217 513d
00000010: 1de9 2abd e938 14bd 39fe 3fbd 9187 243d
00000020: 5eb4 21bd e8de 35bd a07e 4abd 0d8b 983c
00000030: 939a 8abc 4c46 b6bc 03dc 3f3d 4497 9539
00000040: e4f3 23bd 07b3 a4bc d62d 473d 6068 1fbd
00000050: a7a6 033c d8ec 92bc 7762 adbc a052 54bc
00000060: 84a6 cf3c 051e 85bd 0ebf ecbc 8ebc 39bd
00000070: 786b 523c bbec 7cbd 4a13 6fbd c0e2 0dbd
00000080: 5c10 17bd 1d5a 10bd c91d 323b cfde 703d
00000090: 719a 46bc 6eff 0c3c d53f f1bc 81ea 4a3d
000000a0: 7d21 ae3c 9e22 263c 45bd 58bd 9977 e23c
000000b0: 383f 713d 0ddf 783d c381 02bd ee97 103d
000000c0: eda4 063d 86fc 973c 87b1 50bd 00b1 703d
000000d0: e0e7 dab9 7f39 afbc aa1b 0d3d 9058 203d
000000e0: 2dd8 723d 7220 f03c 94c6 583d 0576 ee3c
000000f0: 0554 003d 752d 7c3d e544 1f3d 49be 0e3d
00000100: f154 15bc d1d0 4cbd 5b7d 37bd 549f 3b3d
00000110: 0530 50bc dbf6 80bb 5b82 ec3c fbdb 85bc
00000120: 7d3e 26bd e57c 213d 6764 85bd c6a8 973c
00000130: f388 aa3c 7b91 be3c 706e ba3c 8087 b7bc
00000140: 4fab c83c de1a b83c 03bb 0a3d 67da 7b3d
00000150: 8f46 5b3d 57a3 763d f31b acbc e8f7 203d
00000160: 4991 ecbc 2a9f 0abc 9f28 463d 465e 2fbd
00000170: 15d4 263d 6787 58bd b873 cfb7 6dac 283d
00000180: 002f 34bc 0091 2c3b 6619 0c3d 73ba 813d
00000190: f167 883b 8c49 98bb ad08 a93c a12d 423d
000001a0: c549 c43c 8b95 64bd ecee 70bb 3b14 cabc
000001b0: cc0a 213d f490 d83c 35d2 7abc 1905 0f3d
000001c0: a647 06bb 6e6b f5ba 9ab6 1bba 6bd6 86bd
000001d0: 0623 32bd 4b97 1dbb 4438 7abd 1495 acbc
000001e0: c85a 523d 3e24 3c3d 1624 6d3d d667 85bb
000001f0: e243 dabc 8b6f 6a3d a7ad 423d 810e 6f3d
00000200: c20a 233d 70bf 1abd bca8 743d d268 7dbd
00000210: 5390 f43c eedb 0dbc 6142 fdbc 11fa 963c
00000220: 4968 cfbc a419 e83c 6940 2fbd e3ae c73c
00000230: 7f4c a43c 428f 9ebb 95b2 55bd 5bc3 86bd
00000240: f410 1fbc 9384 823d fdd6 8abc 7dd3 803c
00000250: c736 ca3c dfe4 f5bc 4195 833b 1f58 61bd
00000260: 56a0 683d f07d c8bc c42f 24bd 8ff5 3dbd
00000270: f157 103c 308c 39bc 11d4 bbbc 7ea9 043d
00000280: fb8a c5bb 7dd0 f4bc fd52 373d 5b27 653d
00000290: 2022 453b ad07 2f3d 1ffb 04bd 5fd6 18bc
000002a0: 1bd4 76bc afb3 67bd f64e 553d b204 03bc
000002b0: df36 0bbd f894 273d 6fe4 1abd b5d8 8f3d
000002c0: 07e9 6ebd 7737 57bd 5afa a23c 048c 163d
000002d0: 06ba e8bc 85e4 41bd 4544 a13c 758e 91bc
000002e0: 4ae6 adbb 60da 7dbb 3d87 cbbc 8fae 45bb
000002f0: c262 843c 5e91 0abd b1b5 02bd 5803 3cbd
00000300: 475f 35ba 861d e83b d50b ecbc 8891 71bd
00000310: 363b e437 78b0 6abd b69d 48bc 705d 333d
00000320: 764d 84bd 5342 bdbc cb80 433d a79d 033d
00000330: d840 263d 2d42 363c 9686 73bc c077 0fbd
00000340: abfb 633c 29a5 723d b6ce 05bd b4e2 8f3c
00000350: 51e7 833d 4a22 7f39 9120 0ebd 6f4a 25bd
00000360: 7da6 403d 1074 74bd a2cb b7bc 8d3f 75bb
00000370: 5987 c0bc d310 42bb 2950 5d3d 46b2 d43c
00000380: 9610 163d c680 30bd 54e0 c13c 4d64 30bd
00000390: e73d d7bc d100 dcbb d2cd 3c3c 663f 30bd
000003a0: 9cb6 69bd c4f4 2ebd efa1 0abd cdf6 80bd
000003b0: ccd3 1f3d e420 993d f322 04bc ca8f 553d
000003c0: ef10 87bc 8f86 7d3c 6202 6f3d 2817 04bc
000003d0: 8fa9 59bd c1fb c93a c71e 17bc 4ab1 743d
000003e0: 8311 b33b f63a 44bd 8ca1 21bd b3ce 5bbc
000003f0: 69fc 43bd ef15 6239 1e62 0a3d 0d5f 37bd
-0.048891414 0.05116852 -0.060610555 0.051048227 -0.04172622 -0.036187086 -0.046873305 0.04016835
-0.039478652 -0.044402033 -0.049437165 0.018620992 -0.01691941 -0.022250317 0.04684068 0.00028532196
-0.040027514 -0.020104898 0.048627697 -0.0389179 0.0080353385 -0.017935202 -0.021165116 -0.012959152
0.025347956 -0.064998664 -0.028899696 -0.045345835 0.012843005 -0.0617492 -0.058368005 -0.034640074
-0.036880836 -0.03524219 0.0027178398 0.058806237 -0.012121783 0.008605821 -0.029449383 0.049540047
0.021256203 0.010140089 -0.052914876 0.02764492 0.05889818 0.060759593 -0.03186203 0.03530114
0.03287213 0.01855303 -0.050950553 0.05876255 -0.0004175296 -0.021389721 0.03445021 0.03914696
0.059288193 0.029312346 0.052923754 0.02910901 0.031330127 0.06156679 0.038884062 0.03484944
-0.00911449 -0.05000383 -0.044797283 0.045806244 -0.012706761 -0.0039356775 0.028870752 -0.016340246
-0.040586937 0.03942575 -0.06513291 0.018513095 0.020817256 0.02326273 0.022757739 -0.022403479
0.024495749 0.022473749 0.033869755 0.06148758 0.053534087 0.060214367 -0.021009421 0.03929892
-0.028877871 -0.008460799 0.048378583 -0.042814516 0.0407296 -0.052863505 -2.4730209e-05 0.041180063
-0.010997534 0.0026331544 0.03420391 0.063343905 0.0041627814 -0.0046474393 0.02063402 0.047406796
0.023960957 -0.055806678 -0.0036763502 -0.02466785 0.039316937 0.026436307 -0.015308906 0.03491697
-0.0020489483 -0.0018724033 -0.00059399905 -0.06583866 -0.043490432 -0.0024046476 -0.061088815 -0.02106718
0.051356107 0.045933 0.057895742 -0.004071216 -0.026643697 0.057235282 0.04752889 0.05836344
0.03980518 -0.037780225 0.05973123 -0.061867543 0.029853975 -0.008658392 -0.030915441 0.018429788
-0.025318282 0.028332539 -0.042786036 0.024375385 0.020056007 -0.004838855 -0.052172262 -0.0658023
-0.009708632 0.06372943 -0.016948218 0.015725845 0.024684323 -0.03001636 0.004015595 -0.05501568
0.056793533 -0.024474114 -0.040084615 -0.04637676 0.008810029 -0.011324927 -0.02292827 0.032388203
-0.0060285307 -0.029884571 0.04475688 0.055945735 0.0030080155 0.04273193 -0.03246605 -0.009328454
-0.015065218 -0.056567844 0.052077256 -0.007996725 -0.033987876 0.040913552 -0.037815508 0.070237555
-0.0583277 -0.05254313 0.019894768 0.036754623 -0.028409015 -0.047337074 0.019685874 -0.017768124
-0.0053069936 -0.0038734898 -0.02484476 -0.003016386 0.016160373 -0.03383004 -0.031911556 -0.045901626
-0.00069187995 0.0070835976 -0.028814236 -0.05897668 2.720729e-05 -0.0572972 -0.0122446325 0.04379028
-0.06460087 -0.023102915 0.04773025 0.03213277 0.040589184 0.011124176 -0.014863631 -0.035026312
0.013914983 0.05923954 -0.032667838 0.017564155 0.064406045 0.00024331469 -0.034699026 -0.04035419
0.047033776 -0.059681 -0.022435967 -0.0037421912 -0.023502039 -0.0029612079 0.054031525 0.025963914
0.03663691 -0.043091558 0.023666538 -0.043064404 -0.026274635 -0.0067139645 0.011523681 -0.04302921
-0.057058915 -0.042713895 -0.03384584 -0.062970735 0.039020345 0.074769765 -0.008064973 0.05213908
-0.016487567 0.015473976 0.05835188 -0.0080621615 -0.05314022 0.0015410112 -0.0092236465 0.05973939
0.005464734 -0.047907792 -0.039460704 -0.01341598 -0.04784814 0.0002156121 0.033784978 -0.044768382

body.4.weight f4 [128, 256]
00000000: 538f 953c 733e 2d3c 6612 043d 35b9 da3a
00000010: c36d c6bc e87c c3bb 48ac 683d 03bc 63bd
00000020: 472f b2bc a9ef e8bc 560f 51bc fceb db3c
00000030: b35b 29bc 6702 b8bc 76c4 eb38 7d64 a13c
00000040: 659e 00bd 60c0 0cbd 9e7d 333d 4e09 1abd
00000050: 0f90 d0bc c2f3 463d 3a6a f13c f12f 863d
00000060: 3203 4d3d 3ab5 00bc 9ac8 3d3b 6e8e 713c
00000070: 56a9 9ebc 983f 8c3c 35f8 bfbc 6e06 013c
00000080: fb46 24bc 3df4 6fbd c712 eebb 35a2 e33b
00000090: 9efd 473d f0d9 1d3c ac0a 0ebd ccfa 333c
000000a0: 5b51 6bbc f701 72bc 2c4f 053d 8613 323d
000000b0: 2a8d ce3c ee42 bcbc a36c 803d 8810 3fbd
000000c0: 0354 f8ba ae46 c8bc d883 173d 247b 6a3d
000000d0: 3a9f 1bbd d42a 643d 02f3 11bd 5d02 803d
000000e0: 772f 26bd b5d5 623d 9de8 f43c 5cc2 4d3d
000000f0: 3c76 73bc 1718 c13c 4414 223d 698a a3bc
00000100: 9923 9f3d f9e3 083d 4e3e 693d 327a d13c
00000110: 07e3 2ebd 6519 af3c 6d08 dc3c b181 4fbb
00000120: 100a 16bc ac4b 8b3d 3a9c b0bc deca 233d
00000130: 38ee 69bd 1d75 b93c 2f6a 793d cea4 dbbc
00000140: d5e5 73bd 171e 4fbc 2149 08bd 3294 6abc
00000150: be32 42bd cfd5 913d 6608 0cbd 944d eebc
00000160: 6ece 8a3d 4bba 1c3d d838 b1bc 084d 4abc
00000170: 5dd1 813d d834 7cbd 24dd 5a3d 1b95 4ebd
00000180: 393c 8abc 80dd 3fbd be92 dcbc bc3a 923c
00000190: 307f 75bd 6647 36bd 519f fe3a 0313 9bbc
000001a0: c33e 9a3c 5073 e83c c48f 2a3d 5d9d 57bd
000001b0: aa25 b03c 2113 3d3b 5d83 86bc d1f6 1b3d
000001c0: e711 133d de56 05bd 3376 4a3d 1309 30bd
000001d0: b699 16bb f61d 303b afcc eebc 105a ceba
000001e0: 5c56 da3c 1eaa 373c 1b17 3ebd a7b9 4a3d
000001f0: df9e 46bd 215d c7bc 8713 293d c469 203d
00000200: 09eb 853d 17b5 c03b ef56 b13c 2304 1dbd
00000210: 9964 513d 4cbb e73b 3848 c23c 7785 5f3d
00000220: f5d0 083d d97e 333a 5178 c93c 5cdc b6bb
00000230: 6d6e fc3c eac2 6e3d 39d1 f73c ed2f 303d
00000240: 7799 bb3a 4f00 24bd 331f 5e3d c404 433b
00000250: cd6f 06bd 23c5 923d e8ec 583d 0b53 0bbd
00000260: 039e 403d b86f 723c 2892 ac3c 0fad 833d
00000270: 6b54 553d 7e1c b9bc 7931 ba3c 627e 65bc
00000280: 1654 07bd cf17 813d 5800 823c 1646 7c3d
00000290: 8398 62bd 0612 2dbd e494 0abd f724 0fbd
000002a0: d468 5bbd bd28 e3bc 050b 90bc 7fdb 4dbd
000002b0: ff39 90bc d10b 38bd 46aa d73c 3622 a43c
000002c0: 9c1a a23b 60f8 84bd 775f ce3c 2cf9 29bc
000002d0: 7ee9 483d da93 6c3d 053a 243d edfa b43c
000002e0: 87c0 a4bc 3dc5 62bc 3feb 823c 89c6 483d
000002f0: 3ba7 103d 40ca 783b fb72 4cbd 8eff e83c
00000300: a7ad e0bc 715f 2ebb 55ee 91bb 3540 12bd
00000310: 805c 803c 6abe 60bd 2d4d 473c e108 8abc
00000320: cf2e 66bc d3e5 4a3b 5010 d13c 7211 883d
00000330: 4ba8 0a3d b275 1d3d 0793 783d cb2a 10bd
00000340: 5ded cebb 9759 733d 6ecc 583d 7f81 813d
00000350: 0192 5a3c 9716 933a a01c 0dbd c09e 853c
00000360: 9765 2bbd 7691 eabc cf74 693d 78b2 6bbd
00000370: e41e 61bd 1187 45bd 9972 693d f16d 493d
00000380: 3253 993b 0128 b9bc 9103 06bc cfa0 393a
00000390: 5eba 903c 5e69 20bd 2dfb 023d 76c8 43bd
000003a0: 60bb 603d 6556 1bbd 28e4 af3c ce02 62bd
000003b0: 35f1 7d3d b91a 783c 28a1 d13c a135 19bd
000003c0: 9fa2 c9bc 715f 583c 229e e03c 80ba 08bb
000003d0: 99d2 543d 4ed6 08bd 6889 293d 8015 b1bc
000003e0: 25de 92bb 1c28 28bd 505a 8f3d b6bf cebc
000003f0: 02be 71bd 7029 2e3d 26a9 cfbc da0d 02bd
0.018256819 0.010573971 0.03224411 0.0016687276 -0.02422226 -0.0059658177 0.056804925 -0.055599224
-0.02175106 -0.028434591 -0.012760004 0.026845925 -0.010336804 -0.022462083 0.00011242267 0.019701237
-0.031401057 -0.03436315 0.04382097 -0.03760653 -0.025459317 0.04857231 0.029469598 0.06552113
0.050051875 -0.007855708 0.002895868 0.014743431 -0.019367855 0.017120168 -0.023433784 0.007875068
-0.010026689 -0.058582533 -0.007265422 0.006946827 0.048825853 0.00963448 -0.034678146 0.010985088
-0.014362658 -0.014770976 0.032546207 0.04347565 0.025213797 -0.022981133 0.06270721 -0.046646625
-0.0018945936 -0.024447765 0.03699097 0.057246342 -0.037993647 0.055704907 -0.03563214 0.06250451
-0.04057261 0.05537959 0.029896075 0.050234184 -0.014859732 0.023571057 0.039570108 -0.01996346
0.077704616 0.033420537 0.056944184 0.025570963 -0.04269698 0.021374414 0.026859486 -0.0031662995
-0.0091576725 0.06801543 -0.02155887 0.03998839 -0.05711195 0.022638852 0.06089228 -0.026811983
-0.059545357 -0.012641451 -0.033272866 -0.014317559 -0.047411673 0.07120859 -0.034187697 -0.029089727
0.067776546 0.0382636 -0.02163355 -0.012347467 0.06338761 -0.061573833 0.053433552 -0.050435167
-0.01687442 -0.0468421 -0.02692544 0.017850272 -0.05993575 -0.044501685 0.0019426142 -0.018929964
0.018828755 0.028375298 0.04164101 -0.052640308 0.021502335 0.0028850513 -0.01642006 0.03807718
0.035905745 -0.032553546 0.04942913 -0.042977404 -0.0022979802 0.0026873327 -0.029150335 -0.0015743393
0.026652507 0.011209993 -0.046408754 0.049493458 -0.048491355 -0.0243364 0.04127839 0.039163366
0.0653897 0.0058809626 0.021647898 -0.038334023 0.051121328 0.007071888 0.023716077 0.05457064
0.033402402 0.000684721 0.024593504 -0.005580468 0.030814374 0.058291353 0.030251132 0.043014456
0.0014312704 -0.040039357 0.054228973 0.002975748 -0.032821465 0.07166507 0.052960306 -0.034014743
0.04702569 0.014797144 0.021065786 0.06429493 0.05208246 -0.022596594 0.022728669 -0.014007183
-0.033039175 0.06303369 0.015869305 0.061590277 -0.055321228 -0.042253517 -0.0338334 -0.03494736
-0.05356677 -0.027729386 -0.01758338 -0.050258156 -0.01760578 -0.044933144 0.02632631 0.020035844
0.0049470197 -0.06492686 0.025192006 -0.010374349 0.0490508 0.05775819 0.040094394 0.022092307
-0.020111335 -0.013840971 0.015981315 0.049017463 0.035315733 0.0037962347 -0.04991434 0.02844217
-0.027426554 -0.002660718 -0.00445346 -0.035705764 0.015669107 -0.054869093 0.012164396 -0.016849937
-0.014049246 0.003095974 0.025520474 0.066439524 0.033851903 0.03844232 0.06068709 -0.03519706
-0.006314917 0.05941161 0.052929334 0.063235275 0.013340474 0.0011221942 -0.034451127 0.01631105
-0.04184493 -0.028633814 0.056996163 -0.057543248 -0.0549611 -0.048224512 0.056994054 0.049177114
0.004679107 -0.022602083 -0.008179561 0.0007081152 0.017666992 -0.039162986 0.03197782 -0.047798596
0.054866195 -0.03792419 0.021471098 -0.055178456 0.06199761 0.01514309 0.02558954 -0.03740466
-0.024613677 0.013206349 0.027419154 -0.0020863116 0.051958654 -0.033407502 0.041390806 -0.021616697
-0.004482048 -0.041053876 0.069996476 -0.0252379 -0.059019096 0.042519987 -0.025349211 -0.03175149

body.4.bias f4 [128]
00000000: 65d1 f5bc 30b5 fcbc 1815 ebbc df19 9fbc
00000010: 5e5a 0b3d e06f 90bd de05 29bd ffad 3a3c
00000020: ae52 9d3c 8208 62bd ac39 013d 530b 09bd
00000030: 9b31 0e3c daf5 0d3d 802e 71bd acb0 953b
00000040: afee 3a3d cd2d 553d 663f 913c 67c2 fdbc
00000050: 3058 86ba e9f7 793d b9df 50bb 08ef 603d
00000060: 0968 f7bc bb92 54bd 1793 f1bc f1ae c1bc
00000070: d82f 18bd f588 fa3c 01a9 3ebd cb35 8ab9
00000080: 6759 ed3c 1865 593d d6fe 673d add8 19bb
00000090: 3f04 883d 0103 e73c aca6 90ba caee 363c
000000a0: eb52 353d 05fe 11bd f0af 993c b113 18bc
000000b0: 0642 64bd e387 dbbc b3b5 463d 395f 003c
000000c0: a80b 71bc 52c7 b5bc f436 613d 6728 d3bc
000000d0: 7ed1 afbc 03b9 0bbd 8144 ffbc ee66 d43b
000000e0: 8a84 3cbc 26e9 d03c 6605 893d d23a 6b3d
000000f0: eec6 143d a82b 533d b38a 523d f8ce aabb
00000100: c923 7d3d 568c 27bd bfd5 80bc 5404 3d3d
00000110: 9285 73bd c022 3b3b e3f8 f73c c9e7 433d
00000120: 8d0b 68bd d3ea b43c 64e2 7b3a 6d99 5d3c
00000130: ba06 1cbd 1a25 1b3d 0c71 53bd 1196 223d
00000140: f9b3 593d 9c05 00bd b308 f83c 57dd 96bc
00000150: 5506 4f3d 0cc7 973c 66c0 383d 12c8 c03c
00000160: 7c79 3abd e282 3ebd ea85 00bd 4f42 0c3c
00000170: 9565 2bbd 29c6 4d3c a079 58bd bb07 65ba
00000180: cbb9 11bc 0e46 1bbd c1d6 21bc 45e2 10bd
00000190: 3102 52bb ff38 34bd 500b 733d 102c 83bd
000001a0: 1a9c ac3b bf65 9b3c 977f dc3c eabc 783d
000001b0: cd5e 30bd acf7 a9bc 119b afbc f223 623d
000001c0: fb0b f1ba 02ba 5d3d c2be 683d bf26 51bc
000001d0: 5738 033d 8035 7fbc f5b1 d93c eb22 c3ba
000001e0: 59ef 20bd dd38 c4bb 5033 263b 8f72 2cbd
000001f0: bda4 453d abcf 203d 757f 10bd 9b0b 123d
-0.030007074 -0.030848116 -0.028696582 -0.019421516 0.034021728 -0.070525885 -0.04126536 0.011394023
0.019204464 -0.055183895 0.03154914 -0.033458065 0.008678819 0.03465829 -0.058882236 0.00456818
0.045637783 0.052045632 0.017730426 -0.030976487 -0.0010249671 0.06102744 -0.003187163 0.054915458
-0.030200975 -0.051897746 -0.029489083 -0.023642989 -0.037155002 0.030582884 -0.046547893 -0.0002636149
0.028973294 0.053074926 0.056639515 -0.0023475096 0.06641435 0.028199675 -0.0011036 0.01116533
0.04426853 -0.035642643 0.018760651 -0.009282039 -0.055727027 -0.026798194 0.048513126 0.007835203
-0.014712252 -0.02218977 0.054984048 -0.025776101 -0.021462198 -0.034111988 -0.031160595 0.0064819967
-0.011506209 0.025501799 0.06690483 0.057429142 0.036322527 0.051555306 0.051401805 -0.005212661
0.061801706 -0.04090532 -0.015726922 0.046146706 -0.059453554 0.0028554648 0.030270046 0.04782847
-0.05665164 0.02208463 0.0009608625 0.013525349 -0.038092352 0.03787718 -0.05162148 0.039693896
0.05315015 -0.03125535 0.030277586 -0.01841609 0.050543148 0.01852753 0.04510536 0.023532901
-0.045526013 -0.04651154 -0.03137771 0.008560731 -0.041844923 0.012559452 -0.052850366 -0.00087368087
-0.008894394 -0.037908606 -0.0098778615 -0.035372037 -0.0032044763 -0.04399967 0.05933696 -0.06404889
0.005267632 0.018969415 0.026916308 0.060727037 -0.04305916 -0.020747982 -0.021436246 0.05521006
-0.0018390411 0.05413247 0.056822546 -0.012765585 0.03203615 -0.01557672 0.026574114 -0.0014887726
-0.03929076 -0.005988224 0.0025360174 -0.04210144 0.04825281 0.039260548 -0.035277802 0.0356556

move_head.weight f4 [5, 128]
00000000: 5c6a e53c 663f af3d fc0d 9cbd 14b5 a8bd
00000010: f539 a93c 38bf 193d f474 873d 75b3 57bd
00000020: 7b96 ddbc e23e cc3c 959a 11bd 00fe 793b
00000030: 50f6 2ebd 140c 693d 5efb b3bd 656e 653d
00000040: 69af 2a3d 95a2 7f3d fa1e 2bbd 02c0 b03d
00000050: 8e42 4f3d 0a26 9f3a 2132 71bd 997b cf3c
00000060: e980 1cbd 6156 90bd 9968 99bd 5673 bbbc
00000070: 06d9 6e3d 1f93 5c3c 9426 dcbc 76f3 65bd
00000080: 3221 62bc 17d8 373b e2b8 ac3c 6960 48bc
00000090: 91e4 a73c faa7 8e3c 83fc 143d ab29 0e3d
000000a0: ccef 58bd 2abc 64bd 797d 42bd b271 1abd
000000b0: 9bb6 253c eb14 42bc 9dd4 9e3d d222 9fbd
000000c0: f5fc 9abc a617 74bd d985 863d f670 a23d
000000d0: 0244 13bd 63ff e73c e812 95bd a561 74bc
000000e0: ee5b 473d 71a8 7fbc 68ed 2d3d a92f ccbc
000000f0: eadc 853d 542f dabc d714 373c 2d1e 973c
00000100: b665 dfbb 638e a4bd 9c7d 1c3c fa79 053d
00000110: 9f44 3d3d c6b3 9c3c 9c57 d8bc 52e8 543d
00000120: 3b70 03bd dba0 d8bc 90d1 05bd 5958 02bd
00000130: 1665 e0bc 9fc5 273c 244e 233c a338 963d
00000140: 2d1f c8bc aec0 98bd ab55 9c3c 7393 01bc
00000150: cb20 103d 2fbd d8bc 8b40 173c 0431 bb39
00000160: d7f2 c33c 53a0 afbd 899a 843d 48df b3bc
00000170: cfbc 9a3c ae5d 4ebd d25d 93bb 646b 95bc
00000180: 57b2 083d dd0d a73c 16b6 14bc d222 dbbc
00000190: 1f42 4bbd 41be 893d 02ea cf3a 728c 7b3d
000001a0: eadf 7e3d 29f3 1d3d fc1f 1c3d 6aee b13d
000001b0: a3ee 50bd 8c5b 3eba 9159 9cbd 590d 7c3d
000001c0: 2ad2 19bc 0dd5 6a3d 390a 983d 3798 7fbd
000001d0: fa00 123d 2e59 2c3d 562a 88bb 3806 a2bd
000001e0: fdba cf3c 69a9 ff3c 530f 2b3c a6cb 7a3c
000001f0: 82c9 50bc 2070 cabc 2faf 44bd c99a 163d
00000200: 0214 8f3d d1ad a83d 5aec d9bb 11ed 8dbd
00000210: 9dc9 9f3d 3f4e 6d3d 0308 5ebd f990 333d
00000220: 46de 7bbd 6d35 cebb d327 9cbd 1f26 25bc
00000230: 9677 893d 534e 70bd 0fbe 86bd 4707 a4bd
00000240: 9c4b bf3d 52df 98bd 186f 1bbd 38b3 6dbc
00000250: 946d a0bc 7dcf ba3d 829c 893d e424 f1bc
00000260: 0ee9 cb39 4eb5 9d3d 43de b93d 4dd8 773b
00000270: ecbf 9bbd b5f5 79bc 43c0 bbbd 1617 30bd
00000280: 0925 363d be19 28bd c648 74bd e7ba 20bc
00000290: 219f 593d 387b 72bd a7f4 883d ca5c 5abd
000002a0: 64ba 85bd df40 fc3a b468 2c3d 6cc8 3e3d
000002b0: 2cdb 823d e9ba a3bd 6d67 7cbd 8503 82bd
000002c0: 7de0 973c b611 a23d 23ec 43bd 2c61 653d
000002d0: 687c 6f3c e92e 863c 9a70 69bd 02c7 1dbd
000002e0: 894a d2bc 9fe8 943d 43c1 ab3d 209a 603d
000002f0: f3d3 9a3d 0475 96bd c731 00bd d9f1 ccbc
00000300: c727 863d 78a3 bcbd 5150 26bd 9e5c 303d
00000310: 0a8a 41bd 8b99 21bd 815a 653d fb6f 4f3d
00000320: 7d20 db3b 3d0d 54bd ce5d f5bc f16f 8d3d
00000330: 020a 80bd 69ed 97bc d925 123a 74eb ce3d
00000340: af60 8e3d e2ce 993a 9d8c 8dbd d6c4 573d
00000350: 8740 273d e10e 7f3b d498 b53d 5404 763d
00000360: 6efe ed3c 32a6 bebd e551 2abd 94ab 2b3d
00000370: 051f b33d 7c21 96bd d2b0 37bd 42d6 583d
00000380: dc44 82bd 4b53 953d e3d3 57bd 058a 6ebd
00000390: 9edd cb3c 0cc5 86bd 640d f339 f86e 713d
000003a0: 2cb6 1d3d b4c1 873d e57a 3ebc a0d4 b03d
000003b0: c3ff 99bd 5d15 173d ba17 633d 916d ebbb
000003c0: 2da9 67bd bf45 3b3d bdb7 ec3d 9345 bb3d
000003d0: 3a06 24bd ec26 a93d 41d5 a0bd b5c4 48bd
000003e0: 42cd 2bbd 68c1 03bd bd05 dd3c d9e8 2c3c
000003f0: a5db 8dbc b10b 453d 38bd 393d 14c7 7f3b
0.028004818 0.08557014 -0.07619855 -0.08237663 0.020657519 0.037535876 0.06614104 -0.052661378
-0.027049294 0.024932329 -0.03554781 0.003814578 -0.04271537 0.056896284 -0.08788179 0.056013484
0.04167119 0.06241091 -0.04177759 0.086303726 0.05060058 0.0012142074 -0.058885697 0.02532749
-0.038208876 -0.070477255 -0.074906535 -0.022882145 0.05831244 0.013462811 -0.026873864 -0.056140386
-0.01380186 0.0028052384 0.021084253 -0.012230017 0.020494731 0.017414082 0.036373626 0.034707706
-0.052963063 -0.05584351 -0.04748294 -0.037706085 0.010114337 -0.011845808 0.077553965 -0.07770313
-0.018919447 -0.059592865 0.06568498 0.07931702 -0.03595353 0.02832002 -0.07278997 -0.014915858
0.048671655 -0.015604124 0.042462736 -0.02492507 0.06536277 -0.026633896 0.011174402 0.018447006
-0.006817545 -0.080349706 0.009551432 0.03258703 0.04620802 0.019128691 -0.026408963 0.05197937
-0.032089453 -0.02644389 -0.032670557 -0.031822536 -0.027391952 0.010239988 0.009967361 0.07335021
-0.024428928 -0.07458626 0.019083818 -0.00790869 0.035187524 -0.026457397 0.009231697 0.0003570394
0.023919506 -0.08575501 0.06474788 -0.021957055 0.01888886 -0.05038231 -0.0044972682 -0.018239684
0.033373203 0.020392353 -0.009076616 -0.026750002 -0.049623605 0.06725741 0.0015862586 0.061413236
0.06222526 0.038561974 0.03811644 0.08688052 -0.05100883 -0.00072615664 -0.07634271 0.061536167
-0.009388486 0.057332087 0.07423825 -0.062401023 0.035645463 0.042077236 -0.0041554375 -0.079113424
0.025357718 0.03120871 0.010440665 0.015307343 -0.012743356 -0.024711668 -0.04801863 0.03676871
0.06986238 0.08236278 -0.0066504898 -0.069299825 0.078021266 0.05793595 -0.05420686 0.04383943
-0.061491273 -0.00629299 -0.07624783 -0.01007989 0.06712262 -0.058668446 -0.065792195 -0.080092005
0.09340593 -0.0746447 -0.037947744 -0.014508061 -0.0195835 0.091216065 0.067193046 -0.029436536
0.00038892817 0.07700597 0.09075596 0.0037818134 -0.076049656 -0.015256335 -0.091675304 -0.042990766
0.044468913 -0.041040175 -0.059639715 -0.009810186 0.053130273 -0.05919954 0.06687289 -0.053311147
-0.06529692 0.0019245407 0.04209204 0.046577856 0.0638946 -0.07994635 -0.061622072 -0.063483275
0.018539662 0.07913534 -0.04783262 0.056000873 0.014617063 0.01637979 -0.05699215 -0.038519867
-0.025670307 0.072709315 0.08386471 0.054834485 0.07559957 -0.07346538 -0.03129747 -0.025017666
0.06550556 -0.09210867 -0.04060394 0.043057077 -0.047250785 -0.03945307 0.055994514 0.050643902
0.0066872225 -0.051770438 -0.029951956 0.06906117 -0.06251909 -0.018545823 0.0005575098 0.10103503
0.06952035 0.001173463 -0.069115855 0.05267795 0.040833022 0.003891878 0.0886704 0.06006272
0.029051986 -0.09309043 -0.041582007 0.041911677 0.08746151 -0.073306054 -0.044846363 0.052938707
-0.0636079 0.072912775 -0.052692305 -0.058237094 0.024885949 -0.065805525 0.0004635855 0.05894372
0.03850381 0.06628743 -0.01162598 0.08634305 -0.07519486 0.036885608 0.05544255 -0.007184692
-0.056557823 0.045720812 0.11558483 0.091441296 -0.040045 0.08259377 -0.07853175 -0.04901572
-0.041943796 -0.03216687 0.026980275 0.010553562 -0.017316649 0.048106853 0.04534647 0.0039028572

move_head.bias f4 [5]
00000000: 7c0b 43bd dcd4 86bd 5734 48bc b9b1 20bd
00000010: eafd 013c
-0.047618374 -0.065835685 -0.01221951 -0.03923199 0.007934073
