checkpoints/simple_world_comm_v3_transfer/simple_world_comm_v3_adversary_1_ep725.pt (torch, 437311 bytes, 8 tensors)

body.0.weight f4 [256, 34]
00000000: 0fdc 7a3d e03b 38be 6d63 eabd 5286 cbbd
00000010: 1a9d f7bd c30a 303d d60b 9e3d 1c2b efbd
00000020: 8fc0 a2bd 6f8d 06be d993 17be 9b8f 103e
00000030: 68e7 ddbc 4f0a f63d 94e6 773d 8769 2dbe
00000040: 8de8 74bd 6c37 5dbd 0d75 29bd 07c2 ddbd
00000050: 57db 62bd 9ad5 c13d 73d2 813c 5b0a 203e
00000060: 50bd 18be bc03 d63d b4af a9bc 8e38 89bd
00000070: 20e3 cc3d dfb2 43bc 38dd 133e dd43 e63c
00000080: bd3e c4bc 4a86 c7bd 7000 a33d 7c49 9e3d
00000090: 3ace 1b3e fa81 353c ca00 94bd 8540 183e
000000a0: 1452 0e3b 4c95 1d3e c248 f73d a93e 4c3d
000000b0: 737c 103d 65a1 1f3e 57e4 b4ba 7f7e 95bb
000000c0: d358 cabd ef15 50bc 647c b23a b078 9dbb
000000d0: a19f 763d 6773 ce3d d2f1 edbc 1739 423c
000000e0: 6d7e bfbd 4bc4 a53d e69e 023e b5e6 1b3e
000000f0: 5081 e2bd 69cb 2d3e a7ca 6d3d 2927 24be
00000100: 69a6 293d d43e 3fbd 95f9 093e 520a c3bd
00000110: 3336 183e c9f0 3c3d 846f a6bd b43a 02be
00000120: 4970 143d 5b72 d5bd 3454 013d c8e3 a1bd
00000130: 9a55 0abe 9887 5d3c dcc2 8dbd 2d62 043e
00000140: def6 9e3d 9e1f 633c 10dd 0c3e ad46 d2bc
00000150: b20e fd3d c00f 54bc e09b 133e 1777 0dbe
00000160: ffa1 ffbd fdbe 00bd 7676 303d d5b5 f1bd
00000170: 8120 233e cefd 353d 01b4 8bbd 3005 c5bd
00000180: c72f c1bd 249f 833d a8cb e63d 485c f9bd
00000190: 2410 053e 89b9 f93d 6f22 4cbd 0949 1abe
000001a0: 92a1 2e3e edf7 0bbe 08d4 463d 7965 233e
000001b0: d952 b8bd 5197 b9bd 6377 303d 54d3 6abb
000001c0: 79b6 3bbd 7a5c 2ebd 909e 80bc 9da8 113e
000001d0: 2fa3 fdbd b632 26be 3d1f c5bd e42f 07be
000001e0: c211 163e ecec ffbd 57f9 3e3d 15a6 f4bd
000001f0: 315e 02bd 582c be3d a16c e6bd d009 7ebd
00000200: 9581 b9bd 1b07 babd 5f10 bfbd 05a2 053d
00000210: 7d67 29be 8378 653d a702 2bbe cad6 c0bd
00000220: d470 b93d 8ad1 1bbd 1058 cb3d 6116 b73b
00000230: 713a 3e3e f988 e23d dc8a 863c e2f0 14be
00000240: 41bb 293e 3342 953d 15c2 f83d 5f86 363e
00000250: a36b 663d 34ed 82bd 389f e13d b5b5 113e
00000260: 3f46 c03d 1831 ea3d ad66 76bd 01c6 c8bd
00000270: d7a2 a5bc 8d62 0bbe 0173 60bd 4340 68bd
00000280: 85fe 0c3e 87a4 f7bd afb5 a3bb 0309 a0bd
00000290: 64ec 2bbe 2e11 46bd 1f75 e5bd 567d 5ebd
000002a0: b64b ad3c c5d9 6a3d 1a4a fc3c b9d3 d73d
000002b0: fa2f 903d 044a 89bc e53a 053e 3131 6bbd
000002c0: e3aa 903c 367b a13c ac17 67bc 05f6 ef3d
000002d0: 170e 85bd 0659 16be 154e 37bd 0491 c3bc
000002e0: 9de5 2fbe 088c 033e 6419 1abe d6b0 233e
000002f0: 632b 2a3e a25c 193e c884 97bd 8f36 26be
00000300: 773e f9bd 44b8 1b3e b2b1 a1bc 17c0 49bd
00000310: 0f03 fd3d 5120 28be a2c2 273d b584 f83d
00000320: 3fea 753c 4ad3 c4bc 210a 153e e8d4 f0bd
00000330: 960b a63d 0850 1cbe 664c 8d3d f91d 1dbd
00000340: b5ee 01be 0dd0 8f3d 0245 253e e17b 2ebe
00000350: 2b6e d63d 15e5 143e d63d 9fbd 6c66 23be
00000360: 5c13 d2bd 035a 00be eab7 24be 6557 063d
00000370: 8923 e23d f9bf c53d 83f3 11be c62a 9e3d
00000380: 0c7e 30bb d1af 81bc 454c d63d 39a0 98bd
00000390: 98c2 c83d 5a8d 9d3d 4fa7 273e 199c 0abd
000003a0: 9033 aebd 01f8 bbbc 1f21 2a3e 1bb8 303e
000003b0: 719d 1e3d b658 b5bd 8b54 8d3d 9d10 d8bd
000003c0: cb19 26bd 2f13 1dbe 2d8b a93d 964d abbd
000003d0: a670 ff3b 864e 08be 4865 e4bd c401 c3bd
000003e0: d35c 923c 25a7 0ebe 0e68 383e f3d2 c8bc
000003f0: 92ff 503d 81a1 1b3e 810f 993d 0a4a ea3d
0.06124502 -0.1799159 -0.11444745 -0.09937729 -0.120905116 0.042979013 0.07717101 -0.11678144
-0.07946884 -0.1313989 -0.14802493 0.14117281 -0.027087882 0.12013685 0.06052263 -0.16934787
-0.05979209 -0.054007933 -0.041371394 -0.108280234 -0.05538496 0.094645694 0.01584742 0.1562895
-0.14915967 0.10449931 -0.020713665 -0.0670024 0.10004258 -0.011944502 0.14439857 0.028108532
-0.023955697 -0.097424105 0.07959068 0.0772886 0.15215388 0.011078352 -0.07226713 0.14868362
0.0021716403 0.15388983 0.12074424 0.049864445 0.035274934 0.15588911 -0.0013800961 -0.0045621987
-0.09880223 -0.012700542 0.0013617394 -0.004805647 0.060210828 0.10080605 -0.029045973 0.011854432
-0.09350286 0.080940805 0.12755927 0.15224726 -0.11059821 0.16972126 0.058054592 -0.16030563
0.041418467 -0.046690777 0.13474114 -0.09523453 0.14864425 0.046128068 -0.08126739 -0.12717706
0.036239896 -0.10422202 0.031574443 -0.07904774 -0.13509217 0.013521098 -0.06921932 0.12928076
0.0776193 0.013862519 0.13756204 -0.025668466 0.123563185 -0.012943208 0.1441493 -0.1381496
-0.1248207 -0.03143214 0.043081723 -0.1180226 0.15930368 0.0444315 -0.068214424 -0.0962013
-0.09432941 0.06426838 0.11269313 -0.121758044 0.12994438 0.12193591 -0.049837526 -0.15066923
0.17053822 -0.13668795 0.048542053 0.15956677 -0.09000177 -0.090620644 0.043082606 -0.0035831528
-0.045828316 -0.04256866 -0.015700608 0.14224477 -0.123846404 -0.16230282 -0.09625099 -0.13201863
0.14655212 -0.12496361 0.046624508 -0.1194574 -0.03182811 0.09285802 -0.11251188 -0.062021077
-0.09057919 -0.090833865 -0.093292944 0.032625217 -0.16543384 0.056023132 -0.1670023 -0.09415968
0.090547234 -0.03804163 0.09928906 0.0055873846 0.18576981 0.11061282 0.016423635 -0.14545015
0.16575338 0.07288017 0.12146393 0.17824696 0.056254994 -0.06392899 0.11016697 0.14229472
0.093883984 0.11435145 -0.060156513 -0.09803391 -0.02021925 -0.13611813 -0.054797176 -0.05670191
0.13768966 -0.12091928 -0.0049960236 -0.07814219 -0.16789395 -0.048356228 -0.1120398 -0.05431875
0.021154266 0.057336587 0.030797053 0.1053843 0.07040401 -0.016758926 0.13010748 -0.05741996
0.01765961 0.019712072 -0.014104765 0.117168464 -0.06496828 -0.14682397 -0.0447522 -0.02387286
-0.17177434 0.12846386 -0.15048748 0.15985426 0.16618113 0.14976743 -0.07398373 -0.1623175
-0.12170117 0.1520701 -0.019738052 -0.049255457 0.12354099 -0.16418578 0.0409571 0.12134687
0.015009462 -0.024026532 0.14554645 -0.11759359 0.081076786 -0.15264904 0.068993375 -0.038358662
-0.12688716 0.070221044 0.16139606 -0.17039444 0.104702316 0.14540513 -0.07775466 -0.1595704
-0.10257599 -0.12534337 -0.16085783 0.03279819 0.11041934 0.096557565 -0.14253049 0.07723002
-0.0026930599 -0.015830906 0.10463766 -0.07452435 0.09802741 0.07692976 0.16372417 -0.033840273
-0.085059285 -0.022945406 0.16614197 0.1725773 0.038724367 -0.08854811 0.06900891 -0.10550044
-0.04055194 -0.15339349 0.08278499 -0.08364408 0.007795411 -0.13311204 -0.1115213 -0.09521821
0.017866528 -0.13930948 0.18008444 -0.02451465 0.05102498 0.15198328 0.0747366 0.11439903

body.0.bias f4 [256]
00000000: c6ef b83d a011 2e3b 2b69 083e 24f5 2c3d
00000010: ea4f 8b3d 2d60 163e 8500 f83d a32c 21be
00000020: d40c a9bd f5ed a9bd 5421 60bd 735a 90bd
00000030: da56 843d 055d 36bd 092e 1cbe 8276 7c3d
00000040: 39e8 96bd 62b9 07bd 699e ab3d f5ae 67bd
00000050: 10ce 0fbe 7b93 46bc c4d2 213d 4479 a3bc
00000060: 0da1 323e 180f 393d e2cd a93d 4c2b 24bd
00000070: 6b0b d6bd 3688 babb 6950 153e a852 54bd
00000080: a6ad 28bd 44d8 3fbe 282d 04be f676 a2bd
00000090: 9d85 15bd ab89 c13d 965a 033e 755e c0bd
000000a0: df35 d53d bbc8 d83d 1dd1 ffbd 477d 403d
000000b0: 71ad e8bd 5728 343e 0952 04be c7b3 0abe
000000c0: ba99 013e 2930 b03d ea44 14bc 878f ea3b
000000d0: 2de4 afbd d96d edbd 7784 f6bb 83b7 d33b
000000e0: 0ee8 f4bd c6a3 a4bd 9910 a7bd 18ed 223e
000000f0: f000 fcbb c8f3 01be 0335 3a3d c6ef f43d
00000100: 18bc 78bd d4d5 04bd 20a0 053e ee38 113e
00000110: 30df 20be 7d18 52bd d42d a4bd b79c 373d
00000120: d534 19be 11a8 f1bd 13b8 ea3d 4d34 02be
00000130: e5de f8bd 9283 14be c5a1 153e 0158 f53d
00000140: a2fd 6abd eb21 25be 485d 26bd dc0e 0cbd
00000150: 27bc ae3d cc89 27be 9432 b43d caf8 023e
00000160: f618 ea3d 02b8 18be 3cf8 f03c 881f 92bd
00000170: 7356 0abe f3ef 2a3e 8bb8 a0bd 41a9 d93d
00000180: b387 313d 407f c0bc 7b6f c8bd 948a bd3d
00000190: d737 213d 9ffd 2f3e 215b 17be 9e4d 1e3e
000001a0: 2d64 573a 85b0 1dbe c261 313e 468f febd
000001b0: 050e a4bc d3eb 023e cee5 b7bd c9bd ddbd
000001c0: 3463 c2bd 3621 063e 3fbd 513d 0d9e f0bd
000001d0: 0eef 07be aacd 7ebd 1975 3dbd deaf 95bd
000001e0: 10f2 fcbd 6a75 54bd 5807 d83c 359e fcbc
000001f0: f45c a13d dc68 ad3d 154c d5bd 8553 cd3c
00000200: 9f78 da3d fd9e 0dbe 8fb9 cabd 8f3d 773c
00000210: fc83 17bd 064a d0bc 6d63 26be 4092 60bb
00000220: 35bb 0bbc 80e1 7b3d cbb3 1abd cb54 103e
00000230: e273 c6bd 9551 b53c 8fb0 143e 23f2 003e
00000240: b06e 9f3d b82a adbd 343e 12be 6946 f1bd
00000250: 4637 f6bb 6716 513c dfbe 143e 259b 0d3e
00000260: d412 85bd 9b1e e43d 6ba2 d4bc 5834 fbbd
00000270: 618b 9fbd 07af ccbd 94c4 0f3e 498d cb3d
00000280: 8f1f 15bd 3501 643d a80d 0d3e 9b97 0dbe
00000290: 4ff8 a1bd 411c dfbc 5029 2dbe 9ec2 f63d
000002a0: 0de0 afbd 082d 1a3e ed6a 813d f86b 17be
000002b0: 6707 16be 9fe0 193e 8711 fbbd c356 a1bc
000002c0: 52e0 04be dce0 2e3d d041 093e f8ca 173e
000002d0: 0bf8 f43c 866c 8bba 1320 1f3d ee5d af3d
000002e0: 367e 093e c4ae 42bc cc72 bd3d 97f1 0e3e
000002f0: 62f7 76bd ac90 ebbd e3b7 f3bd 7516 763d
00000300: a5fb 853d 1fe3 aabd a4c8 0d3e 6e84 03be
00000310: 8a3d 853d 4602 1f3e 42d0 ca3c 64e1 f5bd
00000320: 1544 e63d 1b89 c43d 7ad3 0f3e 4771 d7bd
00000330: 2593 06be 0b6d a23d 968b 4cbd 3985 133e
00000340: 2875 553d 98fd e0bc d6fc 603d c235 e3bd
00000350: 58ad 50bd 2281 bebd bf1a 1c3e 8bc1 1ebe
00000360: 3745 efbd ca27 1ebd 9454 e93d 638c 153e
00000370: 0156 9bbd 8f16 e0bd c6f2 d3bd e7e3 383e
00000380: 6b14 cb3d 0f2e f03d 3d53 963c ee1f 6b3c
00000390: e4bf 653d 6f83 2b3e adf1 213e c004 c1bc
000003a0: 23e0 a13d 8fcd 80bd 86f7 343e b938 41bd
000003b0: 8acf 5dbd 6072 443d 2ce4 eabd 9b78 f5bd
000003c0: d8bd b6bd 8fc4 35be 97d8 c63d 1796 f8bd
000003d0: b2e6 e1bd c656 813d 9092 b9bd bff1 2b3e
000003e0: d4b1 523c 8f83 babd c1fa 1c3e 4769 74bd
000003f0: 08b3 e23d d862 eabc ef4a 37bd 5c04 e9bd
0.09030108 0.0026560798 0.13321368 0.04222597 0.06802352 0.14685126 0.12109474 -0.15739684
-0.082544 -0.0829734 -0.054719284 -0.07048502 0.06461878 -0.044522304 -0.15251936 0.061636455
-0.07368512 -0.03313578 0.08379824 -0.056563336 -0.1404345 -0.012120123 0.039507642 -0.019955285
0.17444248 0.04518041 0.08291222 -0.040080354 -0.104513966 -0.005692507 0.14581455 -0.05183664
-0.04118123 -0.18734843 -0.1290785 -0.07932846 -0.036504377 0.09450086 0.12827525 -0.09393016
0.10410666 0.10585161 -0.12491057 0.046994474 -0.11361206 0.17593513 -0.12921919 -0.13545142
0.12656298 0.08602936 -0.0090496335 0.007158223 -0.08588443 -0.115932174 -0.0075231153 0.0064610853
-0.119583234 -0.0803905 -0.081574626 0.15910757 -0.0076905414 -0.12690651 0.045460712 0.11959796
-0.060726255 -0.032430485 0.13049364 0.14181873 -0.1571014 -0.051292885 -0.080165535 0.04482719
-0.1496156 -0.11799634 0.114608906 -0.12715264 -0.12151889 -0.14503315 0.14612491 0.11979676
-0.05737079 -0.1612622 -0.040616304 -0.03419386 0.08531981 -0.16361159 0.087987095 0.12790218
0.11430542 -0.14913943 0.029415242 -0.0713492 -0.1350954 0.16693096 -0.07847699 0.10627986
0.043342303 -0.023498178 -0.09786888 0.09254947 0.039359894 0.17186593 -0.14780857 0.15459296
0.00082165265 -0.15399368 0.17322448 -0.12429671 -0.020026216 0.12785272 -0.08979379 -0.10827214
-0.09491578 0.13098606 0.05120587 -0.11748896 -0.13274786 -0.062207855 -0.04625425 -0.07308935
-0.12350857 -0.051869787 0.02637069 -0.030837158 0.078790575 0.08467266 -0.10414902 0.02506424
0.10667538 -0.1383018 -0.09898674 0.01509036 -0.036991104 -0.025425922 -0.16248865 -0.003426686
-0.00852852 0.06149435 -0.03776912 0.14094846 -0.09690072 0.022133628 0.14520477 0.12592368
0.07784784 -0.084554136 -0.14281541 -0.11781008 -0.0075139133 0.012761689 0.14525937 0.13828714
-0.06497732 0.1113865 -0.025956353 -0.12265843 -0.07790256 -0.09994321 0.14039832 0.099390574
-0.03640705 0.055665214 0.1377474 -0.13827364 -0.07908689 -0.027235152 -0.1691029 0.12048839
-0.08587656 0.1505624 0.063192226 -0.1478728 -0.14651261 0.15027092 -0.122592025 -0.019694692
-0.12976196 0.04269491 0.13404012 0.1482352 0.029903432 -0.0010637201 0.038848948 0.085628375
0.13427052 -0.011882488 0.092504114 0.13959347 -0.060294516 -0.11502203 -0.11900308 0.06008001
0.06542138 -0.08344101 0.1384607 -0.12843487 0.06505878 0.15528211 0.024757508 -0.120058805
0.11243454 0.09596463 0.14045516 -0.10519653 -0.13142069 0.079309545 -0.049937807 0.14406289
0.052113682 -0.027464673 0.054928623 -0.11094238 -0.050946563 -0.09301974 0.15244578 -0.15503518
-0.116831236 -0.038612165 0.11393085 0.14604335 -0.07584763 -0.10941803 -0.1034904 0.18055688
0.09916004 0.11727535 0.018350238 0.014350874 0.056091204 0.16749357 0.15814848 -0.023561835
0.07904079 -0.06289207 0.17672548 -0.047173236 -0.054153003 0.04796064 -0.114693016 -0.11985894
-0.089229286 -0.17750762 0.0970928 -0.12138002 -0.1103033 0.06315379 -0.09061158 0.16791438
0.01285978 -0.09107124 0.1533003 -0.059670713 0.11069304 -0.028611585 -0.044749197 -0.113777846

body.2.weight f4 [256, 256]
00000000: e109 893d 5fe9 2f3d fc7d 12bd d764 0abd
00000010: e3d6 2bbd 7d9e aebc c1f9 98bc a5bf 28bd
00000020: 9eb5 f1bc b1be 57bd 46cb 7e3c 2a97 1c3d
00000030: ba28 02bd 5eed 4dbd 133c 813c 2ca2 88bd
00000040: fbe9 6b3d 80c8 843c 468c 86bd eaea 8f3c
00000050: f42b 893c daeb 84bd 8f5b e3bb 73bc ceba
00000060: 9f5f aabc 724e 0d3d 1e84 e9bc 091b f33c
00000070: 0dba 413c 239e 233d 8e32 8b3c c734 4c3d
00000080: 629d 7b3c 16ef 7e3d 01a3 04bc 54a1 0cbb
00000090: 22ee bcbc 1f52 a5bc 324b 39bd 58e9 43bd
000000a0: e416 343a 5326 df3c a538 9bbb adaf 3bbd
000000b0: 2179 6cbd 8c0f aabb 883d 863a 5da2 4d3c
000000c0: 95fb 423d 03bd 953c 54fb 4cbd 5162 71bd
000000d0: a9cc 5a3d 4899 17bd f6dc b2bc 9057 0b3d
000000e0: 2b7b b3bc 2e18 943c b927 ed3c b15f 6cbd
000000f0: 98b5 5c3c 205c 5dbc 55d0 0ebc ffdf 2bbb
00000100: 301c d9bc b07b bb3c 29c0 c03c e1ec 4c3d
00000110: f553 bfbc a478 bd3c 235f 563d 232e c73c
00000120: 4837 6dbc 0505 b5bc 419c 433b d08f 2b3d
00000130: feb0 603b 6dc7 a33c 76ea 0ebd 4aea 53bc
00000140: 5292 853b a81e cc3c 99c1 bfbb 2301 963c
00000150: e375 f7b9 250c 26bd ac9a 4a3d 8eb7 72bd
00000160: cd48 c3bc 45c9 dbbc f956 d7bc 2c0e b8bc
00000170: 62af 16bc fa36 133d 4c3d 06bd af53 5bbd
00000180: e1ae 3dbd 09e2 00bd c910 c63c 83bb 6c3a
00000190: 8e5a 4e3d 349c 5dbd ab38 903d c33e 4c3c
000001a0: 4598 343d b879 613d 2c28 ea3c 46f2 d2bc
000001b0: 09a9 ccba dfbd 653d 7a46 4ebd 7e5b 3d3c
000001c0: 8563 423d a635 1ebd 7d10 29bd b077 2c3d
000001d0: 30ad 8a3d f6bb 13bd 620f 673c 195b 8abd
000001e0: da60 8cbc 1523 00bd cee3 77bd a74f 5e3d
000001f0: aa9f ef3c 84d3 393d af7f 4d3d 5efa 6b3d
00000200: 2ed5 863c 45a5 84bb 13c4 44bd d83e 94bc
00000210: c7d5 3c3c 9c0f 293b 7b8f 02bd 201a ce3a
00000220: 1542 cf3c 4718 83bc eb86 3c3d ab62 e8bc
00000230: cc53 ef3c 2a2c 04bd 3924 983b 35ba 76bd
00000240: 10f2 4f3d c511 7d3c 84c6 1c3d 866d a33c
00000250: 4f38 993c 8119 5b3d 0175 40bd 4c68 513d
00000260: 80fd 32bd 862b 28bd 4e4d 4abd 9bfe e739
00000270: 7b59 63bd 0b0f 1c3c d34e 223d 639d 52bd
00000280: 3560 f8b9 b50b a33c 5eca 9bbc 7d51 8d3a
00000290: d9a9 23bd 6621 f9bc e7e9 7dbd 2c8c fd3c
000002a0: 3dee 0b3d c04e 593d e116 60bd c78f fe3b
000002b0: 4978 f13c 1d34 bc3c 8c63 503d d7de ad3c
000002c0: d225 82bd fbae 63bd 2d36 3abd 10aa 6c3d
000002d0: 4628 70bd 2fd5 52bd 9988 7b3d 42c7 0bbc
000002e0: 34c6 80bd 5bc8 40bc 6cc2 1dbc 2ea4 d6bc
000002f0: 4cea a3bc 0fe6 2f3d 2980 00bd 0516 7e3d
00000300: 7c26 20bc a593 aa3c d3a0 f63b 5d62 6bbd
00000310: c2ac b7bc e30f 73bc cd78 0b3d 02e5 483d
00000320: 6a57 d638 0caa 303d 344c e63c ba61 f93c
00000330: 6bfd b639 798c 8fbb 5147 41bd d8d6 8c3c
00000340: b94e 483d f454 e5bc 54b8 c2bc 5c9c 833b
00000350: 9f6f cdbc 564a edbb c120 7d3c 261a e23c
00000360: c760 66bd 3884 62bd 0aaf f93c 452c 61bd
00000370: f19d 513d d6de f23c 3e8d 94bc 7062 183d
00000380: 3934 043d e810 1d3d 8fd9 56bb 1913 283d
00000390: 1586 863c 31a7 46bd d6ed ff3a b26f 10bd
000003a0: ad58 74bc 9e5d f53c 75cf 543d 56dd 423d
000003b0: 6365 b93c c1c3 5e3d 8116 553d 82ce fe3c
000003c0: aa47 4c3d 2145 c43c 39d5 213d d262 3cbd
000003d0: 6da2 ad3a 9be6 8abc 5f16 1bbb 6372 4ebc
000003e0: 0e6c 543c cad2 5ebd 7113 b53c abb8 343d
000003f0: e897 523a 9e43 92bc f2ed eb3a 7695 d13c
0.066913374 0.04294717 -0.03576468 -0.033787575 -0.04195298 -0.021315807 -0.01867378 -0.04119839
-0.029505547 -0.052672092 0.015551394 0.0382301 -0.03177712 -0.0502752 0.015775716 -0.06671557
0.057596188 0.016208887 -0.06569724 0.01756807 0.016744591 -0.064902976 -0.006938405 -0.0015772715
-0.020797549 0.03449864 -0.028505381 0.029675977 0.011824143 0.039945733 0.01699188 0.04985502
0.015357347 0.06223973 -0.008095504 -0.0021458464 -0.02306277 -0.02018076 -0.045237727 -0.047829956
0.0006869866 0.027239954 -0.004736977 -0.045821834 -0.057732705 -0.0051898416 0.0010241726 0.012550917
0.04760321 0.018278604 -0.050044373 -0.058931652 0.053417835 -0.037011415 -0.021833878 0.034019053
-0.021909317 0.018077936 0.028949605 -0.057708446 0.01347103 -0.013510734 -0.008716662 -0.0026226041
-0.026502699 0.022886127 0.02352913 0.050030593 -0.023355464 0.023128815 0.052336823 0.024313992
-0.014478512 -0.02209712 0.0029847773 0.041885197 0.0034285183 0.019992555 -0.034891568 -0.012934277
0.0040762806 0.024916962 -0.005851936 0.018311089 -0.00047199344 -0.040538926 0.049463913 -0.059257083
-0.023838425 -0.026829371 -0.026286589 -0.022467695 -0.009197088 0.0359411 -0.0327733 -0.053546604
-0.046309356 -0.031465564 0.024177926 0.0009030627 0.05037933 -0.054104045 0.070420586 0.012466135
0.044090528 0.05504772 0.028583609 -0.02575029 -0.0015614341 0.05608928 -0.05036018 0.011557458
0.04745819 -0.038625382 -0.04127549 0.04210633 0.06771314 -0.036067925 0.014102789 -0.06755657
-0.017136026 -0.031283457 -0.060519986 0.05427518 0.029250938 0.045367733 0.050170597 0.057611816
0.016459074 -0.004048022 -0.048038553 -0.018096372 0.011525578 0.0025796657 -0.031875115 0.0015724339
0.025300065 -0.016002787 0.046027105 -0.028367361 0.029214762 -0.03226868 0.00464299 -0.060236175
0.05076796 0.015446131 0.038275257 0.019949686 0.018703608 0.05349112 -0.046986584 0.051124856
-0.043698788 -0.041057132 -0.04939013 0.0004424945 -0.055505257 0.009525071 0.039625954 -0.051419627
-0.00047373926 0.019903043 -0.019017395 0.0010781732 -0.0399569 -0.030411433 -0.061990645 0.030950628
0.03416275 0.053053617 -0.05470932 0.0077686044 0.029476302 0.022974068 0.050876185 0.021224422
-0.0635487 -0.055586796 -0.045461822 0.05777937 -0.058632158 -0.05147284 0.061409567 -0.0085313935
-0.06287804 -0.0117665185 -0.009628873 -0.026201334 -0.020009182 0.04294401 -0.031372223 0.06203272
-0.0097748 0.020822356 0.007526496 -0.057466853 -0.022421245 -0.014835331 0.03405075 0.049046524
0.00010220597 0.04313092 0.028112508 0.030442107 0.00034902556 -0.0043807593 -0.047187153 0.01719229
0.0489032 -0.02799461 -0.023769535 0.004016442 -0.02507764 -0.0072415275 0.015449704 0.02760036
-0.056244638 -0.055301875 0.030478973 -0.05497386 0.051176015 0.029647272 -0.018133756 0.037203252
0.032276366 0.0383462 -0.0032783484 0.041033838 0.016421357 -0.04849929 0.0019525837 -0.03526277
-0.01491372 0.029951867 0.05195566 0.047574364 0.022631353 0.054385904 0.052023415 0.03110433
0.04987303 0.023958744 0.039509986 -0.04599268 0.0013247259 -0.016955664 -0.0023664457 -0.012600514
0.012965215 -0.054400243 0.022103997 0.044121426 0.00080335 -0.017854508 0.001799999 0.025583964

body.2.bias f4 [256]
00000000: fb5f 31bd 8464 703d aea4 7ebd fe7c 72bd
00000010: 4a9e b0bc e081 11bd 8048 8f3d 45dc 0a3b
00000020: a2ba 90bc d4e0 9e3c 1810 5e3d f859 263d
00000030: 1414 0bbd 5be3 86bd 9855 933c edc0 b33c
00000040: 18b9 ffbc b10c c93c efef 633d e6f0 01bd
00000050: 6c8d 853b c251 48bc 702a a03c e113 af3c
00000060: 8d31 16b9 0637 8c3d b49a a6bb cc57 243b
00000070: 7245 6f3c d28d 90bb 308c 353d 2f89 70bb
00000080: 2510 71ba 5cbf 09bc 9a2e 16bd 917e b3bc
00000090: 959c 433d 27df fa3c 52b3 03bc ab42 763c
000000a0: 75af ba3c 8efd e3bc ba78 613c ba7b f7bc
000000b0: 4e18 44bd 3a90 2abd 9326 56bc 9c9b 873d
000000c0: 133f 163d a750 eabc 66d9 b6bc a9af b8bc
000000d0: 7e6d 8a3c 35e3 2bbd 4110 0f3d 53e9 f83c
000000e0: f8cc cd3c f9de 5b3c 6d84 a0bc a043 3b3c
000000f0: 6680 acbc f22d 0dbd 21b7 6f3d f951 043c
00000100: 11ab 193c f9b1 073c ca04 a8bc 6d42 c43b
00000110: ad20 ccbb 4f3c 09bc 9475 1dbd eac4 1dbd
00000120: fb20 b63c bd8a 50bd c58b cc3c 1ef7 06bd
00000130: 5581 58bd d0d0 5c3d e884 1f3d c01e e63c
00000140: 19e0 793d be5a 7d3d 18f5 8e3d aac6 dbbb
00000150: d22c f1bb 6517 16bc 97ee 4b3d e551 8a3c
00000160: 82bd 333d 6d54 023d 777d 1abc e5e6 5c3d
00000170: 50e8 f8bc 0c8b e43c ae83 f1bb 96a2 163d
00000180: 58d9 79bd aa8c 1d3d 1667 ab3c 52e4 6e3c
00000190: 7e15 27bd 051b 983c a04a 6cbc e635 693d
000001a0: 5079 583c 7545 fb3b e29e 4b3d d30c 303d
000001b0: c3e8 15bc 9c4c 0a3d dd94 95b9 d1b4 2abd
000001c0: 5dfa 8e3c 2cc4 44bb 0c26 c7bc 3423 88bc
000001d0: ca19 953c 4ea3 443d bfa0 103d 0e52 ec3b
000001e0: 9201 b83c fd77 333c ea75 0cbd 69d4 4fbd
000001f0: 7422 99bc 955b 6a3d c72b 973c 61ee e3ba
00000200: 52a9 b2bb e70f 543d f151 0f3d 035e af3c
00000210: 3581 72bd 37b2 98bc 3c06 1ebd 291e 903d
00000220: 78fe e73c ea88 3abd 3a96 493c d73f cfbc
00000230: 5a45 a9bc 4dc3 40bd 9bd1 6cbc 3a29 633d
00000240: bc19 9cbc 06f2 203d 9c28 073c 74db 133d
00000250: 5f89 9ebb d0e1 1abd f89b 5b3d 0f54 823d
00000260: 0752 073d 0759 4dbd a596 12bd 3271 593d
00000270: fcc6 473d 0bcc 53bd e1cc e1bc 2328 1cbd
00000280: df3c 4bbb e3ef 873d 5fb0 473c 114a 10bc
00000290: 4bfd c23c b86a 2b3d 30ff 303c f082 ebbc
000002a0: 0159 393d 4fe7 80bc df2c d53c a5db 7dbc
000002b0: c44f e3bc 0c0b 95bc 8bea d53c 6607 873a
000002c0: 1822 88bc 25c7 4fbd e047 4dbc ecc6 98bc
000002d0: 28b1 093c 5bbf 26bc 13bc 173d ccd0 6bbc
000002e0: 0281 bebc 114a 93bc d96d 713d 7cfa 0f3c
000002f0: c219 1c3b f222 073d 7824 3bbd 4b0a 25bc
00000300: da4a e93b b232 e63c 402d 0ebd 54f0 483d
00000310: a91e 663d 8bfe 833c 6019 0c3d 786b 243d
00000320: 93cd 4ebd 5ba7 41bd a634 5f3c 8827 20bd
00000330: ac42 f83c fd56 8bbd ded0 633b 6a6e 433d
00000340: da32 27bc dc09 f13c 908c 59ba 16cf a2bc
00000350: 96eb 5d3d 27ec 51bd 7e00 d93c 5c1e 1dbd
00000360: b8c8 43bd 9e26 3c3c 5ecd 223c e4a5 56bd
00000370: 1f73 0abd c663 8e3c 82e9 093d 1a9c 06bd
00000380: 7c67 393d 9e82 5ebd e800 1f3d 1e92 3a3d
00000390: 234e 31bc 51c1 50bd 00b2 093d 3d26 07bd
000003a0: 84f0 643d fac4 303d 5369 27bd 569a 183c
000003b0: 14e0 72bd 2e7c 933d ee93 a6bc fa09 d8bb
000003c0: 9946 31bd 69de 80bc b56b 493d d271 fabc
000003d0: 2111 213b 0b70 613d 80eb 753d 3bf5 34bd
000003e0: 46e7 7cbd 9cf2 01bc c89a 303c 1edd 18bd
000003f0: cc50 693d b568 d1bb 8279 c33c 7a7d 2d3d
-0.043304425 0.05868961 -0.06216877 -0.059201233 -0.021559853 -0.03552425 0.0699625 0.002118842
-0.017667118 0.019394316 0.054214567 0.040613145 -0.033954695 -0.06586333 0.01798515 0.02194258
-0.03121619 0.024542185 0.05564874 -0.03172388 0.0040756967 -0.012226524 0.019551486 0.021371784
-0.00014323574 0.068464324 -0.00508436 0.0025076745 0.014603959 -0.0044114375 0.044323146 -0.0036702862
-0.0009195826 -0.00840744 -0.036665536 -0.021910938 0.04775675 0.030623985 -0.008038359 0.015030543
0.022788743 -0.027830865 0.013761694 -0.030210365 -0.04787474 -0.04164145 -0.01307072 0.06621477
0.036681246 -0.028602911 -0.02232046 -0.022544699 0.016897913 -0.04196473 0.03492761 0.030384695
0.02512215 0.01341986 -0.019594396 0.011429697 -0.021057319 -0.034467645 0.058524255 0.008076184
0.009379164 0.008282178 -0.020510096 0.005989364 -0.006229481 -0.008376195 -0.03844221 -0.03851787
0.022232523 -0.05091356 0.024968991 -0.032950513 -0.052857716 0.053910077 0.03894511 0.028090835
0.06100473 0.061854117 0.06980342 -0.006707032 -0.0073600793 -0.009160851 0.049788084 0.016884753
0.0438819 0.031818796 -0.009429327 0.053931136 -0.030384213 0.027898334 -0.007370434 0.036776148
-0.06099829 0.038464226 0.020923179 0.014580803 -0.04079198 0.018567571 -0.014422089 0.056936167
0.013212517 0.007668192 0.04971207 0.04298098 -0.009149733 0.033764467 -0.00028530406 -0.041676346
0.017453367 -0.0030024154 -0.024310134 -0.016618349 0.018200774 0.048007302 0.03530955 0.00721193
0.022461686 0.0109539 -0.03429214 -0.05073968 -0.018693186 0.057216246 0.018453492 -0.0017389768
-0.0054523135 0.05177298 0.034990255 0.021407133 -0.059205253 -0.018639667 -0.038580164 0.070370026
0.028319582 -0.045540728 0.012303883 -0.025298996 -0.020662952 -0.047061253 -0.014454271 0.05545924
-0.01905524 0.03929331 0.008249428 0.03609796 -0.0048381533 -0.037813008 0.05361554 0.06363689
0.03303721 -0.05013373 -0.035788197 0.053086467 0.04877375 -0.051708262 -0.027563514 -0.038124215
-0.0031011624 0.06637552 0.012188046 -0.008806721 0.02380242 0.04184982 0.010803029 -0.02874896
0.045250896 -0.015735297 0.026022373 -0.015494262 -0.027747996 -0.018193744 0.026112815 0.0010301888
-0.01661782 -0.05072703 -0.012529343 -0.01864954 0.008404054 -0.010177459 0.037044596 -0.014393043
-0.023254875 -0.017979654 0.05894265 0.0087877475 0.0023819064 0.03299231 -0.045689076 -0.010073255
0.0071195187 0.028100345 -0.034711123 0.04905732 0.056181584 0.016112586 0.034203887 0.040141553
-0.05048902 -0.047278743 0.013623392 -0.0391002 0.03030523 -0.06803701 0.0034761946 0.04771272
-0.010204995 0.029423647 -0.00082988385 -0.019874137 0.05417975 -0.051250603 0.026489493 -0.03835903
-0.047798842 0.011483816 0.009936659 -0.0524043 -0.033801194 0.01738156 0.033669956 -0.032863714
0.045264706 -0.054323785 0.038819224 0.045549504 -0.010821852 -0.05096561 0.03361702 -0.03299545
0.055893436 0.0431566 -0.04087193 0.00931414 -0.05929573 0.0720142 -0.02033421 -0.006592986
-0.043280218 -0.015731053 0.049174983 -0.030571852 0.002457686 0.055038493 0.060039043 -0.044179182
-0.061743997 -0.007931378 0.01077909 -0.03732025 0.05696182 -0.006390656 0.02386165 0.042355992

body.4.weight f4 [128, 256]
00000000: 1020 e5bc 2ac2 78bd aff6 06bd 844b 0c3d
00000010: b911 76bd 97cf 0e3d b871 513a a43f ab3c
00000020: eb56 e23b 5637 6d3d 13ec e3bc 1bec 61bd
00000030: 8f45 a53c 27f3 79bc 7438 2f3d bde9 773c
00000040: c417 233d a752 dcbc 70bc c33c 64ee 4b3d
00000050: 580c 69bd 3847 59bd 732a 52bc 0a46 16bd
00000060: 2993 823b 8aa1 8fbc 1e48 10bd 9173 803d
00000070: 60d0 57bc daa1 2c3d da18 403d f846 433d
00000080: 8f05 8a3c b01a 0f3d e626 72bd d5d1 743b
00000090: 06cc 38bd 54de eb3b 7eca 16bd 57f1 13bd
000000a0: b20f 5e3d fe7e fe3c 4c59 4fbc b2ad 993c
000000b0: 996c 00bd 167a f4bc 19f5 093b 7d6f 3ebc
000000c0: 68ff 50bd 621f 843d 1afb c0bc 6c74 75bb
000000d0: a73a c13b dff0 80bd 12d1 31bd 075a 5abd
000000e0: d0be 61bd 799b 473d 379c c8ba 6689 78bd
000000f0: ffb8 78bd 0eba 83bc 907b 4cbc 48f5 7abd
00000100: 2d01 913c e823 06bb ab18 af3c 3740 37bd
00000110: 4454 4cbd a600 553d efbf 1e3d b04a 88bd
00000120: 2b78 49bd 54a4 59bd 356c 51bd 1172 5d3c
00000130: fea0 b6bc 99b9 353c 7ad0 1abc 9cd9 26bb
00000140: 94e5 163d 51de 14bc 48e4 5dbd 0443 2fbd
00000150: 70bd d5bc 1c12 efbb c906 00bd 5b51 c3bc
00000160: 00f0 43bd 9afb a9bc 2319 d63b 7541 69bc
00000170: 14f0 5ebc d434 3abd 3043 3c3d 02a0 f8bc
00000180: 1a6f fb3b ef87 713d a27f 9abc a55a 1c3c
00000190: 09e2 21bc b4dc 08bc b3bb 73bd 4339 613d
000001a0: 5a4d f3ba 6b22 14bd ace8 0d3d b5e1 7ebd
000001b0: 7837 c2bc 3731 5bbd 031c 313d 4c40 e7bc
000001c0: 08ed 4ebd 9a8e 503d 4de3 65bd 9b21 40bc
000001d0: 9d98 983c 62e2 3e3d 9869 80bc 0645 97bc
000001e0: 2ce4 1d3b 6efd 053d 49d8 2e3d 95a2 52bd
000001f0: 5c5c 193d 96a5 2dbc 2a41 233c 8868 023d
00000200: e181 84bb 17c6 a53c b630 81bd 61c9 273d
00000210: 5b96 273d de09 63bc 535f ba3b 8013 113c
00000220: 2fa9 59bc 62fb 28bd c6b5 e7bb 7dfc bd3c
00000230: a109 63bd 0518 553d 8963 c9bc 0a96 043d
00000240: 53ab 6f3d e8f1 113d 0ca9 a0bc e27b 2cbc
00000250: c06f 9a3c 4172 05bd b9cb ea3b 79e6 8abc
00000260: abee babc 0901 143d 9d0e 213d bf65 4fbd
00000270: f4f4 643d 6177 fdbc 6e78 b1bc 750b a7bb
00000280: c777 64bd deec 5bbd d387 64bd e42b 553a
00000290: d12f 21bb e6ac 18bc 1a77 6e3d 6ee4 693c
000002a0: ae33 82bd dc89 823b 9563 013d 1cbb bc3c
000002b0: 9e8f 04bd fe77 38bd b01d 81bd a6b8 923b
000002c0: 0aa3 6fbd 00ad 0a3d 67d4 5f3d 0d18 40bd
000002d0: 2536 aebc 9c9a 0c3c 904c 66bd de43 cf3c
000002e0: 9f56 4e3d ccd2 c8bb ad4b 6bbd 035c 06bc
000002f0: a7c6 2d3c 35ea 1ebd b1c4 3ebc 6830 be3c
00000300: bb76 d93c 3cdb 5e3d 9064 83bb d072 2abd
00000310: 5ef1 19bd cb61 94bc dbd3 0b3d d8b3 e1bb
00000320: beec 52bd 2a4b 8b3c c82f c6bc b998 acbb
00000330: 017f 4dbb 58c3 24bd e01f 82b9 246b 0fbc
00000340: b665 23bd 8b75 6cbd 667c 65bd a832 40bd
00000350: 45fd 88bc c206 9d3c 7be2 fcbb 2c75 08bc
00000360: ff14 133d 1eea b6bc ca43 dc3a 561d 703d
00000370: 5906 353d 482c 133c 2303 433d bf51 5abc
00000380: f013 5dbc 35eb a1bc 2849 86bd 73ad 20bd
00000390: 704a abbc 75cb 1c3d e006 2bbd 5c52 74bc
000003a0: 245f 71bd 86c4 dfbc 2b3c f3bc 7c30 013d
000003b0: b4a6 be3c e8cd f6bc 7145 313d 2c1e 5f3c
000003c0: 3d7f 9c3c 3140 d9bb 922a 503c 4e06 83bd
000003d0: c08c 58bd 7226 39bd 9cf6 783c 7dd2 033b
000003e0: 225f 44bd 3bd4 a53c 337a 62bc 0abd 453d
000003f0: d91f 583d 59c1 753d 6d2b 2dbd 55f8 403d
-0.02796939 -0.060732044 -0.0329501 0.034251705 -0.060075495 0.03486594 0.00079896627 0.02090437
0.006907334 0.0579141 -0.02782253 -0.05515681 0.02017477 -0.015255726 0.042778447 0.015131411
0.039817587 -0.02689488 0.023893565 0.049787894 -0.056896538 -0.053046435 -0.0128275035 -0.03668789
0.003984828 -0.017533083 -0.035225026 0.062720425 -0.013172239 0.04214654 0.0468987 0.047675103
0.016848354 0.03493756 -0.059119128 0.0037356515 -0.045116447 0.0071981344 -0.036814205 -0.03611883
0.054214187 0.031066414 -0.012655567 0.018759582 -0.031353567 -0.029843371 0.002105063 -0.011623261
-0.051024824 0.06451298 -0.023557235 -0.0037453426 0.0058968845 -0.062959425 -0.043412276 -0.053308513
-0.055113614 0.048732255 -0.0015305345 -0.06067791 -0.0607233 -0.016079929 -0.0124806315 -0.061269075
0.017700756 -0.002046818 0.021374067 -0.044738974 -0.04988505 0.05200257 0.03875726 -0.066548705
-0.049186867 -0.05313523 -0.051128585 0.013515965 -0.022293564 0.011091613 -0.009449119 -0.0025459295
0.036840037 -0.0090862075 -0.054172784 -0.04278852 -0.026091307 -0.00729586 -0.03125647 -0.023842504
-0.047836304 -0.020749856 0.0065337582 -0.014236798 -0.013607044 -0.045460537 0.045962512 -0.030349735
0.0076731564 0.058967527 -0.018859688 0.009543096 -0.009880551 -0.008353401 -0.059505176 0.05498625
-0.0018562481 -0.036165636 0.03464572 -0.06222697 -0.02370809 -0.05351373 0.043239605 -0.028228901
-0.05051902 0.050917245 -0.056124974 -0.011726762 0.01862746 0.046602614 -0.015675351 -0.01846553
0.00240923 0.032712393 0.042686734 -0.05142458 0.037441596 -0.010598561 0.009964267 0.03183797
-0.004043803 0.020236058 -0.06308119 0.040963534 0.040914875 -0.013857333 0.005687633 0.008854747
-0.013284965 -0.041255362 -0.0070712296 0.023191685 -0.055429105 0.05202486 -0.024583595 0.03236965
0.058512997 0.03563109 -0.019611858 -0.010527583 0.018852115 -0.032579664 0.007165399 -0.016955601
-0.022818884 0.0361338 0.039320577 -0.050634142 0.055897668 -0.030940713 -0.02166387 -0.0050978013
-0.05577829 -0.05369269 -0.055793595 0.00081318454 -0.0024595151 -0.009318566 0.058219053 0.014275653
-0.06357513 0.0039837193 0.03158911 0.02303844 -0.032363527 -0.04503631 -0.063044906 0.004477578
-0.058505096 0.033856392 0.054645922 -0.046897937 -0.021266052 0.008581784 -0.05622536 0.025300916
0.050375577 -0.0061286446 -0.057445217 -0.008200648 0.010606444 -0.038797576 -0.011643575 0.023216441
0.026545873 0.054408297 -0.0040097907 -0.0416134 -0.0375837 -0.018113038 0.034137588 -0.006887894
-0.051495306 0.017003614 -0.024192706 -0.0052672294 -0.0031356218 -0.040225357 -0.0002481928 -0.008753572
-0.03989192 -0.057729285 -0.05602684 -0.04692331 -0.01672233 0.019168261 -0.0077174283 -0.008328717
0.035908695 -0.022328433 0.0016804871 0.058621727 0.044195507 0.008982725 0.047610413 -0.013325154
-0.013493523 -0.019765476 -0.06556922 -0.039227914 -0.020909518 0.03827997 -0.041754603 -0.014912214
-0.058928624 -0.02731539 -0.029691776 0.03154038 0.02327285 -0.03012748 0.043279115 0.013618033
0.01910364 -0.0066299667 0.012705462 -0.06397687 -0.052868605 -0.04520268 0.015195515 0.0020114474
-0.04794229 0.020242801 -0.01382308 0.048275985 0.052764747 0.059998844 -0.042277742 0.047111828

body.4.bias f4 [128]
00000000: 1ea4 4c3d b4fc 69bd 7d10 9f3c d38a a3b9
00000010: b0eb 103d 3d9c 413d 8e44 113c 6054 84bd
00000020: 0e99 c2bc 56b3 d3bc fd20 893c acb3 00bd
00000030: 52ea 3ebd d427 24bc 00b9 213d ab3f 7c3c
00000040: f59f 6a3d 85c4 713d ba9e 87bd 59c0 7cbc
00000050: abd2 77bd 0d0c b0bb 22fe 0d3d d7d6 673d
00000060: ef97 013d 54bf 74bd 76cc 953a 5ec6 233d
00000070: f1b3 7ebd a1d3 fe3c a3c7 6abd 7953 0a3c
00000080: d916 e7bc c363 81bd 61c5 0a3d 25f7 08bd
00000090: 72e0 47bd c120 c8bb 88f5 02bc 6a69 1dbd
000000a0: 4099 76bd 19c7 6dbc c744 0cbc 61a0 13bc
000000b0: 7359 38bc 6531 6d3d 5f05 733b 06f2 353b
000000c0: 3635 31bd ccf1 7cba d8be 17bd da6a 4d3d
000000d0: aada 1a3d c0db 1a3d e55f 05bd 22ac 45bd
000000e0: ea3c 5abd 7a03 07bd dc91 c0bc 4af6 693c
000000f0: b227 3fbd d02c 963c f444 3d3b 9baf d9bc
00000100: 447e 223c 10de 383a 838f debc 92f9 593d
00000110: 7f55 17bc fda8 363d 41de 243d ca5c 3e3d
00000120: 1bdb 413c a68e 9bbb ab37 563c f505 c1bc
00000130: 91d3 c13c ea30 343d 9287 c43c 3f12 2abd
00000140: 326f 8cbc 874b 45bd aa68 8abd ba6c 88bc
00000150: 0510 633c 95ff 50bd ac53 ecb9 68cb bb3b
00000160: 14c7 053d 5dd4 e3bb 91f0 7d3c 6432 5c3b
00000170: 8e9c fbbc dd1e a73a 5192 173d b58b 98bb
00000180: 668e 0d3d ffb1 df3c 8ea9 553d d48a e43c
00000190: ae88 163d c985 85bd daa5 833c d265 3dbd
000001a0: f6f3 04bb 9b45 513c a20a 803d ec55 2cbd
000001b0: 84cf 3abd 766a 92bc 6e29 633d 8d04 12bd
000001c0: 228e 50bc cc2a d6bc 7b43 6ebd 6017 0fbd
000001d0: 5020 5cbd 505d c8bc 1d2b 083c 0fd1 b03c
000001e0: ce22 a03c a73f ae3c 11b2 553d df4d 20bc
000001f0: 4cc1 5ebd 4713 7ebd 2c66 3dbc 1244 23bd
0.0499612 -0.057125762 0.019417042 -0.00031193215 0.03538102 0.04726814 0.008866442 -0.06461406
-0.023754623 -0.02584235 0.016739363 -0.03142135 -0.046610184 -0.010019261 0.03948307 0.015396039
0.057281453 0.059025306 -0.066220716 -0.015426719 -0.060503643 -0.0053725303 0.034666188 0.05660137
0.031639036 -0.059752777 0.0011428732 0.0399841 -0.062183324 0.031106772 -0.057319295 0.008442753
-0.028209137 -0.06317856 0.03387964 -0.03343882 -0.048798032 -0.00610742 -0.0079931095 -0.03843061
-0.060204744 -0.014512801 -0.00856132 -0.009010405 -0.011251795 0.057908434 0.003708206 0.0027762665
-0.043263637 -0.00096490677 -0.037047237 0.05015073 0.03780619 0.037807226 -0.032562155 -0.04825986
-0.05328075 -0.0329623 -0.023507051 0.014279911 -0.046668716 0.018331915 0.002888021 -0.026572993
0.009917799 0.0007052133 -0.027168041 0.053216524 -0.009236692 0.044594754 0.04025102 0.04647521
0.011832024 -0.0047472296 0.013074796 -0.02356241 0.023660453 0.04399196 0.023990426 -0.041521307
-0.017142866 -0.04816773 -0.06758244 -0.016653407 0.0138588 -0.051024992 -0.00045075768 0.005731035
0.03266056 -0.006952806 0.01549925 0.003359937 -0.0307143 0.0012750287 0.037004773 -0.0046553263
0.03455963 0.027306555 0.052163653 0.02789823 0.03675144 -0.06519658 0.016070295 -0.04623968
-0.0020287014 0.012772943 0.06252028 -0.04207413 -0.04560806 -0.01787303 0.055459432 -0.03564887
-0.0127292 -0.026143454 -0.058169823 -0.0349344 -0.053741753 -0.024458557 0.00831106 0.021584062
0.019547846 0.021270586 0.05217177 -0.009784191 -0.05438356 -0.062030103 -0.011560004 -0.03985984

move_head.weight f4 [5, 128]
00000000: 88fa 75bc f582 a7bc 730c 95bd ac66 d93c
00000010: d6fe e03c 2343 bebd b379 983d 897e 153d
00000020: ad3c 7cbd 002b e5bc a719 373d 3dbc e6ba
00000030: 49ca 33ba 83d5 84bd 5eca 9dbd 441a 49bc
00000040: 3046 d63c 0736 8e3d 20e3 f6bc bfaa 3cbc
00000050: 7b88 a0bd c12a 143d b0f9 b33d 8201 cebc
00000060: 6b8d bcbb c002 7cbc 64fa 493c a098 9dbc
00000070: 1e1b 97bc 2a9f a0bd f541 9bbd ac87 233d
00000080: 460a 293d e943 9a3d cc14 16bd f39c a23d
00000090: 2ae9 90bc 1857 6a3c b1a3 aebc 1f4c 35bd
000000a0: 68ee 8cbd 38ad c53c a99d 863c 20c6 a93d
000000b0: 09b9 ab3c a62c 15bd 3892 8d3d df7a 033c
000000c0: 7fe9 8dbc 8b5d 3abd b298 b0bd 6053 b4bd
000000d0: 978b 77bd 8033 9f3d d23a d5bc d2d7 b3bd
000000e0: a0a7 1abd ead6 d03c c5c5 bd3d d75d 73bd
000000f0: 5107 51bd 4e68 1e3d fe7e ae3b 1bef ba3b
00000100: 2f4c a93d 2868 233d a390 70bd b5c3 ea3c
00000110: 6d84 2dbc aa30 31bd 004c 9c3d c3ea 2cbd
00000120: ea6b 863d 5de5 8ebc 29c9 afbd 7577 763c
00000130: b7a2 373d 81d7 0f3d 7632 603d eb61 abbb
00000140: 1528 c7bd 7677 acbd 8edd 4e3d 3101 cf3c
00000150: 248b 9e3d 819d 483d 40ac b2bd 7cac 05bd
00000160: 1e77 6c3d 631d 23bd 5ca0 8fbb 007a 9d3d
00000170: b791 9a3c 4754 283a e371 9e3d 3e9c 57bd
00000180: e1c9 94bd 4a3c 2d3d a68d 033d 03ad 4abc
00000190: 33cf 83bc c011 3f3b 929e 2b3d ed4e aabd
000001a0: 01e3 a3bc 85eb f73b f758 8cbc 1c6e 11bd
000001b0: aaab 1ebd 66d4 903d 0b8c 18bc c73c a5bc
000001c0: f0cf c1bc 3617 f1bc 8f48 57bd 02e7 953d
000001d0: afa0 ad3d f6d1 4f3d c13a 0b3d 03a5 7c3c
000001e0: 16d2 f5bb dbfb 26bd a699 d53b 3526 013d
000001f0: a2e1 0dbd 2e42 95bd c08b 3abd 0fb6 28bd
00000200: ad03 b8bc 2d1d 033d 2515 aa3d 84bc 94bd
00000210: 5079 5ebd 86c6 4abc 6c78 4bbd 3c6c b33d
00000220: 7ff4 fa3c 2ebb 8e3d 8610 3dbc e5dd 9dbd
00000230: c323 9b3d 8ae1 86bc 8574 923c 8e14 9cba
00000240: 2e65 f7ba c8ca bbbd 3d03 9dbd f38b 2ebc
00000250: 978f 013d 1779 9c3d c80c 973d bff8 b0bb
00000260: 48fa aebd d698 66bd ef46 af3d 68d2 233d
00000270: 0462 6abd b114 a03d 27cf 30bd 5226 aa3b
00000280: bcce 83bd 52bf b53d 182e a93c d562 c93b
00000290: fb4c cabc f19d d7bc 10ea c4bc 7cd9 863d
000002a0: 7f15 9fbd d6ba 903d f34e b6bc 190e b3bd
000002b0: 4189 713d 5144 c4ba b1c8 503d 7722 1bbd
000002c0: 407c 413c 7f07 85bd 24f7 bd3c 0df1 08bc
000002d0: fcda 873c 0f13 523d 5f69 9abd bc3b 7abc
000002e0: ec04 a9bd c3d2 97bd 9f13 6e3d d019 54bd
000002f0: 5365 023d dac5 f83c cc46 febc 54ac 87bc
00000300: 9a00 1e3b 32df 33bd 0d0f aebc 0563 003d
00000310: f3d5 77bc 4c5a 48b9 8fc7 c7bd f291 d23c
00000320: 6ce8 a03d 17d9 cbbd 0b84 f9bc 4405 9c3d
00000330: 6271 dbbb 421e c4bd 3915 2dbd cbee 31bc
00000340: c70a cebc 974b 3dbb 6e22 953c 8b9a adbd
00000350: 3464 9fbc 262c 84bc 9303 89bd 78f5 273d
00000360: 434a d73c fe44 25bc de44 b83c 8cb5 8e3b
00000370: e494 c5bd aca3 17bd b521 33bd f006 de3c
00000380: a9dd bc3c 014e 203d a79f 50bc 6086 e0ba
00000390: 7b4e a8bd bb3f aebc 3c2f 2e3d 6023 0c3d
000003a0: 7564 a9bd 8631 fd3c 8de6 753d 2909 073d
000003b0: 5b69 b23b b864 ecbc 393f 823d 3917 9abd
000003c0: 894c 733d 6385 9cbd 6be7 e4bc 2461 c6bd
000003d0: 9125 203d a5d3 a53d fcdb aa3a 2ced 2dbd
000003e0: 9ce8 b2bd 5b3c 25bd 442e 4a3d a682 8ebd
000003f0: c647 063c 7932 e33c 508f 07bd ef93 b5bd
-0.015013345 -0.020448187 -0.07277765 0.026538216 0.027465265 -0.09290149 0.07445087 0.036497626
-0.061581302 -0.027974606 0.0447022 -0.0017603707 -0.0006858451 -0.06486037 -0.07704614 -0.012274329
0.026156515 0.06943899 -0.030137599 -0.011515318 -0.078385316 0.036173586 0.087878585 -0.025147203
-0.005754163 -0.015381515 0.012327764 -0.019237816 -0.018445548 -0.07842858 -0.0758094 0.03992431
0.041269563 0.07532484 -0.036640927 0.07940092 -0.017689306 0.014302991 -0.021318289 -0.044262048
-0.0688141 0.024130449 0.0164326 0.082897425 0.020962255 -0.036419533 0.06912655 0.0080249
-0.017323254 -0.045499366 -0.08622874 -0.08804965 -0.060435858 0.07773495 -0.026029024 -0.08781399
-0.037757516 0.025493104 0.09266237 -0.059415665 -0.051032368 0.03867369 0.0053251972 0.005704773
0.08266484 0.039894253 -0.058731686 0.028657774 -0.010590655 -0.0432593 0.07631683 -0.042216074
0.06563552 -0.017443353 -0.0858329 0.015043129 0.04483291 0.03511763 0.054735623 -0.0052301786
-0.09724442 -0.08421223 0.05050426 0.025269123 0.07741383 0.048978332 -0.0872426 -0.032635197
0.057730787 -0.039822947 -0.00438313 0.07689285 0.01886831 0.000642125 0.07736566 -0.05263924
-0.07265068 0.042293824 0.03211751 -0.012370351 -0.016090011 0.0029154867 0.04189927 -0.08315835
-0.020005705 0.007565918 -0.017132265 -0.0355054 -0.03873793 0.07071762 -0.009310733 -0.020170582
-0.023658723 -0.029430013 -0.05255943 0.07319452 0.084779136 0.050737344 0.03399158 0.015420201
-0.007501851 -0.04076753 0.0065185605 0.031530578 -0.03463901 -0.072880134 -0.045543432 -0.04118925
-0.02246269 0.032010246 0.08304814 -0.07262519 -0.05431491 -0.012376433 -0.04967539 0.087608784
0.030634163 0.069692954 -0.011539584 -0.07708339 0.075751804 -0.016464967 0.017877826 -0.0011907981
-0.0018874758 -0.09169537 -0.07666633 -0.010653484 0.03163108 0.076402836 0.07375485 -0.0054007466
-0.08543831 -0.0562981 0.085584514 0.03999558 -0.05722238 0.078164466 -0.043166306 0.0051925564
-0.06435916 0.08874382 0.020651862 0.006145815 -0.02469491 -0.02632043 -0.024037391 0.065844506
-0.07767772 0.07066886 -0.022254443 -0.08742923 0.058968786 -0.0014973973 0.050972644 -0.037874665
0.011809409 -0.064955704 0.023189135 -0.008358252 0.016583912 0.051287707 -0.07539629 -0.015273031
-0.08252892 -0.074132465 0.05812418 -0.05178243 0.03183491 0.03036778 -0.031039618 -0.016561665
0.0024109245 -0.043914028 -0.021247411 0.031344432 -0.015126693 -0.00019107125 -0.0975486 0.025704358
0.07856831 -0.09953516 -0.03045847 0.07618192 -0.006696866 -0.09576084 -0.042256568 -0.010860155
-0.025151623 -0.0028884166 0.018204894 -0.08476742 -0.01945696 -0.016134333 -0.06690135 0.04100558
0.026280528 -0.01008725 0.022493776 0.004355138 -0.09647539 -0.037021324 -0.043733317 0.027102917
0.023054915 0.03913689 -0.012733377 -0.0017129891 -0.08218094 -0.021270623 0.042525515 0.034213424
-0.08271114 0.030907404 0.060034323 0.03296772 0.0054446883 -0.02885662 0.06359715 -0.075239606
0.05939916 -0.07642629 -0.02794238 -0.09686497 0.039098326 0.080970086 0.0013035531 -0.042462513
-0.08735773 -0.040340763 0.04936053 -0.06958513 0.008195823 0.027734028 -0.033095658 -0.08866107

move_head.bias f4 [5]
00000000: 043c 943d f9cc 86bd a0f2 35bd e8d5 86bd
00000010: eb27 643c
0.072380096 -0.06582064 -0.04442084 -0.06583768 0.013925533
