checkpoints/simple_world_comm_v3_transfer/simple_world_comm_v3_adversary_0_ep700.pt (torch, 437311 bytes, 8 tensors)

body.0.weight f4 [256, 34]
-0.08649977 -0.06375235 0.08986477 -0.06927815 -0.09397292 -0.13759363 0.046670165 0.042134706
0.084718145 0.09192767 -0.15011442 -0.10120272 0.061477415 0.026888134 0.17411032 -0.10519211
0.15453206 -0.16364044 -0.086396426 0.12664662 0.03311705 -0.13046879 0.010500021 0.079658814
0.105793655 -0.120865 -0.032741703 -0.0065971236 0.077702954 0.011102198 -0.00797566 -0.058584638
0.16271003 0.13501082 -0.16906454 -0.011717614 0.019338844 -0.06807343 0.16665685 0.022860946
-0.06986698 -0.013310952 -0.14895244 0.083254665 0.023168022 0.016555555 0.18486543 -0.15173484
-0.12630838 0.06160846 0.007262222 -0.030708041 0.1703677 -0.042508926 0.16644436 -0.14671949
-0.044327598 0.04854258 -0.071440175 0.15989922 -0.061303083 -0.054404594 0.09010624 -0.11111493
-0.15813267 0.059405033 -0.11120471 -0.14692397 -0.15319301 0.10669652 -0.030016985 -0.1647784
0.124167606 0.07440631 0.13832669 -0.13541211 -0.13597329 -0.07299837 0.16172773 -0.024726927
0.024787497 -0.02997967 0.052275598 0.08356398 0.08798938 -0.031931095 -0.09962008 -0.016312014
-0.13416317 -0.15352933 0.16428153 -0.016778652 0.10117149 -0.1424791 0.037485756 -0.07192938
0.08288637 -0.14590123 0.11922993 -0.058182385 0.16125344 0.06556706 -0.13314508 -0.106252044
-0.034330186 -0.035815094 0.10493112 0.008959237 0.14424922 0.033122264 -0.0004136489 0.14326993
-0.036327135 0.029205833 -0.13398726 0.16352895 0.12609029 0.1665885 0.12830299 0.11703123
-0.059509072 -0.004772358 0.15591896 0.08148451 -0.14544646 -0.043305296 -0.014175808 -0.06489308
-0.0012922605 0.052067805 0.046964142 0.121641934 0.15323846 -0.12354377 0.003883157 0.11584762
-0.0032873205 0.12981628 0.1341874 -0.15413834 0.074322835 0.1288746 0.04011668 0.004417821
-0.0075811236 -0.036150005 -0.09206933 -0.063952945 -0.025274675 0.058083374 0.06526085 0.017888486
-0.12044903 -0.011234805 0.032051105 0.041383754 0.16001086 -0.13060063 0.03240274 -0.05396158
0.0061831027 -0.113280386 -0.17249519 0.11351648 -0.003458519 -0.106433354 0.10927906 0.09325692
0.07943089 0.15718047 0.06182954 -0.04025415 0.10672389 -0.11008124 0.08030381 0.0112925535
-0.022600353 -0.002050322 -0.15651473 -0.15866649 -0.15789925 0.17262235 -0.12386414 0.003004837
-0.07095061 0.1233925 -0.15676922 -0.07766839 0.14475428 0.06488789 -0.15764065 -0.062003348
0.04630619 -0.013748346 0.089194976 -0.08895192 -0.016591832 -0.18288659 0.03509482 -0.13112867
0.04212345 0.048800077 0.121322595 -0.090078175 0.09092968 -0.08823669 -0.053575996 0.09191445
-0.05844785 0.17950971 0.020542093 0.032361664 -0.10314259 -0.13597432 0.15639798 0.1715284
0.08745548 -0.018987793 -0.05121825 -0.16071895 -0.038691133 0.0111317 -0.015515246 -0.062676646
-0.07043174 0.09845435 -0.14415418 -0.063953824 -0.10639343 -0.09941894 -0.14565139 -0.05761955
0.0005265068 -0.08065218 -0.14943083 -0.10548941 0.05651079 0.15990686 -0.1027655 0.1280311
-0.12895687 -0.055071104 0.16562669 -0.12114851 0.16888344 -0.1163298 -0.0433122 -0.060575176
0.08936763 -0.12873827 0.057961695 0.035574023 0.1344408 0.1552707 -0.09931767 0.028142216
00000000: cb26 b1bd 9890 82bd 050b b83d b4e1 8dbd
00000010: e074 c0bd 58e5 0cbe 3729 3f3d 7195 2c3d
00000020: b580 ad3d 9344 bc3d 98b7 19be 5f43 cfbd
00000030: becf 7b3d 8144 dc3c fa49 323e f66e d7bd
00000040: a73d 1e3e 5c91 27be 9cf0 b0bd a7af 013e
00000050: bea5 073d 9c99 05be 4808 2c3c 2924 a33d
00000060: 58aa d83d 1288 f7bd 2a1c 06bd af2c d8bb
00000070: ba22 9f3d fee5 353c 58ac 02bc 72f6 6fbd
00000080: 759d 263e 4740 0a3e 411f 2dbe 3cfb 3fbc
00000090: 7f6c 9e3c 156a 8bbd 18a8 2a3e e146 bb3c
000000a0: 6b16 8fbd 2e16 5abc fd86 18be 6c81 aa3d
000000b0: ddca bd3c 849f 873c 5d4d 3d3e 6160 1bbe
000000c0: fc56 01be 2759 7c3d eff7 ed3b 6e8f fbbc
000000d0: df74 2e3e d71d 2ebd 6470 2a3e a23d 16be
000000e0: db90 35bd 96d4 463d 3a4f 92bd 9fbc 233e
000000f0: f118 7bbd 5ad7 5ebd 9f89 b83d 3990 e3bd
00000100: 88ed 21be b152 733d 4cbf e3bd 3d73 16be
00000110: a1de 1cbe b483 da3d 2ee6 f5bc abbb 28be
00000120: 964b fe3d 5662 983d 83a5 0d3e 79a9 0abe
00000130: 953c 0bbe 2b80 95bd f49b 253e 2090 cabc
00000140: 260f cb3c ed97 f5bc f01e 563d 9823 ab3d
00000150: c733 b43d 2eca 02bd 9d05 ccbd c6a0 85bc
00000160: 1262 09be cb36 1dbe 6b39 283e 6273 89bc
00000170: 0033 cf3d 0be6 11be aa8a 193d b64f 93bd
00000180: 54c0 a93d 2267 15be d22e f43d a750 6ebd
00000190: 9f1f 253e 0648 863d 2f57 08be ac9a d9bd
000001a0: cf9d 0cbd d9b2 12bd 21e6 d63d c3c9 123c
000001b0: 11b6 133e 36ab 073d 04df d8b9 5ab5 123e
000001c0: c3cb 14bd 1241 ef3c f533 09be 2274 273e
000001d0: d01d 013e 2d96 2a3e dc61 033e 12ae ef3d
000001e0: c9bf 73bd 7161 9cbb 38a9 1f3e 5ae1 a63d
000001f0: ebef 14be e560 31bd a641 68bc aae6 84bd
00000200: 1161 a9ba 0d45 553d 795d 403d 681f f93d
00000210: 8bea 1c3e 8404 fdbd 907c 7e3b 8441 ed3d
00000220: 1670 57bb 8fee 043e 6c68 093e 71d6 1dbe
00000230: 9236 983d b4f7 033e 6351 243d 5ec3 903b
00000240: 136b f8bb 0712 14bd d88e bcbd c3f9 82bd
00000250: d60c cfbc d5e8 6d3d 7ba7 853d e08a 923c
00000260: fbad f6bd 3012 38bc 0548 033d 0382 293d
00000270: e3d9 233e 2cbc 05be bcb8 043d d106 5dbd
00000280: a09b ca3b 8cff e7bd 94a2 30be 547b e83d
00000290: 52a8 62bb bbf9 d9bd b3cd df3d 7cfd be3d
000002a0: aaac a23d ebf3 203e f940 7d3d 89e1 24bd
000002b0: 0e92 da3d 4672 e1bd 5376 a43d 6704 393c
000002c0: 6024 b9bc b25e 06bb 6645 20be 7879 22be
000002d0: 57b0 21be eac3 303e 7bac fdbd cdec 443b
000002e0: 8e4e 91bd 35b5 fc3d 1c88 20be 9b10 9fbd
000002f0: 773a 143e f1e3 843d 8d6c 21be 39f7 7dbd
00000300: 8fab 3d3d be40 61bc dbab b63d 6d2c b6bd
00000310: 98eb 87bc 9f46 3bbe 96bf 0f3d 9846 06be
00000320: a489 2c3d 97e2 473d fb77 f83d e87a b8bd
00000330: 5739 ba3d 70b5 b4bd 8172 5bbd a53d bc3d
00000340: 0367 6fbd 65d1 373e e447 a83c aa8d 043d
00000350: 6c3c d3bd da3c 0bbe cb26 203e 24a5 2f3e
00000360: dc1b b33d 4a8c 9bbc 3aca 51bd 8293 24be
00000370: 987a 1ebd bc61 363c a933 7ebc 9d5c 80bd
00000380: 843e 90bd 6fa2 c93d 279d 13be 39fa 82bd
00000390: cce4 d9bd 289c cbbd a325 15be 7a02 6cbd
000003a0: 4605 0a3a f82c a5bd 6504 19be d50a d8bd
000003b0: dc77 673d a0be 233e b876 d2bd 961a 033e
000003c0: 450d 04be 3d92 61bd 0b9a 293e b61c f8bd
000003d0: c8ef 2c3e 513e eebd 2268 31bd ad1d 78bd
000003e0: 6006 b73d f7d3 03be 3e69 6d3d 11b6 113d
000003f0: d9aa 093e 48ff 1e3e 1067 cbbd 818a e63c

body.0.bias f4 [256]
-0.034922417 -0.14247781 0.10603391 0.123900786 0.14082836 0.18318188 -0.11759303 -0.06920463
0.00966537 -0.17020538 -0.14537324 0.101517744 0.117774695 -0.09761183 -0.12352511 -0.02671668
-0.073860586 -0.06579575 -0.05956296 -0.0025191975 0.09609194 0.13287802 -0.045875516 0.069475666
-0.10198689 -0.103962585 0.02164492 0.071174845 0.107632995 0.14440422 -0.071947835 -0.110464
-0.10010378 0.14870812 0.1022756 0.083936475 0.085367054 0.07582559 0.06419616 0.14910889
-0.02258376 -0.027114542 0.16551559 -0.031094875 0.0049463245 0.07069319 -0.009378613 -0.049951833
-0.10804707 0.119870804 0.04587693 0.119556434 -0.1473637 -0.06257281 -0.030116037 -0.08122628
0.044087805 0.057058807 0.055904433 0.143044 -0.1403633 0.051002506 0.094390616 0.0050905393
0.03242833 0.018716693 0.12291139 0.14942798 0.037206363 -0.016151419 -0.0045220135 -0.083775036
0.13050377 0.076357074 -0.097705886 0.09325742 0.14764082 0.122066855 0.1510086 0.018763144
-0.07555617 0.0737385 -0.017619548 0.14315979 0.1707386 0.0018106217 -0.09244725 0.019361973
0.09707601 0.12988225 0.033220172 -0.11486164 0.010070841 -0.009554328 -0.12269345 0.15513143
0.112422116 0.00035500363 0.10084954 -0.14999913 -0.12601651 0.020395858 0.021622673 -0.06565279
0.116184324 -0.062189914 -0.13818496 0.08788567 -0.042898647 0.063436285 0.033032373 -0.06780231
0.004216897 -0.15410142 0.15159293 0.061509375 0.08186821 -0.13691068 0.11837005 0.024349077
-0.10211343 0.011797544 -0.003238007 -0.093008295 -0.023472471 0.076437175 0.047966402 -0.039323334
-0.12308629 -0.085633606 0.004791694 -0.0032502024 0.029813873 0.09261083 0.104341835 0.1276727
-0.14025366 0.10266019 0.1534704 -0.118603 0.06389005 -0.104638904 -0.07274935 -0.077169724
-0.08329934 0.12673888 -0.036281455 0.12097222 -0.02934433 -0.13469672 0.010151567 -0.06871387
-0.069954656 0.1440999 -0.0039883265 0.13709536 -0.13998394 -0.110347226 0.11908932 0.104705974
0.15602574 -0.08811531 -0.070956476 0.02286718 0.029089767 -0.14718999 -0.0593288 -0.122683175
0.08718632 0.13079304 -0.07175725 -0.05489475 -0.1210377 -0.12021133 0.14071941 -0.16529356
0.008026759 0.11016907 -0.04173315 -0.06786179 -0.10820218 0.14159776 0.14957355 0.050738204
0.044910062 -0.12785734 -0.030287793 0.08800826 0.058843233 -0.026257927 -0.14951876 -0.00061851274
0.16201445 -0.061085436 0.11936555 -0.07130847 0.029699845 0.08960554 0.06684533 0.020671345
-0.021493074 0.029547144 0.13218805 0.09711789 -0.021187106 -0.1682205 0.17140643 0.08615848
0.12862478 -0.017178593 0.025429497 0.06604348 -0.14570318 0.016502826 0.1227589 -0.0931467
0.17207618 0.00037145836 0.018158136 -0.00012608369 -0.11703911 0.017634999 0.086135186 -0.08086038
-0.051096413 -0.120162964 -0.0022510001 0.005948595 -0.061337702 -0.016987663 0.117812224 -0.05073249
-0.100197814 -0.0155801885 -0.05859177 -0.08917646 -0.12590171 0.11550154 0.047740337 0.08424218
0.05548168 0.014618874 -0.1266137 -0.07635149 0.04774751 0.042436227 0.010311326 0.017200015
0.031449854 -0.11660552 0.10016524 0.0015042222 -0.11723673 0.0390562 0.1479583 0.12814933
00000000: cf0a 0fbd b4e5 11be 4e28 d93d b2bf fd3d
00000010: 4f35 103e 0894 3b3e 9dd4 f0bd 28bb 8dbd
00000020: 805b 1e3c 524a 2ebe b9dc 14be 89e8 cf3d
00000030: dc33 f13d b6e8 c7bd bcfa fcbd f0dc dabc
00000040: 3844 97bd ecbf 86bd 4af8 73bd 1f19 25bb
00000050: dacb c43d 2d11 083e f7e7 3bbd 4249 8e3d
00000060: 81de d0bd 56ea d4bd b050 b13c 1ec4 913d
00000070: b06e dc3d b3de 133e 6359 93bd f33a e2bd
00000080: 3603 cdbd f146 183e df75 d13d e3e6 ab3d
00000090: ecd4 ae3d 724a 9b3d 4779 833d 00b0 183e
000000a0: 9401 b9bc 511f debc eb7c 293e aeba febc
000000b0: c714 a23b 97c7 903d c1a8 19bc 4b9a 4cbd
000000c0: c847 ddbd d37e f53d 73e9 3b3d 01da f43d
000000d0: 83e6 16be 2c26 80bd e8b5 f6bc f759 a6bd
000000e0: 6a95 343d 7fb6 693d 0cfc 643d 207a 123e
000000f0: 66bb 0fbe 01e8 503d de4f c13d 8ace a63b
00000100: 92d3 043d c053 993c f8b8 fb3d a603 193e
00000110: b365 183d fb4f 84bc 662d 94bb 3f92 abbd
00000120: c8a2 053e 1961 9c3d 061a c8bd bffd be3d
00000130: 282f 173e 30fe f93d 00a2 1a3e 2ab5 993c
00000140: 31bd 9abd 3604 973d df56 90bc 7b98 123e
00000150: 19d6 2e3e 6252 ed3a fc54 bdbd 009d 9e3c
00000160: cacf c63d daff 043e e011 083d 943c ebbd
00000170: 2b00 253c c289 1cbc b446 fbbd c6da 1e3e
00000180: 913d e63d c81f ba39 348a ce3d 5f99 19be
00000190: 790a 01be 3715 a73c 0822 b13c f874 86bd
000001a0: 0cf2 ed3d daba 7ebd 5c80 0dbe 67fd b33d
000001b0: 7eb6 2fbd e2ea 813d f44c 073d f0db 8abd
000001c0: e52d 8a3b c3cc 1dbe 2d3b 1b3e 41f1 7b3d
000001d0: 85aa a73d 5032 0cbe ff6b f23d b777 c73c
000001e0: d920 d1bd 7c4a 413c be34 54bb 227b bebd
000001f0: 5749 c0bc 188b 9c3d 6b78 443d 8111 21bd
00000200: aa14 fcbd ac60 afbd a503 9d3b 5901 55bb
00000210: 393c f43c bfaa bd3d 2cb1 d53d a2bc 023e
00000220: a89e 0fbe 813f d23d 5827 1d3e 21e6 f2bd
00000230: c9d8 823d ec4c d6bd 9cfd 94bd 290b 9ebd
00000240: d898 aabd d6c7 013e dd9b 14bd 49c0 f73d
00000250: 8563 f0bc f0ed 09be c252 263c dcb9 8cbd
00000260: 6344 8fbd ed8e 133e 82b0 82bb ba62 0c3e
00000270: f357 0fbe bafd e1bd 1ae5 f33d 1670 d63d
00000280: 36c5 1f3e cd75 b4bd a151 91bd f453 bb3c
00000290: aa4d ee3c f9b8 16be c102 73bd 5141 fbbd
000002a0: be8e b23d 9cee 053e 77f5 92bd 51d9 60bd
000002b0: 9de2 f7bd 5c31 f6bd c018 103e b742 29be
000002c0: ab82 033c 52a0 e13d 61f0 2abd 1ffb 8abd
000002d0: 1b99 ddbd 01ff 103e cf29 193e ddd2 4f3d
000002e0: 9df3 373d 09ed 02be 1b1e f8bc ad3d b43d
000002f0: 9a05 713d dd1a d7bc 721b 19be b023 22ba
00000300: 1ee7 253e b934 7abd ed75 f43d 2d0a 92bd
00000310: 174d f33c 1c83 b73d 34e6 883d f456 a93c
00000320: 3e12 b0bc da0c f23c 4e5c 073e bfe5 c63d
00000330: 9590 adbc ff41 2cbe 2b85 2f3e db73 b03d
00000340: 37b6 033e 1fba 8cbc 8551 d03c ce41 873d
00000350: 3733 15be ef30 873c 0569 fb3d b2c3 bebd
00000360: bd34 303e 4cc0 c239 5fc0 943c 5535 04b9
00000370: 33b2 efbd 4677 903c a567 b03d 209a a5bd
00000380: 794a 51bd 0018 f6bd 8485 13bb 6eec c23b
00000390: 3e3d 7bbd b629 8bbc 8947 f13d dfcc 4fbd
000003a0: 8334 cdbd 0c44 7fbc ecfd 6fbd 26a2 b6bd
000003b0: 61ec 00be 128c ec3d 5f8b 433d 2a87 ac3d
000003c0: c240 633d 0084 6f3c 06a7 01be 2c5e 9cbd
000003d0: e592 433d 9cd1 2d3d d6f0 283c 0ce7 8c3c
000003e0: 90d1 003d e0ce eebd 6f23 cd3d 5229 c53a
000003f0: d019 f0bd 65f9 1f3d 6182 173e 9439 033e

body.2.weight f4 [256, 256]
-0.061219662 -0.054069314 -0.013244341 -0.043003283 -0.048629083 -0.042137705 0.028796492 0.01985444
-0.02821424 0.045908883 -0.051142123 -0.0037437095 -0.053222623 0.014880269 0.04060214 -0.057770316
0.045217127 0.01061129 -0.061548527 -0.05996854 -0.020623473 -0.03533292 -0.04700347 -0.017734589
-0.02997489 -0.05712527 0.059545852 -0.023269888 0.008472032 0.008574445 0.014798955 -0.05962687
-0.0016592819 -0.035171796 0.027176332 0.005489817 -0.012529304 -0.011363728 -0.052911986 -0.043221787
0.02697505 -0.039792743 0.031389125 0.032907374 -0.05666317 0.014257449 0.021668192 0.054950945
0.029864974 0.048536617 0.013844913 0.0051346924 0.02427905 0.06575283 -0.020411232 -0.02601982
0.050782174 -0.0036962212 -0.04807827 -0.004159909 -0.05080479 0.009573404 -0.05993354 -0.008546148
-0.057682727 0.0034407764 0.04735851 0.00089281896 -0.012160311 0.039722472 -0.044672407 -0.01889348
-0.02777247 0.013150431 -0.043352406 -0.044470247 -0.034563124 0.041013133 -0.061645847 0.02125342
-0.019877901 0.05292123 0.025438257 -0.047865435 -0.034848988 -0.058892034 -0.001046653 0.038432013
-0.030901548 0.036750175 -0.026478287 -0.0046148747 -0.018849997 0.010835492 0.050554883 -0.044544894
-0.040717434 -0.0027415603 -0.051368702 -0.031429235 -0.05251156 -0.013250829 -0.060367838 0.041084617
-0.041049983 0.0366748 0.059891816 0.04327486 -0.0037660948 -0.047878046 -0.009658497 -0.027007006
0.053908695 0.027027987 -0.004367353 0.05988845 -0.018623857 -0.002310379 -0.039149933 -0.0028520843
0.016128482 -0.040586807 0.0069614 -0.041568026 0.05593405 -0.061569814 -0.020509813 -0.033598498
0.018658703 0.063714445 -0.048682433 -0.00614669 -0.031604595 0.001013554 0.024255212 -0.033325613
0.03019618 -0.06630462 0.0036838304 -0.044388693 0.030587502 0.047413994 -0.034897976 0.059098482
0.05955689 -0.058225207 0.05322563 -0.034568425 0.0429879 0.014679231 -0.050524596 -0.04479664
0.026652941 0.004544413 0.0007994399 0.021982338 0.042025775 -0.055795714 -0.03472854 -0.03319645
-0.043506205 -0.059236806 -0.013722952 -0.009073013 -0.032922372 0.02076312 -0.036453698 -0.0119587835
0.014483456 0.021639246 -0.034877617 0.002436716 0.054495983 0.038633928 0.02029129 -0.009294194
-0.053086434 0.0039302083 0.047788735 -0.041210942 0.037871566 -0.05196803 -0.017351497 -0.028890017
-0.0028520632 0.05963498 -0.013303761 -0.01705896 0.029702168 -0.0072717634 0.0030213464 -0.019989083
-0.039792456 -0.04829519 -0.022330746 0.049986 0.00936008 -0.012941301 -0.061210487 0.04039506
-0.005352198 -0.013317572 0.037526306 0.008349002 -0.047289852 0.009704712 0.023845572 -0.022238633
0.02091245 -0.025933925 -0.012218963 -0.037375376 0.049929243 -0.037595943 0.0064550755 0.019333227
-0.037938323 0.015392726 -0.060022593 0.06171296 -0.020358419 -0.015979169 0.031952765 -0.029574485
0.016465174 0.01302467 0.020876305 0.05706694 -0.04669091 -0.031580303 -0.050068036 -0.056182195
0.060344916 -0.019021327 -0.022132844 0.022957154 0.049162768 -0.010056488 0.035616137 -0.03793111
0.012840939 0.05007475 0.041281186 -0.026902879 0.027459113 0.031427942 -0.02267771 -0.014060857
-0.03173378 -0.048428953 -0.01767945 -0.041260887 -0.054317646 -0.056030117 -0.047086906 0.009104308
00000000: 78c1 7abd c977 5dbd cbfe 58bc 3624 30bd
00000010: 4a2f 47bd 9698 2cbd 9fe6 eb3c c7a5 a23c
00000020: 8d21 e7bc f40a 3c3d 677a 51bd 0659 75bb
00000030: f7ff 59bd 5fcc 733c 6e4e 263d 91a0 6cbd
00000040: 9835 393d fada 2d3c 4f1a 7cbd 92a1 75bd
00000050: 8ff2 a8bc 40b9 10bd b686 40bd 2148 91bc
00000060: e78d f5bc 30fc 69bd 5ae6 733d 7ea0 bebc
00000070: 47ce 0a3c d47b 0c3c 5177 723c 4e3b 74bd
00000080: 437c d9ba 4d10 10bd e6a0 de3c ece3 b33b
00000090: b647 4dbc ee2e 3abc 3dba 58bd 5409 31bd
000000a0: c8fa dc3c b7fd 22bd e291 003d e2c9 063d
000000b0: a417 68bd 1398 693c 7e81 b13c 3e14 613d
000000c0: 64a7 f43c 55ce 463d c6d5 623c ec40 a83b
000000d0: dce4 c63c 6ba9 863d 7535 a7bc 8427 d5bc
000000e0: f800 503d 4d3c 72bb b8ed 44bd d94f 88bb
000000f0: af18 50bd c4d9 1c3c df7c 75bd 2505 0cbc
00000100: b944 6cbd a67e 613b fffa 413d 110c 6a3a
00000110: 0b3c 47bc 08b4 223d 6afa 36bd 80c6 9abc
00000120: 1783 e3bc e874 573c 4b92 31bd 6f26 36bd
00000130: 1092 0dbd 63fd 273d 5b80 7cbd a71b ae3c
00000140: fbd6 a2bc efc3 583d e463 d03c 8c0e 44bd
00000150: d0bd 0ebd c638 71bd d92f 89ba e36a 1d3d
00000160: 3e25 fdbc 5a87 163d fee8 d8bc 6038 97bb
00000170: 4f6b 9abc 5987 313c a312 4f3d b574 36bd
00000180: 53c7 26bd c0ab 33bb fd67 52bd f1bb 00bd
00000190: 5d16 57bd 011a 59bc 4444 77bd 5848 283d
000001a0: 0724 28bd 5138 163d 1f51 753d fb40 313d
000001b0: 96d0 76bb c51b 44bd ac3e 1ebc cc3d ddbc
000001c0: 5dcf 5c3d cc69 dd3c 031c 8fbb 974d 753d
000001d0: 0f91 98bc ba69 17bb ae5b 20bd 09ea 3abb
000001e0: e11f 843c 5a3e 26bd 751c e43b 3c43 2abd
000001f0: 1a1b 653d a130 7cbd 3204 a8bc 949e 09bd
00000200: 23da 983c b87c 823d 3b67 47bd 2c6a c9bb
00000210: d273 01bd 3bd9 843a deb2 c63c 7080 08bd
00000220: fb5d f73c b7ca 87bd 6b6c 713b ebd0 35bd
00000230: a492 fa3c 2d35 423d 2ef1 0ebd 4011 723d
00000240: edf1 733d 8e7d 6ebd 1e03 5a3d 9f97 0dbd
00000250: 1514 303d 2881 703c e1f2 4ebd ae7c 37bd
00000260: 4557 da3c 4de9 943b 8191 513a 4e14 b43c
00000270: 3823 2c3d 0c8a 64bd 833f 0ebd 00f9 07bd
00000280: 9033 32bd 4ba2 72bd 3cd6 60bc faa6 14bc
00000290: 9cd9 06bd 6b17 aa3c 7950 15bd c6ee 43bc
000002a0: 044c 6d3c ca44 b13c d5db 0ebd 50b1 1f3b
000002b0: 2e37 5f3d 9c3e 1e3d eb39 a63c ad46 18bc
000002c0: 2971 59bd fac8 803b 1fbe 433d cecc 28bd
000002d0: 371f 1b3d 6edc 54bd ba24 8ebc c2aa ecbc
000002e0: aee9 3abb cf43 743d 05f8 59bc 3bbf 8bbc
000002f0: f651 f33c f947 eebb c801 463b 25c0 a3bc
00000300: 6afd 22bd 2dd1 45bd f8ee b6bc 1fbe 4c3d
00000310: 055b 193c c007 54bc d9b7 7abd 4a75 253d
00000320: 7e61 afbb f231 5abc 2fb5 193d 41ca 083c
00000330: 01b3 41bd 8300 1f3c ca57 c33c cb2d b6bc
00000340: 9650 ab3c 6273 d4bc 0c32 48bc ec16 19bd
00000350: 9b82 4c3d 34fe 19bd 1985 d33b b760 9e3c
00000360: 3765 1bbd c631 7c3c 40da 75bd bbc6 7c3d
00000370: b3c6 a6bc bfe6 82bc e7e0 023d 3146 f2bc
00000380: f9e1 863c 6d65 553c c904 ab3c 06bf 693d
00000390: f83e 3fbd 595a 01bd 2414 4dbd 4d1f 66bd
000003a0: 3b2c 773d 9dd2 9bbc f04f b5bc a410 bc3c
000003b0: e65e 493d f8c3 24bc 3ae2 113d a75d 1bbd
000003c0: cd62 523c 2e1b 4d3d 7616 293d 6d63 dcbc
000003d0: eff1 e03c 96ba 003d 9bc6 b9bc 825f 66bc
000003e0: 48fb 01bd 705d 46bd 7ed4 90bc 2d01 29bd
000003f0: 2e7c 5ebd d67f 65bd 33de 40bd 3c2a 153c

body.2.bias f4 [256]
-0.05027028 0.03525733 0.047834877 -0.017021613 -0.032107726 -0.050929364 0.019133748 -0.012585381
-0.046160314 0.0025662913 -0.006424723 -0.050412204 -0.014279745 -0.013673398 0.006891588 0.030613147
-0.029586457 0.042424724 -0.03327952 0.05990209 0.001592151 0.046334866 0.059096646 0.03265116
0.044966083 0.042554714 0.011141208 -0.047553774 0.04991345 0.028324135 -0.0039391 0.016442945
0.019223692 0.035207205 0.05867587 -0.06354601 0.026392274 -0.031122237 -0.018508727 0.040727656
-0.039159644 -0.05762572 0.07054763 -0.007508453 -0.020068401 0.043141477 -0.037643664 0.04637515
-0.043652307 0.04861159 0.013325475 0.052485883 -0.019528547 -0.030103903 -0.033620372 0.0590502
-0.04803999 0.030436512 -0.056246586 -0.06385261 -0.04900849 0.019251648 0.0036498478 -0.024860172
-0.010764707 0.06569759 -0.0266238 -0.034985695 -0.002509498 0.034633912 -0.052918665 0.0666486
-0.019876787 -0.022998461 -0.047625937 -0.035222284 0.056673434 0.005564502 -0.047936097 0.031176545
0.04384431 -0.058022108 -0.022855163 0.03923827 0.006588047 -0.00016845138 0.05481889 0.017715687
0.02688855 -0.030275475 0.044491675 -0.04345672 -0.019258773 -0.020867696 -0.0004982564 -0.011037434
0.030019375 -0.0024844792 -0.03583925 0.013721931 -0.016470414 0.017761223 -0.053800188 0.021143494
0.03324793 0.058942672 0.014706492 0.04390406 0.0012893426 0.05224204 0.046648383 -0.0023637142
0.012298835 0.049332198 -0.028224308 -0.029729377 -0.007345888 -0.0050384104 0.061540958 0.018261882
0.06628757 0.042247497 -0.016784294 -0.04147856 0.024024587 -0.013116118 0.017317984 -0.054775648
0.058887944 -0.020291915 0.02591341 -0.05849808 0.042150024 0.070090674 -0.0029014216 -0.042819347
0.044640556 0.06267737 -0.04726077 -0.026120083 0.023499388 0.027361076 -0.037310507 -0.009972569
-0.015795473 -0.05314586 0.055324763 0.024850497 0.06747234 -0.0023647957 -0.031177124 -0.034081705
-0.005761809 0.044570304 0.018163778 -0.047004994 -0.0297063 -0.05110795 -0.011995901 -0.020339305
-0.011060536 -0.023373695 0.023490751 0.047744118 0.050202124 -0.03010086 0.0601076 0.024072064
-0.022498174 0.054866415 0.010655583 0.031744294 0.040069263 -0.030783126 0.027189888 0.059778493
0.030431699 0.015983414 0.024822276 0.038591504 -0.029666891 -0.03285492 0.03152967 0.028553437
0.02297842 -0.013267666 -0.06162423 0.0059851627 -0.026640046 0.029602794 0.003086488 0.03279663
0.016534302 0.0050944583 0.02689218 -0.018016797 -0.0071555288 -0.027454806 0.055695407 0.0486414
-0.023609664 0.029728742 -0.029489515 -0.041574758 0.038245823 0.04284089 -0.04761454 -0.03922707
-0.05058902 0.01677514 -0.028094565 0.062205177 -0.041455865 -0.034384713 -0.043547075 -0.044849653
-0.0062921857 -0.01543385 0.041444384 -0.021880047 -0.0316607 -0.052949376 -0.034260858 0.021838324
-0.017505432 -0.0037809445 -0.034400113 -0.0490899 -0.00012507207 0.019776464 0.019462395 -0.047959924
-0.023409607 0.0052339686 -0.001861707 -0.04066822 0.030867642 -0.032042906 -0.053435434 0.059680752
0.0033565268 -0.06804013 -0.012495202 0.031795382 0.027658002 -0.050020806 0.056430295 -0.039232247
0.057172157 -0.046434283 -0.021536587 0.025045363 -0.054841895 0.038828887 0.047589567 -0.031024469
00000000: 36e8 4dbd fd69 103d 81ee 433d e970 8bbc
00000010: 6483 03bd 4f9b 50bd 61be 9c3c ea32 4ebc
00000020: 9912 3dbd 392f 283b 7c86 d2bb 077d 4ebd
00000030: 97f5 69bc 6306 60bc d5d2 e13b 6cc8 fa3c
00000040: 4c5f f2bc 8cc5 2d3d 1b50 08bd e55b 753d
00000050: b9af d03a a1c9 3d3d 530f 723d 39bd 053d
00000060: 5b2e 383d da4d 2e3d 9d89 363c bfc7 42bd
00000070: 0c72 4c3d 0408 e83c 9113 81bb 5bb3 863c
00000080: 017b 9d3c 6e35 103d 1c56 703d 6924 82bd
00000090: 9c34 d83c 10f4 febc 9d9f 97bc 0bd2 263d
000000a0: dd65 20bd f208 6cbd 477b 903d 7809 f6bb
000000b0: 7d66 a4bc 1eb5 303d 3e30 1abd dff3 3d3d
000000c0: c3cc 32bd f21c 473d 1853 5a3c 70fb 563d
000000d0: 55fa 9fbc 769c f6bc 84b5 09bd 9fde 713d
000000e0: 95c5 44bd fe55 f93c d262 66bd 28c5 82bd
000000f0: 20bd 48bd a2b5 9d3c 4932 6f3b 8fa7 cbbc
00000100: 745e 30bc 758c 863d 281a dabc 294d 0fbd
00000110: 6476 24bb 4adc 0d3d 3ec1 58bd 107f 883d
00000120: a5d4 a2bc 4567 bcbc 6a13 43bd 3e45 10bd
00000130: 6722 683d 6d56 b63b a458 44bd f465 ff3c
00000140: 1796 333d 97a8 6dbd c03a bbbc 4fb8 203d
00000150: 8be0 d73b 53a2 30b9 c689 603d 7d20 913c
00000160: 6045 dc3c 4604 f8bc e73c 363d acff 31bd
00000170: 93c4 9dbc bbf2 aabc 6c9d 02ba 5bd6 34bc
00000180: 31eb f53c a5d2 22bb 2dcc 12bd f3d1 603c
00000190: f6ec 86bc fc7f 913c 965d 5cbd 1f35 ad3c
000001a0: fb2e 083d df6d 713d 80f3 703c bed4 333d
000001b0: 29ff a83a c0fb 553d 6012 3f3d 8be8 1abb
000001c0: 0e81 493c 8f10 4a3d aa36 e7bc 068b f3bc
000001d0: c6b5 f0bb 4019 a5bb 5f12 7c3d f199 953c
000001e0: c7c1 873d b60b 2d3d 377f 89bc 6ce5 29bd
000001f0: 36cf c43c fce4 56bc 72de 8d3c 6e5c 60bd
00000200: 7c34 713d 3b3b a6bc 5c48 d43c af9b 6fbd
00000210: 81a5 2c3d b38b 8f3d c725 3ebb 5763 2fbd
00000220: 04d9 363d fe5c 803d 8294 41bd c9f9 d5bc
00000230: ca81 c03c 5624 e03c e7d2 18bd fc63 23bc
00000240: 8265 81bc 79af 59bd 389c 623d 4593 cb3c
00000250: f02e 8a3d b0fa 1abb 2b67 ffbc 4299 0bbd
00000260: 8fcd bcbb 5a8f 363d 34cc 943c 4f88 40bd
00000270: a05a f3bc 9256 51bd 758a 44bc 9d9e a6bc
00000280: 4037 35bc 317a bfbc ad6f c03c 568f 433d
00000290: bea0 4d3d 1496 f6bc 6333 763d c732 c53c
000002a0: 174e b8bc 9bbb 603d c194 2e3c 4e06 023d
000002b0: ab1f 243d e52c fcbc 54bd de3c 4bda 743d
000002c0: e64b f93c a6ef 823c 1658 cb3c 2012 1e3d
000002d0: fb07 f3bc e192 06bd 4125 013d e6e8 e93c
000002e0: 3d3d bc3c a060 59bc b069 7cbd 2f1f c43b
000002f0: 3a3c dabc 8f81 f23c ad46 4a3b c255 063d
00000300: f272 873c 6aef a63b fd4c dc3c f697 93bc
00000310: ed78 eabb e7e8 e0bc de20 643d 343c 473d
00000320: 0e69 c1bc b189 f33c ff93 f1bc 4b4a 2abd
00000330: a7a7 1c3d ee79 2f3d 7707 43bd 90ac 20bd
00000340: 6f36 4fbd 056c 893c 9326 e6bc dbca 7e3d
00000350: a0cd 29bd fcd6 0cbd 6b5e 32bd 45b4 37bd
00000360: ae2e cebb 42de 7cbc 96c1 293d c93d b3bc
00000370: a6ae 01bd 72e1 58bd 1d55 0cbd 49e6 b23c
00000380: 8d67 8fbc b9c9 77bb 22e7 0cbd 7e12 49bd
00000390: c725 03b9 4002 a23c 9a6f 9f3c a071 44bd
000003a0: 81c5 bfbc b681 ab3b 8504 f4ba b893 26bd
000003b0: 23de fc3c 6c3f 03bd 1ddf 5abd ce73 743d
000003c0: 2df9 5b3b a058 8bbd adb8 4cbc e03b 023d
000003d0: 0993 e23c 9ee2 4cbd 7423 673d feb1 20bd
000003e0: 5a2d 6a3d e031 3ebd 7f6d b0bc ef2b cd3c
000003f0: e5a1 60bd 0a0b 1f3d 47ed 423d 0727 febc

body.4.weight f4 [128, 256]
-0.055931997 -0.05190253 0.01832069 -0.048863705 0.055676393 -0.021406732 0.04533772 -0.05700854
-0.036718525 -0.006603287 0.050354037 0.034327008 0.016431153 0.0052202777 -0.025747368 0.052519858
0.017795349 -0.02745032 -0.0003538247 0.012096466 -0.052270114 0.015099283 0.008366741 -0.015992548
0.04947455 -0.0029125428 -0.052812304 0.049806524 -0.002391717 0.051602367 0.059837006 -0.032332625
-0.06502181 0.009911965 -0.0019119484 0.053342987 0.042035975 0.02376767 0.03527868 0.021478739
-0.01729215 0.01760224 0.008063872 -0.03429996 0.032347776 0.009591483 -0.044164192 0.037053984
-0.051553387 -0.055892102 -0.026262818 0.04637612 -0.06881239 0.00084551744 -0.050571118 0.008137548
0.05713809 -0.018061507 -0.053165317 0.037789162 0.048529234 0.05462171 0.05991887 0.016214512
-0.02651391 -0.031979263 -0.06127303 -0.028214565 -0.038814824 -0.012438407 -0.03657913 0.029035686
-0.054469254 0.020118235 0.0012613514 -0.027046498 -0.04517166 0.043797106 0.0051562116 0.043331925
0.043260228 0.013224296 -0.008918633 0.002597266 -0.010584628 0.018110488 0.021350946 0.02807672
0.04848243 -0.04137092 0.045952726 0.005675483 0.03984356 -0.014401935 -0.058646493 -0.0007922261
0.025617367 0.025219599 0.008493994 -0.05675669 -0.0057068355 0.043663014 -0.05798632 -0.049020413
-0.018524064 0.018475603 -0.011411855 -0.059532236 0.039427143 -0.026321502 -0.0018320461 0.031634226
0.022547351 0.004857687 0.001224688 0.050471976 -0.034964066 0.05118037 -0.061763555 0.00626923
-0.064381614 -0.051310025 -0.03290325 0.01595725 0.002695617 -0.05626817 -0.022146422 -0.055105533
0.028307255 -0.056873504 -0.0032784983 -0.036510892 -0.056309156 0.032875493 -0.03565279 -0.03080971
0.01267308 -0.041268922 0.062028572 -0.04284294 0.027829431 0.009034201 -0.051788673 -0.02929403
0.047560763 -0.0033676436 -0.042100016 0.022871098 0.0567365 0.04206999 -0.03846888 0.029159278
-0.063409075 0.014133204 -0.018951196 -0.015701225 -0.021620404 -0.027313879 -0.007826428 -0.015149336
0.053949684 0.030254703 0.048410002 0.016002828 -0.011897883 0.05456605 -0.04816833 -0.0023100208
-0.044382043 -0.02352797 -0.04408124 -0.028691495 0.04135764 0.042080212 0.020546688 -0.05440721
-0.02091831 -0.05596145 0.0039051946 -0.047755186 -0.007161653 -0.03680961 -0.038500838 0.031370964
0.027075686 0.049976 0.00857473 0.036873724 0.017654244 0.059621867 -0.049242463 -0.0635699
-0.03830993 -0.01475738 0.055650983 0.0015096517 -0.03991021 0.036154218 0.047387224 0.04968655
0.037159313 0.048581168 0.047906026 -0.03564026 0.053588286 0.035559364 0.039047197 -0.019634018
-0.031729463 -0.031693272 0.015970616 0.00038357143 0.025791783 -0.0014897697 0.033719327 -0.026855728
-0.0008319025 0.053286795 -0.04638742 0.030864054 -0.045343418 -0.044492815 -0.06770351 -0.031169664
0.018982986 -0.050743535 -0.055947118 -0.045336302 -0.032864865 0.03641409 0.022289628 -0.024832383
-0.06510831 -0.06005342 0.018049186 -0.014465877 0.01422421 0.024353176 -0.044637885 -0.0029597639
-0.05751644 0.03945902 -0.048175775 0.051879533 -0.049821872 -0.059410762 -0.04174379 -0.032150283
0.036480274 -0.053722143 -0.016412102 -0.050552256 0.042451154 0.018977316 -0.06745636 0.032940447
00000000: f318 65bd bf97 54bd 4615 963c 4f25 48bd
00000010: ee0c 643d 2c5d afbc 0cb4 393d c981 69bd
00000020: 2a66 16bd 6360 d8bb 0940 4e3d 7a9a 0c3d
00000030: a09a 863c dd0e ab3b 25ec d2bc 101f 573d
00000040: 8dc7 913c 7edf e0bc 8c81 b9b9 4130 463c
00000050: 3019 56bd fc62 773c a814 093c ce02 83bc
00000060: d3a5 4a3d 5ce0 3ebb b751 58bd ed01 4c3d
00000070: 5abe 1cbb 015d 533d a617 753d 376f 04bd
00000080: 282a 85bd cb65 223c 589a faba 2d7e 5a3d
00000090: ea2d 2c3d 6bb4 c23c 6180 103d 2ef4 af3c
000000a0: 44a8 8dbc 9332 903c 551e 043c 1d7e 0cbd
000000b0: 1a7f 043d 9825 1d3c 83e5 34bd ebc5 173d
000000c0: a529 53bd 1eef 64bd 1f25 d7bc e3f4 3d3d
000000d0: 83ed 8cbd b7a5 5d3a a923 4fbd 5a53 053c
000000e0: a109 6a3d baf5 93bc e0c3 59bd cfc8 1a3d
000000f0: 97c6 463d 04bb 5f3d 7d6d 753d 4cd4 843c
00000100: b333 d9bc b0fc 02bd 6ef9 7abd 3b22 e7bc
00000110: 4bfc 1ebd 76ca 4bbc ffd3 15bd 3fdc ed3c
00000120: 271b 5fbd ffce a43c ee53 a53a 9e90 ddbc
00000130: eb05 39bd 9864 333d 70f5 a83b d17c 313d
00000140: a331 313d b8aa 583c 751f 12bc e536 2a3b
00000150: 266b 2dbc 725c 943c 2ee8 ae3c 2601 e63c
00000160: 8395 463d 8e74 29bd ed38 3c3d 67f9 b93b
00000170: 0033 233d 18f6 6bbc 4e37 70bd 65ad 4fba
00000180: 83db d13c 5599 ce3c 652a 0b3c b479 68bd
00000190: 6800 bbbb fdd7 323d 1083 6dbd a1c9 48bd
000001a0: c7bf 97bc 265a 973c caf8 3abc 13d8 73bd
000001b0: 5b7e 213d 31a0 d7bc 4421 f0ba e492 013d
000001c0: 39b5 b83c 3b2d 9f3b b685 a03a b4bb 4e3d
000001d0: 7b36 0fbd 82a2 513d c8fb 7cbd 1d6e cd3b
000001e0: 82da 83bd 762a 52bd 8fc5 06bd c7b8 823c
000001f0: f3a8 303b 7479 66bd 6a6c b5bc 57b6 61bd
00000200: 9ee4 e73c 31f4 68bd 13dc 56bb 728c 15bd
00000210: 6ea4 66bd 74a8 063d a908 12bd a564 fcbc
00000220: c0a2 4f3c 9a09 29bd ac11 7e3d 147c 2fbd
00000230: 8cfa e33c 2f04 143c 5c20 54bd 09fa efbc
00000240: 13cf 423d afb3 5cbb 1171 2cbd 2b5c bb3c
00000250: 8864 683d 9551 2c3d 8b91 1dbd 70df ee3c
00000260: 9edc 81bd f48e 673c 8a3f 9bbc db9f 80bc
00000270: 461d b1bc 5bc1 dfbc 6b3a 00bc ec34 78bc
00000280: 58fa 5c3d b6d8 f73c 9149 463d 5d18 833c
00000290: 57ef 42bc a780 5f3d 284c 45bd b863 17bb
000002a0: f2c9 35bd bbbd c0bc 888e 34bd 6d0a ebbc
000002b0: a166 293d 4d5c 2c3d 8751 a83c 18da 5ebd
000002c0: e05c abbc d537 65bd 4bee 7f3b f19a 43bd
000002d0: 4dac eabb acc5 16bd 0eb3 1dbd d77e 003d
000002e0: d4cd dd3c a2b3 4c3d 067d 0c3c e708 173d
000002f0: a29f 903c 0f36 743d 77b2 49bd f030 82bd
00000300: e0ea 1cbd f0c8 71bc 49f2 633d 81df c53a
00000310: e378 23bd 7216 143d 1b19 423d 2084 4b3d
00000320: 5d34 183d 0cfd 463d 1c39 443d 85fb 11bd
00000330: 647f 5b3d b2a6 113d f4ef 1f3d 85d7 a0bc
00000340: c1f6 01bd ced0 01bd cfd4 823c 161a c939
00000350: 4a49 d33c 6044 c3ba 471d 0a3d 8b00 dcbc
00000360: 0814 5aba 4143 5a3d bc00 3ebd 9dd6 fc3c
00000370: 05ba 39bd 193e 36bd 23a8 8abd 8657 ffbc
00000380: 3582 9b3c 74d8 4fbd ce28 65bd 8fb2 39bd
00000390: 4f9d 06bd f126 153d bd98 b63c 486d cbbc
000003a0: 8157 85bd 93fa 75bd e3db 933c 4902 6dbc
000003b0: a90c 693c 5080 c73c 37d6 36bd 99f8 41bb
000003c0: 5c96 6bbd c89f 213d f653 45bd a27f 543d
000003d0: 0512 4cbd b358 73bd 89fb 2abd 04b0 03bd
000003e0: 576c 153d c00b 5cbd ac72 86bc e20f 4fbd
000003f0: 43e1 2d3d 5176 9b3c 8f26 8abd 90ec 063d

body.4.bias f4 [128]
0.011004758 -0.046497233 0.022413157 -0.030247591 0.0008783532 0.041953042 -0.019567167 0.05774548
0.018058592 -0.028480927 -0.039860453 0.006570412 0.026552841 -0.058026046 -0.045169454 0.04065551
-0.047124643 0.0102055445 0.020171281 -0.03165096 -0.04486073 0.0060106404 0.055827726 0.059162986
0.05394802 0.03953861 -0.04311713 -0.023703748 0.02968099 -0.010429103 0.020749092 -0.016974242
0.060616028 -0.038390648 0.031449754 0.03421802 -0.04303489 -0.014497741 0.04390994 -0.0003381687
0.0216762 -0.026993327 -0.035679378 -0.03622747 0.023965105 0.004123777 -0.05413661 0.06102984
-0.014660914 0.007502222 -0.025602642 0.05980301 -0.020353945 0.036929693 -0.043446727 0.04173671
0.0657317 -0.032504775 -0.014041662 -0.06681483 -0.0441231 -0.037074428 0.04732107 -0.058945313
0.009056829 -0.049782068 -0.046292543 -0.05100118 -0.053986464 0.06760608 0.05355438 0.037625402
0.058183298 -0.03462116 -0.021934014 0.0091584595 -0.03775771 -0.0407957 -0.05115965 0.058122236
0.0052961884 0.04588119 0.044511028 -0.041021854 -0.014196176 -0.040304642 -0.035895057 -0.047048036
0.034190346 0.0033886542 0.0339719 -0.010888279 -0.02110318 -0.0018444554 0.023565283 0.023743486
0.04976527 0.01856717 0.017677838 0.030609371 -0.00097279635 -0.064891666 0.055962373 0.06056842
0.02883328 0.002899477 -0.018280752 0.032987576 0.032974325 0.014681836 0.05009572 -0.028427053
0.011648251 -0.010232443 0.034531903 -0.008040599 -0.052053314 0.016147228 0.06043326 0.03156902
-0.053794663 0.03852429 -0.054219116 0.04801497 0.0016506999 0.004735173 0.005579875 -0.055962916
00000000: 4d4d 343c e273 3ebd cc9b b73c ccc9 f7bc
00000010: 4941 663a f4d6 2b3d 534b a0bc 8686 6c3d
00000020: 9def 933c d550 e9bc b744 23bd 9c4c d73b
00000030: 5885 d93c b8ac 6dbd 9b03 39bd 6486 263d
00000040: c505 41bd 2835 273c 3e3e a53c 70a4 01bd
00000050: e3bf 37bd e8f4 c43b 9dab 643d e354 723d
00000060: 99f8 5c3d 3df3 213d 969b 30bd 5d2e c2bc
00000070: 8c25 f33c d4de 2abc 00fa a93c 910d 8bbc
00000080: 8348 783d 833f 1dbd 75d1 003d 3228 0c3d
00000090: 5a45 30bd ef87 6dbc e9da 333d 3c4c b1b9
000000a0: 4992 b13c 1c21 ddbc 8a24 12bd 4163 14bd
000000b0: 7852 c43c c020 873b 5abe 5dbd 6dfa 793d
000000c0: 5534 70bc 33d5 f53b a2bc d1bc 00f4 743d
000000d0: 51bd a6bc 9743 173d 32f5 31bd 1df4 2a3d
000000e0: 579e 863d ba23 05bd 000f 66bc 37d6 88bd
000000f0: 6cba 34bd 5bdb 17bd bdd3 413d a470 71bd
00000100: 1863 143c 48e8 4bbd 409d 3dbd 9de6 50bd
00000110: e920 5dbd 0e75 8a3d d65b 5b3d 181d 1a3d
00000120: 9c51 6e3d ebce 0dbd f6ae b3bc 5d0d 163c
00000130: d4a7 1abd 6419 27bd c88c 51bd 9511 6e3d
00000140: a68b ad3b eaed 3b3d 3251 363d 8806 28bd
00000150: 1497 68bc 7b16 25bd b206 13bd 71b5 40bd
00000160: 2d0b 0c3d 2f14 5e3b 1e26 0b3d c164 32bc
00000170: 93e0 acbc a7c1 f1ba fb0b c13c b381 c23c
00000180: abd6 4b3d 2d1a 983c 1dd1 903c 81c0 fa3c
00000190: 4203 7fba ece5 84bd cd38 653d 9716 783d
000001a0: c533 ec3c 2705 3e3b 84c1 95bc fb1d 073d
000001b0: 1610 073d 158c 703c 2b31 4d3d dadf e8bc
000001c0: 4ed8 3e3c faa5 27bc 5371 0d3d b7bc 03bc
000001d0: db35 55bd 3147 843c de88 773d 844e 013d
000001e0: cb57 5cbd a5cb 1d3d dd14 5ebd 58ab 443d
000001f0: 4c5c d83a 8329 9b3b 62d7 b63b 5f39 65bd

move_head.weight f4 [5, 128]
-0.039891504 0.024740212 -0.037341565 0.049360167 -0.06971178 0.07322366 0.03294469 -0.08800577
0.061808255 0.08510096 -0.05982795 0.010332522 -0.045944747 0.020088656 0.06988339 0.0015800488
-0.04337539 0.06884766 0.058567226 -0.048537645 0.00024764723 -0.009390117 0.06372895 0.015607694
-0.06776738 -0.051120307 -0.05623685 0.058882646 -0.042662334 -0.08261928 -0.07131035 0.024425127
-0.06851645 0.045289323 -0.03981945 0.05981918 -0.069081455 0.043668285 -0.05104617 0.032727987
-0.014031156 -0.039717246 0.08384628 0.037082914 0.04788985 0.003776421 0.056006096 -0.053528354
-0.03319166 0.005437182 -0.07888061 -0.046168026 0.038046554 0.029340731 -0.06349714 0.07985453
0.0706361 -0.028042123 0.021716936 -0.011029137 -0.034181286 0.046763998 0.064504854 0.053241633
0.0602234 -0.023332018 -0.04148022 0.027883152 0.030946193 -0.038798243 -0.0029868465 0.00941358
0.06420634 -0.01602633 -0.02198624 0.06697524 0.051675096 0.06349131 0.080690965 0.07118811
-0.063993916 0.041284077 0.042201184 0.04695886 0.08242981 0.069218814 -0.016854357 -0.08515913
-0.02025388 -0.09177102 0.010844425 0.008184221 0.066347644 0.07743796 0.038189605 -0.040659085
-0.07924144 -0.056147963 0.058911733 0.048596997 -0.07510327 0.025590837 -0.019147035 -0.035909966
0.074922696 -0.009776809 -0.020990219 -0.03528857 0.00512055 0.034032427 0.08054074 -0.07184229
-0.030653542 -0.047300518 0.071058825 0.005299212 0.052499082 0.04778319 0.06438609 0.07516497
0.06922078 0.06047786 0.035381828 -0.059101354 0.014824781 0.033760387 -0.021765478 0.057096798
-0.081299804 0.021909513 -0.0044177086 0.04218478 0.025566574 -0.07458273 0.006753089 -0.015121392
0.04007572 0.033959866 -0.018476805 0.014633394 0.042075302 -0.024977664 -0.030287933 0.04480441
-0.054734476 0.012838672 -0.015249742 -0.051674087 -0.014298394 -0.06407204 -0.07514897 0.07190324
0.048614897 -0.049329124 -0.059875343 -0.038955152 0.052602295 -0.00089128764 0.00023521518 -0.05941593
0.03786216 -0.05486145 0.016145188 0.04013073 0.0077210153 -0.0038607384 -0.025587734 -0.033490982
0.037415557 0.07868628 0.04157117 0.05360918 0.015564119 -0.042816628 0.009250456 -0.060056265
0.040323943 -0.009818307 0.031792793 0.018898282 -0.04637512 -0.067835376 0.051342316 0.082230195
0.08974196 0.06853943 -0.010916916 -0.03614414 0.011882471 0.06681871 -0.043430224 0.012559934
-0.046391238 0.0061091823 0.07366764 0.088140756 0.03726629 -0.08863228 -0.037445977 -0.06294578
0.026545018 0.013480151 0.011293425 0.035555705 -0.02100721 -0.058783956 -0.045447465 0.034553114
-0.07904651 -0.031371728 0.09095905 -0.028539028 -0.02470546 -0.047761254 0.02465849 0.023710709
0.09501988 -0.019821936 -0.00020598336 -0.06478875 -0.086849615 0.037483808 -0.004358778 0.06962397
-0.0060993885 0.057995807 -0.07079291 0.017468845 0.07965743 -0.04323459 0.044461314 0.070821606
0.07002672 -0.030122245 0.0768092 -0.014301852 -0.010216137 0.07675039 0.072394036 0.01868735
-0.02513447 -0.008616474 -0.02567855 -0.0016599626 0.06296368 -0.0025111258 -0.025261853 0.031416263
-0.05634496 0.057758242 0.04590439 0.005969672 -0.030767929 0.045397244 0.01903452 -0.05637326
00000000: 4665 23bd fcab ca3c 78f3 18bd e32d 4a3d
00000010: 0dc5 8ebd 49f6 953d 03f1 063d 5f3c b4bd
00000020: a72a 7d3d 6a49 ae3d 270e 75bd bd49 293c
00000030: 8f30 3cbd f790 a43c 061f 8f3d a419 cf3a
00000040: 65aa 31bd 0100 8d3d 30e4 6f3d 69cf 46bd
00000050: a6d6 8139 01d9 19bc 5384 823d 6ab7 7f3c
00000060: a0c9 8abd 8763 51bd 9c58 66bd ee2e 713d
00000070: b3be 2ebd 4c34 a9bd 290b 92bd 3417 c83c
00000080: 5a52 8cbd 4c81 393d b819 23bd f504 753d
00000090: 947a 8dbd 84dd 323d ca15 51bd c80d 063d
000000a0: efe2 65bc 8dae 22bd 99b7 ab3d 41e4 173d
000000b0: 2628 443d d57d 773b a666 653d 8c40 5bbd
000000c0: faf3 07bd 632a b23b 288c a1bd af1a 3dbd
000000d0: b4d6 1b3d f95b f03c ca0a 82bd c68a a33d
000000e0: a9a9 903d 98b8 e5bc b7e7 b13c 8eb3 34bc
000000f0: ad01 0cbd 9b8b 3f3d 1f1b 843d e613 5a3d
00000100: d0ac 763d ca22 bfbc 2ae7 29bd 356b e43c
00000110: df82 fd3c e8ea 1ebd f8be 43bb 6b3b 1a3c
00000120: 9d7e 833d a649 83bc 7d1c b4bc 512a 893d
00000130: 44a9 533d bb07 823d 4e41 a53d 12cb 913d
00000140: 3e0f 83bd 7e19 293d 26db 2c3d ef57 403d
00000150: f6d0 a83d 98c2 8d3d 2612 8abc e967 aebd
00000160: 77eb a5bc 72f2 bbbd d1ac 313c 1c17 063c
00000170: 46e1 873d cb97 9e3d b46c 1c3d 248a 26bd
00000180: 5649 a2bd 68fb 65bd 6e4d 713d a50d 473d
00000190: becf 99bd e0a3 d13c 3eda 9cbc 5416 13bd
000001a0: 1271 993d e92e 20bc aef3 abbc bf8a 10bd
000001b0: 49ca a73b 9665 0b3d 8bf2 a43d 0d22 93bd
000001c0: 231d fbbc 30be 41bd 4a87 913d 03a5 ad3b
000001d0: 4709 573d 4eb8 433d dbdc 833d 17f0 993d
000001e0: a0c3 8d3d a2b7 773d 89ec 103d 4314 72bd
000001f0: a3e3 723c 5548 0a3d 844d b2bc 55de 693d
00000200: 8380 a6bd 947b b33c 6dc2 90bb f3c9 2c3d
00000210: fe70 d13c d5be 98bd 0449 dd3b b7bf 77bc
00000220: 7026 243d 8019 0b3d ab5c 97bc e7c0 6f3c
00000230: 2757 2c3d f59d ccbc 661e f8bc d484 373d
00000240: 4231 60bd 4b59 523c 0eda 79bc 35a8 53bd
00000250: d043 6abc 3438 83bd b4e7 99bd 0242 933d
00000260: 6a20 473d 560d 4abd d93f 75bd 708f 1fbd
00000270: 8175 573d 4da5 69ba 18a4 7639 1e5e 73bd
00000280: 5a15 1b3d 66b6 60bd ea42 843c 1f60 243d
00000290: 9200 fd3b 7104 7dbb 5e9d d1bc d72d 09bd
000002a0: 0e41 193d 4626 a13d 8846 2a3d 4d95 5b3d
000002b0: a600 7f3c 7d60 2fbd 398f 173c 8ffd 75bd
000002c0: b82a 253d f7dc 20bc 2939 023d 92d0 9a3c
000002d0: d6f3 3dbd 46ed 8abd 524c 523d 4e68 a83d
000002e0: a2ca b73d 675e 8c3d dddc 32bc e10b 14bd
000002f0: b2ae 423c 3fd8 883d e4e3 31bd 2ec8 4d3c
00000300: bd04 3ebd 892f c83b 0fdf 963d 2483 b43d
00000310: 8aa4 183d d784 b5bd f460 19bd b8e9 80bd
00000320: f074 d93c dadb 5c3c 0f08 393c dca2 113d
00000330: 5017 acbc 72c7 70bd 1f27 3abd 9187 0d3d
00000340: 23e3 a1bd a47f 00bd bd48 ba3d aeca e9bc
00000350: 1b63 cabc 4ea1 43bd 9a00 ca3c f63c c23c
00000360: c899 c23d 9d61 a2bc 3dfd 57b9 f7af 84bd
00000370: 36de b1bd 9f88 193d 14d4 8ebb 0397 8e3d
00000380: 61dd c7bb 038d 6d3d e0fb 90bd d31a 8f3c
00000390: 6f23 a33d c116 31bd 111d 363d eb0a 913d
000003a0: 2b6a 8f3d edc2 f6bc 244e 9d3d 5152 6abc
000003b0: 9661 27bc 4f2f 9d3d 5343 943d 3716 993c
000003c0: cee6 cdbc 1d2c 0dbc d35b d2bc 1a93 d9ba
000003d0: 1af3 803d b391 24bb f2f1 cebc 57ae 003d
000003e0: f9c9 66bd e893 6c3d 3e06 3c3d 3d9d c33b
000003f0: 060d fcbc 76f2 393d 48ee 9b3c a6e7 66bd

move_head.bias f4 [5]
0.07223346 0.07593895 0.019122964 0.047403775 0.08140458
00000000: 23ef 933d e185 9b3d c3a7 9c3c 762a 423d
00000010: 72b7 a63d
