checkpoints/simple_world_comm_v3_transfer/simple_world_comm_v3_agent_1_ep1100.pt (torch, 431125 bytes, 8 tensors)

body.0.weight f4 [256, 28]
-0.13457665 -0.1036284 -0.1992509 0.14871779 -0.11915594 -0.10413627 -0.06548993 -0.18995337
0.10737469 -0.028412987 0.10906026 0.052876655 -0.16380696 0.071196884 -0.11742347 0.011572617
-0.17118956 -0.03262358 0.05030094 -0.044552825 0.14200087 0.11889504 -0.1024855 0.03343358
-0.10681124 0.016344657 -0.037040893 0.16141368 0.0896569 0.15967737 -0.1663366 -0.018298728
-0.11963638 -0.021951275 -0.020960826 -0.073866986 -0.016119007 0.14444123 -0.0034242154 -0.16634592
-0.07526749 -0.1693827 0.080143705 -0.095281996 0.13267455 0.09271397 0.17156854 -0.15190516
0.054760106 0.13511449 0.0345422 0.12724833 0.16664647 0.04730272 0.05010751 0.14264597
-0.16908056 0.15569402 -0.20776927 0.001149308 0.112965055 -0.106665336 -0.053507324 0.18698145
0.19159572 -0.011989004 0.064881526 -0.18521662 -0.055977993 0.03166761 -0.1268441 -0.17298818
-0.10488461 0.049525574 0.009529608 0.0986937 0.111740634 0.16609566 -0.0028785816 0.1329826
0.12192579 -0.042253308 -0.110577755 -0.062470663 0.17618895 -0.053055175 -0.11901614 -0.04514946
-0.04661796 0.03835498 -0.01948822 -0.0624369 -0.094745815 -0.1266791 0.008714061 0.07814257
-0.12440919 -0.03391531 -0.15436196 0.13137157 -0.02832449 -0.08078926 -0.066277325 0.123518676
-0.06322797 0.099656925 0.05562972 -0.061322592 0.10287749 0.15882927 -0.0120040225 0.15823652
0.15155093 0.08958986 0.10150359 0.09359797 -0.17897914 -0.034577344 -0.052327406 0.16155414
0.054272804 -0.035467055 -0.060214575 0.14276996 -0.17403674 -0.17149478 0.02267752 -0.13346651
0.15886785 -0.057722606 -0.016226133 0.14514166 0.031002248 -0.013300545 -0.20979811 0.19603328
-0.15714067 -0.041320205 -0.038104128 -0.018667663 0.18665385 0.15120484 0.05913939 0.0804733
0.027895156 0.047567137 0.069202915 -0.026557721 -0.025747783 -0.0790956 -0.12406026 -0.17355411
-0.022551762 0.08870914 -0.09190241 0.16042262 0.068127945 0.15172213 0.17032902 0.15475726
0.19037968 0.12546009 -0.18516216 0.057906814 0.17140779 -0.025643144 -0.030594531 -0.00042396053
-0.1841971 -0.13251309 0.041852403 -0.051009648 0.13774282 0.018374246 0.2035409 0.012447705
0.21639618 -0.08750771 0.16163868 0.013699693 -0.09950229 -0.024215547 0.07221391 -0.010385705
0.16792499 -0.09592225 0.13503224 -0.04344849 0.116280034 0.16769654 -0.13428472 -0.0048264875
0.056740023 0.093752325 0.06462312 0.019938929 -0.11217963 -0.07000499 0.053567022 -0.03581698
0.16967772 -0.17287706 0.039525066 -0.14264362 0.13679048 -0.009799681 -0.06293812 -0.03130516
-0.16579285 0.12998383 -0.051766373 0.02274095 0.15129574 0.17120798 0.084444374 -0.11079221
0.0020965561 -0.16562931 0.039441533 -0.12445878 0.16587415 0.071341276 -0.06509012 -0.073033854
0.13373251 -0.17214291 -0.16233988 0.085762806 0.017945148 -0.15794241 -0.07399115 -0.07656435
0.081909135 0.05643702 0.19987655 0.01080499 0.18360719 0.11233985 -0.09317101 0.04523593
-0.08317485 0.008420665 0.17710617 -0.18580662 -0.121231206 0.062648855 -0.09064928 -0.21577384
-0.16435319 0.13887562 -0.07438676 0.14620155 -0.12635943 0.08273077 0.16255374 -0.12904012
00000000: 76ce 09be 203b d4bd 6e08 4cbe 7a49 183e
00000010: 0808 f4bd 6645 d5bd 961f 86bd 2383 42be
00000020: 43e7 db3d 5ac2 e8bc fc5a df3d 3195 583d
00000030: 03bd 27be accf 913d b77b f0bd 139b 3d3c
00000040: 514c 2fbe 4ea0 05bd 5c08 4e3d 067d 36bd
00000050: ad68 113e 3e7f f33d ebe3 d1bd a6f1 083d
00000060: dabf dabd 3be5 853c 31b8 17bd a149 253e
00000070: 099e b73d 7782 233e 2454 2abe 37e7 95bc
00000080: eb03 f5bd 29d3 b3bc 0ab6 abbc 9347 97bd
00000090: 020c 84bc 67e8 133e cd68 60bb 9656 2abe
000000a0: d825 9abd a972 2dbe 6222 a43d 3523 c3bd
000000b0: d6db 073e d2e0 bd3d aaaf 2f3e 078d 1bbe
000000c0: 224c 603d 745b 0a3e 1f7c 0d3d 634d 023e
000000d0: 5fa5 2a3e 7fc0 413d 883d 4d3d c911 123e
000000e0: 7423 2dbe 416e 1f3e 78c1 54be 61a4 963a
000000f0: 395a e73d 5b73 dabd 7f2a 5bbd 1178 3f3e
00000100: ab31 443e 876d 44bc 9be0 843d 6da9 3dbe
00000110: 2e49 65bd e5b5 013d 6be3 01be d023 31be
00000120: becd d6bd 54db 4a3d 1322 1c3c ec1f ca3d
00000130: 46d8 e43d fb14 2a3e 96a6 3cbb 972c 083e
00000140: 3bb4 f93d ce11 2dbd 9776 e2bd 3de1 7fbd
00000150: e06a 343e 6250 59bd bcbe f3bd a4ee 38bd
00000160: 79f2 3ebd 1d1a 1d3d c2a5 9fbc d6bd 7fbd
00000170: 180a c2bd 2ab8 01be 6cc5 0e3c 3609 a03d
00000180: 3fca febd c8ea 0abd 1011 1ebe 4586 063e
00000190: c308 e8bc d774 a5bd 68bc 87bd 5cf7 fc3d
000001a0: aa7d 81bd ee18 cc3d fddb 633d 662d 7bbd
000001b0: 6fb1 d23d 24a4 223e 85ac 44bc c108 223e
000001c0: 2b30 1b3e e37a b73d 1de1 cf3d 4bb0 bf3d
000001d0: 4f46 37be f9a0 0dbd 4355 56bd 736e 253e
000001e0: 294d 5e3d e745 11bd 8fa3 76bd 4a32 123e
000001f0: b036 32be 549c 2fbe 35c6 b93c 72ab 08be
00000200: 41ae 223e 8a6e 6cbd abec 84bc 04a0 143e
00000210: 6df8 fd3c 87ea 59bc 51d5 56be f3bc 483e
00000220: 7ce9 20be 603f 29bd 1313 1cbd edec 98bc
00000230: 3022 3f3e 71d5 1a3e 253c 723d 2fcf a43d
00000240: 6284 e43c c2d5 423d 42ba 8d3d 948f d9bc
00000250: 04ed d2bc e0fc a1bd 4e13 febd 2bb8 31be
00000260: 79be b8bc 23ad b53d 5537 bcbd d445 243e
00000270: aa86 8b3d 0c5d 1b3e bb6a 2e3e b078 1e3e
00000280: e4f2 423e 9c78 003e 269b 3dbe b22f 6d3d
00000290: 8685 2f3e 9211 d2bc 62a1 fabc 0547 deb9
000002a0: 2a9e 3cbe 83b1 07be 6d6d 2b3d 7eef 50bd
000002b0: 740c 0d3e 9685 963c 076d 503e 75f1 4b3c
000002c0: f696 5d3e 3e37 b3bd 9c84 253e ad74 603c
000002d0: dbc7 cbbd af5f c6bc e3e4 933d ce28 2abc
000002e0: 87f4 2b3e e272 c4bd e445 0a3e 0bf7 31bd
000002f0: 3a24 ee3d a4b8 2b3e ef81 09be 8327 9ebb
00000300: 3a68 683d 3801 c03d 2059 843d f756 a33c
00000310: 6fbe e5bd c75e 8fbd 1869 5b3d d3b4 12bd
00000320: ffbf 2d3e af06 31be 09e5 213d 2b11 12be
00000330: ce12 0c3e d78e 20bc b3e5 80bd d739 00bd
00000340: 9ac5 29be 7b1a 053e fa08 54bd 3b4b ba3c
00000350: 45ed 1a3e 2551 2f3e 2cf1 ac3d 07e7 e2bd
00000360: 6066 093b bb9a 29be 728d 213d 3fe4 febd
00000370: eada 293e 601b 923d f84d 85bd c692 95bd
00000380: 2df1 083e 3b46 30be 6d3c 26be 69a4 af3d
00000390: b401 933c a8bb 21be ac88 97bd c5cd 9cbd
000003a0: fabf a73d 812a 673d 70ac 4c3e 6a07 313c
000003b0: 8603 3c3e 6f12 e63d 71d0 bebd 4f49 393d
000003c0: 9357 aabd d4f6 093c 525b 353e 1744 3ebe
000003d0: 1148 f8bd 0b4e 803d 54a6 b9bd d1f3 5cbe
000003e0: 344c 28be 6935 0e3e 1658 98bd dcb5 153e
000003f0: 5e64 01be c06e a93d 7d74 263e 1823 04be

body.0.bias f4 [256]
-0.17671551 -0.060705226 -0.028418481 0.031808376 0.18167514 0.11927897 0.097580574 0.07311358
-0.08345482 0.10949786 0.028621275 -0.16447838 0.0018602828 -0.08870785 0.13440143 0.030642474
0.1754669 0.101026654 0.16534251 0.030047493 -0.16490553 0.11686168 -0.045459483 0.09032611
0.13799016 0.14183678 0.16944598 0.027334211 0.03686666 0.017936926 -0.071993075 -0.08603169
0.00027103163 0.16383323 -0.017644519 -0.08798186 0.034929357 -0.14407948 0.1408503 -0.039376438
-0.058226418 0.054008 0.16277017 -0.110058494 0.043783225 -0.17200649 -0.11918063 0.16052897
-0.051214922 0.052886408 0.15158524 -0.06726155 -0.06312296 -0.04297798 0.06542944 -0.14300722
-0.09788124 0.04787453 -0.03394389 -0.14603376 0.0580103 0.08518568 0.027457189 0.06995958
-0.006988628 0.17303045 -0.13367963 0.019423114 -0.20289354 0.033733122 -0.106015645 0.025535645
-0.03271438 -0.056638177 0.16497746 0.15833563 0.20692183 -0.06819935 -0.026440024 0.119642965
-0.027318142 -0.12334313 -0.04867336 -0.06098073 0.14561398 -0.040299486 -0.10683821 0.019476758
-0.110014945 0.12519366 -0.11134438 0.10100766 -0.012617184 0.075463764 -0.0073574497 -0.182976
0.011931432 -0.0019125798 -0.13685887 -0.030048246 0.15830886 -0.07034974 0.14271542 0.0155501515
0.09623488 -0.09764281 0.016507372 -0.1156404 -0.0056518936 -0.15566978 0.12605554 -0.18645369
0.108799435 -0.17498289 0.010103912 0.1509984 -0.15456863 -0.15820776 0.12767704 0.045484778
-0.16358979 -0.060583252 0.104223624 0.14314534 -0.14797078 0.040889066 -0.10371357 -0.07299789
0.08894264 0.17207071 0.19260621 0.18640181 -0.11760813 -0.17875499 0.022458227 0.057597194
0.06488189 0.09161318 -0.13268782 0.07767025 -0.05167577 0.15721387 -0.1602887 0.04472916
0.10183692 -0.16234173 -0.07434055 0.082409315 0.18952665 0.20027891 0.1748602 0.13614449
0.16423444 0.082004204 0.1834659 -0.080432616 0.13212304 0.019513281 -0.111675404 0.12828165
-0.038987238 -0.12542865 0.12409083 -0.07748918 0.16453108 0.17640954 -0.033791684 -0.18513355
0.019643966 -0.12545657 0.12412977 0.04377277 -0.07981917 0.11172201 -0.19145088 -0.07584876
0.082259305 -0.1603504 0.0768892 -0.0037110038 -0.17272995 -0.16788186 -0.0023850554 0.081113495
0.08572598 -0.02694792 0.04713351 0.09411603 0.046382725 -0.085802175 -0.07196546 0.042671114
0.097468615 -0.014722034 -0.12755617 -0.17262301 -0.12283493 0.041999884 -0.12150293 0.068305105
0.1529885 0.09177259 0.036878288 0.053303663 -0.06503952 -0.16522071 -0.037665613 0.02508207
0.08870977 -0.1288413 -0.10797853 -0.18755853 0.05583981 -0.1740967 0.11445332 -0.08215113
0.15048827 -0.09853113 0.121783085 -0.01256338 0.123721376 -0.038676396 -0.15762691 0.0141758695
0.0425405 0.10469726 -0.15311027 -0.035343446 -0.026617894 0.12389897 0.112517096 0.15811427
-0.04198932 -0.013473709 -0.15533176 0.072740346 0.074078724 -0.066333376 0.07112661 -0.009891723
-0.042356163 -0.16577105 0.0053947046 0.17440392 0.1037855 0.12819679 0.05658147 0.123242244
-0.010010788 0.13142537 -0.08634661 0.060980566 0.1670339 -0.09425961 -0.17960533 0.013359385
00000000: e9f4 34be 0ba6 78bd e0cd e8bc 8049 023d
00000010: 0c09 3a3e 8848 f43d 53d8 c73d 93bc 953d
00000020: 5cea aabd 6a40 e03d 2a77 ea3c 056d 28be
00000030: bcd4 f33a 76ac b5bd 87a0 093e ed05 fb3c
00000040: 98ad 333e 10e7 ce3d 8c4f 293e 2926 f63c
00000050: ffdc 28be 2d55 ef3d b933 3abd e5fc b83d
00000060: 4b4d 0d3e a93d 113e 3f83 2d3e ffeb df3c
00000070: 7f01 173d 76f0 923c 1b71 93bd 6231 b0bd
00000080: 4019 8e39 e6c3 273e 3d8b 90bc d52f b4bd
00000090: 1612 0f3d 9289 13be 103b 103e 3049 21bd
000000a0: d37e 6ebd 7e37 5d3d 39ad 263e 5966 e1bd
000000b0: 0a56 333d 7822 30be f914 f4bd b561 243e
000000c0: bdc6 51bd 6b9f 583d 2939 1b3e 6cc0 89bd
000000d0: 9c46 81bd ae09 30bd dfff 853d 7c70 12be
000000e0: f675 c8bd 1518 443d c008 0bbd e089 15be
000000f0: 359c 6d3d d475 ae3d e6ed e03c f846 8f3d
00000100: dc00 e5bb e52e 313e 50e3 08be 391d 9f3c
00000110: 53c3 4fbe be2b 0a3d bb1e d9bd 2130 d13c
00000120: 84ff 05bd 6ffd 67bd daef 283e bc22 223e
00000130: 51e3 533e 1aac 8bbd c098 d8bc 5f07 f53d
00000140: 4cca dfbc 539b fcbd b85d 47bd eec6 79bd
00000150: d51b 153e 1311 25bd fecd dabd b98d 9f3c
00000160: 844f e1bd c432 003e 8608 e4bd 1bdd ce3d
00000170: 4eb8 4ebc bf8c 9a3d c316 f1bb 0f5e 3bbe
00000180: 0e7c 433c 87af faba bb24 0cbe bd27 f6bc
00000190: b81b 223e 8613 90bd fe23 123e 10c6 7e3c
000001a0: cb16 c53d f4f8 c7bd 783a 873c e0d4 ecbd
000001b0: 8533 b9bb e667 1fbe b414 013e b7ed 3ebe
000001c0: 3dd2 de3d b72e 33be e18a 253c 539f 1a3e
000001d0: 3d47 1ebe 3701 22be c5bd 023e 3f4e 3a3d
000001e0: 1584 27be 2526 78bd 3273 d53d b194 123e
000001f0: a785 17be 4b7b 273d c867 d4bd eb7f 95bd
00000200: 8f27 b63d 4e33 303e 903a 453e 1ee0 3e3e
00000210: 88dc f0bd 8c0b 37be 51fa b73c 09eb 6b3d
00000220: cce0 843d b19f bb3d 51df 07be 9411 9f3d
00000230: f9a9 53bd acfc 203e b922 24be ec35 373d
00000240: e08f d03d e93c 26be dc3f 98bd 37c6 a83d
00000250: 4613 423e ea15 4d3e 8d0e 333e 7669 0b3e
00000260: 132d 283e d2f1 a73d 7cde 3b3e dbb9 a4bd
00000270: 434b 073e 51da 9f3c 13b6 e4bd 445c 033e
00000280: 15b1 1fbd 5e70 00be 5523 fe3d a6b2 9ebd
00000290: d67a 283e b4a4 343e 2669 0abd a693 3dbe
000002a0: 62ec a03c b077 00be c037 fe3d 134b 333d
000002b0: 3c78 a3bd 82ce e43d b30b 44be 9856 9bbd
000002c0: 9177 a83d e532 24be 1678 9d3d 5034 73bb
000002d0: 1fe0 30be 39e9 2bbe 974e 1cbb d51e a63d
000002e0: 1a91 af3d e2c1 dcbc 110f 413d e8bf c03d
000002f0: d0fb 3d3d 0db9 afbd a162 93bd e8c7 2e3d
00000300: a09d c73d b034 71bc 169e 02be 16c4 30be
00000310: e190 fbbd 1208 2c3d 87d6 f8bd 8ce3 8b3d
00000320: 04a9 1c3e 45f3 bb3d b00d 173d f154 5a3d
00000330: 7133 85bd 9e2f 29be 4247 1abd ea78 cd3c
00000340: 78ad b53d f9ee 03be d923 ddbd 580f 40be
00000350: 49b8 643d 6846 32be 8166 ea3d da3e a8bd
00000360: 9919 1a3e b0ca c9bd 6969 f93d a3d6 4dbc
00000370: a261 fd3d 246b 1ebd f368 21be e841 683c
00000380: f33e 2e3d 846b d63d f0c8 1cbe 4ac4 10bd
00000390: c50d dabc bebe fd3d 5d6f e63d b5e8 213e
000003a0: fefc 2bbd d5c0 5cbc 4a0f 1fbe e4f8 943d
000003b0: 96b6 973d cbd9 87bd d4aa 913d e510 22bc
000003c0: a87d 2dbd e3bf 29be 10c6 b03b f196 323e
000003d0: 7e8d d43d 0546 033e f9c1 673d 6e66 fc3d
000003e0: 4a04 24bc 5f94 063e 7ed6 b0bd c2c6 793d
000003f0: ef0a 2b3e 2f0b c1bd 76ea 37be 52e1 5a3c

body.2.weight f4 [256, 256]
0.03865905 0.05120883 -0.0011765435 -0.04592716 -0.039672848 0.044255998 -0.044370163 0.06865767
-0.053906117 -0.023733417 -0.036775712 0.07855992 -0.056538947 0.009087985 -0.004382884 -0.050830793
0.043546993 -2.8318245e-05 -0.046246354 0.035651572 -0.018319735 0.051330447 -0.050061863 0.034639202
0.02822528 0.037550658 0.009101115 -0.045156393 -0.055878617 0.010152967 0.03428317 -0.008584369
-0.05343518 -0.02786846 -0.037620287 0.034056794 -0.044976924 0.060536023 0.06824692 0.00329654
-0.04821867 -0.040644925 0.044786815 0.027726209 0.046960317 -0.06216881 0.05248857 -0.03171596
-0.010291117 0.051173255 0.047022108 0.02614595 0.03221673 -0.047699444 -0.05055561 -0.00821136
0.013523445 0.0700713 -0.053481407 0.068547055 -0.04010153 0.069990814 0.035108358 0.019878024
0.06278687 0.024442228 0.082335815 0.025366168 -0.013332619 0.04229682 0.060092498 -0.05988387
0.047857665 0.04878379 0.09621677 -0.031904176 0.03563209 0.07128368 0.046951808 0.023397075
0.03582126 -0.0077843857 0.05092078 -0.055240322 0.070813455 -0.00932873 0.040257886 0.0024015037
-0.0077408953 0.07428732 0.0037401288 0.019824386 -0.04143313 0.031949744 -0.057627503 0.037236944
-0.035315875 0.0051456476 0.0022948612 0.065144606 0.013220813 -0.053061187 0.05269475 -0.028952979
0.0010227247 0.0011401027 -0.02993344 -0.03768527 0.054880343 0.0031963803 0.02530012 0.01942823
-0.027444778 -0.07311239 0.044679813 0.04357954 0.040851783 0.0477484 -0.050986897 -0.061732784
-0.023966083 -0.045620237 0.016418206 -0.011332137 0.026176726 -0.024777351 0.004150819 0.03932853
0.047379695 0.03609819 -0.03180169 0.011905972 0.044511918 -0.049071487 -0.06610268 -0.036121685
0.0050275284 0.040009696 0.065490365 0.070764646 -0.050345954 0.051100567 0.050780177 -0.0070401863
-0.022261474 0.006867285 -0.013718803 -0.043099776 -0.0097437 -0.047972366 0.015714291 0.034984056
0.0646613 0.046321493 0.059272263 -0.042786393 0.027606722 0.04701462 0.040330216 0.052619092
0.047290962 -0.023348274 -0.008826324 -0.0034870226 0.029724583 0.07626245 0.005438596 -0.0022094771
0.036178544 -0.023798127 -0.024401193 0.022886641 0.033866286 0.009108791 -0.032951392 0.06001264
-0.030840395 0.019795949 0.028248912 -0.043269005 -0.03659465 0.05139094 0.024807137 0.034303248
-0.023568487 -0.0019198596 0.029397637 0.0023893379 0.004277471 -0.014412468 0.021869367 -0.04264268
0.0036252867 0.008490047 -0.021217763 0.03694339 -0.0008395106 -0.031366464 0.06990994 -0.032893416
0.03403111 -0.064842194 0.01636055 0.067871496 -0.035925727 0.054585237 0.026693422 0.057605322
0.0091251265 -0.035866547 -0.0469625 0.07176309 0.009201422 -0.056016643 -0.01742668 0.06398939
0.0386434 0.0049688574 0.0061702593 -0.04567681 0.033774782 0.021416089 -0.04332561 0.036030512
-0.030507369 0.0418341 0.016912084 0.004420921 -0.046352215 -0.039271336 0.004485474 -0.03238216
-0.06368344 -0.016849233 0.00010983534 0.053535033 0.027043639 -0.025340414 0.061868723 -0.046512797
0.02615833 0.07791597 0.042797286 0.029690564 0.03264174 0.04648266 0.0098597165 0.026232097
0.07088913 0.0684563 0.035456736 -0.022264963 -0.011525285 -0.015619073 0.004454513 0.025901204
00000000: f458 1e3d 5ac0 513d 4036 9aba 1e1e 3cbd
00000010: ff7f 22bd c745 353d 7dbd 35bd 649c 8c3d
00000020: a9cc 5cbd 956c c2bc 21a2 16bd 06e4 a03d
00000030: 6295 67bd c6e5 143c 4c9e 8fbb f333 50bd
00000040: 555e 323d f88c edb7 d16c 3dbd 6207 123d
00000050: 4513 96bc e03f 523d ab0d 4dbd d6e1 0d3d
00000060: b438 e73c b8ce 193d d81c 153c e9f5 38bd
00000070: fae0 64bd a158 263c 826c 0c3d 74a5 0cbc
00000080: d9de 5abd 664c e4bc bb17 1abd 237f 0b3d
00000090: b939 38bd 9ff4 773d 0bc5 8b3d c30a 583b
000000a0: f180 45bd 4b7b 26bd 6172 373d 1322 e33c
000000b0: 7659 403d b9a4 7ebd 41fe 563d 98e8 01bd
000000c0: 139c 28bc 0c9b 513d 419a 403d 0830 d63c
000000d0: b1f5 033d 7e60 43bd 6613 4fbd f188 06bc
000000e0: 7191 5d3c 8b81 8f3d 520f 5bbd 6662 8c3d
000000f0: 8041 24bd 5857 8f3d c8cd 0f3d 3dd7 a23c
00000100: 6796 803d 113b c83c ae9f a83d b6cc cf3c
00000110: 0f71 5abc 6e3f 2d3d 8d23 763d ca48 75bd
00000120: 6606 443d 83d1 473d 4c0d c53d f4ad 02bd
00000130: f4f2 113d 2efd 913d 8a50 403d 39ab bf3c
00000140: 50b9 123d 2914 ffbb 4f92 503d ad43 62bd
00000150: a506 913d 88d7 18bc 74e5 243d 8c62 1d3b
00000160: 56a7 fdbb f323 983d f31c 753b c066 a23c
00000170: c9b5 29bd bcdd 023d d10a 6cbd c485 183d
00000180: 61a7 10bd d29c a83b 6265 163b 896a 853d
00000190: 1c9c 583c b056 59bd 73d6 573d cc2e edbc
000001a0: f20c 863a 806f 953a f936 f5bc df5b 1abd
000001b0: 36ca 603d 5d7a 513b 3242 cf3c f427 9f3c
000001c0: dfd3 e0bc f3bb 95bd 2e02 373d 7680 323d
000001d0: 3354 273d d493 433d a3d7 50bd 84db 7cbd
000001e0: 8554 c4bc 49dc 3abd 797f 863c 6daa 39bc
000001f0: 9370 d63c dff9 cabc 9803 883b f416 213d
00000200: 3611 423d b2db 133d 7d42 02bd 4411 433c
00000210: 2152 363d 2fff 48bd d860 87bd 55f4 13bd
00000220: f7bd a43b 35e1 233d d01f 863d 0eed 903d
00000230: 8f37 4ebd d44e 513d e0fe 4f3d 5db1 e6bb
00000240: b25d b6bc f606 e13b d5c4 60bc 6489 30bd
00000250: 0aa4 1fbc ac7e 44bd 42bb 803c 714b 0f3d
00000260: 256d 843d 9bbb 3d3d 79c7 723d c940 2fbd
00000270: 7e27 e23c 6792 403d 4c31 253d 1e87 573d
00000280: 2bb4 413d e144 bfbc 499c 10bc 8886 64bb
00000290: f880 f33c 7d2f 9c3d 4036 b23b e0cc 10bb
000002a0: f42f 143d 4af4 c2bc 03e5 c7bc c47c bb3c
000002b0: 60b7 0a3d 0a3d 153c 0af8 06bd d0cf 753d
000002c0: ffa4 fcbc 1d2b a23c 436a e73c d73a 31bd
000002d0: 46e4 15bd 4e7f 523d 5638 cb3c 9081 0c3d
000002e0: b312 c1bc cca3 fbba 50d3 f03c 7096 1c3b
000002f0: 072a 8c3b 4622 6cbc 6327 b33c 17aa 2ebd
00000300: 3896 6d3b d719 0b3c e0d0 adbc f451 173d
00000310: 9a12 5cba 1f7a 00bd f12c 8f3d 3fbb 06bd
00000320: 3564 0b3d fccb 84bd 8f06 863c 3600 8b3d
00000330: db26 13bd c594 5f3d 2aac da3c 8ff3 6b3d
00000340: 8e81 153c cde8 12bd c05b 40bd 87f8 923d
00000350: 90c1 163c b571 65bd 66c2 8ebc df0c 833d
00000360: 8b48 1e3d ccd1 a23b e32f ca3b 9b17 3bbd
00000370: 6d57 0a3d cb70 af3c 3276 31bd bb94 133d
00000380: 97ea f9bc 3c5a 2b3d 368b 8a3c 60dd 903b
00000390: d2db 3dbd fbda 20bd e2fa 923b 28a3 04bd
000003a0: 776c 82bd 6707 8abc 6657 e638 8d47 5b3d
000003b0: 9f8a dd3c b396 cfbc 0f6a 7d3d 3484 3ebd
000003c0: fe49 d63c 6892 9f3d 354c 2f3d a039 f33c
000003d0: 58b3 053d 9a64 3e3d a68a 213c b2e4 d63c
000003e0: 522e 913d d132 8c3d 153b 113d 0365 b6bc
000003f0: 8dd4 3cbc 24e7 7fbc 2af7 913b c32e d43c

body.2.bias f4 [256]
-0.013313706 -0.0296498 -0.02269777 0.009069675 0.023068087 -0.029023284 -0.03911603 0.05608611
0.055672716 -0.008853752 -0.03617976 -0.046738163 0.013042424 0.064520255 -0.05389447 -0.004852637
-0.0069866143 -0.015472649 -0.06440676 -0.006126461 0.004060645 0.025302121 0.023454377 0.016687583
-0.050754294 0.061728235 0.07322304 -0.040988494 -0.0054202885 -0.022273785 0.04834314 0.029674299
0.06350694 0.045506425 -0.014590282 -0.061703976 -0.0038391699 0.037870977 0.040526297 0.026928633
0.052858394 -0.04711803 -0.003029747 0.0023587814 -0.038669568 0.036819305 0.025092416 -0.056460537
0.054932453 0.056707233 -0.02782228 -0.042815536 -0.048871364 -0.004970766 -0.0288005 -0.043757897
0.027084677 -0.0051446543 0.027034603 -0.0007110158 -0.014994396 -0.06746646 0.036923923 0.06369548
0.025471838 0.030706305 -0.009677515 0.062016148 0.0059753307 -0.0011183622 -0.04610836 0.02740691
-0.02971862 -0.025401896 0.02715791 -0.05634739 0.029509453 0.04946302 0.053679075 -0.0252734
0.019499466 -0.022880577 0.07596067 -0.044936698 0.016778653 -0.05494578 -0.06725319 0.03532121
-0.028590128 0.019081833 -0.034433432 0.038725536 -0.047297515 0.023710342 -0.03286252 -0.035066847
-0.026763853 -0.03825774 -0.037344396 -0.008080667 0.019342273 0.0643169 0.032013457 0.022557752
-0.022176135 -0.053773087 0.039089594 0.032389656 0.02245405 0.044798866 0.03844227 -0.016500428
-0.0043492 -0.048456267 0.02940435 0.038760114 -0.0129098045 0.056692436 0.040260073 -0.023770738
-0.0586246 -0.043919355 -0.015858782 0.013128429 0.05695399 -0.034757424 0.011497404 -0.03961071
0.03459214 7.122352e-05 -0.00987028 -0.011858264 0.012664387 0.047821637 -0.026803752 0.01752598
-0.069187276 -0.032848366 -0.04886341 0.04638657 0.026094694 0.034840953 -0.010271131 -0.030385531
-0.016821159 -0.0469399 -0.03796682 0.033677403 -0.04814638 0.06098991 0.023469435 0.0037246638
0.0458853 -0.036665227 0.011400941 0.022623297 0.02649373 -0.02834035 -0.052038126 -0.018732969
0.061533008 -0.04184588 0.033266366 -0.027897818 0.0076722656 0.03152918 0.034520283 -0.03623348
-0.024075942 -0.054995015 0.042212896 0.044424765 0.042317677 0.043620247 0.050257914 -0.028228598
0.023260292 0.008155036 0.014579157 -0.047761273 0.023481714 -0.019075755 0.029978277 0.008784468
-0.022149552 0.013766579 -0.035991464 0.03152491 0.010620256 0.005012016 -0.025719326 0.009508308
0.07305332 0.0020337233 -0.050936047 0.013656124 0.04073199 -0.033680357 -0.0036265403 -0.06664602
-0.008850532 0.03916742 -0.009218299 0.010293123 0.024362417 -0.0058973758 -0.050994568 -0.019783206
0.0091415 -0.041732714 -0.020350648 -0.013168125 -0.0175802 0.0064940467 0.07657733 -0.023883073
0.029103804 0.008682237 -0.066668205 0.0039271577 0.0012387556 -0.0010021699 0.06213447 0.033947144
-0.004411421 0.007268682 0.029596107 0.027077002 -0.020199735 0.0036288614 -0.042736735 -0.014388116
-0.0151422545 0.05991219 -0.035780706 -0.0660075 0.036462937 0.02231443 0.045727402 -0.0066393055
-0.008840432 0.048873972 -0.05621959 -0.0641078 0.048943013 -0.05394335 -0.06475924 0.032530658
-0.03514934 0.033867992 -0.05628018 0.06205803 0.041391827 0.03561105 0.047344394 0.073030494
00000000: bb21 5abc 23e4 f2bc acf0 b9bc f998 143c
00000010: 49f9 bc3c 3dc2 edbc 2138 20bd 8dba 653d
00000020: 1309 643d 540f 11bc 3a31 14bd 8470 3fbd
00000030: e4af 553c 3223 843d 73c0 5cbd df02 9fbb
00000040: f8ef e4bb fe80 7dbc b1e7 83bd 7bc0 c8bb
00000050: 290f 853b 6546 cf3c 6523 c03c 66b4 883c
00000060: bce3 4fbd bfd6 7c3d f6f5 953d 8de3 27bd
00000070: ad9c b1bb 8377 b6bc 7503 463d 8417 f33c
00000080: ed0f 823d f264 3a3d 140c 6fbc 4fbd 7cbd
00000090: 959a 7bbb 991e 1b3d e7fe 253d 7099 dc3c
000000a0: 0b82 583d d6fe 40bd b88e 46bb c995 1a3b
000000b0: fb63 1ebd d7cf 163d 9c8e cd3c 2a43 67bd
000000c0: da00 613d d845 683d 8deb e3bc 585f 2fbd
000000d0: 572d 48bd cfe1 a2bb 07ef ebbc 7b3b 33bd
000000e0: afe0 dd3c 7d94 a8bb ac77 dd3c 7663 3aba
000000f0: 0eab 75bc db2b 8abd 8a3d 173d c772 823d
00000100: 51aa d03c ca8b fb3c 718e 1ebc a504 7e3d
00000110: b5cc c33b 0296 92ba 1fdc 3cbd 7584 e03c
00000120: 7774 f3bc a317 d0bc 447a de3c 85cc 66bd
00000130: cfbd f13c bc99 4a3d 97de 5b3d 290a cfbc
00000140: 58bd 9f3c 0c70 bbbc 4591 9b3d 8b0f 38bd
00000150: 6373 893c d40e 61bd 0abc 89bd f9ac 103d
00000160: d835 eabc 8151 9c3c 120a 0dbd ab9e 1e3d
00000170: 0abb 41bd 313c c23c da9a 06bd 41a2 0fbd
00000180: de3f dbbc 26b4 1cbd 70f6 18bd c664 04bc
00000190: b073 9e3c 94b8 833d 8b20 033d 09cb b83c
000001a0: baaa b5bc 2b41 5cbd 691c 203d 04ab 043d
000001b0: 8ef1 b73c 047f 373d a475 1d3d e82b 87bc
000001c0: bc83 8ebb 147a 46bd 64e1 f03c edc2 1e3d
000001d0: a583 53bc 5436 683d bfe7 243d daba c2bc
000001e0: 5920 70bd c8e4 33bd 47ea 81bc 9f18 573c
000001f0: 9648 693d cd5d 0ebd 9c5f 3c3c d73e 22bd
00000200: 7db0 0d3d d65d 9538 f4b6 21bc 2a49 42bc
00000210: 4a7e 4f3c 9fe0 433d 8b93 dbbc a592 8f3c
00000220: 0fb2 8dbd 028c 06bd 0025 48bd d8ff 3d3d
00000230: 8ac4 d53c 63b5 0e3d 3f48 28bc 14eb f8bc
00000240: 87cc 89bc 0d44 40bd 1983 1bbd 51f1 093d
00000250: 2335 45bd 8ed0 793d f942 c03c 7d19 743b
00000260: 39f2 3b3d 472e 16bd 03cb 3a3c 7e54 b93c
00000270: 6109 d93c 062a e8bc ee25 55bd e275 99bc
00000280: 090a 7c3d 9666 2bbd 5042 083d f789 e4bc
00000290: a167 fb3b be24 013d 2465 0d3d 8f69 14bd
000002a0: e93a c5bc 7442 61bd 6ee7 2c3d bef6 353d
000002b0: 4d55 2d3d 25ab 323d 3edb 4d3d a93f e7bc
000002c0: 5e8c be3c b39c 053c 6bdd 6e3c 53a1 43bd
000002d0: b95c c03c c244 9cbc 0195 f53c bbec 0f3c
000002e0: fa72 b5bc 388d 613c c96b 13bd 4420 013d
000002f0: 9500 2e3c d63b a43b 56b1 d2bc bcc8 1b3c
00000300: fb9c 953d 3748 053b 51a2 50bd efbd 5f3c
00000310: 96d6 263d 6af4 09bd 40ab 6dbb b57d 88bd
00000320: d201 11bc 046e 203d 5908 17bc 7da4 283c
00000330: b193 c73c c63e c1bb aedf 50bd 6410 a2bc
00000340: 3bc6 153c ecef 2abd 67b6 a6bc 1fbf 57bc
00000350: 5a04 90bc 03cc d43b 93d4 9c3d 6fa6 c3bc
00000360: 1a6b ee3c f13f 0e3c 5789 88bd 63af 803b
00000370: be5d a23a 3e5b 83ba b780 7e3d 290c 0b3d
00000380: ae8d 90bb 202e ee3b 8973 f23c 97d0 dd3c
00000390: ea79 a5bc 31d2 6d3b b70c 2fbd 22bc 6bbc
000003a0: 3817 78bc 7c66 753d ca8e 12bd f12e 87bd
000003b0: 295a 153d c0cc b63c a84c 3b3d 888e d9bb
000003c0: 76d7 10bc 1330 483d 8346 66bd f34a 83bd
000003d0: 7878 483d b4f3 5cbd 7ea0 84bd de3e 053d
000003e0: c1f8 0fbd 2ab9 0a3d 0c86 66bd 9030 7e3d
000003f0: 7a8a 293d e4dc 113d 32ec 413d 0391 953d

body.4.weight f4 [128, 256]
0.07829263 -0.012588299 0.0053075766 0.018272627 -0.0027058974 0.072656594 0.031237846 -0.033986513
0.0076529253 -0.042707782 0.012507202 -0.015027677 -0.026924755 0.013322878 0.03575371 0.05324118
0.0042233043 0.04969667 0.005750398 0.038618483 -0.022650044 -0.04632795 0.06677096 -0.0785109
0.034878608 0.019931627 0.023418441 -0.016735354 0.044223525 0.010429026 0.0021007303 0.021348273
0.020341577 -0.059855442 -0.06053099 0.016770037 -0.026112676 0.020684328 0.018728072 0.08101549
-0.010794825 0.0654812 -0.0353639 0.030437587 -0.035700828 -0.050940994 -0.055674523 0.050135214
-0.05906215 -0.02765512 -0.058933705 0.03474606 -0.008093291 0.010198396 -0.031238236 0.034133896
-0.030516433 -0.045443468 0.04969751 -0.01578075 -0.046604883 0.004360829 -0.021105045 0.027613003
0.017453764 -0.026945282 -0.013041488 0.024823768 0.012495019 0.068951085 -0.031623222 -0.04815566
0.0015181992 -0.075754695 -0.059481245 0.01222316 0.031368356 0.071578614 0.06601126 -0.036258973
-0.046917852 -0.024685849 0.04553968 -0.0006004652 0.019303959 -0.013864265 0.018676482 -0.00032503664
0.0027252026 0.04541183 0.06766308 -0.035419542 0.046512213 -0.03105606 0.036597054 0.04714744
0.018770963 0.05512302 0.06498827 -0.011445086 -0.039580047 0.022062443 0.06593397 0.056328777
-0.033873495 -0.03330616 -0.05319767 -0.02756061 0.058944058 0.053024143 0.0072692046 0.019263014
-0.04604152 0.044361804 -0.021717371 -0.030127078 0.0016172107 0.028080136 -0.053573877 0.009840491
-0.015334355 -0.013098066 0.0032108137 0.0033057912 0.013681968 -0.03381653 0.07122963 -0.056876786
-0.05328792 -0.061585665 0.012449971 0.06714678 -0.0332837 0.06897743 -0.039812587 0.00043988676
-0.04833805 -0.0027194535 -0.048148025 -0.0026104564 -0.046727233 0.023698526 0.051592037 -0.031249132
0.050283294 -0.06047694 0.010025031 0.024982033 0.030410994 0.061833795 -0.02036801 -0.01872415
-0.027881978 0.008231699 0.046405543 -0.01898674 -0.026670361 -0.021384545 0.049134172 0.022674263
-0.04937695 0.013942722 0.05830254 0.07908993 0.009064862 -0.031880036 0.008725729 0.043648005
-0.025956806 -0.031012928 0.058570016 0.08712828 -0.01973813 0.046652813 0.05578725 0.062966205
-0.033297043 0.048360374 0.03301924 -0.033102836 -0.0069999243 -0.069606654 -0.060453918 0.037629392
-0.025517393 -0.029027963 0.0018228252 0.045940768 -0.015482652 0.03888521 0.03635855 -0.03484103
0.0098124575 0.06757447 0.0061836257 -0.044402085 -0.015810173 0.060003933 0.026416471 0.0386758
-0.05803153 -0.034909256 -0.014620695 0.022527223 -0.075409964 0.04552353 0.038559545 0.070413694
0.040342644 -0.027664067 0.031502385 0.04368348 0.021792252 -0.05314541 0.01775067 0.04469881
-0.0013253099 -0.020742701 -0.0037097423 0.03470814 -0.043993343 -0.051699538 -0.006820111 0.047211636
-0.047133632 -0.03507192 0.049354512 0.05035211 0.04294443 -0.034396507 0.021803789 0.061121903
0.03869717 0.05787251 0.007869547 0.0077821044 -0.039511893 -0.02066509 -0.025382182 0.020416316
-0.013271298 -0.048699353 0.06737168 0.03823822 0.03610954 0.036114533 0.01236467 -0.010007342
-0.033995666 0.06695633 0.08157388 0.011181483 -0.04873627 0.051471423 -0.036475856 -0.04588121
00000000: e357 a03d 273f 4ebc 2eeb ad3b 7ab0 953c
00000010: 6d55 31bb fbcc 943d 83e6 ff3c 7135 0bbd
00000020: 64c5 fa3b 5bee 2ebd 02eb 4c3c a536 76bc
00000030: 4e91 dcbc 3348 5a3c 7b72 123d 6c13 5a3d
00000040: a563 8a3b bc8e 4b3d d66d bc3b 6a2e 1e3d
00000050: 968c b9bc 60c2 3dbd 37bf 883d 53ca a0bd
00000060: dfdc 0e3d a747 a33c 08d8 bf3c 9518 89bc
00000070: ba23 353d 81de 2a3c 68ac 093b 93e2 ae3c
00000080: 61a3 a63c fb2a 75bd 58ef 77bd 5161 893c
00000090: 40ea d5bc 2e72 a93c 9d6b 993c 73eb a53d
000000a0: c7dc 30bc 021b 863d bdd9 10bd 3f58 f93c
000000b0: 083b 12bd 81a7 50bd f80a 64bd 955a 4d3d
000000c0: 27eb 71bd fd8c e2bc 7864 71bd e251 0e3d
000000d0: b999 04bc 2c17 273c 54e7 ffbc fccf 0b3d
000000e0: 99fd f9bc ee22 3abd 9e8f 4b3d a246 81bc
000000f0: c3e4 3ebd 49e5 8e3b 7de4 acbc aa34 e23c
00000100: 32fb 8e3c 5abc dcbc f7ab 55bc 375b cb3c
00000110: e8b7 4c3c 3a36 8d3d 5a87 01bd df3e 45bd
00000120: 50fe c63a 4725 9bbd 9ba2 73bd a643 483c
00000130: 1b7c 003d cf97 923d e930 873d 4a84 14bd
00000140: ef2c 40bd fa39 cabc d187 3a3d 8a68 1dba
00000150: 5623 9e3c f126 63bc 6cff 983c ae69 aab9
00000160: 5099 323b c101 3a3d f192 8a3d 1514 11bd
00000170: 9783 3e3d 4769 febc cbe6 153d ad1d 413d
00000180: 90c5 993c adc8 613d 9218 853d 2c84 3bbc
00000190: b01e 22bd 4cbc b43c 6408 873d 01b9 663d
000001a0: efbe 0abd 0a6c 08bd cde5 59bd cac6 e1bc
000001b0: 536f 713d d82f 593d 8232 ee3b 78cd 9d3c
000001c0: 0896 3cbd b9b4 353d a1e8 b1bc 10cd f6bc
000001d0: 96f8 d33a 5008 e63c 4870 5bbd 033a 213c
000001e0: f23c 7bbc 4599 56bc 846c 523b f9a5 583b
000001f0: 552a 603c 3483 0abd d7e0 913d a2f7 68bd
00000200: 6f44 5abd 4041 7cbd f7fa 4b3c 4084 893d
00000210: 7d54 08bd 0a44 8d3d 8612 23bd 9aa0 e639
00000220: 1efe 45bd dc38 32bb dd36 45bd 3114 2bbb
00000230: 0e65 3fbd 6923 c23c 2c52 533d 2efe ffbc
00000240: dbf5 4d3d abb6 77bd 0740 243c 1fa7 cc3c
00000250: 7a20 f93c 6f45 7d3d d0da a6bc 6363 99bc
00000260: bf68 e4bc 3fde 063c bd13 3e3d 148a 9bbc
00000270: cd7b dabc a42e afbc ea40 493d 60bf b93c
00000280: 7c3f 4abd 0470 643c a5ce 6e3d e7f9 a13d
00000290: c984 143c a494 02bd 5cf6 0e3c 40c8 323d
000002a0: 5ea3 d4bc d30e febc 1de7 6f3d 5070 b23d
000002b0: dcb1 a1bc 0517 3f3d 2c81 643d 6df4 803d
000002c0: 7b62 08bd 8715 463d 2f3f 073d d796 07bd
000002d0: 9f5f e5bb ef8d 8ebd 879e 77bd 4721 1a3d
000002e0: da09 d1bc 0dcc edbc ddeb ee3a 632c 3c3d
000002f0: f3aa 7dbc 1946 1f3d b4ec 143d 78b5 0ebd
00000300: 6ec4 203c 7c64 8a3d 03a0 ca3b f6de 35bd
00000310: 5684 81bc afc6 753d 5b67 d83c 846a 1e3d
00000320: 78b2 6dbd 02fd 0ebd a48b 6fbc 038b b83c
00000330: 8a70 9abd e276 3a3d 9df0 1d3d 0e35 903d
00000340: 543e 253d c19f e2bc a508 013d 73ed 323d
00000350: aa85 b23c 00af 59bd da69 913c 1916 373d
00000360: 05b6 adba 99ec a9bc 261f 73bb 1f2a 0e3d
00000370: 5d32 34bd e5c2 53bd 3d7b dfbb fd60 413d
00000380: 320f 41bd 93a7 0fbd f527 4a3d 043e 4e3d
00000390: 80e6 2f3d 5ae3 0cbd dc9d b23c f65a 7a3d
000003a0: ec80 1e3d ba0b 6d3d 46ef 003c 0601 ff3b
000003b0: 39d7 21bd d649 a9bc 4bee cfbc 1e40 a73c
000003c0: dc6f 59bc f978 47bd 2afa 893d ae9f 1c3d
000003d0: 99e7 133d d5ec 133d 2f95 4a3c d6f5 23bc
000003e0: 0a3f 0bbd 6620 893d 3510 a73d 8a32 373c
000003f0: af9f 47bd b3d3 523d b567 15bd f0ed 3bbd

body.4.bias f4 [128]
0.03635027 0.0046051587 0.022904461 -0.040310122 -0.05085251 -0.02697732 -0.055103187 0.03702924
0.015244936 0.02111369 -0.008681503 0.029379772 -0.056025863 -0.06666201 -0.020863127 0.053536166
0.054735065 -0.0069446363 -0.0468183 0.0625075 -0.03639828 0.0048542484 0.039954025 -0.03693212
0.038238894 -0.05722995 0.07170656 -0.014184714 -0.03955037 0.049236428 0.036809828 0.026862413
0.02232527 -0.04338745 -0.021476632 -0.025480812 0.0071434495 -0.0070723537 0.023615811 -0.02797135
-0.058890175 0.0136454245 0.023201121 -0.014730815 0.03654895 -0.03029902 0.047451805 0.06345999
-0.010953648 -0.060003616 -0.03059484 0.011867126 0.0021359744 0.049200702 -0.02666771 0.03324901
0.0035454761 0.029985411 -0.031129083 0.034792986 0.007217413 0.0010857094 0.060766947 0.044954292
-0.050534982 -0.044941742 -0.046899743 -0.023297008 -0.05570081 -0.019937398 0.025098672 -0.031414285
0.010309367 0.025658509 0.049735792 -0.012388228 -0.03802971 0.06090493 -0.007933463 0.045338396
-0.0033053916 -0.053404383 0.020523407 -0.029176714 0.02106892 -0.0486334 0.019015413 -0.028123125
0.017374916 -0.04548526 -0.03518514 -0.045861423 0.014447567 -0.048308168 0.05816592 0.00067762466
0.010302047 0.048753392 -0.013006628 -0.020512424 0.018725114 -0.032397613 0.005009345 0.02148065
-0.000551049 -0.017603798 -0.004249933 -0.046818357 -0.04093755 0.0061303587 -0.03126758 0.0533483
0.029858401 -0.05903706 -0.020368 0.03522466 -0.004027788 -0.025021622 -0.017472599 -0.013855742
0.0060906196 -0.002019813 -0.006015888 -0.0035833283 -0.025795246 -0.009351188 0.035972655 0.0038205073
00000000: 05e4 143d dfe6 963b 23a2 bb3c 3a1c 25bd
00000010: b94a 50bd 8aff dcbc e1b3 61bd f9ab 173d
00000020: e5c5 793c 9ef6 ac3c dd3c 0ebc d9ad f03c
00000030: 607b 65bd 1886 88bd 26e9 aabc bd48 5b3d
00000040: e031 603d d58f e3bb 8cc4 3fbd ef03 803d
00000050: 5d16 15bd 6310 9f3b d5a6 233d 2246 17bd
00000060: 63a0 1c3d f469 6abd e4da 923d 0167 68bc
00000070: 92ff 21bd 23ac 493d e7c5 163d 900e dc3c
00000080: 7ce3 b63c 0ab7 31bd c3ef afbc 23bd d0bc
00000090: 9913 ea3b 34bf e7bb f275 c13c 2c24 e5bc
000000a0: d336 71bd 0f91 5f3c 4710 be3c 8459 71bc
000000b0: 5ab4 153d a735 f8bc d35c 423d 50f7 813d
000000c0: ee76 33bc 5ac6 75bd 08a2 fabc 566e 423c
000000d0: b4fb 0b3b ad86 493d 3e76 dabc 1d30 083d
000000e0: 385b 683b f7a3 f53c 6b02 ffbc 1783 0e3d
000000f0: 0c80 ec3b 5d4e 8e3a c3e6 783d fe21 383d
00000100: c5fd 4ebd d514 38bd f219 40bd 5ed9 bebc
00000110: 8826 64bd c153 a3bc bb9b cd3c 44ac 00bd
00000120: 9fe8 283c cb31 d23c c2b7 4b3d fff7 4abc
00000130: 0bc5 1bbd 7377 793d 5bfb 01bc c1b4 393d
00000140: 459f 58bb 8ebe 5abd b420 a83c 0104 efbc
00000150: ba98 ac3c d133 47bd 36c6 9b3c 7862 e6bc
00000160: d755 8e3c c14e 3abd 4b1e 10bd 30d9 3bbd
00000170: 7db5 6c3c c9de 45bd 633f 6e3d 9fa2 313a
00000180: ebc9 283c a3b1 473d c019 55bc ac09 a8bc
00000190: 6965 993c 5cb3 04bd 6e25 a43b 30f8 af3c
000001a0: 4674 10ba d735 90bc 0643 8bbb 9bc4 3fbd
000001b0: 22ae 27bd 2de1 c83b 6f12 00bd bf83 5a3d
000001c0: 9b99 f43c d8d0 71bd cbda a6bc bc47 103d
000001d0: 89fb 83bb 25fa ccbc b222 8fbc 3203 63bc
000001e0: d293 c73b d75e 04bb ed20 c5bb 46d6 6abb
000001f0: 8d50 d3bc ba35 19bc 1058 133d 7a61 7a3b

move_head.weight f4 [5, 128]
0.0022041965 -0.05398219 0.015285002 0.08278855 -0.042559594 -0.02131408 -0.078968644 -0.016042564
0.058321554 0.026658176 0.002745225 -0.056014664 0.00025210792 0.048472643 -0.052368876 -0.060038075
-0.062354606 0.033289474 -0.06768538 0.048073832 0.045436885 -0.071585536 -0.00043454478 0.076689854
-0.034963693 0.0029290088 0.07318689 -0.05802904 -0.0639139 -0.039993897 -0.042573087 0.07812099
0.019748075 0.0525416 -0.08276046 0.0426917 -0.031043885 -0.008736315 -0.012583395 0.05153516
0.071867794 0.04009354 0.0113848895 0.059852667 -0.056414507 -0.06467525 -0.050948974 -0.038959615
0.022730974 0.045397446 -0.07039701 -0.06675714 -0.0050025773 0.05023418 0.06553255 -0.08526516
0.027190728 -0.016881587 -0.029969277 -0.03843057 0.08217841 -0.027132694 0.0768959 0.0505406
0.043159958 -0.049446568 -0.042512577 0.03417021 0.0068527483 -0.044160407 0.0130998455 -0.044180732
0.0043434943 -0.08031069 0.064752765 0.08118411 0.05916158 0.07845339 0.043379694 -0.0678591
0.012961686 -0.06432759 -0.012783486 0.05367753 0.052472964 -0.059500456 0.01684743 -0.0055189203
-0.039997473 0.08926914 0.05010513 -0.047533058 0.06264613 0.044626255 -0.055192392 0.024533596
-0.036354892 -0.059102856 0.07630701 0.024263028 0.06846045 -0.013578784 0.021235228 0.073967084
-0.008914491 0.06237498 0.02510341 0.08185003 -0.08591072 0.066581726 -0.01046931 0.049401514
-0.062146693 -0.0091080805 0.039161004 -0.024189029 0.08088257 0.06940472 0.040920418 0.015614443
0.08600982 0.0060667587 0.03818356 -0.050491374 -0.012579347 -0.020204432 0.007471958 0.0452372
-0.085375644 -0.0881159 -0.036457803 -0.030555768 0.067718804 0.013349683 -0.0061356206 -0.020909367
0.04370068 0.016446803 -0.046862334 0.05333617 -0.11535458 -0.0123901535 0.011878651 0.011205124
-0.038323283 -0.08435435 -0.042075854 -0.06299554 -0.06603027 -0.03466745 -0.09884734 -0.034502707
0.094615445 -0.029175121 -0.042811304 -0.077587575 0.010826832 0.003266833 0.07654458 0.056919362
-0.08736924 -0.014616936 -0.09004452 0.011880198 0.081057094 0.08718285 0.02206309 -0.10616714
-0.058389746 -0.00646415 -0.0625578 -0.006985913 -0.029567523 -0.10486953 -0.03257674 0.019526035
0.046320837 0.0009171795 0.016572224 0.021312846 0.058079254 0.0882899 -0.030957958 0.06367425
0.035401072 -0.05201667 0.0069465376 -0.0016661572 -0.09071162 0.024774732 -0.064157456 -0.052928105
0.046889726 -0.010713449 0.10607436 0.025113624 0.015039498 -0.069494404 0.07764841 0.0050484953
0.04874889 0.035344627 0.00020329584 0.05928367 0.06245094 -0.025447821 0.059751965 0.049773145
0.08204338 0.039226443 -0.08779889 -0.07158866 0.100607984 0.033397384 -0.05448774 -0.019445898
0.061305806 -0.035345726 -0.02984632 -0.08773268 -0.04658231 0.066274814 -0.00077072013 0.088852026
0.060418077 0.058786955 0.006444141 0.035523377 -0.09067948 0.06785879 0.047554575 -0.0575183
-0.043294758 -0.035854716 -0.08702545 -0.10686068 0.00035131056 -0.08993645 -0.010262843 0.05760278
0.065910004 0.023458254 0.07908921 0.044515416 0.0028457644 0.051669516 -0.00068603933 0.018800827
-0.041384485 0.06599955 -0.0015064884 0.07206178 -0.0031021233 0.0556161 -0.041955415 0.05208915
00000000: 4874 103b 6e1c 5dbd f26d 7a3c 0b8d a93d
00000010: f852 2ebd de9a aebc 50ba a1bd b26b 83bc
00000020: 95e2 6e3d 3f62 da3c 3ce9 333b a26f 65bd
00000030: 5a2d 8439 408b 463d bf80 56bd 7cea 75bd
00000040: 8b67 7fbd 8b5a 083d a29e 8abd 11e9 443d
00000050: 071c 3a3d 709b 92bd 9dd3 e3b9 920f 9d3d
00000060: 1736 0fbd 9df4 3f3b 02e3 953d dcaf 6dbd
00000070: 4ae5 82bd a4d0 23bd 1e61 2ebd e6fd 9f3d
00000080: b7c6 a13c dc35 573d 517e a9bd 7edd 2e3d
00000090: bf4f febc c322 0fbc 952a 4ebc 8816 533d
000000a0: 6c2f 933d 2039 243d b087 3a3c 1228 753d
000000b0: e612 67bd 7574 84bd dfaf 50bd 1e94 1fbd
000000c0: 4f36 ba3c acf2 393d 4f2c 90bd f8b7 88bd
000000d0: a9ec a3bb 5bc2 4d3d ee35 863d 809f aebd
000000e0: 17bf de3c 414b 8abc 2182 f5bc 6069 1dbd
000000f0: 274d a83d 6245 debc 997b 9d3d a903 4f3d
00000100: 7fc8 303d 7c88 4abd ab21 2ebd 10f6 0b3d
00000110: 058d e03b 8be1 34bd bca0 563c dbf6 34bd
00000120: df53 8e3b ee79 a4bd 199d 843d db43 a63d
00000130: 6a53 723d 2cac a03d e8ae 313d b6f9 8abd
00000140: 405d 543c 2fbe 83bd d471 51bc f8dc 5b3d
00000150: e4ed 563d c0b6 73bd 9f03 8a3c 0fd8 b4bb
00000160: 64d4 23bd bdd2 b63d 093b 4d3d 06b2 42bd
00000170: 9d4c 803d 05ca 363d 6b11 62bd aefa c83c
00000180: dee8 14bd d615 72bd da46 9c3d 42c3 c63c
00000190: fe34 8c3d 8c79 5ebc 80f5 ad3c 0e7c 973d
000001a0: 160e 12bc e87c 7f3d aba5 cd3c fda0 a73d
000001b0: f6f1 afbd 005c 883d 7887 2bbc 3e59 4a3d
000001c0: 888d 7ebd 0f3a 15bc 4a67 203d 1228 c6bc
000001d0: c3a5 a53d 1024 8e3d 2b9c 273d b9d3 7f3c
000001e0: eb25 b03d a9cb c63b 5d66 1c3d 0bd0 4ebd
000001f0: 9b19 4ebc c483 a5bc 54d7 f43b a44a 393d
00000200: 6dd9 aebd 1c76 b4bd c754 15bd 1750 fabc
00000210: 28b0 8a3d a1b8 5a3c 510d c9bb 1f4a abbc
00000220: 7cff 323d 72bb 863c b8f2 3fbd 0777 5a3d
00000230: 063f ecbd 1200 4bbc ac9e 423c b295 373c
00000240: e0f8 1cbd f9c1 acbd bb57 2cbd ce03 81bd
00000250: e13a 87bd 75ff 0dbd 7970 cabd b652 0dbd
00000260: bec5 c13d aa00 efbc e85a 2fbd 3ce6 9ebd
00000270: 0663 313c 5d18 563b 68c3 9c3d 4724 693d
00000280: a5ee b2bd e07b 6fbc 4369 b8bd 29a5 423c
00000290: 4301 a63d ec8c b23d a7bd b43c 286e d9bd
000002a0: 162a 6fbd 38d1 d3bb 4e1e 80bd 16ea e4bb
000002b0: 9737 f2bc d6c5 d6bd 306f 05bd 10f5 9f3c
000002c0: ebba 3d3d e06e 703a 79c2 873c 4798 ae3c
000002d0: 83e4 6d3d 56d1 b43d 8b9b fdbc a567 823d
000002e0: b700 113d 6f0f 55bd c89f e33b f562 daba
000002f0: 04c7 b9bd 61f4 ca3c fc64 83bd 24cb 58bd
00000300: 710f 403d 7687 2fbc 843d d93d 16bb cd3c
00000310: 3a68 763c 1553 8ebd 2106 9f3d d96d a53b
00000320: ebac 473d 87c5 103d d02b 5539 6fd3 723d
00000330: 8fcc 7f3d f377 d0bc 7abe 743d edde 4b3d
00000340: 5c06 a83d e8ab 203d e8cf b3bd 139d 92bd
00000350: 8f0b ce3d b2cb 083d 892e 5fbd 014d 9fbc
00000360: cc1b 7b3d aec6 10bd 4580 f4bc 31ad b3bd
00000370: 18cd 3ebd 17bb 873d 270a 4aba 0df8 b53d
00000380: f278 773d 97ca 703d 5f29 d33b f680 113d
00000390: 2ab6 b9bd 8df9 8a3d 96c8 423d 4f98 6bbd
000003a0: d855 31bd 65dc 12bd 663a b2bd c6d9 dabd
000003b0: 1b30 b839 9a30 b8bd 7c25 28bc e5f0 6b3d
000003c0: d3fb 863d 862b c03c 86f9 a13d cc55 363d
000003d0: 0180 3a3b 6aa3 533d 52d7 33ba 3104 9a3c
000003e0: c782 29bd c62a 873d 5d75 c5ba 2095 933d
000003f0: fe4c 4bbb b5cd 633d 71d9 2bbd 6f5b 553d

move_head.bias f4 [5]
0.061581414 -0.01541375 0.03486779 0.060024526 -0.07452813
00000000: cb3c 7c3d f489 7cbc 87d1 0e3d 47dc 753d
00000010: 34a2 98bd
