checkpoints/simple_world_comm_v3_transfer/simple_world_comm_v3_leadadversary_0_ep5.pt (torch, 440021 bytes, 10 tensors)

body.0.weight f4 [256, 34]
00000000: 17ae ba3d d4a0 12be 1dbf 483c fd8f eb3d
00000010: 3df3 04be bbfe 253e 9c84 243e 400d e53c
00000020: ebfa 26be f6ca abbc 5173 783d ad9d 633d
00000030: 3c49 6bbd b9f5 943c 441e f1bd b5ed 0ebe
00000040: 187e bebd daec 7e3d e9de 2b3e 9942 223e
00000050: e60e 933c aeef 5d3d d12c 0ebe 3eac 11bd
00000060: 66fb 01bd 2293 bbbd 437b 39bc feb6 1cbe
00000070: 94a2 babd 0b32 2b3e e1d7 2cbe f520 0ebc
00000080: c292 e93d 920b 26bb 004c 18bd c66c f43d
00000090: c710 163d 2f52 d73d df8a 603d 5375 ffbd
000000a0: 05e7 913d f7a9 de3c 1c72 2a3e 8a32 f23d
000000b0: c359 083e 6f48 1b3e 00c2 e23d 9006 09bd
000000c0: 688d d3bc b384 2fbe 115a ad3c 03d2 8d3d
000000d0: 8695 9e3d 3eac cc3d 6909 e33c d195 23be
000000e0: d62f 86bc 166c 153e 2390 4f3d 2905 063e
000000f0: d56f adbd 8508 0cbd bc40 aabd 7241 013e
00000100: 294f 1a3e ec77 3b3d 824d 10be 36bc 483d
00000110: 312a 4ebd fe04 a83d f573 f4bd 282d 0c3e
00000120: e650 b23c 30da 81bd 088b 0a3e 3d85 1d3e
00000130: e617 9abd e05f 483c f09f 0fbe 7b9b 08be
00000140: 93e4 70bc a54b 61bc f525 27bc abff b33c
00000150: 7f16 f1bd f7c1 f63d 9644 b3bc 9041 113c
00000160: 35dd 8a3d 9add 3ebd 725c c83d 682d 11be
00000170: db09 82bc df9c 83bd 8d9d eabd 64c0 253e
00000180: f028 b53d 904e 08bc 5e24 b439 6ca3 7d3d
00000190: 038d 943b 1e29 7abd 18dc 04bd d265 babd
000001a0: 6966 46bd 4f8a 41bc e677 d4bd aa06 23be
000001b0: c7f5 a53c e9e1 20be e2c4 77bc bf1d 043e
000001c0: 2b0a 7c3d 1ccd 11be 82cd 81bd fd2d 2a3e
000001d0: ad33 a73d d242 103c e756 b5bd 6816 a63d
000001e0: 8941 453d 762a 763d ec41 85bc c780 b4bd
000001f0: e10f cabd ec05 333d 938b 63bd 6463 083e
00000200: 7614 0bbe 5446 81bc 50fd eabc 40cc 043e
00000210: e978 643d 67c6 573d e64b c73d 2435 a4bb
00000220: 452b 2d3d 225e 39bd 64c6 a13d 60d4 0a3e
00000230: d899 00be 49fe 803d 014a 89bd 9f14 213e
00000240: 1dd5 19be 3561 5abc f273 a83d 9832 b93d
00000250: 37cd 403c 73fb bb3d 4cc2 0ebe f195 8cbd
00000260: 2fc3 2bbe 67d5 00be f694 953d c5af f5bd
00000270: e8a4 05be 458c 7a3c cffd 15be d3c1 ed3d
00000280: a41a cbbd a372 1a3d e120 143e 5565 bebd
00000290: a4ad b7bb b87b 8d3c ad7d 0f3e 1518 083e
000002a0: 7f2c 583b 7a76 07bc 2f29 2a3e 1ee6 083e
000002b0: 5b9c 2fbe 2a14 c93d be29 b1bd ae4f debd
000002c0: 4427 233e 3cb8 2b3b 450d c8bd ae0e cabd
000002d0: a0ec 233e 25fb 0ebe 7ac0 9e3d 290b a53d
000002e0: 3da6 d93c ebe2 10be 9d0c bd3d 9a67 e83d
000002f0: 43af 80bd 0133 353d 660f a13d 2309 1e3e
00000300: a9ca d9bd ae1d 8ebc aa7f 97bd fa63 c33c
00000310: dda6 a43d f0d3 05be 7df2 cf3d 7ed2 803c
00000320: 7cc7 1a3e c590 2d3e 365b 5abd b8d8 1e3e
00000330: c33f 853d 0bf7 08be 9f5a 1f3e c3e2 b23d
00000340: de6b 09bd e86e a5bd 6822 a13d 86c0 163e
00000350: d656 303e 6527 083e 9b64 a63d cfe3 1b3e
00000360: 5b18 553d 3046 0e3d 24ff bcbd adc1 07be
00000370: 1e25 153d 1bd9 c73c fe1d de3c e819 833d
00000380: 5f9a 38bd e417 e9bc 2779 063e 4fbf 65bd
00000390: 70ba 833d 5300 fb3d 1aff 133e 6072 fdbd
000003a0: 20b1 82bd aeb3 14be 0418 213e 0a15 8c3d
000003b0: f366 22be 166c f93d 913a 0ebd 8761 0f3e
000003c0: 01fd 39bd 3926 e3bd 2d65 ef3d f2ad bdbd
000003d0: aabc 243d 3603 c1bd bbb6 383d 61f2 b33d
000003e0: 9eae 91bd 8190 3a3c 949a 02be 02db dc3d
000003f0: eb71 193e d996 d2bd 4021 67bd 67ea 08bd
0.09115236 -0.14319164 0.012252596 0.11502073 -0.12983413 0.16210453 0.16066211 0.02796042
-0.16306655 -0.020970803 0.06065685 0.055570293 -0.05744289 0.018183576 -0.11773351 -0.13957866
-0.09301394 0.062237598 0.16784252 0.15845717 0.01795144 0.054183654 -0.13884284 -0.035564654
-0.031733893 -0.09158923 -0.011320892 -0.15304181 -0.091130406 0.16718309 -0.16879226 -0.00867485
0.11404945 -0.0025336486 -0.037181854 0.119348094 0.036637094 0.10513722 0.054819938 -0.1247355
0.071241416 0.027180655 0.16645092 0.11826046 0.13315491 0.1516435 0.11072159 -0.033453524
-0.025824264 -0.17140464 0.021161111 0.06924822 0.07743363 0.0999379 0.027714448 -0.15975119
-0.016380232 0.14592013 0.05067457 0.13087906 -0.08468596 -0.034187812 -0.08313128 0.12622622
0.1506926 0.045768663 -0.14092067 0.049007617 -0.050333206 0.08204077 -0.119361795 0.136891
0.021767091 -0.06340444 0.13529599 0.15382858 -0.075240895 0.01222989 -0.14025855 -0.13340561
-0.014702934 -0.013750945 -0.010201921 0.021972498 -0.11771869 0.120487146 -0.02188329 0.008865729
0.06780473 -0.046598054 0.097832575 -0.14177477 -0.01587384 -0.06426405 -0.11455832 0.16186672
0.08845699 -0.008319512 0.0003435937 0.06192343 0.0045334115 -0.06107437 -0.03243646 -0.09101452
-0.04843751 -0.0118127605 -0.10374431 -0.15920511 0.020258797 -0.15711178 -0.015122624 0.12901972
0.061533134 -0.142384 -0.06338026 0.16619106 0.08164153 0.008804994 -0.08854466 0.081097424
0.048158202 0.060099088 -0.016266786 -0.08813625 -0.0986631 0.04370682 -0.05555303 0.13319165
-0.13582024 -0.015780605 -0.028685242 0.1296854 0.05577937 0.052679446 0.09731273 -0.0050112177
0.042277593 -0.045255788 0.07899168 0.13557577 -0.12558687 0.06298501 -0.06703568 0.15730523
-0.15022703 -0.01332884 0.0822524 0.09042853 0.011767677 0.091788195 -0.13941306 -0.068645366
-0.16773675 -0.12581407 0.07303803 -0.11996416 -0.13051188 0.015292232 -0.14647602 0.11609235
-0.09917191 0.037706982 0.14465667 -0.09296671 -0.0056054164 0.017270908 0.14012785 0.13290437
0.0032985506 -0.008267993 0.16617273 0.13369033 -0.17149489 0.09818299 -0.0865054 -0.108550414
0.15932947 0.0026202342 -0.09768156 -0.09866081 0.16008234 -0.13962992 0.07751556 0.08058769
0.026568526 -0.14149062 0.092309214 0.113478854 -0.062834285 0.044238094 0.07864265 0.15433173
-0.106343575 -0.017348137 -0.07397397 0.023851383 0.08039639 -0.13069129 0.10153673 0.01572537
0.1511516 0.16949756 -0.05330964 0.15512359 0.06506302 -0.1337549 0.15561913 0.087346576
-0.033550136 -0.08077794 0.078678906 0.1472188 0.17220625 0.13296278 0.08124658 0.15223621
0.05202518 0.034734905 -0.09228352 -0.13257475 0.03641235 0.024395516 0.02711391 0.064014256
-0.045069095 -0.028453775 0.13132153 -0.05609065 0.064320445 0.12255921 0.14452782 -0.12375331
-0.0638144 -0.14521667 0.15731817 0.068399504 -0.15859585 0.12178819 -0.034723822 0.14002047
-0.0454073 -0.11091275 0.116892196 -0.09261693 0.040218987 -0.094244406 0.04509614 0.087864645
-0.07113384 0.0113869915 -0.1275428 0.1078396 0.14984863 -0.10282678 -0.056428194 -0.03342667

body.0.bias f4 [256]
00000000: d157 f23c 287f 173e 8159 31bc 48d4 f53d
00000010: 8005 30b5 ed61 253e f88b 2abe 22d4 983d
00000020: b48a 09bd 6783 253e c5f6 063e 3686 e7bd
00000030: e77b 50bd d770 bb3d 659b 1b3e e0f1 0d3d
00000040: 739c 853d 6fab 12bd 49ca 0dbe 65f8 e13b
00000050: 1b55 b9bd 9eee 0cbe 9032 523d 784e 3c3d
00000060: 136d 3d3d d295 243e 0c7e dfbc 6772 8ebd
00000070: 5e66 c73c 108d 17be 2db3 cc3c 7e39 20bd
00000080: 023c f1bd d407 b93d d334 0b3e 35e2 f8bd
00000090: b55e c0bd e2e8 bc3d d129 b4bc 0e0b 6bbc
000000a0: 8f6e d6bd eb6b 033e 996c 123d 67dc e4bd
000000b0: 1f1f c7bc 652a 96bd b83b 6c3d 1438 1d3e
000000c0: 55ea 7a3d a3a9 05be 9840 a03d a011 e7bd
000000d0: ef07 1cbe 9045 d93b 1650 3d3d 6548 fbbd
000000e0: e22c d23c f75a 67bd 33c8 163e 0a6b 4ebd
000000f0: e4e8 91bd 4ca2 0abd ca9a 0bbe 3ee0 a7bc
00000100: d4c6 1fbe ee42 1f3e 5a96 203e fc24 28be
00000110: b63d 7e3d d30c 98bc 8f3d 043e 4427 f8bd
00000120: ca4b b3bd 67b1 1f3e 416f e43d d1b9 18be
00000130: 6230 f6bc 957f bf3d 971c 073e 8b45 253e
00000140: 0b24 d2bd d4b1 52bd 2a0d 13be 3aa4 693d
00000150: 6126 fc3d 09ff e33d f2f8 76bd 4666 1c3e
00000160: e680 bc3c 85ee f13d e829 e5bc 5044 bb3d
00000170: 2d8a dc3d 41e6 70bd 2483 ee3d 0feb cd3d
00000180: 41cf bc3d 128c cb3d 6b39 5039 1261 0cbd
00000190: ce0d 81bc ec3c 023d 6d4a 053d dbb4 0ebe
000001a0: 5b67 813d 4356 d8bd d379 073e 54bd e63d
000001b0: d5cc 09bc a3a9 893c 81ee 05bb 11d9 e83b
000001c0: c7b1 9e3d 0500 86bd 3250 21be ea10 3a3d
000001d0: 51b8 2a3e 3213 243e 9ef5 f23d 2006 513d
000001e0: 3ec4 013e e4ed b6bd cb59 95bd 28c5 11be
000001f0: 289a f6bc 01f2 01be 239b dd3c af3a fcbd
00000200: 42b1 5b3c aa6a bb3d b190 413d c80c fe3d
00000210: f60f a3bc ff1d a0bc 951f dcbb a63b bd3c
00000220: 8616 15be 6abe 2d3e f7e7 d23d 3cf4 a1bd
00000230: e754 943d bd98 823d c59a f33d 1ebe babd
00000240: a496 bb3d e7dd 053e 2678 1a3e 84fa a6bc
00000250: b367 093d e81f e53d 8a60 e63d 6ed7 bb3c
00000260: c573 5d3d 8b47 2c3d c2c8 bbbc e62d c0bd
00000270: 7771 04be b51a 9b3c 222a 9abb df60 96bd
00000280: 41bf d33d 4fad f73d 9705 91bc 43e5 43bd
00000290: 614e 0e3e f3d5 73bd f576 0c3e cafc cebd
000002a0: caa7 2b3d 5168 2f3d 2439 d53c 5096 a33a
000002b0: cb64 e8bd 6900 6cbd 6633 d4bd 2572 b83d
000002c0: d2cd 25be add2 c33d 100c e23d 1348 7a3d
000002d0: c33e c0bc 4631 1ebc af51 1c3e e040 7bbc
000002e0: 1187 123e 45a9 df3d c3da 46bd 6d11 7d3d
000002f0: c55f 82bd eedc 0abe fa22 063e a77a e8bd
00000300: 863c 083e 567f 75bd 5908 a73d 368f d63d
00000310: fd46 c4bd 7959 1b3e 3e99 97bd ffaf b73d
00000320: f1e6 6e3d feec dabc 4df0 67bc 6929 eabd
00000330: 9ad9 23bd 365d 143e 0690 ffbd 7ad5 21be
00000340: cbe6 08be 4968 19be 6808 00bb 1b14 053e
00000350: 7869 d6bb b3d2 3a3d b17e bcbd b0a9 d73d
00000360: 2403 e7bc 173b 18be 10c5 123e 50ca 913c
00000370: 393b 883c 8b55 2fbd 4778 a63d 154f 9cbd
00000380: dc04 94bd fac7 b63d f255 1a3e c4b0 053d
00000390: b8e3 59bd b745 c3bd 1240 26bd f882 433d
000003a0: de86 97bd 6607 a73d 05be 98bd 6f60 59bb
000003b0: 74cc 45bd 3a07 fc3d b4a7 1abd 87f5 50bc
000003c0: 1e22 c53d 1e2c bbbb e7d6 03be f6a7 62bd
000003d0: 4a34 b03d 3d95 c43d 93aa 3f3d b0ef 22be
000003e0: e7b1 793d 8cf3 9ebd e853 9f3d 83a4 2b3e
000003f0: 5659 813d 160c 00be 1fac 893d 4547 7fbd
0.02958289 0.147946 -0.010824562 0.1200338 -6.557311e-07 0.16150637 -0.16654956 0.07462336
-0.033579543 0.16163407 0.13180073 -0.113048956 -0.050899412 0.09152382 0.15195997 0.034654498
0.06523981 -0.035808023 -0.13846697 0.006896066 -0.09049436 -0.137629 0.05131775 0.04597327
0.0462466 0.16072777 -0.027281784 -0.06955414 0.024340805 -0.14799905 0.024987781 -0.03911733
-0.11779024 0.09034696 0.1359437 -0.121525206 -0.09393064 0.09224106 -0.021992596 -0.014345897
-0.10470306 0.12834136 0.035748098 -0.11174851 -0.024306832 -0.07332305 0.05767414 0.15353423
0.061258633 -0.13052993 0.0782482 -0.112826586 -0.15237401 0.006630607 0.046218954 -0.122696675
0.025656167 -0.056483235 0.14724807 -0.05039505 -0.071244985 -0.033846185 -0.13633266 -0.02049267
-0.1560319 0.15552875 0.15682355 -0.16420358 0.06207057 -0.018560803 0.12914108 -0.12116864
-0.0875469 0.15595017 0.111540325 -0.14914633 -0.030052368 0.09350506 0.131945 0.1613981
-0.10260781 -0.05143912 -0.1436049 0.057041384 0.12312008 0.111326285 -0.060296007 0.15273389
0.023010682 0.11813072 -0.027974084 0.09143889 0.107685424 -0.058813337 0.11646107 0.100545995
0.09219218 0.09938826 0.00019857816 -0.03427226 -0.015753653 0.03179638 0.03254168 -0.13936178
0.063185416 -0.10563328 0.13230066 0.1126658 -0.008410652 0.016804522 -0.002043635 0.0071059545
0.07748752 -0.065429725 -0.15753248 0.045426287 0.16671874 0.16022947 0.11863254 0.051031232
0.12672517 -0.08932093 -0.07292517 -0.14235365 -0.030102804 -0.12689973 0.027051514 -0.123158805
0.013408961 0.09151204 0.04725713 0.124047816 -0.019905072 -0.019545553 -0.006717632 0.023099732
-0.14559373 0.16967168 0.1029815 -0.07907912 0.07242756 0.06376789 0.11894754 -0.09118293
0.09159592 0.1307293 0.15084895 -0.020383127 0.03354616 0.11187726 0.11248882 0.022929873
0.054065485 0.042060416 -0.022922877 -0.093837544 -0.12933908 0.018933633 -0.0047047297 -0.073426954
0.10339213 0.12093603 -0.01770286 -0.047826063 0.13897087 -0.05953021 0.13717254 -0.101068094
0.041908063 0.042824093 0.026028223 0.001248071 -0.1134735 -0.05761758 -0.10361366 0.09006146
-0.16191795 0.095616676 0.11037457 0.06110389 -0.023467427 -0.009655302 0.15265535 -0.015335292
0.14309336 0.109209575 -0.04854847 0.061784197 -0.06365923 -0.1356084 0.1309928 -0.11351519
0.13304338 -0.05993589 0.08155889 0.10476534 -0.095838524 0.1517085 -0.074022755 0.089691155
0.05832571 -0.026724335 -0.014156413 -0.114336796 -0.040002443 0.14488682 -0.12478642 -0.15804091
-0.1336929 -0.14981188 -0.001953626 0.12995951 -0.0065433346 0.045611095 -0.09203852 0.10530412
-0.02819974 -0.14866291 0.14332986 0.017796665 0.016629802 -0.04280619 0.0812841 -0.07632271
-0.07227489 0.08924861 0.15071848 0.03263928 -0.053195685 -0.095347814 -0.040588446 0.047732323
-0.07398771 0.08155708 -0.07458118 -0.0033169051 -0.048290685 0.12306066 -0.03775759 -0.012753851
0.09625648 -0.0057120463 -0.12874947 -0.05533596 0.08603723 0.095987774 0.04679353 -0.15911746
0.060960677 -0.07761297 0.07779676 0.16761975 0.063158676 -0.1250461 0.067222826 -0.062323827

body.2.weight f4 [256, 256]
00000000: d0ed 29bd f7ba 4bbd 39e0 f73b 051b 73bd
00000010: a2c2 d1bb 4b6b 70bd ad11 993c a2d7 6dbd
00000020: a675 653c 5a53 3b3c 3a7f 2ebd c571 34bc
00000030: 3c50 05bd c382 e2bc 2e81 2a3d f84c 6abb
00000040: 19b6 593d a5a2 0b3d 61c0 7fbc 9955 0abd
00000050: ee56 aa3c 278d c93c 16ee 0abd f5a0 14bc
00000060: ac0e a3bb 131c 88bc 6129 433d 0646 46bd
00000070: c092 3bbd da36 b5bb b53c 01bc 0f0d 6d3d
00000080: 80e6 163d e66a 3fbd f464 02bd 14cb 71bd
00000090: cb6f 6fbd cde4 98bb ad99 4dbc 5270 aebc
000000a0: 81e2 2e3d af72 17bd 1a5a 243d a159 2ebd
000000b0: d5b5 ccbc c81a d2ba 45d0 0dbd 4de3 483b
000000c0: 12e3 7e3d ce41 9abc b4a5 65bd c9d0 583d
000000d0: 1c8a ff3c 3be0 5a3d e0a4 823c cfa9 4cbc
000000e0: e504 753d d7fb 01bd c679 023d 4808 cabc
000000f0: cab4 973c e5c9 403b ecd4 6bbd 2445 69bd
00000100: cc14 b03c cd3d 263c 2270 263d b49c 0ebd
00000110: 6da5 6dbb 0c39 bcbc 75e1 f03c c289 873c
00000120: 836b 0f3b 3f59 0c3d d257 bb3c b39d cd3c
00000130: e37a e6bc d3a1 4d3d 00dc 143d 1649 3cbd
00000140: 8316 373d 09ff 343c b20c 373d a76d 883b
00000150: 5e9e 383d ac8e abbc c78c 18bd 735f 15bd
00000160: b2b7 533c 3276 463d 35aa a03c 53c1 48bb
00000170: 18dd a23c 4189 69bd 1e19 18bd 7dc0 e7bc
00000180: 042a 223d 4326 b8bc 0a6a 58bd 7ecd d7bc
00000190: 6255 04bd b73a 28bc f19d d53c bc45 0ebd
000001a0: 7347 00bc 0079 59bd 5a02 b83b cc95 ea3b
000001b0: ec41 283d 3324 2abd 5397 103d 0dd2 78bd
000001c0: 61ee 6c3d 2d78 60bd 7f3e 813c d45b f13c
000001d0: f03f 9c3b 4752 61bd ccfc 383d 08c1 bb3c
000001e0: b7c2 633b 2ef9 1fbd 470e bfbb 3e4f 323c
000001f0: 54b1 f13c b0fc 67bd 6c3a 45bc 2970 ae3c
00000200: 706c d33b 4b29 58bd 8150 3abd 4666 00bd
00000210: 0baa 4fbc 4a19 77bd 24c8 77bd 42cf 5ebd
00000220: c8d7 50bd 4168 b43b 8786 67bd b6b1 293d
00000230: f649 adbc a43a c4bc e300 213d 2300 c1bb
00000240: 8edf 693b ee94 353d 632c 20bc 3661 183d
00000250: 4450 683d 9aac 5c3d 50a3 56b7 fe61 833c
00000260: d880 d23c ea71 a93c 9691 683c 6849 5f3d
00000270: 4e05 3bbd c75e 12bd ec26 5e3d a5ae cc3b
00000280: 4a19 08bd f224 653d c782 1abd 4db5 08bd
00000290: 80b9 08bd 6217 733d 0ca8 3ebd e346 493b
000002a0: e100 a7bc 5211 303d f52f b23c 5116 7f3d
000002b0: 8b98 0dbd a796 48bd 428a 18bd 537a 713d
000002c0: a39a 463c 8a25 ff3c ba71 b4bc 3d28 563c
000002d0: 24e7 67bc eba5 1d3d 3c02 493d dab8 1c3d
000002e0: 6c02 48bc d2b0 2f3d f097 413d 94c0 203d
000002f0: 4a05 d93c 13b7 1dbd 593b b43b 4eb6 6d3d
00000300: ccb1 1e3c fc72 0bbd 5194 65ba 73c7 f3bc
00000310: 4122 be3c 9e24 a2bc a66a 34bd fedf 13bd
00000320: 6f20 21bd c0fb 15bd b711 2cbd a607 673d
00000330: 1188 d53c f2fa 17bd dc9a 9b3c 9388 7cbd
00000340: 9ecd f2bc 3a7d 9bbb 4db1 3dbd 907c 383d
00000350: f272 b5bc b578 14bd 334b 3a3d c0e0 1dbd
00000360: b905 363d 9473 36bd 2fba 17bd 74ac 1abd
00000370: 3252 3e3d 7f34 03bd f6b9 0a3c abe9 32bd
00000380: 1a59 90bc ae52 2abd 0dec 3fbd a2b0 ffbc
00000390: baf7 f43c 1e39 933b 4c8f f6bc d826 2abb
000003a0: b2cf 02bd 4f64 16bb 8ac4 b6bc 5c71 123d
000003b0: 4b10 35bd 14e3 b3bc 38b3 b73c 26ff adbc
000003c0: 1f7f 753d 899e ebbb f9c5 2e3d aa4f 33bc
000003d0: 34b7 383d fd53 0a3d 30c6 67bb 1ddf 0fbb
000003e0: 64e8 7b3d 90e1 373d 5107 3abd d6c7 893b
000003f0: 7ce2 f1bc 071d 703d ec06 d9bc 3712 57bd
-0.04148656 -0.04973885 0.007564571 -0.05935194 -0.006401376 -0.058696073 0.018685186 -0.05806697
0.0140051 0.011433447 -0.0426018 -0.011013453 -0.03254722 -0.027650243 0.0416271 -0.0035751443
0.053152177 0.034090657 -0.015609832 -0.03377304 0.020793404 0.02460344 -0.033918463 -0.009071578
-0.0049761143 -0.01661495 0.047646884 -0.048406623 -0.04579425 -0.0055302205 -0.007888009 0.05787378
0.036840916 -0.046732806 -0.031834558 -0.05903156 -0.058456223 -0.004665947 -0.012548846 -0.021293793
0.04269648 -0.036974605 0.04012499 -0.042565946 -0.024989048 -0.001602971 -0.03462245 0.003065306
0.06222827 -0.018830206 -0.05606623 0.052933488 0.031193785 0.0534365 0.01594776 -0.012491657
0.05981912 -0.031734314 0.031854413 -0.024662152 0.018518824 0.0029417214 -0.057576105 -0.056950703
0.021494292 0.01014657 0.040634282 -0.034817412 -0.0036261932 -0.02297642 0.029404381 0.01654518
0.002188415 0.0342648 0.022869024 0.02509961 -0.028134769 0.050203156 0.03634262 -0.045968138
0.044699203 0.011047133 0.04468984 0.004163462 0.045072906 -0.020942055 -0.03724363 -0.03646798
0.012922214 0.048452564 0.019612411 -0.0030632808 0.019880816 -0.05701566 -0.03713333 -0.028290028
0.03959085 -0.022479182 -0.0528355 -0.026343103 -0.03230799 -0.010267905 0.026076289 -0.034734473
-0.007829535 -0.05309391 0.0056155147 0.0071589705 0.041078493 -0.04153843 0.035300564 -0.060747195
0.057844523 -0.05480211 0.01577687 0.029462732 0.004768364 -0.055010106 0.04516296 0.022919193
0.003475351 -0.039055996 -0.0058305594 0.010883151 0.029503502 -0.056637466 -0.012037855 0.021293717
0.0064521357 -0.052773755 -0.04548693 -0.031347536 -0.012674819 -0.060326852 -0.060493603 -0.054396875
-0.050987035 0.005505592 -0.05652478 0.041429244 -0.021153431 -0.023953743 0.039307486 -0.005889909
0.0035686227 0.044331484 -0.009776208 0.037202083 0.056717172 0.053875543 -1.2793418e-05 0.016037937
0.025696203 0.020684201 0.014194867 0.054513365 -0.045659356 -0.035734918 0.054236338 0.006246405
-0.033227243 0.055943437 -0.037722375 -0.033376027 -0.03338003 0.05934847 -0.04654698 0.0030712418
-0.020386161 0.042985268 0.021751383 0.062277142 -0.034569304 -0.0489718 -0.037241228 0.058954548
0.012121829 0.03114583 -0.022026885 0.013071117 -0.014154229 0.03848831 0.049074396 0.038262226
-0.012207609 0.04289324 0.04726404 0.039246157 0.02649178 -0.03850467 0.005500239 0.058035187
0.009685945 -0.034045205 -0.00087577576 -0.02975819 0.023209693 -0.019792851 -0.04404702 -0.036102287
-0.03933757 -0.03661704 -0.04200908 0.05640378 0.026065858 -0.037104554 0.018994741 -0.061653685
-0.029639062 -0.004745153 -0.046311665 0.045040667 -0.022149537 -0.036247928 0.04548187 -0.038544416
0.04443905 -0.044543818 -0.037042793 -0.03776212 0.046465106 -0.032032486 0.008467188 -0.043679874
-0.017620612 -0.041582756 -0.046855975 -0.031212155 0.029903281 0.004492893 -0.030097626 -0.0025963094
-0.031936355 -0.0022947972 -0.022310514 0.03575264 -0.04420499 -0.021958865 0.022424325 -0.021239828
0.059935685 -0.0071905297 0.04266927 -0.010944286 0.04509659 0.033771504 -0.0035365932 -0.0021953054
0.06150092 0.044892848 -0.045417134 0.0042047305 -0.029526941 0.058621433 -0.026492558 -0.052507605

body.2.bias f4 [256]
00000000: 9dc7 503d a4e7 9e3b 6d22 a43c 0bb6 20bd
00000010: e029 5f3d eba1 723d af4c 71bd e214 4cbd
00000020: e8ca bdbc 0dbc 0a3d 4b6e 773c a482 5bbb
00000030: 9790 1ebd 7aa2 103c 0ac2 32bc e5cb 093d
00000040: 70b8 00bc 64ec 433d ac23 4fba 69fe bf3c
00000050: a7b2 32bd c494 6c3d cbe4 85bb ce7b abbc
00000060: 93a5 02bc 5daf 1cbd dca1 843c 4cc2 30bd
00000070: 1e48 14bc 7b7d 22bc c17d cbbc 438b 00bd
00000080: 999e 073d e881 57bd d90d 393d 7fe6 75bd
00000090: 2159 293d 65de 5d3d c145 3abc b504 7c3d
000000a0: f22a 09bd 6c2f 3ebd 68b5 bebc 2cf2 943b
000000b0: e975 5c3d 9770 2b3d 4ab3 8cbc 2d78 ce3a
000000c0: 5a58 babc 462a e8bc f252 4a3d 19ff b4bb
000000d0: c1ae 7b3c 81ea 583d 1484 7fbc 9f79 d23c
000000e0: 9c94 6e3d 06fa 973c 262d 313d 2feb 3dbd
000000f0: 877e c03c 04b1 25bd f56e ba3c c25e e9bc
00000100: 9321 02bc 0b78 9ebc 1196 0dbc 8091 80bd
00000110: 0959 b5bb 2d8f f1bc 9e17 713d 5e25 2abd
00000120: 71a0 393d c989 89bc b4e2 88bb 7878 283d
00000130: 7e3f 68bd 40c6 343c f031 d03c 8893 313d
00000140: a226 503d 1f84 57bc c4e0 6b3d 5ccb b0bc
00000150: 1496 563d c5b0 70bd b54f d9bc 7066 ccb8
00000160: 1b69 bb3c b5a7 5e3c 023b 6bbd 43fa 7abc
00000170: f687 523d 0738 acbb 912a cdbb 4937 0ebd
00000180: 3f13 683d 11db 6abd efca 10bd d014 7e3d
00000190: 7f7b eabb c90a 593d 6f8d c8bc 5a5d 493d
000001a0: b9f8 343d c8e3 d93b c492 473d de42 fc39
000001b0: 8eb7 b43c d616 d2bb 3cbe 303d 9d22 7b3d
000001c0: 837d 66bc ad28 7dbd 6043 263c 0959 f03c
000001d0: 63c9 b2bc 9da0 3a3c 99e9 77bd 217f 263d
000001e0: 4cde f03a 3af2 043d afe7 91bb 5626 b5bc
000001f0: 7a8b 3ebd e53c 9ebc 6b00 0b3d 3dd3 803c
00000200: c946 c7bb f0f5 47bd 3169 c03b 9ed7 18bd
00000210: b745 eebc aff9 153d 25da 093b cd4c 52bb
00000220: 21d7 8c3c 3530 2b3d 63da ea3c 279d aebb
00000230: 1927 24bd b9c5 693c 24a9 4ebd f506 50bd
00000240: 35c8 40bb 102e 3f3d 1a89 c53c 1744 e0bc
00000250: 03ec 2c3d 67d5 ca3c 3d4a 8e3c e6ec d6bc
00000260: b841 383c a274 34bd 4d2a 56bd e023 31bd
00000270: 2e6a 02bb 3396 3fbd 9260 debb eeef 633b
00000280: 78ee 6cbd 7cd8 bcbc 2f58 06bd de0b 813b
00000290: 5301 d7bc d2bc 2bbc f9bb 5abd affb 0bbd
000002a0: 4436 04bd e590 2f3c 87d4 323c 2d1a f7bb
000002b0: 97e8 02bb 410c 823d b132 ddbc e7d9 c6bb
000002c0: 28d7 edbb ac74 e73c e283 fabb 2297 173d
000002d0: ae65 11bd bd5a 073c 0238 403d 4e6f 33bd
000002e0: 19fe a43c 4207 95bc a506 56bd 2901 ab3c
000002f0: 3e1e 5dbd d13c eabb fb86 293d a3ff 223d
00000300: 9f1a 62bc f4e8 c23c 8585 c13c a728 573d
00000310: 161b f1bc f982 ad3c aa09 7abc 5738 96bc
00000320: 46d6 703d 104e 5f3d 33fa 6c3d 9cd3 0c3d
00000330: f3ba 273d 223e 12bd 5dba 843c 7add a13b
00000340: 2a8f cd3b 2652 79bd 3c82 27bd bb0d 4a3d
00000350: 0191 57bd 37eb 193c 0e07 89bb 91d8 0fbd
00000360: 3549 3cbd a3f7 e2bb 6172 98bc 5864 313d
00000370: fe3e 453d bc0b 1bbd 85de 4b3c 171a 15bc
00000380: 6d66 e83a a19b 6abd cc69 1dbd cb99 21bd
00000390: 581e 953c 6859 34bc 6f85 633d 288e d83c
000003a0: abed 013d 31c7 093d c2ba 8c3c 0e1d babc
000003b0: d52c 463d c26f 353d 72ba 3f3d 05ac 2bbd
000003c0: 87df c9ba a3a0 773d dca2 103d 5383 b0bc
000003d0: f790 74bd 5c04 803d fc8b 563d d263 363c
000003e0: d28d 2b3b 4a14 a7bc 20a1 d93b 1588 20bb
000003f0: 2e8d 49bd 245e 9bbc 4ebb 0fbd 08c4 1b3d
0.050971616 0.004849391 0.020035947 -0.03923611 0.054483294 0.05923645 -0.05891102 -0.049824603
-0.023168042 0.033870745 0.0151019795 -0.0033494616 -0.03871211 0.0088278 -0.01091052 0.033641715
-0.007856473 0.04783286 -0.0007901739 0.023436742 -0.043627407 0.05775906 -0.004086112 -0.020933058
-0.007974046 -0.038253177 0.016190462 -0.043154046 -0.009050397 -0.009917612 -0.024840238 -0.03138281
0.033110235 -0.052614123 0.04517922 -0.06003427 0.041344766 0.05416717 -0.01136917 0.061527926
-0.03348822 -0.046431944 -0.02327986 0.0045454707 0.053823385 0.04185542 -0.017175335 0.0015752368
-0.022747207 -0.02834047 0.04939551 -0.005523574 0.015361489 0.052958015 -0.015595455 0.02569276
0.058247194 0.018551838 0.043255948 -0.046366867 0.023497833 -0.04045202 0.022757987 -0.028487567
-0.007942575 -0.01934435 -0.008641736 -0.06277752 -0.0055342955 -0.029487217 0.058860414 -0.041539542
0.045319024 -0.016789334 -0.0041774157 0.041130513 -0.056701176 0.011033595 0.025414437 0.043353587
0.050818093 -0.013154059 0.0575874 -0.021581344 0.05238922 -0.05876233 -0.026527265 -9.7465585e-05
0.022877267 0.013589789 -0.05742932 -0.015318456 0.051399194 -0.0052557024 -0.006261178 -0.034720693
0.05665898 -0.057337824 -0.035349783 0.062031567 -0.007155835 0.0529888 -0.024481503 0.049161293
0.044182513 0.006649468 0.04872395 0.00048115005 0.022060182 -0.0064114137 0.04315017 0.061312307
-0.01406801 -0.06180637 0.010147899 0.02933933 -0.021824544 0.011390832 -0.06052551 0.040648583
0.0018376797 0.032457568 -0.0044526677 -0.022113007 -0.046519734 -0.019316146 0.033935945 0.015725726
-0.0060814363 -0.04881853 0.005871915 -0.037315004 -0.029085977 0.03661507 0.0021034565 -0.0032089234
0.017192425 0.04179402 0.028668588 -0.0053287926 -0.04007635 0.014268332 -0.050454274 -0.050787885
-0.0029416208 0.046674788 0.024113227 -0.027376218 0.042217266 0.024759961 0.017369384 -0.026236009
0.011246137 -0.044056542 -0.052286435 -0.043247104 -0.0019899714 -0.0467741 -0.0067864144 0.003478046
-0.05784461 -0.023052447 -0.032798942 0.0039381823 -0.026245749 -0.01048203 -0.05340192 -0.03417557
-0.032278314 0.010715698 0.010914928 -0.007540962 -0.001997506 0.063499935 -0.02700171 -0.0060684565
-0.0072583146 0.028253876 -0.007645116 0.037009366 -0.03549736 0.00826138 0.046928413 -0.04380732
0.020140694 -0.018191937 -0.05225243 0.020874577 -0.05398392 -0.007148363 0.041388493 0.039794575
-0.013800292 0.023792721 0.023623237 0.052529003 -0.02943186 0.021180617 -0.015261093 -0.018337412
0.058798097 0.054517806 0.057855796 0.034381494 0.040949773 -0.035703786 0.016202146 0.004939732
0.00627317 -0.06086936 -0.040895686 0.0493295 -0.05262852 0.0093944585 -0.004181749 -0.035118643
-0.045968253 -0.0069264933 -0.018609228 0.043308586 0.048155777 -0.037852988 0.0124431895 -0.009100459
0.001773072 -0.057277326 -0.038430974 -0.03945331 0.018202946 -0.011007644 0.055547174 0.026434973
0.0317208 0.03363723 0.017178897 -0.022718932 0.0483826 0.044296034 0.046808667 -0.041912097
-0.0015401699 0.06045593 0.035311565 -0.021546995 -0.05970856 0.062508315 0.052379593 0.011132197
0.002617706 -0.020395417 0.006641522 -0.0024495174 -0.049206905 -0.018965788 -0.035090737 0.038028747

body.4.weight f4 [128, 256]
00000000: 1b6d 08bd d5ec 323d 3fb7 68bc 5215 2d3d
00000010: e920 213d f744 4ebc 15df 1ebd 6d0e 153d
00000020: 77f5 15bd 7f66 6b3d f94a 67bb f958 2cbd
00000030: 3028 2dbd 28d9 7b3d ec9e 0cbd 2970 58bd
00000040: ce46 7bbc f736 6fbc e34f 613d 0bf7 37bc
00000050: 7c16 a83c 410d 903b 61d9 afbc 824c 553d
00000060: a44b d03c 378c 603d 400f 12bd 431c 9e3c
00000070: 3fde bdbb e07d 013d 6c19 5dbd 1e26 113d
00000080: cdc3 2ebd 849a ab3c 748f 4b3d 23ec 4bbb
00000090: c32a 323d d9ac 523d 4c65 9cbc 3f67 3cbb
000000a0: 747a ea3c 70d2 8a3b 4409 03bd 178d 093d
000000b0: 4723 53bd e0a7 68bd 6c09 183d 17c9 14bd
000000c0: de46 07bd 5d1c 5dbd dba5 3d3d 6ec8 30bd
000000d0: e7fe d6bc b341 42bd 1e8a 3a3d c294 1b3c
000000e0: b5d0 68bc 7649 7f3d 084a 583c b3b8 49bb
000000f0: ab12 bcbc 6744 c3ba 7695 753b 5799 6a3a
00000100: 8583 80bd 3579 a93c 4418 40bd 635a 8f3b
00000110: fe82 d6bc 8170 bb3c 35db 11bc df53 0ebd
00000120: 8253 fe3c ed96 d9bc 1cea 883c 6826 103c
00000130: 1c2e 97bb 9815 28bd 5ec3 ab3c cef8 22bd
00000140: 6833 cfbc fc18 cc3c 5b5a fdbc 4121 2b3d
00000150: 115f 8bbc 7d92 f03c cc05 08bd da5b 05bd
00000160: d0c2 7cbd 4a44 10bd 5022 023d 4373 fd3c
00000170: f110 523d 052c 7b3d 36e4 d03c cca1 1a3d
00000180: fff9 1a3d 841d 773d 4b8f 3b3c 67d8 38bc
00000190: 6910 743d 7026 dfbc f716 eb3c 94f7 f43c
000001a0: c2b9 353d 2812 183d fdd4 49bd a9ef 743c
000001b0: eb77 c8bb 3cbc be3c 85c8 fcbc e52c 743d
000001c0: 0c5a b73b 8ad4 4abd 6b10 63bd 50b1 59bd
000001d0: 57e4 ca3b 881c 88bc c87f 423b 528c 843c
000001e0: 3c42 073d 8516 eb3c 5cb9 803c c50e 43bd
000001f0: 1364 b83c 3f8c e3bc d953 53bc 0cdb 483d
00000200: 1996 183d 4ce1 cc3c 750c 293d 5b85 643d
00000210: 9f17 3d3d f4f9 623d 0390 0ebc dd3f 81bb
00000220: 64b2 65bd b39b 543d 3281 683d 9d0f 693c
00000230: d973 99bc f7b1 743d b28e 0bbd a669 4fbd
00000240: c270 413d ff78 33bc 6eb0 5dbd 2516 b0bb
00000250: 6a12 6f3d 2e79 093c c190 15bd 61e6 323d
00000260: 51f1 4bbd b58f 5f3d 9f4f 7c3d ae70 553c
00000270: beec 373d 9ce0 0bbd cb94 303d 683c e5bc
00000280: 16eb 16bc 6bd0 363d e4b0 4cbd 2b59 b33c
00000290: aad6 ad3c 97ec 013d 0e02 e73c d41f c3bc
000002a0: b0fe 333d 9aaf 513d 7e4e 0cbd fe3f 52bd
000002b0: c470 163d 347a 1d3d d986 e0bc 7257 bbbc
000002c0: 2b26 a13c 8de3 42bd ddf7 9c3a 7cac ac3c
000002d0: a19c 9c3c 1eb1 0b3c 4ff9 333c c314 89bb
000002e0: a18e 23bd dc66 2a3c c6a7 4b3d 4693 15bd
000002f0: e128 7e3d 6539 3cbd bc45 863a 45cf c23c
00000300: 1b0a 76bd 0674 1a3d 2a54 1fbb de4a ef3c
00000310: b3fd 67bd 28d5 ebbc fbc0 dc3c bd19 5bbc
00000320: 13a2 343d 33ff 18bd c71e 163d dc7b f6bc
00000330: 5d48 0c3d 9eb6 86bc b337 36bd b95c 713c
00000340: 2a38 21bd b87d 41bd 46a3 623d 66f3 433c
00000350: 7c8e 79bd c547 adbb 9e7c 083b 0df2 113b
00000360: c31d 72bd 0537 e5bc a428 4ebd d9ec f4bc
00000370: 234d 003d 14d1 153c 146f 263d f0e9 6c3d
00000380: b0ad aebc 441d 383d 3820 43bc de8e e73c
00000390: 6e0c 9bbc 1cff cebc 0549 21bd 515d ff3c
000003a0: eadb 88bc ae83 82bc 14f2 e4bc c60a 3f3d
000003b0: 27ec 683c 8dbd 263d 9023 39bc 076d 2b3c
000003c0: 4919 19bc 74c6 cabc 2505 aebc 26f1 52bd
000003d0: 99ee 763d 772e aabc 8d23 533d 34c8 80bb
000003e0: f149 23bc ca58 093d 74c9 05bd 3851 823c
000003f0: 361b 5a3d 394c 81bd 2c6a 37bd 7652 7c3d
-0.033307176 0.043682892 -0.0142038455 0.04225666 0.039338026 -0.012589685 -0.038786966 0.03639071
-0.036611047 0.057470795 -0.003529249 -0.04207704 -0.042274654 0.061486393 -0.034331247 -0.05284134
-0.015336705 -0.014600507 0.055007827 -0.011228333 0.020518534 0.0043961112 -0.021465959 0.052074917
0.025426693 0.05482122 -0.035659075 0.019300586 -0.005794316 0.031614184 -0.053979322 0.035436742
-0.0426672 0.020947702 0.049697354 -0.003111609 0.043497812 0.05143437 -0.01909127 -0.0028748063
0.028622843 0.004236512 -0.03199126 0.03358182 -0.051547315 -0.056800723 0.03711836 -0.036324587
-0.03302657 -0.053982127 0.04630075 -0.043159895 -0.026244594 -0.047425937 0.045541875 0.009495916
-0.014209916 0.062325917 0.013201244 -0.0030780255 -0.02295812 -0.0014897705 0.003747312 0.0008949241
-0.06275085 0.020687679 -0.04689814 0.0043747886 -0.026185509 0.022880794 -0.008902361 -0.034747954
0.031045679 -0.026561225 0.016713195 0.008798219 -0.004613651 -0.04103622 0.020967182 -0.03978806
-0.025293067 0.024914257 -0.030926874 0.04177976 -0.017013105 0.029366726 -0.033208653 -0.0325583
-0.061709225 -0.035221376 0.031771004 0.03093875 0.051285688 0.061321277 0.025499444 0.037751958
0.03783607 0.060330883 0.011447738 -0.011282063 0.059585962 -0.027240008 0.028697474 0.02990321
0.044366606 0.03712669 -0.049275387 0.014949718 -0.006117811 0.023283117 -0.030857334 0.059613127
0.005595451 -0.0495191 -0.05543558 -0.053147614 0.006191771 -0.016615167 0.0029678214 0.016180191
0.03302215 0.028697262 0.015713386 -0.047621507 0.022508657 -0.027776835 -0.012898409 0.049037024
0.03725252 0.025009774 0.041271646 0.05579124 0.046165105 0.055414155 -0.008701327 -0.0039443807
-0.05607833 0.0519063 0.056763835 0.014224914 -0.018731998 0.059740033 -0.03407163 -0.050637864
0.047226675 -0.010954141 -0.054123335 -0.0053737336 0.05836717 0.008390708 -0.036515 0.043676738
-0.049790684 0.05458041 0.06159937 0.013027353 0.04490351 -0.03414975 0.04311065 -0.027982906
-0.009211322 0.044632357 -0.049973384 0.021893105 0.021220524 0.03171977 0.028199222 -0.023818888
0.04394406 0.051192857 -0.034254543 -0.05133056 0.036728635 0.03844662 -0.02740805 -0.022868846
0.01967152 -0.04758029 0.0011975724 0.02107834 0.019117655 0.008526115 0.010984733 -0.004183383
-0.039930943 0.0104005 0.049720548 -0.036517404 0.062050704 -0.045953173 0.0010244171 0.023780474
-0.06006823 0.037708305 -0.002431164 0.029210504 -0.05663843 -0.028788164 0.026947489 -0.013372836
0.04409988 -0.037352752 0.036650445 -0.030088358 0.0342487 -0.0164445 -0.044486713 0.014731579
-0.039360203 -0.047239035 0.05533149 0.011959886 -0.0609269 -0.0052880966 0.002082623 0.0022269518
-0.059110414 -0.027980337 -0.050331727 -0.029898094 0.031323563 0.009144086 0.040633276 0.057840288
-0.021323055 0.044949785 -0.011909537 0.028266367 -0.018926825 -0.02526813 -0.039376277 0.031172426
-0.016706426 -0.01593193 -0.027947463 0.046641134 0.014216459 0.040708113 -0.011299983 0.010463006
-0.009344407 -0.024752833 -0.021242687 -0.05149951 0.06028614 -0.02077411 0.051547576 -0.003930116
-0.0099663595 0.03353194 -0.032662824 0.015907869 0.053248607 -0.063133664 -0.044778988 0.06160208

body.4.bias f4 [128]
00000000: 4c8a 3bbd 2505 143d 740d 803a 3680 1e3d
00000010: 12e5 e2bc 06be fd3c ab80 16bd 926e c4bc
00000020: fda5 343d 69c9 04bd 1909 bf3c 9c88 bdbc
00000030: 44f9 a6bb 6422 363d 9e94 2a3d 7627 95bc
00000040: 345f ad3b 79c5 4a3c d2ba 4b3d 1730 5abd
00000050: 0c71 f5bb 110f 8fbc db2e 8e3c 2d1d 7e3d
00000060: 88f8 853c a539 c8bb 4099 5bbc 4b15 3ebd
00000070: 7225 793d 1068 56bc 0033 5f3d b6f3 4b3c
00000080: 1cab 573d 6dfc 3b3d 03c5 5dbd 4576 663d
00000090: 3151 dd3c d220 533c 1d61 a23b 9804 5e3d
000000a0: 6429 493d 60e4 0b3c 67be 863c 99ee 42bc
000000b0: 7003 edbc 6c86 0b3d 0ab4 cfbb 5e44 8d3c
000000c0: b1d2 c7bb f054 c8bc bc98 40bc 0730 733d
000000d0: cd80 433d bdc4 1cbd 0c49 7bbb 0698 74bd
000000e0: 7d12 3e3c 7155 543d efda 10bd 799e 0dbd
000000f0: 03f9 b23b 6150 70bd f629 143d 8137 67bd
00000100: e385 043d 5335 0ebd f2fd e1bc 9fdd 4d3d
00000110: 4691 1fbd 4714 6ebd 66ee 343d 5f7e 5f3c
00000120: 4414 da3c 540b 37bd 4bc3 173d fa2b 16bd
00000130: cce3 30bd e15d 1dbd 116c 783d ed1d 81bc
00000140: 75f9 553d 4d72 32bd 950b 123c ec71 de3c
00000150: 92af 073d 24a1 063d 7616 123d 97ce 24bd
00000160: 81db df3c bc38 203d a128 153b 39b7 a03c
00000170: bc11 0dbd 8cf2 443d 8956 853c a268 563d
00000180: aa03 323d aef0 b53b 47c6 663d 3ce2 7a3d
00000190: 3415 29bd e09d 283d 18d4 3a3d dca5 403d
000001a0: 97e0 d6bc 5c48 2bbc 610c 613d 07af 53bd
000001b0: e9ec 413d cf86 04bd afa5 6a3d 4b4f 163d
000001c0: ce3f 203c 4a6e 86bb f1c5 4c3d 5402 debc
000001d0: 006c 6cbc 2b68 3ebd fc34 63bb 057e a63c
000001e0: 14b4 da3c 20b6 f9bc 7565 113d 9eae 79bd
000001f0: 4721 613c fe07 be3c 0422 6f3d b99a a13c
-0.045786187 0.03613772 0.0009769634 0.03869649 -0.02769712 0.0309744 -0.0367438 -0.023978505
0.04410361 -0.032418642 0.023319768 -0.02313643 -0.0050956327 0.04446639 0.04164564 -0.018207293
0.00529089 0.012376183 0.049738713 -0.05326852 -0.007490283 -0.017463239 0.017356327 0.062039543
0.01635386 -0.0061103874 -0.013403237 -0.046407025 0.060826726 -0.013086334 0.054491997 0.012448242
0.052653417 0.04589503 -0.054142963 0.056265134 0.027016254 0.012886243 0.0049554245 0.0542036
0.04911174 0.008538336 0.016448213 -0.011897706 -0.028932303 0.03406374 -0.006338601 0.017244514
-0.0060981144 -0.024454564 -0.011755165 0.059371974 0.047730256 -0.03827356 -0.00383431 -0.059715293
0.011601088 0.051839296 -0.03536504 -0.03457496 0.0054618134 -0.058670405 0.03617283 -0.056449417
0.032354247 -0.034718823 -0.02758691 0.050260182 -0.038956903 -0.058124807 0.044172667 0.013640969
0.026620992 -0.044688538 0.03705148 -0.036663033 -0.043185994 -0.038419608 0.060649935 -0.01576134
0.052239854 -0.043566037 0.008913894 0.027153932 0.03312642 0.03286852 0.03566595 -0.040236082
0.027326347 0.039116606 0.0022759812 0.019618617 -0.03444074 0.048082873 0.016276615 0.05234588
0.043460526 0.005552373 0.056341436 0.06125091 -0.041279987 0.041166186 0.045612425 0.047033176
-0.02623014 -0.010454264 0.054943446 -0.05168059 0.047345076 -0.032355126 0.057286914 0.036696713
0.009780837 -0.004102503 0.04999346 -0.02710072 -0.014430046 -0.04648606 -0.0034669032 0.020323763
0.026697196 -0.030482352 0.035497148 -0.060957544 0.013740844 0.02319717 0.05838205 0.019727098

move_head.weight f4 [5, 128]
00000000: 4269 bb3c f6e9 98bb 8b1b 17bc cf31 b1bd
00000010: 7f62 23bc 27ee 59bd 43ee 76bc d212 293d
00000020: 2fb9 06bd 98ae 1fbd 1ea4 80bc df99 99bc
00000030: 971a 5bbd 38ec 00bd ffd2 e53c 7fcc 7c3d
00000040: 723a 073d 263e acbd 0f24 1fbc 4523 03bd
00000050: 2358 a63d 2571 f2bc d60e 85bd 53c1 d93b
00000060: da33 91bd c881 29bd 33f4 983b 53e1 f03c
00000070: 70c2 6fbd 8738 9fbc 3e4a 12bd a877 083d
00000080: e2db 1ebc 6dda aabd 10c6 52bd bb07 63bc
00000090: 576d 943d fc36 8c3b 43a4 ab3c 7e85 90bc
000000a0: df00 49bd e0fa 3abb 54b9 623d 4f7f 953b
000000b0: 8771 3fbd 7924 b3bd f7c1 95bb 718d a7bd
000000c0: 7a7d 02bd f5b4 413c aa00 25bd b85f a8bd
000000d0: 6570 e7bc 1a53 cb3c 4cee 493d c6eb 60bd
000000e0: 37b7 2c3d a869 38b9 8cb7 653d d3dd 88bd
000000f0: 474e 59bc 95d5 46bc bb76 90bd 4e6a a9bd
00000100: f254 7bbc 398c 48bc 6ca2 8cbd 52f2 a33d
00000110: f30d 233d 2012 a9bd 4dbf f9bc 9fb3 3cbd
00000120: d580 4c3c 9829 1bbd 85b7 99bd 4a10 cebc
00000130: eaaf 94bd 72d8 a7bd 23f5 433d ab58 1f3d
00000140: 9ad4 163d 37bb 243b b7b4 a13d 3850 68bd
00000150: 6b13 d23c 38f5 973d effc 563c ef16 213d
00000160: 5f6e 92bd caff 16bc ff84 d4bc 11b8 53bd
00000170: 5a74 193d 84fc 1fbd 07a7 1c3d 8570 43bd
00000180: 6be3 093d f073 333c de79 2abd aa5e ef3c
00000190: 4115 b03d f532 96bd 860a 04bc c429 9e3c
000001a0: b14a 183d 9ce6 9dbd 31db f7b9 523a a2bd
000001b0: 24cd 6dbc 3b81 283d 6088 8b3d c95a 9cbc
000001c0: cea9 21bd f6ed 5b3d b989 a63d 8614 903c
000001d0: 3b44 803d daa7 4a3d b50e 073d 2975 11bc
000001e0: a8fa 923c f4f0 43bd 4772 85bd 7430 d7ba
000001f0: 46df fa3c 0415 5fbd a915 593d ac19 ce3c
00000200: 4c73 97bd 8060 babc f832 9e3d 8b69 12bc
00000210: 8eb1 283d 4f6a 58bd a6c1 643d 6f74 4c3d
00000220: fd10 9f3d d4a2 84bc 2698 483d 57c0 433d
00000230: 23c4 c3bc d44e 74bd 60b2 943d 6678 b0bd
00000240: 6a1d 77bd 5edc aebd 8e6d 1cbc d4d8 96bd
00000250: 88d4 c0bb 4c07 3b39 1b74 a03d d17c 2ebd
00000260: b7ad 863d 5ae0 a4bd c5b5 bc3c 9cea abbd
00000270: 8fff 863d adfc 903d 2d77 603d 8251 f03c
00000280: 9621 6d3d 12a7 bcbc a243 a43d b7de 4fbd
00000290: decb a4bd b41e 64bd 42f7 c13c 2994 233d
000002a0: a81c fcbc 7acf b3bd fcd8 f8bb 54e1 4b3d
000002b0: 05f8 95bd a725 1a3d f1d3 083d 32b2 fdbc
000002c0: 6d10 8bbd 6e96 99bc 7ed3 823d 3dac 83bc
000002d0: 3b8b a43d 51a7 603d f497 523d 2d12 ef3b
000002e0: a67c 6ebd 23a0 223d b893 523d c82f e0ba
000002f0: 4de9 92bd 5146 e53c 71f4 47bd 5697 5f3d
00000300: 6ea5 90bd 141c 5cbd a68f 103d f137 a13b
00000310: 2136 3d3d 20a0 143d 7c57 a73d adb8 c13c
00000320: 0c5f 953c 70c8 8fbd 1a33 0ebc 9187 8cbd
00000330: f189 a7bc 55f2 a2bd 5223 9fbd 9c0a 863b
00000340: e977 a03c 1853 943d a401 783d d301 9c3c
00000350: 2c47 1e3d 6de7 863d 2eb7 9dbd e073 1ebd
00000360: a901 813d 2782 8bbd 65ea 80bd 9eda a3bd
00000370: f338 633d e92d 363d 474f 283c b638 783b
00000380: 5b0f 353b e454 65bc da8c 783d bfac 1b3c
00000390: 9b88 89bd 1ef5 a73c 630a c1bc bacc 8f3d
000003a0: f05a 4ebc 75cb 49bc 40d2 9a3d 4dc5 13bd
000003b0: de62 843a 6cdb 9e3b 1293 643d 3027 883c
000003c0: f494 33bd 40e1 953c 1230 453d 124b ad3d
000003d0: d59a b23d b01b 9abd 29ac cd3c 422f 1ebd
000003e0: 2381 b13d beb6 8dbd d575 c5bc 76f2 ab3d
000003f0: 8e6f a03d 515d 4a3b ed11 86bd 0cd5 173c
0.02287734 -0.004666562 -0.009222875 -0.08652078 -0.009972214 -0.053205635 -0.015071454 0.041277714
-0.03289145 -0.038984865 -0.015703257 -0.01875013 -0.053492155 -0.031475276 0.028054712 0.06171846
0.033014722 -0.084102914 -0.009713187 -0.032016058 0.081222795 -0.029594967 -0.0649697 0.0066453605
-0.07089968 -0.041383535 0.0046677827 0.029404318 -0.05853504 -0.019436134 -0.035715334 0.033317238
-0.009695979 -0.08342443 -0.05145842 -0.013856824 0.072474174 0.0042790156 0.02095235 -0.017641779
-0.049073096 -0.002853088 0.055352524 0.0045622955 -0.046739127 -0.08747191 -0.0045702416 -0.08181275
-0.031857945 0.011822929 -0.040283836 -0.08221382 -0.028251836 0.0248199 0.049299523 -0.05491235
0.042166915 -0.00017586967 0.056083247 -0.066829346 -0.013263292 -0.012135883 -0.07053896 -0.08272229
-0.015340077 -0.012240463 -0.06866917 0.08005203 0.039808225 -0.0825541 -0.030486727 -0.046069738
0.012481888 -0.037881464 -0.07505707 -0.025154252 -0.072601154 -0.081955805 0.047841202 0.03890292
0.036823846 0.0025136003 0.07895797 -0.056717128 0.025644025 0.07419819 0.0131218275 0.03932851
-0.07149958 -0.009216258 -0.025942324 -0.05168921 0.037464477 -0.039059177 0.038245227 -0.04771473
0.03366415 0.010952935 -0.041620128 0.029219944 0.08597804 -0.07333938 -0.00805915 0.019307025
0.037180606 -0.07710001 -0.00047274822 -0.0792128 -0.014514241 0.04113887 0.06813121 -0.019086258
-0.03946858 0.053693734 0.08131737 0.017587911 0.06263014 0.049476482 0.03297301 -0.008878031
0.017941788 -0.047837213 -0.06515937 -0.0016417638 0.030624043 -0.0544634 0.052999172 0.025158726
-0.07395038 -0.022751093 0.07724565 -0.008936296 0.041184954 -0.05283576 0.05584874 0.049915727
0.07766912 -0.016190924 0.048973225 0.04779085 -0.023897236 -0.05964549 0.07260585 -0.08616714
-0.060330786 -0.085381255 -0.009547604 -0.073655754 -0.0058847107 0.00017836428 0.07834645 -0.042599503
0.06576102 -0.08050604 0.023035893 -0.083943576 0.06591713 0.07079444 0.054801155 0.029335741
0.05789336 -0.023028884 0.080207124 -0.050749507 -0.08046697 -0.055693343 0.023677472 0.03993622
-0.030775383 -0.087798074 -0.007594226 0.049775437 -0.073226966 0.037633564 0.033405248 -0.03096876
-0.06790242 -0.018748488 0.06387995 -0.01607334 0.080343686 0.054847065 0.051414445 0.007295868
-0.058224343 0.0397035 0.051410407 -0.0017104084 -0.07173405 0.027987631 -0.048817102 0.054587685
-0.07062803 -0.053737715 0.035293244 0.004919999 0.0461942 0.03628552 0.08170983 0.02364763
0.018233798 -0.07020652 -0.008679176 -0.06861795 -0.020451518 -0.079563774 -0.07770409 0.00409062
0.019588428 0.072424114 0.06054844 0.019043839 0.038642094 0.0658711 -0.077009544 -0.038684726
0.06299145 -0.06811934 -0.06294707 -0.08000682 0.055474233 0.044477377 0.010272807 0.00378756
0.002762756 -0.01399729 0.0606812 0.009501635 -0.067155086 0.020502623 -0.023564523 0.0702147
-0.012594923 -0.012316574 0.07559633 -0.036076833 0.0010100265 0.0048479345 0.05580432 0.016620249
-0.043843225 0.018295884 0.048141547 0.08461584 0.08720938 -0.07524812 0.025106506 -0.038619287
0.08667209 -0.06919621 -0.024104038 0.08395855 0.07833777 0.0030878375 -0.06546388 0.009267103

move_head.bias f4 [5]
00000000: ab20 c53b 1e49 e23b 30d0 a13d 6a6b b5bd
00000010: e611 023d
0.006015857 0.006905689 0.07901037 -0.08858378 0.03175535

comm_head.weight f4 [4, 128]
00000000: 565f 9dbd 4447 b0bd d411 cebc 2e16 76bd
00000010: 7b5a 85bd b59e 653d 275a 0dbd a369 2e3d
00000020: d1b0 68bd d23b 66bd b239 543d 3eed 413d
00000030: c2d5 27bc d62a 2c3d e218 833d 8b91 1dbc
00000040: a2f8 03bc df93 8dbc fc5f e93c 8bb7 52bd
00000050: bc31 a93d a845 a13d 72a6 9d3d 81de a43d
00000060: 65a8 ddbc acbc 19bd 7352 a4bd 80ed 253d
00000070: a84d 52bd 65e9 093d f897 d0bc fe1d 80bd
00000080: e607 89bd ba89 22bd 155a 923d d5d4 1dbd
00000090: 5a31 0cbd 518b 0b3b 9010 2e3d a60d 2bbd
000000a0: 3b45 15bd 9020 703d bc82 6c3d be91 bbbb
000000b0: 3966 103d 9df5 9f3d e986 8b3d 9df1 b3bc
000000c0: d97a 03bc e438 8fbd 48f2 5dbd 5c98 99bd
000000d0: 4521 17bb c154 7dba 4794 d0bc 868a a9bb
000000e0: 0ff1 2b3d 92fe 09bd 06f5 ba3c 3431 cf3c
000000f0: 052f 183d 57fd a43b 67d0 9cbd 6471 39bd
00000100: 5e10 983d 8c50 06bc 2cf2 93bb 68b3 8e3d
00000110: 1137 49bd cd22 813d 3c59 63bd b162 53bd
00000120: 21ef 803d b55a 5b3c 2551 a8bc b9bd 96bd
00000130: 4092 6f3d 4516 12bd 09fb 5f3d 1dcf 4a3d
00000140: 72f5 b43d 66b6 a3ba c729 fd3c 0caa 823d
00000150: f396 343d efb8 883d d12f 4abc 8674 3a3d
00000160: 4393 b43d 9bd9 523c 87f6 583d 550d 11bc
00000170: 0d21 babb 7854 b23c 3a22 373d 2086 143d
00000180: 7461 3bbd 851e b13c b7b9 80bc 3db4 69bd
00000190: 26f3 de3c a9c7 44bc 3788 aa3d ac3e 8c3d
000001a0: d6b0 873d eb40 e73c 9008 9cbd 77de 593d
000001b0: 4290 4cbd 48d2 a6bc b8a3 5c3c a85b b1bd
000001c0: b04c 4ebd f3f8 8ebc 754e ae3d fb9b 93bd
000001d0: 69f7 c9bc 0036 94bd 4856 34bd a7b6 a73c
000001e0: 45fa a63d bc2a ef3c ebc4 9fbd 13aa 83bd
000001f0: a6bf 97bc fce0 953d c332 753a 90e2 76bd
00000200: 88b5 28bc 2895 953c c084 adbd df7e 563d
00000210: bdd0 253d 5a40 643d a22f 58bc 2ac3 73bd
00000220: be18 b23c 4253 813d d46f 33bd 8030 af3d
00000230: d321 b23a c69e 2abc 41aa 033b 7102 bc3c
00000240: 5787 a53d 84d6 e53c 809b 1cbc 2fa6 233c
00000250: 7f4d 66bd f92f b0bd 4a07 853c fb37 aa3d
00000260: 2243 b1bd 9f5e a5bd 1be2 77bc a0f4 463d
00000270: 8a98 76bd 19f3 893d 5b95 ff3c b592 b1bd
00000280: 2e66 08bd a20c 933d 8c9f e53c 13ea efbc
00000290: d5e5 2c3d 2aca 71bd 34c7 833d 3b0a a2bd
000002a0: 85b3 f5bc c257 a43d e733 72bc 59a6 223c
000002b0: 5b36 55bd cc51 72bd af72 94bd 9cf6 39bd
000002c0: 88e8 903d 775c 46bd eaf8 1b3d 4a3d ac3b
000002d0: 66bb 5ebc 7d53 773d 98c1 883d 672a 8abc
000002e0: 4d5a b5bc a687 873d 9740 aa3c 49d9 813d
000002f0: 38fb 923c 6165 433d a0bd 493d a1e3 543d
00000300: 7fa0 8d3d b38c 843c 096c a9bd c6d0 9d3d
00000310: 6ab4 80bc 6255 ecbc f21d 9fbd 4632 473d
00000320: 866b 833c 1eda f23c ea11 203d 9ffd 6abd
00000330: c0ae 023d 61b7 02bd 643f cc3c 03cb c73c
00000340: 28e7 9d3d 8fc4 f4bc 1085 ea3c 83db 3d3c
00000350: be27 743d 4fcc 92bd 8393 a53c 4675 cb3c
00000360: 97ff 86bd f1aa 963d 554b e03c aae4 efbb
00000370: 39d9 453d 4316 b13d a60a 64bd c168 8a3d
00000380: 98c4 7fbd 8271 3bbc fdb0 4a3d 9555 43bd
00000390: 1519 763d c102 9bbd bd77 8fbd e21a 843d
000003a0: 3c2a 13bd e8bb 7bbd 0fdc 383d 355b 9cbd
000003b0: c195 8cbd 6f1a a13d 9add aabd cf16 af3d
000003c0: 0471 a1bd 302e fc3c d6a4 9a3c b211 3ebd
000003d0: 72b1 84bd 57af 0f3d f288 97bc 1051 953c
000003e0: fb33 193d c925 a63d b945 6c3b ffe6 6e3d
000003f0: 0d6a 08bd bfb1 bb3b 2a55 9bbd 5ca5 18bd
-0.076841995 -0.08607343 -0.025154985 -0.060079746 -0.065113984 0.056059558 -0.034509804 0.04258121
-0.05680925 -0.056209393 0.051812835 0.047345392 -0.010243835 0.04203304 0.064012304 -0.00961722
-0.008054884 -0.017282424 0.028488152 -0.05144457 0.08261439 0.07874614 0.076977625 0.08050252
-0.027057836 -0.037533447 -0.080235384 0.0405097 -0.05134359 0.033669848 -0.02546309 -0.062557206
-0.0669096 -0.039682128 0.07146088 -0.03853305 -0.034226753 0.0021292756 0.042496264 -0.041761063
-0.036442976 0.058624804 0.057741866 -0.005724161 0.035253737 0.07810519 0.068128414 -0.021965796
-0.008024895 -0.06993273 -0.054186136 -0.07499763 -0.0023060602 -0.00096638134 -0.02546133 -0.005173984
0.04197794 -0.033690043 0.022821914 0.025292017 0.037154216 0.0050350833 -0.07656937 -0.045274153
0.07424997 -0.008197915 -0.004514953 0.06967813 -0.04912478 0.06305466 -0.055505022 -0.05160779
0.0629561 0.013388325 -0.020546505 -0.073604055 0.058489084 -0.03566577 0.054682765 0.049513925
0.088358775 -0.0012490272 0.03090371 0.0638009 0.04408927 0.06675898 -0.012340502 0.04552128
0.088171504 0.012869264 0.05296948 -0.008853276 -0.0056802095 0.021768793 0.044710375 0.036260724
-0.045747235 0.021620998 -0.015713556 -0.057056654 0.027215552 -0.012010493 0.08326762 0.06847891
0.06625526 0.028229197 -0.07618821 0.053190675 -0.049942262 -0.020363942 0.013466768 -0.0866006
-0.050366104 -0.017452693 0.08511058 -0.07207485 -0.024654107 -0.07236862 -0.044027597 0.020472838
0.08153204 0.029195182 -0.07801231 -0.064289235 -0.018524002 0.07318303 0.00093535724 -0.06027466
-0.010297187 0.0182596 -0.08472586 0.052367087 0.04048227 0.055725433 -0.01319495 -0.059512295
0.021740314 0.06314708 -0.04380782 0.085541725 0.0013590403 -0.010413831 0.0020090493 0.022950383
0.08082455 0.02805639 -0.009558558 0.009988352 -0.05622625 -0.086029 0.016238827 0.08311459
-0.08655383 -0.08074688 -0.015129591 0.048573136 -0.060204066 0.0673582 0.031199148 -0.0867056
-0.03330057 0.07180144 0.02803018 -0.02928642 0.042211372 -0.05903069 0.06434479 -0.079121076
-0.029992828 0.08024551 -0.014782882 0.009927356 -0.05205379 -0.05916004 -0.07248437 -0.0454012
0.07075602 -0.048428025 0.03807918 0.0052563297 -0.013594484 0.060382355 0.0667755 -0.016865922
-0.022137785 0.0661767 0.020782752 0.06340272 0.017942056 0.047704104 0.049253106 0.051974896
0.06915378 0.016180372 -0.08272559 0.07705836 -0.015711028 -0.028849307 -0.077693835 0.04863193
0.016042482 0.029645022 0.039079584 -0.05737078 0.031904936 -0.031913165 0.02493257 0.024388796
0.07710105 -0.029878883 0.028627902 0.01158798 0.059608214 -0.07167875 0.02021194 0.024836194
-0.06591719 0.07356823 0.027379671 -0.00732096 0.048302863 0.08646824 -0.055674218 0.067582615
-0.062443346 -0.011440637 0.049485195 -0.04768904 0.060082514 -0.07568885 -0.0700526 0.0645044
-0.03592895 -0.0614585 0.04513174 -0.07634584 -0.06864501 0.0786637 -0.083430484 0.08549272
-0.07882884 0.030783743 0.018877428 -0.046403594 -0.064791575 0.035079326 -0.018497918 0.01822713
0.037403088 0.08112676 0.00360523 0.058325764 -0.033304263 0.005727976 -0.07584603 -0.037267074

comm_head.bias f4 [4]
00000000: 5d1a c73a c957 8b3d 4890 a9bc fa18 8d3d
0.0015190352 0.06803853 -0.020698681 0.068895295
