checkpoints/simple_world_comm_v3_transfer/simple_world_comm_v3_leadadversary_0_ep1050.pt (torch, 440069 bytes, 10 tensors)

body.0.weight f4 [256, 34]
000000 fe cd 32 be de 03 72 bd 3d 3c 45 3d fc 73 60 bd
       -0.17461392 -0.05908572 0.04815315 -0.05479811
000010 03 81 05 3e 75 c1 81 bd 20 dc 49 bd 02 87 80 bd
       0.13037495 -0.06335727 -0.049282193 -0.06275751
000020 cf 54 1f 3c 37 0d 15 3e d3 0e 23 bc 7c 54 1c 3e
       0.00972481 0.14555822 -0.009952265 0.15266603
000030 28 88 c8 bc 0b ce ce 3c 86 5f 62 3d 74 4e 0f 3d
       -0.024478987 0.025244733 0.05526688 0.034986928
000040 a1 ca eb bd 64 09 f7 3d 1d 0f 1d bc 01 6a 24 be
       -0.11513258 0.12062338 -0.009586123 -0.16056062
000050 02 4b 0d 3d 85 8b 26 be ff 67 3d 3d f1 2e 3f be
       0.03449536 -0.1626416 0.046241757 -0.1867025
000060 5f 9d 1e bd c1 b8 98 bd f2 52 68 bd de 05 bf 3c
       -0.0387243 -0.07457114 -0.056719728 0.023318227
000070 dd 6e 80 bd ff d8 f8 bd 2d 6f 06 3e 39 ec 80 3d
       -0.062711455 -0.12150764 0.13128348 0.06295056
000080 6f 36 a6 bc ce af 1d be 2a fd a9 bc 5b 9c 0b 3b
       -0.020289628 -0.15399095 -0.0207506 0.0021302912
000090 26 55 27 be 50 0b ed bd 6e 12 f2 3d 8e c7 10 3e
       -0.16341075 -0.11574423 0.118199214 0.14138624
0000a0 85 b1 18 3e 9a 5c ff 3d db 0e 9f bd a1 80 e7 bc
       0.14911468 0.12468834 -0.07766505 -0.028259577
0000b0 6b a3 00 3e f4 2f 19 bd 32 09 17 3e e1 22 00 3d
       0.12562339 -0.037399247 0.14749601 0.031283263
0000c0 b3 5c 80 3d 5d 49 14 3e 25 40 76 3d ac 2e e0 3c
       0.06267681 0.14481111 0.060119767 0.027366005
0000d0 04 45 11 3d c3 2c b8 3c 8d 83 f6 bd dd ca a6 3d
       0.03546621 0.022482282 -0.1203681 0.08144162
0000e0 2c e4 2c be d4 ff db bc fe 92 36 3e 12 ec ff bd
       -0.16883916 -0.026855387 0.1782951 -0.12496199
0000f0 30 49 f3 bd 99 72 29 3e e5 03 f3 3d cf 46 0d bd
       -0.11879194 0.16547622 0.11865977 -0.034491356
000100 09 05 1d 3e 90 ed fc 3c 97 42 b3 bd 7f 72 c3 bd
       0.15333952 0.030874997 -0.087529354 -0.09543323
000110 a7 e3 af bc c9 9c cb bd e1 2d 9a 3d 43 03 20 be
       -0.021470858 -0.09942014 0.07528282 -0.15626244
000120 fb 2e 26 be f0 a6 cd bd 0d 63 cf 38 52 af 7d bd
       -0.16228859 -0.100416064 9.888979e-05 -0.061934777
000130 4d 96 d0 bc 7e ac 2e be dc 83 9c bc 81 02 cb bd
       -0.025462294 -0.17057988 -0.019105844 -0.09912587
000140 e2 14 d5 bd 30 31 56 bd 42 0d c2 3d 6b d4 09 be
       -0.10404374 -0.052293003 0.09475185 -0.13459937
000150 6b d8 1a 3e 79 ca b9 3d 1e 34 52 3d e9 b3 16 bc
       0.1512162 0.09071822 0.051319234 -0.009198167
000160 36 14 87 3d f2 a4 4b bd 0f 78 ae bc cd cc a1 bc
       0.06595652 -0.04971785 -0.021297483 -0.019750977
000170 46 83 d8 bc ef 96 b0 3c 17 05 bd bd 71 51 59 3d
       -0.026429784 0.021556346 -0.092294864 0.053056184
000180 34 9b 31 3d fa 2f 2d 3e e6 3b b1 3d fc 97 ef 3c
       0.043360904 0.16912833 0.08654003 0.029247276
000190 19 57 a6 bd 9b ce 11 be 1b b0 b2 bd 89 97 01 3e
       -0.08122081 -0.1423897 -0.08724996 0.12655462
0001a0 ba 55 ad 3d 04 e0 b9 3d f0 05 08 3e 3e a6 0b bd
       0.08463617 0.09075931 0.13283515 -0.034094088
0001b0 8e 73 e1 3d 8f a2 57 bd ff 78 bd 3d 17 93 81 3c
       0.110083684 -0.052645262 0.09251594 0.015817208
0001c0 34 c9 ba bd 81 94 a7 bd db e4 f9 3d b4 99 ed bd
       -0.09120408 -0.08182622 0.12201854 -0.11601582
0001d0 0d 83 1f be 87 e8 e6 3d 21 67 ae bd dd e6 24 be
       -0.15577336 0.1127482 -0.08515764 -0.16103692
0001e0 68 2e 82 3d ae 09 00 be e3 41 b2 bc fc e6 a7 bd
       0.063565075 -0.12503693 -0.021759933 -0.08198354
0001f0 8c 5e e0 bd c4 14 c3 bc 30 cc 21 3e 1d 69 0b 3d
       -0.109555334 -0.023813613 0.15800548 0.03403579
000200 a6 67 21 3e f8 16 cc 3d 4d 17 d3 bd 26 0e 53 3d
       0.15762195 0.099653184 -0.10307179 0.051527165
000210 5a dd 00 3e 03 6f e2 3d 78 9f 14 3e 31 60 b4 3d
       0.12584439 0.1105633 0.14513958 0.088074096
000220 6f 1b 93 3d c3 7f 90 3d 01 99 c7 bd 8f 03 de bc
       0.07182967 0.070556186 -0.0974598 -0.027101306
000230 65 fd b2 bc 5f 3b bb 3d ff 3a 56 bd 1a ea bc 3d
       -0.021849344 0.091421835 -0.052302357 0.09224339
000240 76 93 0c 3e 74 1b 4f 3d ee 97 20 be 4e 86 86 3c
       0.13728127 0.05056329 -0.15682957 0.016421463
000250 1c 3f 42 3c 3e 51 ab 3d c0 a9 13 be cc 8f 2d 3d
       0.011855867 0.08365105 -0.14420223 0.042373464
000260 b3 0b da bd e4 0c 1a bc 99 b5 fe bd 89 99 cd bd
       -0.10646763 -0.009402487 -0.12436981 -0.1003905
000270 30 a9 c8 3d 77 d3 42 bd b3 e7 c6 3d ed 1b d8 bd
       0.09797895 -0.04756495 0.09712162 -0.105522014
000280 eb fb 96 bd 01 19 e6 3c 89 55 ca 3d a4 c0 93 bd
       -0.07372268 0.028088095 0.09879596 -0.07214478
000290 21 d7 24 be 87 b4 cd bd f2 c8 e6 3d 0b 9f b0 3d
       -0.1609769 -0.100441985 0.11268796 0.08624085
0002a0 c5 f0 ac 3d 9c 29 e0 bc 63 de 3c 3b cd b7 d2 3d
       0.08444361 -0.02736359 0.0028819076 0.102889635
0002b0 3d 68 a1 3d 4e f0 19 be 39 9a be 3c 1b 5a c7 bd
       0.0788121 -0.15033075 0.023266898 -0.09733983
0002c0 b6 7c 04 be 87 a3 17 3d 35 03 20 be d9 48 3c bd
       -0.12938198 0.037021186 -0.15626223 -0.04596791
0002d0 77 d2 99 3c 3c 81 b3 3d 2f 0f 10 be 84 f2 9d ba
       0.018777115 0.08764884 -0.14068292 -0.0012050425
0002e0 f5 f2 22 3e 62 95 26 be 4c 8b 2d bd e4 83 56 3d
       0.15912993 -0.16267923 -0.042369172 0.052371874
0002f0 40 f1 73 bd 00 a1 bf 3d 54 9c 1c bd de 72 90 bd
       -0.059556246 0.0935688 -0.038235024 -0.07053159
000300 d0 1a de 3d 9c ca 23 be b8 d3 f4 bd d1 32 e1 bd
       0.10844958 -0.15995258 -0.11954445 -0.109960206
000310 5a 6b 33 3d 09 5d 91 bc dd 67 1a be 3f c6 bd bd
       0.04380355 -0.017744558 -0.15078683 -0.09266328
000320 72 96 7a 3c 68 57 8d bd 04 fb a0 bd 12 48 af 3d
       0.015294658 -0.06901437 -0.078603774 0.08558668
000330 eb 3b 8c 3d ec 3a 21 3e 75 1e 32 3d 5d 74 14 3e
       0.06847366 0.15745133 0.043486077 0.14497514
000340 4b 91 1d 3e 3c a0 56 ba 0c 40 d5 bd e3 37 14 3a
       0.15387456 -0.0008187329 -0.104126066 0.000565408
000350 78 1b 1d be 23 65 c1 3d 29 96 c3 3d ef 79 01 be
       -0.1534251 0.094431184 0.09550125 -0.1264417
000360 31 7f bb 3c 1a 24 07 3e c7 0b 82 bd 94 e0 14 bd
       0.022887798 0.13197365 -0.063499026 -0.036346987
000370 de 49 24 3e f1 83 6b 3d 61 ae 5c bd 3b cf 29 be
       0.16043803 0.057498876 -0.05387724 -0.16582958
000380 01 95 37 3e 53 8c f3 bd 24 c2 5c bd e1 c0 13 3e
       0.17927934 -0.11891999 -0.053896084 0.14429046
000390 d3 21 f7 bd 6f 07 dd 3c a6 46 16 be 4b 18 1b 3e
       -0.12066998 0.026981084 -0.14675388 0.15145986
0003a0 bc d9 73 3d 16 4d 0a be 03 ef 1a be a4 be 00 3e
       0.05953382 -0.13505968 -0.15130238 0.12572724
0003b0 92 ff af bd 02 ed ef bb ba 13 09 be 30 c5 e1 3d
       -0.08593668 -0.0073219547 -0.13386431 0.11023939
0003c0 89 7b 12 bd 2c ec 7c 3d 3c 90 e0 3d 0a 08 ee 3b
       -0.035762344 0.06174867 0.109650105 0.007264142
0003d0 6c 7f e8 bc 7e 78 c0 bc 85 dc 16 bc ca e4 1f be
       -0.028381072 -0.023494955 -0.009207849 -0.1561462
0003e0 a9 6f 9d bd 0c c3 e9 bd 17 a8 9b 3d 6b 85 3f 3d
       -0.07687313 -0.11414155 0.0760042 0.046758097
0003f0 46 40 46 3c 4f 2c 23 3e bf 53 8c bd ae 9f e5 3d
       0.012100285 0.15934871 -0.06851911 0.11212097

body.0.bias f4 [256]
000000 b5 68 d8 bc f7 c1 b8 3d c8 60 9e 3d 3f b5 6a bd
       -0.026417116 0.09021371 0.07733303 -0.057301756
000010 23 83 3d 3d 61 86 12 3d c0 a0 ec 3d c5 8b 06 3d
       0.04626764 0.035772685 0.11554098 0.03284814
000020 71 e8 d0 3c d8 4f 07 3e 9f 5e c9 bd 7a 94 11 3e
       0.025501462 0.13214052 -0.09832501 0.14216796
000030 cf 8f 9d bd 5a ed 0d bc 31 84 86 3b 5c 8d 06 3e
       -0.07693445 -0.008662546 0.004105114 0.13139862
000040 3d 52 db bc ee f3 f0 3d 61 61 0d 3b a3 fb cd bd
       -0.026772613 0.11765276 0.0021572935 -0.100577615
000050 7d c8 64 bc 5c 97 13 be 7f 25 55 3b 8b c2 2f 3b
       -0.013963816 -0.14413208 0.003252357 0.0026818838
000060 32 50 c6 bd 40 d9 91 3d 24 95 eb bd ba 0e b2 3d
       -0.09683265 0.07121515 -0.11503056 0.08694215
000070 7f 65 b4 3d 7b 76 e4 3d db 96 aa bd a7 ed db bd
       0.08808421 0.11155411 -0.08329555 -0.10738688
000080 13 1c ce 3c 6e d4 12 3e 27 6b ed 3b 5b 7f d6 bc
       0.025159871 0.14338848 0.0072454396 -0.026183775
000090 4a e2 1f bd 6c 33 02 be 50 b7 f8 3d 1a a5 b1 bd
       -0.039034165 -0.12714928 0.12144339 -0.08674069
0000a0 99 d2 5f 3c 6c df 0c be ab 65 c8 3d a0 59 ac bd
       0.01366105 -0.13757104 0.097850166 -0.08415532
0000b0 37 b2 ce 3d 31 02 59 bc fc 37 e7 bd 45 ae af bd
       0.100925855 -0.013245151 -0.11289975 -0.08578161
0000c0 6a b6 86 bd de ea ae 3d 9c dc d5 3c 0c 48 b8 3d
       -0.065777615 0.08540891 0.026106171 0.08998117
0000d0 2d 5a 5d bd ff ed 1e be 3b c2 0d 3e 4d 67 1a bd
       -0.054041076 -0.15520476 0.13843624 -0.03769617
0000e0 94 ee 5f 3d 6e 4e 35 be 97 ca 22 3d 13 7a b2 3d
       0.054670885 -0.177057 0.039743986 0.0871469
0000f0 29 66 81 bd 1d eb 05 3d 01 b1 ea 3d b2 99 1a be
       -0.06318314 0.032694925 0.11459542 -0.15097693
000100 7f 21 1e be 8f d2 b8 3c 05 a1 23 3e 8f f0 e1 bd
       -0.15442465 0.02256134 0.15979393 -0.11032211
000110 e2 ea e1 3d 55 13 f8 bd 71 03 44 ba 0f 87 14 3e
       0.110311285 -0.12113062 -0.00074773195 0.14504646
000120 0f 2c f9 bd af c4 ec 3d 6b 44 1d 3e 8f b0 d7 bc
       -0.12166607 0.11560952 0.1535813 -0.026329307
000130 78 e3 09 be 05 fe 54 bc 51 5b 3c bd 1a b9 d2 bd
       -0.13465679 -0.013000016 -0.045985524 -0.102892116
000140 13 ee 22 be b0 3c b6 bd 56 36 e8 3d 0b 83 08 3d
       -0.1591113 -0.08898294 0.11338489 0.033328097
000150 d0 3f eb 3d ae d5 8e 3d e0 ad aa 3d 3c 84 51 3d
       0.11486781 0.0697435 0.08333945 0.0511515
000160 92 e5 de bd 51 94 1f 3e d6 bd 24 3e 55 bc f2 bc
       -0.10883631 0.15583922 0.16088042 -0.02963082
000170 8a c9 c1 bd d0 ae 9c bc 96 9e 25 be e4 a0 a1 b9
       -0.09462269 -0.019126326 -0.16173777 -0.00030828186
000180 ee aa 32 be 43 1a 37 bd b9 d8 97 3d df 5a fa 3c
       -0.17448017 -0.04470278 0.074143834 0.030560909
000190 60 45 ce 3c a9 61 bc bd 98 d4 19 be 2b 55 a4 3c
       0.025179565 -0.09198315 -0.15022504 0.020060143
0001a0 10 3a d3 bd a6 66 82 3d 49 db fa bd eb 24 13 3e
       -0.10313809 0.06367235 -0.122488566 0.14369552
0001b0 70 94 21 3e e7 ba 13 3e d5 9a a4 bd 47 71 11 3c
       0.1577928 0.14426766 -0.08037344 0.008877105
0001c0 53 fe a2 3d 5b 59 3d bd 49 d4 24 bd 65 4b 7f bd
       0.07958665 -0.046227794 -0.040241513 -0.06232776
0001d0 86 43 9a bd 77 eb 19 be 73 03 87 3d e1 2b 23 be
       -0.0753241 -0.15031229 0.06592455 -0.15934707
0001e0 ac c7 98 3d 7d 8b 00 be 9e 07 15 be 84 b7 e6 bd
       0.074599594 -0.1255321 -0.14553687 -0.112654716
0001f0 e6 92 02 be f3 97 e0 bd f8 88 43 3d 24 15 02 3e
       -0.1275135 -0.10966482 0.047738045 0.12703377
000200 e6 7c 56 3c 36 4e cb bd 41 60 af bd 23 de e4 bd
       0.013091302 -0.09927027 -0.08563281 -0.11175182
000210 0f 95 07 3e bc 35 c1 3d 50 c0 9b bd 4f 08 08 3e
       0.13240455 0.09434077 -0.0760504 0.1328442
000220 10 85 21 3e 83 8c 94 bd e2 32 0f be 17 c7 e7 bc
       0.15773416 -0.07253363 -0.13984254 -0.028293176
000230 96 40 77 bd 04 32 c6 bd 1f 72 6e 3d dd e6 8e bd
       -0.06036433 -0.096775085 0.058214303 -0.069776274
000240 8f ce 12 3e d6 df b4 3c e0 ff 90 bd c7 05 e5 3c
       0.14336608 0.02207939 -0.07080054 0.027956856
000250 67 e3 78 3d bc 91 21 be c7 4c 0f 3e 63 84 c2 3b
       0.060763743 -0.1577825 0.13994132 0.005936192
000260 85 19 ee bd c5 85 78 3d 05 04 2e be 81 bb b9 3c
       -0.11625961 0.060674448 -0.16993721 0.022672417
000270 ff 60 ea 3c 0c 62 28 3d dd a9 f9 3d 43 6b 30 be
       0.028610704 0.04110913 0.12190602 -0.17228417
000280 7b 1b 10 be 49 51 cd bd 80 ce e9 3d b4 35 89 bc
       -0.14072983 -0.100252695 0.1141634 -0.01674924
000290 74 01 1c bb e9 12 50 bc 54 b0 98 3c bc 88 c4 bd
       -0.0023804577 -0.012699821 0.018638767 -0.095963925
0002a0 8b 36 9a bd c8 5c 9f 3c fc e9 a4 3c 40 ac 16 3e
       -0.075299345 0.019453421 0.020131104 0.14714146
0002b0 56 21 16 3d 87 31 8d 3d ab 48 26 be cb 18 2d 3c
       0.036652885 0.06894212 -0.16238658 0.010564993
0002c0 fe 5b fd bc 9f ad 86 3d 93 ec 2e 3d ba e8 ab 3d
       -0.030927654 0.06576084 0.042706084 0.083939984
0002d0 f2 95 5b bd b3 f4 dd 3c 45 6f 18 bd 0e d6 aa bd
       -0.053609796 0.02709422 -0.03721549 -0.08341609
0002e0 7e ab fc bd c1 34 91 bd 13 65 01 be 71 86 1c 3e
       -0.12337397 -0.0709014 -0.12636213 0.1528566
0002f0 e8 d7 13 be 67 7f 1d be ac 87 0f be ff c8 3a be
       -0.1443783 -0.15380631 -0.14016598 -0.18240736
000300 a5 b9 3b 3d 9d 9d 28 3e ab cd 67 bd 51 97 44 3d
       0.04583134 0.16466375 -0.056592625 0.04799587
000310 89 97 0e be 38 58 69 3d 1a b1 0a be 71 5d 65 3d
       -0.13924994 0.056968898 -0.13544121 0.055997316
000320 94 14 05 3e f8 c5 db bd 16 c2 a6 3d 16 17 a2 3d
       0.12996131 -0.10731119 0.08142488 0.079145595
000330 5c 27 a6 3a c1 14 d6 bd 8e 2f 25 be 02 60 d3 3d
       0.0012676525 -0.10453177 -0.16131422 0.103210464
000340 51 f0 be bd 6c a6 73 bd e3 32 a1 3d 0a ff 1f bd
       -0.093231805 -0.059484884 0.07871034 -0.039061584
000350 03 0f de bb 60 44 0a be f9 8c 26 3e 91 10 a5 bd
       -0.006776692 -0.13502645 0.16264714 -0.080598004
000360 1d 50 12 3e dd ad b7 bd fa e2 bc 3d 11 fb 44 3d
       0.14288373 -0.08968709 0.0922298 0.048090998
000370 a2 cc 82 3d 5e e1 f4 3d 66 2b a3 bc af e7 08 be
       0.06386687 0.11957048 -0.019918155 -0.1336963
000380 64 aa e6 bd fa 50 58 bd b9 35 2b be d9 69 22 3e
       -0.11262968 -0.0528116 -0.16719712 0.1586069
000390 2e e6 85 bd 0f 82 14 3e e2 75 0e 3d 9f d1 bf bd
       -0.06538044 0.14502738 0.03478039 -0.09366154
0003a0 8e 32 c1 3c 83 6b 6b bd 5e 38 c1 3d 52 94 18 3c
       0.023583677 -0.057475578 0.09434579 0.009312706
0003b0 3f 12 02 3d 1a 15 15 be 93 ea 9f bd 00 c7 58 3d
       0.031755682 -0.14558831 -0.07808413 0.052924156
0003c0 c0 95 c6 3c 88 55 c5 3d 1f c2 aa bd f6 93 05 3d
       0.024241328 0.096354544 -0.08337807 0.03261181
0003d0 74 98 9f bd eb 52 cc bd 60 35 89 bd b5 29 ef 3d
       -0.0779275 -0.09976753 -0.066996336 0.11677877
0003e0 6f d9 23 3e d9 19 17 3c 5f 22 0c be fd da 78 bb
       0.16000913 0.009222471 -0.13684987 -0.0037972324
0003f0 cd 3d 8b bc cd a3 f8 3d c7 c0 ab bd 88 d2 94 3d
       -0.016997242 0.121406175 -0.08386379 0.07266718

body.2.weight f4 [256, 256]
000000 b7 08 85 bb ae 43 11 3d c9 cc 49 ba ff 92 12 3c
       -0.004059877 0.035464935 -0.0007698057 0.008946179
000010 19 af 3e bd 45 20 26 3d f0 03 c2 3c 25 0c f9 bc
       -0.046553705 0.04055812 0.023683518 -0.030401299
000020 1c 0c a6 3c a6 16 5f 3d 0d 45 f0 bc 1b 9d 2d bd
       0.020269446 0.05446496 -0.029329801 -0.042386156
000030 2c 2b 19 3d 55 5d 32 bc 13 f9 23 ba ea 6d 79 bd
       0.037394688 -0.01088651 -0.00062550715 -0.060895838
000040 24 64 42 bd ea 00 78 bd 85 3f 87 bd b0 47 32 bd
       -0.047458783 -0.060547747 -0.06603912 -0.043525398
000050 61 cf 29 bd c3 98 28 3d 84 e6 b4 bb 70 dd dd bc
       -0.041457538 0.04116131 -0.0055206437 -0.027083129
000060 3a 05 6d 3d 39 24 f7 bc 9e 7d 6c bb 18 d8 d2 bc
       0.057866313 -0.03016864 -0.0036085616 -0.025737807
000070 17 c5 82 bd d5 e5 85 bd f1 e0 e2 bc 81 86 65 bd
       -0.06385248 -0.065379776 -0.027695151 -0.056036476
000080 fb 82 4a bd c8 69 bf 3b 83 30 4b 3d 90 e8 89 bd
       -0.04944132 0.0058414675 0.04960681 -0.06733811
000090 a0 e6 8a bd 2d 11 03 3c 39 15 aa 3c 49 12 72 3d
       -0.067822695 0.0079997005 0.020762073 0.05909947
0000a0 5b 32 40 3d ed e6 56 3b 02 3b a9 bc 76 65 98 3c
       0.046923023 0.003279145 -0.02065802 0.018603068
0000b0 7a bd ac bc 3b ff c0 bb cc d2 45 bd 35 4a fe bc
       -0.021086443 -0.005889801 -0.048296735 -0.031041244
0000c0 f4 39 2d 3d 7f 21 36 bd 7b f3 dd 3c 3d 4f 1c 3d
       0.042291597 -0.044465538 0.02709364 0.038161505
0000d0 8b b8 40 bc 35 c9 0c 3d af 1e 70 bb 16 8e 6e 3b
       -0.0117627485 0.034371573 -0.0036639383 0.0036400608
0000e0 81 66 5b bc eb c2 ca 3c bd e2 a1 3c d7 3f 08 3d
       -0.013391138 0.024751147 0.019761438 0.033264007
0000f0 a2 a2 71 3c 75 bf 30 bc e4 a6 eb b9 b7 c9 e5 bc
       0.014748247 -0.010787834 -0.00044947036 -0.028050287
000100 d1 2f 90 bc 12 6d 66 bd eb 84 09 bd d4 43 20 3d
       -0.017600926 -0.05625636 -0.033574026 0.039127186
000110 ee 21 20 bd 09 63 64 3d e4 ac 09 3d 6d e1 21 bd
       -0.039094858 0.05575851 0.033612147 -0.039521623
000120 b2 b2 c3 bb fe 0d 82 bd 1f 93 14 3d 99 87 40 bd
       -0.00597223 -0.06350325 0.036273118 -0.047004316
000130 60 56 33 bd bc 05 8f 3b 3b 46 f1 bc 04 8a 12 3d
       -0.043783545 0.0043646973 -0.029452434 0.035776153
000140 b1 d1 66 bd ec a8 fb 3b d0 47 3d bd e5 9f 33 3d
       -0.05635232 0.007680049 -0.046211064 0.04385366
000150 a6 e9 9f bb 37 8e ff 3c 92 f8 12 3a 6e 30 da bc
       -0.004880148 0.031195743 0.0005606498 -0.026634421
000160 e2 15 98 3c 03 80 76 3c f1 5f 78 3c 5f f4 02 bc
       0.018565122 0.015045169 0.015159593 -0.007992833
000170 10 a9 1e 3d 77 3a cf 3c 7a 00 7a bd 3f 82 5f bb
       0.03873545 0.025296433 -0.06103561 -0.0034104732
000180 c0 ec a1 3c 29 91 bc b9 b3 3d 14 3d a5 80 5a bc
       0.019766212 -0.00035966307 0.036191653 -0.013336335
000190 71 51 6b bc 4a 0d 3f bd fc 75 43 3d 12 3a 23 bd
       -0.014362679 -0.046643533 0.04771994 -0.039850302
0001a0 f2 02 48 bd 30 07 00 3b 33 db ef 3a d5 6b f4 3c
       -0.048830934 0.0019535534 0.0018299579 0.029836575
0001b0 af 47 58 bc c0 d0 3b bd b7 3f 22 3d f0 41 5e bd
       -0.013200684 -0.045853376 0.039611544 -0.0542621
0001c0 b2 9b a4 3c c3 6d a6 bc 4b 8b 0a bd 4a cc 2a bc
       0.020093773 -0.02031601 -0.033824246 -0.010424683
0001d0 3c 8d 29 3d 1c af 61 3d 2e 9a 69 bd 56 d7 27 ba
       0.041394457 0.055098638 -0.057031803 -0.0006402632
0001e0 c1 0d 3f 3c 46 ce 35 3d 48 8f 4e 3d 6e 76 7f bd
       0.011660994 0.04438617 0.050429612 -0.062368803
0001f0 0f 6e 54 3d f5 22 e1 bc 25 9a 90 bc e9 ce 38 bc
       0.051862773 -0.02748249 -0.017651627 -0.0112798
000200 73 db 88 bd a0 4b 21 3d 5b 78 51 bd 6e 78 92 bd
       -0.066824816 0.039378762 -0.05114017 -0.071518764
000210 cc f5 a7 bc 63 65 04 3b 77 9d 8d 3b 73 24 6b 3c
       -0.020502947 0.0020202033 0.00432175 0.014351952
000220 70 45 84 bd 37 97 ee bc c8 8b 86 bc 5a ff 25 3d
       -0.06458557 -0.02912484 -0.016424075 0.040526725
000230 06 c9 d3 b8 51 b9 09 bd 5f 59 d1 bc 84 0a c2 bc
       -0.000100987076 -0.033623997 -0.02555531 -0.023686655
000240 b1 99 83 bc f2 9d 66 bc dd 0b e2 bb 73 61 bf bc
       -0.016064497 -0.014075743 -0.006898387 -0.023361897
000250 fd a3 26 3d 46 db 33 bd 60 dc 70 bc c0 e6 2b ba
       0.040683735 -0.043910287 -0.014700979 -0.0006557517
000260 84 73 cb 3c 7d c6 9a bc 84 ec 2f ba 88 16 3a 3d
       0.024835356 -0.018893475 -0.0006710964 0.045431644
000270 15 ed 23 3d b5 f8 06 3a 2e 3b e1 bc 74 57 d2 bb
       0.04002102 0.00051487546 -0.02749404 -0.0064191166
000280 71 a7 20 bb 1c f8 19 bd 31 13 6d bd 42 7d 1b bd
       -0.0024513865 -0.03759013 -0.05787963 -0.037961252
000290 f2 23 4b bd 98 47 07 bc 5d 2f 55 3d 70 80 6e bd
       -0.049594827 -0.008256815 0.052047122 -0.058227956
0002a0 75 9c 4d 3d 6c e7 2e 3c 88 88 3c 3d 33 f9 27 bd
       0.050198037 0.010675292 0.046028644 -0.04100914
0002b0 27 5e f3 3c 3a 83 5d 3d d3 90 14 bd 4f bf 29 3d
       0.029707981 0.054080226 -0.036270928 0.04144221
0002c0 3d c4 58 3d 58 cb ee bc a5 a2 ba 3a 78 58 f9 ba
       0.052921522 -0.029149696 0.0014239146 -0.0019023558
0002d0 f8 d9 99 3c 5a 2a 59 3d 98 63 da 3c c1 93 5b 3c
       0.018780693 0.053018905 0.026658818 0.0134019265
0002e0 45 cf 0d bd 87 81 19 bd 77 25 f1 3c ce 29 4b bb
       -0.034621496 -0.037477043 0.02943681 -0.003100026
0002f0 9f 3f 90 3c 17 41 ef bc ea a6 29 bd aa 99 43 3d
       0.017608462 -0.029205842 -0.041418947 0.047753967
000300 61 0d 14 3d 26 48 46 bd ad 16 56 3d 92 4f 07 bd
       0.03614557 -0.04840865 0.05226772 -0.03303487
000310 67 b6 13 bd d6 16 37 bd 08 17 6f bd 28 59 27 3d
       -0.036062624 -0.044699512 -0.058371574 0.04085651
000320 69 60 30 3d ca 73 58 3d a9 a9 43 bc 9c 7a d8 bc
       0.043060694 0.0528448 -0.011942306 -0.026425652
000330 d1 05 5e bc f4 d5 e5 3a 0c f9 27 3d a8 39 33 3d
       -0.013551191 0.0017535076 0.041008994 0.043756157
000340 ae 6f 51 bd d1 15 60 3d 09 73 65 bd 2b 1b b9 3b
       -0.051131897 0.054708306 -0.05601791 0.0056489906
000350 79 da 0e bc c3 05 03 bd 46 86 68 bd b4 b5 4d bc
       -0.00871908 -0.031987917 -0.056768678 -0.012555528
000360 75 59 12 bd 0d cb 89 3b eb 6d 58 bd f8 18 cd 3c
       -0.035729844 0.0042051137 -0.0528392 0.02503632
000370 08 bf 03 3d 1e 55 10 3d 30 d7 26 3d 59 f9 fd bc
       0.032164603 0.035237424 0.040732563 -0.031002687
000380 b6 0f c5 bb 89 67 85 3c a4 96 2d bd a0 7f 76 bd
       -0.006013836 0.016284721 -0.04237999 -0.060180306
000390 e6 b4 d2 bc 51 9f f5 bc 88 1e 45 bc f9 b0 5e 3c
       -0.025721025 -0.029983195 -0.012031205 0.013591998
0003a0 fc 39 80 bc ee 5c 8e bc 87 e0 08 bd 69 d8 88 3c
       -0.01565265 -0.017378297 -0.03341725 0.016704755
0003b0 d2 b2 0d bc 77 2b 77 bd 86 48 2b bd 40 9a 4f 3d
       -0.008648591 -0.060344186 -0.04181721 0.050684214
0003c0 2e 97 4a 3c 6b 16 8c 3c b7 a5 79 bc 82 df a1 39
       0.012365146 0.017100533 -0.015237263 0.0003087484
0003d0 60 14 83 bd 27 9d 45 3d 09 b2 7e bd be a5 d9 bb
       -0.064003706 0.048245575 -0.062181506 -0.0066420725
0003e0 81 ca 38 bc c0 1a 1c 3d 75 94 ed bc 7a b4 8b bd
       -0.011278749 0.03811145 -0.029001454 -0.068215325
0003f0 52 77 04 bd 2e be 5c bd e8 ef 7a bc 27 00 0e bd
       -0.032340355 -0.053892307 -0.015315987 -0.034668114

body.2.bias f4 [256]
000000 b6 13 82 bd ab cf a0 bc 34 b5 98 3c 19 34 5b 3d
       -0.06351416 -0.019630274 0.018641092 0.05351648
000010 68 03 84 bd 9a ec b2 3b 4a 29 57 bc 06 b3 6a ba
       -0.06445962 0.005460334 -0.013132403 -0.0008953068
000020 f6 e0 22 bd 46 11 54 bd 35 15 e4 bc 42 58 f4 bb
       -0.03976532 -0.051774286 -0.027842144 -0.00745681
000030 c4 7b 6c bd 68 cc 2e bd e8 63 75 3d d0 d1 3a 3b
       -0.05773522 -0.042675406 0.05990973 0.0028506406
000040 96 37 2d 3d ac 14 df bc a7 c5 61 3d 1e 5a 1c bd
       0.04228934 -0.027231537 0.055120137 -0.03817188
000050 d7 84 9b 3c 64 4b 7d 3d 00 fb 3b bc f3 b3 4a bd
       0.018984241 0.061839476 -0.011473417 -0.04948802
000060 ae 63 76 3c cd 77 be bc 05 9d 97 3c 87 07 37 3b
       0.015038414 -0.023250485 0.01850749 0.002792807
000070 00 d6 dc bb 00 37 9e bc 17 98 7e bb 92 c4 6a 3d
       -0.006739378 -0.019313335 -0.0038847977 0.05731637
000080 9e 12 dc 3b f3 b4 0a 3d 2d cb ea 3c 91 99 5a bc
       0.0067160865 0.033863973 0.028661335 -0.013342277
000090 c9 8f 54 bd 6a 74 d4 bc 4f 9a 83 bd ef a8 8f 3c
       -0.051894937 -0.025934417 -0.064259164 0.017536609
0000a0 77 3d 23 bd 59 0f 56 3c 6d 97 a8 3c 70 8c 06 3c
       -0.03985354 0.013065183 0.020580018 0.008212194
0000b0 62 8c 51 bc 9c d6 34 3c 64 71 e2 3c 49 c9 20 b9
       -0.0127898175 0.011037495 0.02764196 -0.00015333774
0000c0 50 ea 99 bc 63 52 30 bb 12 e6 dc bc 65 c4 2b bc
       -0.018788487 -0.0026904575 -0.026965175 -0.010483836
0000d0 fe 0f af 3c ca 1f 50 3d 15 26 ec 3b 7a 9a 86 bd
       0.02136993 0.050811566 0.007206688 -0.06572433
0000e0 6e dd d6 bc 90 ae c9 bc ea 69 0e bd bb fd 06 3d
       -0.026228633 -0.02461937 -0.034768976 0.03295682
0000f0 a0 95 78 3c e6 03 76 bc 31 f2 12 3d a1 4c 97 bc
       0.015172392 -0.015015578 0.035875503 -0.018469157
000100 6e a6 89 bd 01 2f 77 3d 95 1b 22 3c 75 54 31 ba
       -0.06721197 0.06034756 0.009894271 -0.0006764599
000110 2c 94 8a 3b e1 57 55 3d 64 8f 6e 3d 85 7b 4a 3d
       0.0042290892 0.05208576 0.058242217 0.049434204
000120 b1 83 1b 3d 66 06 85 bb 65 3a 6b bb c1 b4 99 3c
       0.037967388 -0.0040596006 -0.003589296 0.018762948
000130 4f 40 00 bd 47 4c 48 3c 6f 6c 8c bb 9d 19 88 bc
       -0.03131133 0.012225217 -0.004285387 -0.016613776
000140 83 19 94 3c 8d 3b e1 3c d3 a4 71 3d 62 bb 7f 3b
       0.018078571 0.027494216 0.05899508 0.00390216
000150 fd 23 a8 3c ba 9b 3c 3d c2 d0 2a 3d 61 43 f9 3c
       0.020524973 0.04604695 0.041702993 0.030427637
000160 45 c3 6f 3d e0 45 61 bd 22 4a 69 bc 4f e1 76 3d
       0.058535833 -0.05499828 -0.014238866 0.060273465
000170 06 08 67 bd b4 ec 4e bd f7 97 55 bd c1 0e 15 3c
       -0.056404136 -0.050518706 -0.052146878 0.009097756
000180 1a 81 5f 3d f6 fb 0d bd d5 13 d8 3c 34 d4 65 bd
       0.05456648 -0.034664117 0.026376644 -0.056110576
000190 6a d1 56 bd 0a 18 95 bd 0a 46 2c 3d 8d 96 19 bd
       -0.052445807 -0.07279976 0.042058982 -0.037497092
0001a0 c9 48 6b bc f2 14 07 3d 11 25 87 bc 16 b3 40 3d
       -0.014360615 0.03297896 -0.016497167 0.04704579
0001b0 92 af 20 3c 02 06 aa bc b2 a9 24 bc 6c 46 cf bc
       0.009807484 -0.020754818 -0.010050224 -0.025302134
0001c0 b8 60 e6 3c 40 07 57 3d 9b 10 96 bb 66 0f 45 bd
       0.028122291 0.05249715 -0.0045796162 -0.04811039
0001d0 0e 7c 36 3d 7c 64 5e bd 17 25 14 3d c9 81 79 bc
       0.0445519 -0.054295048 0.036168184 -0.015228697
0001e0 c6 b2 f9 bb 98 f2 98 3c de 14 16 bd 8d 71 63 bd
       -0.0076201884 0.018670365 -0.036640994 -0.055528212
0001f0 c9 ba b4 3c cd 5d 56 3d d2 44 24 3d 7f 28 3c 3d
       0.022061722 0.05233555 0.040104695 0.045937058
000200 6e a4 52 3c 7c 83 23 3d ae bd 02 bc f7 91 20 3d
       0.012856586 0.039920315 -0.0079797935 0.039201703
000210 e5 98 4b bd 6a 70 00 3d 5d c8 52 3d f3 c8 05 bc
       -0.04970636 0.031357206 0.051460613 -0.008165586
000220 30 ad 34 3c 20 7e 7b bc 0e 58 ff 3c fd 96 3d 3c
       0.011027619 -0.015349895 0.031169917 0.011571643
000230 36 48 8a ba 06 f8 1c 3c de 36 29 bd 7c 75 eb 3c
       -0.0010550085 0.009580618 -0.04131209 0.028742544
000240 cd a2 9a 3c 07 55 67 bd 7f 14 51 bb b4 1b 35 bd
       0.018876458 -0.056477573 -0.0031903086 -0.044215873
000250 34 3d 70 bd ce 44 27 bd ee 4b b9 bc 7e 20 3a 3d
       -0.058652118 -0.0408371 -0.022619214 0.045441143
000260 2e 29 28 bd 88 91 49 bb 58 71 cb 3c fe 8f 4f bd
       -0.041054897 -0.003075691 0.02483432 -0.05067443
000270 26 6e fb 3c c1 5b 9c 3d 4e 90 79 bd 26 b4 52 bd
       0.030692171 0.07634688 -0.060928635 -0.051441334
000280 98 93 85 bd 08 86 29 bd 4f 0a 37 3d 79 b0 ce 3c
       -0.06522292 -0.041387588 0.044687565 0.025230633
000290 43 1a 24 bd 0b 05 51 3c fd 00 93 bd d2 7f 0a 3d
       -0.040064108 0.01275755 -0.07177923 0.033813305
0002a0 ab 79 6b 3c 33 29 96 3c 04 2e 15 bd a5 1c 1d 3d
       0.01437227 0.018330192 -0.036420837 0.038357396
0002b0 b6 1a 34 3c 51 0a 1a bc ba 84 4e 3c db 3a 46 bc
       0.0109926965 -0.009401874 0.012604887 -0.012098993
0002c0 c7 bf 52 3d 68 f0 57 3d 80 26 94 3c 3c d7 bb 3c
       0.051452424 0.052719504 0.018084764 0.02292978
0002d0 92 33 53 bd 2d 5f 95 bc 30 fb 21 3c 3e 82 e3 3b
       -0.051562853 -0.01823386 0.009886548 0.0069430163
0002e0 a5 1b 46 3d 3b de 38 bb 98 c8 f0 bc 88 ec a2 bc
       0.048366208 -0.0028208632 -0.029392526 -0.019888178
0002f0 cc f2 26 bd eb 08 12 3d 5a 6e 40 3d b2 76 54 3d
       -0.040758893 0.035653036 0.04698024 0.05187101
000300 5d a0 75 3c b4 5f 7b bd a4 34 8d 3c c8 b3 2b 3c
       0.014991847 -0.061370566 0.017237015 0.010479875
000310 59 a3 19 3d 83 ee ed 3a ab ba 0f bc 2d b6 93 bc
       0.037509296 0.0018152747 -0.008772532 -0.018031204
000320 86 5f 60 bd 6e e7 00 3d 16 8f 30 bc d1 51 87 bd
       -0.0547786 0.03147071 -0.010776302 -0.06607402
000330 9d 89 02 3d 6f 45 40 3d 53 2b c8 bc 16 b1 8e 3c
       0.03186952 0.046941217 -0.024434721 0.017418426
000340 7b 2f b2 3c 5c d2 20 bd 3a 1f 61 3d df f7 6c 3d
       0.021751156 -0.039263114 0.05496142 0.057853576
000350 79 da 3e 3c 34 fc 12 bd f1 f5 63 3d 22 d4 1f bd
       0.011648768 -0.03588505 0.05565447 -0.039020665
000360 e2 61 66 3c 0d 30 9f bc 47 d9 b8 3c 5d bf c7 bc
       0.014061423 -0.019432092 0.022564543 -0.024383241
000370 02 0d aa bb a9 35 75 bb 40 a2 f5 39 77 bc 7a 3c
       -0.005189539 -0.0037416017 0.00046850927 0.015303723
000380 df 99 dc bb f6 6e c6 bb 38 83 19 3d cf 82 80 bd
       -0.00673221 -0.006055708 0.037478656 -0.0627495
000390 eb b9 a9 3b ea 4f d1 3c 5e a1 b5 3b 26 1b 2f bd
       0.005179634 0.025550801 0.005542918 -0.0427505
0003a0 70 ca 20 bd d7 fe 83 bd f5 6e 88 bc cf 3e df bc
       -0.03925556 -0.06445091 -0.016654471 -0.02725163
0003b0 db e5 49 3c 6f e6 32 3d 9a a0 fe bc 0e fd 49 3d
       0.012322868 0.04367679 -0.03108244 0.049313597
0003c0 c5 fd d3 bc ff 9e 15 bc da 95 02 bc 21 d4 b9 bc
       -0.025877843 -0.009132146 -0.007970298 -0.022684159
0003d0 98 53 cc bc 33 0f 63 bb 35 bd df bc 2f 5d 17 bd
       -0.024942204 -0.003464651 -0.0273119 -0.0369541
0003e0 ba a3 80 bd b2 93 92 bc 70 8f 86 3c 27 d0 20 bd
       -0.06281228 -0.017892692 0.016425818 -0.03926101
0003f0 61 6c f6 3c 8c a2 ae 3c 4f 77 69 bd ee be d2 bc
       0.030080976 0.021317743 -0.056998547 -0.025725808

body.4.weight f4 [128, 256]
000000 9c bc dc 3c 93 87 f2 bc 4f 8d 5e 3d b0 d4 3a bd
       0.026945405 -0.029605662 0.05433398 -0.04561299
000010 95 08 e4 3c 88 ab 25 3d 98 56 8e bb 43 4f 10 bb
       0.027836123 0.040446788 -0.004343819 -0.00220199
000020 58 09 47 3d 66 3f 3c 3d af fe c1 3c 64 47 b8 3c
       0.048592895 0.0459589 0.023681013 0.02249498
000030 1e 7b 55 3d 27 9a 33 39 4e f5 62 bd 61 38 ba 3b
       0.052119367 0.00017128196 -0.055409722 0.0056829904
000040 92 11 08 bd 3a 68 1e bd 11 5d 04 3d c1 5d d5 bc
       -0.03321988 -0.038673617 0.032315318 -0.026045682
000050 95 aa c5 3c 59 a4 24 bd 05 4f 78 3d 45 5e 81 bd
       0.024129191 -0.040195797 0.060622234 -0.063168086
000060 a1 00 20 bc 19 b7 eb bc 6d 42 33 bd 10 8d c4 bc
       -0.009765775 -0.028773831 -0.04376452 -0.023993045
000070 e4 bd 64 3d b6 de 86 bc 74 48 5b bc da 7a e0 bc
       0.055845156 -0.016463619 -0.013383973 -0.02740233
000080 1e 22 a8 3a 93 4d 16 3d 3e 99 c2 3c b0 b8 65 bc
       0.001282755 0.036695074 0.023754712 -0.014021084
000090 30 be 96 3c 12 85 d1 bc bd a7 14 b9 63 05 86 bc
       0.018401235 -0.025576148 -0.00014176867 -0.01635999
0000a0 04 0e 62 3d 67 f2 10 3d 9c d6 28 bd 4e dd 7e bd
       0.055189148 0.035387423 -0.041220292 -0.06222277
0000b0 9a 3c 3a 3d 22 13 4e bd e9 15 1a bd 82 da 18 bd
       0.04546795 -0.050311215 -0.03761855 -0.03731776
0000c0 2e 2a cb bc c3 40 7c 3d 03 94 4c bd dd 97 80 bc
       -0.024800386 0.0615852 -0.049945842 -0.015697414
0000d0 b9 7d 30 3c 58 e7 cd 3c 51 10 e4 bc f1 a1 26 bc
       0.010772162 0.025134727 -0.027839812 -0.010170446
0000e0 3f 3f fc ba 6a 79 a3 3c 2b 5f cb 3c b5 c0 51 bd
       -0.0019244923 0.019955356 0.024825653 -0.05120917
0000f0 bc 97 2f 3d e8 3f f3 bc 60 62 97 bc ec 9d 3a bd
       0.042869315 -0.029693559 -0.018479526 -0.045560762
000100 1a 8b 41 3d 39 b6 b3 3c a0 e7 22 bd 44 8e 36 3c
       0.0472518 0.021937476 -0.039771676 0.011142317
000110 a0 95 a7 bc 72 af 34 bd b9 2d 4d 3d f4 a1 07 bd
       -0.020457089 -0.04411263 0.050092433 -0.033113435
000120 1d ac 0e bd f0 32 12 3d d8 ee 81 bc 00 20 6f bd
       -0.03483211 0.03569311 -0.01586096 -0.058380127
000130 9b 29 69 3d 3f c5 9a 3c 22 6c b9 bb 12 67 a1 3b
       0.056924444 0.018892882 -0.0056586424 0.004925617
000140 71 59 d5 3c a1 99 74 bd 8c a4 5a 3d cf 98 5b bd
       0.026043626 -0.059716824 0.05337958 -0.053612527
000150 c1 c2 05 bd 0b f7 de bc 56 02 c0 bc 3d 11 7f bd
       -0.032656435 -0.027217409 -0.023438614 -0.0622723
000160 73 60 48 bb 74 cc 9b bc 93 53 73 bb ce 2d 0c bd
       -0.0030575066 -0.01901839 -0.0037128672 -0.03422337
000170 20 7b 0a bd 56 ae 90 3c e3 45 e9 3c 05 31 8b bd
       -0.033808827 0.017661255 0.028475707 -0.06796459
000180 5d 6b 58 3d d4 7b 99 bc b2 10 ef 3c 66 b3 35 3d
       0.052836765 -0.018735804 0.029182766 0.04436054
000190 d1 71 4a bc bf ab 50 3d f1 13 fd 3c 01 97 09 3c
       -0.0123562375 0.05094504 0.030893298 0.008397819
0001a0 73 a9 17 3d 68 c6 06 3c 45 8f 6e 3d 93 07 f5 3b
       0.037026834 0.008226015 0.0582421 0.0074777096
0001b0 d8 21 4d 3b bb 89 19 3d 1e 5b 7e bd 2f 5e c7 bc
       0.003130069 0.037484866 -0.062098615 -0.024336902
0001c0 89 10 c1 39 c2 5f 88 3d c1 47 7a 3d 20 7e 5e 3d
       0.00036824148 0.06658889 0.061103586 0.0543195
0001d0 c5 de 35 3d 09 a0 59 bd 1e fc f9 bb ab 66 38 3d
       0.044401903 -0.053131137 -0.0076289317 0.045019787
0001e0 54 92 1d bd 69 6e 58 3d 52 46 28 3d a7 0b 80 3c
       -0.038469627 0.05283967 0.041082688 0.015630556
0001f0 ae b3 4a 3c 3c 19 cd 3b 2b 59 fa 3c 69 95 cd 3c
       0.012371941 0.0062591117 0.030560097 0.025095658
000200 c3 67 80 3d cf 83 39 bc 89 e2 44 bc aa 34 de bc
       0.06269791 -0.0113229295 -0.012016901 -0.027124722
000210 d3 8f 75 3d 68 21 2b 3d 03 48 71 3d 8c 9a e9 3a
       0.059951615 0.041779906 0.058906566 0.0017822548
000220 ac e9 1d 3d 2f 25 ba ba 1c bd 0a 3d 81 50 1e 3d
       0.038552925 -0.0014201755 0.033871755 0.038650993
000230 9e 8c 7a 3d 11 cf 67 3b d4 55 89 3c 96 5e 26 3c
       0.06116926 0.0035371224 0.016764559 0.010154387
000240 79 eb ec 3b 5f 5b 83 3c 1a ae 6b 3d 9b bd 98 bc
       0.007230219 0.01603478 0.057539083 -0.018645098
000250 36 f6 29 ba 9b 7d 81 3c ab 20 bb bb dc 36 62 bd
       -0.00064835267 0.015806964 -0.0057106814 -0.0552281
000260 f6 39 80 3c de 4c 5a 3c 03 d3 74 3c db a4 7f bd
       0.015652638 0.013323991 0.014942887 -0.062413078
000270 d8 5f 79 bd 11 64 3c bd 2c ef 19 bd 08 61 3f bd
       -0.06088242 -0.04599387 -0.037581608 -0.046723396
000280 6e f5 cc bc c8 4a b7 3c 9d 0a 1a 3d 36 1c 03 bc
       -0.025019374 0.022374526 0.037607778 -0.0080023315
000290 97 a3 0c 3c 70 35 b0 bc b1 65 c6 3c 5a 03 c4 bc
       0.008583925 -0.021509856 0.024218412 -0.02392738
0002a0 6a b8 a0 bb d8 67 a5 bc 79 20 50 3c 5d f5 93 3c
       -0.0049047964 -0.020191118 0.012703055 0.018061334
0002b0 9d 0b 36 3d da be a5 bb 91 53 05 3d 01 6c 1d 3d
       0.04444467 -0.0050581517 0.0325504 0.03843308
0002c0 25 ff b0 bb 77 08 b1 bc f9 0d 67 bd f3 b2 a0 bb
       -0.0054015093 -0.021610482 -0.05640981 -0.004904145
0002d0 fb a1 3e bc 38 94 55 bd a4 60 26 3c 76 3c 22 3d
       -0.011635299 -0.052143306 0.010154877 0.03960844
0002e0 79 52 22 bd 53 99 f5 3b 96 4d 71 bd bd 3e 49 3d
       -0.039629433 0.0074950843 -0.058911882 0.049132098
0002f0 87 4e d1 3b 74 eb d0 bc 2e 1c be bc cb 8f 87 3c
       0.006387535 -0.025502898 -0.023206796 0.016548058
000300 52 da 78 3d 39 c7 fa 3c 5d b1 07 3d 34 b5 45 3d
       0.06075508 0.030612575 0.03312813 0.048268512
000310 89 aa 53 3d 0c 6a 3f 3d be 79 21 3c 9e d7 d4 bb
       0.051676307 0.046731994 0.009855686 -0.00649543
000320 ea ef 87 3d 37 c8 16 3d f2 3a f3 3c 03 ff 0d bc
       0.06637557 0.036812034 0.029691193 -0.008666757
000330 e5 fc 42 bd 92 3b 87 b9 63 82 8d bc e0 2f 8d bc
       -0.04760446 -0.0002579359 -0.017274087 -0.017234743
000340 af 27 82 bd b1 37 4c bd f7 34 f2 bc d1 e4 72 3d
       -0.06355225 -0.0498578 -0.029566271 0.059300248
000350 e8 a8 7a bb 6f 0e 5f bc 7e a5 05 bd e9 15 9a bc
       -0.0038247649 -0.013614281 -0.03262853 -0.018809276
000360 0c d1 ee bc d6 55 01 bd bf 48 c7 3b d2 42 58 3d
       -0.029152416 -0.031576 0.00608167 0.0527981
000370 af 0d 30 3d 49 5b 7c bd e1 43 1d 3d 04 4d 0b bd
       0.0429818 -0.061610494 0.038394812 -0.034008995
000380 2a 8c 25 bc ff c7 ce 3c ae 9e 20 3b f5 be bc bc
       -0.0101042185 0.02524185 0.0024508643 -0.023040274
000390 ff b8 94 3c 5c 8f 28 3c bd e0 56 3c 95 d2 7d 3d
       0.01815462 0.010288086 0.013115105 0.061968405
0003a0 ba 4e a0 bb 4a 32 89 3c 2b ae 2c ba 38 b7 a4 3c
       -0.0048921974 0.016747613 -0.00065872323 0.020106897
0003b0 e5 05 57 3d 3c d7 a7 bc 22 64 97 3c b4 7e 87 bd
       0.052495856 -0.020488374 0.018480364 -0.066159636
0003c0 4a 6f af bc ae 45 bf bc 1d ba 1c 3c 32 bf 25 bd
       -0.021415371 -0.023348656 0.009565857 -0.04046554
0003d0 e9 37 be bb 63 ea 28 3d fc dc da bc bb dc 8b 3c
       -0.005805005 0.041239154 -0.026716702 0.017073026
0003e0 bc 27 78 bc 49 aa 73 3c 91 f0 23 bd 40 e6 2b bd
       -0.015146192 0.014872142 -0.040024344 -0.04196763
0003f0 a8 73 1e bd fe db 9d bc e4 d4 85 3a 09 a9 a4 3c
       -0.038684517 -0.01926994 0.0010210541 0.020100133

body.4.bias f4 [128]
000000 0e 4b 8d bd fa 2b 49 3d 9b e0 51 bc ac a5 3b bd
       -0.06899081 0.049114205 -0.012809898 -0.045812294
000010 db 54 07 bd 65 3f 8c 3d 3f ea ed bc 95 92 81 bd
       -0.03303991 0.06848029 -0.029042361 -0.063267864
000020 bd 23 1c 3d 77 69 58 3d 82 23 a8 3c 2a c8 02 3d
       0.03812002 0.052834954 0.020524744 0.031929173
000030 4d 39 5f bd 06 0a 87 bc aa 15 66 bc 31 de 5f 3c
       -0.054498006 -0.016484272 -0.014043251 0.013663814
000040 ca c6 19 3d 5c 2e 4e 3d 97 44 4d 3d 60 e9 0a bc
       0.037543096 0.05033718 0.05011424 -0.0084784925
000050 ba 94 fc 3c dc 06 23 bc e5 13 35 3d 87 2f b2 3c
       0.030832637 -0.009950366 0.044208426 0.021751178
000060 e9 11 75 3d 42 ba 31 bd 95 ac a1 bc 31 fd 94 3c
       0.059831534 -0.04339052 -0.019735614 0.018187137
000070 ef 36 37 bc 8f 8b a5 bb dd e4 7a bd 71 ad cc 3c
       -0.011182531 -0.005052037 -0.061253417 0.024985047
000080 e1 86 89 bd 72 3c 12 bd ab fc 64 bd 57 a8 3d 3d
       -0.06715179 -0.035702176 -0.055905025 0.04630312
000090 3d 26 09 3d c5 57 54 3d d8 b2 81 bc 2b 78 d5 bc
       0.033483732 0.051841516 -0.01583235 -0.026058277
0000a0 32 96 79 bc 4e ed 1d bb f3 35 0e bd 9c a6 6d 3d
       -0.015233563 -0.0024097743 -0.03471942 0.05802022
0000b0 ca 13 75 bd 68 2d 04 bd 4e 13 87 ba a9 07 d8 bc
       -0.059833325 -0.032269865 -0.0010305436 -0.02637084
0000c0 94 da 52 3d 6a 36 bf 3b 4d 36 be 3c f2 09 dc bc
       0.051477984 0.005835344 0.023219252 -0.026860211
0000d0 17 a5 78 bd 9d 6f b7 3c c4 51 8f 3c 2b 23 00 3d
       -0.060704317 0.022392089 0.017495044 0.03128354
0000e0 4d 5d 0f 3c ff 14 e4 bc 58 a3 ec bc e0 7d 53 3d
       0.008750272 -0.027842043 -0.028886482 0.051633716
0000f0 ce 14 1f 3d a7 05 08 bd 77 8b 2b 3d 48 e1 6e bd
       0.0388382 -0.033208515 0.04188105 -0.058320314
000100 c1 bb 02 bd 4e d2 c3 bc f8 56 3a bd 44 ca 58 3d
       -0.031917337 -0.023903992 -0.045493096 0.05292727
000110 52 28 48 bc 08 9f 73 bd ab 20 85 3c c5 e6 11 bd
       -0.012216644 -0.059477836 0.016250929 -0.03562047
000120 d7 30 75 3d e2 67 32 3d 95 85 26 bd dc 43 87 bd
       0.05986103 0.0435561 -0.040654738 -0.0660474
000130 ed bc 74 3d 1e 9a ce 3c 83 72 57 3c bc 55 ef bc
       0.059750486 0.025219973 0.01314986 -0.029215686
000140 74 df 3a 3d ad 85 28 bd 27 b5 88 bd a5 bb 65 3d
       0.045623258 -0.04114311 -0.06675177 0.056087155
000150 82 93 7b 3b 88 cb 02 bd 80 16 27 3d 08 ea cc bc
       0.0038387482 -0.031932384 0.040792942 -0.025013939
000160 77 67 54 bb 32 7f ec bc 34 c8 6f bb 35 1c 61 bd
       -0.0032410303 -0.028869245 -0.0036587836 -0.05495854
000170 fa 54 f1 3c ee a0 55 bd 80 a2 9e bc da 79 9b 3c
       0.029459465 -0.052155428 -0.019364595 0.018979002
000180 c4 e3 3f 3d 4c ef cd bb 81 6e c2 bb 3d 74 0c 3d
       0.046848074 -0.00628463 -0.0059335832 0.03429054
000190 33 ff eb 3b a4 18 25 3d b3 2c 84 bb 74 f1 80 3d
       0.007202053 0.040306702 -0.004033649 0.062960535
0001a0 71 5b 94 3c 17 f0 b2 3c b5 3e f8 bb 62 13 f7 bc
       0.018110009 0.021843 -0.0075758346 -0.03016061
0001b0 63 5c 05 3c 0b b4 51 3d 80 6c 0a bd 98 54 b5 bc
       0.0081397025 0.051197093 -0.03379488 -0.022135064
0001c0 e8 69 0a 3d 64 2b 71 bd aa 41 a8 3c c0 85 1d bd
       0.033792406 -0.05887927 0.020539124 -0.038457632
0001d0 9c 8f f6 bc 50 01 5f 3d 78 bb 07 bd f4 93 26 bd
       -0.030097775 0.05444461 -0.03313777 -0.040668443
0001e0 95 a0 51 3d 7a ff 1c 3d 01 39 ba bb 40 14 53 3d
       0.051178534 0.03832958 -0.005683065 0.051532984
0001f0 2e bd e3 bc 6a 47 70 3c 20 10 07 bd 25 47 2a bd
       -0.027800169 0.014665464 -0.032974362 -0.041571755

move_head.weight f4 [5, 128]
000000 1a c6 88 bd ff aa d0 bc ec 50 a4 3d e2 77 74 3d
       -0.0667841 -0.025472162 0.08023247 0.05968464
000010 5c 9c 0d bd d1 0c 70 bc fc 44 9f bd 8d 48 eb 3c
       -0.034572944 -0.014651493 -0.077768296 0.028721118
000020 00 00 7a bd 7d 2f cf 3c 3d 43 01 bd f1 19 d8 3b
       -0.061035156 0.025291199 -0.031558264 0.0065948893
000030 cc 18 9b bd cb b4 41 3d 05 0f a6 bd c4 c4 5b 3d
       -0.07573089 0.04729156 -0.081083335 0.053654447
000040 aa f7 a5 bd bf 6e 99 bd d1 77 8a 3d 96 65 fb 3c
       -0.08103879 -0.07491826 0.067611344 0.030688088
000050 9f b3 82 3d aa 80 5e 3d 70 61 74 3d ee 2b 80 bb
       0.06381916 0.054321922 0.059663236 -0.003911487
000060 91 70 b7 bd ca 96 56 3c dd 95 74 bd d0 f7 10 3d
       -0.08957017 0.013097474 -0.059713233 0.035392582
000070 6e 16 70 3d f4 c7 4c 3d c7 24 ab 3c 33 94 8e bd
       0.05861514 0.049995378 0.02089156 -0.069618605
000080 7b 3b 0e 3c 41 93 1f bd 12 4d a7 3d 9c f2 9c bc
       0.008681173 -0.03895879 0.08168997 -0.019158654
000090 8d e3 36 3d 54 0f 50 bc f5 f9 7a bd 61 fa 86 bd
       0.044650603 -0.012698967 -0.061273534 -0.06590725
0000a0 b7 18 9a 3d 82 21 17 3d 72 64 55 bd 0c fe ae 3c
       0.07524245 0.03689719 -0.052097745 0.021361373
0000b0 fb 9b a0 bd ce 3f fa bc 6e b7 f9 bc b1 ed 58 bd
       -0.07842251 -0.030548003 -0.030482974 -0.052961055
0000c0 7c fa 93 3d 37 54 bf bc ab 78 46 3d ae de 88 bd
       0.072255105 -0.023355586 0.04845492 -0.06683098
0000d0 54 7a 26 3b ed be db bc 39 87 5c 3d 62 bb cc 3c
       0.0025402503 -0.026824439 0.053839896 0.024991695
0000e0 1b b7 a3 3d eb 90 a8 bd 9d 67 ac 3d b7 eb 50 bc
       0.07993909 -0.08230766 0.084182 -0.012751511
0000f0 32 fe 71 bc 7b e4 58 b9 44 ce 8f 3d 41 02 89 3d
       -0.014770078 -0.00020684481 0.07021764 0.06689883
000100 99 a9 5a 3c b8 65 71 bd 27 ba 27 3d 44 59 8f bd
       0.013346099 -0.058934897 0.040949013 -0.06999448
000110 f0 6b a7 3d 18 83 cd 3c e8 e8 34 bd 60 e4 49 bc
       0.08174884 0.025086924 -0.04416743 -0.012322515
000120 dc c9 97 3d b4 a7 8d bb 40 f5 5e 3d 43 c2 ca 3b
       0.074115485 -0.0043229703 0.054433107 0.0061877086
000130 5d 41 08 3d b5 4b b9 3b d1 72 40 bc ee 42 78 bd
       0.03326546 0.005654777 -0.011746124 -0.060610704
000140 55 2a 29 3d 36 2a 87 3d 92 5a 15 3d df 84 9e 3d
       0.041300137 0.06599848 0.036463328 0.07740187
000150 07 79 22 bd b3 2f 98 bc 99 d8 80 bb 3d 31 5d 3d
       -0.039666202 -0.018577432 -0.0039320705 0.054002035
000160 c8 f6 61 3d 8f e1 34 bd 49 ef a4 bd 8a 8a 97 3d
       0.05516699 -0.044160422 -0.080534525 0.07399471
000170 fb d8 a9 bd 0c 53 4d 3d fe 7b 77 3c c4 14 ca bb
       -0.08293339 0.050128028 0.015105246 -0.0061670262
000180 6b 8f 96 3b 13 91 55 bd 88 ff fb 3c 6f 09 82 3d
       0.0045947335 -0.052140307 0.030761495 0.063494556
000190 17 7a 1c bd c1 99 1f 3a 7a db a6 3d e6 e2 6a bd
       -0.03820237 0.000608828 0.081473306 -0.057345293
0001a0 97 4e c2 3d 9e 94 d6 3c ac 9c 19 3d 1f 5a a2 3d
       0.09487646 0.026193913 0.03750293 0.079273455
0001b0 a3 63 b7 3d 6d b9 1b bd f8 df 7c 3c cc 92 34 bd
       0.08954551 -0.038018633 0.015434258 -0.04408531
0001c0 22 b3 9e bd cf b1 a9 3d 07 66 10 3d e9 f8 09 3c
       -0.077490106 0.082858674 0.03525355 0.008421161
0001d0 cf 52 af 3d e0 86 69 3d ae 27 a6 bd 3f de e4 3c
       0.08560716 0.057013392 -0.08113037 0.027938006
0001e0 a9 ff 8b 3c d5 b6 fc 3a d4 89 8e bd 9b 5d 8e 3d
       0.017089682 0.0019280562 -0.069598824 0.069514476
0001f0 a7 d2 8c 3d 8c 99 16 3d f9 7f 98 bc f5 3b a0 3c
       0.06876116 0.036767527 -0.01861571 0.01955984
000200 f9 b3 8b 3d 14 d7 7c 3b bb c6 a4 bd 2a e4 71 bd
       0.068214364 0.0038580345 -0.08045717 -0.059055485
000210 b8 3b a7 bd a0 d6 79 3d 12 31 91 3c 6e 42 62 bd
       -0.08165687 0.060995698 0.017723594 -0.055239134
000220 2d 29 8e 3c 9b c2 6d bc 78 6e ba 3c 88 7b 48 bc
       0.017353619 -0.01451173 0.022757754 -0.012236483
000230 ff f1 03 bd ff 93 95 bc 59 69 05 bc 76 68 42 bb
       -0.032213207 -0.018259047 -0.008142793 -0.0029664314
000240 40 c2 a3 3d c8 9a 71 bd 81 f7 f6 3c a5 1c a5 bd
       0.079960346 -0.0589855 0.030147316 -0.08062104
000250 80 ae 0b bd 37 ae 98 3d 1f 0f 60 bd 26 26 fb b9
       -0.034101963 0.07455104 -0.05470192 -0.00047902873
000260 4c 85 d0 bc 68 41 9d bd e4 c0 63 3d 07 f9 88 3d
       -0.025454186 -0.07678491 0.055603877 0.06688123
000270 c1 15 c1 3d b9 e4 a1 3a 74 b1 44 3d a9 85 c6 bb
       0.09427977 0.001235149 0.048020795 -0.006058414
000280 ec 40 7a bd e1 f8 72 bb 93 b7 80 3d 95 92 c5 3c
       -0.06109707 -0.0037074613 0.06285014 0.024117747
000290 77 d1 7d bc 08 61 2a 3d f8 f3 03 bd 8e b9 e4 bc
       -0.015491835 0.041596442 -0.03221509 -0.02792051
0002a0 43 a4 b1 bd 0f dd 0a bd 43 55 86 bd 94 49 90 3d
       -0.086739086 -0.033902224 -0.06559231 0.07045284
0002b0 7a 5b f8 bc 38 d2 89 bc c6 73 9c ba 41 a6 31 bd
       -0.030317057 -0.016823873 -0.0011936359 -0.043371443
0002c0 04 e4 5e bd 78 ec 58 bd ec a9 ce 3d ea 38 aa bd
       -0.05441667 -0.05295989 0.10091004 -0.08311637
0002d0 d1 10 ac 3b c0 00 45 3d ba cd 51 bd 0f d3 1a 3d
       0.005251028 0.04809642 -0.051221587 0.037798937
0002e0 db 49 23 bd 23 a4 61 bd 62 a4 24 bd 4b 32 f6 3c
       -0.039865356 -0.055088174 -0.04019583 0.030053278
0002f0 7c 79 a1 3d 8e 73 89 3d 06 b8 95 bd 0c 66 51 3d
       0.078844994 0.067114934 -0.0731049 0.05112271
000300 40 b6 83 bd ae 88 b1 3d e1 51 18 3d 3e a9 38 bb
       -0.06431246 0.08668648 0.03718746 -0.0028177048
000310 dc 9b 03 3d 35 44 8d bd b8 49 13 3d 0f 62 04 3d
       0.03213106 -0.06897775 0.035958976 0.03232008
000320 92 22 82 3d 96 e9 49 bd 0f 60 8f 3c 69 d7 6b bd
       0.0635425 -0.04929503 0.017501859 -0.057578478
000330 63 cb 89 3d 5b d9 30 3a 6b 99 1b 3c 32 6b a9 3d
       0.06728246 0.00067462557 0.009497027 0.08272399
000340 3b f4 16 bd c5 bb 41 3d cb 6d 19 bd b9 99 9f 3d
       -0.03685401 0.04729821 -0.037458222 0.07792992
000350 48 ef 33 3c f2 95 00 bd 4e 16 83 bc 75 e9 be 3d
       0.010982342 -0.031393 -0.016001847 0.09321872
000360 79 27 cc bb b3 e0 05 bc 1d c8 b9 3d 9f e2 be bc
       -0.0062302914 -0.008171248 0.09071372 -0.02330142
000370 50 55 43 b8 d3 c2 99 3d f0 b4 e4 3c 6b ca af bc
       -4.6571076e-05 0.07507863 0.027918309 -0.021458825
000380 6f fd fb bc 49 51 99 3c 13 42 36 bd 2b 40 47 3c
       -0.030760495 0.018715518 -0.044496607 0.012161295
000390 b8 74 1d 3d 1d 93 fd bb 19 6d 9e 3c 34 c7 44 bd
       0.03844139 -0.0077384845 0.019339131 -0.048041537
0003a0 65 60 c0 3c 9c 4e 4e 3d 7e 4d 7d bd 40 10 b1 bd
       0.023483464 0.050367936 -0.06184148 -0.086456776
0003b0 8d bb 83 3d 57 99 34 3d 9f b8 96 3d d9 af 5b bd
       0.06432257 0.04409155 0.073594324 -0.0536345
0003c0 26 7b 03 bc 91 85 07 bd 5c 8a b4 3d 1f a7 90 3d
       -0.008024966 -0.033086363 0.088154525 0.07063126
0003d0 f9 ef 7a 3a 8b 73 5a 3d 78 7a 94 3d 21 e7 5b 3d
       0.0009572502 0.053332847 0.072499216 0.05368722
0003e0 8b 04 67 3d 3a 0c 18 bb 6e 56 02 3c 05 3d 0f 3d
       0.056400817 -0.0023200647 0.007955177 0.034970302
0003f0 80 aa 9f bd ad 1d 98 3d 08 db 92 bd f0 47 54 3d
       -0.07796192 0.07427535 -0.07170683 0.051826417

move_head.bias f4 [5]
000000 e1 85 e3 bb 54 dc a3 bd 05 c8 93 3c 32 80 b5 bc
       -0.00694345 -0.08001009 0.018039713 -0.022155855
000010 2a 90 96 bd
       -0.07351716
