checkpoints/simple_world_comm_v3_transfer/simple_world_comm_v3_agent_0_ep75.pt (torch, 431097 bytes, 8 tensors)

body.0.weight f4 [256, 28]
000000 2e 1a e0 3d 8e 51 70 bc 9c 26 05 3e 60 b5 f4 3d
       0.109424934 -0.014667882 0.1300301 0.11948657
000010 b6 b2 2a 3e 50 ee 1b 3e cd 9a a8 bd e2 a6 1c 3e
       0.16669735 0.15227628 -0.08232651 0.15298036
000020 fd 68 27 be f3 f8 27 bd 87 80 3f be a2 25 12 3e
       -0.16348644 -0.0410089 -0.18701373 0.14272168
000030 68 62 a8 bd b4 11 61 3d 3d fa 35 be 36 64 89 3d
       -0.082218945 0.054948524 -0.1777124 0.06708567
000040 46 a3 83 3d 3b 46 2f be e0 a9 d0 3a 6f 5f 0a 3e
       0.06427626 -0.17116635 0.0015919767 0.13512968
000050 5f bd 01 bd eb 6f ef bc 6d 66 82 bc 0e c1 2a 3e
       -0.03167474 -0.029228171 -0.015917981 0.16675207
000060 cf 15 39 bd e9 73 e2 3d e0 55 32 3e fc e8 1b bd
       -0.045186814 0.11057264 0.17415571 -0.038063988
000070 86 de 6c bb 26 bb d6 3d 09 a1 e1 3c d3 7c db bd
       -0.0036143376 0.104849145 0.027542608 -0.10717168
000080 62 ef e4 3d 59 eb 9a bd 25 13 4e 3d 09 7f 58 bd
       0.11178471 -0.0756442 0.050311226 -0.052855525
000090 fe ea 6a 3d b8 b8 85 3c 79 59 7b 3d 80 fe 2a be
       0.057353012 0.016323432 0.061364625 -0.16698647
0000a0 b5 3a 38 3e 4c 73 f4 3d 78 5b 4f bc 36 e2 81 bd
       0.17991145 0.11936054 -0.012656085 -0.063419744
0000b0 9f 61 bf bc 7f 61 90 3d 04 ec f4 3d d2 f2 37 be
       -0.023361979 0.07049846 0.11959079 -0.17963722
0000c0 73 b7 b9 bd 54 f4 b0 3d 27 a4 45 3d 72 4b 8d 3d
       -0.09068193 0.08640352 0.04825225 0.06899156
0000d0 65 d2 35 3d 63 65 97 bd 23 24 64 3d 36 62 e5 bd
       0.0443901 -0.07392385 0.055698525 -0.11200373
0000e0 4f 24 23 3e dd 61 d5 bb b1 46 99 3d a7 a7 e2 bd
       0.1593182 -0.0065119104 0.074841864 -0.110671334
0000f0 be 29 28 be 5e 73 4a bd 71 94 e1 bd d9 02 b6 3d
       -0.16422173 -0.04942643 -0.11014641 0.08887262
000100 ce a5 2f 3e 71 fe ca bc 79 22 a8 3d b3 49 0c be
       0.17153093 -0.02477953 0.082097 -0.13699989
000110 60 20 fc 3d d5 3e 08 be 0a a3 9b bc 8a c0 96 bd
       0.123108625 -0.13305219 -0.018998642 -0.07360943
000120 08 90 c7 3c 0b e7 07 be 33 d5 0a bc bc 0e 4e bd
       0.024360672 -0.1327173 -0.008473682 -0.05030702
000130 c0 8b 3a b8 60 aa 1a be ed 2f 38 3d e9 13 7d 3a
       -4.4476008e-05 -0.15104055 0.04496758 0.0009654151
000140 91 f8 d9 3d cc 87 20 be 89 f2 fe bd be 05 04 3e
       0.106431134 -0.15676802 -0.12448604 0.12892815
000150 54 77 e0 bd cb 26 0b bd b9 35 b3 bd 5b d6 c1 bd
       -0.1096026 -0.033972543 -0.08750481 -0.09464713
000160 da b4 07 be 5b 07 da 3d c7 ba 18 3e 92 64 e6 3d
       -0.13252583 0.10645934 0.14915 0.11249651
000170 b1 b4 86 bc 20 2c 31 bd 93 90 0c bc 96 f9 c6 3d
       -0.016443582 -0.04325497 -0.008579391 0.097155735
000180 47 5b 17 bd c7 76 6f 3d d7 52 23 3d f0 1c 29 be
       -0.036952283 0.058462884 0.039873924 -0.16514945
000190 bb e6 c1 3c 0c b2 12 be 41 d5 f9 bd f3 72 20 be
       0.023669591 -0.14325732 -0.12198878 -0.1566885
0001a0 2f 8d 37 3d 9f 7c 1d 3d 77 d9 ef bc 11 2f e7 bc
       0.044812378 0.038448926 -0.0292785 -0.028220685
0001b0 bd 13 1d be 45 d4 40 3e e5 8b c6 bd 5a fb c7 bd
       -0.15339561 0.18830974 -0.096946515 -0.097647384
0001c0 a3 88 2b be 52 53 0c 3c d6 d0 b6 3c a0 bb 9b 3d
       -0.16751342 0.008564787 0.022316378 0.07604146
0001d0 4e 46 87 3d 14 85 f5 3d b9 8b a0 bd f7 23 c3 bd
       0.066052064 0.11988273 -0.0783915 -0.09528344
0001e0 79 3f 1c 3e 8f 0e 82 3d a2 67 e3 bd 9b ce 30 bc
       0.15258588 0.06350433 -0.11103751 -0.010791446
0001f0 b3 53 3f 3e 42 15 26 be 2a 00 92 bd e9 ed cd bd
       0.18684272 -0.16219047 -0.071289375 -0.100551434
000200 75 57 0a 3e 09 af 7e 3c 02 94 33 3e df 68 2f 3d
       0.13509925 0.015544661 0.17536929 0.042824622
000210 6e 22 f4 3d cd 8a b1 bd 35 d5 c0 bd 74 ac eb 3d
       0.119206294 -0.08669052 -0.09415666 0.11507502
000220 bf 8d ae 3d ca 5e 07 3e c3 2d 2b bd 52 a3 e8 bd
       0.0852313 0.13219753 -0.04179169 -0.11359276
000230 76 37 fb bd 3f 6f a1 bd 0b fc 45 bd ae 94 1f 3e
       -0.12266438 -0.07882547 -0.04833607 0.1558406
000240 27 36 35 3e 8e 9d 50 3d fc 40 20 3e 26 4b 6c 39
       0.17696439 0.050931506 0.1564979 0.00022534709
000250 c9 3e 27 3c 3d ff 87 3d 77 b7 30 be d0 9d d5 bc
       0.01020784 0.0664048 -0.17257486 -0.026076227
000260 6a 4e 13 3d c4 56 28 3d 2d ab 7c bd bd f3 36 3e
       0.035963453 0.04109837 -0.061686683 0.17866416
000270 a7 62 ac 3c df ae b8 bd eb 2b 97 3d 3c 92 86 3d
       0.021043135 -0.09017729 0.073814236 0.06570861
000280 31 10 a8 3c 3d dd d1 3d ed 25 eb 3d 3b cb 36 3e
       0.020515533 0.10247276 0.11481843 0.17850964
000290 53 7a 9b bc c7 a5 80 3d 88 a3 9c 3d 3f e4 21 be
       -0.018979227 0.062816195 0.076483786 -0.15809725
0002a0 93 2a fc 3a d0 dc cc 3d 30 74 0d 3e 7d 52 10 3e
       0.0019238762 0.10003054 0.13813853 0.14093967
0002b0 93 19 b7 3d 78 20 5a bd b3 9c 81 3d ed 9b 07 3e
       0.08940425 -0.05325362 0.06328716 0.13243075
0002c0 43 8f 94 bd ee 6f cd bb 4f 78 7c bd 49 2f c3 bd
       -0.072538875 -0.0062694466 -0.061638173 -0.09530503
0002d0 51 4c 93 bd 7e 89 37 bd b3 c2 de bd 3c 45 aa 3b
       -0.071922906 -0.044808857 -0.1087698 0.0051962417
0002e0 1f cd fd 3d 18 66 b2 3d 1e 94 74 bd f0 a9 97 3d
       0.12392639 0.08710879 -0.059711568 0.0740546
0002f0 df 22 82 bc f4 60 0f 3d 2b 3b 36 bd 29 51 12 be
       -0.015885768 0.03500457 -0.04449002 -0.14288773
000300 16 9f bc bd d4 40 a5 3d 8d a6 34 3e 40 55 9f 3d
       -0.09210031 0.080690056 0.17641659 0.07779932
000310 d6 eb 1d 3e aa e5 6d 3c 93 2e d8 bd be ba 94 3d
       0.15421996 0.014520088 -0.10555758 0.07262181
000320 f1 69 8f bd dc c8 f4 bc 1d 8f bd bd 7f 4e a6 3d
       -0.070026286 -0.029880933 -0.09255812 0.08120441
000330 7f e0 06 bd 4c cf 72 bc f6 a2 97 3d 13 a2 b3 3d
       -0.03292894 -0.014819931 0.07404129 0.087711476
000340 59 64 29 3e a4 7d 06 be bf c8 bb 3b 9c 39 32 be
       0.16542186 -0.13133866 0.005730718 -0.17404789
000350 81 04 9b 3d c5 88 d4 bd 78 79 8c bd 63 59 4b 3c
       0.075692184 -0.10377649 -0.06859106 0.012411448
000360 ab c5 af 3d 35 ad 23 3e 8e b7 a0 bd 86 b7 73 bd
       0.08582624 0.15984042 -0.0784751 -0.059501193
000370 83 d8 1c 3e 08 28 05 3e f9 e2 97 bc aa f1 df 3d
       0.15316968 0.13003552 -0.018540846 0.10934766
000380 7d 26 9e bd ea 99 03 be a2 3d 19 be 88 3c 06 be
       -0.07722185 -0.12851682 -0.14964917 -0.13109028
000390 5b 44 ab 3d f5 87 77 bd db 1b 7f bd 68 43 a7 bd
       0.08362647 -0.060432393 -0.062282424 -0.081671536
0003a0 50 a8 a6 ba 2b b5 28 be 1e 87 0f 3e 94 54 25 3e
       -0.0012714956 -0.1647536 0.14016387 0.16145545
0003b0 f3 99 7a 3d 47 3e af bd de f7 20 be 3f e7 82 bd
       0.061181974 -0.085568 -0.15719554 -0.06391763
0003c0 f3 95 ba 3c 3c fc 36 3e e3 af ef 3d 24 ff 3c 3a
       0.02277658 0.17869657 0.117034696 0.000720965
0003d0 73 83 52 bd 0a 36 8a 3c f6 8e d9 bd d3 d7 ee 3d
       -0.05139489 0.016871471 -0.10622971 0.11662259
0003e0 88 37 e3 3d ff 6a 0c be ca a3 63 3d ab 35 12 be
       0.11094576 -0.13712691 0.055576123 -0.14278285
0003f0 38 dc 21 3e 06 f5 10 3e 6f 76 86 bc a7 34 ec bd
       0.15806663 0.14155969 -0.016413895 -0.1153348

body.0.bias f4 [256]
000000 fb 98 6a bd 13 35 2d be 03 38 ae bd 1e 96 b3 bd
       -0.0572748 -0.16914777 -0.08506777 -0.08768867
000010 1b 50 17 3e 80 94 ea bd 93 d9 47 3d f0 5a 6e 3c
       0.14776652 -0.114541054 0.04879148 0.014548048
000020 ea 8b cf bd db 7e 88 bd 4e 77 f1 3d ce 23 e1 3d
       -0.10134108 -0.06664821 0.11790334 0.10993157
000030 13 81 ea 3c 5d 88 b6 bb 02 10 52 bd 86 87 ee bd
       0.028626 -0.005570455 -0.051284797 -0.11646943
000040 b6 f9 15 bd 64 19 0a 3d 2b 15 72 3d 79 05 06 3e
       -0.036615096 0.03371562 0.05910222 0.13088025
000050 45 24 bc 3c ce 95 df 3d c9 fd c2 bd 44 54 37 3e
       0.022966513 0.10917245 -0.09521062 0.17903239
000060 2e 18 25 3e 1b 84 35 3e f8 a7 e1 bb 93 ba c7 bd
       0.16122505 0.17726175 -0.0068864785 -0.09752383
000070 0c 19 95 bd 0c 50 02 bd 89 ac 19 3e d0 5a 22 3c
       -0.07280168 -0.03181462 0.15007223 0.009909347
000080 85 f9 f4 bd ad c9 2f 3e 57 eb 33 bd e1 ed 63 bd
       -0.119616546 0.17166777 -0.04392561 -0.05564678
000090 e6 4d d8 bd eb 76 97 3d 0c d9 0f be 85 a7 94 bd
       -0.10561733 0.07395729 -0.1404764 -0.07258514
0000a0 5b f4 ad bd c8 20 fc bd 08 36 88 3d c6 7e 2f be
       -0.08493873 -0.1231094 0.06650931 -0.17138204
0000b0 30 27 de 3d f7 04 96 bc cd 46 83 bb 81 00 cd 3d
       0.10847318 -0.018312914 -0.004006243 0.10009862
0000c0 c6 1f 1c 3e 4d 15 d2 3d 24 90 31 be 5c ba 0b bc
       0.15246496 0.10257969 -0.17340142 -0.008528318
0000d0 e4 42 7f 3c af c3 3b be de 60 7e bd 72 ad 07 be
       0.015579913 -0.18336366 -0.0621041 -0.13249758
0000e0 29 76 12 3e 52 89 6c bd 00 62 2a bd a6 af 54 bd
       0.14302887 -0.057748146 -0.041597366 -0.051925324
0000f0 4c 8c 31 3e 0e 76 34 be 75 2e e9 3d 6f 0d 17 3e
       0.17338675 -0.1762316 0.11385814 0.14751218
000100 96 a0 10 3e a3 ed b7 bd ba 77 19 3e 19 b7 fc bd
       0.14123759 -0.089808725 0.14987078 -0.123396106
000110 35 ca 4c 3d 68 aa 35 be 2e 58 7e 3d c1 1f 1f 3e
       0.049997527 -0.17740786 0.062095813 0.15539457
000120 5c 18 00 be dc c0 bf 3d f0 35 0c 3d 76 81 0e 3e
       -0.12509292 0.09362957 0.034231126 0.13916573
000130 60 d8 01 3d 48 2b c6 bd 84 3b 84 3d 6b 4c 10 be
       0.031700492 -0.09676224 0.06456664 -0.14091651
000140 9c d4 04 3e 2d c9 53 3d 9e 1c 00 3e b0 b1 41 3c
       0.12971729 0.051705528 0.12510917 0.011822149
000150 ff c1 c4 3d 8f 2b 31 be 14 3e 11 3d 69 9c bc 3d
       0.09607314 -0.17301773 0.035459593 0.0920952
000160 af b7 2b be 36 de 08 be 21 be 18 be ab e3 8e 3c
       -0.16769288 -0.13366017 -0.14916278 0.017442545
000170 5f ce c3 bd b3 a7 26 be 79 ff 91 bd e8 86 fc 3b
       -0.095608465 -0.1627491 -0.07128806 0.0077065118
000180 7e 65 9b bd dd b0 2a 3e 64 b2 18 be 7b 35 f9 3c
       -0.075877175 0.1666903 -0.149118 0.03042101
000190 14 0b f8 bc d4 1e 83 bc d7 17 12 3d 7e 08 9a bd
       -0.03027872 -0.016005911 0.035667267 -0.07521151
0001a0 a8 b3 61 3d b2 df 90 3a c7 d4 96 bd 28 66 f9 bd
       0.055102974 0.0011052995 -0.07364803 -0.12177688
0001b0 d5 2a 3c 3e 22 04 62 bd e3 ac a8 bd 5d 3e b9 3d
       0.18375714 -0.055179723 -0.082361005 0.09045098
0001c0 f1 ef 18 bd a3 eb 34 3e 4f b7 c2 3d 3d c1 22 be
       -0.0373382 0.17668013 0.095076196 -0.15894027
0001d0 e2 76 fa 3d a8 41 41 be 96 1e 0d be ec a8 45 3b
       0.12229706 -0.18872702 -0.13781199 0.00301605
0001e0 c3 dc eb 3c ea 65 2f be 59 1c a2 bd e4 c0 10 be
       0.02879179 -0.17128721 -0.07915563 -0.14136082
0001f0 d0 bb de bd 20 c1 9a 3d 4f 30 2d 3d a9 57 23 bd
       -0.10875666 0.07556367 0.0422824 -0.03987852
000200 2a 8b 8c 3c 8c 69 15 3e 21 d9 27 be 02 b5 13 be
       0.017156202 0.14591044 -0.16391422 -0.14424518
000210 8e 1c 39 3d dd f2 f4 3d 08 14 89 bd 04 48 92 3d
       0.045193247 0.11960385 -0.06693274 0.07142642
000220 b5 20 21 be c5 c5 95 bc aa 58 24 3e 34 cf 2f 3e
       -0.15735133 -0.01828278 0.16049448 0.17168885
000230 14 fa 24 3e c5 50 3e be ff 71 dd bd bf 40 14 3e
       0.16111022 -0.18585499 -0.10812759 0.14477824
000240 f6 81 26 be 18 d1 cb bc 34 7c 49 bd ee f0 ad 3d
       -0.16260514 -0.024879977 -0.049190715 0.08493219
000250 3e 66 f1 bd a9 51 e1 3d a8 6b 21 3d ff e4 c7 ba
       -0.11787079 0.110019036 0.03940931 -0.0015250741
000260 59 e7 a3 bd 41 26 09 3e c2 01 16 bd b9 6d 23 bd
       -0.080031104 0.13393499 -0.03662277 -0.03989956
000270 2b dd 71 bd 09 75 f9 3d bf f2 0f be d4 b2 a7 bd
       -0.059048813 0.12180526 -0.14057444 -0.08188406
000280 b5 f1 bf bd c6 07 d6 3d 8b 5f 42 3c be 9c ec bc
       -0.09372274 0.104507014 0.0118635995 -0.028883334
000290 6b 2e 1e be d5 15 12 3e cf 73 07 3e 49 7d 3e be
       -0.15447395 0.14266141 0.13227771 -0.1860248
0002a0 a1 b4 9a bc 42 b8 37 be a3 86 e3 3c 0e 55 8e 3d
       -0.018884959 -0.17941383 0.02777416 0.06949817
0002b0 ed 53 6f bc 9f 69 08 bc ba 61 32 3e 00 29 fd 3d
       -0.014607412 -0.008325963 0.17420092 0.12361336
0002c0 65 17 98 3d 4e 02 12 be 60 7e 09 bd 45 ae 3b be
       0.07426337 -0.14258692 -0.033567786 -0.18328197
0002d0 60 e3 ba bd c6 5f c6 bb f5 66 68 3d b1 c1 10 3e
       -0.091253996 -0.0060538976 0.056738812 0.14136387
0002e0 6b 6a 9f bd b0 da e6 bc d3 c6 23 3e 58 3a e8 3b
       -0.077839695 -0.02818045 0.15993814 0.0070870332
0002f0 b0 4c 19 3e 05 23 d0 3d 63 f9 44 3e 3e ef 3d be
       0.1497066 0.101629294 0.19235758 -0.18548295
000300 bb 75 84 3c 21 92 cf 3d 25 dd bc bc 16 44 3a be
       0.01616942 0.10135294 -0.023054669 -0.18190035
000310 e4 f2 95 3d b4 66 38 3e a1 d8 29 be 99 cc 22 be
       0.07321718 0.18007928 -0.16586544 -0.1589836
000320 28 fb 01 3e 82 ce 29 bd ba 58 28 3e 9d ba c1 3d
       0.12693465 -0.041456707 0.16440096 0.09459422
000330 d7 0c 1d 3d de bc 1d 3e 9f 35 f2 bd 95 69 8d 3d
       0.038342323 0.15404078 -0.11826634 0.06904904
000340 80 69 28 3b 28 09 dc 3c 72 70 43 be 6e 97 b9 3d
       0.0025697649 0.026859835 -0.19085863 0.09062086
000350 bc d8 ff 3c 13 22 fc 3d 29 78 b7 3d ce 6d ce bc
       0.031231277 0.12311187 0.089584656 -0.025198843
000360 6f 4d ef bd 6d 8b 0a 3e 6e 38 15 bd a6 a9 c6 3d
       -0.11684691 0.13529749 -0.03643077 0.097003266
000370 10 36 12 3d 61 37 2e be a5 80 3a be 11 5a 54 3b
       0.03569609 -0.17013313 -0.18213136 0.0032402317
000380 77 b1 34 3e bd c0 f4 3d d8 00 f0 3d c2 6e 20 be
       0.17645822 0.119508244 0.11718911 -0.15667251
000390 89 3c 5b 3d 44 e0 7a 3d aa ae e4 3d ed a4 2a 3e
       0.053524528 0.061249033 0.11166127 0.16664477
0003a0 7d 60 23 3d e7 3a 1c 3e e4 ba d3 bd 68 04 41 3d
       0.03988694 0.15256844 -0.10338381 0.047123343
0003b0 7c c7 04 3c b0 b0 d6 3d 68 94 ae bd 0d 28 62 ba
       0.008104201 0.10482919 -0.085244 -0.0008627184
0003c0 62 8f 29 be 1c 53 17 3e a1 2d a8 bd 6d 19 14 be
       -0.16558602 0.14777797 -0.08211828 -0.14462824
0003d0 41 e5 16 be 5c f2 2d 3d 67 ec 62 bd ae 88 03 3e
       -0.14735891 0.04246746 -0.055401232 0.12845108
0003e0 e5 91 00 3e f5 cd a8 3d b0 41 1a 3e 17 99 2b be
       0.12555654 0.08242408 0.1506412 -0.16757618
0003f0 8f 75 30 bd d5 15 c8 3c 19 7d 3d be 3d 3d 29 3e
       -0.043080863 0.024424473 -0.18504752 0.16527267

body.2.weight f4 [256, 256]
000000 27 71 4e 3c b0 f4 31 bd 26 28 09 3d 23 5e c9 bc
       0.01260022 -0.043446243 0.033485554 -0.02458102
000010 6d 91 56 3c 24 25 b7 bc 06 10 84 bc d0 98 3e 3d
       0.013096196 -0.022356577 -0.016120922 0.046532452
000020 75 f9 69 bc 57 ce 4e bd 63 ee 2e bd 09 10 42 3d
       -0.014280667 -0.05048975 -0.042707812 0.047378574
000030 69 b1 3e bd f1 5f 9c bc 26 5c 91 bc 42 bd 12 3d
       -0.04655591 -0.019088717 -0.017744135 0.03582502
000040 19 db 2a bb c5 08 c6 bc 34 da 58 bd d6 82 f4 bc
       -0.0026070534 -0.024174104 -0.05294247 -0.029847544
000050 f5 63 ee 3c 05 82 e6 bc a1 a5 3c bd f3 d1 28 bd
       0.029100398 -0.02813817 -0.046056394 -0.04121585
000060 86 78 1c bd 37 40 5f bc 57 a4 f7 bc fc fc 99 bc
       -0.038200878 -0.01362615 -0.03022973 -0.01879739
000070 1e 37 53 3d e4 8e 33 3d a8 1f 5e bc 69 02 45 bd
       0.051566236 0.043837443 -0.013557352 -0.048098
000080 a5 29 d9 bc e9 45 b9 3c 4f 0b 04 bd b6 52 cc 3c
       -0.026509115 0.022616344 -0.032237347 0.024941783
000090 01 ac 5d bd 7a 73 5b bd 78 cd 2a 3d dc 5a da bc
       -0.054119114 -0.053576924 0.041699857 -0.026654653
0000a0 de 1f 33 bd 96 05 a0 bc 34 25 16 bd b3 68 55 bd
       -0.043731563 -0.019533914 -0.036656573 -0.052101802
0000b0 da 78 04 bd 9b ff 04 3d e8 81 3f bd c8 27 99 3c
       -0.032341816 0.032470327 -0.046754748 0.018695727
0000c0 89 46 1c bd 5d 83 52 3d 9a 74 7a 3d 6d a6 38 3d
       -0.038153205 0.05139481 0.061146356 0.04508059
0000d0 0d ad 0e bb d9 3f 9d bb 3a 5e 0d 3d 27 6d 40 bd
       -0.0021770627 -0.004798871 0.03451369 -0.046979096
0000e0 d7 df 61 3d 61 ef 33 3d b7 6c cd bc 27 2e 2c 3d
       0.05514511 0.04392946 -0.025076253 0.0420362
0000f0 0b 55 f4 bc bb 0f d5 bc f6 82 31 3d 59 d8 27 3d
       -0.029825708 -0.026008477 0.043337785 0.04097781
000100 38 20 58 3d 3a 1e 27 3d 5e e8 e4 3c 0c 7e 3f 3d
       0.0527651 0.04080031 0.027942833 0.046751067
000110 80 3a c3 bc 31 bd 65 3d b4 68 e0 bb 2b 60 5f 3d
       -0.023831606 0.05608863 -0.006848419 0.054535072
000120 93 ed 55 bd 82 81 13 3d 71 ec 02 3c c3 21 77 3d
       -0.05222852 0.03601218 0.007990942 0.060334932
000130 8b c6 0b bd be 05 0d bb cb 89 71 3d 32 b9 d4 3c
       -0.034124892 -0.0021518315 0.0589693 0.025967214
000140 fc 7c 6e bc 44 fe e6 bc 30 cf 50 3c db 3b 20 3d
       -0.014556166 -0.028197415 0.01274471 0.039119583
000150 3f c2 d2 bc be 2d 15 3d fa 92 56 3b 8b 1d 58 bd
       -0.02572739 0.036420576 0.0032741413 -0.05276255
000160 26 23 06 3d 5e d9 55 3c 04 9e 00 bd 43 0b e2 3c
       0.032748364 0.013052313 -0.031400695 0.02759326
000170 24 26 9a 37 23 f9 12 bd 60 ca e1 bc d7 2e 0e bd
       1.8375991e-05 -0.035882127 -0.02756232 -0.03471264
000180 f9 c4 94 3c 7b 6c d3 3c 6c 29 f4 bb 8f 8d 5d 3c
       0.01816033 0.025808563 -0.007451227 0.01352252
000190 9a 13 fa 3c 39 4b d4 bc 84 23 15 bd 80 ca fc 3c
       0.030526925 -0.025914775 -0.036410823 0.030858278
0001a0 6d 79 0e 3d e4 a4 50 3c 97 7f 56 bd 8b 4d f0 bc
       0.03478377 0.0127346255 -0.052367773 -0.02933385
0001b0 3c 56 ef bc 2e d2 06 bd 18 c8 fa 3c 38 79 20 3a
       -0.029215924 -0.032915287 0.03061299 0.00061215786
0001c0 a6 92 c1 bc 6e 92 ea bb 51 f8 4e 3d c9 5b 02 3b
       -0.023629498 -0.007158569 0.05052978 0.0019891134
0001d0 7c 02 74 3d da fe 39 3d 15 29 3f 3d 30 e9 e2 bc
       0.05957268 0.04540906 0.04667004 -0.027699083
0001e0 8e 95 21 3c fa 2e bb bc 7b f5 62 bd 28 65 49 bd
       0.009862317 -0.022849549 -0.05540989 -0.049168736
0001f0 5f 7e 63 bc ff 86 12 bd d8 78 04 bd 7d 7e 58 bd
       -0.01388511 -0.035773274 -0.032341808 -0.052855004
000200 cf 50 24 bd 75 59 d8 bc 54 0c 72 bd 29 7f 79 39
       -0.040116128 -0.026409844 -0.05909379 0.00023793861
000210 b6 f6 2f bd 85 72 36 bd 2e c7 42 bd 9e ce 27 bd
       -0.04295989 -0.044542808 -0.047553234 -0.04096853
000220 28 4a ee bc 3b 35 4b 3d 70 17 6e bd df 91 80 3b
       -0.029088095 0.04961131 -0.05812782 0.003923639
000230 94 41 29 3d 67 2d 7d bc 41 08 97 bb eb ef 8f bc
       0.041322306 -0.015452719 -0.0046091382 -0.017570456
000240 c7 74 ef 3c 83 43 bd 3c 87 a9 84 bc 3c 6b 0f bc
       0.029230488 0.023103481 -0.016194118 -0.008753594
000250 59 02 46 bc ca 96 6f bc f9 71 fb 3c 2c 9b b3 3b
       -0.012085521 -0.014623353 0.030693995 0.0054811444
000260 42 03 d5 3c e2 62 5b 3c 41 16 96 bb 37 a9 b8 3c
       0.02600253 0.013390275 -0.0045802896 0.022541625
000270 7b fa 4c 3c a2 11 c8 3c 88 df 78 3b 51 40 b6 bc
       0.012510891 0.02442247 0.0037975032 -0.022247465
000280 c8 b8 c0 3c d5 71 83 3c 53 46 60 bc bf 6a e3 3c
       0.02352561 0.01604549 -0.013688642 0.027760861
000290 e6 2f 4a bc d4 70 6f bd 05 94 63 3d 4a 1a 6e bd
       -0.012340521 -0.05845721 0.055561084 -0.05813054
0002a0 33 fd ba bb f8 8a 4e 3d bd 5a 02 3d 44 58 34 bd
       -0.005706453 0.0504255 0.031824816 -0.04402949
0002b0 6d eb e5 bc e9 53 9b bc ca 41 4e bd 00 77 b9 3a
       -0.028066361 -0.01896091 -0.05035571 0.0014149845
0002c0 49 15 49 bd df 3f e9 3b b8 ce 29 bd 67 8b 6d 3d
       -0.049092565 0.0071182097 -0.041456908 0.057994273
0002d0 73 ad fa 3c 4f 6f 43 bb 2a 19 81 bd 92 b6 19 3d
       0.030600285 -0.0029820984 -0.06303628 0.03752763
0002e0 8c a1 8b 3b 01 0e e0 bc 8f 61 ca bb 16 22 6f 3d
       0.0042612012 -0.027350428 -0.0061761807 0.058382116
0002f0 1e 30 ae bc 4d dc 53 3d b5 d4 1e 3d 51 c6 e4 3a
       -0.021263178 0.051723767 0.038777072 0.0017454122
000300 f2 e0 4d bc 7b 91 00 bd 91 a2 55 bd 13 ee 33 bd
       -0.012565838 -0.03138874 -0.05215699 -0.043928217
000310 4c 5d 31 3d 3b 86 8e 3c c5 d5 8b 3c 3a 06 f2 3c
       0.043301865 0.01739799 0.017069707 0.029543985
000320 d2 f9 ce bb 41 33 c0 bc bd 59 53 3d 18 11 4d 3d
       -0.006316402 -0.02346194 0.051599253 0.05006513
000330 4d 6b 16 3c a9 4a 5f 3d 40 52 4c 3d 63 df 23 3c
       0.009180856 0.05451456 0.049883127 0.01000199
000340 2d 05 45 3d 33 2e 67 3d 35 00 b8 3b f0 be c9 bc
       0.04810064 0.056440543 0.005615259 -0.024627179
000350 96 e8 5a bd a7 34 4a 3d 8d 88 7f bc 1f 8b 9a bc
       -0.053444467 0.04936662 -0.015596521 -0.018865166
000360 ad cd ae bc fb 34 e4 3c 5b 8b 1b bd da ed 67 3d
       -0.021338308 0.027857294 -0.037974697 0.056623317
000370 17 8a 00 3d d8 39 a5 3c fe 8e 1e 3d 95 f7 42 bc
       0.031381693 0.020169184 0.038710587 -0.0118998485
000380 e9 d7 d5 3c dd e4 2d bd e2 7c 46 bd f2 98 f2 bc
       0.02610393 -0.04245459 -0.04845894 -0.029613946
000390 83 6b 81 3c 26 e4 51 bd 26 71 2f 3d ac 78 26 bd
       0.015798336 -0.05124297 0.042832516 -0.040642425
0003a0 e3 59 0d bd 75 ac 4a 3d 62 b8 f5 3c 61 e4 5b 3d
       -0.03450955 0.049480874 0.029995147 0.053684596
0003b0 74 03 04 3c e0 ca 3a 3d e8 00 f6 bc 22 78 5f bd
       0.008057464 0.045603633 -0.030029729 -0.054557927
0003c0 14 86 cb 3c 36 ef 63 3d 6f 89 71 3d 75 89 d7 3c
       0.024844207 0.05564805 0.058968958 0.026310662
0003d0 5e 5c 0a bc 99 41 1b 3c e0 0d d9 3c 1e 1d 6c bd
       -0.008444874 0.009476089 0.026495874 -0.057644956
0003e0 ea 41 1d bc 94 5d 5b 3d 40 85 6d bc 40 8c 3d bc
       -0.009598235 0.05355604 -0.014497101 -0.011569083
0003f0 a0 e9 57 bd 3a f3 3e 3d 5f aa ca bc a5 0f 3b 3d
       -0.052713037 0.046618678 -0.024739442 0.045669217

body.2.bias f4 [256]
000000 be 7a 39 bc 69 2b 60 bd 08 66 ac 3c 1a cf 80 3d
       -0.011320768 -0.0547289 0.021044746 0.062895015
000010 ef 0f 45 bc a0 01 a5 ba 8e d7 6e 3b 94 8b 93 3b
       -0.012027725 -0.0012588985 0.0036444399 0.004502723
000020 fd c5 58 bd ac ea 7f 3c a0 69 33 3d 13 80 f2 bc
       -0.05292319 0.015619915 0.043801904 -0.029602086
000030 dd 4a f8 bb 5e c2 95 bc 70 5e 12 bb fe 36 3e 3c
       -0.007577284 -0.018281158 -0.0022334121 0.011609791
000040 08 a4 06 3d 36 eb c6 bb 7c b4 29 3d f3 7b d4 bc
       0.032871276 -0.00607052 0.04143189 -0.02593801
000050 81 76 da 3c f2 9c ef 3c 79 e5 00 bd 8b b6 73 3d
       0.026667835 0.029249642 -0.031468842 0.05950026
000060 2c bd 47 bd f6 e3 bb bc 45 ba 56 3d 2b f3 65 bd
       -0.048764393 -0.022935849 0.052423734 -0.056140106
000070 80 9f 2b 3c 6d 6a 3f 3d bd 6f 0f 3d fb 4f bd bb
       0.0104750395 0.046732355 0.03501867 -0.0057773567
000080 7a e8 1c bc ae f3 aa 3c 3f 02 51 3d 56 91 3c 3d
       -0.009576911 0.020868149 0.051027533 0.04603704
000090 bf db b0 bc 88 91 54 3d 9d f5 fb 3c 4d 42 4f 3d
       -0.021589158 0.051896602 0.030756766 0.05060034
0000a0 3e ec 7f 3d 94 e0 f8 3c 05 3b 35 bd 56 a5 4d 3d
       0.062481157 0.030380525 -0.04424574 0.050206505
0000b0 4b e0 bf 3c c7 a1 12 3d 1b f3 c1 3c c7 f3 70 3c
       0.02342238 0.035798814 0.023675492 0.014706559
0000c0 31 5f 14 3d 10 f4 0d bd 9d 2d 4e 3d ee 1b 75 bc
       0.036223594 -0.034656584 0.05033647 -0.014960272
0000d0 ee 59 42 3d 57 10 03 bc 57 54 4a bd 23 7e 48 bd
       0.047449045 -0.007999501 -0.04939684 -0.04894842
0000e0 91 e0 ca 3c cb 19 5e bd b2 f2 14 3d 65 9b 2f 3b
       0.024765285 -0.054223817 0.036364265 0.0026795503
0000f0 c7 aa 57 3d 02 cf 56 3d 42 35 3d 3a f6 41 5e bd
       0.0526531 0.05244351 0.0007217714 -0.054262124
000100 b7 a3 82 bd a2 a6 b2 ba 48 86 15 bd 77 c2 76 bd
       -0.063788824 -0.0013629983 -0.036505014 -0.06024405
000110 77 2d 45 3d 77 b1 bc 3c 77 5b 14 bc 63 74 f7 bb
       0.04813906 0.02303384 -0.00905501 -0.007551716
000120 bb fc 2d bb 05 34 c5 bc ad 6b 2d 3d cc 74 6f 3d
       -0.0026548344 -0.024072656 0.042339016 0.058460996
000130 ca 5c 51 bc d4 21 29 bd ec 4c c5 3c 5b 17 87 bc
       -0.01277847 -0.041292027 0.02408453 -0.016490629
000140 0d e3 21 bc 8d 5e 52 3d b8 46 4e bd 46 df 87 3c
       -0.009880793 0.051359702 -0.05036041 0.016585957
000150 26 74 7e 3d 68 be 58 bc 8f d8 33 bc 18 ab 2e 3d
       0.062122487 -0.01322899 -0.010976925 0.042643636
000160 23 42 3f 3d bf 0c 69 bd 3b 00 b7 bc 49 63 c8 3c
       0.046693932 -0.05689692 -0.022338977 0.024461405
000170 96 4e 53 3d 1f 53 7c 3c d9 49 49 3d 00 2e 02 3d
       0.051588617 0.015400677 0.049142692 0.03178215
000180 33 f8 6b 3d 9a c9 d1 bc 77 7f eb 3b 12 22 5c bd
       0.057609748 -0.025608826 0.007186826 -0.05374343
000190 93 a7 10 3d 03 59 52 bd e7 3e 19 3d b2 4a e5 3c
       0.03531606 -0.05135442 0.037413504 0.027989719
0001a0 46 a6 50 3d 33 52 6f 3c 17 05 6e bd b1 ed 68 bb
       0.05093982 0.014607 -0.058110323 -0.0035542066
0001b0 a4 71 05 3d 35 02 d7 3c b7 10 71 bd 9f a6 0b 3b
       0.03257908 0.02624617 -0.05885383 0.002130903
0001c0 61 f7 4d bb 5c de db 3b 70 79 2e 3d 18 25 9c 3c
       -0.0031427967 0.006709857 0.04259628 0.019060656
0001d0 85 68 e3 3c 4f 54 6f bd 39 1e 81 bb 64 f7 75 bd
       0.0277598 -0.058430012 -0.0039403704 -0.060050383
0001e0 e3 47 3a 3d eb bc 83 3d ea 59 1b bd b6 63 8e bc
       0.045478713 0.064325176 -0.037927546 -0.01738153
0001f0 f5 05 68 3c 90 82 af 3c 95 e9 76 bd 25 a6 94 bc
       0.0141615765 0.021424562 -0.060281355 -0.01814563
000200 83 59 20 3d 92 3b 84 3d 71 f6 8f bb d5 7f 6c 3a
       0.039147865 0.06456675 -0.004393392 0.0009021734
000210 42 c2 86 bc 6e 7a a5 bc 6e 0a ec 3c ae 89 e2 3c
       -0.016450051 -0.02019998 0.028813567 0.027653541
000220 f4 3c 30 3c 60 6e 5c bd 9a 9a 9d bc 5c 30 71 bd
       0.01075672 -0.0538162 -0.019238759 -0.05888401
000230 64 8b 13 bc f0 70 29 bd ba 01 38 bd 75 7c 4c bd
       -0.009005401 -0.04136747 -0.04492352 -0.04992338
000240 6a 90 03 3d 89 c0 2d 3d 4b 08 db 3c 47 29 4e bd
       0.032120146 0.042419944 0.026737353 -0.050332334
000250 31 ee 21 3d 80 73 4a bd 3e 03 0c bd 78 94 20 bc
       0.039533798 -0.049426556 -0.03418278 -0.009801023
000260 27 02 ed 3b 68 fa 2e 3d 70 f0 a1 bc 09 39 42 bc
       0.0072329226 0.042719275 -0.01976797 -0.011854419
000270 6f 8a 14 3d 2d ba 36 3c 34 b4 42 3c d1 bf 34 bd
       0.036264833 0.011152786 0.011883784 -0.044128243
000280 a7 11 90 3b b7 46 43 3d 87 fa 68 3d 10 b6 cd 3c
       0.0043966356 0.04767486 0.056879546 0.025111228
000290 10 6e 4f bd db 04 0b 3d 51 5c 4a 3d cd ef 3e bd
       -0.050642073 0.033940177 0.049404446 -0.04661541
0002a0 2d 00 36 bd 48 ae 9b 3a d3 83 15 3d 71 93 03 bc
       -0.04443376 0.0011877501 0.03650267 -0.008030758
0002b0 54 0c 60 3d 3f 5a 6e 3d 6b e0 c1 3c b0 d1 5a 3c
       0.054699257 0.058191534 0.023666581 0.013355657
0002c0 f4 2a 88 bd e8 e9 60 bd 6c f4 04 bd b5 45 c3 3b
       -0.06648818 -0.05491057 -0.03245966 0.0059592375
0002d0 59 15 c9 3b cc 5e 94 3c 02 5a 4e bc ae 67 51 3d
       0.006136578 0.018111609 -0.012594702 0.051124267
0002e0 dc 3c b0 bc 31 64 f0 bc 48 2f 3a 3d ef 54 28 3d
       -0.021513395 -0.02934465 0.045455247 0.041096624
0002f0 27 cd 36 3c 49 bc 3e 3c 1f 3a 61 3c 3d af 43 bd
       0.011157311 0.01164157 0.013746767 -0.047774542
000300 8d e6 6d bc 32 ce e8 bb f1 1f c2 bc fb c6 72 3d
       -0.0145203 -0.0071046585 -0.023696871 0.059271794
000310 99 80 81 bc 12 cf c7 ba de a8 c6 bc 08 e0 58 3d
       -0.01580839 -0.0015244207 -0.024250444 0.052948028
000320 98 2b ff bc 21 08 22 3d 2c 39 f5 3c 78 97 31 3d
       -0.031148717 0.039558534 0.029934488 0.043357342
000330 9a 74 dd bc 75 21 83 bd 29 8d 5a 3b 1a 3f 3a bd
       -0.027033139 -0.06402866 0.0033348298 -0.045470335
000340 60 c0 f0 3c 56 d1 28 3d e4 0a bb bc 2e 3f a7 3c
       0.029388607 0.041215263 -0.022832341 0.020415869
000350 89 f3 18 3c c4 82 27 3d 71 5f 5a bd 3b 29 7f bc
       0.009335407 0.040896192 -0.053313676 -0.015573795
000360 51 8f 5c 3d 8a 99 07 3c c4 73 01 3c c3 b2 59 3d
       0.053847615 0.008276353 0.007901136 0.053148996
000370 50 6e 69 3d 8d 2b 6a 3d 22 bb 73 3d b5 ee 62 bd
       0.056989968 0.05717044 0.059504636 -0.05540343
000380 a2 61 f2 bc 9b f9 54 3d 12 32 72 3d 93 85 52 bd
       -0.02958757 0.051995855 0.059129782 -0.051396918
000390 d2 76 02 bc 5e 71 13 bc 80 8d 1f bd 99 61 6c 3d
       -0.007962899 -0.008999197 -0.038953304 0.057710264
0003a0 e5 77 4a 3d f8 01 bc bc 55 77 23 3d 00 7a 84 bc
       0.049430747 -0.022950158 0.039908726 -0.016171455
0003b0 26 f9 f4 bc 89 74 1f bc f7 a3 c4 bc ed 82 1a 3d
       -0.02990396 -0.009732374 -0.024003966 0.037722517
0003c0 a0 67 7d bd d6 68 a0 3c bf fb 3c bd 54 96 15 3c
       -0.061866403 0.01958124 -0.04613852 0.009130079
0003d0 74 57 85 3b 66 c1 b5 3c 95 69 63 bd 41 d7 b9 bc
       0.004069263 0.022186946 -0.055520613 -0.022685649
0003e0 4b 75 b7 3c 9c e2 c9 3c b5 ed e0 3c f5 c3 f2 bb
       0.022394797 0.024644189 0.027457098 -0.007408614
0003f0 0d 92 72 bd bc 6d 1e 3d 1d ac 3b 3d ba f5 82 bd
       -0.059221316 0.03867887 0.045818437 -0.06394525

body.4.weight f4 [128, 256]
000000 15 62 80 bd 40 05 1e bd 7d 23 52 bd 4a d2 34 bd
       -0.06268708 -0.038579226 -0.051303376 -0.04414586
000010 66 7f fb 3c eb d0 0c bd 5c 67 b0 3c ad fb fa bc
       0.030700397 -0.034378927 0.02153366 -0.030637586
000020 cd ab e7 bb 70 78 3f 3c 05 a5 6b 3c bd b4 31 bd
       -0.007070041 0.011686429 0.014382605 -0.043385256
000030 dc af 65 bd 08 7a 60 bc 13 06 9a 3c 04 44 8f 3c
       -0.056075916 -0.0137009695 0.018801725 0.017488487
000040 0d 05 4c 3d 52 2a 02 3d 5a d4 3c bd 5c 0f 4b bd
       0.049809504 0.03177864 -0.04610095 -0.049575195
000050 bd fe 53 bd 1a 57 d6 bc 5b ee 06 3d ad 6a 85 bd
       -0.05175661 -0.02616458 0.032942157 -0.065144874
000060 ea e8 03 bd c9 22 44 bd 0e c2 2e 3c c4 ed 34 bd
       -0.032204546 -0.047884736 0.010666383 -0.044172063
000070 99 84 4b bd 9c 21 7c bd 47 88 37 bc aa d3 49 bd
       -0.049687 -0.06155549 -0.011201925 -0.049274124
000080 7b 4e 7b 3d 71 87 3c 3c 78 9b 36 3d 78 97 49 bb
       0.06135414 0.011506901 0.04458186 -0.0030760448
000090 30 a0 6a bc 58 10 91 3c 91 ec 49 bd 40 ca a8 3c
       -0.014320418 0.017707989 -0.049297873 0.020604253
0000a0 5e 83 26 bd a0 d2 6b bb 2c 29 a8 3c c5 27 65 3d
       -0.040652625 -0.0035983697 0.020527445 0.05594613
0000b0 3b d4 19 bd 41 bc 0e 3d 16 e3 28 bd fb 2c 1d bd
       -0.037555914 0.0348475 -0.04123219 -0.038372975
0000c0 3a e4 1e 3d c7 ad 45 bd 0d 3c f4 bc 26 ab fd 3c
       0.038791873 -0.04826143 -0.02981379 0.030965399
0000d0 00 24 66 3d 42 32 1e 3d 07 56 2e 3d a2 d7 a0 3c
       0.056186676 0.03862215 0.04256251 0.019634072
0000e0 74 50 69 bd e1 cc 19 bd 27 13 99 3c 69 6b 20 3d
       -0.05696149 -0.037548903 0.01868589 0.039164934
0000f0 e9 1d ef 3b 49 ec 22 3c fb 66 80 bd f5 94 b1 bc
       0.0072972667 0.00994403 -0.06269642 -0.021677474
000100 14 2d fa 3c fd f5 00 bd 46 2b 09 bd 97 e2 14 bd
       0.030539073 -0.031484593 -0.033488534 -0.036348905
000110 51 8c 13 bd 4c 26 bd bc 9c 09 0d bd 65 bf 7e 3d
       -0.036022488 -0.02308955 -0.034432992 0.062194247
000120 c6 3f c1 3b de 99 78 3d f8 20 06 3d fc a2 14 3d
       0.005897495 0.060693614 0.032746285 0.036288247
000130 70 e1 5d bc 06 e4 cd 3c b9 91 1f 3d 99 89 92 3c
       -0.013542518 0.025133144 0.03895733 0.017887877
000140 fc b2 64 3d 0f 77 76 bd 8a 31 6d bd 9c db 0a 3d
       0.055834755 -0.060172137 -0.057908572 0.033900842
000150 24 34 56 3c 6b 87 62 3d 54 63 22 bd e4 ec 3a bd
       0.013073955 0.055304926 -0.039645508 -0.045636073
000160 c3 59 27 3d 62 c7 2c bc f7 2a 82 3d 68 9f c7 3c
       0.040857088 -0.010545583 0.06355851 0.024368003
000170 88 15 0f 3d 98 cb 19 bd 5e 6f 69 3d 2e 76 40 bd
       0.034932643 -0.037547678 0.056990974 -0.046987705
000180 ec d6 2b bd 75 93 0e 3d 3d 8f 05 bd 9f 93 d7 3b
       -0.041953012 0.034808595 -0.032607306 0.006578877
000190 1c 89 a1 3c 4b 21 3e bd 62 47 29 3d e4 0f 80 bc
       0.0197187 -0.04641847 0.04132784 -0.015632577
0001a0 7f 80 03 3a d9 c7 ea 3b 6e 48 48 3d 75 f6 21 3d
       0.0005016401 0.007164937 0.0488972 0.03954168
0001b0 66 6d 2d bd 88 86 d3 3c ce fb 77 bd c8 7e 3f 3c
       -0.04234066 0.025820985 -0.060542874 0.011687942
0001c0 24 e8 53 bd d0 c5 77 bd cc c8 bb 3b eb eb c1 bb
       -0.05173506 -0.060491383 0.005730724 -0.005918016
0001d0 30 bb 52 bc ae c8 0c 3d f0 41 00 3c 61 5a 78 3d
       -0.012862012 0.03437107 0.007828221 0.060633067
0001e0 3c 02 00 3d 5d 49 e1 3c 70 53 09 bd e5 31 f4 3c
       0.03125213 0.027500803 -0.033526838 0.029808948
0001f0 a7 0b 7d 3d f2 81 a7 bc f9 86 dc bc f2 ba 23 bc
       0.06177869 -0.020447705 -0.026919829 -0.009993302
000200 ac 8f 81 bd 19 09 0b bc 24 7e 2d 3c 08 64 1f 3c
       -0.06326231 -0.008486056 0.010589156 0.009728439
000210 96 ca 7f 3d ef fd ed 3c b6 ef 78 bd 8f 06 bc 3c
       0.06244906 0.029051749 -0.06077548 0.022952346
000220 d4 16 dc 3c 11 1e 5a bd 5e 34 fd bb d2 2c 3a 3d
       0.026866354 -0.05325133 -0.00772719 0.0454529
000230 d2 78 33 3d b5 5c f4 3b 86 97 c7 3c 65 b2 d5 bc
       0.043816395 0.0074573406 0.024364244 -0.026086042
000240 b6 d0 28 bd e2 11 e1 bc 56 98 ca 3c c9 39 e5 bc
       -0.041214667 -0.027474348 0.024730843 -0.027981656
000250 74 a7 54 bd 44 f4 e3 bc 56 59 08 3d 60 e2 ea bc
       -0.05191751 -0.027826436 0.033288322 -0.028672397
000260 b6 67 16 bd a6 50 3f 3d 24 3a 43 bc 17 77 2c bd
       -0.03672 0.04670777 -0.011915717 -0.04210576
000270 24 11 20 3d 6d cc 39 3d 92 75 05 bc 70 1b 41 3c
       0.039078847 0.04536097 -0.008145707 0.011786327
000280 84 4a a6 bc 7b 20 6d bd 5c 37 ef bc 5a 69 48 bd
       -0.020299204 -0.057892304 -0.029201202 -0.048928596
000290 c1 b3 de bc e6 a3 f7 bc 56 2e 5f bd e0 d1 4a 3b
       -0.027185323 -0.03022952 -0.05448755 0.003094785
0002a0 c1 2f 4d bc e9 b1 68 bd 10 55 53 3c df 1e aa 3c
       -0.012523592 -0.056810293 0.012898698 0.020766674
0002b0 06 08 81 3c b9 61 73 3d 3a 03 92 bb 34 45 81 bc
       0.015750896 0.059419367 -0.004455951 -0.015780069
0002c0 ab ae d4 3b 59 2b 5b bd 04 0d 92 bc 8a 40 67 3d
       0.0064905486 -0.053508136 -0.017828472 0.056458034
0002d0 0d 9a 93 bc 8b c6 f6 bc 60 8d 31 bc e4 8c 7e 3d
       -0.018017793 -0.03012397 -0.010836929 0.062146083
0002e0 8a 50 40 bd 63 29 b4 bc 6d 0d 51 bd b2 d1 6a bd
       -0.046951808 -0.021992391 -0.051038194 -0.057328887
0002f0 f0 64 03 bc 9f 91 96 bc 5c d3 03 bd ba 04 43 3d
       -0.008019671 -0.018379984 -0.03218399 0.04761193
000300 de fb e3 3b 42 46 63 3d 11 34 ae 3c d2 65 b7 bc
       0.006957515 0.055486925 0.021265062 -0.022387419
000310 b2 f3 ae bc ec 63 e1 3c c2 40 64 bb 6f c6 2b bd
       -0.021356437 0.027513467 -0.0034828638 -0.041937288
000320 73 c0 4c 3d bd 51 9a 3c b4 73 25 bc 50 d0 b1 3c
       0.04998822 0.018837804 -0.010098387 0.021705776
000330 1a 0a 3a bd d3 8c cf bc 9e 4b 2b bd 20 3d ac bb
       -0.04541979 -0.025335705 -0.04182016 -0.00525631
000340 8e b8 c0 3c 2e 27 4c bd b1 a0 e5 3c 6b 61 f8 bc
       0.023525503 -0.049842052 0.028030725 -0.03031989
000350 72 8f 5a bd 0e c7 c9 bc 46 7d 20 bd e7 ed 67 ba
       -0.053359456 -0.02463105 -0.03918197 -0.0008847401
000360 db 87 48 bd c5 c6 0d 3d e0 5c 11 3c 12 6a 6b bd
       -0.048957687 0.03461339 0.008872241 -0.057474203
000370 ec 34 6f 3d ce 40 e4 3c b3 14 b9 3c f6 ff 0a 3d
       0.05840008 0.027862933 0.022592878 0.03393551
000380 59 5a 9e 3c f1 52 28 3d ac cc 5d 3c 3a 6d 5e 3d
       0.01933019 0.041094724 0.013537567 0.054303385
000390 5e cf 59 3d 78 f7 2d 3d 5b 61 84 3d 37 65 3e bd
       0.053176276 0.042472333 0.064638816 -0.046483245
0003a0 45 98 c7 bb 27 5b 59 bc 2f eb 2a bd 13 f2 f2 3a
       -0.00609115 -0.013266361 -0.041728195 0.0018535279
0003b0 53 cd 20 bc b7 9e 56 3c 77 af 08 3d e9 f7 41 3b
       -0.009814578 0.013099364 0.03337046 0.002959723
0003c0 fb 0c 5f bd 4f 82 08 bd 1c 90 bd 39 c9 9f 76 3b
       -0.05445574 -0.033327397 0.0003615626 0.003763186
0003d0 94 b3 90 bc 3d d3 c7 3b e6 e6 50 3c c2 30 b5 3c
       -0.017663755 0.0060981796 0.012750363 0.022117976
0003e0 9a 7b b5 3a c8 02 d5 bc 08 cd aa 3c 60 94 0c 3d
       0.001384604 -0.026002303 0.02084972 0.03432119
0003f0 1c f9 64 3d 14 c5 1b 3b 19 04 68 3c f5 3b 1e 3d
       0.05590163 0.002376859 0.014161133 0.0386314

body.4.bias f4 [128]
000000 86 d7 13 bd d4 c7 18 3c 46 13 90 bb 3b 9e a1 bc
       -0.03609421 0.0093249865 -0.004396829 -0.01972877
000010 65 ae 16 bd 29 a5 27 3d 5e a9 04 3c 6f a3 4a 3c
       -0.03678741 0.040928993 0.008097021 0.012368067
000020 14 c8 89 bc 9a 5c 27 bc f3 72 1f 3d 2c db 9a 3c
       -0.016819037 -0.010214949 0.038927983 0.018903337
000030 ce e5 c6 3c 38 84 1a 3d ba f2 21 bd d1 24 31 bd
       0.024279501 0.03772375 -0.039538123 -0.043248
000040 11 a9 f6 3c 3e 39 ad 3b 01 2c 0b bd ba 2c 8c 3c
       0.030109914 0.005286365 -0.033977512 0.017111171
000050 c7 54 89 3d fa ec 84 bd 46 93 6b 3d 2e 7a 2e 3a
       0.06705623 -0.06490512 0.057513498 0.00066557794
000060 76 99 46 3d b3 95 86 bb f3 05 09 bc b7 a2 44 3d
       0.048486196 -0.004107201 -0.008363235 0.04800674
000070 77 11 d5 3c ac 35 ba 3c bb 53 32 bd c1 6b 6e 3d
       0.026009304 0.02273067 -0.043536883 0.05820823
000080 b7 33 d8 bc 7f ec f3 3c 1d 2b 9b bc a7 f5 4f 3d
       -0.026391847 0.029775856 -0.018941456 0.05077138
000090 86 cf 86 3b c7 9a 60 bd a7 97 4a bc 3b 40 69 bb
       0.004114094 -0.054835107 -0.012365258 -0.0035591263
0000a0 38 9b ce bb af 85 56 3d 99 12 24 3d 09 96 56 bc
       -0.0063051246 0.052373584 0.0400568 -0.013097295
0000b0 e5 ed c9 bc 91 0c 3f bd 5e e1 70 3a f8 60 1f bd
       -0.02464957 -0.046642844 0.0009188856 -0.038910836
0000c0 e2 03 3e 3c 85 4f 3c 3b e3 b8 d3 3c 26 70 26 3d
       0.011597605 0.002873392 0.025844997 0.040634297
0000d0 96 80 62 3d 42 76 89 3b f4 ef 61 3d ca 94 86 3b
       0.05529841 0.0041950056 0.055160478 0.0041070925
0000e0 48 cc 23 bd 31 ff 14 3d 58 40 55 3d a5 22 2a bc
       -0.03998974 0.036376182 0.052063316 -0.010384236
0000f0 ae 43 13 3d de 8c 33 3d 6a 26 63 3d ab 50 63 bd
       0.035953216 0.043835513 0.055456556 -0.055496853
000100 0f 6d ef 3b 62 25 32 3c 4c 2a 26 bd b9 00 ac 3c
       0.007306702 0.010873171 -0.04056768 0.020996438
000110 1b 29 3a bc 14 f8 80 bd 2f 16 3d bd 82 8d 60 bd
       -0.011362339 -0.06297317 -0.046163734 -0.054822452
000120 03 ae 2b 3c 3a ce d4 39 3e 6e 0d bd 79 96 f9 3b
       0.010478499 0.00040589442 -0.034528963 0.0076168147
000130 7d df 4a bd 04 80 4f 3d 04 fc 56 3c 9b e7 ae 3b
       -0.04952954 0.050659195 0.013121609 0.005337668
000140 aa 97 0c 3b bd 9b 4b 3d d7 39 b6 3c 29 93 0a 3d
       0.0021452704 0.04970907 0.022244377 0.03383175
000150 7c d0 22 bb 4c 70 19 bd 31 fb 82 3d e3 62 74 3d
       -0.0024843505 -0.03746061 0.06395567 0.05966462
000160 12 31 34 3d 22 09 eb 3c 01 bb 5c bd 06 b7 83 3a
       0.04399211 0.028690878 -0.05388928 0.0010049052
000170 96 1d 64 bd e3 1a d2 3c 49 a2 fa 3c 6a 30 94 bc
       -0.055692278 0.025647586 0.030594962 -0.018089492
000180 d6 ad 8b 3c 3e 16 18 bd 96 86 55 3d 9b 10 4b bd
       0.017050665 -0.037130587 0.052130304 -0.049576383
000190 33 52 81 bc 39 23 10 bd 85 ca 4d bd 21 d7 ae ba
       -0.015786266 -0.03518984 -0.050241966 -0.001333926
0001a0 b7 08 89 3c f5 60 6b bc f6 d3 56 bd 7e 55 0a 3d
       0.016727788 -0.014366378 -0.052448235 0.033772938
0001b0 57 af 06 3b 14 7f 57 bd 81 dd 6e bd a2 56 71 3d
       0.0020551288 -0.052611426 -0.05831671 0.05892051
0001c0 4d f3 2d bc ac 3b 5f ba 63 e7 0b bd cd 74 76 3c
       -0.010617089 -0.00085156667 -0.034156214 0.015042496
0001d0 56 b5 23 bc c5 f3 68 bd dc 76 1f bd 5d 05 bd bb
       -0.009991964 -0.0568731 -0.038931713 -0.0057684616
0001e0 5b ff 69 3d 0e 63 48 bc 8a 8a 00 3c d3 24 5f bd
       0.05712829 -0.012230648 0.00784553 -0.054478478
0001f0 16 c8 fb bb 27 0d 24 3c 3a ca 65 3b fe 6e 2e 3d
       -0.007683764 0.010012901 0.0035063163 0.04258632

move_head.weight f4 [5, 128]
000000 92 ff 88 bd ef b4 a7 3d 19 58 9f 3d 2b 9a cf bc
       -0.06689371 0.08188807 0.07780475 -0.025342068
000010 00 4b 05 bb 61 f5 3b 3c 4c 86 65 bd 29 e2 93 bd
       -0.0020338893 0.011472077 -0.05603628 -0.07220871
000020 11 04 90 bd 4e 82 88 bd 78 c1 aa 3d 61 53 a5 bd
       -0.070320256 -0.06665479 0.083376825 -0.08072544
000030 09 74 ab bd af 9b be bc 2a a2 42 bb 2a d1 b2 bd
       -0.08371741 -0.023267595 -0.0029698708 -0.08731301
000040 15 ef 38 ba 0b b5 8f 3d ae 3a 98 bc 1a 91 3a 3d
       -0.0007054669 0.07016953 -0.018582668 0.045548536
000050 7b f8 ab 3d a3 ea 5b bd 15 ed 9a bb 1d 16 9e 3d
       0.08397003 -0.053690564 -0.0047279694 0.077190615
000060 7c 45 ef 3c a0 b0 f4 bb 6b a3 91 bc dc 1f f8 bc
       0.029207937 -0.0074673444 -0.01777812 -0.03028863
000070 e1 08 81 3d f7 aa 1d bd da e6 0e bb 9c 42 38 3c
       0.06300522 -0.038493123 -0.0021805079 0.01124635
000080 ea 24 97 bd a5 62 83 3c 73 b6 cf bc f9 ef 91 bd
       -0.07380088 0.016038248 -0.025355553 -0.07125849
000090 9e 0b 8f bd 14 f1 22 bd 07 ae 54 bd c9 12 67 bd
       -0.06984638 -0.03978069 -0.051923778 -0.0564144
0000a0 8d 6a b3 3d 0e 0d 8a ba 28 e1 02 38 3a d2 e2 bb
       0.08760557 -0.0010532455 3.120411e-05 -0.0069220336
0000b0 cb 16 a1 bd fe ca 5c 3d 33 76 af 3c 80 52 af 3c
       -0.078656755 0.053904526 0.021418666 0.021401644
0000c0 88 b9 27 3c 56 f2 a4 3d e6 c0 ae bd c5 d2 5d bd
       0.010237105 0.080540344 -0.08532886 -0.054156084
0000d0 9c 98 6a 3d b9 7e 19 3d 41 10 6e 3d 70 5f c7 39
       0.057274446 0.037474368 0.05812097 0.00038027344
0000e0 c8 cd a1 3c f8 eb 81 3b 97 5e 77 3d ae 81 aa 3d
       0.019751444 0.0039648972 0.060392942 0.08325516
0000f0 e1 74 9d bd 3d 99 12 bd 32 64 b4 3b 44 ab 06 3c
       -0.076883085 -0.03579067 0.0055051083 0.008219544
000100 90 d5 0f 3d 86 8e 8e bb 4a 69 b6 bd bb db a7 bb
       0.03511578 -0.004350486 -0.08906801 -0.0051226295
000110 ad 84 5a 3d 92 c7 8c 3d 8f 29 b8 bc 1c 42 64 3c
       0.053349186 0.068740025 -0.022480754 0.013931777
000120 90 7d f4 3c a2 4c 3b bd 48 f7 90 bd 42 21 c1 bc
       0.02984503 -0.04572738 -0.07078415 -0.023575429
000130 98 6d 86 bd 8e 3b 23 bd 6c b9 09 3d 26 af 04 3d
       -0.06563872 -0.039851718 0.033624098 0.032393597
000140 42 3c 72 bd 32 b8 c3 3c a4 3e ac 3d 97 af 0f 3c
       -0.059139498 0.023891542 0.08410385 0.008769891
000150 7f b8 30 3c 2c 98 8b 3d 4d 10 5a bd 4f 00 a7 3d
       0.010786175 0.06816134 -0.053238202 0.08154356
000160 f7 0b 3d 3d 29 64 49 bd e6 66 4e bd f9 2f 39 3c
       0.04615399 -0.049167786 -0.0503911 0.0113029415
000170 ac 37 ab bd f6 1f 16 bd e3 c6 14 3d 04 96 8c 3d
       -0.08360228 -0.036651574 0.036322486 0.06864551
000180 41 73 a0 bd a7 f4 9e 3c a4 48 7f 3d a0 19 83 bd
       -0.07834483 0.019403769 0.062325135 -0.06401372
000190 13 77 14 3d cb 6e 97 bd 22 ec 28 3d a6 a9 2a 3d
       0.03624637 -0.07394179 0.04124082 0.041665696
0001a0 29 75 a6 bd 9a 9e a2 bc a2 01 8b bd 27 6c 78 3d
       -0.08127815 -0.019851018 -0.06787421 0.060650017
0001b0 4f 0f a9 3d 06 d2 41 bd c2 ae e9 3c 49 33 a4 bc
       0.08254873 -0.047319435 0.028525714 -0.020043986
0001c0 ea 68 4d 3d 05 21 d5 bc c8 2a 0d bd 04 51 8e bd
       0.050148882 -0.026016722 -0.034464628 -0.06949046
0001d0 8d 2b 08 3d 75 be b7 bd e7 4e 96 bc 45 9a 8d bc
       0.03324466 -0.08971874 -0.01834817 -0.017285476
0001e0 36 4b 65 bd 6f 3b 65 3d b4 c0 88 bd b5 22 20 bd
       -0.05597993 0.055964883 -0.0667738 -0.0390956
0001f0 30 76 4f 3c fb ea 47 3d 17 1c b0 3d 35 97 1f 3d
       0.012662455 0.04880808 0.08599108 0.03896256
000200 d8 ac e7 bb a6 c4 90 bd 9f 7e d6 bc 20 27 52 bc
       -0.007070165 -0.07068758 -0.026183425 -0.012826711
000210 5f 08 a2 bd ce 97 41 3b 6f 89 4c 3d 65 cf 94 bd
       -0.07911753 0.0029539946 0.049935754 -0.0726612
000220 da 04 82 bd 26 98 98 3c 1a ce 4f 3d d4 c7 78 bd
       -0.063485816 0.018627238 0.050733663 -0.060737446
000230 26 84 aa bd 91 a2 49 3c 16 bb 81 bd df 6f 1e 3d
       -0.083259866 0.012306825 -0.06334512 0.038680907
000240 f5 e5 4d 3c 78 13 fc 3b 50 d3 df bc d6 28 11 bd
       0.012567033 0.0076927505 -0.027322441 -0.035439335
000250 57 34 b3 3d 8e a1 e8 3a 7b 7a 83 3d 04 17 65 3d
       0.087502174 0.0017748342 0.06419846 0.055930153
000260 45 49 b1 bd ee 83 8e 3c e1 4b e5 3c ec a6 1d bc
       -0.08656553 0.017396893 0.027990283 -0.009622317
000270 07 0c 94 bd 5b 85 9d 3d 4b 32 a6 3d 29 0b 37 bd
       -0.072288565 0.07691451 0.08115061 -0.044688378
000280 f2 21 71 bd b0 8b ad bd 52 fa 7a bd 4e 17 09 3d
       -0.058870263 -0.08473909 -0.06127388 0.03346949
000290 8f ba ac 3d 33 1a 6c 3d 0c 02 ad bd 36 46 b7 3d
       0.08434021 0.057642173 -0.08447656 0.089489385
0002a0 9c 0f 17 bd 0d a1 94 bd 73 1f 59 3d cc 7e a1 bd
       -0.03688012 -0.072572805 0.053008508 -0.07885513
0002b0 d3 53 91 bc 25 f2 66 3d c3 a4 30 bd 95 4b e9 3b
       -0.017740166 0.05638327 -0.04312588 0.007119606
0002c0 cf b4 b6 3d 23 aa bd 3c de f7 a7 3d 09 1c a1 3d
       0.08921205 0.023152417 0.08201574 0.078666754
0002d0 ec eb 20 bd 38 a9 31 bd 2c 88 02 bd e5 c9 27 bd
       -0.039287493 -0.04337427 -0.031868145 -0.040964026
0002e0 06 29 18 bc 8c 7b 4c bd 6c b5 44 3d 09 51 6a 3d
       -0.0092871245 -0.04992251 0.04802458 0.057206187
0002f0 ce 51 4a 3d 09 7e 67 3d c6 17 5e bd 4d 3a 84 3d
       0.04939442 0.05651668 -0.05422189 0.064564325
000300 be a1 9e bd d5 34 06 3d b0 96 5b 3c 1e bc ff 3c
       -0.077456936 0.03276523 0.013402626 0.031217631
000310 79 e5 9b 3d 3a 04 23 3d 66 ff 1f bc 5b 2f af bd
       0.07612128 0.039798953 -0.009765482 -0.08553954
000320 cf 8c da bc 0b 57 e7 3c 0a 1c 80 3d c5 05 68 bd
       -0.02667847 0.028239748 0.06255348 -0.056646127
000330 5c 40 d4 3c b8 0b a7 bc 5c 4d 23 3d 5c cf b9 3d
       0.025909595 -0.02039133 0.039868698 0.09072754
000340 66 d1 ab 3d f9 e0 55 bd 72 f5 87 3d d1 64 89 bd
       0.08389549 -0.052216504 0.06638612 -0.06708682
000350 52 a5 e3 bb f4 0f a5 3d 89 59 b1 3d e3 d0 9a bd
       -0.006947198 0.080596834 0.086596556 -0.07559373
000360 e3 85 ad bd 04 36 be 3d f1 d9 ee 3c 3b f6 ff 3b
       -0.084728025 0.092876464 0.029156657 0.0078113354
000370 38 b0 a9 ba 29 ca 2e bd f2 eb a4 bd fe a6 54 bd
       -0.0012946194 -0.042673264 -0.080528155 -0.05191707
000380 ca 13 4e bd c8 7e 0e bd 65 c8 20 bd e4 b2 34 39
       -0.05031184 -0.034788877 -0.03925361 0.0001723278
000390 f7 3c 43 bc eb 9c 52 3c 9a 86 7b 3d b4 f3 99 bd
       -0.011916391 0.012854795 0.061407663 -0.07517186
0003a0 70 6c 12 3d 39 ae b0 bd 34 3e 23 3d 9d 3e fe 3c
       0.035747945 -0.0862698 0.039854243 0.031035716
0003b0 a3 57 1a 3d 75 42 0f bd 8e 64 2b 3c e8 65 e2 39
       0.037681233 -0.034975488 0.010460986 0.00043182005
0003c0 e2 de c5 bb ee 8d 88 bc 43 56 bd ba 79 2b e5 bc
       -0.0060385326 -0.01666924 -0.0014445264 -0.027974831
0003d0 ed d7 2b bd f6 89 44 3d 9f 1a 24 3d 6c e1 9b bc
       -0.04195397 0.047983132 0.04006445 -0.019028388
0003e0 7b 4c b9 3d 1d fb 8c 3d a8 6a 15 bc fa 03 d5 3a
       0.090477906 0.068838336 -0.009119667 0.0016251795
0003f0 a7 f1 82 bd e1 f5 29 bd 40 41 7c ba 36 2c 83 bd
       -0.06393748 -0.041494254 -0.000962276 -0.06404917

move_head.bias f4 [5]
000000 b3 f3 33 bd 33 f2 89 bc 87 65 89 3c 2e c6 b0 bb
       -0.04393358 -0.016839122 0.016772045 -0.0053947186
000010 cc a8 06 3d
       0.03287582
