checkpoints/simple_world_comm_v3_transfer/simple_world_comm_v3_leadadversary_0_ep125.pt (torch, 440053 bytes, 10 tensors)

body.0.weight f4 [256, 34]
0	0xbe2bc9ab	-0.16776149
1	0xbd5e7722	-0.054312833
2	0x3d34dadc	0.044154033
3	0xbd833eb5	-0.06408445
4	0x3e14974a	0.14510837
5	0xbd691957	-0.05690893
6	0xbd381405	-0.044940967
7	0xbd59cb85	-0.053172607
8	0x3c6e68cb	0.014551352
9	0x3e1961ac	0.14978665
10	0xbc015645	-0.007894103
11	0x3e2a36b6	0.16622433
12	0xbca2aa6c	-0.019856654
13	0x3d11b2be	0.035570852
14	0x3d6b7339	0.05748293
15	0x3d3c5184	0.045976177
16	0xbdd851a0	-0.10562444
17	0x3e045bde	0.1292567
18	0xbbb43cfa	-0.005500433
19	0xbe1860f1	-0.1488073
20	0x3d359ee7	0.044340994
21	0xbe1e5a8f	-0.15464233
22	0x3d53d63b	0.051717978
23	0xbe317b33	-0.17332153
24	0xbd312ca2	-0.043255456
25	0xbd9ff05c	-0.07809517
26	0xbd6a940c	-0.057270095
27	0x3d1dea95	0.038553793
28	0xbd9c6331	-0.07636107
29	0xbe0ae51a	-0.13563958
30	0x3e0a096a	0.13480154
31	0x3da74354	0.08167139
32	0xbc4654a2	-0.012105139
33	0xbe23c591	-0.15993334
34	0xbc92dc0c	-0.017927192
35	0x3c41079a	0.0117815975
36	0xbe276fa3	-0.1635118
37	0xbdeee1db	-0.11664172
38	0x3e042739	0.12905587
39	0x3e0fe0bf	0.14050578
40	0x3e1bc64d	0.15212364
41	0x3dfc31e2	0.12314202
42	0xbda03d27	-0.07824164
43	0xbccc7637	-0.024958713
44	0x3e01a0ef	0.12659048
45	0xbcc29102	-0.023750786
46	0x3e185aa0	0.1487832
47	0x3d1e84fb	0.03870104
48	0x3d7dc7bd	0.061958063
49	0x3e1a6e67	0.15081178
50	0x3d528b92	0.051402636
51	0x3cdfe5d2	0.027331267
52	0x3d085260	0.033281684
53	0x3ca2f527	0.019892288
54	0xbdecc5f8	-0.11561197
55	0x3daebc52	0.08532013
56	0xbe26260c	-0.16225451
57	0xbce20f0e	-0.02759507
58	0x3e2af60a	0.16695419
59	0xbe08b819	-0.13351478
60	0xbddbc5da	-0.107310966
61	0x3e1e458d	0.15456219
62	0x3de3ccf1	0.11123074
63	0xbd1255aa	-0.035726227
64	0x3e21b371	0.15791108
65	0x3d178b00	0.036997795
66	0xbdb380db	-0.087648116
67	0xbdcd3e98	-0.100217044
68	0xbbae8a94	-0.0053265784
69	0xbdda0fc2	-0.10647537
70	0x3d9c5c8f	0.07634842
71	0xbe2afcc0	-0.16697979
72	0xbe27f1d9	-0.16400851
73	0xbdba657d	-0.091013886
74	0xbc0af596	-0.008481404
75	0xbd2fb6e1	-0.042899016
76	0xbccf66d2	-0.025317583
77	0xbe271725	-0.16317423
78	0xbc94f35a	-0.018182445
79	0xbdb6f660	-0.08933711
80	0xbdcc92c8	-0.09988934
81	0xbd567983	-0.052361976
82	0x3dd01c8b	0.10161694
83	0xbe00763d	-0.12545104
84	0x3e1a6655	0.15078099
85	0x3dc96131	0.09832991
86	0x3d492a66	0.0491127
87	0x3bffd75e	0.007807656
88	0x3d888d3c	0.06667563
89	0xbd18232a	-0.03714291
90	0xbcdf4bbc	-0.027257793
91	0xbc025b51	-0.007956342
92	0xbcbb84ea	-0.022890527
93	0x3ca714f1	0.020395728
94	0xbdb5270a	-0.08845337
95	0x3d662634	0.056188777
96	0x3d3cfbeb	0.046138685
97	0x3e2b9c01	0.1675873
98	0x3d80888a	0.06276043
99	0x3d41b071	0.04728741
100	0xbd9a4c4f	-0.07534086
101	0xbe1bda7a	-0.15220061
102	0xbd9781bb	-0.07397791
103	0x3df33c5e	0.118767485
104	0x3dae2d9e	0.085047945
105	0x3da32868	0.07966691
106	0x3e0f4b99	0.13993682
107	0xbcdd68cb	-0.027027508
108	0x3df51673	0.119671725
109	0xbd106a82	-0.035257824
110	0x3dbcec69	0.09224779
111	0x3cd95a14	0.02653221
112	0xbdbbb5c9	-0.09165532
113	0xbda78934	-0.08180466
114	0x3e00ae76	0.12566552
115	0xbdea750d	-0.11448107
116	0xbe2198c0	-0.15780926
117	0x3dfde43f	0.1239705
118	0xbdac8340	-0.084234715
119	0xbe1e9171	-0.15485169
120	0x3d8bf799	0.06834335
121	0xbdf8dd40	-0.12151575
122	0xbce7a9cd	-0.02827921
123	0xbd9b65b3	-0.07587757
124	0xbde896b4	-0.11356869
125	0xbc6ddf34	-0.014518548
126	0x3e325423	0.17414908
127	0x3cbda4e4	0.023149915
128	0x3e276170	0.16345763
129	0x3dbd0add	0.09230588
130	0xbdee3efb	-0.11633106
131	0x3d32732d	0.04356687
132	0x3e0226c8	0.12710106
133	0x3e031747	0.12801848
134	0x3e192bea	0.14958158
135	0x3dc656d0	0.09684527
136	0x3da4b6f3	0.08042707
137	0x3d7ff116	0.062485777
138	0xbdbd8675	-0.09254161
139	0xbca7554c	-0.020426415
140	0xbc98050e	-0.018557098
141	0x3dac6bfb	0.08419033
142	0xbd5eb0e8	-0.05436793
143	0x3db1ff01	0.08691216
144	0x3e08b1ac	0.13349026
145	0x3d494fff	0.049148556
146	0xbe24da0b	-0.16098802
147	0x3c860db5	0.016363958
148	0x3b56f926	0.0032802313
149	0x3d9f85c1	0.077891834
150	0xbe1cd424	-0.153153
151	0x3ccc3576	0.024927836
152	0xbddbdbd3	-0.107352875
153	0xbc6269b7	-0.01381915
154	0xbe04a100	-0.12952042
155	0xbdd20608	-0.102550566
156	0x3dbcd7bb	0.09220835
157	0xbd587d6f	-0.052853998
158	0x3dc2f8f4	0.0952014
159	0xbdeff247	-0.117161326
160	0xbdb397e6	-0.08769207
161	0x3c3f54da	0.011677945
162	0x3dc54c89	0.096337385
163	0xbd8fe115	-0.07025353
164	0xbe2bd017	-0.16778599
165	0xbddc7fee	-0.10766588
166	0x3df6c8c4	0.12050012
167	0x3da7d99c	0.081958026
168	0x3db7f880	0.089829445
169	0xbcd417a2	-0.025890175
170	0x3c01203c	0.00788122
171	0x3dce22f6	0.10065262
172	0x3d9bc253	0.07605424
173	0xbe205892	-0.15658787
174	0x3cd1527d	0.025552029
175	0xbdc79db8	-0.09746879
176	0xbe01a965	-0.12662275
177	0x3d3bb9b9	0.045831416
178	0xbe1ecb5a	-0.1550726
179	0xbd2ff253	-0.042955708
180	0x3c30f651	0.010800914
181	0x3dcd4682	0.10023214
182	0xbe0f6cf2	-0.14006403
183	0x3a94bd99	0.0011348008
184	0x3e2e3522	0.17012456
185	0xbe267159	-0.16254176
186	0xbd1e132b	-0.0385925
187	0x3d538e9f	0.051649686
188	0xbd5c1f59	-0.053740833
189	0x3dcf2d1b	0.10116025
190	0xbd16e61f	-0.036840554
191	0xbd88f52a	-0.06687386
192	0x3dd3a8c5	0.103349246
193	0xbe18d18a	-0.14923683
194	0xbe0531ef	-0.1300733
195	0xbdf23274	-0.118260294
196	0x3d37737b	0.044787865
197	0xbcac8873	-0.021061158
198	0xbe1ffda2	-0.15624097
199	0xbdc6ad71	-0.0970105
200	0xbafe49ba	-0.0019400634
201	0xbd3e19e6	-0.046411417
202	0xbd90d847	-0.07072502
203	0x3da779db	0.08177539
204	0x3d863a92	0.0655414
205	0x3e1d71f5	0.15375502
206	0x3d76f304	0.06029035
207	0x3e14cf04	0.14532095
208	0x3e09d03d	0.13458343
209	0x3bc5d501	0.006037355
210	0xbde8fdd7	-0.11376541
211	0x3b9b185b	0.004733128
212	0xbe2d56a2	-0.16927579
213	0x3dbf1f72	0.093321696
214	0x3dadd2f1	0.084874995
215	0xbdfe0805	-0.12403873
216	0x3c71ea57	0.014765344
217	0x3e0b6129	0.13611282
218	0xbda0cb7b	-0.07851311
219	0xbd1ef8b3	-0.038811397
220	0x3e1bb210	0.15204644
221	0x3d8045d8	0.06263322
222	0xbd847ab1	-0.06468714
223	0xbe2eb45c	-0.17060989
224	0x3e23088d	0.1592123
225	0xbdfaa5a7	-0.12238627
226	0xbd8f334a	-0.069922045
227	0x3e1353f4	0.14387494
228	0xbdeb2c21	-0.11483026
229	0x3d00c7f5	0.031440694
230	0xbe22d37d	-0.15900989
231	0x3e1d8151	0.15381362
232	0x3d847fb6	0.064696714
233	0xbe08c4af	-0.13356279
234	0xbe11b12e	-0.14227745
235	0x3e0b8e14	0.13628417
236	0xbdb3d11a	-0.08780117
237	0xbca0ae03	-0.019614225
238	0xbe04bf11	-0.12963511
239	0x3df7dbc8	0.12102467
240	0xbcba5440	-0.022745252
241	0x3d5eeb8e	0.05442386
242	0x3dd4a9c0	0.1038394
243	0x3ca411a3	0.020027941
244	0xbd20fb8b	-0.03930239
245	0xbcc8bcfb	-0.024504175
246	0xbc88dd87	-0.016707195
247	0xbe1793bc	-0.1480245
248	0xbdaa2845	-0.08308462
249	0xbde88c8a	-0.11354931
250	0x3d78037e	0.060550205
251	0x3d527621	0.051382188
252	0xbaed8e40	-0.0018124059
253	0x3e28d5ec	0.16487855
254	0xbd9ed5ee	-0.077556476
255	0x3dfc0582	0.12305738

body.0.bias f4 [256]
0	0xbc2be3b6	-0.010491302
1	0x3dbfda24	0.09367779
2	0x3d96a371	0.07355393
3	0xbd2628c9	-0.04056624
4	0x3d5d5190	0.054032862
5	0x3d2cd0df	0.042191382
6	0x3df16aa8	0.11787921
7	0x3d2d2360	0.042270064
8	0x3cee8434	0.029115774
9	0x3e0ee8f8	0.13956058
10	0xbdc39dcf	-0.09551584
11	0x3e10a7b3	0.14126472
12	0xbd808047	-0.06274467
13	0xbc6f8b24	-0.014620576
14	0x3c7331ad	0.014843387
15	0x3e137dde	0.14403483
16	0xbccc47d1	-0.024936588
17	0x3dff7b65	0.124747075
18	0x3c3b90eb	0.011448125
19	0xbdb92093	-0.09039416
20	0xbc27fbb9	-0.010252886
21	0xbe04d696	-0.12972483
22	0x3c5f19cb	0.013616989
23	0x3bd25ebe	0.0064199856
24	0xbdaffbd7	-0.085929565
25	0x3d9d9676	0.07694714
26	0xbddf59ad	-0.10905776
27	0x3de333ce	0.11093865
28	0x3db82f41	0.08993388
29	0x3de597a6	0.11210565
30	0xbd9b2790	-0.07575905
31	0xbdba6586	-0.09101395
32	0x3d044487	0.032291915
33	0x3e14e30d	0.14539738
34	0x3c904ba0	0.017614186
35	0xbc606b19	-0.013697409
36	0xbd0bc0a9	-0.034119282
37	0xbdee770f	-0.116438024
38	0x3e046609	0.12929548
39	0xbd926af3	-0.07149305
40	0x3b6415a4	0.0034802938
41	0xbdfb93ff	-0.122840874
42	0x3dce4082	0.10070898
43	0xbdc62fae	-0.09677063
44	0x3dd793f2	0.10526265
45	0xbb7dc645	-0.0038722914
46	0xbdddc433	-0.10828438
47	0xbd9a254f	-0.07526647
48	0xbd4da89c	-0.050209627
49	0x3d9aaec6	0.07552867
50	0x3d1db696	0.038504206
51	0x3db9c78a	0.09071262
52	0xbd4e4b19	-0.050364587
53	0xbe28b6fe	-0.16476056
54	0x3dfeb489	0.12436778
55	0xbd09a81b	-0.033607583
56	0x3d97f474	0.074196726
57	0xbe30ae81	-0.17254068
58	0x3d55a399	0.052157972
59	0x3dd58ef1	0.104276545
60	0xbd5430cd	-0.051804353
61	0x3d3ad709	0.04561523
62	0x3e0cba20	0.13742876
63	0xbe23a51e	-0.15980956
64	0xbe2514c3	-0.16121201
65	0x3cc02b48	0.023458138
66	0x3e266398	0.1624893
67	0xbdbe6db0	-0.09298265
68	0x3de2635b	0.11054107
69	0xbdfea27d	-0.12433336
70	0xbc8617a2	-0.01636869
71	0x3e22eab8	0.1590985
72	0xbdff761e	-0.12473701
73	0x3df6a4ae	0.12043129
74	0x3e2c5973	0.16830997
75	0xbbbdec94	-0.0057960246
76	0xbe0880a5	-0.13330324
77	0xbca8f3c0	-0.020624042
78	0xbd3175ea	-0.043325342
79	0xbdacc587	-0.08436113
80	0xbe0df56d	-0.13863154
81	0xbdb26946	-0.087114856
82	0x3e032ee3	0.12810855
83	0x3cf3b6d5	0.029750267
84	0x3e017aed	0.12644549
85	0x3db4a31e	0.08820175
86	0x3dbf3bdc	0.09337589
87	0x3d56faf5	0.052485425
88	0xbdd99934	-0.10624924
89	0x3e21d7e4	0.15805012
90	0x3e250f21	0.16119052
91	0xbd181d7c	-0.037137493
92	0xbdc900cb	-0.09814604
93	0xbc6b8451	-0.014374808
94	0xbe3062f7	-0.17225252
95	0x3c640981	0.0139182815
96	0xbe215f55	-0.15759023
97	0xbd28b307	-0.04118636
98	0x3db1a12c	0.08673319
99	0x3d24f0dc	0.040268764
100	0x3d1bbb2f	0.03802031
101	0xbda56aad	-0.080769874
102	0xbe191b8e	-0.14951918
103	0x3d03fb3e	0.032222025
104	0xbdbd5892	-0.09245409
105	0x3d8fa5b8	0.0701403
106	0xbde62b8c	-0.11238775
107	0x3e1c79bc	0.15280813
108	0x3e17dade	0.14829585
109	0x3e1a4b91	0.15067889
110	0xbd998bf6	-0.074973986
111	0x3c4e3ca1	0.012587697
112	0x3dbbcd4b	0.09170016
113	0xbd0d65ef	-0.03452104
114	0xbd15562d	-0.036459137
115	0xbd7e9ba1	-0.062160138
116	0xbd827961	-0.063708074
117	0xbe0c1b36	-0.13682255
118	0x3d8b2dfb	0.067958795
119	0xbe0d3c2f	-0.1379249
120	0x3d875541	0.06608058
121	0xbde137f1	-0.10996998
122	0xbe05a29d	-0.13050313
123	0xbdd5a74d	-0.10432301
124	0xbe07b696	-0.13253245
125	0xbddec41b	-0.10877248
126	0x3d6c0da6	0.057630204
127	0x3e0fc400	0.14039612
128	0x3a624ea7	0.0008632936
129	0xbdba0c5c	-0.090843886
130	0xbda64663	-0.08118894
131	0xbe05d112	-0.13068035
132	0x3e0a3268	0.13495791
133	0x3dc67cea	0.09691794
134	0xbd937f05	-0.072019614
135	0x3e14837e	0.14503285
136	0x3e2af048	0.16693223
137	0xbdb907e7	-0.090347104
138	0xbe0ccad4	-0.13749248
139	0xbc9ad49d	-0.01890021
140	0xbd295851	-0.04134399
141	0xbdbb0203	-0.09131243
142	0x3d6c7496	0.057728373
143	0xbd8edc79	-0.069756456
144	0x3e2b51f9	0.16730489
145	0x3c627797	0.013822458
146	0xbdab83bb	-0.08374735
147	0x3d4ea608	0.05045131
148	0x3d7dd84a	0.061973847
149	0xbe16966d	-0.1470582
150	0x3e0d33a3	0.13789229
151	0x3c226260	0.00991115
152	0xbdf0c519	-0.117563434
153	0x3d6b0ba3	0.057384145
154	0xbe1e91ae	-0.1548526
155	0x3cd47d97	0.025938792
156	0x3c715550	0.014729813
157	0x3d359045	0.04432704
158	0x3e0353b9	0.12824906
159	0xbe26360b	-0.16231553
160	0xbe08f23e	-0.13373658
161	0xbde79934	-0.11308518
162	0x3e016c7d	0.12639041
163	0xbc8157ca	-0.015788931
164	0x3b453ad9	0.003009489
165	0xbc0e7fa5	-0.008697425
166	0x3c7e340d	0.01551534
167	0xbda770e2	-0.081758276
168	0xbd8eaebd	-0.069669224
169	0x3cc96988	0.024586454
170	0x3d1f8266	0.038942717
171	0x3e108963	0.14114909
172	0x3d0c658c	0.03427653
173	0x3d95adef	0.07308566
174	0xbe15f221	-0.14643146
175	0x3c566b0e	0.013087047
176	0xbd0435df	-0.032277938
177	0x3d85c21b	0.06531163
178	0x3d73adfc	0.059492096
179	0x3dc30643	0.09522679
180	0xbd5b1812	-0.053489752
181	0x3d041477	0.03224608
182	0xbd106dc5	-0.035260934
183	0xbd808149	-0.06274659
184	0xbdff97ce	-0.12480126
185	0xbdbe975d	-0.09306214
186	0xbdfd1fc6	-0.12359576
187	0x3e245d18	0.16051137
188	0xbdff3ad8	-0.124623954
189	0xbe0fc446	-0.14039716
190	0xbe09d712	-0.13460949
191	0xbe27fc42	-0.16404822
192	0x3d295bca	0.041347302
193	0x3e2c359a	0.16817322
194	0xbd453503	-0.04814626
195	0x3d2e5c4b	0.042568486
196	0xbe0ebd3c	-0.13939375
197	0x3d791ff4	0.06082149
198	0xbe0e9b7d	-0.13926502
199	0x3d8e47cc	0.06947288
200	0x3e122b84	0.14274412
201	0xbdd7fe55	-0.10546557
202	0x3d9953d1	0.0748669
203	0x3d93757b	0.07200142
204	0x3b523c18	0.0032079276
205	0xbde9ddbd	-0.11419246
206	0xbe1836dc	-0.14864677
207	0x3dd0ed04	0.10201457
208	0xbdb6b2ed	-0.08920846
209	0xbd67826b	-0.05652086
210	0x3d8f4969	0.06996424
211	0xbcef2436	-0.029192071
212	0xbc9f6f9a	-0.019462395
213	0xbe13fb80	-0.14451408
214	0x3e2c9c09	0.16856398
215	0xbda37c6c	-0.07982716
216	0x3e187bdd	0.14891
217	0xbdbf2caa	-0.09334691
218	0x3db7b9ee	0.0897101
219	0x3d8d6196	0.06903379
220	0x3d6783b6	0.056522094
221	0x3ded02ed	0.11572824
222	0xbc354360	-0.011063427
223	0xbe0f2f2e	-0.13982841
224	0xbded29a3	-0.11580207
225	0xbd294b8b	-0.04133181
226	0xbe2e642c	-0.170304
227	0x3e2af1c7	0.16693793
228	0xbd8fcafc	-0.07021138
229	0x3e2c667d	0.16835971
230	0x3d3af6ba	0.045645453
231	0xbd9cd503	-0.07657816
232	0x3d280c40	0.041027308
233	0xbd482127	-0.04885974
234	0x3dc461d1	0.095889695
235	0x3cb564a1	0.02214271
236	0x3d12ed5e	0.035870902
237	0xbe0811bb	-0.13288014
238	0xbd8e14e3	-0.069375776
239	0x3d6f80c1	0.0584724
240	0x3d13e776	0.03610941
241	0x3dc63727	0.09678488
242	0xbda4251d	-0.08014891
243	0x3d02e3e7	0.031955626
244	0xbd9639b3	-0.07335224
245	0xbdb643ed	-0.088996746
246	0xbdad5efa	-0.08465381
247	0x3df3e055	0.11908022
248	0x3e2eea60	0.17081594
249	0x3cc9be37	0.024626834
250	0xbe07a4b9	-0.1324643
251	0xbc25ba62	-0.010115238
252	0xbc0dd480	-0.008656621
253	0x3df1bcc8	0.11803585
254	0xbd9a9b6e	-0.07549177
255	0x3d5d04ec	0.053959772

body.2.weight f4 [256, 256]
0	0xba3f2142	-0.00072910276
1	0x3d36950e	0.044575743
2	0x3ae55e90	0.0017499495
3	0x3c243a99	0.010023736
4	0xbd3bc92a	-0.045846142
5	0x3d279f27	0.040923264
6	0x3cc6b4e6	0.024256181
7	0xbce15133	-0.02750454
8	0x3cc16383	0.023607021
9	0x3d680564	0.056645766
10	0xbcd43687	-0.025904907
11	0xbd308192	-0.043092318
12	0x3d35d8ab	0.044396084
13	0xbc1e95ef	-0.009679302
14	0xb90786db	-0.00012924841
15	0xbd79598f	-0.060876425
16	0xbd316c74	-0.04331632
17	0xbd776053	-0.060394596
18	0xbd677d1d	-0.0565158
19	0xbd1fef6a	-0.039046682
20	0xbd28c2c3	-0.041201364
21	0x3d3bfee5	0.045897383
22	0x3a9539f1	0.0011385066
23	0xbccbab98	-0.024862096
24	0x3d701d66	0.058621787
25	0xbcec6275	-0.028855542
26	0xbb6c7d17	-0.0036085302
27	0xbcbc891c	-0.023014598
28	0xbd7dc6e0	-0.06195724
29	0xbd815eb0	-0.06316888
30	0xbca7e661	-0.020495595
31	0xbd570822	-0.05249799
32	0xbd4a2c14	-0.049358442
33	0x3bbe5d28	0.005809445
34	0x3d4fb9f2	0.05071444
35	0xbd80faaa	-0.062978104
36	0xbd84dbf0	-0.06487262
37	0x3bfc05e0	0.00769113
38	0x3ccfd7d9	0.025371479
39	0x3d7b898d	0.061410476
40	0x3d44dc02	0.04806138
41	0x3b9296be	0.0044735363
42	0xbc869295	-0.016427318
43	0x3c9866b5	0.018603662
44	0xbc72d8ae	-0.014822168
45	0xbbdab540	-0.0066744387
46	0xbd45d200	-0.048295975
47	0xbce82639	-0.028338538
48	0x3d2d3ac6	0.04229238
49	0xbd22a06f	-0.039703783
50	0x3cd7e935	0.026356319
51	0x3d2effc3	0.042724382
52	0xbc039289	-0.008030542
53	0x3d263e0a	0.04058651
54	0xbb81e1f1	-0.003963702
55	0x3c0f568a	0.00874866
56	0xbc0359cc	-0.008017015
57	0x3ccb2fed	0.024803126
58	0x3ca1e4b1	0.019762369
59	0x3d1f8af1	0.038950864
60	0x3c88d860	0.016704738
61	0xbc2bc86e	-0.010484798
62	0x3bb41629	0.0054958058
63	0xbce5c9a6	-0.028050255
64	0xbc90ff56	-0.017699879
65	0xbd5e0aa8	-0.05420938
66	0xbcebee83	-0.028800255
67	0x3d206da7	0.039167073
68	0xbd1e5bad	-0.038661648
69	0x3d6463eb	0.05575935
70	0x3d07c27c	0.03314446
71	0xbd1bcdd8	-0.038038105
72	0xbbb45725	-0.0055035525
73	0xbd833ed0	-0.06408465
74	0x3d155ec5	0.036467332
75	0xbd3688d1	-0.044564072
76	0xbd3111f8	-0.043230027
77	0x3ba4eb02	0.005032898
78	0xbcc2e146	-0.02378906
79	0x3d27bacd	0.04094963
80	0xbd67113e	-0.056412928
81	0x3bfbb015	0.0076809027
82	0xbd28d9d6	-0.04122337
83	0x3d35c300	0.04437542
84	0xbb86e660	-0.0041168183
85	0x3d02c476	0.03192564
86	0x3ad3a4a5	0.001614709
87	0xbcd97aa5	-0.02654774
88	0x3c975479	0.018472897
89	0x3c75747a	0.014981383
90	0x3c8efdae	0.017454948
91	0xbab4a59f	-0.0013782269
92	0x3d1ff720	0.039054036
93	0x3d086324	0.033297673
94	0xbd6e86e1	-0.0582341
95	0xbb3be058	-0.0028667655
96	0x3ca1c8d4	0.019749083
97	0x3af8378e	0.0018937455
98	0x3d1bb802	0.03801728
99	0xbc550e88	-0.013003953
100	0xbc65c4c0	-0.01402396
101	0xbd3f13d0	-0.046649754
102	0x3d4aba8d	0.049494315
103	0xbd12eb73	-0.035869073
104	0xbd48df82	-0.04904128
105	0x3bd39855	0.0064573684
106	0x3b11f9b7	0.0022274086
107	0x3d09360d	0.033498812
108	0xbc18fcc1	-0.009337605
109	0xbd3bcfde	-0.045852534
110	0x3d2a7c2c	0.041622326
111	0xbd3f4d74	-0.046704724
112	0x3ca49d65	0.020094583
113	0xbca66c00	-0.02031517
114	0xbd0aa2d7	-0.033846702
115	0xbc12afa1	-0.008953006
116	0x3d2e89ad	0.042611767
117	0x3d6261cc	0.055269048
118	0xbd5ddbbf	-0.054164644
119	0xba31b6c6	-0.00067792495
120	0x3c98b834	0.018642522
121	0x3d3cadb2	0.046064086
122	0x3d5ebe4d	0.054380704
123	0xbd6a51a0	-0.05720675
124	0x3d5533ec	0.05205147
125	0xbce12130	-0.027481645
126	0xbc8f7d18	-0.017515704
127	0xbbe88f22	-0.007097141
128	0xbd879f53	-0.066221856
129	0x3d204977	0.03913256
130	0xbd518391	-0.051150862
131	0xbd81be58	-0.06335133
132	0xbc99c0ab	-0.018768629
133	0x3c0bb1d6	0.008526286
134	0x3ba44bcd	0.005013919
135	0x3ca34611	0.019930871
136	0xbd84868e	-0.06470977
137	0xbcedf6f4	-0.02904842
138	0xbc86b7b9	-0.016445028
139	0x3d2b739d	0.041858304
140	0x3a005e87	0.0004896898
141	0xbd02741d	-0.031849016
142	0xbcc7e63e	-0.02440178
143	0xbcc1ee57	-0.02367322
144	0xbc6a9fc9	-0.014320322
145	0xbc61e1fc	-0.013786789
146	0xbb981637	-0.00464132
147	0xbcbec918	-0.023289248
148	0x3d43293a	0.04764674
149	0xbd33dac0	-0.043909788
150	0xbc66a40b	-0.014077197
151	0x3b950365	0.004547524
152	0x3cca02d8	0.02465956
153	0xbc22e93e	-0.009943305
154	0x3b1b0cc7	0.002365874
155	0x3d573865	0.052544016
156	0x3d3fb2ac	0.046801254
157	0x3aa1ec32	0.0012353717
158	0xbcb1a988	-0.021687284
159	0xbbd64790	-0.0065392926
160	0xbb1c5ba6	-0.0023858338
161	0xbd193887	-0.037407424
162	0xbd559e03	-0.052152645
163	0xbd167451	-0.03673202
164	0xbd3e348e	-0.04643684
165	0xbb64650c	-0.0034850268
166	0x3d69c26e	0.05707019
167	0xbd676fb2	-0.056503005
168	0x3d59646e	0.053074293
169	0x3c8d4caf	0.01724848
170	0x3d52915b	0.051408153
171	0xbd16acc3	-0.036785852
172	0x3d10bd47	0.03533676
173	0x3d6fe301	0.058566097
174	0xbd12a3f0	-0.035800874
175	0x3d295ab4	0.041346267
176	0x3d5bf5fd	0.05370139
177	0xbcb59981	-0.022167923
178	0x3be9ee74	0.0071390215
179	0xbb0506de	-0.0020298283
180	0x3cb5790f	0.022152452
181	0x3d587a0d	0.05285077
182	0x3cda6563	0.026659673
183	0x3c5ab2f4	0.01334833
184	0xbd0dcf3e	-0.03462147
185	0xbcef98f2	-0.029247735
186	0x3cf19f50	0.029494911
187	0xba951d0e	-0.0011376457
188	0x3c907fcf	0.017639069
189	0xbceee356	-0.029161137
190	0xbd2794a9	-0.040913258
191	0x3d44eef0	0.04807943
192	0x3d13f515	0.0361224
193	0xbd2d26e7	-0.04227343
194	0x3d5a00bc	0.053223357
195	0xbd06c32e	-0.03290098
196	0xbd0de549	-0.03464249
197	0xbd328a59	-0.04358897
198	0xbd627146	-0.055283807
199	0x3d3bfaac	0.045893356
200	0x3d316760	0.043311477
201	0x3d750fa7	0.05982938
202	0xbc45be5e	-0.012069313
203	0xbcbd1b9c	-0.023084454
204	0xbc37207a	-0.011177177
205	0x3ad34a5b	0.0016120182
206	0x3d278eaa	0.04090754
207	0x3d357123	0.04429735
208	0xbd50b6e1	-0.050955657
209	0x3d602492	0.054722376
210	0xbd492841	-0.049110655
211	0x3bb73407	0.005590919
212	0xbb2539b9	-0.0025211407
213	0xbcd66467	-0.026170922
214	0xbd5e2f4d	-0.05424433
215	0xbc049e13	-0.008094328
216	0xbd021994	-0.031762674
217	0x3b89d22a	0.0042059617
218	0xbd598e51	-0.05311424
219	0x3ccda13d	0.025101298
220	0x3d1a7aa3	0.03771461
221	0x3d125828	0.035728604
222	0x3d26d7e5	0.040733237
223	0xbcfe00e8	-0.031006292
224	0xba86faef	-0.0010298173
225	0x3c858365	0.016298005
226	0xbd2d95c5	-0.04237916
227	0xbd7537c8	-0.05986765
228	0xbcd29396	-0.02570514
229	0xbcf612f4	-0.030038334
230	0xbc452058	-0.012031637
231	0x3c6849b0	0.014177725
232	0xbc5274ba	-0.012845213
233	0xbc8ae956	-0.016956966
234	0xbd024071	-0.031799737
235	0x3c88bfea	0.016693074
236	0xbadacaee	-0.0016692558
237	0xbd6e9858	-0.058250755
238	0xbd2d11d9	-0.04225335
239	0x3d540c02	0.051769264
240	0x3c7885c6	0.015168613
241	0x3c8f2c0d	0.01747706
242	0xbc73c775	-0.014879097
243	0x3b5d0327	0.0033723803
244	0xbd7ca65d	-0.061682094
245	0x3d590fd0	0.052993596
246	0xbd7cac9b	-0.061688047
247	0xbbc181aa	-0.0059053497
248	0xbc3c6eb5	-0.011501004
249	0x3d1b7aaa	0.03795878
250	0xbccfb7ba	-0.025356162
251	0xbd8184cd	-0.06324158
252	0xbd028c34	-0.03187199
253	0xbd5a6e99	-0.05332813
254	0xbc704566	-0.014664983
255	0xbd0dff96	-0.034667574

body.2.bias f4 [256]
0	0xbd764daa	-0.06013266
1	0xbcba2708	-0.02272369
2	0x3cd82cd2	0.02638856
3	0x3d52c442	0.051456697
4	0xbd8242e9	-0.06360418
5	0x3bb803d9	0.005615693
6	0xbac3cd66	-0.0014938533
7	0x3bf3818d	0.007431215
8	0xbcfe4cbd	-0.031042451
9	0xbd4be1a6	-0.049775742
10	0xbce0aac3	-0.027425176
11	0xbbe189a6	-0.006882864
12	0xbd55f5de	-0.05223643
13	0xbd1c8cf8	-0.038220376
14	0x3d44303a	0.047897555
15	0x3c23c5a9	0.009995856
16	0x3d5fc49c	0.05463086
17	0xbcbec345	-0.023286471
18	0x3d84b618	0.06480044
19	0xbd2b8413	-0.041874003
20	0x3cd56703	0.026050096
21	0x3d695290	0.056963503
22	0xbca68320	-0.020326197
23	0xbd496e3f	-0.049177404
24	0x3c80cd6c	0.015722953
25	0xbcd689ec	-0.026188813
26	0x3cc44b30	0.023961633
27	0x3becce60	0.0072267503
28	0x3a568916	0.00081838795
29	0xbc8e3bfd	-0.017362589
30	0xbb34f195	-0.0027609814
31	0x3d57ae13	0.052656244
32	0x3caf47d8	0.021396562
33	0x3ceede19	0.029158639
34	0x3c8b57de	0.017009672
35	0xbb030961	-0.0019994604
36	0xbd5b210b	-0.05349831
37	0xbcb03ae0	-0.021512449
38	0xbd3baf88	-0.045821697
39	0x3cad173a	0.02112924
40	0xbcfd1714	-0.030894794
41	0x3cb17365	0.02166147
42	0x3cb07d8e	0.021544244
43	0x3bd8802f	0.0066070776
44	0xbc06e71d	-0.008233813
45	0x3ca790b9	0.020454751
46	0x3cc6510c	0.024208568
47	0x3c8bf1a2	0.017082993
48	0xbc60ef0b	-0.013728867
49	0x3b7a8ce0	0.003823094
50	0xbcdc363d	-0.026881332
51	0xbc5daac3	-0.013529482
52	0x3cc84567	0.024447156
53	0x3d6bbff4	0.057556108
54	0x3c22adab	0.009929101
55	0xbd6ddc81	-0.058071617
56	0xbcd924ba	-0.02650677
57	0xbbddee2d	-0.0067727775
58	0xbd1fd7e8	-0.039024264
59	0x3cf32f17	0.02968554
60	0x3c694d84	0.014239673
61	0xbd186f03	-0.037215244
62	0x3d583f8a	0.05279497
63	0xbcb9d834	-0.022686101
64	0xbd7817db	-0.060569625
65	0x3d97edab	0.074183784
66	0x3ba4b9bd	0.0050270245
67	0x3b17b854	0.002315064
68	0xbbe6c267	-0.0070422175
69	0x3d5cda41	0.05391908
70	0x3d6a0fe5	0.057144064
71	0x3d6689b2	0.05628366
72	0x3d4421d8	0.04788384
73	0xbab711fb	-0.0013967151
74	0xbc982c4b	-0.018575808
75	0x3d01db94	0.031703547
76	0xbcf53e93	-0.029937064
77	0x3c5d9142	0.013523402
78	0x3acb436a	0.0015507762
79	0xbcb5a897	-0.022175116
80	0x3cc10f0e	0.023566749
81	0x3d1ec1fc	0.038759217
82	0x3d636e79	0.055525277
83	0x3c35f3b2	0.011105465
84	0x3cfa5b1a	0.030561019
85	0x3d55591c	0.052086934
86	0x3d4b0743	0.049567472
87	0x3cfb3b63	0.030667966
88	0x3d83fcb9	0.064446874
89	0xbd6c4d2b	-0.05769078
90	0xbc2d2b54	-0.010569412
91	0x3d3c44ce	0.045964055
92	0xbd3bdb81	-0.045863632
93	0xbd16ed85	-0.03684761
94	0xbd3ee917	-0.04660901
95	0x3c9602a5	0.018311808
96	0x3d91ffc7	0.07128864
97	0xbd07ee0f	-0.033186015
98	0x3c98f97b	0.018673649
99	0xbd3ab788	-0.045585185
100	0xbd4bc6e0	-0.04975021
101	0xbd7ba8b4	-0.061440185
102	0x3d3b3ffd	0.04571532
103	0xbcb3c773	-0.02194569
104	0xbc7d4d44	-0.015460316
105	0x3cefc3e9	0.029268222
106	0xbc2028dc	-0.009775367
107	0x3d5e749f	0.054310437
108	0x3c13121f	0.008976488
109	0xbcb1fdbc	-0.021727435
110	0xbc17f9da	-0.009275878
111	0xbcfed569	-0.031107621
112	0x3ce4e4d6	0.027941149
113	0x3d5cc227	0.053896096
114	0x3a1af26d	0.0005910758
115	0xbd4212ab	-0.047381084
116	0x3d42597f	0.04744863
117	0xbd51333e	-0.05107426
118	0x3d2ac226	0.04168906
119	0xbbc47c17	-0.005996238
120	0xbc027cbd	-0.00796431
121	0x3c9582c9	0.01825084
122	0xbd1d0240	-0.038332224
123	0xbd7fe538	-0.06247446
124	0x3d01212d	0.03152578
125	0x3d73fe32	0.05956859
126	0x3d43824d	0.047731686
127	0x3d21edde	0.03953349
128	0x3c35d511	0.011098162
129	0x3d4483ae	0.047977142
130	0x3a9d0cdb	0.0011981981
131	0x3d3439ba	0.044000365
132	0xbd33cf92	-0.043899126
133	0x3cfce02c	0.030868612
134	0x3d7a4915	0.061104853
135	0xbbda72c7	-0.0066665146
136	0x3c37e6c6	0.011224454
137	0xbbfd672e	-0.0077332472
138	0x3d0b25bd	0.033971537
139	0x3c3c60ad	0.011497659
140	0x3c5009c0	0.012697637
141	0x3b52d0cc	0.003216791
142	0xbd105143	-0.035233747
143	0x3cdb9427	0.026804043
144	0x3ce758be	0.028240558
145	0xbd65cda2	-0.05610431
146	0x3c0936a3	0.008374843
147	0xbd167644	-0.03673388
148	0xbd4e8f38	-0.050429553
149	0xbd25bf1f	-0.04046547
150	0xbccd683e	-0.02507412
151	0x3d6009fd	0.054697026
152	0xbcabde30	-0.02097997
153	0xba9ce4df	-0.0011970064
154	0x3ced43a0	0.02896291
155	0xbd59bf0e	-0.05316072
156	0x3d2e8678	0.04260871
157	0x3d77dc42	0.06051279
158	0xbd587dcf	-0.052854355
159	0xbd2f725f	-0.042833682
160	0xbd601f63	-0.054717433
161	0xbd3a206b	-0.045441072
162	0x3d06a3c6	0.03287103
163	0x3d0d2b43	0.034465086
164	0xbd0b90fe	-0.034073822
165	0x3c8f4616	0.017489474
166	0xbd80da1f	-0.06291603
167	0x3d130ecf	0.035902794
168	0x3cebc75e	0.02878159
169	0x3ccccb91	0.024999412
170	0xbcaaf4dd	-0.020868713
171	0x3d0877f2	0.033317514
172	0x3ca1ee6c	0.019767009
173	0xba81c8f9	-0.0009901813
174	0x3ba024ef	0.0048872153
175	0xbc465ff9	-0.012107843
176	0x3d66b26e	0.056322508
177	0x3d62445f	0.055240985
178	0x3c6168e8	0.013757922
179	0x3cd66673	0.026171898
180	0xbd2e00d9	-0.042481277
181	0xbc93cca1	-0.01804191
182	0xba8af0a6	-0.0010600283
183	0x3c595667	0.013265229
184	0x3d6fa496	0.05850657
185	0x3b868bc0	0.004106015
186	0xbc849b73	-0.016187405
187	0xbc6189d1	-0.013765768
188	0xbd7552f9	-0.059893582
189	0x3d03b52b	0.032155197
190	0x3d5ea0eb	0.054352682
191	0x3d25ed68	0.04050961
192	0x3cdfb5f4	0.027308442
193	0xbd6cc289	-0.05780271
194	0x3c8fcaf8	0.017552838
195	0x3cb4048d	0.021974826
196	0x3d2cb846	0.042167924
197	0x3c10e7a3	0.008844289
198	0xbbf0eb6d	-0.0073522837
199	0xbce18868	-0.027530864
200	0xbd40c3a8	-0.047061592
201	0x3d5351ed	0.051591802
202	0x3afd7521	0.0019337275
203	0xbd77e83c	-0.06052421
204	0x3cfcf670	0.03087923
205	0x3d6ab234	0.057298854
206	0xbcc78862	-0.024357025
207	0x3cce1170	0.0251548
208	0x3cc20957	0.023686094
209	0xbcebadc6	-0.028769385
210	0x3d3f99d1	0.04677755
211	0x3d8444fa	0.06458469
212	0x3bdbab26	0.006703752
213	0xbd01dcea	-0.03170482
214	0x3d465de6	0.048429392
215	0xbd0f7b46	-0.035029672
216	0x3cde0145	0.027100215
217	0xbd052f15	-0.032515604
218	0x3ce441f4	0.02786348
219	0xbcd56316	-0.026048224
220	0x3a6c807e	0.00090218324
221	0x3aee4525	0.0018178566
222	0x3b9a94aa	0.004717429
223	0x3ceb4887	0.028721107
224	0x3a906d0a	0.0011018824
225	0x39f732eb	0.00047149448
226	0x3d3c0bf6	0.045909844
227	0xbd6e6c9d	-0.05820905
228	0x3c30497f	0.01075971
229	0x3cf1680e	0.029468562
230	0x3c922f21	0.017844738
231	0xbd45aae9	-0.048258696
232	0xbd02dff2	-0.031951852
233	0xbd78a8e7	-0.060707953
234	0xbb7df09c	-0.003874815
235	0xbd07e437	-0.033176627
236	0x3ca49f11	0.02009538
237	0x3d26618f	0.040620383
238	0xbc9f3180	-0.019432783
239	0x3d3077f2	0.04308314
240	0xbd2affb7	-0.041747775
241	0xbc1061e7	-0.008812404
242	0xbc218a19	-0.009859585
243	0xbd026068	-0.03183022
244	0xbcb860dc	-0.022507124
245	0xbbd0a27b	-0.0063670254
246	0xbd033ed2	-0.032042332
247	0xbd254abe	-0.040354483
248	0xbd61d1d4	-0.05513175
249	0xbc16444e	-0.009171559
250	0x3b350359	0.0027620404
251	0xbd3c65cf	-0.04599553
252	0x3ce1a8ff	0.027546404
253	0x3cfedf38	0.031112298
254	0xbd690795	-0.056891996
255	0xbc5cc9f8	-0.0134758875

body.4.weight f4 [128, 256]
0	0x3cd8d28b	0.026467582
1	0xbcf679eb	-0.030087432
2	0x3d6c5894	0.057701662
3	0xbd1a3c24	-0.03765501
4	0x3cf6d995	0.030133048
5	0x3d2d04d3	0.04224093
6	0xbb92ff74	-0.004486019
7	0xb950fbcd	-0.00019930229
8	0x3d3f8e14	0.046766356
9	0x3d3c1122	0.045914777
10	0x3d100e8c	0.035170123
11	0x3ced0fd3	0.02893821
12	0x3d2c261b	0.042028528
13	0xbaf2a4a6	-0.0018512204
14	0xbd475dc7	-0.048673417
15	0xba949176	-0.0011334855
16	0xbd166310	-0.036715567
17	0xbcfae0f9	-0.030624853
18	0x3d17033d	0.036868323
19	0xbc9b3e6f	-0.01895067
20	0x3cc52aae	0.024068203
21	0xbd1e60a9	-0.0386664
22	0x3d864f0b	0.06558045
23	0xbd784d86	-0.060620807
24	0x3bb6851a	0.005570066
25	0xbcf920e1	-0.030411186
26	0xbd3220ca	-0.0434883
27	0xbcafc0a5	-0.021454165
28	0x3d74a9d3	0.05973227
29	0xbcc14c52	-0.023595963
30	0xbc4e3276	-0.012585273
31	0xbcc1adc6	-0.023642432
32	0x3a9dce1e	0.0012039577
33	0x3d2dc577	0.042424645
34	0x3cda48e6	0.026646089
35	0xbc68904b	-0.014194558
36	0x3ce7da48	0.028302327
37	0xbcb3286e	-0.021869864
38	0xbb41fcf6	-0.002960024
39	0xbc6e6fd8	-0.014553033
40	0x3d61b729	0.055106316
41	0x3d2ca97f	0.04215383
42	0xbd29f033	-0.041488837
43	0xbd66bd01	-0.056332592
44	0x3d2bfbdc	0.04198824
45	0xbd5d7299	-0.054064367
46	0xbd0d3c8d	-0.034481574
47	0xbd2fac0b	-0.042888682
48	0xbcc650c3	-0.024208432
49	0x3d5ef1f2	0.054429956
50	0xbd6c1265	-0.05763473
51	0xbc681434	-0.014164973
52	0x3c65e114	0.014030714
53	0x3cb1bbd7	0.021696014
54	0xbcea7e5b	-0.028624704
55	0xbc65f95a	-0.014036501
56	0x39efd34c	0.0004574306
57	0x3c94bbbd	0.018155927
58	0x3d03b2ed	0.03215306
59	0xbd2b7aed	-0.041865278
60	0x3d50501e	0.050857656
61	0xbcef8e8d	-0.029242778
62	0xbc8b4dec	-0.01700493
63	0xbd1645b3	-0.036687564
64	0x3d2d7591	0.04234845
65	0x3cd5233f	0.026017783
66	0xbcefe404	-0.029283531
67	0x3c42e7ed	0.011896116
68	0xbc7abed1	-0.015304283
69	0xbd29a942	-0.041421182
70	0x3d82bae9	0.063833065
71	0xbd15ea43	-0.036600363
72	0xbcc94514	-0.024569072
73	0x3d3acca9	0.045605335
74	0xbc261a5e	-0.010138122
75	0xbd4ffdaf	-0.05077904
76	0x3d4de99c	0.050271615
77	0x3ce230ee	0.027611222
78	0x3b6bc3e9	0.0035974926
79	0x3c53c0c2	0.012924375
80	0x3ce8afa2	0.02840406
81	0xbd6c8bc3	-0.057750475
82	0x3d5cdbd1	0.05392057
83	0xbd59a0ee	-0.05313199
84	0xbd11c273	-0.03558583
85	0xbcc40525	-0.023928234
86	0xbcb4cb2a	-0.022069532
87	0xbd770424	-0.060306683
88	0x3aabeef3	0.0013117477
89	0xbca0b46a	-0.019617278
90	0xbbaf7e43	-0.0053556277
91	0xbcf74fb8	-0.03018938
92	0xbd08a23e	-0.03335785
93	0x3c9247d6	0.01785652
94	0x3d06ef49	0.032943044
95	0xbd8146b7	-0.06312316
96	0x3d65bde3	0.056089293
97	0xbc78612c	-0.015159886
98	0x3d20ac2b	0.039226692
99	0x3d3cf410	0.046131194
100	0xbc9f4b6b	-0.019445142
101	0x3d385a96	0.045008264
102	0x3ceaa2ab	0.02864202
103	0x3c1424b4	0.009041954
104	0x3d2c6d03	0.04209615
105	0x3c91b6e7	0.01778741
106	0x3d73c1ef	0.05951112
107	0x3c9bbd75	0.019011239
108	0x3ba97fe6	0.0051727174
109	0x3d4e7fef	0.050414976
110	0xbd72dfe6	-0.059295557
111	0xbc39cb7c	-0.011340018
112	0x3b822864	0.0039721
113	0x3d84eeea	0.06490882
114	0x3d7a366e	0.061087064
115	0x3d3dd5a7	0.046346333
116	0x3d54cce6	0.05195322
117	0xbd58276c	-0.05277197
118	0xbc0f4550	-0.008744553
119	0x3d5c223f	0.053743597
120	0xbd277515	-0.040883143
121	0x3d781332	0.06056518
122	0x3d3a5599	0.04549179
123	0x3bed8c7b	0.0072494126
124	0x3b98b644	0.0046603996
125	0x3c09d1cc	0.008411836
126	0x3d321404	0.04347612
127	0x3ca7ecc1	0.020498635
128	0x3d7e4031	0.062072936
129	0xbc97b671	-0.018519612
130	0xbc9073c6	-0.01763333
131	0xbcc80754	-0.024417557
132	0x3d6a618d	0.057221938
133	0x3d3d7813	0.04625709
134	0x3d4cf288	0.050035983
135	0x3c21ce73	0.0098758815
136	0x3d1da743	0.03848959
137	0x3acd1d44	0.0015648981
138	0x3d02cb2a	0.031932034
139	0x3d2a8b68	0.041636854
140	0x3d65718f	0.0560165
141	0x3b35771c	0.0027689403
142	0x3c90300e	0.01760104
143	0x3c912e24	0.017722197
144	0x3c0940d8	0.008377276
145	0x3c9dd4d2	0.01926652
146	0x3d81514b	0.063143335
147	0xbcbd6906	-0.023121368
148	0xba6cc878	-0.0009032558
149	0x3cba720a	0.022759456
150	0x3bb350b2	0.005472266
151	0xbd763c2e	-0.060115986
152	0x3c3b792f	0.011442467
153	0x3c530c6e	0.012881381
154	0x3c94cc41	0.018163802
155	0xbd69553b	-0.056966048
156	0xbd6fc20c	-0.058534667
157	0xbcfbd659	-0.030741857
158	0xbd20c018	-0.039245695
159	0xbd33a848	-0.043861657
160	0xbcd8d7f6	-0.026470166
161	0x3d0531b8	0.03251812
162	0x3d19ab32	0.03751678
163	0xbba5d0ff	-0.0050603147
164	0x3b986bcf	0.0046515237
165	0xbc90ecfb	-0.017691126
166	0x3ccd2c8f	0.025045661
167	0xbc8dddb2	-0.017317627
168	0xbbd3bbd4	-0.0064616
169	0xbca31a20	-0.019909918
170	0x3c68ad7b	0.014201517
171	0x3cd9ea3f	0.026600955
172	0x3d4399a9	0.047753964
173	0xbb96cb43	-0.0046018674
174	0x3d193741	0.03740621
175	0x3d1aa391	0.037753645
176	0xbb29b385	-0.0025894355
177	0xbc9dabb0	-0.019246906
178	0xbd673bce	-0.05645352
179	0x3b346048	0.0027523208
180	0xbc192220	-0.009346515
181	0xbd6191f5	-0.055070836
182	0x3cb59731	0.02216682
183	0x3d38fb59	0.04516158
184	0xbd2cb585	-0.042165298
185	0x3be1932d	0.006884
186	0xbd64552f	-0.0557453
187	0x3d67c4f0	0.0565843
188	0x3c8dd394	0.017312802
189	0xbcb754b9	-0.022379266
190	0xbc9abc21	-0.018888535
191	0x3cb9464b	0.022616526
192	0x3d7b2662	0.0613159
193	0x3cff3daf	0.031157343
194	0x3cdb3af2	0.026761506
195	0x3d4c7715	0.049918253
196	0x3d63b370	0.055591047
197	0x3d2d6ec3	0.04234196
198	0x3cceff5a	0.025268245
199	0xb9785036	-0.00023681004
200	0x3d7e29d2	0.0620516
201	0x3d11093f	0.03540921
202	0x3cf01a41	0.029309394
203	0xbb1dd9e5	-0.0024086174
204	0xbd1e88a2	-0.038704522
205	0xbac95753	-0.0015361108
206	0xbcaf5131	-0.02140102
207	0xbc4a57dd	-0.01235005
208	0xbd5e7b9d	-0.054317106
209	0xbd680e87	-0.05665448
210	0xbcd61f43	-0.026137954
211	0x3d8241e6	0.063602254
212	0xbb836425	-0.004009741
213	0xbc51ba15	-0.012800713
214	0xbca27f45	-0.019836077
215	0xbca2f8b7	-0.019893987
216	0xbcd0b7ec	-0.025478326
217	0xbca32bfa	-0.01991843
218	0x3c619377	0.0137680685
219	0x3d748c7f	0.0597043
220	0x3d237e17	0.03991517
221	0xbd595404	-0.05305864
222	0x3d21a314	0.039462164
223	0xbd0f6f11	-0.03501803
224	0x38d5ff0e	0.00010204139
225	0x3cc28f3d	0.023749942
226	0x3bcacfce	0.006189323
227	0xbc9220a2	-0.017837826
228	0x3cc330bc	0.02382695
229	0x3c964121	0.018341603
230	0x3c1da3e4	0.009621594
231	0x3d805acb	0.062673174
232	0x3bf03e46	0.0073316423
233	0x3cd5ded7	0.026107235
234	0x3b8c836e	0.0042881286
235	0x3c93c83a	0.018039811
236	0x3d57387c	0.052544102
237	0xbc5b6d42	-0.013392748
238	0x3c7d7a42	0.015471043
239	0xbd7787f1	-0.06043238
240	0xbc2ec7ed	-0.010667783
241	0xbc52ae0b	-0.012858878
242	0x3c276809	0.010217675
243	0xbc852f00	-0.016257763
244	0x3af3559b	0.0018564941
245	0x3d2eedb9	0.04270718
246	0xbc3e2675	-0.011605849
247	0x3cd60cc0	0.026129127
248	0xbc5b2734	-0.013376046
249	0x3c65e524	0.014031682
250	0xbcd3406e	-0.025787558
251	0xbca54fe4	-0.020179696
252	0xbd0ad3bf	-0.033893343
253	0xbcbf359d	-0.023340994
254	0xbb245283	-0.0025073595
255	0x3cac3baa	0.021024544

body.4.bias f4 [128]
0	0xbd719083	-0.058975708
1	0x3d2aa70e	0.041663222
2	0xbae9f28c	-0.0017848774
3	0xbd22f4a0	-0.039784074
4	0xbcd6d09c	-0.02622252
5	0x3d855e45	0.06512121
6	0xbd0324ee	-0.03201764
7	0xbd71cbb9	-0.059032176
8	0x3d28c4c5	0.04120328
9	0x3d74d3be	0.059772246
10	0x3cd6b4fe	0.02620935
11	0x3d0faa4b	0.035074513
12	0xbd391b15	-0.045191843
13	0xbcc67969	-0.024227815
14	0xbc5a7962	-0.013334604
15	0x3ca5639c	0.020189099
16	0x3d262563	0.040563
17	0x3d625c61	0.05526388
18	0x3d7bd62b	0.061483543
19	0xbc0830d2	-0.008312421
20	0x3d18d058	0.037308067
21	0xbc4a87e1	-0.012361498
22	0x3d472939	0.048623297
23	0x3d1e40f1	0.03863615
24	0x3d87ec78	0.066369
25	0xbd116792	-0.035499163
26	0xbc2989e2	-0.010347815
27	0x3cb46f78	0.022025809
28	0xbc4b5ce9	-0.012412288
29	0xbac3c504	-0.0014936035
30	0xbd49bea5	-0.04925408
31	0x3ccde4e8	0.025133565
32	0xbd787bbe	-0.060664885
33	0xbd1e2605	-0.038610477
34	0xbd650118	-0.055909246
35	0x3d1addbf	0.03780913
36	0x3d24bbd3	0.040218186
37	0x3d0aba5b	0.03386913
38	0xbc3e1b7e	-0.011603234
39	0xbc92dc1f	-0.017927228
40	0xbc67afcd	-0.014141035
41	0xbb19fc79	-0.0023496433
42	0xbd4983a3	-0.049197804
43	0x3d4c0583	0.049809944
44	0xbd71df9a	-0.059051134
45	0xbcadef2a	-0.021232206
46	0x3c118cf3	0.008883703
47	0xbd0154d7	-0.03157505
48	0x3d68928d	0.056780387
49	0x3c57959e	0.01315823
50	0x3cceac12	0.025228534
51	0xbd0e460f	-0.03473478
52	0xbd5b36e7	-0.053519156
53	0x3b26355b	0.0025361392
54	0x3cad9371	0.02118847
55	0x3d219f87	0.039458778
56	0x3c3a66e5	0.011377071
57	0xbcea9c06	-0.02863885
58	0xbcc6d245	-0.024270186
59	0x3d563ac0	0.052302122
60	0x3cef99b7	0.029248102
61	0xbd2d9d7f	-0.042386528
62	0x3d28e547	0.04123428
63	0xbd6b5968	-0.05745831
64	0xbd0a5b52	-0.033778496
65	0xbd15a4f6	-0.036534272
66	0xbd3bc4df	-0.045842048
67	0x3d82f4fb	0.063943826
68	0xbc90eebe	-0.017691966
69	0xbd43e5ef	-0.047826704
70	0x3c799b79	0.0152348215
71	0xbd0df197	-0.034654226
72	0x3d5b584c	0.053551003
73	0x3d098b98	0.033580393
74	0xbd1aef4e	-0.037825875
75	0xbd6ccc8b	-0.057812255
76	0x3d716e7c	0.058943257
77	0x3d1e8411	0.038700167
78	0xba4141cd	-0.0007372171
79	0xbcd7a293	-0.026322639
80	0x3d5c5087	0.053787734
81	0xbd1473c9	-0.036243234
82	0xbd7c73cd	-0.061633874
83	0x3d64aa67	0.05582657
84	0x3b52ed3e	0.0032184864
85	0xbcfa1fbd	-0.030532712
86	0x3d2f8930	0.04285544
87	0xbcf534d8	-0.029932424
88	0xbb275a3f	-0.0025535969
89	0xbcb88aa4	-0.022527047
90	0xbc894a52	-0.016759071
91	0xbd450c41	-0.04810739
92	0x3d1cbb32	0.03826446
93	0xbd8054ad	-0.062661506
94	0xbcdcf202	-0.026970867
95	0x3ca3d4fa	0.019999016
96	0x3d53a8d6	0.051674686
97	0xbb6a9e56	-0.0035799942
98	0xb7f5b844	-2.9292081e-05
99	0x3d213883	0.039360534
100	0x3c5e342b	0.0135622425
101	0x3d400b40	0.04688573
102	0x3c1c2af7	0.009531728
103	0x3d4fd7fe	0.050743096
104	0x3cc2e8f9	0.02379273
105	0x3cd9023c	0.026490323
106	0xbba7825a	-0.0051119747
107	0xbcf7122e	-0.030160036
108	0x3a9f427b	0.001215055
109	0x3d5e6d42	0.054303415
110	0xbcd5a2ab	-0.026078543
111	0xbca10f9f	-0.019660769
112	0x3d3a0c95	0.045422155
113	0xbd666cf4	-0.05625625
114	0x3c89125f	0.016732393
115	0xbd11d0cd	-0.03559952
116	0xbce1b6ac	-0.027552925
117	0x3d668417	0.056278314
118	0xbcd85174	-0.026406027
119	0xbd3630f5	-0.044480283
120	0x3d4d8ac5	0.05018117
121	0x3d152d93	0.036420416
122	0xba8e3a46	-0.0010851107
123	0x3d42b3d4	0.04753478
124	0xbc9ab831	-0.018886657
125	0x3c7e2047	0.015510625
126	0xbcd8b8ae	-0.02645525
127	0xbd157f78	-0.036498517

move_head.weight f4 [5, 128]
0	0xbd890b7a	-0.06691642
1	0xbb7b9880	-0.0038390458
2	0x3da1e506	0.07905011
3	0x3d71eec6	0.059065603
4	0xbd005fd5	-0.031341393
5	0xbc2423d5	-0.010018309
6	0xbda64f40	-0.081205845
7	0x3d02e700	0.03195858
8	0xbd86776d	-0.065657474
9	0x3c9bceba	0.019019473
10	0xbd069c98	-0.032864183
11	0x3b92dc5b	0.004481835
12	0xbd9ab83d	-0.07554672
13	0x3d512bb3	0.051067065
14	0xbda9c848	-0.08290154
15	0x3d68427b	0.056704026
16	0xbd904476	-0.07044308
17	0xbd9b2969	-0.07576258
18	0x3d8bc4a9	0.06824619
19	0x3d3bc3ef	0.045841154
20	0x3d9a39e0	0.0753057
21	0x3d29b21c	0.041429624
22	0x3d88f729	0.06687767
23	0xbb9d2a7a	-0.0047963234
24	0xbda9731b	-0.08273908
25	0x3c92e84c	0.017933033
26	0xbd805cf7	-0.06267732
27	0x3d117ed1	0.035521332
28	0x3d8ecf17	0.06973093
29	0x3d67f168	0.056626707
30	0x3c980d1a	0.018560935
31	0xbd874228	-0.06604415
32	0x3bfa7687	0.007643524
33	0xbc951bbe	-0.018201705
34	0x3da74c5b	0.081688605
35	0xbbe47fae	-0.0069732284
36	0x3d2bfacf	0.041987237
37	0x3ad4891f	0.0016215182
38	0xbd592146	-0.053010248
39	0xbd86a80a	-0.0657502
40	0x3db513de	0.0884168
41	0x3ca1963a	0.019724954
42	0xbd10a224	-0.03531088
43	0x3d290672	0.041265912
44	0xbda06e84	-0.07833579
45	0xbd16ded4	-0.0368336
46	0xbcdc38dc	-0.026882581
47	0xbd32046f	-0.04346126
48	0x3da5a84f	0.08088743
49	0xbcac647d	-0.02104401
50	0x3d337a7b	0.04381798
51	0xbd7d70d8	-0.061875194
52	0x3b2901a3	0.002578833
53	0xbc3501e3	-0.011047813
54	0x3d616376	0.055026494
55	0x3cc4b4aa	0.024011929
56	0x3da2c1d7	0.07947128
57	0xbdaaaa0a	-0.083332136
58	0x3dacdbc0	0.084403515
59	0xbc1cb609	-0.009564885
60	0xbc27f2ae	-0.01025073
61	0x3bf17fb9	0.007369962
62	0x3da5fc92	0.081048146
63	0x3d8cc187	0.0687285
64	0xbb265e89	-0.0025385937
65	0xbce30214	-0.027710952
66	0x3d21375f	0.039359447
67	0xbd8bef55	-0.06832758
68	0x3daaf776	0.08347981
69	0x3c892a75	0.016743878
70	0xbd4c8b2d	-0.049937416
71	0xbca0bfa9	-0.01962264
72	0x3da1a84d	0.07893429
73	0x3c4d8262	0.012543293
74	0x3d4b89ff	0.04969215
75	0x3ce7a1ab	0.028275331
76	0x3cf02861	0.02931613
77	0x3bb0b011	0.0053920825
78	0xbbf96931	-0.0076114167
79	0xbd77eba3	-0.060527455
80	0x3d2a2de1	0.04154766
81	0x3d862940	0.065508366
82	0x3d14453a	0.036198832
83	0x3da9bd35	0.082880415
84	0xbceae62f	-0.028674213
85	0xbc8376ee	-0.016047921
86	0xbcb3adeb	-0.021933516
87	0x3d7133a6	0.058887146
88	0x3d79fec3	0.061033975
89	0xbcd5663a	-0.026049722
90	0xbd8fd3ed	-0.070228435
91	0x3d988773	0.0744771
92	0xbda32ff3	-0.0796813
93	0x3d4271fa	0.047471978
94	0x3bef846f	0.0073094885
95	0xbc474339	-0.012162023
96	0x3b727383	0.003699512
97	0xbd55a980	-0.0521636
98	0x3ccca215	0.02497963
99	0x3d8cc755	0.06873957
100	0xbd2188eb	-0.039437216
101	0xbb794f71	-0.0038041736
102	0x3da97d99	0.08275909
103	0xbd7a4559	-0.06110129
104	0x3db7b6ab	0.08970388
105	0x3cd6e182	0.026230577
106	0x3d5bee5c	0.053694114
107	0x3da25a3d	0.07927368
108	0x3db4d70b	0.08830079
109	0xbd1c7acd	-0.03820305
110	0x3c3a76e4	0.011380885
111	0xbd0e3f5a	-0.034728386
112	0xbdafbd7c	-0.08581063
113	0x3dac2cfa	0.08407016
114	0x3d20501c	0.0391389
115	0x3bfe281f	0.0077562477
116	0x3da7a7c1	0.081862934
117	0x3d70c9de	0.058786266
118	0xbd93c55e	-0.07215379
119	0x3d2d5b3f	0.042323347
120	0x3ca50588	0.020144239
121	0x3bdaeb1b	0.006680859
122	0xbd8df4b0	-0.06931436
123	0x3d8a4c77	0.06752866
124	0x3d8a8400	0.06763458
125	0x3c9070c0	0.017631888
126	0xbcb01009	-0.021492021
127	0x3ca06ba2	0.019582573
128	0x3d7ad859	0.06124148
129	0xbbe0ba64	-0.006858157
130	0xbdbf1d3d	-0.09331749
131	0xbd78e950	-0.06076938
132	0xbdabfbda	-0.08397646
133	0x3d230c00	0.039806366
134	0x3ba42107	0.00500882
135	0xbd656596	-0.056005083
136	0x3ce4dc17	0.027936978
137	0xbca0a250	-0.019608647
138	0x3ccb8c97	0.024847312
139	0xbc3d949a	-0.011571074
140	0xbd2ae5c6	-0.041723035
141	0x3b74f5bc	0.0037377914
142	0x3c1ebfa0	0.009689242
143	0xbb68aee3	-0.0035504631
144	0x3db39ff0	0.0877074
145	0xbda4ad84	-0.08040908
146	0x3cbe8b40	0.023259759
147	0xbdc135b8	-0.09434074
148	0xbd02b8d0	-0.031914532
149	0x3d5934ce	0.053028874
150	0xbda569ae	-0.080767974
151	0xbc0c33b2	-0.008557247
152	0xbc98bf47	-0.018645896
153	0xbdad2687	-0.08454614
154	0x3d6be584	0.05759193
155	0x3d879d19	0.06621761
156	0x3daa3e63	0.083126806
157	0xbc9de6de	-0.019275125
158	0x3d521880	0.051292896
159	0xbbcf3ff6	-0.0063247634
160	0xbd866d5c	-0.065638274
161	0x3be4f8e8	0.0069876797
162	0x3d80b7ae	0.06285034
163	0x3c5e6200	0.01357317
164	0xbb413b52	-0.002948482
165	0x3ce524ed	0.02797171
166	0xbd080a23	-0.033212792
167	0xbd045aed	-0.032313276
168	0xbdaf8951	-0.08571113
169	0xbd3404e4	-0.043949977
170	0xbd2c9c23	-0.04214109
171	0x3d59dff6	0.0531921
172	0xbcf89687	-0.030345215
173	0xbd0dd04d	-0.03462248
174	0xbbe648e6	-0.007027733
175	0xbd2fa6f8	-0.042883843
176	0xbd87cb0b	-0.06630524
177	0xbd65ad2f	-0.056073364
178	0x3da7d32b	0.08194574
179	0xbd77e74b	-0.060523313
180	0x3b93b487	0.0045076045
181	0x3ca6a2ee	0.020341363
182	0xbd516658	-0.051122993
183	0x3d2ec8c9	0.042671952
184	0xbd1fd537	-0.039021697
185	0xbd339718	-0.043845266
186	0xbd29168d	-0.04128127
187	0x3cb4dcf1	0.02207801
188	0x3d838458	0.06421727
189	0x3d56fc6f	0.052486833
190	0xbdb07bab	-0.08617338
191	0x3d4c513e	0.049882166
192	0xbd9dd527	-0.07706671
193	0x3d8890bc	0.06668231
194	0x3cabcc3f	0.020971416
195	0xbc2adcf5	-0.010428657
196	0x3d1ea74e	0.038733773
197	0xbd87b59f	-0.06626438
198	0x3cfc1aa4	0.030774422
199	0x3ced37b8	0.028957233
200	0x3d56ae92	0.052412577
201	0xbd4ae35a	-0.049533226
202	0x3c7329f0	0.014841542
203	0xbd9c6c52	-0.07637848
204	0x3d4eaaec	0.050455973
205	0xbc5ddef0	-0.013541922
206	0xbc4ed49a	-0.01262393
207	0x3daa14af	0.08304726
208	0xbd12f3cf	-0.035877045
209	0x3d46e44a	0.048557557
210	0xbd24f774	-0.040275052
211	0x3d90697d	0.0705137
212	0x3bc937ca	0.006140684
213	0xbd0eee1b	-0.034895044
214	0xbced825b	-0.028992822
215	0x3db4825f	0.08813929
216	0xbcbb40c4	-0.022858031
217	0xbc93152d	-0.017954433
218	0x3d8d9d4e	0.06914769
219	0xbcc12b97	-0.023580356
220	0xbbd316a4	-0.006441908
221	0x3d91f1f1	0.07126225
222	0xbb6c8e26	-0.003609547
223	0xbcb12425	-0.02162368
224	0xbd0e7c77	-0.034786668
225	0x3c964cfe	0.01834726
226	0xbd5a0b1a	-0.053233244
227	0x3bf923f8	0.0076031648
228	0x3d1e6587	0.038671043
229	0xbc5f9171	-0.013645516
230	0x3c2d6741	0.0105837
231	0xbd834ff2	-0.06411733
232	0x3c44ccdc	0.012011733
233	0x3d4e22bc	0.050326094
234	0xbd6bd132	-0.05757255
235	0xbdb11088	-0.08645731
236	0x3d6904c7	0.05688932
237	0x3d2c85d3	0.042119812
238	0x3d890f1e	0.066923365
239	0xbd58d21f	-0.052934762
240	0xbc10cae5	-0.008837436
241	0xbd025615	-0.031820375
242	0x3d997832	0.074936286
243	0x3d93f617	0.07224672
244	0xbc69a283	-0.014259937
245	0x3d0c0dfc	0.034193024
246	0x3da3d16e	0.0799893
247	0x3d33f707	0.043936756
248	0x3d3025ff	0.043004986
249	0xba2c6f37	-0.00065778516
250	0x3c029f1f	0.007972508
251	0x3cc67793	0.02422694
252	0xbdaab42f	-0.083351485
253	0x3d959998	0.07304686
254	0xbd8b368e	-0.06797515
255	0x3d32e553	0.043675732

move_head.bias f4 [5]
0	0xbb66297e	-0.0035119946
1	0xbdb9ae70	-0.090664744
2	0x3cb155ee	0.02164742
3	0xbc770440	-0.015076697
4	0xbd9c98e9	-0.07646353
