checkpoints/simple_world_comm_v3_transfer/simple_world_comm_v3_leadadversary_0_ep400.pt (torch, 440053 bytes, 10 tensors)

body.0.weight f4 [256, 34]
00000000: f390 2bbe 357b 67bd 7b2e 3f3d faf8 80bd
00000010: 1820 0b3e a88d 78bd 5490 40bd 1bf0 55bd
00000020: 4d12 493c 873a 173e e4d7 3abc 2a9c 233e
00000030: 27c2 acbc 21b7 063d 5c31 6c3d 2cd0 243d
00000040: caf5 dfbd 5114 013e 12a4 cbbb d5b2 18be
00000050: 2286 233d ae45 22be cd8e 423d cd35 36be
00000060: bf09 22bd 062c 97bd d25c 68bd e83a 103d
00000070: ad43 86bd edd0 fcbd b1c5 033e a645 973d
00000080: 1f5f 8dbc 5b57 23be e316 17bc e7be cf3b
00000090: ba41 28be 2ea1 e5bd 00b3 fe3d 626a 0d3e
000000a0: 4713 1d3e 1db3 f53d 701d 9ebd 73aa 04bd
000000b0: db5f 023e 2ba5 04bd 2631 143e f3fc 063d
000000c0: 0eaa 643d 004c 133e 6575 5e3d 0a78 cf3c
000000d0: b8ab f43c 097e 973c 9b38 ebbd 1056 a13d
000000e0: 8479 27be aaf4 03bd 52f5 2e3e 892a 08be
000000f0: 33b8 d9bd 0b2a 223e 090a f03d cebe f2bc
00000100: ed79 203e d001 fa3c 3043 c3bd 8c12 c9bd
00000110: 2cce 51bc ad27 d3bd 8c48 9e3d b9bd 2ebe
00000120: 5e20 28be 74dc b5bd 0c73 3bbc 26eb 28bd
00000130: 6ae0 ccbc c178 23be 84f9 96bc 4089 b6bd
00000140: 5eda cbbd 1b29 4dbd 50f8 ce3d 7204 fbbd
00000150: 78ab 163e b893 cb3d 58ff 3a3d 3c6a 383c
00000160: dd89 7d3d 4eba 08bd 0265 e7bc c346 c5bb
00000170: 1cde 47bc d99f cc3c deee babd d9ef 683d
00000180: 8287 4f3d 0885 2f3e 461e 773d 6fd9 213d
00000190: 7d33 a0bd 2f19 1fbe e8a6 9ebd 2268 ef3d
000001a0: 11c0 a93d e084 a43d 1afc 0c3e d525 ecbc
000001b0: 0a1f ed3d 9b19 1cbd 2d1c c03d 6f04 bd3c
000001c0: 7472 b6bd a5e8 9fbd f16f 063e fb6c ebbd
000001d0: b235 1abe 593a f43d 3a34 a8bd 9b69 1bbe
000001e0: 0397 893d 7b69 f6bd d824 c4bc 32dd 94bd
000001f0: 3216 e5bd 1b14 49bc b9a7 343e 817e eb3c
00000200: 20ea 263e 5cf0 bb3d 6be1 dbbd b835 433d
00000210: f575 f63d 2d6c f73d 3397 153e 2dac c03d
00000220: 4787 a63d fd76 733d fc46 c6bd 9d53 9abc
00000230: fb2e 8dbc 8dd8 a43d 03f5 51bd c2c6 b03d
00000240: 8761 073e 35f7 363d 0c8c 21be b235 163c
00000250: 93d6 1f3c 8a6f a63d 5804 18be 3077 df3c
00000260: 5ff2 debd 4c40 58bc 423f 05be a868 d5bd
00000270: fa43 c83d 31fe 53bd b3b5 c23d 175e eabd
00000280: 1596 a9bd e446 983c 00e9 c83d d881 95bd
00000290: a4ae 29be 8015 d2bd d879 ea3d 1ff2 a43d
000002a0: cace b23d 9b6a d8bc cbf4 b13b 82ad c53d
000002b0: 0b52 9f3d c376 21be c729 dd3c 3e5d c4bd
000002c0: 9046 01be 0702 453d bfd2 20be 8a30 2abd
000002d0: 0975 233c 58fd c83d eb28 10be a73b 723b
000002e0: e0e1 283e c351 25be 06b2 33bd be45 5d3d
000002f0: b633 67bd b995 d03d 8717 24bd 2c60 88bd
00000300: 17e8 d83d 96ea 13be 34d2 01be 23c0 e3bd
00000310: 7c1f 353d 3ba8 87bc 6d01 1dbe c40c c2bd
00000320: bdf5 8bbb 8467 41bd aae4 95bd d580 ac3d
00000330: 4687 853d 1cba 213e 5bc3 6c3d 7933 163e
00000340: 56fb 0c3e efad f63b 00f0 eabd 640c c83a
00000350: ff3e 29be 38da be3d 39fa b03d a236 02be
00000360: 84fa 573c 10f2 083e 7ba3 91bd d1df 24bd
00000370: a35e 1a3e 4ee0 713d 73d3 80bd a63b 2dbe
00000380: 750a 2a3e 5bd9 f8bd cae8 88bd c57d 133e
00000390: 452f ebbd c17e 033d 63b7 1dbe f15f 1a3e
000003a0: 0e54 823d b4bd 06be 14f1 17be 1443 0d3e
000003b0: 8470 b7bd 3635 97bc 1ba4 09be 7510 f73d
000003c0: 393b f4bc 1bb6 643d 8cc6 d73d c4a7 ad3c
000003d0: a318 0dbd a7f4 d8bc a5ca 26bc ac0d 1bbe
000003e0: 4ee7 a0bd 0e5f e3bd ad8e 8e3d 9af6 423d
000003f0: 4325 3f3b 78bc 233e 2668 94bd af82 f33d
-0.16754512 -0.056513984 0.046675187 -0.062974885 0.13586462 -0.06068197 -0.047012642 -0.052230936
0.01227243 0.1476842 -0.011404011 0.1597754 -0.021088673 0.03288949 0.05766426 0.04023759
-0.109355524 0.12605406 -0.006214627 -0.14911969 0.03992284 -0.15846893 0.047499467 -0.17793961
-0.039560076 -0.07381444 -0.056729145 0.035212427 -0.06555877 -0.12344537 0.12868382 0.07386331
-0.017257271 -0.15951292 -0.009221765 0.006339896 -0.16431323 -0.11212383 0.12436485 0.13810113
0.15339385 0.11997054 -0.077204585 -0.032389116 0.12731878 -0.03238408 0.14471874 0.032956075
0.05582624 0.1438446 0.054311175 0.025325794 0.029867038 0.018492715 -0.11485406 0.07877743
-0.16354948 -0.03221575 0.1708577 -0.13297476 -0.10630836 0.1583635 0.11720664 -0.029631998
0.15671511 0.030518442 -0.095342994 -0.09817991 -0.012805503 -0.10310302 0.07728681 -0.17064561
-0.16418597 -0.08879939 -0.0114410035 -0.04123988 -0.025009353 -0.15964033 -0.018429525 -0.08912897
-0.099537596 -0.05008803 0.101059556 -0.12256707 0.14713848 0.099402845 0.04565367 0.011255797
0.061899055 -0.0333808 -0.028246406 -0.0060203983 -0.012198951 0.024978565 -0.091275916 0.05686936
0.05066634 0.17140591 0.060331605 0.039514 -0.078223206 -0.1553695 -0.077466786 0.11689784
0.08288587 0.080331564 0.13768044 -0.028826633 0.11578186 -0.038110357 0.09380374 0.023073403
-0.08908549 -0.07808045 0.1312864 -0.11495396 -0.15059546 0.119251914 -0.082130864 -0.15177004
0.06718256 -0.120318376 -0.02394335 -0.07268752 -0.11185874 -0.01227286 0.17642106 0.028746845
0.16300249 0.09176704 -0.107363544 0.047658652 0.12034217 0.1208118 0.14608459 0.0940784
0.08131271 0.059439648 -0.09681508 -0.018838698 -0.017234316 0.08049116 -0.051259052 0.0863166
0.13220797 0.04466935 -0.1577608 0.009168075 0.009755748 0.08126743 -0.14845407 0.027278513
-0.10886072 -0.013198923 -0.13012412 -0.10420352 0.097785905 -0.051756088 0.095073126 -0.114437275
-0.08280579 0.01858849 0.09810066 -0.07300156 -0.16570526 -0.10258007 0.11449021 0.080539934
0.08730848 -0.026418021 0.005430793 0.096522346 0.0777932 -0.1576796 0.02699746 -0.09588097
-0.12624574 0.048097637 -0.15705393 -0.041550197 0.009976634 0.098139465 -0.14078109 0.0036961825
0.16492414 -0.16144471 -0.04387095 0.05402159 -0.0564458 0.10184807 -0.0400615 -0.06658968
0.105911426 -0.14444956 -0.12677842 -0.111206315 0.04421948 -0.01655971 -0.15332575 -0.09475091
-0.0042712376 -0.04721786 -0.07319005 0.0842301 0.06519942 0.15793651 0.057803493 0.14668073
0.13767752 0.0075280587 -0.114715576 0.0015262482 -0.16527937 0.09318966 0.08641476 -0.12716153
0.013182286 0.1337359 -0.071112595 -0.04025251 0.15075164 0.059051804 -0.06290331 -0.16917285
0.16605552 -0.12150832 -0.06685026 0.14403446 -0.11483625 0.032103304 -0.15401988 0.15075661
0.063636884 -0.13158303 -0.14838058 0.1379512 -0.089570075 -0.01845799 -0.13441508 0.12063686
-0.029813396 0.05583773 0.10535917 0.021198161 -0.034447324 -0.026483847 -0.01018015 -0.15141934
-0.07856618 -0.111021146 0.06960807 0.04759846 0.0029166497 0.15989864 -0.07246427 0.1189016

body.0.bias f4 [256]
00000000: 714c b2bc d259 af3d 855a 843d 49ed 51bd
00000010: 913c 453d e383 243d edda ec3d b6dd 1a3d
00000020: aae3 be3c 66b0 103e 2be6 b7bd dd36 113e
00000030: c50d 89bd eb82 90bc 798c 1e3c 76dd 0f3e
00000040: 9ba4 fdbc e5be f03d ed54 af3b bc5a cdbd
00000050: ea24 82bc 035d 07be f565 583c 4583 2eba
00000060: 5017 b1bd 38a3 9a3d 5687 eabd 37fd d93d
00000070: 5c7c b03d 7e9e d93d 9687 a7bd 6a17 c6bd
00000080: a289 e93c 51a0 163e 1b0e 113c b4c3 94bc
00000090: 55f0 28bd 7c20 03be ac26 fa3d b52c 9abd
000000a0: a543 e93b 85cb fbbd cf62 c93d 8cc3 c7bd
000000b0: fbcb d43d 385c 80bc abe1 f2bd e0b8 a9bd
000000c0: 3614 88bd 57a1 a43d 7708 1c3d fd2c bc3d
000000d0: f7a4 5dbd 077f 23be 63d1 0a3e 8e00 11bd
000000e0: 5f76 813d e534 2bbe df62 313d 561d cb3d
000000f0: bddf 64bd 5371 0a3d db98 033e 692e 28be
00000100: 6175 23be 52b2 e43c f77b 243e 5156 cbbd
00000110: 5d1f e33d 9e8f 06be c8dc 51bc 1990 193e
00000120: a475 fdbd c23e e23d 1bbd 233e d564 5dbc
00000130: bfd0 0cbe dc67 cfbc 3ab0 38bd 477f bebd
00000140: b816 11be 625a b4bd ad74 fc3d 8132 ef3c
00000150: 9214 e83d 4f8e 9a3d 23b7 b93d 5f77 4e3d
00000160: 1963 ddbd 2cc2 213e efad 193e 6cd7 26bd
00000170: 41c2 cfbd 1916 73bc 1720 2bbe e9c3 893b
00000180: 3b40 2bbe 834e 2abd d1cf a43d e710 163d
00000190: 37d1 003d 3679 b8bd 9858 1bbe 428c ed3c
000001a0: 2932 d4bd 4406 7a3d a87a fcbd dc78 183e
000001b0: 2bb6 153e 51d7 203e e7d3 9dbd d533 1e3c
000001c0: 6789 a43d d0b7 36bd 299d 0ebd 1357 89bd
000001d0: 92ea 8abd 557a 0fbe b078 823d b748 11be
000001e0: 94f6 a33d acf1 f7bd 1d7f 12be cc30 d9bd
000001f0: 07bd 04be cd8b dfbd 4124 603d 800e 083e
00000200: 0ffb 3e3c 5b35 c2bd 63d3 a4bd 7b04 f7bd
00000210: 1eac 0d3e a14e b93d c56f 98bd 7ffd 0e3e
00000220: a5bc 263e abe1 aebd 18f3 0cbe 2430 e9bc
00000230: 87f7 4bbd 9aa7 d6bd a81a 743d 7673 93bd
00000240: 5c20 203e c067 343c ce54 a7bd 0f8e 1c3d
00000250: 00ee 763d aac6 1cbe 928a 153e f835 eb3b
00000260: b90f febd c579 7e3d 2b3b 25be 1001 963c
00000270: 4206 a83c 5825 373d e5e7 ee3d e365 2ebe
00000280: 9c73 10be 0b02 dfbd 351b ff3d 6cfb 2bbc
00000290: a3fc 38bb 2c47 1ebc 0f67 193c c5ed acbd
000002a0: c234 98bd 72e9 9e3c 8561 be3c 7574 143e
000002b0: ca0e 193d 4892 973d 1f42 18be 5f3d b93b
000002c0: 49c7 04bd 48f4 943d 4c5f 5c3d 09b5 a33d
000002d0: d297 6fbd 3f07 073d 5cf8 03bd 38f9 86bd
000002e0: 2b30 05be cd13 a8bd 477f 07be 5e8c 193e
000002f0: e841 0fbe 605e 1bbe 1f23 05be 3450 2cbe
00000300: 2495 173d 96f8 253e 6e8d 54bd e644 633d
00000310: ef08 07be a67a 643d 7d93 10be a0b9 883d
00000320: 4e98 0b3e a572 d4bd b9cc 913d ddfe a73d
00000330: d24c 9d3b dd65 e4bd dc23 1abe 057b c73d
00000340: 9b43 cdbd dc85 6cbd 7969 953d 51f4 09bd
00000350: 1223 c8bc 395c 16be e1e3 223e 8df9 a2bd
00000360: b418 173e 0a24 c9bd 7108 a93d 33c2 843d
00000370: 5e4e 863d 6255 e93d d2b8 81bc bfca 0dbe
00000380: 4aed e6bd 2e3d 40bd 74c4 30be e960 263e
00000390: 6c9a 8bbd 33c2 1d3e f0b3 273d c6cb abbd
000003a0: 02d7 033d 1b69 69bd b7ed b13d 67bd 9d3c
000003b0: e6c3 063d 1800 11be b0ad 95bd ac7c 643d
000003c0: cc31 1a3d fbb2 c13d 54aa b0bd 7568 fc3c
000003d0: d670 9dbd 0ee2 bbbd 3b56 a3bd 357f dc3d
000003e0: 7285 253e bcf5 a33c d0d9 0cbe 0570 70bc
000003f0: e894 f2bb f396 f53d 1921 a0bd fbd8 5c3d
-0.021764966 0.08562054 0.06462578 -0.051251683 0.048153464 0.04016484 0.11565194 0.037809096
0.023301918 0.1412979 -0.08979448 0.14181085 -0.066920795 -0.017640552 0.009677046 0.14049324
-0.030962279 0.1175516 0.0053507 -0.10027072 -0.015886743 -0.13219075 0.013207902 -0.0006657134
-0.08647025 0.07550663 -0.114515945 0.10644 0.0861747 0.10625933 -0.08180158 -0.09672435
0.028508011 0.14709593 0.008853461 -0.018159725 -0.041244823 -0.1280536 0.12214407 -0.075280584
0.0071186596 -0.12294678 0.09833299 -0.097540945 0.10390469 -0.015668973 -0.11859449 -0.08287215
-0.0664448 0.08038586 0.03809401 0.09188268 -0.0541124 -0.15966426 0.13556437 -0.03540092
0.063214056 -0.16719396 0.04330718 0.09917705 -0.055877436 0.03379948 0.12851278 -0.16423954
-0.15962745 0.027917061 0.16062914 -0.09928573 0.110899664 -0.13140723 -0.012808986 0.14996375
-0.12375954 0.11047126 0.15990107 -0.01351281 -0.13751505 -0.025318079 -0.045089938 -0.0930162
-0.14168823 -0.08806302 0.12326942 0.029198887 0.113320485 0.075466745 0.09068134 0.05040681
-0.10809917 0.15796727 0.15007757 -0.040732786 -0.10144473 -0.014836811 -0.1671146 0.0042042625
-0.1672372 -0.04157878 0.0804745 0.036637213 0.031449523 -0.09007494 -0.15170515 0.028997544
-0.1036113 0.06104113 -0.12328082 0.14889854 0.14620273 0.15707137 -0.07706433 0.009655912
0.0803402 -0.04460889 -0.03481785 -0.06706061 -0.06783022 -0.1401151 0.063706756 -0.14187895
0.080060154 -0.12106642 -0.14306302 -0.106050104 -0.12962733 -0.10915337 0.054722074 0.13286781
0.011656537 -0.09482833 -0.08048131 -0.120614015 0.13835189 0.090482004 -0.07443193 0.13963889
0.162829 -0.085391365 -0.13764608 -0.028465338 -0.049796607 -0.10481186 0.059595734 -0.07199757
0.15637344 0.011011064 -0.08170472 0.038221415 0.06028557 -0.1531016 0.14603642 0.0071780644
-0.124053426 0.062127847 -0.16135852 0.018311054 0.020510796 0.04471335 0.11665324 -0.17031054
-0.14106601 -0.108890615 0.12456361 -0.010496955 -0.0028226755 -0.009660523 0.00936295 -0.084437884
-0.07431938 0.019398425 0.02323986 0.1449755 0.03736762 0.07400948 -0.14868973 0.005653068
-0.032416616 0.072731555 0.05380182 0.07993514 -0.058494397 0.032965895 -0.032219276 -0.065905035
-0.13006656 -0.08206902 -0.13232146 0.14994952 -0.13989985 -0.1517272 -0.13001679 -0.1682747
0.037007466 0.1620811 -0.05189269 0.05548563 -0.13187002 0.05578103 -0.14118762 0.0667603
0.13632318 -0.10373429 0.07119126 0.08202908 0.0048004175 -0.111522414 -0.15052742 0.09740261
-0.1002266 -0.057744846 0.07295508 -0.033680264 -0.024430785 -0.14683618 0.15907241 -0.07957754
0.14755517 -0.09821327 0.08253563 0.06482353 0.06557916 0.113932386 -0.0158352 -0.13846873
-0.11275728 -0.046933345 -0.17262441 0.16247906 -0.06816563 0.15406112 0.040943086 -0.08388476
0.03218747 -0.056985002 0.08687919 0.019255353 0.032901667 -0.14160192 -0.07308519 0.05578296
0.037645146 0.09457966 -0.086262375 0.030811528 -0.07687537 -0.09173976 -0.079754315 0.1076645
0.16164187 0.020014636 -0.13754964 -0.014675145 -0.007403005 0.11991682 -0.07818813 0.053917866

body.2.weight f4 [256, 256]
00000000: b708 85bb 5596 2a3d f3c4 e33a 743c 1c3c
00000010: ab6d 3fbd 459e 273d 3ac3 c63c afb4 e3bc
00000020: f746 c63c 6104 683d bcc6 ecbc 02fd 2dbd
00000030: 0b61 323d f92c 22bc 13f9 23ba d197 79bd
00000040: e423 2fbd 3561 77bd d524 73bd 63d7 1ebd
00000050: bc53 2abd 3bd1 3c3d c380 933a 5069 cfbc
00000060: 661d 703d 3924 f7bc 9e7d 6cbb 7f74 bcbc
00000070: 66c7 7dbd 749e 81bd b96f adbc a808 57bd
00000080: ae0f 4abd c869 bf3b 690f 503d 9ba2 80bd
00000090: 7c8f 84bd ac01 fc3b e0d1 cc3c 4912 723d
000000a0: e9c9 3e3d 9a8f 923b 2471 8abc 7665 983c
000000b0: c104 78bc ca28 dfbb ccd2 45bd 354a febc
000000c0: f439 2d3d cf89 22bd 73a9 da3c 939c 2c3d
000000d0: 8ae6 08bc 843d 263d fa14 75bb bb54 0f3c
000000e0: d783 01bc ebc2 ca3c bde2 a13c 6030 1d3d
000000f0: a2d6 883c 5ae6 2dbc 5a79 a33b b7c9 e5bc
00000100: 6f32 90bc 7796 5dbd ee15 eebc f958 203d
00000110: d426 20bd 0963 643d e968 093d 54cc 1bbd
00000120: b2b2 c3bb 1166 82bd 1f93 143d d689 36bd
00000130: 6056 33bd c2ca 8c3b 043c bebc 53ba 273d
00000140: 86e6 66bd eca8 fb3b 9e93 2bbd f943 323d
00000150: b135 abbb 0f9b fe3c c26e d43a 6e30 dabc
00000160: e215 983c f60e 763c 1469 8e3c 448b d0ba
00000170: 10a9 1e3d 7b78 fd3c 7a00 7abd 10f0 3bbb
00000180: c0ec a13c aac5 f83a 34cf 1b3d a580 5abc
00000190: 0311 6cbc 801f 3fbd 10b0 4a3d 25d2 11bd
000001a0: d87d 48bd e71a d53b 33db ef3a 08e4 0a3d
000001b0: 16d7 2dbc c0d0 3bbd d538 223d 1903 43bd
000001c0: b29b a43c c36d a6bc 4b8b 0abd 017b 10bc
000001d0: 4600 293d 1caf 613d 0e4f 62bd 56d7 27ba
000001e0: 36b9 983c 679a 3c3d c32b 5f3d b380 6abd
000001f0: 4d60 533d f522 e1bc 459a 90bc 5343 fabb
00000200: a62d 88bd 4cb2 213d 5b78 51bd b0aa 88bd
00000210: 72b8 98bc 9144 0c3c f65f 8c3b 3ffb a13c
00000220: 7045 84bd 3797 eebc c88b 86bc aa2c 2b3d
00000230: 13db 30b9 a274 02bd be6e d3bc 4a1b c2bc
00000240: da41 71bc f29d 66bc 341e 98bb f78e bebc
00000250: 1ad8 3f3d 46db 33bd ded6 67bc d1e2 a43b
00000260: 8473 cb3c e9f4 42bc 3a45 1f3b 96a3 523d
00000270: c9bd 3f3d d36b a13a b06a b3bc 7457 d2bb
00000280: 71a7 20bb 157f 1abd df7f 58bd 1d7a 18bd
00000290: 40e6 4bbd 87ba 43bb 94e6 683d 955c 68bd
000002a0: cf62 593d a24b 8d3c d990 523d 7425 1bbd
000002b0: 7c35 0f3d 2015 6e3d d390 14bd 4fbf 293d
000002c0: c3c6 593d b7d1 bfbc 8a74 e03b ca6f 1bbb
000002d0: fc29 b03c 5a2a 593d 9863 da3c 01b2 5a3c
000002e0: 45cf 0dbd 15dd fabc 7725 f13c ba7f 98ba
000002f0: 4b11 903c dc13 efbc a695 27bd aa99 433d
00000300: 610d 143d d767 32bd 1898 553d 924f 07bd
00000310: 60ee 13bd 3681 32bd eadc 61bd 9f02 3d3d
00000320: 129c 313d 220f 753d 2518 44bc aa5d bfbc
00000330: c43e 3abc f4d5 e53a 0cf9 273d d9d9 353d
00000340: 95f2 4fbd ce11 603d 0d29 49bd 3163 b73b
00000350: a0ba 25bb 74bc d7bc 047a 5dbd 21a0 04bc
00000360: 8860 04bd 0dcb 893b 2e88 59bd f818 cd3c
00000370: a37a 1a3d 4a93 123d 30d7 263d 59f9 fdbc
00000380: c80b 87ba 8967 853c a496 2dbd 6237 75bd
00000390: 9e92 d2bc 519f f5bc 881e 45bc 70de 613c
000003a0: beee 52bc ee5c 8ebc 87e0 08bd 69d8 883c
000003b0: e2db daba de98 6ebd 5152 2cbd 170b 543d
000003c0: 2490 783c 24e0 8e3c 9d9e 7abc e29b 663b
000003d0: 57a7 7cbd 9c77 5b3d 7cad 7cbd 4a1e e0bb
000003e0: 87d0 38bc f413 1c3d d8e6 d7bc 15e0 80bd
000003f0: 8e8a 02bd 1288 5bbd 8e7a 6fbc 2700 0ebd
-0.004059877 0.041647274 0.0017377421 0.0095358975 -0.046735447 0.040922422 0.024263013 -0.027796118
0.02420376 0.0566448 -0.028903358 -0.042477615 0.04354958 -0.009898418 -0.00062550715 -0.0609358
-0.042758837 -0.06039544 -0.059361298 -0.038779628 -0.04158376 0.046097975 0.0011253584 -0.025318772
0.058621787 -0.03016864 -0.0036085616 -0.023004768 -0.06195774 -0.06329051 -0.021171438 -0.05249849
-0.04933136 0.0058414675 0.050795946 -0.062810145 -0.0647268 0.007690629 0.02500242 0.05909947
0.046579275 0.004472685 -0.016899653 0.018603068 -0.015137852 -0.0068102824 -0.048296735 -0.031041244
0.042291597 -0.039682206 0.026692128 0.04214151 -0.008355746 0.04058601 -0.0037396536 0.008748229
-0.007904968 0.024751147 0.019761438 0.038376212 0.016703907 -0.010614002 0.0049888315 -0.028050287
-0.017602174 -0.054098573 -0.029063191 0.03914735 -0.03909953 0.05575851 0.033547316 -0.03803666
-0.00597223 -0.06367124 0.036273118 -0.044565044 -0.043783545 0.0042966316 -0.023221977 0.040949177
-0.056372188 0.007680049 -0.041888826 0.043521855 -0.0052249064 0.031079797 0.0016207325 -0.026634421
0.018565122 0.015018215 0.01738409 -0.0015910645 0.03873545 0.030941239 -0.06103561 -0.0028677024
0.019766212 0.0018979807 0.0380394 -0.013336335 -0.014408353 -0.0466609 0.049484313 -0.0356008
-0.04894814 0.006503451 0.0018299579 0.033908874 -0.0106103625 -0.045853376 0.03960498 -0.047610376
0.020093773 -0.02031601 -0.033824246 -0.008818389 0.041260026 0.055098638 -0.055251174 -0.0006402632
0.018643003 0.046045687 0.054485094 -0.057251643 0.05160551 -0.02748249 -0.017651686 -0.00763742
-0.06649332 0.039476678 -0.05114017 -0.06673181 -0.018642638 0.008561269 0.0042839004 0.019773124
-0.06458557 -0.02912484 -0.016424075 0.04179064 -0.0001686628 -0.03184951 -0.025809642 -0.023694653
-0.014725173 -0.014075743 -0.0046422724 -0.02326153 0.04683695 -0.043910287 -0.014150349 0.0050319214
0.024835356 -0.011899211 0.0024302737 0.05142554 0.046811853 0.0012315459 -0.021901459 -0.0064191166
-0.0024513865 -0.03771885 -0.052856322 -0.03722583 -0.04978013 -0.0029865818 0.05686052 -0.056728918
0.053072747 0.017247979 0.05140767 -0.037877515 0.034963116 0.058125615 -0.036270928 0.04144221
0.05316807 -0.02341543 0.00684983 -0.0023717755 0.021504395 0.053018905 0.026658818 0.0133481035
-0.034621496 -0.030622998 0.02943681 -0.0011634745 0.01758637 -0.029184274 -0.0409142 0.047753967
0.03614557 -0.04355606 0.052147 -0.03303487 -0.036116004 -0.043580256 -0.05514232 0.046145078
0.04336173 0.059828885 -0.011968647 -0.023360092 -0.011367504 0.0017535076 0.041008994 0.04439721
-0.050768454 0.05470448 -0.049111415 0.0055965413 -0.002528824 -0.026334979 -0.05407144 -0.008094818
-0.032318622 0.0042051137 -0.053108387 0.02503632 0.03771461 0.035784997 0.040732563 -0.031002687
-0.0010303194 0.016284721 -0.04237999 -0.05986727 -0.025704678 -0.029983195 -0.012031205 0.013785943
-0.012874303 -0.017378297 -0.03341725 0.016704755 -0.001669761 -0.058251254 -0.04207069 0.05176839
0.015171085 0.017440863 -0.015296605 0.0035188128 -0.061683025 0.053580865 -0.061688885 -0.0068395482
-0.011280186 0.038104966 -0.026355192 -0.0629274 -0.031870417 -0.053596564 -0.014616622 -0.034668114

body.2.bias f4 [256]
00000000: 60c8 76bd 482d 69bc 8680 913c 53df 643d
00000010: 3d09 8fbd 6398 2b3c e364 2bbc 49e7 a1ba
00000020: 927e 17bd c188 51bd a28d a2bc 8c2e 6bbc
00000030: 9300 5bbd 2807 21bd 5902 523d 12da a03b
00000040: a8bd 433d f3d0 debc 8d3b 653d 775f 30bd
00000050: 44d2 c83c 46e1 693d 887b 85bc 490c 50bd
00000060: 1ef5 cd3c 01ac e1bc e109 a83c 5b88 723b
00000070: 185d 02bc 72b7 adbc 658a 96bb feee 4c3d
00000080: fd8a 863c 2c3f ec3c 7ada c43c 80cd 4cbc
00000090: 715a 65bd ac62 dfbc 1719 66bd 12b5 a63c
000000a0: 42c2 0ebd 5067 773c a7b9 733c 38f8 dc3b
000000b0: b7dd 2ebc c04c 553c bb2f b03c 8ee7 323b
000000c0: 32cd 95bc 9180 85bb aca5 14bd e9ae 46bc
000000d0: 1c95 8e3c 92c4 653d e938 e13b 5fd1 7dbd
000000e0: 97b0 0dbd 8c45 79bc 4c43 dcbc c0f5 f13c
000000f0: cdb7 603c 0239 c9bc 7b1a 403d 1c30 49bc
00000100: 0a8f 7abd 62ec 733d d0e2 183c 642f 21ba
00000110: 62e1 fcbb 50b5 663d 52bc 6e3d fcd4 483d
00000120: 9335 333d 10e8 993a e005 27bc bbbe d53c
00000130: 0c91 ffbc 512d a33c ba27 ccba c6cc 80bc
00000140: c528 763c 3777 013d 555f 5e3d dfc9 c33b
00000150: db54 bd3c b39c 223d d8e8 2d3d a33b d43c
00000160: e37f 743d f041 85bd 0183 97bc a2a7 483d
00000170: 975c 62bd 6ff3 2dbd 0bff 49bd a225 613c
00000180: 80d3 6c3d b95a 3bbd abbe 9f3c 3a3d 52bd
00000190: c202 65bd 35e8 87bd 9c93 213d f4dd 06bd
000001a0: 24a8 7abc c8aa f13c 26dd 68bc dc24 633d
000001b0: e382 cb3b 9772 3ebb 79a5 78bc 3a84 f8bc
000001c0: 860a eb3c ef52 663d d0ed 52bb 134b 3dbd
000001d0: f951 323d 423f 54bd 3c17 fa3c 5ca2 29bc
000001e0: 7770 26bb 4ea6 873c 82fe 27bd 9ad6 84bd
000001f0: d5e3 a03c 1b14 4b3d 0ed3 293d 0641 2e3d
00000200: aa75 d73b f45f 2a3d 6321 2bbb 72a3 313d
00000210: bd64 3dbd 9cfc 0b3d 1629 5b3d cb89 a2bb
00000220: e97a f43b a3e6 72bc f669 133d 8d78 1c3c
00000230: 6d03 1e3b c73f 4c3b 9155 18bd 3e99 f63c
00000240: 73a3 c63c a7fe 7ebd 3652 54b9 807e 1bbd
00000250: 1e38 5fbd c369 42bd 5c1a 78bc 60f2 2e3d
00000260: 6ef7 12bd 7404 9bbb 12d4 de3c 3c6b 7fbd
00000270: 9b5f 0d3d ebc2 9c3d 2ee7 6abd 0f9b 41bd
00000280: 1980 73bd c315 4fbd c072 d83c 9406 ec3c
00000290: 85c4 20bd de30 833c 69e9 94bd 62e7 0c3d
000002a0: 479b 833c 391a ad3c 0fab 05bd 0178 063d
000002b0: 257f 9b3c 6d76 24bb 8967 d53b d629 54bc
000002c0: cbd8 713d 02c1 723d f3a4 883c b536 b83c
000002d0: b00b 4dbd 520d 9bbc b617 3b3c c4d1 3c3c
000002e0: ac09 3c3d 342e 84bb da92 cebc 00b7 8cbc
000002f0: ba23 82bd 47a9 eb3c 961e 6a3d c49c 293d
00000300: 176a bc3c 94ca 64bd 8ef2 853c d09d 393c
00000310: 36ec 193d c88b 4aba 8533 2dbc 9dff 03bd
00000320: 7876 57bd 080b 363d 328d 08bc 39bd 82bd
00000330: 5682 c83c 8c1c 453d bda1 0fbd d930 e13c
00000340: 8470 be3c 92aa 21bd 7825 4e3d 7a7e 653d
00000350: b271 8b3b 5c28 2abd 59fa 3d3d 9158 1dbd
00000360: 3ea5 863c 233b 4bbc 6d73 a33c a3d0 f9bc
00000370: fbfd 91bb 7c3f 7f3a 83f2 5c3b fb6e be3c
00000380: 08ad 213b 832c 3bbb 41c1 063d 8bd5 61bd
00000390: 8d50 103c 137d fe3c 9bad 2b3c 9008 39bd
000003a0: 3855 11bd d32c 7dbd d92c 0dbc 368f 08bd
000003b0: f717 563c f663 443d ee58 eebc f45e 623d
000003c0: 6855 3abd 26ca 0dbc a87d cdbb eea1 9ebc
000003d0: ff5d 83bc 50e3 8ebb a6de 05bd e522 1abd
000003e0: 89f8 79bd cc85 66bc f592 b3b7 568d 34bd
000003f0: c33d af3c 9078 e63c 2125 75bd 383b c4bc
-0.060249686 -0.014231987 0.01776148 0.05587704 -0.06984184 0.010473344 -0.010461065 -0.0012352254
-0.03698594 -0.05115581 -0.019842926 -0.014354359 -0.053467344 -0.039313465 0.05127177 0.0049088085
0.047788292 -0.027199244 0.055964995 -0.043059792 0.024514325 0.057099603 -0.016294256 -0.050792966
0.025141295 -0.027547838 0.020512523 0.0037007544 -0.007956766 -0.021205638 -0.0045941346 0.05003261
0.016423697 0.028838716 0.024029959 -0.012500167 -0.055994455 -0.02726873 -0.05617627 0.020350013
-0.034853227 0.015100315 0.014875806 0.006743457 -0.010672978 0.013018787 0.021507135 0.0027298662
-0.018286321 -0.004074164 -0.03629081 -0.012126663 0.017405085 0.056095667 0.0068732393 -0.06196725
-0.034592237 -0.015214335 -0.026887558 0.029536128 0.0137156965 -0.024563316 0.046900254 -0.012279537
-0.06117157 0.059551604 0.00933142 -0.00061487244 -0.0077172974 0.056325257 0.058285065 0.049031243
0.043752264 0.0011742134 -0.010194272 0.026091924 -0.031197093 0.01991907 -0.0015575804 -0.015722644
0.015024369 0.031607833 0.054290134 0.0059749926 0.023111751 0.03970022 0.042458385 0.025907343
0.059692275 -0.06506717 -0.018495085 0.048987992 -0.05526408 -0.042468484 -0.049315494 0.0137418825
0.05781889 -0.045740817 0.019500097 -0.05132792 -0.055910833 -0.06636087 0.039447412 -0.032926515
-0.015298877 0.02950038 -0.014212882 0.055455074 0.0062106713 -0.002906 -0.0151761705 -0.030336488
0.028691541 0.056231435 -0.0032185204 -0.046214174 0.043535206 -0.05181814 0.030528657 -0.010353651
-0.0025396624 0.016558792 -0.041014202 -0.064862445 0.019639889 0.04957972 0.041461043 0.04254248
0.006575306 0.041595414 -0.002611243 0.043368764 -0.04623865 0.034176454 0.05350598 -0.004960274
0.007460941 -0.014825496 0.035989724 0.009550226 0.0024110929 0.0031165944 -0.037190977 0.030102368
0.02424786 -0.062254574 -0.00020248521 -0.037962437 -0.054496877 -0.047464143 -0.015143003 0.042711616
-0.0358805 -0.0047307555 0.027200732 -0.062358126 0.034515005 0.07654365 -0.057349376 -0.047267016
-0.059448335 -0.050557863 0.026421905 0.02881173 -0.039249916 0.016014513 -0.07271082 0.03440035
0.016065253 0.021130668 -0.032633837 0.03282929 0.018981526 -0.0025095001 0.0065125865 -0.012949428
0.05904464 0.059266098 0.016680216 0.022487024 -0.050059974 -0.01892725 0.011419227 0.011524621
0.04590766 -0.004033828 -0.025216509 -0.017177105 -0.063544706 0.028767241 0.057158075 0.04140927
0.022999806 -0.055857256 0.01635101 0.011329129 0.037578784 -0.00077265175 -0.010571365 -0.032226194
-0.052603215 0.044444114 -0.008334445 -0.063837476 0.024476212 0.048122928 -0.035066355 0.027489113
0.023247011 -0.03946931 0.0503287 0.05602882 0.004255497 -0.041542396 0.04638133 -0.03841454
0.016436215 -0.012404236 0.0199525 -0.030494994 -0.0044553257 0.0009736938 0.0033713884 0.023246279
0.0024669785 -0.0028560467 0.032899145 -0.05513529 0.008808267 0.0310655 0.0104784025 -0.04517418
-0.03548166 -0.061810326 -0.00861665 -0.0333397 0.013067237 0.047946893 -0.02909514 0.055266336
-0.045491606 -0.008654153 -0.006271083 -0.019364323 -0.016036032 -0.004360594 -0.032683037 -0.037630934
-0.061028037 -0.014069986 -2.1406895e-05 -0.0440801 0.021391755 0.02813366 -0.059849862 -0.023954019

body.4.weight f4 [128, 256]
00000000: 9cbc dc3c e0cc d2bc d393 723d b262 0ebd
00000010: 6fbf fb3c 7a72 2c3d daaf 9cbb ded4 85ba
00000020: da87 453d 663f 3c3d 15c6 ed3c bb7d ec3c
00000030: 96f7 403d b1c2 033b 4b99 4bbd 3e23 c93b
00000040: a064 07bd b07a 06bd 81e3 2f3d 5fb4 abbc
00000050: 3251 d23c fcce 13bd 56eb 873d 4e48 6cbd
00000060: 483b 5cb9 c202 c3bc 8194 31bd fe41 b9bc
00000070: 9a57 6c3d dbb7 8abc 001e 3dbc a87a c2bc
00000080: 826a 123c 2f86 223d 743c dc3c 82c1 44bc
00000090: 9087 fa3c 42f5 91bc 3d1d 443b 6aab 82bc
000000a0: 9e6c 593d 1cd0 203d 8dfa 04bd 90bd 76bd
000000b0: 75e8 373d 66db 4fbd a432 f3bc 0821 1bbd
000000c0: a80b c5bc 3ad6 7b3d f5ad 48bd 7035 53bc
000000d0: 7aa6 a53c c2ee d03c 3f25 bdbc f696 cfbb
000000e0: a022 3bbb 7dea c93c 8097 fd3c 6a26 2ebd
000000f0: 5050 4f3d 2420 edbc cd75 7fbc 2440 0dbd
00000100: 6cb8 423d 474f fb3c e76d 00bd 3bce 333c
00000110: 8504 38bc 0422 1bbd a246 7a3d 841e 04bd
00000120: 37c7 e9bc 59cc 1d3d 6126 3fbc a2f6 65bd
00000130: 7482 6a3d a08d ed3c e9d4 dfba 093c 3f3c
00000140: a946 e83c 6ea1 63bd a0f6 603d 7599 5abd
00000150: d8d2 05bd 8eca acbc f149 b4bc 202b 73bd
00000160: e728 a53b 0018 78bc 6f1a 80bb 5a90 05bd
00000170: c8b2 eebc a807 a53c 3341 053d 39b6 7abd
00000180: 68ce 7c3d 3803 5cbc 9e3a 183d 6a85 353d
00000190: 9fe8 5bbc 9315 4b3d 3574 fa3c 0d6a 273c
000001a0: c248 363d c4ff 8c3c c9df 7b3d 3089 2e3c
000001b0: 1420 cc3b c61d 353d c22e 70bd 25d6 4dbc
000001c0: f5ae 0e3c 7905 883d eee4 823d de85 483d
000001d0: 4de9 513d 09a0 59bd 52f9 e2bb e482 3e3d
000001e0: b403 1fbd 886c 5e3d ca47 3f3d b911 f73b
000001f0: 0d6a 333c 2416 563c d6a1 273d edee ce3c
00000200: c639 833d 1257 3dbc c364 35bc cfd3 bebc
00000210: 9045 753d 6745 533d d916 6a3d ad65 e23b
00000220: 1897 1f3d b880 6d3b 1684 093d 556e 2e3d
00000230: d76c 773d 506d 1a3b a49d 9a3c f15c 633c
00000240: 6d87 2c3c 5139 b93c 24f4 873d 221e 87bc
00000250: b5ec 903b 239b a23c 4938 f7bb 6f69 60bd
00000260: 2c46 923c 3d6b 533c 804e 6c3c f3ba 56bd
00000270: dfae 6dbd 4b1b 19bd 2744 12bd a880 3bbd
00000280: 2316 9ebc c271 ee3c 2694 203d c1ad 03bc
00000290: 97a3 0c3c 3a3c b0bc 5405 c83c 2872 b4bc
000002a0: aa07 9fbb 3589 b3bc 67b3 8e3c c0f7 c13c
000002b0: 3594 473d 712f 27bb 35a2 ff3c 24c8 243d
000002c0: 9861 24bb e740 8dbc 55a8 5fbd bb19 e93b
000002d0: e7f3 e2bb 3f21 5ebd 4540 6c3c 72d3 373d
000002e0: c77f 20bd 5dcf e53b cc3a 6dbd 7a49 623d
000002f0: f2dd 7c3c 6782 bcbc 25f6 aebc d8cf b83c
00000300: 3f15 853d ae9e 263d 631e e83c 507b 543d
00000310: 2c89 643d f8ab 493d ea6e a13c 8918 d33a
00000320: c773 883d b9e7 1f3d 97b9 f83c 65e1 6ebb
00000330: ba2a 1abd dfa2 8fb9 888d 47bc 8297 3bbc
00000340: 2dcf 6abd 9fe5 51bd 1318 d7bc b651 883d
00000350: 0af5 f4ba 4f86 3abc 86b3 c4bc 0bcb 80bc
00000360: 9ecc 9bbc b202 e9bc 1b13 753c 57ec 7a3d
00000370: 3abb 2e3d b5b6 5ebd 46ea 213d 49ea 08bd
00000380: cd30 0dbc b808 cb3c 66ac f83b 569e b1bc
00000390: f447 cb3c 19eb 343c a870 5e3c faf0 883d
000003a0: 3c4f b23b 89b1 a23c 0fb2 2f39 73e3 a03c
000003b0: 92aa 563d 4d74 6fbc ecef 9a3c c4a2 7fbd
000003c0: 318e 17bc 6d99 6dbc d0ac 633c 5391 01bd
000003d0: 1c95 14bb ac2d 3c3d 5fce 3cbc 7143 c93c
000003e0: 10e0 77bc 4e33 743c 8989 e4bc cd37 f1bc
000003f0: e6e9 03bd fedb 9dbc 63aa f03a 1b6a c33c
0.026945405 -0.025732458 0.059223007 -0.034762092 0.030730931 0.04210136 -0.0047817053 -0.0010210534
0.04822526 0.0459589 0.029025117 0.028868547 0.047111116 0.0020105059 -0.04970674 0.0061382344
-0.033054948 -0.032831848 0.042941574 -0.020960031 0.025673483 -0.036086068 0.06636684 -0.057686143
-0.00021002919 -0.023805026 -0.043354515 -0.022614475 0.05770073 -0.016933372 -0.011542797 -0.023740128
0.008936526 0.03967875 0.026884295 -0.0120090265 0.03058222 -0.017817143 0.0029924654 -0.015950877
0.0530821 0.03926097 -0.032465506 -0.060239375 0.044899423 -0.050746344 -0.029687233 -0.037873298
-0.02405341 0.0614836 -0.048994023 -0.012891158 0.020220984 0.025504474 -0.02308905 -0.0063351346
-0.0028554574 0.024647946 0.03095603 -0.042517103 0.0506137 -0.02894599 -0.015592051 -0.034484997
0.04753916 0.03067745 -0.03135481 0.010974462 -0.011231546 -0.037874237 0.061102517 -0.032255664
-0.028537376 0.03852496 -0.011666865 -0.05614341 0.057253316 0.028998196 -0.0017077002 0.011672028
0.028354006 -0.055573873 0.0549227 -0.053369004 -0.03267178 -0.02109268 -0.022007914 -0.0593673
0.0050402763 -0.015142441 -0.003909401 -0.032608368 -0.029137984 0.020145252 0.032532882 -0.061208937
0.06172028 -0.013428502 0.037165277 0.044316687 -0.01342216 0.04958112 0.03057299 0.010218156
0.04450298 0.017211802 0.061492715 0.010652825 0.00622941 0.044217847 -0.05863834 -0.012563263
0.008708705 0.06641669 0.06391321 0.04895579 0.051247884 -0.053131137 -0.006926694 0.046511546
-0.03882189 0.054302722 0.046699323 0.0075399545 0.010950577 0.013066802 0.040925823 0.025260413
0.06407504 -0.011556404 -0.011071387 -0.023294358 0.059880793 0.05157986 0.057150695 0.0069090934
0.038962454 0.0036240052 0.033573233 0.04258569 0.060406532 0.002356369 0.018873997 0.013877139
0.010530335 0.022610338 0.06638363 -0.01649386 0.004422749 0.019849366 -0.0075445515 -0.05478805
0.017855726 0.012903986 0.014423013 -0.052424382 -0.0580281 -0.037379544 -0.035709526 -0.045776993
-0.019297665 0.029106978 0.039203785 -0.008037032 0.008583925 -0.021513093 0.024416603 -0.02202709
-0.0048532085 -0.021916011 0.01741953 0.023677707 0.048725326 -0.0025510455 0.031205276 0.04022993
-0.0025082584 -0.017242862 -0.054603893 0.007113663 -0.006926048 -0.054230925 0.01441962 0.044879384
-0.039184358 0.007013245 -0.0579174 0.055245854 0.015433775 -0.0230114 -0.021357605 0.022560045
0.06498193 0.040678672 0.028334802 0.051875412 0.05579488 0.049236268 0.019706208 0.0016105335
0.06662708 0.039039347 0.030361934 -0.0036450264 -0.037638403 -0.00027396434 -0.01217974 -0.0114496965
-0.057326484 -0.051244374 -0.026256597 0.0665621 -0.001868875 -0.011384561 -0.024011385 -0.015721818
-0.019018468 -0.028443668 0.014958168 0.061260547 0.042659022 -0.05437346 0.03953006 -0.033426557
-0.008617592 0.02478443 0.007588911 -0.021681946 0.024814583 0.01104238 0.013576664 0.06686588
0.0054415744 0.019860046 0.00016755633 0.019639706 0.052408762 -0.014615131 0.018913232 -0.062411085
-0.00925021 -0.014501912 0.013896182 -0.031632733 -0.0022671884 0.045941994 -0.011523812 0.024568291
-0.015129104 0.01490481 -0.027897613 -0.029445553 -0.032205485 -0.01926994 0.0018361326 0.023854306

body.4.bias f4 [128]
00000000: 77e5 7abd 1f3d 1d3d 327b 96bb 0fc3 33bd
00000010: dd6c f1bc f44f 703d 9290 0abd ee5e 75bd
00000020: 63e3 3a3d 14ce 5b3d 7a68 c83c 2fb4 183d
00000030: e419 58bd a5c3 ecbc 9233 90bc f8e0 ae3c
00000040: a378 183d 0411 303d 5db8 643d 8232 71bc
00000050: e50c 263d 8055 d8bb cfe9 4a3d 369c fe3c
00000060: 62ed 683d 7150 36bd 89e1 80bc 14e7 963c
00000070: 5a1a 01bc 34a4 3b3b b40d 68bd 2dcd 9c3c
00000080: 16d6 70bd 0b8d ffbc abfc 64bd 3d25 003d
00000090: 5dd1 143d c5f6 5f3d 55c4 85bc 802e f5bc
000000a0: cd6c c0bb 6bf8 febb 852e 1dbd dd59 553d
000000b0: 9e4a 72bd 0ade 01bd 49b0 c93b 4387 0bbd
000000c0: f70f 6f3d c99f 203c 45fa a63c 208f 04bd
000000d0: 2192 72bd 92d8 a93b 9b10 9f3c 713c 1a3d
000000e0: 4069 223c e84c 14bd 1b31 ebbc 7dbc 3a3d
000000f0: 5357 d83c 6ff9 02bd de3c 303d dce7 66bd
00000100: 6550 0dbd f766 12bd c28f 28bd 65d0 573d
00000110: 6243 37bb c5eb 6cbd 3eaf 403c 75d0 05bd
00000120: d82f 753d 62e2 2e3d 158e 23bd cf9c 70bd
00000130: 7cf6 5f3d 2f77 e23c e549 aa3b 636b eabc
00000140: d8f3 3c3d 21e4 1dbd 9ad1 7cbd 340a 743d
00000150: fccf 4b3c b09e fcbc f91c 183d ba4d 00bd
00000160: 1035 30bc c8c5 6ebc e9ce 7cbc 86c6 4fbd
00000170: 248d eb3c 6f70 60bd cb52 a5bc e3e9 a13c
00000180: a0e1 473d 3438 a3bb 765c 2c3a 03fc 283d
00000190: b901 0d3c 0d4c 293d e7e9 e5ba 5f92 863d
000001a0: f316 a83c de88 bd3c 5b4c 2fba 6213 f7bc
000001b0: 0c8b 503b f1d9 5e3d c489 0dbd 3b09 babc
000001c0: e496 233d 3657 6bbd 5937 853c e47a 19bd
000001d0: ebed dbbc 6d87 473d 836a dabc 8858 21bd
000001e0: 11ff 483d b8ab 1f3d d871 8dbb 9b38 5c3d
000001f0: 6520 d2bc 7df7 a53c b6b8 d8bc 8d59 24bd
-0.06125399 0.038388368 -0.0045923227 -0.043887194 -0.029470855 0.05867 -0.03382928 -0.059904985
0.04562701 0.05366333 0.02446388 0.03728121 -0.052759066 -0.028901884 -0.017602716 0.021347508
0.037224423 0.042984977 0.055839885 -0.014721515 0.04053964 -0.0066019893 0.049539384 0.031080347
0.05686701 -0.04451031 -0.015732544 0.018420734 -0.007879818 0.0028631808 -0.056653693 0.019140804
-0.05879792 -0.031195184 -0.055905025 0.031285513 0.036332477 0.054678697 -0.01632897 -0.0299294
-0.005872345 -0.0077810786 -0.038374443 0.052087653 -0.05915319 -0.031705894 0.006155048 -0.034064543
0.058364835 0.009803721 0.02038301 -0.032363057 -0.05922139 0.005183288 0.019417098 0.037655298
0.009912789 -0.036206156 -0.028709939 0.045589913 0.026408827 -0.03197616 0.043026797 -0.056373462
-0.0345005 -0.035742726 -0.041152723 0.052688975 -0.0027963747 -0.057842035 0.011760531 -0.032669503
0.05986008 0.042696364 -0.03993042 -0.058743294 0.054678425 0.027644722 0.005196797 -0.02861566
0.046130985 -0.03854764 -0.06172333 0.059580043 0.012439724 -0.030837387 0.037137005 -0.031324126
-0.010754839 -0.014573522 -0.015430191 -0.050726436 0.028753825 -0.054794725 -0.02018108 0.019764846
0.048799157 -0.004981065 0.0006575057 0.041255962 0.008606368 0.041332293 -0.0017541022 0.06570887
0.020518756 0.023136552 -0.0006687098 -0.03016061 0.003182116 0.054407064 -0.03455521 -0.02270948
0.039938822 -0.057456218 0.016261743 -0.037470713 -0.026846847 0.048713136 -0.026662117 -0.03939107
0.049071375 0.038982123 -0.0043165497 0.05376492 -0.025650213 0.020259613 -0.026455265 -0.040124465

move_head.weight f4 [5, 128]
00000000: 3a8d 8bbd 89b0 b7bb 2a5c 9e3d 800d 743d
00000010: 5fe7 fabc cf08 05bc 37e6 9ebd 1562 013d
00000020: 1bb6 8abd 5c8c a93c 1f28 04bd 0c27 ec3b
00000030: e4c5 9abd c7b1 4f3d 9e70 a4bd 2f30 743d
00000040: d884 89bd d42b 99bd 0ba5 8e3d c364 2c3d
00000050: 1340 933d 18ef 373d e829 833d a285 85bb
00000060: b2f8 a9bd 6cc2 503c de21 77bd 2ecf 143d
00000070: a000 903d cab2 683d cec0 a93c d8e8 85bd
00000080: 6068 053c 6b9d 88bc 124d a73d 68f0 bfbb
00000090: 6dc0 273d 70c9 48bb 802f 5fbd 9fcc 84bd
000000a0: c6de b23d c446 d13c 210e 1ebd c167 233d
000000b0: 1d79 a0bd 802b 11bd f4f7 f4bc 6c69 1bbd
000000c0: da11 9e3d c15c bebc 34f1 3f3d c95e 81bd
000000d0: d8fa d63a 350b 14bb 48ff 5f3d 7dc5 c43c
000000e0: 7444 a33d d37b a7bd 3179 ac3d 33ac 66bb
000000f0: 25f4 debb 4f27 34ba e507 a23d 88e8 883d
00000100: c648 41bb 84b5 25bd 7466 373d d0c6 89bd
00000110: 4ec7 bb3d 44a0 633c 7d42 4abd 6d13 a0bc
00000120: 1d1f 9f3d ad7e 153b e3ad 493d 4afa dd3c
00000130: 98b9 043d 6a07 ac3b 0e36 8abb c790 78bd
00000140: 9d5b 233d ce3e 853d 0af3 0b3d fd1b 9f3d
00000150: 1535 01bd 2c42 83bc 7964 95bc 9f59 593d
00000160: 99c4 773d acc2 0bbd 902e 91bd b10b 9b3d
00000170: 28fc a4bd 8ce1 213d 72e1 653c a30e 40bc
00000180: f7b8 e03b 627f 53bd 396b e73c 83f0 873d
00000190: bc1e 1dbd 4f4d 18bb d2eb a73d 063b 69bd
000001a0: 0fb8 c13d 60af d73c 3329 463d 1f5a a23d
000001b0: d22c b03d ab6a 16bd 0518 6d3c 5a51 1cbd
000001c0: 49c2 a8bd bce5 a93d 5ce3 2c3d 05e3 063c
000001d0: 0766 a73d 8863 6f3d f762 94bd a331 283d
000001e0: 2df0 773c 5cdd 433c bccc 8ebd 9d4f 973d
000001f0: edaf 873d 2a53 0c3d fd0f b0bc baf9 973c
00000200: 144c 913d f73e 91bb 661b aabd b5fb 72bd
00000210: e1e7 abbd 4b17 363d f34b b73b 1143 5fbd
00000220: c7b2 cd3c a18d 8dbc dd6e c53c b77b 51bc
00000230: a5ea 06bd 04bb be3b 5536 f33b 0921 70bb
00000240: 3465 a73d 2555 93bd 9381 d73c 6243 aebd
00000250: c716 01bd 4bec 823d a57f 90bd 4d33 86b8
00000260: 77bd 60bc 2865 a4bd 8836 683d 8c12 883d
00000270: e579 a73d ef8b 83bc b214 453d b086 6dbb
00000280: a247 8bbd 03dc 31bb 93b7 803d 03d8 a53c
00000290: 0bf2 86bb 5529 353d 2ad0 c0bc ac52 e1bc
000002a0: 6ecc b7bd 0125 2dbd b225 63bd f2c4 583d
000002b0: 9794 f8bc e5eb e2bc c7d2 e0ba caca 26bd
000002c0: c6e0 51bd 27db 58bd 5c67 ba3d 4daf 9abd
000002d0: 0e8d be3b 9de7 053d 7d81 53bd c342 2c3d
000002e0: 0d46 20bd f4c0 2cbd fb78 24bd 9373 ba3c
000002f0: c30c 8a3d a770 753d c45a 9ebd f842 523d
00000300: 53fe 98bd 5c7f 9b3d 4408 d23c 1db0 aabb
00000310: 0ba7 0f3d 5462 68bd 20ff f73c 6024 123d
00000320: fe89 793d 0749 3bbd 4ef7 803c fe10 93bd
00000330: 3d64 6a3d 8b81 4e3a 5b0c 8bbb 3090 a93d
00000340: 923b 12bd 6dad 453d 3329 0abd 27da a13d
00000350: b89f cc3b 53f9 0ebd 4e0c e1bc 7092 be3d
00000360: f4aa 87bc 84b7 2abc 33cf 923d dd13 bbbc
00000370: 280b 3a39 459f a83d 98cf 483c ce66 b9bc
00000380: 9375 fdbc 79a0 953c 7da4 2cbd c253 423c
00000390: 31c9 1b3d 6530 e9bb 1ac4 a33c 6507 61bd
000003a0: a851 c43c 6373 4e3d ba93 69bd 4010 b1bd
000003b0: c4d6 6f3d 7762 333d bbe0 913d 56e0 42bd
000003c0: 6c1c cfbb c1e1 07bd fb23 a13d ae00 923d
000003d0: 7cd7 2bbb 5970 213d 4dcf 9c3d 680f 433d
000003e0: c252 523d 62dc 22bb beb7 023c 5550 ef3c
000003f0: c755 91bd 98a4 8e3d 8e36 8bbd ba01 4c3d
-0.06814046 -0.0056057614 0.07732423 0.059583187 -0.030627904 -0.008119776 -0.07758754 0.03158768
-0.06773015 0.020696811 -0.032264825 0.007206803 -0.07557276 0.05070665 -0.080292925 0.059616264
-0.06714791 -0.07479063 0.06965073 0.04208828 0.071899556 0.044905752 0.06404477 -0.004074768
-0.08299388 0.012741666 -0.060335033 0.036330394 0.07031369 0.05681113 0.02072182 -0.06538552
0.008142561 -0.016676625 0.08168997 -0.005857516 0.040954996 -0.0030637644 -0.05448866 -0.06484341
0.08733897 0.025546439 -0.038587693 0.03989387 -0.078356005 -0.035441875 -0.02990339 -0.037942335
0.07718249 -0.023237588 0.04686089 -0.06316907 0.0016401662 -0.0022589688 0.054686815 0.024019951
0.07972041 -0.081779145 0.08421553 -0.0035197854 -0.0068040066 -0.00068723125 0.07911662 0.06684977
-0.002949284 -0.04045631 0.04477544 -0.067273736 0.09168874 0.013893191 -0.049379814 -0.019540513
0.07769606 0.00228111 0.049238097 0.027096886 0.03240356 0.0052499073 -0.0042178696 -0.060684945
0.03988229 0.0650612 0.034167327 0.0776901 -0.031544764 -0.016022764 -0.018236386 0.053063985
0.060490225 -0.0341212 -0.07088959 0.07570589 -0.080559075 0.03952174 0.014030801 -0.01172224
0.006857987 -0.051635154 0.02824937 0.06637671 -0.03835939 -0.002323944 0.08199276 -0.056941055
0.094589345 0.026328743 0.048379134 0.079273455 0.08602299 -0.03672282 0.014471059 -0.03816352
-0.08240182 0.082957715 0.042209014 0.008232837 0.08173757 0.05844453 -0.072454385 0.041062962
0.015132946 0.011954632 -0.06972644 0.07388232 0.06625352 0.034259 -0.021491999 0.018551696
0.07094589 -0.004432555 -0.08306007 -0.059322078 -0.08393837 0.044455808 0.0055937706 -0.05450732
0.025109662 -0.017279448 0.024100715 -0.012785844 -0.03293862 0.005820634 0.0074222484 -0.0036640784
0.081736 -0.071939744 0.026306903 -0.08508946 -0.031515863 0.063927256 -0.07055596 -6.3991734e-05
-0.013717047 -0.080271065 0.05669263 0.066441625 0.081775464 -0.016057936 0.04811544 -0.003624361
-0.06800772 -0.0027139194 0.06285014 0.020244604 -0.0041182092 0.04422887 -0.02353676 -0.027505241
-0.08974539 -0.042271618 -0.05545587 0.052922197 -0.03034429 -0.027700374 -0.001715266 -0.04072074
-0.05123975 -0.052943375 0.091017455 -0.07552967 0.005815155 0.032691587 -0.05163716 0.042055856
-0.039129306 -0.042176202 -0.04015444 0.022760188 0.06740715 0.059921887 -0.07732156 0.051333398
-0.074703835 0.07592651 0.025638707 -0.0052089826 0.035071414 -0.056734398 0.03027302 0.03567922
0.060922615 -0.04572394 0.015742924 -0.071809754 0.0572245 0.000787758 -0.0042434162 0.08279455
-0.035701342 0.048261095 -0.033730697 0.079029374 0.006244626 -0.034905743 -0.027471688 0.093052745
-0.016561009 -0.01041973 0.07168426 -0.02283662 0.00017742498 0.08233503 0.012256525 -0.022632029
-0.030939853 0.018264996 -0.042149056 0.01186079 0.038033668 -0.007116365 0.01999097 -0.054938693
0.023964718 0.05040301 -0.05702565 -0.086456776 0.058554426 0.043795075 0.07122942 -0.047577225
-0.006320527 -0.03317428 0.07868191 0.07129036 -0.0026220968 0.039413784 0.07656727 0.047622114
0.051348455 -0.0024850597 0.007978378 0.02921311 -0.07096439 0.069649875 -0.06797515 0.049806334

move_head.bias f4 [5]
00000000: 0811 61ba b402 b0bd 2228 ad3c a52d cfbc
00000010: 64c5 95bd
-0.00085856067 -0.085942656 0.0211373 -0.02529032 -0.0731304

comm_head.weight f4 [4, 128]
00000000: 1c03 903c 6389 b43d 1e1e ac3d c333 3b3d
00000010: cb2e 81bd 868c 593d a162 ccbb 3f47 a33c
00000020: 91a1 dc3c 9302 893d b76a 823d df48 bebc
00000030: f858 e6bc 2a85 a5bd 49e7 a53c c2d4 84bd
00000040: 545c b43c 3cf5 223d 79b5 65bc b98a 813d
00000050: 5748 5ebd 0595 adbc b3a9 8cbc 1d26 8d3d
00000060: 786a a73d 728d e7bc 2032 abba 7855 9e3d
00000070: 019d 8cbd 71fe 36bd 0259 973d a3b6 a2bd
00000080: a4ee a73d 3fce 1bbd 3450 6bbd 5ab3 3f3d
00000090: f864 92bd 2fc4 5ebd 7da4 9c3c a7bf c13c
000000a0: 13cd 9dbd ce16 543d 87fb 293b 3c7f a0bb
000000b0: e172 4fbd 3786 813d 3f73 9a3d 7a82 99bc
000000c0: fe16 80bd e488 313c 0e96 233d a4f2 193c
000000d0: 5616 a83d 2fb4 86bb 762f 013d c1be a5bd
000000e0: 6518 4ebd d3e4 7bbc 75f9 823c 551d f23c
000000f0: 5222 c1b9 354b 483d 10aa a83c c662 63bd
00000100: ad42 8dbc 57d1 5c3d d5e9 7cbd 4d85 803d
00000110: a323 883c 8e7b f6bc 63ad 803c b36e 98bd
00000120: b091 54bd 9db7 72bd 9409 eabc c6f5 b33a
00000130: bd33 fb3c 65b8 94bc 8baa 2d3c 9874 7fbc
00000140: 566f a33d a47a 393d 0956 61bc 88df a9bd
00000150: 865b 79bc 0504 a03c 7c19 10bd 0c51 9dbd
00000160: 6fcb 443d 7ff0 7cbd 271a bf3c 27a6 a13d
00000170: 2243 a33d 2a66 b3bd b85a f2bc fb94 973c
00000180: 45d1 4ebd c47c b83c 0d0f 1bbd fd3a a73d
00000190: 2db9 933d ab0f 24bc 3525 b63c 507e 383c
000001a0: a0d1 63bd 7ab4 573d 81f7 94bb 7d6d 3ebc
000001b0: 9394 1bbd 7fcc 9abd 7020 20bd ee12 dcbc
000001c0: 200c 5abd 9189 8d3a 1d9c b1bc 5f49 9ebc
000001d0: 5cd9 22bd 9ad6 8d3d 32fb 423d b82f a83d
000001e0: 44f6 433c 7ca2 ac3c 64d5 613d 6dca 49bd
000001f0: 5823 89bd 5de3 8ebd 3ce9 933d 9ce6 b43d
00000200: c594 e53c 3d76 99bd 3166 3d3d d049 c0bc
00000210: 50cc bd3c ad18 493d 520c a93d 3dcb 4ebd
00000220: 50fc d13c 5052 e73c 854d 2abd 2312 7dbd
00000230: 9504 6e3d 63e9 0b3c 35cb 6d3d 6246 97bc
00000240: 5018 45bd e361 af3d 9e70 a0bd f6f4 88bc
00000250: aec1 89bd 2908 513d cd1c 793d 44cc e3bc
00000260: d0b0 95bc 2d25 b23d c8b3 8ebd e56f 643c
00000270: 8d42 b33d 94cd d93b 870c b2bd e0f7 17bd
00000280: de9d 77bc 302e 1dbd 1487 af3d 6686 323d
00000290: c86e 9dbd 2a8f babc 22d6 b7bc b875 93bd
000002a0: db7f f4bb 2559 233c 4726 a7bd b17a 993d
000002b0: d079 e13c 5f4c 003d 7043 e8bc 1b3d abbd
000002c0: 1aa6 a9bd ef2c 89bd 741f 9f3d 7be4 25bd
000002d0: bab6 95bd be4e 913c d707 8bbd eaf2 b53c
000002e0: 0544 62bc 0e9d a2bb b28c 2abd 34c6 1dbc
000002f0: cc45 aebc 0fbc 823d 0e77 66bd 7729 6ebd
00000300: a6fc 80bb b228 843c f839 aa3d 92bc 643b
00000310: 6d50 2cbd f048 4f3d 6b54 a7bd 478a 4fbc
00000320: 6592 543d 73af 37bd cfb2 993d ce8a 043d
00000330: 50d0 6b3d 48ef 653d c49b ebbb 5ed8 67bd
00000340: 134c afbd 328f 943d 846f 323d 5333 413d
00000350: f31c 583d 79a9 553d 8e81 c6bc 8023 a7bd
00000360: 34d3 9fbd f99f a23d b83e 4fbd 7a21 af3d
00000370: 6fee abbc eb9f 943d 38ae 293d 8c25 a2bd
00000380: 7cee e5bb aa15 c8bb e8ad 7c3d 30a6 793d
00000390: 5343 793d 6336 3ebd a57e 92bc b625 903d
000003a0: ef58 843d 26f2 953d 085b 32bd 02f0 9ebc
000003b0: 19fb 813c b797 98bd 0e76 373d 5a98 a8bd
000003c0: 441c 19bd 5498 aabd f1c8 02bd 14d7 a2bd
000003d0: dfc7 b13d b841 e7bb 62e6 8ebd 5f26 9ebc
000003e0: dc76 243d 3479 fcbc bf8b 04bd 71ef 2f3d
000003f0: 3735 a0bd ad3a 2f3b b72d afbd f905 f73a
0.017579608 0.08815267 0.08404182 0.04570366 -0.06307753 0.05311253 -0.0062373434 0.019931434
0.02693251 0.06689944 0.063680105 -0.023228107 -0.028118595 -0.0808204 0.020251887 -0.06485893
0.022016682 0.039784655 -0.014020317 0.06325287 -0.054268207 -0.021189222 -0.017170763 0.06892035
0.08174604 -0.028265689 -0.0013061203 0.077311456 -0.068658836 -0.044676248 0.07390024 -0.079449914
0.08199814 -0.03803849 -0.057449535 0.046801902 -0.071481645 -0.054386314 0.019121403 0.023650957
-0.077051304 0.05177956 0.0025937275 -0.00489798 -0.050646666 0.063244276 0.07541513 -0.018738974
-0.062543854 0.01083586 0.039938025 0.009396229 0.08207385 -0.004110835 0.031539403 -0.08093024
-0.050316233 -0.01537438 0.015988091 0.029555002 -0.000368374 0.048899848 0.020588905 -0.05551412
-0.017243708 0.05391058 -0.061746437 0.06275425 0.016618555 -0.030088212 0.015707677 -0.07442989
-0.05189675 -0.05925714 -0.02856902 0.0013729862 0.03066432 -0.018154332 0.010599743 -0.015591763
0.0798022 0.045282975 -0.013753423 -0.08294588 -0.015219575 0.019533167 -0.035180554 -0.07681474
0.048045572 -0.061752792 0.0233279 0.07893019 0.07971789 -0.087597206 -0.029584274 0.018503657
-0.050492544 0.02252043 -0.03785615 0.08165548 0.07213054 -0.010013501 0.022234539 0.011260584
-0.055619836 0.05266235 -0.0045461063 -0.011622784 -0.03798349 -0.07558536 -0.039093435 -0.026864495
-0.05323422 0.0010798444 -0.021680886 -0.019322095 -0.03975807 0.069256976 0.04760284 0.08212227
0.01196057 0.021073572 0.055135146 -0.049265314 -0.066961944 -0.0697696 0.0722222 0.08833048
0.02802504 -0.07493255 0.046240035 -0.023472697 0.023168713 0.0490958 0.08254303 -0.050486792
0.025633007 0.028237492 -0.041577835 -0.061784875 0.05810984 0.00853953 0.05805512 -0.018466178
-0.04811889 0.08563592 -0.0783398 -0.016718369 -0.067263946 0.051033173 0.060818482 -0.027807362
-0.018272787 0.08698497 -0.06967884 0.013942693 0.08752928 0.0066468213 -0.08693796 -0.037101626
-0.015113322 -0.038374126 0.08570686 0.043585204 -0.076871455 -0.022773344 -0.022440974 -0.072001874
-0.0074615306 0.009969984 -0.08161598 0.07494105 0.027523905 0.031322833 -0.02835247 -0.08361264
-0.082836345 -0.066980235 0.07769671 -0.0405011 -0.07310243 0.017737743 -0.06788605 0.022210557
-0.013810162 -0.00496257 -0.041638084 -0.009629775 -0.021273516 0.063835256 -0.056265883 -0.058145013
-0.003936368 0.016132686 0.08311838 0.0034902436 -0.042068888 0.050606668 -0.08170398 -0.012667245
0.051897425 -0.044845056 0.07504808 0.032358937 0.05757171 0.0561364 -0.0071901996 -0.05660283
-0.08559432 0.07253875 0.04356338 0.047168087 0.052761983 0.052163575 -0.024231698 -0.08161068
-0.07803956 0.079406686 -0.050596923 0.08551307 -0.020987717 0.072570644 0.041425914 -0.07917318
-0.007016955 -0.006106098 0.061689287 0.060949504 0.06085522 -0.046438586 -0.017882654 0.07038443
0.06462275 0.07321577 -0.043543845 -0.019401554 0.015866803 -0.07450812 0.04479032 -0.08232184
-0.03738047 -0.083298355 -0.031929914 -0.07951179 0.086807005 -0.007057395 -0.06977536 -0.019305406
0.040152416 -0.030819513 -0.032359835 0.04295296 -0.0782265 0.0026737854 -0.08553641 0.0018846384

comm_head.bias f4 [4]
00000000: e16f 96bd aeba 7abd 13ab ad3c 1bcb ee3c
-0.07345558 -0.061213188 0.021199739 0.029149583
