checkpoints/dev_test/simple_reference_v3_agent_0_ep4.pt (torch, 106549 bytes, 6 tensors)

model.0.weight f4 [128, 21]
00000000: ec2e 31be 9e47 31be 1a6a 5e3e d754 093e
00000010: 1c51 fe3d 1922 1b3e 7e16 e13d 4b62 283e
00000020: f444 a7bb 6903 303d 822e a13d 2340 573d
00000030: 61d8 5b3e 4dd3 88bd 8848 49be b585 65bd
00000040: 5d2f 17bd c43b 00be f818 e33d 5218 433e
00000050: 2063 14be 42e6 02bd 6dae 36be 2d9c 8abd
00000060: d94a 2c3e 12ae 8b3d 9477 923d ce4d 13bd
00000070: 1cd7 e3bd 1348 0ebe 0c3f f6bd aa3f 1abe
00000080: 8205 f63d 102d 20bd 368e 2dbd d4f1 04bd
00000090: 76f6 57be be9a e93d 977c 0a3d d446 38be
000000a0: d230 d1bd ab53 19be 5ff6 d83d a14e 3abe
000000b0: b35c b83d 4398 05be ab8e 2d3e e740 063e
000000c0: 7f46 a93c 041e 373e 18ea 593e cba4 143e
000000d0: f504 1a3e 8973 3f3e 80c1 acbc 596b db3d
000000e0: 3c69 95bc e634 f73c 6ef1 2fbe 02c3 e43d
000000f0: a33e b4bd 6050 393e 3ff5 d4bc 2677 19be
00000100: ff0f 39be 6ff0 043e 953f 13be 1ed4 74bd
00000110: 1d2c 47be 4136 3c3e ce45 4d3e 1eab 123e
00000120: a172 09be 633f 37be 08bc 9ebd c7e7 2c3e
00000130: f76a ddbd 7904 413e adb2 c43d a437 e03d
00000140: 590a 9dbd c7af 56be 2665 053e aab3 42be
00000150: 6a11 d63d d901 003e dfbc edbd f3f7 64bd
00000160: f104 17be 4383 b23c 9695 fe3d d126 df3d
00000170: 8839 7a3d 7e29 633d 52a3 5abe d080 e83c
00000180: 216c 1f3e 90e4 453e 6020 e33b f16d 2ebe
00000190: 8fa7 2c3e bd9c 153e bbd6 593d 9f3b cbbd
000001a0: 9689 2cbe 434c 37be 022c b7bd a1d6 c1bd
000001b0: a976 43be b1bf 94bc 3fba 26bd 9562 f4ba
000001c0: fa04 003d 8f18 5f3e aff1 273e 1116 38bd
000001d0: 90b7 163e 0892 f8bd c3a1 2fbe 1204 17be
000001e0: e2cb 253e 4951 4abe 365c f53d c2d7 8d3d
000001f0: ecbd 54be 91f8 5cbe 609a 513e ec0b fe3d
00000200: 9eda 20be e8c0 1dbe d6e4 be3d fe75 edbc
00000210: aed6 363e b4f6 a53d 259b 43bd 4541 573d
00000220: f10a 0b3e 0b6e 993d d740 b6bd 6bc8 28be
00000230: 3f00 1fbe 0935 33be 2f51 063d e5e9 febd
00000240: 052d 49be f8f9 51bd f17a 4d3e d107 fbbd
00000250: 15cf 0d3e 9101 fa3d 37ad b2bd 6227 febd
00000260: 9532 d53c 445c 013c 7b8b 1ebe 4289 213d
00000270: 2f9e 793c fd21 d03d 9aa5 e7bd 723e b93d
00000280: fa56 5f3e 002d e2bd 9639 873d 2902 87bd
00000290: cd36 febd 8ec8 9a3c ef76 4ebe 087d 303d
000002a0: 84f3 6a3d 7a9b af3c bdf9 593c 0e9d 17be
000002b0: 1e00 333e 5526 4dbe 54cf eebd c377 ef3d
000002c0: 8ab5 38bd a2c3 1c3e bd84 26be d908 b83d
000002d0: d37c 6c3b a54c 81bc d0f4 5dbe 6f52 d43c
000002e0: f6f2 3d3e 33de 17be edb4 d53d 2e51 babd
000002f0: 1a6e 063e 3388 d13d a1de 033e eaa1 54bd
00000300: a861 3a3e 1492 cfbd 3b7b a0bd 7ec9 b5bd
00000310: 59d7 1fbe 327a 693b 9403 603e 388f 043e
00000320: 6f4c 51bc 0a6c 5f3d 6f7b 1dbe 2d27 f0bd
00000330: a5be 39be 36af 12be 7ea8 75bb 7258 703d
00000340: 434f 31be 81cc b23b 7d90 e03d 99d9 ad3d
00000350: 2dd6 003e d872 393e 0a62 2d3d 8689 d93c
00000360: 1530 7bbd fffc 01be a4e7 423d a8e5 c8bc
00000370: 135b b23d 26a9 32be 09d4 493d ee18 c23d
00000380: 08dc 463e f8f0 283e ab2e 5f3d c204 5bbd
00000390: 849c 5bbe 57de 3dbc 1600 5cbe bfcf cdbd
000003a0: 1dd4 183e 36d7 5c3d aba7 783d 5840 4dbd
000003b0: 4f9a 1dbd 0e52 32bd 334c 3bbd 7802 d53d
000003c0: 3e0c 493e 7f0e 0fbe 3f5c ec3d fc03 8e3d
000003d0: 97ee dbbd 3de6 6c3c b438 15bc e113 fabd
000003e0: 76fb 8d3d b74a ffbc 29ab a4bd 9543 2abd
000003f0: 5710 09bd 6999 bd3c 74cf b53d 56a2 fd3d
-0.17303056 -0.17312476 0.21720162 0.1341127 0.12417814 0.15149726 0.10990618 0.16443746
-0.0051046554 0.042972002 0.07870199 0.0525514 0.21469261 -0.066809274 -0.19656575 -0.056035716
-0.036910404 -0.12522799 0.11088747 0.19052246 -0.14490938 -0.031957872 -0.17839976 -0.067680694
0.16825427 0.06820311 0.07151714 -0.035962872 -0.11125013 -0.13894682 -0.12023744 -0.15063348
0.12012769 -0.039105475 -0.04237195 -0.032457188 -0.21090111 0.11406468 0.033810224 -0.17995769
-0.1021439 -0.14973323 0.105938666 -0.18194057 0.09002056 -0.13046364 0.16948955 0.13110696
0.020663498 0.17882544 0.21280706 0.14515989 0.15040953 0.18696417 -0.021088362 0.10713834
-0.018238656 0.030176591 -0.17181942 0.11170007 -0.088010095 0.18097067 -0.025995849 -0.14986858
-0.18072508 0.12982343 -0.14379723 -0.059772603 -0.19450422 0.18380071 0.2004616 0.14323089
-0.13422634 -0.17895274 -0.07750708 0.16885291 -0.108114175 0.18849362 0.09604392 0.109481126
-0.07667989 -0.20965491 0.13026866 -0.19013849 0.1045254 0.12500705 -0.1160829 -0.055900525
-0.14747979 0.021791106 0.12430875 0.108960755 0.061090022 0.055459492 -0.21351364 0.028381735
0.15568592 0.19325471 0.0069313496 -0.17034127 0.16860794 0.14610572 0.0531833 -0.09923481
-0.1684936 -0.17900185 -0.08943941 -0.09464765 -0.19088234 -0.018157812 -0.040704962 -0.0018645102
0.031254746 0.21786712 0.16400789 -0.04494292 0.14718461 -0.12137228 -0.17151551 -0.14747646
0.16191056 -0.1975757 0.119804785 0.06925918 -0.20775574 -0.21579196 0.20469046 0.12404618
-0.15708396 -0.15405619 0.09320991 -0.028986927 0.17855331 0.081036955 -0.04775538 0.05255248
0.13578393 0.07491692 -0.08899086 -0.16482703 -0.15527438 -0.175007 0.032792266 -0.124469556
-0.1964608 -0.05126378 0.2006643 -0.1225735 0.13848527 0.1220733 -0.08724444 -0.124098554
0.026025096 0.007895533 -0.15482895 0.03943754 0.015235468 0.10162733 -0.11310883 0.090451136
0.21810523 -0.11043739 0.066027805 -0.06592209 -0.12412796 0.01889446 -0.20162557 0.04308799
0.05736114 0.021436442 0.013304171 -0.14806005 0.17480513 -0.20034154 -0.116606385 0.116927646
-0.045095004 0.15309003 -0.16261573 0.089860626 0.0036085143 -0.015783617 -0.2167542 0.025918214
0.18549713 -0.14830856 0.104348995 -0.09097515 0.13127938 0.10231056 0.12877895 -0.051912226
0.18201315 -0.10135284 -0.07836004 -0.08876322 -0.15609492 0.0035625813 0.21876365 0.12945259
-0.012774571 0.054546393 -0.15379117 -0.11726222 -0.18139131 -0.1432465 -0.0037484462 0.058678098
-0.17315392 0.0054565077 0.10965059 0.08488769 0.12581702 0.18110216 0.042329825 0.026554834
-0.06132515 -0.12694167 0.04758419 -0.024523571 0.08708777 -0.17447338 0.049274478 0.09477411
0.19419873 0.16498172 0.054487865 -0.053471334 -0.21446425 -0.0115886545 -0.21484408 -0.1004939
0.14924665 0.05391618 0.060706776 -0.05011019 -0.03847724 -0.043535285 -0.045726966 0.104008615
0.19633576 -0.13970374 0.11541032 0.06934354 -0.10738867 0.01445919 -0.009107757 -0.12210823
0.06932728 -0.031163557 -0.08040459 -0.041568357 -0.03346285 0.02314444 0.08877459 0.12384479

model.0.bias f4 [128]
00000000: ea14 263e 7bf3 cf3d 6bf8 2d3e d650 25be
00000010: 0454 0dbe 237a 6d3d 124a 4a3e ad3b 5bbe
00000020: 1244 263e f47f b5bd 10db d23d 4872 db3b
00000030: 7b73 c53b f67d 4a3c ff4e 543e 04c2 4a3d
00000040: 7bb2 c93d 6932 033e 99f4 233e 7405 e3bd
00000050: 34ef 87bd 7e7a 89bd 5826 a83d 3e27 fb3d
00000060: fc4f 553e 39a9 083e 8883 dc3d 7dfb 033e
00000070: b53b 13be 9453 33be ebb1 093e 597e df3d
00000080: 0dd3 e63c 1b1a 2e3e bb4e 22be fc85 153e
00000090: f62e 7f3d 0fff 5ebe 1fd2 4bbe 5fd3 b53d
000000a0: eefe 39be 0ff6 e13d ef7c bcbd 2abb c13c
000000b0: f821 06bc a3f8 dc3c f804 563e 2d69 5abe
000000c0: 328a f63d c0eb abbd 2737 15be 2549 46be
000000d0: 2a06 ba3d 85d8 6d3d e2e4 083e a660 93bd
000000e0: 3fb4 15be 102e 52be c8d7 15be ae78 0a3e
000000f0: c579 c8bd 4ee0 1bbe 53d7 b8bd a083 003e
00000100: db1a 3fbe c495 423e 45c8 0e3e 554f 58bc
00000110: 4db9 2fbe 315e afbd 5a92 4dbc a7bb 0cbe
00000120: db45 12bc 977f 573e 996e d6bd 7773 883c
00000130: f16e 483d 38ca 4d3e b4dd c8bb 13f9 f73d
00000140: 261c 24be 0f99 e43d c913 b3bc 56e1 313e
00000150: b43d fb3d 0336 edbd bc1d f23d 09b9 913d
00000160: 92e1 1b3e 1147 11be 1eac e5bd e301 3a3e
00000170: 9a70 153e d0aa 6c3d 5b1e 0bbe 2334 62bd
00000180: 50d5 423e 2c24 3e3e affd 103d 3f0d b83d
00000190: e30f 233e bff7 5639 24d7 243e 400d 933d
000001a0: 6f27 aa3d 843e 483e fa8a 913c aaca 1a3c
000001b0: 6405 e23c 2e7c 423e 3479 fc3d e1bb 173e
000001c0: b90b 0dbe a440 4bbe f771 45bc 41f7 17be
000001d0: 65d5 193e fa90 233e 0605 303e e3f7 503d
000001e0: 097f 37bd 4c1e 77bd e48f f43d 05ff 113e
000001f0: 530f 513e ad57 ca3d bb58 edbd c946 a9bc
0.16218916 0.10153862 0.16989295 -0.16144118 -0.1380158 0.057977807 0.19754818 -0.21409483
0.16236904 -0.08862296 0.10295689 0.006696973 0.0060257292 0.012359133 0.2073326 0.049501434
0.098484956 0.12812199 0.16011275 -0.110850245 -0.06637421 -0.06712817 0.082104385 0.12263344
0.20831293 0.13345803 0.10767275 0.12888904 -0.14378245 -0.17512351 0.13446777 0.10912771
0.028176809 0.17002146 -0.15850346 0.14601892 0.062300645 -0.21776985 -0.19904374 0.088782065
-0.18163654 0.1103326 -0.09203517 0.023648817 -0.00818681 0.026974028 0.20900333 -0.21329184
0.120380774 -0.08394575 -0.1457182 -0.1936384 0.09083207 0.058067817 0.13368562 -0.071961686
-0.1461954 -0.20525384 -0.14633095 0.13522598 -0.09788851 -0.15222284 -0.09025445 0.12550211
-0.18662588 0.19002444 0.13943584 -0.013202508 -0.1716053 -0.085628875 -0.0125471 -0.13743459
-0.008927788 0.21044765 -0.104703136 0.01665662 0.048933927 0.20096672 -0.0061299447 0.12108054
-0.16026363 0.11162006 -0.02186002 0.17371115 0.12267628 -0.115825675 0.11822078 0.07115371
0.15222767 -0.14187266 -0.112144694 0.18164782 0.14593735 0.057780087 -0.13585798 -0.055225503
0.19026685 0.18568486 0.03539818 0.089869015 0.15924029 0.00020500923 0.16097695 0.071802616
0.083083026 0.19555098 0.017766465 0.009447733 0.027590461 0.18992683 0.12327805 0.14817764
-0.13774003 -0.19848877 -0.012051097 -0.14840414 0.1502281 0.15973273 0.17189416 0.051017653
-0.044798885 -0.060331628 0.119415075 0.14257438 0.20416002 0.09880004 -0.115891896 -0.020663636

model.2.weight f4 [128, 128]
00000000: c10a 57bd 9664 c43c 86ae b83c 079c b0bd
00000010: e0bf b93c d23b e53c 7890 b9bc 4ab2 343d
00000020: a866 32bd 39be 533d 8833 96bd 8094 093d
00000030: 3c52 623d 63d7 2d3d 9c68 38bd e6aa 823d
00000040: e766 c13c dc90 263d ab87 8cbd a38c 81bd
00000050: c3ee 8dbd 88eb 843d 768c a6bd 713e 4ebc
00000060: 2b85 73bc 3aa2 9dbd 92b6 703d 0a70 ae3d
00000070: 6188 e2bc ce64 15bd 3676 42bc 4a81 1dbc
00000080: 140e 9e3d 02bb 36ba a03b 9a3d 57c1 d93b
00000090: 7ecf fcbc 9767 713d 70cc 4dbd dec3 15bc
000000a0: 677a 503d d1c0 9e3d a2cd 58bd f96c 543c
000000b0: b843 f03c 0c0c 66bd bccc a4bc 757a 97bd
000000c0: 0c41 2dbc 42ef 393d ec37 9b3c d505 6e3d
000000d0: f28c a6bd d3d1 593a 8a5e e63c 2550 4bbd
000000e0: e312 a43d 979e 58bd e1c2 4bbd cb2a 2bbd
000000f0: 7356 773d 0b73 2ebd 9a55 61bd 00fe 143c
00000100: 0478 633d eeef 043d ea66 a43d c131 76bb
00000110: c98e 803d 5c87 a6bd 060c aa3d ea62 42bc
00000120: 8c80 9ebd a5bd 86bd dbcf 35bd 6fa4 183d
00000130: a71f 57bd cfab babc 8952 cbbc 218d 4cbd
00000140: 3011 3c3d 5ab0 20bd 6533 af3d 8682 e9bc
00000150: 0f67 5a3c 4441 46bc b396 94bd 6151 dbbc
00000160: 8167 6b3d 713d 2abd 4f7a 823d cb31 263d
00000170: 6a69 083d 38bd 933d 55df a93b 426e a13d
00000180: 26cf 23bb ac04 0bbd 5a7d 77bd e8d2 ab3c
00000190: d84b 74bc 28b1 e2bc 4793 95bd 3645 b0bd
000001a0: 4b00 27bd 0a37 95bd 9f56 7c3d cfe1 f53c
000001b0: 4b6b 87bd 31bf 553d 83c2 5dbd 7715 463d
000001c0: 3b09 4fbd 699c 913d 8d0d 97bd ad82 71bd
000001d0: 92e6 ad3d f248 623d 8c7b 33bd b330 9f3d
000001e0: fd7b b3bd 4a37 463d 1160 973c b8fb a73d
000001f0: fdf5 51bb 4e97 71bd d4d3 173d 6950 a3bc
00000200: 9aa0 dc3c 4f84 37bd 9b53 cf3c f817 21bc
00000210: 10b1 a73d 6f36 683d d992 b2bd f83a d5b9
00000220: 60b0 183d cc50 48bd 6226 643d 85e1 86bd
00000230: f296 c8bc cebc fc3c 1a2c 9cbd 8d87 e9bc
00000240: 17be 4ebd d26e 333d 4d1d 8c3d 5746 143c
00000250: bbc0 8b3d 4102 34bd 88d2 e0bc 209c 1abd
00000260: 22fe 873b bf78 b6bc f21c aebc 2fbd 85bc
00000270: 8b5c a23d 1349 013b a920 91bd b83e 5b3d
00000280: 4fcc 913d 7225 8cbd 207e b6bd fa3d fe3b
00000290: 8026 88bd 7ff1 8bbd ea64 573c cbba 9ebc
000002a0: caf2 d7bc 47fd 023d b607 623d 12d7 9f3c
000002b0: 2f45 793c cb87 3c3d 271c 21bc 9143 343d
000002c0: 5f04 0c3d 1012 263d ddc7 82bd c67f 723d
000002d0: e8fa 1abd 4bab abbd 7dda 2d3c 7010 453c
000002e0: 1bf8 b23b 1be0 983d 3d27 9cbd 2cc4 403c
000002f0: f9d3 473d ee07 96bd 3b79 1c3d 9288 1a3d
00000300: 4659 34bd e1f5 113b 4f41 1fbd 900f 4bbd
00000310: dcc4 9b3d 1ea9 bb3c 61be 923d 4f29 33bd
00000320: 4d4b 7bbd f673 38bd 4e97 9fbd caa8 9ebd
00000330: c1bd a0bd f175 523d d46b 323d 6ffa 94bd
00000340: fa4b 81bd 3be8 9dbd fa1a 553d 71b9 67bc
00000350: 6bfb 693d 852c 083d b107 983d 4ce3 1ebc
00000360: 244b 39bd ae3e dabc fca9 96bd 1797 83bd
00000370: af73 67bd d4f7 2fbd 6a8d b23d 344b 9bbb
00000380: 7aea 21bd eff3 87bc ce0c 913d 424c 53bd
00000390: d74e 44bd 5c89 5abd b01c 843d 1730 4ebc
000003a0: 1c29 893d 0534 753d ba3d 5d3c 0883 38bd
000003b0: d735 2abc 7154 af3d 1a6c 973d b1e6 863d
000003c0: 0bc7 81bd d01b 9cbd b1f9 953c 73d3 98bd
000003d0: d0e2 28bc 941b 423b 2de8 96b9 5e1b 10bd
000003e0: 0e6e 08bc ba21 8c3d 758b 23bd 375e 8b3d
000003f0: ca97 45bd ca28 9dbd 76dd 953c 2acb afbd
-0.05250049 0.023973744 0.022544157 -0.0862351 0.022674501 0.027982626 -0.022651896 0.044115342
-0.043554932 0.051695082 -0.073340476 0.033588886 0.055254206 0.042441737 -0.04502164 0.063802525
0.023608638 0.040665492 -0.06861814 -0.063256525 -0.06930306 0.064902365 -0.081322595 -0.012588129
-0.014863293 -0.07696958 0.058767863 0.085174635 -0.027652921 -0.036473088 -0.011869004 -0.009613344
0.07717529 -0.00069706154 0.07530904 0.0066453624 -0.030860659 0.05893668 -0.050243795 -0.009140937
0.050897982 0.077516206 -0.05293048 0.012965434 0.029329166 -0.056163833 -0.020117156 -0.07396404
-0.01057459 0.04539419 0.018947564 0.05811103 -0.08132352 0.00083091593 0.028121252 -0.04963698
0.08011415 -0.052885618 -0.049746398 -0.041788857 0.06038518 -0.042590182 -0.055013277 0.009093761
0.055534378 0.032455377 0.08027442 -0.0037566277 0.06277234 -0.081312865 0.083030745 -0.011864403
-0.07739362 -0.065791406 -0.04438768 0.03726619 -0.05252042 -0.022787003 -0.02481963 -0.04993928
0.04591483 -0.039230682 0.085547246 -0.028504621 0.013330235 -0.0121005215 -0.07255306 -0.026772203
0.057471756 -0.0415625 0.06370985 0.04057483 0.033303656 0.07213825 0.005184094 0.07882358
-0.0024995296 -0.033940002 -0.06042228 0.020974591 -0.014910661 -0.027672365 -0.073034815 -0.08606951
-0.040771764 -0.072858885 0.061606046 0.0300149 -0.066122614 0.052184287 -0.05414058 0.048360314
-0.050545912 0.07109911 -0.073756315 -0.058962513 0.084912434 0.055245347 -0.043818995 0.077729605
-0.08763883 0.04839257 0.018478425 0.082023084 -0.003203749 -0.058982186 0.03706725 -0.019935803
0.02693205 -0.044803914 0.02530842 -0.009832375 0.08188069 0.056692537 -0.08719415 -0.0004067046
0.03727758 -0.04890518 0.055700667 -0.06585983 -0.024486039 0.030851748 -0.07625599 -0.028507018
-0.050474253 0.04380686 0.06841526 0.009049973 0.0682387 -0.043947462 -0.02744414 -0.03774655
0.004150168 -0.022274373 -0.021254037 -0.016325561 0.079278074 0.0019727394 -0.070863076 0.05352661
0.07119047 -0.068430796 -0.08910775 0.007758853 -0.06647968 -0.06833171 0.013146618 -0.01937618
-0.026360888 0.031979825 0.055183135 0.019511733 0.015214249 0.04602794 -0.009833372 0.04400975
0.034183856 0.04054457 -0.06385777 0.059203885 -0.03783694 -0.08382281 0.010611174 0.012027845
0.0054617054 0.0746462 -0.076246716 0.011765521 0.048786137 -0.07325731 0.038201552 0.0377279
-0.04403045 0.00222718 -0.038880643 -0.04957539 0.07605907 0.02290779 0.07165218 -0.043740567
-0.06135111 -0.045032464 -0.07792531 -0.07747038 -0.07848693 0.05138201 0.043559864 -0.07274329
-0.063133195 -0.0771031 0.05202768 -0.014143334 0.057124536 0.033245582 0.07423342 -0.0096977465
-0.045237675 -0.026641216 -0.07356641 -0.064253025 -0.05650681 -0.042960957 0.08718379 -0.0047391895
-0.039530255 -0.016595809 0.070825204 -0.051586397 -0.04792675 -0.053353652 0.06450784 -0.012584708
0.06697294 0.059864063 0.013503486 -0.045046836 -0.010388813 0.08561028 0.073936656 0.0658697
-0.063367926 -0.07622492 0.018307539 -0.07462206 -0.010307983 0.0029618489 -0.00028783214 -0.03518235
-0.00832702 0.0684237 -0.03992792 0.068050794 -0.04824046 -0.076737955 0.018294077 -0.08583672

model.2.bias f4 [128]
00000000: 4a61 b13d 5e23 33bd a68d 613c 8ade 2cba
00000010: 5637 353d 03ea 94bb e892 0dbd e272 873d
00000020: 66b6 bc3c 0907 873d d4db be3c 59b3 68bd
00000030: 46d3 b53d 016e 6fbd 1cfd 8d3d 2b64 243d
00000040: 1f6a 8f3d e06f cc3c f65f 71bd 4a62 a6bd
00000050: a645 8bbb 44c7 10bc 625b 9d3d dfb2 ea3c
00000060: 601a a5bc 89fc 503d 7f98 85bd d7da a6bc
00000070: fd56 87bd 8a1d 6bbd 9240 9fbd c70a 743b
00000080: 9963 a7bd 85e0 ae3d a22c 74bd 3de1 71bd
00000090: a612 75bd efa4 40bd e4f7 a73d 71d4 ab3d
000000a0: cb60 aabd 1d5f b6bb b907 9bbd 83c1 9c3d
000000b0: ffbd 7e3b f67e 253d 4c2c bc3c 4940 833d
000000c0: 77a9 47bd a88b 5f3c b492 9c3c be62 ad3d
000000d0: c742 533d 8103 56bd 6cee 693d a868 853d
000000e0: d3d0 803b 4236 33bd 3747 933d 563b ac3d
000000f0: 16f4 2c3d 2737 503d 93ae 8fbd b7bb a03d
00000100: 05fe 983d 490b 92bc dd8f a7bb f45b 8e3d
00000110: becc b3bd a58d 31bd 0c5d 5cbc 64c8 6b3d
00000120: aaae 833d 8db0 9cbc 577e a23d 290c 97bd
00000130: 5fe9 57bc 7b92 e83b 5db1 413d b7f3 b0bd
00000140: cfd6 143a 2f36 5d3d 251d 51bd 2af4 033d
00000150: a61b 7abd 7d0e b33c 498f 573d f82b 48bc
00000160: 11db f1bc b30d 153c 7231 a83d 6dc5 dfbc
00000170: e600 87bd 984a 113d 5d8c 733d 3dfd ad3d
00000180: d2c0 33bb 05cf 92bd b1b4 a83d a9f2 843c
00000190: 2e94 62bd 4c68 653d 43a6 443d 0f05 213c
000001a0: d5af aabc a42c a73d 13a4 323d 65d0 293d
000001b0: 0799 743d b761 163d deac 9dbd f74d 27bd
000001c0: 2e9d 9fbd c23c d6bc fe22 443d 5c57 00bd
000001d0: b91f bdbc 7e76 d7bc 156b 9bbd 2be6 82bd
000001e0: bea6 34bd bfc5 8d3d b1c3 7bbd 6543 5d3c
000001f0: 607e 893d 4cd2 07ba 38cb cbbc 4757 2b3c
0.086611345 -0.0437349 0.013766682 -0.000659444 0.044242226 -0.004544498 -0.03456393 0.06613709
0.023036193 0.06593139 0.023298182 -0.056811664 0.08878188 -0.058454517 0.069330424 0.04013459
0.07002663 0.02495569 -0.058929406 -0.08124216 -0.004250246 -0.008836571 0.076834455 0.028649746
-0.020154178 0.051022086 -0.06523227 -0.020368023 -0.066083886 -0.057401218 -0.07775988 0.003723787
-0.081732936 0.085389175 -0.059612878 -0.059052695 -0.059832238 -0.047032293 0.08201578 0.08390129
-0.08319243 -0.0055655376 -0.07569832 0.07654097 0.003887057 0.040404283 0.022970341 0.06408746
-0.0487456 0.0136441365 0.019112922 0.08466099 0.051577356 -0.052249435 0.057112142 0.06514102
0.003931144 -0.043752916 0.071913175 0.08409755 0.042224966 0.050833847 -0.07015719 0.07848304
0.074703254 -0.017827647 -0.0051135854 0.069511324 -0.08779286 -0.043347973 -0.0134499185 0.057564154
0.06429799 -0.019127155 0.07934254 -0.07375366 -0.013178199 0.00709754 0.047288287 -0.08640235
0.0005677761 0.05400675 -0.051053185 0.032215275 -0.061061524 0.021857494 0.05262688 -0.012217514
-0.029523404 0.009097504 0.08212556 -0.02731582 -0.06591968 0.03547153 0.059460033 0.08495567
-0.0027428162 -0.07168392 0.08237589 0.01622899 -0.055317096 0.05600767 0.048010122 0.009827866
-0.020835796 0.081628114 0.043613505 0.041458506 0.05971625 0.036714282 -0.076989874 -0.040845837
-0.077936515 -0.026152018 0.047884934 -0.031333312 -0.023086416 -0.026301619 -0.07588784 -0.06391557
-0.04410433 0.06922483 -0.061465923 0.013504838 0.06713557 -0.0005181178 -0.024877176 0.01045782

model.4.weight f4 [50, 128]
00000000: ec9d 63bc 0a40 2c3d 8ac2 2cbd b88d 3d3d
00000010: 54cb 833d 9f9b 9dbd 3d16 a5bc a849 b6bc
00000020: e8f7 dd3c e4d1 ae3d 961e e6bc be83 233d
00000030: 00f7 dc39 99e4 87bc 818d f43c d046 36bc
00000040: 6df1 68bd e0b6 5abd f261 1c3d 5a1d 3f3d
00000050: 427e 1e3d ea7f 9f3d 1d74 3a3d 7333 fabc
00000060: 64eb 58bc e969 1b3d c896 973d bf06 4abd
00000070: d3cb 67bb a5d9 123c f643 a23c 27b1 f33c
00000080: 6427 d93c 7dc2 aebd 3131 f23c 1594 733d
00000090: 8dde 273d 161b 5fbd 4dd3 83bc 1e21 063c
000000a0: 29ca 79bd 232b 823d 23ad 85bd bef8 8d3c
000000b0: 8576 283d 64ee 92bd 53c5 653b c0b6 673d
000000c0: be24 7d3b 103b 52bd b6df 25bd 1e6c 64bd
000000d0: 5fc2 403c 13ad b23d 1cad 9b3d 8fd6 a2bd
000000e0: f8bc 93bd 6f45 493d e337 ec3c 4e68 443d
000000f0: d09d 9bbd 9728 183d 2c43 343d c2b7 50bd
00000100: 3a27 10bd e8ce b2bd 8738 45bd 0f8a 623d
00000110: 4797 7a3d 1838 ce3a d846 bbb8 fcaa 31bd
00000120: 60c9 64bd 0660 f73c e2b6 a93d 0631 30bd
00000130: e905 b1bd 04bc 11bd 2ea8 053a 8824 463d
00000140: 7c82 a33d b015 383d 1076 25bc 988b a0bd
00000150: 49a5 47bb fecd 76bd 30c4 b3bd 3528 c5bb
00000160: 416e 0bbb 4e61 98bd 657a 433c 7fd7 4fbd
00000170: 7115 e6bc 0216 0a3d 2069 99bd 0491 a43d
00000180: 380d 8cbb cd25 563d 39af 353d da77 fbbc
00000190: 1408 e1bc 64f6 46bc 39db 683d aee1 673d
000001a0: 921d 493c 4ecf 4e3d ffac 413d a590 9cbd
000001b0: 91b0 a63d 8b8d 673d ae9a 633c 9821 0cbd
000001c0: 036b f83c 7b75 22bc e4ab a63d 95a9 073d
000001d0: 9b45 813c a5b3 09bc eba7 25bd ffab 7dbd
000001e0: 5def 073d b3c7 9dbd 005b 943c 2ed7 4f3d
000001f0: a656 f1bc 9e6d 8fbd dfa9 78bd dedb 7c3d
00000200: 8f40 6fbc 5155 333d 8f17 5a3c 2d38 7d3d
00000210: e93c a5bc 413e 5e3d 9b35 163c 083b 563d
00000220: b67c 2ebd d460 27bd b94e a6bd b98f 27b9
00000230: 9bbe 913d 6151 adbd c1ad 943d fe6e febc
00000240: bd9a 463d 50c4 a6bd 9b84 eabc fc0f 6cbd
00000250: 8570 95bd 0fc4 91bd b836 233d e1dc 573d
00000260: 7a72 a1bd 3ea7 5fbd 07f9 373c 282b 96bd
00000270: 865b 8dbd e4e0 a4bd 7db7 463d 4561 3dbc
00000280: 7397 6a3d 80d0 a53d c1a8 adbd 0673 24bb
00000290: 55e8 493d 616d d7bc 2afa 763d 0eb0 86bd
000002a0: adb4 dcbc 8cfa 413d ba2f aabd 2781 9e3d
000002b0: e87a 91bd f7b7 8b3d 8d5c a2bd 3fcc 48bd
000002c0: 78ea 3abd d1aa 9ebd c482 7bbd 396d babc
000002d0: ba0b e93c 6b42 803d 2140 0abc 02f4 8f3d
000002e0: ef33 263c 0818 74bd a42b 90bc 450a e4bc
000002f0: f8ec 583c 3211 6bbd ef23 8d3d 0e5b 7d3d
00000300: edba 8abc a7e2 a5bd 810f 693d 7b91 35bd
00000310: 7205 b53c 5a2a 95bd 2c8d ac3d 34df da3c
00000320: bb03 4fbd 9ff9 943d 0bbb 00bc aaa4 743d
00000330: ef2d 6dbd f4f6 f43b 2801 d83b b6cf fbbc
00000340: b477 143d 1d85 5ebc 9a77 343d 578b 0bbd
00000350: d436 ee3c bdbb 91bd 947c a1bd 2521 67bd
00000360: 4c80 02bb 225a 96bd 7da1 ab3d 5cc6 a03d
00000370: dc00 e6bc f772 9e3c 0dc5 e5bb 8a46 ae3d
00000380: f197 3a3d 9e79 3abc 41b2 063d 7267 a23b
00000390: 3dc9 043d 3fee 5e3c 8963 613c cc07 42bd
000003a0: f2fc e8b9 95f9 5fbd c830 233d 2c3c 77bd
000003b0: e249 443c fdbc 143d 6ff2 493d 2b41 3f3d
000003c0: c8a2 74bd 834b 993d 572e 793c ca30 0bbc
000003d0: 7d66 693d a3c4 b2bd 9370 3d3d 138c 703d
000003e0: 6938 843d 7d0f 90bd 5cb6 a63c efd4 a13d
000003f0: c0c8 173c 851c 26bd 8e45 d8bb 9ca5 9d3c
-0.013892632 0.04205326 -0.042177714 0.04627773 0.06435266 -0.07695698 -0.020152206 -0.022251919
0.02709575 0.08536127 -0.028090756 0.03992056 0.000421457 -0.016588496 0.02985263 -0.011125281
-0.056870867 -0.05339706 0.038179345 0.04665885 0.038694628 0.077880695 0.04552089 -0.030542111
-0.013239715 0.0379428 0.07401806 -0.04932284 -0.0035369291 0.008963023 0.019807797 0.029747559
0.02650804 -0.085331894 0.029564472 0.059467394 0.040983725 -0.05446919 -0.016091967 0.008186607
-0.06098381 0.06355884 -0.06527164 0.017330524 0.041128654 -0.07174376 0.0035060241 0.05657077
0.0038626636 -0.051325858 -0.04049655 -0.05576717 0.011765092 0.087244175 0.07601377 -0.0795108
-0.07213777 0.049138483 0.028835243 0.047951035 -0.0759846 0.037148084 0.044009373 -0.050956495
-0.03519366 -0.087308705 -0.04814961 0.055307444 0.061179426 0.001573327 -8.9300505e-05 -0.043375954
-0.05585611 0.030197155 0.08286835 -0.043015502 -0.086437054 -0.035579696 0.0005098608 0.048374683
0.07983872 0.044942558 -0.010098949 -0.078391254 -0.0030463508 -0.060255043 -0.08777654 -0.006016756
-0.0021275433 -0.074404344 0.011931037 -0.050742622 -0.028086396 0.033712395 -0.07490754 0.08035472
-0.0042740367 0.052282143 0.04435656 -0.030696798 -0.027469672 -0.012143705 0.056849692 0.05661171
0.0122751165 0.05049067 0.047284123 -0.07644776 0.08139146 0.05653147 0.013891859 -0.034211725
0.030324465 -0.009915705 0.08138254 0.03312071 0.01578026 -0.008404647 -0.040443342 -0.061931606
0.03318726 -0.07704105 0.018109798 0.05074232 -0.029460263 -0.0700333 -0.060708877 0.06173312
-0.014602794 0.043782536 0.013311281 0.06182115 -0.020170646 0.05425859 0.009168054 0.05230239
-0.042599402 -0.040863827 -0.08120484 -0.00015979902 0.07116433 -0.084627874 0.072597034 -0.031058785
0.048487414 -0.081429124 -0.028627684 -0.05763243 -0.07296852 -0.07117473 0.039847106 0.05270088
-0.07883163 -0.054602854 0.011228806 -0.0733245 -0.06902222 -0.08050707 0.04851483 -0.011558835
0.05727334 0.08096409 -0.08479453 -0.0025092973 0.049293835 -0.026297273 0.06029717 -0.065765485
-0.026941622 0.04735808 -0.08309884 0.077394776 -0.07103521 0.06822198 -0.07927809 -0.04902291
-0.045633763 -0.077474244 -0.061404005 -0.02275716 0.028447974 0.06262668 -0.008438141 0.07028963
0.010144218 -0.05959323 -0.017598934 -0.027836928 0.0132400915 -0.057389446 0.068916194 0.061854415
-0.016934836 -0.08099871 0.05689955 -0.044328194 0.022097323 -0.072834685 0.08425364 0.02671776
-0.050540667 0.07274174 -0.0078570945 0.05972735 -0.057905134 0.007475728 0.0065919347 -0.030738693
0.03624697 -0.013581541 0.044059373 -0.03406843 0.029078878 -0.07115886 -0.078850895 -0.056428093
-0.0019912897 -0.0734141 0.08380411 0.07850334 -0.028076582 0.019341929 -0.0070120157 0.08509548
0.04555506 -0.011381535 0.03288484 0.0049561793 0.03241848 0.013606607 0.013756641 -0.047370717
-0.00044438947 -0.05468138 0.039841443 -0.06036012 0.011980506 0.036313046 0.04930347 0.04669301
-0.059725553 0.07485106 0.015208802 -0.008495519 0.056982506 -0.08728912 0.046249937 0.058727335
0.06456072 -0.07034204 0.020350628 0.07901942 0.009264171 -0.040554542 -0.0066000884 0.019244008

model.4.bias f4 [50]
00000000: 48ed b2bd d451 a5bd 51d2 c63c 9661 d7bc
00000010: 771b 3f3c 8853 4dbd 2c4c f53b f4ac 963c
00000020: d85d 0e3d f448 683d e18f a03c 684a 02bd
00000030: 3528 adbc 3e69 b1bd fd50 803c a565 13bd
00000040: a3fb 5c3d 3bf3 64bd 90a1 65bd 017f 80bd
00000050: c77c 9abc 65b7 a3bd 0927 263d 41ea d23c
00000060: f402 a03d 34ef 073d 6620 8dbd add4 523d
00000070: a371 64bd 8d29 913d 474f c1bb 002f a8bd
00000080: 25d1 683d 162e 9f3b 3280 4d3d b4cf 943d
00000090: 3818 813d 205d 5bbd cae2 68bc e742 ad3c
000000a0: 54a8 cfbb 9feb 453c 7985 48bd 416e 0dbc
000000b0: 1f3a 6a3d b89f d0bc 4c27 753c e746 98bd
000000c0: a06a 1bbd 2c48 11bc
-0.08736664 -0.08072248 0.024270209 -0.02629165 0.011664263 -0.05012849 0.007485887 0.018393017
0.034757465 0.0567102 0.019599857 -0.03180924 -0.021137336 -0.086626515 0.015663618 -0.035985608
0.053950917 -0.055896025 -0.05606228 -0.06274224 -0.018858327 -0.07993964 0.04056457 0.025746467
0.07813063 0.033187106 -0.06890945 0.051472355 -0.055772435 0.07088003 -0.005899343 -0.082120895
0.05684008 0.004857789 0.050171085 0.07266179 0.063034475 -0.053555608 -0.014214227 0.021150066
-0.006337205 0.012080102 -0.048955414 -0.008632244 0.057184335 -0.025466785 0.014962982 -0.074353985
-0.037943482 -0.008867305
