checkpoints/dev_test/simple_reference_v3_agent_1_ep2.pt (torch, 89117 bytes, 8 tensors)

body.0.weight f4 [128, 21]
00000000: b49e 3abe d53c 16bd 3d8b f83d 96fa e0bd
00000010: 3e3d 7d3c ac63 1bbd e973 24be f8bd 263c
00000020: e236 e8bd 78cc 5abe a909 20be 3bdc a43d
00000030: 42bd f3bd 84f2 fd3d 70f2 12be a161 23be
00000040: 8733 bebc a2fc 98bc f74d f13d 9ba0 8e3d
00000050: 6658 bdbb d0f9 0b3e 4c3a 21be 4f79 243e
00000060: c3d5 44be 97c4 10bc d549 4d3e 36ff 5b3e
00000070: 778e 78bc 1812 0ebd cfe0 023e 9456 fdbc
00000080: af84 0dbe 38b7 303e d475 c53d 7c25 c2bc
00000090: d97d 28be 4a10 033e a367 483e 6c82 07ba
000000a0: 818e 3b3d 401b 473e 9673 8f3d 11ac 40be
000000b0: b1bf 30be c388 863d 85b1 253e cf4c 4b3e
000000c0: 6c3e 563e 9baa 7bbd 3cfa fe3c 306c 413e
000000d0: 9182 343e 29cf 473e cfca 15be 2574 b5bd
000000e0: 12e8 b6bd d68f c0bd f12b 583e 36ca 183e
000000f0: 4574 003e 7e51 eebd 67dd cabd 326b 303e
00000100: 4d5c 1abe b9c2 e8bd 4dd2 563e 519b c83d
00000110: c4ce 68bd e93d e5bd b886 ec3d 5b44 2b3e
00000120: 7b2f bc3d 63a3 963d df67 a43d f6a1 f83d
00000130: 497d dfbd 4594 c43d 23eb 1dbe 0cac 79bd
00000140: 3690 a3bd 42db a5bc a97a afbd a119 e63d
00000150: 0055 dc3d a966 39be bac0 e63c 8be5 72bd
00000160: d92f 2b3e 9c25 593d 8bfa 8b3d e04b c2bd
00000170: 1694 5cbe 35c1 9bbd aeff 3a3e 2760 b8bd
00000180: e55f a4bd 41ed 21bd 4be0 d6bc f5f5 b63d
00000190: bc40 f23d 0b48 283e 544f 1b3e d352 933d
000001a0: 7171 97bd df0d 53be dd98 f63d d722 6a3d
000001b0: 4986 f2bb 3b96 05be 1984 143e a360 403d
000001c0: cc48 9b3c b992 0abe 0c3e 84bd 713b 47be
000001d0: 015a 3b3d 971d 53be 1aa1 22be 2c8f 953c
000001e0: e241 5c3e a198 373e c77e 5a3d 5133 2b3d
000001f0: f3bf c2bd d64c cabd 2d03 ef3b e9b3 94bd
00000200: 61e8 57be 5e30 7fbd 538a b4bc e1b8 92bd
00000210: 102b 45be 47e0 2ebe bbb6 453e 7c9e f7bd
00000220: 51a0 33bd 7bb9 3f3e b930 513e 5fe6 2dbe
00000230: 2e0c ba38 a9c9 193e b65f 05be 83b0 65bd
00000240: 8d45 633b a4b3 443e 1705 e5bd 26d9 f8bd
00000250: b467 243e 9263 aabc 5702 bfbb 89c3 183e
00000260: 176c 563e d95e 11be c00b 50be d391 013e
00000270: f57b f4bb 41f8 843d 1561 0d3e 72af 063e
00000280: 9910 df3d 4791 4c3e 4fff dd3d b563 1a3e
00000290: d103 2c3e 040a 3f3c 10d4 51be f88c 22be
000002a0: 94b7 5f3c a91a 3b3d 85ce 763d 7a01 57be
000002b0: 235b 9bbd 98ef 2e3e f22c 5e3e 9d03 21bd
000002c0: a938 143e eac0 213e 1467 263e 87dc 0abd
000002d0: 73a2 c13d 8ccc fd3d 76d5 223e 1f27 13be
000002e0: 1f01 103e fd68 dcba c548 0c3e 9594 4cbe
000002f0: 9b9d 2d3e 07fe 9a3c 7eed 533c a4e9 0ebe
00000300: e025 f4bd a228 5d3e ba27 01be 69b2 54bd
00000310: 2cd9 0dbe 577e babd 9dee d23d 21e7 bdbc
00000320: 7ae3 5b3e ead7 1bbe 2053 56be 0611 2abe
00000330: 95a6 b0bd 2e03 2e3e f9d6 fd3d eb82 c6bd
00000340: 7ba8 c73d d3b6 0dbe 7fd6 cf3d c264 60bd
00000350: 0580 54be 7265 fbbd ce4a 17be 6b77 b73d
00000360: 1715 a4bc 57a6 fabc 8b07 ac3b 9d09 483c
00000370: 981e d13d 0fa5 40bd 5240 5dbe 2d9e 143e
00000380: 93b7 843b cb65 1b3e 8a63 a6bd 8fd6 8cbc
00000390: c646 01bc b29d 95bd b258 893c 97d8 e2bd
000003a0: d047 cdbc fd9e 213d 9fef 773d 6075 23be
000003b0: 76b9 663d 318b 40b9 2a66 e7bd c327 c13d
000003c0: fb49 2ebd 0460 35be cc88 99bd 3c4d 38be
000003d0: 67fc 113e 29e1 2bbe d96d 0a3d c441 563e
000003e0: 7341 583e eebc 4bbe bdb2 a5bd e53c 453e
000003f0: 0c4b cd3d eae4 0f3e b66a 583e 7b95 483d
-0.18224603 -0.036679108 0.121359326 -0.109852955 0.015456496 -0.03793685 -0.16059841 0.010177128
-0.11338593 -0.21367061 -0.15628685 0.08049818 -0.119013324 0.12399772 -0.14350295 -0.15955211
-0.02321793 -0.018675152 0.11782449 0.06964227 -0.00577836 0.13669515 -0.15744895 0.160619
-0.19222169 -0.008835933 0.20047696 0.21484074 -0.015170685 -0.034685224 0.1278107 -0.030925073
-0.13820146 0.17257392 0.096416146 -0.023699515 -0.16454257 0.12799183 0.19570784 -0.00051692757
0.0457902 0.19443989 0.07004468 -0.18815638 -0.17260624 0.06569054 0.16181 0.19853519
0.2092225 -0.061442 0.03112518 0.18888927 0.17627932 0.19512619 -0.14628147 -0.088600434
-0.08930983 -0.094024345 0.21110512 0.14920887 0.12544353 -0.11636637 -0.099055104 0.17228392
-0.15074272 -0.113652654 0.20978661 0.09795249 -0.056837812 -0.11193449 0.11549133 0.16725294
0.09188744 0.07355382 0.08027624 0.121402666 -0.10912568 0.09598593 -0.15421729 -0.060955092
-0.079864904 -0.020246152 -0.085683174 0.11235357 0.107584 -0.18105568 0.028168071 -0.05930094
0.16717471 0.053014383 0.06834897 -0.09487128 -0.21540865 -0.07605211 0.18261597 -0.090027146
-0.08026103 -0.039532904 -0.026229998 0.08933631 0.11828753 0.16433732 0.1516698 0.07193532
-0.07394684 -0.2061076 0.12040875 0.057162132 -0.007401262 -0.1304559 0.14503516 0.04696716
0.01895561 -0.13532533 -0.06457147 -0.19456269 0.04574013 -0.20616756 -0.15881768 0.018256746
0.21509507 0.17929317 0.05334356 0.041796986 -0.09509268 -0.098779365 0.0072940798 -0.07260878
-0.2108474 -0.062301986 -0.022038614 -0.07164169 -0.19254708 -0.17077743 0.19307987 -0.12090775
-0.04385406 0.18723099 0.20428742 -0.16982411 8.87144e-05 0.15018333 -0.13024792 -0.056076538
0.0034678907 0.19209152 -0.111826114 -0.12150793 0.16055185 -0.020799432 -0.0058291364 0.1491834
0.2093967 -0.14196338 -0.20316982 0.12653284 -0.007461066 0.06492663 0.13806565 0.13152865
0.108918376 0.19977294 0.10839712 0.15077098 0.16798331 0.011660103 -0.20491052 -0.15874088
0.013654608 0.045679722 0.060255546 -0.20996657 -0.07585742 0.17083585 0.21696833 -0.039310087
0.14474739 0.15796247 0.16250259 -0.033901718 0.09454813 0.1239253 0.15901741 -0.14370392
0.14062928 -0.0016815957 0.13699634 -0.19978555 0.16954653 0.018919958 0.0129350405 -0.13956314
-0.119212866 0.21597531 -0.1261281 -0.051927958 -0.13852376 -0.09106129 0.10299418 -0.0231815
0.21473494 -0.15219083 -0.20930147 -0.16608056 -0.08625523 0.169934 0.123945184 -0.09692939
0.09748932 -0.13839273 0.10148334 -0.05478359 -0.2075196 -0.122752085 -0.1477463 0.08958324
-0.020029588 -0.030596895 0.0052499226 0.012209323 0.102109134 -0.047032412 -0.21606568 0.14513464
0.004050204 0.1517555 -0.08124454 -0.017192153 -0.007890409 -0.073054686 0.016765926 -0.110764675
-0.025058657 0.039458264 0.060531255 -0.15962744 0.056329213 -0.000183624 -0.11298783 0.09431412
-0.042551022 -0.17712408 -0.07496795 -0.17998213 0.1425644 -0.1678511 0.033796165 0.20923525
0.21118717 -0.1989629 -0.08090732 0.1926151 0.1002408 0.14052168 0.21134457 0.04897068

body.0.bias f4 [128]
00000000: c5af 81bc 36a8 4e3d 6ab0 72bd aa69 d23d
00000010: 4144 1b3e e26d da3d 9d61 023e 01a1 133e
00000020: f081 b4bd 599f 6fbd 8c70 e5ba dccd 053e
00000030: 2c9c d2bc 5a65 e93d e769 073e 6ade 353e
00000040: 1050 4fbd f485 093e fccd 593b 9bc3 263e
00000050: f6d8 78bd ca05 22be 2400 ad3b 05d2 88bd
00000060: ca69 503e 7c6c d2bb 8a7b 3f3e 049c 513e
00000070: 66ee 2cbd 92fd aa3d 5d25 1cbe 3215 1fbc
00000080: acc9 0bbe 2ce0 dbbd 0880 13be b248 12be
00000090: afdd 593e eb4a 1fbd 6b32 dcbd fb9b f23c
000000a0: 84f4 31be 8e4b f43c b0d5 9d3d 8311 12be
000000b0: 29d6 383e 0965 203b 9b32 86bd b93a 953c
000000c0: e7d0 a23d b9f6 4d3c 3627 433e 4b58 f2bd
000000d0: 9d31 0cbe c0a3 42be d417 723d d857 74bd
000000e0: 4d9b 0cbc dc45 d0bd 8235 15be e083 1fbe
000000f0: 8380 e23d 8050 48bd f32d 193e d183 6e3d
00000100: fc78 a8bd e7df 443e 2003 0bbd 8d69 0dbe
00000110: bd53 f4bd 67ed 9cbd c3fb c0bd 9b56 013e
00000120: ea9b bebd 5331 6bbd a635 97bc 4acb 6c3c
00000130: 19af 0abe 39f9 6a3d 629b 2f3e 2ae8 523e
00000140: 025b 283e a614 5bbd 0e95 703d f38d af3d
00000150: f64e 123e fa16 52be 7474 1d3e 3220 4eba
00000160: 32f5 333e dea6 f83d 47b9 9d3d 80d7 4e3e
00000170: 5124 583d 70b0 c5bd c033 5dbe 8792 4a3e
00000180: 371b 55be 1678 46be 33d5 1fbe d916 713d
00000190: 8339 34be 4f7a 51be 5188 8b3d a30f df3d
000001a0: 9523 483e 21e5 a93d e15d e63c 8b5d 513d
000001b0: 3d3c 57be 2bb8 8d3d 09d2 babd fa70 91bd
000001c0: 984b 583e 5056 fdbd d1ee 033e a76c 8fbd
000001d0: 283a 473d 75ec c73d 5359 69bd 5ad1 533e
000001e0: 56fb a7bc 5750 3ebe acc0 2a3e 17ef 1f3e
000001f0: 0a76 5f3e 2c98 93bd 5490 21bd c735 51be
-0.015830884 0.050453387 -0.059250273 0.1027406 0.15162756 0.1066549 0.12732549 0.14416887
-0.08813846 -0.058501575 -0.0017504855 0.1306681 -0.025709234 0.113962844 0.13223992 0.17760625
-0.050613463 0.13430005 0.0033234349 0.16285555 -0.060753785 -0.15822521 0.005279558 -0.06680683
0.20352855 -0.0064216238 0.1869947 0.20469671 -0.042219542 0.08349146 -0.15248628 -0.009709643
-0.1365115 -0.10736117 -0.14404309 -0.14285544 0.21275972 -0.038889807 -0.10751804 0.029615393
-0.17378432 0.029821184 0.07706773 -0.14264493 0.18050446 0.0024474284 -0.06552621 0.018216478
0.07950001 0.01257103 0.19057927 -0.11833247 -0.13690801 -0.19007778 0.059104756 -0.059654087
-0.0085819485 -0.101695746 -0.14571193 -0.1557765 0.11059668 -0.048904896 0.14958934 0.05823118
-0.08226201 0.19226037 -0.033938527 -0.13809796 -0.11930034 -0.076624684 -0.0942302 0.12630694
-0.09307082 -0.057420086 -0.018458199 0.014452765 -0.13543357 0.057366583 0.17149118 0.20596376
0.16440967 -0.05348649 0.0587359 0.085719965 0.14287934 -0.20516577 0.15376455 -0.0007863074
0.17574003 0.121412024 0.077013545 0.20199394 0.05276901 -0.096527934 -0.21601772 0.19782458
-0.20811163 -0.19381747 -0.15608673 0.05885968 -0.17600064 -0.20456813 0.0681311 0.10891654
0.19544823 0.08295656 0.028120937 0.0511146 -0.21019073 0.06919893 -0.09122092 -0.07101627
0.21122587 -0.123699784 0.1288407 -0.07003146 0.048639446 0.097618975 -0.05696995 0.2068533
-0.020505589 -0.18585335 0.16675061 0.1561855 0.21822372 -0.07206759 -0.039444283 -0.2043067

body.2.weight f4 [128, 128]
00000000: 36a2 88bc 0749 35bd 1f35 0d3d 7e60 8c3d
00000010: 399a f53b 601f 16bd 98f9 853d 2ee2 593d
00000020: 82a7 47bd c9ab a9bb 26e8 6dbc bec2 9ebd
00000030: a6df 9b3d f063 84bd c22d adbd 2abc 643d
00000040: d431 1c3d 3183 57bd 9fc2 1bbd 0791 15bd
00000050: f654 38bd e0d4 883c 5e04 32bd c40b 11bc
00000060: cd92 86bd 581d b0bd c680 623d 8044 263d
00000070: 89cf a43c 3fa5 60bd 82e2 50bd 440f 00bd
00000080: dd1e 2dbd 43a8 3dbd 2a80 46bd 61b4 b0bd
00000090: ba3a 98bd e955 a63d 75c0 a5bd df83 763d
000000a0: 15a1 1d3d a9f6 763c 314b 513d 34ac 8fbb
000000b0: 56ba 39bd 0468 dcbc e611 8f3d 1bde 8a3d
000000c0: 854c 463c ecb5 693b 98ba 163d 444c 023d
000000d0: 98cf 433d 6dfa 833d e8f0 953c a86f 493c
000000e0: 8623 943d 00d6 9dbd d59c 6b3c c3f7 aabd
000000f0: 0228 703d 8b44 b0bd cf99 83bc 5239 8f3d
00000100: 7cbf 96bd 8a5e 963d 5a4a dc3c 72e3 03bc
00000110: eaf6 7abd f7e4 ccbc c112 a6bd b817 33bc
00000120: fe44 77bc 0ede 00bd 2712 f0bc ef99 493c
00000130: dd24 84bc 88b8 fb3c 4554 afbd dc34 c3bc
00000140: c97f 51bd 864e 6b3c 58dc f63c d3f5 6dbc
00000150: 0b3c 98bd 05d3 71bc 4f7c 543b ce56 813c
00000160: 5a76 8b3d ad71 7cbc 1a7e a2bd f683 513d
00000170: 936b 14bd 14fd 343d 5ed9 bd3a 33bc 383d
00000180: 842c 78bd c1b7 583d 9a66 b53d 772d 0b3d
00000190: 9c53 e63c 9a72 b2bd e3c5 a8bb 6dd3 e7bc
000001a0: cb7a 6f3d 499a d3bc eed8 acbd f236 503c
000001b0: c887 5e3d 9570 263d 762c 92bd ab9b cbb9
000001c0: 440f bb3c 4318 b23d 3fdd 38bd d029 9d3c
000001d0: 4ed7 8c3d 00fc 90bd 1549 8bbb a7b7 2fbb
000001e0: 4c91 ef3c 58f8 67bc 6190 a63d 4fdd 80bd
000001f0: a714 46bc 55cd a33c 449d 35bd 900e 8e3d
00000200: 2560 a1bb a969 56ba b4bb 043d 050e 553d
00000210: 733b 823d d05b a4bd f1cb 2bbd 9c28 f2bc
00000220: b531 afbc 724a 143d f215 a0bd 7966 a93d
00000230: 8c28 79bc 2b29 66bc d681 aa3d 9f0e e1bc
00000240: b0f4 32bd 25df 74bd 7975 a33d 99ce 7cbd
00000250: a5fe e73c 91f5 813c 12ed 8ebd 38dc 72bd
00000260: 298f af3d ac69 88ba f8e9 673d 204b 7f3d
00000270: 7eb4 293b 6379 613c e1d0 923b 5ac6 19bc
00000280: 168e a93d 6647 bebc 50a9 2abd 3a92 0abd
00000290: 2b88 1a3d 60c0 ae3d cb68 723d 59fa 8fbd
000002a0: 920a 82bd 4857 1abd aeaf 8a3c 78c3 ba3c
000002b0: a12d 46bd c524 063c 4e16 8f3d 8e3f 473d
000002c0: 6a9b 31bc ec0e e8bc 056d 153d 5660 96bd
000002d0: b43f 903d 9259 15bb 69f5 59bd 8723 833d
000002e0: c166 773d cd8e b5bc 5a5b 7dbd 1980 9e39
000002f0: e0a0 c8bc 986f 86bd 8f5b 2b3d 5938 9ebd
00000300: 3aca b3bd 55a5 3bbd 7063 25ba 21fe 873c
00000310: c7ef 96bb edca e83c ebde afbc 2fee 79bd
00000320: acac 1f3d 5cc0 85bd 152e 85bc aa94 093d
00000330: f690 943d da7d 7ebd 8772 08bd d28b 49bb
00000340: db03 0f3d 43dc 113c e323 31bd a8a5 a8bd
00000350: 12d3 f83c 59ae a83d b733 9fbd da79 a53d
00000360: 85b2 233d e3c3 393d 5e43 b6bc 718e 98bd
00000370: 4fd8 babc 40a4 b33d 7f9e 00bd 8e5e 4a3d
00000380: b385 a7bd 0e72 6a3b 4b40 98bc 02ee 743d
00000390: e3a4 763d 2db4 3a3d 3897 24bc e31b 9d3d
000003a0: d24f 8bbd ff0f a6bc f48d 0fbd 1f4a 3dbc
000003b0: b183 8abd d935 30bd c249 4e3d b537 4a3d
000003c0: af74 953c 01c5 46bc 7027 503d 7b29 23bd
000003d0: d7fe 2dbd a23e 6c3d 3f83 66bd fea0 2b3c
000003e0: f540 e23c 34ee 7ebd ecbb 563d f9b4 8cbc
000003f0: 6a52 1a3d 2db9 b6bb 8db4 11bd cae5 e9bc
-0.01667891 -0.044259097 0.03447449 0.06854342 0.0074951914 -0.036651015 0.06541747 0.053194217
-0.048743732 -0.005177949 -0.0145206805 -0.07751988 0.07611017 -0.06464374 -0.08455993 0.05584351
0.038133457 -0.05261535 -0.038027402 -0.036515262 -0.0450029 0.01670307 -0.043461196 -0.008852903
-0.06570969 -0.08599347 0.05529859 0.04059267 0.020118492 -0.05484509 -0.050997265 -0.03126456
-0.04226576 -0.046303045 -0.04846207 -0.086281545 -0.07433076 0.08121855 -0.08093349 0.060184356
0.038483698 0.015073457 0.0510971 -0.004384542 -0.04534372 -0.026905067 0.06985836 0.067806445
0.012103205 0.0035661412 0.036799043 0.031811014 0.0478054 0.06444249 0.01830335 0.012294687
0.07233338 -0.07706833 0.014380653 -0.08348038 0.058631904 -0.086068235 -0.016064553 0.06993355
-0.073607415 0.07342251 0.026890922 -0.008049833 -0.06127063 -0.025011523 -0.08109046 -0.010930948
-0.015092133 -0.031461768 -0.02930553 0.012304767 -0.016130859 0.03072764 -0.08560995 -0.023828916
-0.051147256 0.014361983 0.030134365 -0.014523941 -0.07433327 -0.014759784 0.0032422727 0.015788462
0.06809683 -0.015407962 -0.07934208 0.05115124 -0.036235403 0.044186667 0.0014484336 0.045101356
-0.06058933 0.052909616 0.0885746 0.033978906 0.02811604 -0.08713265 -0.005150543 -0.028299058
0.058466714 -0.025830405 -0.084398136 0.0127084125 0.05432871 0.04063471 -0.071373865 -0.0003883516
0.022834428 0.08696034 -0.04513287 0.019184977 0.068770036 -0.07079315 -0.0042506554 -0.0026812346
0.029244088 -0.014158331 0.08133007 -0.06292211 -0.012089885 0.01999537 -0.044339433 0.06936371
-0.0049247914 -0.0008179197 0.03240557 0.052015323 0.06358995 -0.08025324 -0.04194254 -0.02956038
-0.021386007 0.03620381 -0.07816686 0.08271498 -0.015207421 -0.014047901 0.083255455 -0.027472792
-0.043690383 -0.05978312 0.079813905 -0.061720464 0.028319666 0.015864165 -0.06978811 -0.05929205
0.085722275 -0.0010407469 0.056619614 0.062327504 0.0025894935 0.013761851 0.0044804667 -0.00938567
0.08279054 -0.023227405 -0.041665375 -0.03383086 0.037727516 0.08532786 0.05918197 -0.07030172
-0.063496724 -0.037680894 0.016929474 0.022798285 -0.04838336 0.0081874775 0.06986676 0.048644595
-0.010840276 -0.028327428 0.036480922 -0.07342593 0.070434004 -0.0022788984 -0.053212557 0.06403261
0.060400728 -0.02216282 -0.061854698 0.0003023155 -0.024490774 -0.065642536 0.041835364 -0.07725591
-0.08778806 -0.04581197 -0.0006309068 0.01660067 -0.0046062204 0.028417075 -0.0214686 -0.061018165
0.038983032 -0.0653083 -0.016257325 0.033589043 0.072542116 -0.06213174 -0.033312347 -0.0030753505
0.034915786 0.008902612 -0.043247115 -0.082347214 0.030374084 0.08236379 -0.07773536 0.08079882
0.03996517 0.045352828 -0.02224892 -0.074490435 -0.022808222 0.087715626 -0.031401154 0.04940658
-0.08179798 0.0035773548 -0.018585345 0.059797294 0.060215842 0.045581985 -0.010045819 0.076713346
-0.06802334 -0.0202713 -0.035047486 -0.011553316 -0.067633994 -0.043020103 0.05036331 0.049369533
0.018244116 -0.01213193 0.05081886 -0.03983448 -0.042479362 0.05767692 -0.05627751 0.010475395
0.027618865 -0.062238887 0.05242531 -0.017176138 0.037676252 -0.005576274 -0.035572577 -0.028551955

body.2.bias f4 [128]
00000000: 55aa 4dbd dffb 47bc 076b 673d 4930 313d
00000010: 2ca2 b03d 7941 45bd 472b 333d 7af9 b2bc
00000020: 82e8 c23c 9dcc 7d3c 6f65 073c b4e6 3ebd
00000030: 627a 8ebd fbd1 75bd e71e b2bd 2866 803d
00000040: 7e6b 6d3d 3039 8c3b 3e9a 98bc 764e e03c
00000050: a0cd 80bd aff4 b03c 9557 c4bc a43f 073d
00000060: eb67 9dbb 1ac5 a9bd 5131 a9bd 19a5 123d
00000070: 369f 4cbc a040 80bd eea2 a13d c818 ae3c
00000080: 3505 973c 99a6 893c 95c2 93bd 85fe 8a3d
00000090: 8b12 183d 6d55 b03d 0634 febc 39a9 593d
000000a0: 6b2c bbbc 6357 83bd 2044 9fbd 3bd2 9abd
000000b0: 8024 ef3c 42d7 b83c abb0 3b3d 47c6 fabc
000000c0: cffd fc3c bcce db3a 38dc eabc 3f6c 8a3d
000000d0: 40bf b4bd bb7c 27bd 4d47 99bd 13f6 4abd
000000e0: 0f75 81bd b066 9c3c df17 39bd 5146 303d
000000f0: 1375 2c3c 6b24 98bd 5068 c53c d32c d63b
00000100: b061 b3bd 5e7f 2abd f163 573d 00ba f2bc
00000110: 070c 963d e14e 7ebd 9c11 5bbd 390d a63d
00000120: f9b3 12bd 4421 553d 587e cabc 4e01 80bb
00000130: 5bf5 afbc 2bc0 b53d d945 573d 0e8e a7bd
00000140: ff53 a7bd 9437 62bb 9afa 123d 5ec2 dabb
00000150: 6544 d0bb e2de c33a 3895 58bc d3f0 c1bc
00000160: 298f 943d 3a97 b43d a1c7 d43c 451e 693d
00000170: 11b0 01bd 4f6e 1bbd 0fa7 af3d 2475 32bd
00000180: a6fc 17bd 54c9 803d 3eda ad3c 4fe6 903c
00000190: c272 ac3d af2a 93bd c10b c8bc 52c5 3b3d
000001a0: 6c2f 123d 066e 663d 8a7b 78bd ac38 f4bc
000001b0: a7e8 82bd 8a8c a3bd b705 783d 492b 07bd
000001c0: 1676 36bd a24e 67bd 0745 4c3d c3a2 5bbd
000001d0: 38c8 c9bb d54e 38bd e7ab 55bd 741e 85bd
000001e0: 0bd8 00bd f445 043d ba26 2cbd 0f3c 9cbd
000001f0: 7e56 2f3c 7a4c d5ba 0a78 9d3d fffe abbc
-0.05021127 -0.012206047 0.056498554 0.04325894 0.08624682 -0.048158143 0.043742444 -0.021847475
0.023792509 0.015490678 0.00826393 -0.046606734 -0.069569364 -0.060014706 -0.086973004 0.06269485
0.05796384 0.004279278 -0.018628236 0.027381163 -0.0628922 0.02160105 -0.023967544 0.033019677
-0.0048036478 -0.08289547 -0.082613595 0.03580198 -0.012489131 -0.06262326 0.078924045 0.021252051
0.0184351 0.016803073 -0.07214848 0.06786827 0.03712706 0.08610044 -0.031030666 0.0531399
-0.022848329 -0.06413152 -0.07776666 -0.075596295 0.02919221 0.02256358 0.04582278 -0.030612124
0.030882744 0.0016769986 -0.028669462 0.067589276 -0.088255405 -0.040890437 -0.07484303 -0.04955108
-0.06321155 0.019091934 -0.04518878 0.04303581 0.01052596 -0.07428821 0.024097592 0.006536105
-0.08758867 -0.041625373 0.052585546 -0.029629707 0.07326513 -0.062086944 -0.05348359 0.08107991
-0.035816167 0.052033678 -0.024718449 -0.0039064055 -0.0214793 0.08874544 0.052556846 -0.08181392
-0.08170318 -0.003451799 0.035883524 -0.0066760024 -0.0063558095 0.0014943744 -0.01321917 -0.023674404
0.07253868 0.08817907 0.025974097 0.056913633 -0.03166205 -0.037946995 0.08576786 -0.043568745
-0.03710618 0.062884 0.02122223 0.017687945 0.08420326 -0.071858756 -0.024419667 0.045842476
0.035689756 0.05625727 -0.06066469 -0.02981218 -0.06392031 -0.0798579 0.060552325 -0.033000264
-0.04454621 -0.056471474 0.049870517 -0.05362202 -0.006157901 -0.044997055 -0.052165892 -0.06499949
-0.031456035 0.032293275 -0.04202912 -0.07628643 0.010701774 -0.0016273402 0.07688911 -0.020995615

move_head.weight f4 [5, 128]
00000000: ac0a 513d 24f9 7ebd 640e 13bd 0645 a73d
00000010: 2238 9b3d 2f11 40bd ec14 133d ee1c 823d
00000020: 3ce4 9ebd 122a 7c3c 9a23 8e3d c1dd c13c
00000030: 4dee 833d 366e af3a 5f28 5bbc 986f b3bd
00000040: d238 9ebd e93d 183d fa28 25bd 6349 a5bd
00000050: 3a6f 7e3d 6d37 3f3c 7b87 fbbc 59be 3ebd
00000060: f7f9 1f3d a331 a6bd 1af7 293d 7f17 253c
00000070: 858e caba f215 0ebd ef05 9fbd 8325 e53c
00000080: 897b 87bd 1760 4f3d 6aa7 8a3b 0505 a9bc
00000090: 8e8f 8b3d 1510 ad3d f63e a9bd e612 4b3d
000000a0: a827 9abd 0b15 39bd d618 c6bc 72d8 b1bd
000000b0: ad9e d03c 00fd 343d d425 5d3d 71e1 9a3d
000000c0: c746 8d3b f7c3 263d 47b2 9f3b 06e7 883b
000000d0: 0ca7 ab3d 799b 0cbd 5a53 04bc 125a 97bd
000000e0: 96ab dc3c aff0 ab3d 2750 063d 6db8 843d
000000f0: 749e af3d 4cda b13d a5ea 37bd ccb0 1b3d
00000100: 32ba 5abc 1d11 39bd 452b b13d e46e babc
00000110: f03d 8fbc f6ae e4bb 5ef2 3abc 7b86 72bd
00000120: 96bc d4bc 6920 98bd 0bc3 a4bd ae13 c1bc
00000130: 4681 95bc 7971 013c 4381 2dbd 1642 693d
00000140: 1c48 663d ed2d 82bd c2f3 9e3d 45c0 bdba
00000150: 13f7 003d 3060 2dbc a519 d7bc 26e9 9fbd
00000160: 772c a43b 15d5 913c 5a4c 223d 8138 abbd
00000170: b3fb d0ba 4253 cfbb 6bd8 3f3d b909 93bd
00000180: 004e b9bc 1c5b 8ebd e3b2 c2bc 45ab ab3d
00000190: fc3b 9ebc f6ca 8c3d 8e1d 713c bf2b 6abc
000001a0: 27bf 3b3d 35b3 513d 98d6 323d d3ff 463d
000001b0: fdf7 143d 2fab 823d c87e 723d d1ad 9f3d
000001c0: e3c9 eebc 9f2f fdbc eade 56bc 6e15 423d
000001d0: 872c 2c3d 48ab 773b 4260 403d 2e23 b9bc
000001e0: 4620 9fbd b415 f43b e2cb edbc f8e8 19bd
000001f0: 23a4 76bd 4d9c 8c3d 9bbc 553d e9a5 a33c
00000200: 326d 893c 72ee 593d cd5b c2b9 ff94 813d
00000210: a848 913d edf3 8abd 382e 443c 9bef 453d
00000220: ea8d 4dbd 480c 2e3d 49fe b9bc 9781 45bb
00000230: 1e92 883d 8764 7e3d 807f b53c a16b a63d
00000240: 157a 31bd 03d5 883d 6540 8c3d e07b 81bd
00000250: 8169 19bd d7f1 a3bc 935b c1bc 095e 23bd
00000260: 24a0 633d 6567 2c3d d69a 7f3d f13e ad3d
00000270: c356 f7bc 14d0 9a3d a2f2 a7bd d469 69bc
00000280: b265 6abd 2724 a5bb a98d a13d f0a4 60bd
00000290: fdcb f23c 0228 14bc 7a1d 12bd ce0c c9bc
000002a0: 736f 25bc b776 823d d998 fe3c cfad 72bd
000002b0: 5434 853d 0a08 b53c 2f6e 613c f65b b43d
000002c0: 9a1c 74bd 5913 5cbd d39e 0fbd a6d4 983d
000002d0: a821 1dbd 3cf0 0bbc c4cc aa3c c217 813d
000002e0: 47ae 7e3d 28cc 643d 2f2e 7ebd 0e8f 8d3c
000002f0: c145 89bd cbd4 88bd 6dd2 2f3d cf2f a3bd
00000300: 3894 91bd c2a4 8aba 032c 243d ec7c 35bd
00000310: b2cc 40bd 1ff0 3a3d 1b1a 413d 7577 cb3c
00000320: a2e6 6dbb c6d9 35bc c8d0 90bd 17a1 903d
00000330: b8b7 dbbc 0730 7a3d ccab 97bd 2af1 873d
00000340: f38c a8bc 03de 00bd 43c6 b0bd ccee 58bd
00000350: 51fa fdbb f238 a13d eeed 99bd a92d 00bd
00000360: 9c95 f4bb 9ca9 84bd 60b4 c83b 7328 7d3d
00000370: a644 dc3c a261 aebd 7aaa 9c3d 5171 56bc
00000380: 5a05 a93d e121 463d f67a 3fbc bde4 aebd
00000390: b3aa ed3c ddd9 383c 7832 c5bc 8526 a83d
000003a0: f21b 293c 5198 ae3b 9b89 ae3c 82cb 5c3c
000003b0: c902 1cbc 1f42 81bd 4e7e 683b 9649 f73c
000003c0: 8779 72bd 204e c53c 0677 693d 1d01 a4bd
000003d0: 9461 c3bc b689 133d 380c aa3c 17fe 77bd
000003e0: e890 cd39 cc37 633d e399 823c c0d6 503c
000003f0: 1c3a 513d 0bc2 b4bc 2ff2 abbc eb09 ee3b
0.051035568 -0.062249318 -0.035902396 0.08167462 0.07579066 -0.046891388 0.035908625 0.06353174
-0.07758376 0.01539089 0.06940384 0.02366531 0.06441937 0.0013384286 -0.013376324 -0.08761519
-0.07725681 0.037168417 -0.04032228 -0.08070638 0.062117793 0.011670929 -0.03070425 -0.04656825
0.039056744 -0.08114936 0.04149542 0.010076403 -0.0015453851 -0.034688897 -0.077648036 0.027971989
-0.06615359 0.050628748 0.004231383 -0.020632276 0.0681449 0.08450333 -0.08263962 0.04957857
-0.07527095 -0.045186084 -0.024181765 -0.08683862 0.025466288 0.044186592 0.053991154 0.07562531
0.004311416 0.04071423 0.0048735472 0.0041779308 0.08381471 -0.034327958 -0.008076513 -0.073902264
0.026937287 0.08395516 0.032791283 0.06480489 0.085751444 0.08684215 -0.04490151 0.038010404
-0.0133500565 -0.045182336 0.08650831 -0.022757955 -0.017485589 -0.006978865 -0.011410324 -0.05921028
-0.025968831 -0.07428057 -0.08045014 -0.023568954 -0.018250119 0.007900589 -0.0423596 0.05694779
0.056221113 -0.06356416 0.07761337 -0.0014476856 0.03148563 -0.010582015 -0.026257345 -0.078081414
0.0050101834 0.0178018 0.039623596 -0.08360387 -0.0015944153 -0.006327064 0.04683725 -0.07179589
-0.022620201 -0.069509715 -0.02376694 0.083822764 -0.019315712 0.06874649 0.014716519 -0.014292656
0.045836594 0.051196296 0.043661684 0.048583817 0.036369313 0.06380307 0.05920294 0.07796825
-0.029149001 -0.030906497 -0.01311467 0.04738372 0.042034652 0.00377913 0.0469668 -0.022599783
-0.077698275 0.0074488763 -0.029027883 -0.037575692 -0.060215127 0.068657495 0.05218182 0.019976573
0.016775701 0.053205915 -0.0003707096 0.06327247 0.07093936 -0.067848064 0.01197391 0.04832421
-0.050184168 0.04249218 -0.02270426 -0.0030137056 0.06668495 0.06210759 0.022155523 0.08125997
-0.043329317 0.06681254 0.0684822 -0.063224554 -0.037454132 -0.02001278 -0.023603236 -0.0398846
0.055572644 0.042090792 0.062403522 0.08459271 -0.030192738 0.07559219 -0.082005754 -0.014246423
-0.05722589 -0.00503971 0.07888348 -0.054844797 0.029638285 -0.009042742 -0.035672642 -0.024542239
-0.010097372 0.06370299 0.031078743 -0.059247788 0.065041214 0.02209856 0.01375918 0.08806603
-0.05959759 -0.05372939 -0.035063576 0.074624345 -0.038362175 -0.008541163 0.020849593 0.063033596
0.062177923 0.05585876 -0.062055763 0.017280128 -0.067027576 -0.06681212 0.042925287 -0.07968103
-0.071083486 -0.0010577666 0.040081035 -0.044308588 -0.047070213 0.045639154 0.047144037 0.024837235
-0.0036300798 -0.0110992845 -0.07071072 0.070619754 -0.026821002 0.06108096 -0.074058145 0.06637795
-0.020575022 -0.031461727 -0.086315654 -0.05296211 -0.0077507873 0.078721896 -0.075160846 -0.031293545
-0.007464124 -0.06477663 0.006125018 0.061806154 0.026888203 -0.08514716 0.07649703 -0.01308854
0.08252974 0.048372153 -0.011687031 -0.08539722 0.02901206 0.011282411 -0.024071917 0.08210472
0.010321604 0.005328216 0.02130585 0.013476254 -0.009522148 -0.0631144 0.0035475674 0.030186456
-0.05919793 0.024085104 0.056998275 -0.08008025 -0.02385024 0.036020003 0.02075778 -0.060545053
0.0003920861 0.055473134 0.01594252 0.012746513 0.051080808 -0.022065183 -0.020989506 0.007264366

move_head.bias f4 [5]
00000000: 1c8b 9f3d d958 b3bd 77cc 84bd 98a2 9e3c
00000010: 8312 11bc
0.07790205 -0.08757181 -0.06484311 0.01936464 -0.008854511

comm_head.weight f4 [10, 128]
00000000: e6e6 9bbd e4b3 de3c cd01 1bbc 92f7 273d
00000010: b0a1 a23d bd8d 63bb 6508 a3bc 7e76 31bd
00000020: bab5 77bc f46f a8bd 73fb 46bd 0ef0 be3c
00000030: 5d30 40bd fbb6 55bd 1518 e83c 8460 ae3d
00000040: 7c72 b7bc 7710 81bc 9133 493d f766 1e3d
00000050: 7a34 29bc 487b b3bd 8cee 653d e54c 2abd
00000060: 9a16 72bd 6995 00bb f2a2 9bbd f6a7 30bd
00000070: e408 aabb 1bd3 8c3d b540 163d a26a 99bc
00000080: f343 0a3d fb63 4cbd 1ec2 f13c 92e1 30bd
00000090: 5e59 ab3d c249 933d 092a c43b 185d 82bd
000000a0: d31b 9b3d 2414 6ebd 1b1d bbbc d9f0 50bd
000000b0: 3308 a1bd e1fe 6d3c fb15 95bd 3d1e 253d
000000c0: 134c 493d e7da dabc 746e 9cbd 43ad a5bc
000000d0: 22de 5cbc dfb3 643c b2ba 1b3d bc75 bd3c
000000e0: 792d aebd 80c8 98bd cbf4 923d 0355 453d
000000f0: 75ef 9bbd 8c57 0f3d a57c 023d c154 7ebd
00000100: a8bd b33d 987d a7bd 1d62 b43d 7774 8fbd
00000110: db7c a8bc 0025 abbc 5aa6 1b3c 5e22 3d3d
00000120: d9de 843d 8704 183d a628 a6bd d623 183d
00000130: a6cb b3bc a935 3b3d 0a02 3dbd 005c 0a3d
00000140: f012 633b aa97 3c3b 9a59 d6bc d139 c53b
00000150: ec9d 78bd 5cda b4bd 4af3 c33c 68d5 593d
00000160: 8e63 91bd f946 9a3d 9a2d c83a a68b abbd
00000170: 8ba5 1b3d 7336 013d 1be1 a0bd 4b8f 663d
00000180: e6a1 a83c 062e c7bc 844e 86bd 8703 39bd
00000190: 6811 cb3c 19ee 023d e6ea 383c 4b66 9b3d
000001a0: 4513 763d ff93 78ba e240 60bd 58a1 8f3d
000001b0: 64a2 79bd 7709 78bc 8c79 0bbd 05c8 03bd
000001c0: a8e4 993d 24c7 c3bc 5075 d4bb 4ee5 07bd
000001d0: d101 933c 20db dabc 2b05 1e3c 4771 3cbd
000001e0: 596f aabd 16ae 7fbd e1fb 583d 8b7f e73b
000001f0: a6c3 973d a444 6dbd 2d91 3fbd ec84 713a
00000200: d23b 65bd 579a aabd 97dc c93c 3682 2dbd
00000210: f2f2 7dbd 0bc4 a8bd bcf8 453d a800 81bc
00000220: 7ca9 06bc e2a2 653b 97e7 a23d 39d2 b2bd
00000230: 7a4a ab3d f6e3 a2bd ab5b 8b3d 6618 ab3d
00000240: 6bca 16bc 1974 af3c 0f03 6abd 09b8 833d
00000250: e347 da3c bd6e e13c 889f 043d e9c9 2e3c
00000260: 24e3 413d 132f 38bd 784c 73bd 3a24 a6bd
00000270: b621 c0bc a2d5 71bd a721 f13b edc6 d83c
00000280: d544 b4bd b09c 86bc a331 a53d d5bd a4bc
00000290: 85eb eebc e149 16bc a3c8 dbbc 7b35 773d
000002a0: 6aec 8d3d 9095 2f3c 6d1f c83b a885 9a3d
000002b0: 94ca 7e3c 50af ea3b 1efa e73c 195c 5b3d
000002c0: 0c0d 903d 4c70 22b9 3da5 4f3d 7c7c acbd
000002d0: 3dbc 8ebd 0301 9c3d 3d62 c13c e1b5 1c3c
000002e0: 7036 6cbd 2acf ea3c e584 b5bd 4fec 483d
000002f0: a266 633d 7832 2cbd 3856 50bd 46dc ac3d
00000300: 0801 5e3d 790c cd3b facf dc39 916c 7b3d
00000310: c06b 8a3d 0f88 593d 63ef 4b3d 96b0 8f3d
00000320: 43e6 923d 4714 3a3d 2d77 733d e4ee 96bd
00000330: f749 82bd 2b40 863d be95 d43c 6919 803d
00000340: 724f 493d 8e11 8a3c 213b 15bd 3def 66bc
00000350: 82a2 513d a3fd 8cbd 38dd 9b3c 427f a23d
00000360: c0c0 dabc 4918 863d 4c41 99bd c271 58bc
00000370: c3b8 fb3b ef34 98bd 8da7 b23d 7b22 8b3d
00000380: 03ce 0c3d 4cde 80bd 86b2 8f3d 9afa 36bc
00000390: ff27 21bd e8d6 fcbc ccc8 eb3c 5597 a93d
000003a0: dfb6 6b3d 0a09 e4bc 5a1b 0dbd c2f8 883d
000003b0: 4d38 8f3d 11b2 6ebd 7ad2 df3c 8c88 2d3d
000003c0: ca4a 71bc 237c 903d ec1f 2e3c 1ab8 27bd
000003d0: 0273 cfba 5fa0 af3d 6fe4 993d fee4 8c3d
000003e0: 5f7f 9f3c ec1f 7a3d b19b 843d f1ff 9abd
000003f0: 0f32 96bb 7872 7abd 85a5 89bd 2241 95bd
-0.076124 0.027185388 -0.009460879 0.041007586 0.07940996 -0.0034721934 -0.019901464 -0.043325894
-0.015119011 -0.08224478 -0.048579644 0.023307826 -0.046921123 -0.052176457 0.028331796 0.08514503
-0.022393458 -0.015754921 0.049121443 0.038672414 -0.010327453 -0.087637484 0.0561357 -0.04157724
-0.059103586 -0.0019620305 -0.07599439 -0.04312893 -0.005189048 0.06876203 0.036682803 -0.018727604
0.033756208 -0.049900036 0.029511508 -0.04318387 0.08366655 0.071918026 0.0059864563 -0.063654125
0.075736664 -0.058124676 -0.022841027 -0.05101094 -0.07862892 0.0145261 -0.07279583 0.04031204
0.049144816 -0.026715709 -0.07638255 -0.02022422 -0.013480695 0.0139589 0.038019843 0.02312743
-0.08504767 -0.07460117 0.07175597 0.048176777 -0.07614032 0.0349956 0.03185715 -0.062092546
0.087764084 -0.08178252 0.08807776 -0.07004636 -0.020567348 -0.020891666 0.0095001105 0.046175353
0.06487817 0.037113693 -0.08113222 0.03714355 -0.021947693 0.04570547 -0.046144523 0.033779144
0.0034648739 0.0028776922 -0.026165772 0.006018855 -0.06069748 -0.08830711 0.02391972 0.053182036
-0.07099067 0.07533068 0.0015272379 -0.08376245 0.03799967 0.031546067 -0.078554355 0.056289
0.020585012 -0.024313938 -0.065579444 -0.04516938 0.024788573 0.03196535 0.011286473 0.0758787
0.06007697 -0.00094825024 -0.054749377 0.07013196 -0.060945883 -0.015138975 -0.034051463 -0.032173175
0.07514316 -0.023898669 -0.0064837113 -0.033177666 0.017945202 -0.026715815 0.009644787 -0.046006467
-0.08322019 -0.06242188 0.052974585 0.007064765 0.07410364 -0.05792679 -0.04676931 0.00092132273
-0.055965252 -0.08330219 0.024641318 -0.042360507 -0.06199927 -0.08240517 0.048332915 -0.015747383
-0.008219119 0.0035039713 0.079543285 -0.08731503 0.08363815 -0.07953636 0.06804594 0.08354263
-0.009203534 0.021417664 -0.057131823 0.06431586 0.026645606 0.027518624 0.032378703 0.010668256
0.04733576 -0.04496677 -0.0593991 -0.081123784 -0.023453575 -0.059041627 0.007358748 0.026462043
-0.08802191 -0.016432136 0.08066108 -0.02011005 -0.029165039 -0.009172888 -0.02682907 0.060353737
0.06929858 0.010716811 0.006107262 0.07545024 0.015551228 0.007162012 0.028317507 0.053554628
0.070337385 -0.00015491358 0.050694693 -0.08422181 -0.06969497 0.076173805 0.023606414 0.009564848
-0.057669103 0.028663237 -0.08863238 0.049053486 0.0555178 -0.04204032 -0.050863475 0.08440451
0.054200202 0.0062575904 0.00042116625 0.061382834 0.06758833 0.05310827 0.049788844 0.07016103
0.07172825 0.045429494 0.059439827 -0.073697835 -0.06361764 0.06555208 0.025950309 0.062548466
0.04914803 0.016854074 -0.036433343 -0.014095125 0.05118037 -0.06884315 0.019026384 0.07934429
-0.026703238 0.06547601 -0.074831575 -0.013210716 0.0076819374 -0.07431971 0.08723364 0.06793686
0.034376156 -0.062924 0.070164725 -0.0111681465 -0.039344784 -0.030864194 0.02878227 0.082808174
0.057547446 -0.027836341 -0.034449913 0.06688072 0.069931604 -0.058275286 0.027322043 0.04236655
-0.014727304 0.07054927 0.010627728 -0.040947057 -0.0015827122 0.0857551 0.075142734 0.06879614
0.019469915 0.0610656 0.06475008 -0.07568348 -0.004583604 -0.061144322 -0.067210235 -0.07287814

comm_head.bias f4 [10]
00000000: c871 35ba 6ec9 68bd f675 5fbd 50cb 52bd
00000010: eee7 163d ea4f 4f3d f05c c23c 5729 253d
00000020: 85ec 1a3d f0a9 4abd
-0.0006921557 -0.056832723 -0.054555856 -0.051463425 0.03684228 0.05061332 0.023725957 0.040322628
0.03782322 -0.04947847
