checkpoints/dev_test/simple_reference_v3_agent_1_ep4.pt (torch, 106549 bytes, 6 tensors)

model.0.weight f4 [128, 21]
0	0xbe0b2abf	-0.13590525
1	0x3e4d3ea3	0.20043425
2	0x3d4ad318	0.04951772
3	0xbe2ad8fe	-0.16684338
4	0xbdccef76	-0.10006611
5	0x3e496199	0.19666137
6	0xbdc1bff6	-0.09460442
7	0xbd9bb0a0	-0.07602048
8	0x3d8837ab	0.06651243
9	0x3e12cf43	0.14336877
10	0x3c99f7e1	0.018794956
11	0x3d9ab855	0.0755469
12	0xbdf789fd	-0.12086866
13	0x3d6c00d3	0.057617974
14	0x3e067dbe	0.13133904
15	0xbe4d7d51	-0.20067336
16	0xbdd4e0d7	-0.10394447
17	0xbbf9f355	-0.0076278844
18	0xbe312f9e	-0.17303321
19	0xbbfa184b	-0.0076322905
20	0x3e07ade7	0.13249932
21	0xbdd7990d	-0.10527239
22	0x3e30f15b	0.1727957
23	0x3e29f91b	0.16598932
24	0xbd960db6	-0.07326834
25	0xbda2ce5b	-0.079495154
26	0xbd3214a7	-0.043476727
27	0x3e0ec184	0.13941008
28	0xbdcaf17a	-0.09909339
29	0x3d93171c	0.07182142
30	0xbe5dfcc3	-0.21678452
31	0x3c92cd4f	0.017920164
32	0xbdf7837f	-0.12085628
33	0x3e0a33f4	0.13496381
34	0x3ce6dfcf	0.028182892
35	0xbc6dcafe	-0.014513729
36	0x3d8cc7c0	0.06874037
37	0xbe2a6706	-0.16640863
38	0x3e27d4bd	0.16389747
39	0x3e2d06f6	0.16897187
40	0x3de2713d	0.11056755
41	0xbd9295c1	-0.071574695
42	0xbd57d694	-0.052694872
43	0xbd17acba	-0.03702996
44	0xbcba19f2	-0.02271745
45	0xbd81c9c3	-0.06337311
46	0xbe5059fb	-0.20346825
47	0x3d30c9b6	0.043161117
48	0x3d283dac	0.04107444
49	0xbc7e2c6a	-0.015513519
50	0xbe2feb8b	-0.17179696
51	0x3d2c3b90	0.04204899
52	0x3d9e1019	0.07717914
53	0xbdd4fc3d	-0.10399673
54	0xbdb3ff68	-0.08788949
55	0xbe34ec94	-0.17668372
56	0x3e13a6aa	0.14419046
57	0x3c48f968	0.012266494
58	0x3e17cad8	0.14823472
59	0xbdea4d2a	-0.11440499
60	0x3e259814	0.16171294
61	0xbe48f8c3	-0.19626145
62	0xbdf1916c	-0.11795315
63	0xbe4de1a4	-0.20105606
64	0x3d156805	0.036476154
65	0xbe4c7839	-0.19967736
66	0x3e55ecc8	0.20891106
67	0x3e174b66	0.14774856
68	0x3e4e69d5	0.20157559
69	0x3e519050	0.20465207
70	0xbdd595c9	-0.1042896
71	0x3c999271	0.018746587
72	0x3c30231a	0.010750556
73	0xbdff693a	-0.12471242
74	0xbe3586ac	-0.17727154
75	0xbe58c029	-0.21167053
76	0x3e1379a7	0.14401875
77	0x3a82da28	0.0009983229
78	0x3e2b52f8	0.16730869
79	0xbc2151a1	-0.009846122
80	0x3cceaeca	0.02522983
81	0x3e3db6cc	0.18526763
82	0x3dc4a367	0.09601479
83	0xbe3fb65d	-0.1872191
84	0x3daab0af	0.08334481
85	0xbe26e41f	-0.16297959
86	0x3d4d1af1	0.05007452
87	0x3d6d23dc	0.057895526
88	0x3e05084f	0.1299145
89	0x3d94c4e5	0.07264117
90	0xbd10c055	-0.035339672
91	0x3dcd756c	0.10032162
92	0x3e4c4e50	0.19951749
93	0xbd89232a	-0.0669616
94	0x3da1e505	0.0790501
95	0x3e0658c7	0.13119803
96	0x3e3b3342	0.18281272
97	0xbdbd5f5d	-0.09246705
98	0xbd112712	-0.03543765
99	0x3ca3e575	0.020006875
100	0xbdef7dc2	-0.11693908
101	0xbe3faa9f	-0.1871743
102	0x3e375d5c	0.17906708
103	0x3df68494	0.12037006
104	0x3dfe153b	0.12406393
105	0xbc8afca5	-0.016966173
106	0xbcde1ec4	-0.02711428
107	0x3e271b03	0.16318898
108	0x3e28c13c	0.16479963
109	0xbe5ddd09	-0.2166635
110	0x3db5a667	0.08869629
111	0x3dc15ed5	0.09441916
112	0xbdaca2a4	-0.08429459
113	0x3cbeeff7	0.023307784
114	0xbe586706	-0.2113305
115	0xbe1c8d1f	-0.15288208
116	0xbe1d9c58	-0.15391672
117	0xbe3590d9	-0.17731036
118	0xbdb4d5ab	-0.088298164
119	0x3dc94dee	0.09829317
120	0x3e48046f	0.19532941
121	0x3e51f448	0.20503342
122	0xbe461dc3	-0.1934729
123	0xbe0a391f	-0.13498352
124	0x3d81f08d	0.063447095
125	0xbb325090	-0.0027208664
126	0x3e40d8e4	0.18832737
127	0x3e3cf485	0.18452652
128	0x3e5a7c2e	0.21336433
129	0xbd05313d	-0.03251766
130	0x3d711e3f	0.058866736
131	0xbd55b57e	-0.052175038
132	0xbdbd5b95	-0.092459835
133	0x3e48722b	0.19574802
134	0x3d4e553b	0.05037425
135	0x3da24db6	0.079249784
136	0xbe32e977	-0.17471872
137	0xbe0f8327	-0.14014874
138	0x3da538a3	0.08067443
139	0xbdb5dacc	-0.08879623
140	0x3e0b20ef	0.13586782
141	0x3c513971	0.012770043
142	0xbe27cd2f	-0.16386865
143	0x3da11925	0.07866124
144	0xbe0d5d6f	-0.13805173
145	0x3e404d9a	0.18779603
146	0x3e5dc1cb	0.21655957
147	0xbc1b5991	-0.0094818035
148	0x3e390323	0.18067603
149	0xbcc0d3d0	-0.0235385
150	0x3e09b246	0.13446912
151	0xb8aae365	-8.148587e-05
152	0x3e27c63e	0.16384217
153	0x3e394289	0.18091787
154	0x3dad054a	0.084482744
155	0x3c2b2ab3	0.010447192
156	0xbe16f0f2	-0.14740351
157	0x3cf0bc89	0.029386776
158	0x3c0286e0	0.007966727
159	0x3d34cb57	0.044139232
160	0x3e23ef02	0.16009143
161	0xbcc61383	-0.024179226
162	0x3c68f5e1	0.014218778
163	0x3e343f12	0.17602184
164	0x3dd6c808	0.10487372
165	0x3e2371d2	0.15961388
166	0xbe127faa	-0.14306512
167	0x3e4d30f9	0.20038213
168	0xbe0fdb31	-0.14048459
169	0xbd72417c	-0.059144482
170	0xbe480b4f	-0.19535564
171	0xbc171a5d	-0.009222594
172	0xbde8513d	-0.1134362
173	0xbd8512b9	-0.06497712
174	0xbd26325c	-0.04057537
175	0x3e275d17	0.16344105
176	0x3d483e62	0.048887618
177	0x3e228465	0.15870817
178	0xbd0b35ba	-0.033986785
179	0xbdca6457	-0.098824196
180	0xbd0a5a2c	-0.0337774
181	0x3e2fe4d9	0.17177142
182	0xbe422a35	-0.18961413
183	0x3db8c233	0.090214156
184	0x3d3d3564	0.046193495
185	0x3e0244c4	0.12721545
186	0xbe326646	-0.17421827
187	0x3e4e21f5	0.20130141
188	0x3d99807d	0.0749521
189	0x3e1c0e11	0.15239741
190	0xbe07d124	-0.13263375
191	0xbe454f96	-0.19268641
192	0x3d017f17	0.031615343
193	0xbdd7005e	-0.10498117
194	0xbe0f1256	-0.13971838
195	0x3e1cb529	0.15303482
196	0x3e1c1acc	0.15244597
197	0x3d38ad91	0.0450874
198	0x3e27232c	0.16322011
199	0x3d948875	0.072525896
200	0x3c3ec820	0.011644393
201	0x3e4f8af1	0.20267846
202	0xbd7e2a69	-0.062052164
203	0x3cb89f93	0.022537028
204	0x3dc3dd9e	0.095637545
205	0x3db0cef5	0.08633224
206	0xbe4e601e	-0.20153853
207	0x3e4bbc2c	0.19896
208	0x3d52ec62	0.051494963
209	0x3e3ee5f0	0.18642402
210	0xbe35d43f	-0.17756747
211	0x3dfa9398	0.122351825
212	0xbe5f1ec2	-0.21789077
213	0xbd31e010	-0.043426573
214	0x3e58ec3e	0.21183869
215	0xbc1be6d5	-0.009515484
216	0xbdc4e9cd	-0.096149065
217	0xbbf89573	-0.007586175
218	0x3d0ac00b	0.033874553
219	0xbc96fbf1	-0.018430682
220	0x3cbc1e31	0.022963615
221	0xbd95468e	-0.07288848
222	0xbe0e166e	-0.13875744
223	0xbd24c3ce	-0.040225796
224	0x3db5df50	0.08880484
225	0x3d7183ea	0.058963694
226	0x3e5543e2	0.20826676
227	0xbcd07382	-0.025445703
228	0x3d5c2504	0.05374624
229	0x3cfde0b6	0.03099094
230	0x3dad92cd	0.08475266
231	0x3e054776	0.13015541
232	0x3d3a7070	0.045517385
233	0xbe574c43	-0.21025185
234	0xbd8a2518	-0.06745356
235	0x3e1ef27d	0.1552219
236	0x3e2c32c7	0.16816245
237	0xbe58689f	-0.2113366
238	0x3dddd4e7	0.108316235
239	0xbb501bf8	-0.0031754952
240	0x3e501caf	0.20323442
241	0x3d96c682	0.07362081
242	0xbbba85a7	-0.005692202
243	0x3d09ca2a	0.033640064
244	0x3c66ef43	0.01409513
245	0x3d4a9558	0.04945883
246	0x3d76d27e	0.060259335
247	0xbe098231	-0.1342857
248	0xbd3d79da	-0.046258785
249	0x3e4e70f5	0.20160277
250	0x3d460745	0.048346777
251	0x3bc2d761	0.0059460853
252	0x3e051b2a	0.12998644
253	0x3cd8bc08	0.026456848
254	0x3e1b16ae	0.1514537
255	0x3e44666a	0.19179693

model.0.bias f4 [128]
0	0xbc50a272	-0.0127340425
1	0xbe0076e6	-0.12545356
2	0x3d62983e	0.05532097
3	0xbe0baa53	-0.13639192
4	0x3e075429	0.13215698
5	0xbc78465b	-0.015153493
6	0x3e18940f	0.1490023
7	0xbe1f7b8d	-0.15574475
8	0xbd126cb1	-0.035748187
9	0x3d2ee925	0.042702813
10	0x3e1b50b1	0.151675
11	0xbe40d920	-0.18832827
12	0xbe196274	-0.14978963
13	0x3d09dde4	0.033658877
14	0xbe13bc5a	-0.14427319
15	0xbe5e62dd	-0.21717401
16	0xbd685ba2	-0.056728013
17	0xbe52c10b	-0.20581453
18	0x3d0e7fff	0.034790035
19	0xbd214eaa	-0.03938166
20	0xbe52ccdd	-0.20585962
21	0xbe045e1b	-0.12926523
22	0xbca5f027	-0.020256115
23	0x3dbaa0db	0.09112712
24	0xbe3b8937	-0.18314062
25	0xbdbe5ab5	-0.09294645
26	0x3d947c8e	0.072503194
27	0x3e03714d	0.1283619
28	0xbc1fccef	-0.00975345
29	0x3cc8ed85	0.02452732
30	0xbe157a1b	-0.14597361
31	0x3e064ce3	0.13115267
32	0xbe4781b8	-0.19483078
33	0x3ddce3ea	0.10785659
34	0xbd8df63b	-0.0693173
35	0xbdf5463c	-0.11976287
36	0xbde0b608	-0.1097222
37	0xbdd495e7	-0.10380154
38	0xbd796f49	-0.060897145
39	0x3e0fec85	0.14055069
40	0xbe3b39e8	-0.18283808
41	0x3cd6856f	0.026186673
42	0xbd2dccd6	-0.042431675
43	0x3cc34e02	0.023840908
44	0x3c1c35ff	0.009534358
45	0xbe4147ab	-0.18874995
46	0xbd21f125	-0.039536614
47	0xbdf6e20c	-0.12054834
48	0xbd2554de	-0.04036414
49	0x3dbcc116	0.09216516
50	0x3c8720fe	0.016495224
51	0x3e23b819	0.15988196
52	0xbe585a81	-0.21128275
53	0x3e4c46f8	0.19948947
54	0xbda254c3	-0.07926323
55	0x3de36cfb	0.11104771
56	0xbe4c8434	-0.19972306
57	0x3da74fc0	0.08169508
58	0x3e21d11f	0.1580243
59	0x3e418bc2	0.1890097
60	0x3d6c36b1	0.057669345
61	0xbddeb00d	-0.10873423
62	0xbe4fbcb6	-0.20286831
63	0x3c341fb6	0.010993889
64	0xbdeb3d3c	-0.11486289
65	0x3d4aba09	0.049493823
66	0x3e452b10	0.19254708
67	0x3e207f85	0.15673645
68	0xbe0397aa	-0.12850824
69	0x3de5910c	0.11209306
70	0xbe003924	-0.12521797
71	0xbe0b9ae7	-0.1363331
72	0x3d9fcc38	0.078026235
73	0x3e35d482	0.17756847
74	0x3d874ef9	0.0660686
75	0xbe3084a5	-0.172381
76	0x3db89d6d	0.090144016
77	0x3dc48753	0.095961235
78	0xbdea68f0	-0.114457965
79	0x3dcfbc05	0.10143284
80	0x3c6b0634	0.014344741
81	0x3e321656	0.17391333
82	0x3dee576f	0.116377704
83	0xbd8380c3	-0.06421044
84	0x3e13e0b6	0.14441189
85	0x3d518147	0.05114868
86	0xbd433701	-0.047659878
87	0xbdf95400	-0.12174225
88	0x3e2cd337	0.16877447
89	0x3e075a4d	0.13218041
90	0xbd3b6dea	-0.04575912
91	0xbc1d42e2	-0.009598466
92	0xbd29678b	-0.041358512
93	0xbd738bd6	-0.05945953
94	0xbe0219bf	-0.12705134
95	0xbe4a8e77	-0.19780909
96	0xbd814536	-0.06312029
97	0xbe3151c9	-0.17316355
98	0x3e45b884	0.19308668
99	0xbcb2fe13	-0.021849668
100	0x3d906d78	0.070521295
101	0xbe2e1eca	-0.17003933
102	0x3dc21013	0.09475722
103	0x3e06897c	0.13138384
104	0x3d5bdffe	0.053680412
105	0x3cf88e5e	0.030341323
106	0xbcc7cd39	-0.02438985
107	0xbbf9159f	-0.0076014544
108	0x3dc5d7ce	0.09660302
109	0xbe1e35e3	-0.15450244
110	0x3e061b24	0.13096291
111	0x3df3b773	0.119002245
112	0x3d0d7c63	0.034542453
113	0xbe3dc3a6	-0.18531665
114	0x3e3fd409	0.18733229
115	0xbdeae90d	-0.11470232
116	0x3d8ef731	0.06980742
117	0xbe461938	-0.19345558
118	0xbd188efe	-0.037245743
119	0x3d3267ab	0.043555897
120	0x3e1dc2e8	0.15406382
121	0xb90893e5	-0.00013025066
122	0xbdae7076	-0.08517544
123	0xbe35abc7	-0.17741309
124	0xbd115894	-0.035484865
125	0xbdf0901f	-0.11746239
126	0x3e427990	0.18991685
127	0xbe443490	-0.19160676

model.2.weight f4 [128, 128]
0	0xbd3a9f3c	-0.045562014
1	0xbc9f8445	-0.01947225
2	0xbb103cfc	-0.0022009006
3	0xbdb26582	-0.08710767
4	0xbd045f33	-0.03231735
5	0xbc0a6664	-0.008447263
6	0x3d3d2ba3	0.046184193
7	0xbd4720b8	-0.048615187
8	0xbd33b8c0	-0.043877363
9	0x3c8ca07f	0.017166374
10	0x3d228ef0	0.039687097
11	0x3da5bf9c	0.08093187
12	0x3d81e865	0.06343154
13	0xbd3aaf3c	-0.045577273
14	0x3daf437b	0.08557793
15	0xbd4a79ed	-0.049432684
16	0xbc7b71ef	-0.015346988
17	0xbda8ff75	-0.082518496
18	0x3d3f1ef2	0.04666037
19	0xbcd51a9b	-0.026013663
20	0x3cafc055	0.021454016
21	0xbd7ca519	-0.061680887
22	0xbc5d10c3	-0.013492766
23	0xbd22df45	-0.039763708
24	0x3d36c5c2	0.04462219
25	0xbc412a3e	-0.0117898565
26	0x3d4bd636	0.049764834
27	0xbda4578a	-0.08024509
28	0x3cbfcbb5	0.023412565
29	0xbd4fa294	-0.050692156
30	0x3d16e4a1	0.03683913
31	0x3dadf413	0.08493819
32	0x3d95b538	0.07309955
33	0xbcd14e21	-0.02554995
34	0x3c428c0b	0.011874209
35	0x3cc4e044	0.02403272
36	0x3da10dff	0.07863998
37	0x3d0b79ca	0.034051694
38	0x3d669c5e	0.056301467
39	0xbcd615c4	-0.026133426
40	0xbd8f097d	-0.069842316
41	0x3d446b14	0.04795368
42	0x3d23cc4a	0.039989747
43	0x3c582456	0.013192257
44	0xbc10f078	-0.008846395
45	0x3d00a79b	0.03140984
46	0x3dad3110	0.084566236
47	0xbc6c65f0	-0.014428601
48	0x3d0702cb	0.032961648
49	0xbc5350cf	-0.012897684
50	0x3d199fe5	0.037506003
51	0x3d23b631	0.039968673
52	0xbda3177b	-0.07963463
53	0xbd0a7bc7	-0.03380945
54	0xbd3dedb1	-0.04636926
55	0x3d9eb5d9	0.077495284
56	0xbda55c90	-0.080742955
57	0xbd3cff8a	-0.04614214
58	0x3d3429b4	0.043985084
59	0x3d2b0876	0.041756116
60	0x3d15383a	0.036430575
61	0x3d9f993f	0.07792901
62	0xbc9ba2de	-0.01899856
63	0xbd0e59f2	-0.034753747
64	0xbcc50e6f	-0.024054734
65	0x3da02925	0.07820348
66	0xbd4b8631	-0.04968852
67	0xbdaad0eb	-0.08340629
68	0x3d2ce5d6	0.042211376
69	0xbd140c02	-0.036144264
70	0x3d63010e	0.055420928
71	0xbda1f756	-0.07908504
72	0xbba6b1ac	-0.005087098
73	0x3d6b7f3d	0.05749439
74	0xbc535a50	-0.01289995
75	0x3d70ec08	0.058818847
76	0xbc62af17	-0.01383569
77	0x3d4ae084	0.04953052
78	0x3d948a4e	0.07252942
79	0x3d836835	0.0641636
80	0x3c82a7e3	0.015949195
81	0xbd077ed8	-0.033079952
82	0xbd2d9ee5	-0.04238786
83	0xbd508d63	-0.050916087
84	0xbdb2afbb	-0.08724924
85	0xbdaf2bef	-0.085533015
86	0xbd9b1238	-0.07571834
87	0xbdb4095c	-0.08790848
88	0xbcc30930	-0.023808092
89	0x3d93382f	0.071884505
90	0x3d7afcd4	0.061276272
91	0xbc447366	-0.011990404
92	0x3d310975	0.04322191
93	0xbd959575	-0.07303897
94	0x3d8af5f9	0.06785197
95	0xbd7a108b	-0.061050933
96	0x3c383eb1	0.011245416
97	0x3d35f8d4	0.044426754
98	0x3db27db7	0.087153845
99	0x3daef9b7	0.08543723
100	0xbd642e9c	-0.055708513
101	0xba578dd6	-0.00082227343
102	0xbccd48d1	-0.025059136
103	0xbd69fb1e	-0.05712425
104	0x3d547d13	0.051877093
105	0xbd8c59bc	-0.06853053
106	0xbcb566e8	-0.022143796
107	0xbc8b94d5	-0.017038742
108	0x3d2cee8c	0.042219684
109	0x3d2f51f8	0.04280278
110	0xbd289ac6	-0.04116323
111	0x3d98d06a	0.07461627
112	0x3ce24ca5	0.027624438
113	0x3d781af0	0.060572565
114	0xbd9ebf78	-0.077513635
115	0xbb60b43c	-0.0034287116
116	0xbd3bc145	-0.045838613
117	0x39ea5e61	0.00044702276
118	0xbd076d62	-0.0330633
119	0x3b569e7b	0.003274827
120	0xbda1c9ed	-0.078998424
121	0xbda522de	-0.08063291
122	0x3d4fea80	0.050760746
123	0xbd142a00	-0.036172867
124	0xbd196b8a	-0.037456073
125	0xbd1d1fc7	-0.038360383
126	0x3c8793de	0.01655
127	0xbda43e03	-0.0801964
128	0xbda24b51	-0.07924522
129	0xbd846771	-0.064650424
130	0xbd6d7d6c	-0.05798094
131	0x3cd415d3	0.025889313
132	0xbd0a1554	-0.033711746
133	0xbc8ce6ec	-0.017199956
134	0x3d024243	0.031801473
135	0x3d2198f0	0.039452493
136	0xbc5c5607	-0.013448245
137	0xbda042cc	-0.078252405
138	0x3dab681b	0.08369466
139	0x3d54947a	0.05189941
140	0xbd3dc30e	-0.046328597
141	0x3d88ab64	0.06673315
142	0x3db5364a	0.088482454
143	0xbd9bd87b	-0.0760965
144	0x3c69899a	0.014253998
145	0x3d56d27a	0.05244682
146	0x3db4bab1	0.08824671
147	0x3d265211	0.04060561
148	0xbb035795	-0.0020041217
149	0x3c771983	0.015081766
150	0xbd6b25ef	-0.057409223
151	0xbcd8cc8c	-0.026464723
152	0xbd585cc4	-0.052822843
153	0x3d1df8db	0.038567405
154	0x3d8334b5	0.064065374
155	0x3d2f23fe	0.042758934
156	0xbd903b82	-0.070426
157	0x3dafccd2	0.08583988
158	0xbcec1ef1	-0.028823348
159	0xbc8e893a	-0.01739942
160	0xbd796508	-0.060887367
161	0xbd030054	-0.031982735
162	0x3d9c5ac0	0.07634497
163	0xbda1904d	-0.07888851
164	0xbd9bfe07	-0.07616811
165	0xbc27c947	-0.010240859
166	0x3da7fb9b	0.08202287
167	0xbd1f4c54	-0.03889115
168	0xbdb3a0fc	-0.0877094
169	0xba1a98d4	-0.0005897407
170	0x3cc2bab8	0.023770675
171	0x3d0c78d1	0.034294907
172	0x3d4dea82	0.050272472
173	0x3dabb97c	0.08384988
174	0xbda076ad	-0.078351356
175	0x3c19dde9	0.009391286
176	0x3c26d420	0.0101824105
177	0xbd93d2c0	-0.07217932
178	0xbd38bbc6	-0.04510095
179	0xbd931ec5	-0.07183603
180	0xbd8e6bd4	-0.0695416
181	0x3c497049	0.012294837
182	0xbcf3918e	-0.029732492
183	0x3d162684	0.036657825
184	0xbd039c42	-0.03213144
185	0x3d41579d	0.047202695
186	0xbd06c71b	-0.032904726
187	0x3d8f1353	0.06986108
188	0x3da4774d	0.08030567
189	0x3db2e12d	0.08734355
190	0x3d93a006	0.072082564
191	0xbd7b1f8c	-0.061309382
192	0xbd34012c	-0.04394643
193	0xbd9cc6da	-0.076551154
194	0x3d0b4587	0.034001853
195	0x3c514b19	0.012774252
196	0x3da89f91	0.0823356
197	0x3d1645db	0.036687713
198	0xbd8b09ea	-0.06789
199	0x3d896ccc	0.067102045
200	0x3cb90924	0.022587366
201	0xbd78e63d	-0.060766447
202	0x3d0d6669	0.034521494
203	0x3d0033ba	0.03129933
204	0xbd3d7f09	-0.04626373
205	0x3d1d0afb	0.03834055
206	0x3d851f5c	0.06500122
207	0x3d1119b5	0.035424907
208	0x3d56abbd	0.052409876
209	0x3c5fee1c	0.01366761
210	0xbd87539e	-0.066077456
211	0x3ca54271	0.020173283
212	0x3da2fdf1	0.07958592
213	0x3dab8132	0.083742514
214	0x3d339315	0.04384144
215	0x3ca3c0a1	0.019989314
216	0x3d4f9713	0.050681185
217	0x3d779a13	0.06044967
218	0x3d91147d	0.07083986
219	0xbd6434ea	-0.055714525
220	0xba934970	-0.0011237096
221	0xbcae826e	-0.021302428
222	0xbd270797	-0.040778723
223	0x3d1559d4	0.03646262
224	0xbd861b5b	-0.065481864
225	0x3c472d57	0.012156806
226	0x3d591ccf	0.05300599
227	0x3c36f04c	0.01116569
228	0xbd453229	-0.04814354
229	0xbd0d3639	-0.03447554
230	0xbd1cdbb3	-0.03829546
231	0xbd9a6b83	-0.075400375
232	0x3cad11a4	0.021126576
233	0xbdaa7150	-0.08322394
234	0x3d965adc	0.07341549
235	0x3d898119	0.067140765
236	0xbd56b706	-0.05242064
237	0xbb572985	-0.0032831144
238	0xbd43b184	-0.047776714
239	0x3cf5cfa5	0.03000624
240	0x3d3ca4c9	0.04605559
241	0xbd8129f3	-0.06306829
242	0x3c215d85	0.009848957
243	0x3d098852	0.03357727
244	0xbd7600db	-0.06005941
245	0x3d3c9902	0.046044357
246	0x3c54c6c5	0.0129868435
247	0xbce92048	-0.028457776
248	0xbd977c5c	-0.073967665
249	0xbae3872e	-0.0017359012
250	0x3d46f469	0.04857293
251	0xbd1b9499	-0.03798351
252	0xbd06415e	-0.032777183
253	0xbd6a8726	-0.057257794
254	0xbbef8366	-0.007309365
255	0xbd5c4025	-0.05377211

model.2.bias f4 [128]
0	0x3d372f80	0.044723034
1	0x3d929cc9	0.07158811
2	0x3d21a8ef	0.03946775
3	0xbc863665	-0.01638336
4	0xbc1ab7e5	-0.009443258
5	0xbd8b39ab	-0.06798109
6	0x3d188fc7	0.03724649
7	0x3cabeb0b	0.0209861
8	0xbd022287	-0.03177121
9	0xbd803d42	-0.06261684
10	0xb9505b6c	-0.00019870483
11	0x3d8d6910	0.06904805
12	0xbdaa0733	-0.083021544
13	0x3d983741	0.07432414
14	0xbd86e0e2	-0.06585862
15	0x3d939731	0.07206572
16	0xbd6ffa66	-0.058588408
17	0xbb760b98	-0.0037543532
18	0xbd928b8b	-0.07155522
19	0x3d515e3a	0.051115252
20	0x3d96cefd	0.07363699
21	0xbd9244d8	-0.07142037
22	0x3d866de6	0.0656393
23	0xbd95db6f	-0.07317244
24	0xbc47f9ef	-0.012205585
25	0xbd2fd3c0	-0.04292655
26	0xbdb367ae	-0.0876001
27	0x3da604f0	0.081064105
28	0x3bbcb867	0.005759287
29	0xbcf3ddd3	-0.02976886
30	0x3bce95a9	0.006304462
31	0xbd18c3c5	-0.037296075
32	0xbdb43b56	-0.0880038
33	0x3d10514c	0.03523378
34	0x3bffc8d5	0.0078059235
35	0x3b41d588	0.0029576737
36	0x3d97091b	0.073747836
37	0xbcbb7414	-0.022882499
38	0xbceeeec5	-0.029166589
39	0xbd82b358	-0.06381863
40	0xbdad6deb	-0.08468231
41	0xbd512b69	-0.05106679
42	0x3d79c379	0.060977433
43	0xbd3d69ca	-0.046243466
44	0xbc257eda	-0.010101045
45	0x3cd9949d	0.026560122
46	0x3d4967b6	0.049171172
47	0xbd06dfb3	-0.03292818
48	0xbd800295	-0.062504925
49	0x3dab126c	0.08353123
50	0x3d88b305	0.0667477
51	0x3cafa11d	0.02143913
52	0xbd71ae5f	-0.059004184
53	0xbcbffcdf	-0.023436008
54	0xbce0d0d6	-0.02744333
55	0xbdad98a0	-0.084763765
56	0x3da0d600	0.07853317
57	0x3bfdf17e	0.0077497354
58	0xbb91bcde	-0.0044475636
59	0x3ce7ae1c	0.028281264
60	0xbd1aef68	-0.03782597
61	0x3d5c7fb9	0.053832743
62	0x3c8bf28c	0.017083429
63	0xbd0b436c	-0.033999845
64	0x3d0e1937	0.034692015
65	0xbc9b66d0	-0.018969923
66	0xbc26d348	-0.010182209
67	0x3d2bb2ac	0.04191844
68	0x3c88d8ce	0.016704943
69	0x3b3acf61	0.0028504955
70	0xbc934fb9	-0.01798235
71	0x3cf399b7	0.029736383
72	0xbbcfcdf0	-0.0063416883
73	0x3d9330b8	0.07187027
74	0x3c670720	0.01410082
75	0xbca5c847	-0.020237101
76	0xbd898f66	-0.06716804
77	0x3d8ea269	0.06964571
78	0xba1357e2	-0.00056207005
79	0x3d7b9541	0.061421636
80	0xbd968619	-0.07349796
81	0x3d9c5345	0.0763307
82	0x3d34a75a	0.04410491
83	0xbd940024	-0.07226589
84	0x3c0556ab	0.008138339
85	0x3d955d00	0.07293129
86	0x3d95d85e	0.073166594
87	0x3ce3ac7f	0.027792213
88	0xbd538f75	-0.051650483
89	0x3b3a829e	0.0028459202
90	0x3db2c44a	0.087288454
91	0x3d4912ae	0.04909008
92	0xbd780572	-0.060552068
93	0xbc7fd65a	-0.01561507
94	0xbd95f2fc	-0.07321736
95	0x3d10ecda	0.03538213
96	0x3daa714a	0.083223894
97	0x3c6c5fea	0.014427165
98	0x3d74cae1	0.059763793
99	0x3c29d314	0.010365266
100	0xbdb55492	-0.08854021
101	0x3c5f9f55	0.013648828
102	0x3d9071be	0.070529446
103	0x3da3500c	0.07974252
104	0xbdb1542a	-0.08658631
105	0x3cb33552	0.021876011
106	0xbcfec052	-0.031097565
107	0xbc08d2bc	-0.008351024
108	0x3d08e1a0	0.033418298
109	0xbd988957	-0.074480705
110	0xbc79d130	-0.015247628
111	0xbd97821c	-0.07397863
112	0x3caf5aee	0.021405663
113	0x3b3b8259	0.0028611629
114	0xbd02a097	-0.03189143
115	0xbcf9c13a	-0.030487645
116	0xbb9f9d39	-0.0048710373
117	0x3d9e5eca	0.07732923
118	0x3db20872	0.08693017
119	0xba27257c	-0.000637613
120	0xbda66a4b	-0.081257425
121	0x3cd048e0	0.025425375
122	0xbce39de4	-0.027785249
123	0xbdae26a9	-0.085034676
124	0x3d61f5dd	0.055166114
125	0x3d321016	0.043472372
126	0x3c007445	0.007840221
127	0x3d8531b0	0.06503618

model.4.weight f4 [50, 128]
0	0x3a057834	0.0005091459
1	0x3cddddd0	0.027083308
2	0xbd3c8843	-0.046028387
3	0x3d1da557	0.03848776
4	0xbd115bff	-0.035488125
5	0xbd2b976f	-0.041892465
6	0xbc7faa46	-0.015604561
7	0x3d373f67	0.0447382
8	0x3d7f7af3	0.062373113
9	0xb8327502	-4.254748e-05
10	0xbc2f69c2	-0.010706367
11	0xbcd3c36e	-0.025850024
12	0xbd85ec6b	-0.06539234
13	0x3d6bea74	0.05759664
14	0x3d7648cb	0.060128015
15	0x3da20726	0.0791152
16	0xbc1b5b2c	-0.009482186
17	0xbd6cea6d	-0.057840753
18	0x3c94da35	0.018170455
19	0xbb0d2b84	-0.002154083
20	0x3d42818e	0.047486834
21	0x3d0e6c6a	0.03477136
22	0x3d7330b0	0.059372604
23	0xbd350072	-0.044189878
24	0xbd8ba575	-0.06818668
25	0x3d0a33e5	0.033740897
26	0x3d5a955b	0.053365093
27	0x3d036866	0.032081984
28	0x3d513e1b	0.05108462
29	0x3d6f4124	0.058411732
30	0x3c027603	0.0079627065
31	0xbbfe37f1	-0.0077581336
32	0x3d746073	0.059662294
33	0xbd856f3e	-0.065153584
34	0xbc31ad72	-0.010844575
35	0x3c9bf947	0.019039763
36	0x3da4a7bb	0.080398045
37	0xbc83471e	-0.016025122
38	0xbd17973e	-0.03700947
39	0xbdb48eab	-0.08816274
40	0x3c1c2ba4	0.009531889
41	0xbd9ed3aa	-0.077552155
42	0xbd06d6e7	-0.03291979
43	0x3da1122e	0.078647956
44	0xbd05db2c	-0.03267972
45	0x3d8c7445	0.06858114
46	0xbd713f19	-0.058898065
47	0xbb025cfd	-0.001989185
48	0xbd595822	-0.053062566
49	0x3cc8b23c	0.024499051
50	0x3d6f8475	0.05847593
51	0xbd83bc37	-0.064323835
52	0x3ced1284	0.028939493
53	0xbbcc2882	-0.006230415
54	0x3d8a05fa	0.06739421
55	0x3d7b0991	0.06128842
56	0x3d0ffc36	0.035152636
57	0xbd47ce64	-0.048780814
58	0x3caedc83	0.021345383
59	0x3d9cf6c0	0.07664251
60	0xbd04ff46	-0.03247001
61	0xbcb353c7	-0.021890534
62	0xbd82191a	-0.06352444
63	0x3d7f50bb	0.06233285
64	0x3d907c48	0.07054955
65	0xbd8299fa	-0.06377025
66	0x3d79abe3	0.06095494
67	0xbc59cd03	-0.0132935075
68	0x3b7ad247	0.0038272308
69	0x3d9dde4c	0.077084154
70	0xba6a99a3	-0.0008949285
71	0x3d607c6b	0.054806154
72	0x3d4f48a0	0.05060637
73	0x3cb29ef5	0.021804312
74	0xbd9f6e99	-0.07784767
75	0xbabac54a	-0.001424947
76	0xbce1f5cb	-0.027583024
77	0xbc080e08	-0.008304127
78	0x3c465c1e	0.012106923
79	0x3d6999d2	0.05703146
80	0x3d202afb	0.03910349
81	0x3a963e2f	0.0011462624
82	0x3d1656a0	0.036703706
83	0xbd54f5ab	-0.0519921
84	0x3d0b0135	0.033936698
85	0x3c7c0621	0.015382321
86	0xbcbe62b2	-0.023240421
87	0x3d4f479f	0.050605413
88	0xbcd0d25e	-0.025490936
89	0xbccf9251	-0.025338324
90	0x3d47fa22	0.04882253
91	0x3cfe5f33	0.031051254
92	0x3d4953fa	0.049152352
93	0x3d34a1d3	0.04409964
94	0x3c9aa8b3	0.01887927
95	0xbd86f2e6	-0.06589298
96	0x3d3de3f2	0.046359964
97	0x3c53a541	0.012917818
98	0xbd1cde09	-0.038297687
99	0xbda0090b	-0.07814225
100	0xbb5b6056	-0.0033474169
101	0xbd954d30	-0.07290113
102	0xbce71a8d	-0.028210903
103	0x3cc88a25	0.024479935
104	0xbda6d478	-0.08145994
105	0x3d2483da	0.040164806
106	0xbd8d70d8	-0.06906289
107	0xbd3b28e5	-0.045693297
108	0x3d0257a5	0.031821866
109	0x3dab7a30	0.08372915
110	0xbbe15741	-0.0068768566
111	0x3d1df02c	0.038559124
112	0xbd413165	-0.047166247
113	0xbca09d03	-0.019606119
114	0xbd8447c7	-0.06459003
115	0xbd2faf46	-0.042891763
116	0x3da2737f	0.079321854
117	0xbcbc747d	-0.023004765
118	0xbb8e619e	-0.004345133
119	0xbd7b92c5	-0.061419267
120	0xbd4f041e	-0.050541036
121	0xbcc01479	-0.023447262
122	0x3d84418b	0.06457814
123	0xbd12cb00	-0.035838127
124	0xbd85e6f3	-0.06538191
125	0x3bbdab31	0.00578823
126	0xbcfcc49c	-0.03085547
127	0x3d406abe	0.046976797
128	0x3d152785	0.036414642
129	0xbd110e52	-0.035414048
130	0x3d5ae6b0	0.053442657
131	0xbd033708	-0.032034904
132	0x3d2477aa	0.040153183
133	0xbc0fcc4d	-0.008776736
134	0x3da91b7b	0.082571946
135	0xbd979671	-0.07401741
136	0x3d21ca71	0.039499704
137	0x3c62a241	0.01383263
138	0xbd45e585	-0.04831459
139	0x3daaefda	0.08346529
140	0x3ce6d780	0.02817893
141	0xbd309caf	-0.043118175
142	0x3c841f6d	0.016128266
143	0x3b54307a	0.0032377527
144	0x3be5926f	0.0070059816
145	0x3cc21507	0.023691667
146	0xbd182764	-0.03714694
147	0x3d303864	0.04302253
148	0xbc6c741d	-0.01443198
149	0x3cdfbbaf	0.027311174
150	0xbd3416fd	-0.043967236
151	0xbce76a8f	-0.028249053
152	0x3d10b289	0.035326514
153	0xbcb4ec57	-0.022085352
154	0x3da37019	0.07980365
155	0xbcdac0c2	-0.026703242
156	0xbd572f88	-0.052535564
157	0xbd838eeb	-0.06423744
158	0x3da40185	0.08008102
159	0x3c9dea70	0.019276828
160	0x3d9b3c86	0.07579903
161	0xbda8efc6	-0.08248858
162	0xbc4608c6	-0.012087053
163	0x3d858144	0.06518796
164	0xbcbaf851	-0.022823485
165	0xbb9d60ad	-0.0048027844
166	0xbdad448e	-0.084603414
167	0xbcbf9ced	-0.023390258
168	0x3ceac2e8	0.028657392
169	0xbcd8adf2	-0.026450131
170	0x3d1c8776	0.038215123
171	0x3d82c4f1	0.0638522
172	0xbd496958	-0.04917273
173	0xbcae8272	-0.021302436
174	0x3c7fcc8f	0.015612735
175	0xbd04c59d	-0.03241502
176	0xbc302e6a	-0.0107532535
177	0x3cedbb0b	0.029019853
178	0x3cf96ef9	0.030448424
179	0x3bee1525	0.007265704
180	0x3cb3fe6e	0.021971907
181	0x3d4ccd7d	0.050000656
182	0x3cdad3b2	0.026712272
183	0xbb498641	-0.0030750188
184	0xbd925ab1	-0.07146204
185	0x3d6bb3ee	0.05754464
186	0xbcfb4043	-0.03067029
187	0xbd212816	-0.03934487
188	0x3cba9023	0.022773808
189	0xbdae891b	-0.085222445
190	0xbdac88e9	-0.08424551
191	0x3d9bcf57	0.07607906
192	0x3d2b7c09	0.041866336
193	0x3d4754e1	0.04866493
194	0xbd79e17b	-0.06100605
195	0x3d46fcb0	0.048580825
196	0x3d869720	0.065717936
197	0x3d9cc2ed	0.07654367
198	0x3d0d2c9c	0.03446637
199	0xbafc2620	-0.0019237436
200	0x3d389e2f	0.04507273
201	0x3d378262	0.044802077
202	0xbccb7bd8	-0.024839327
203	0xbd3226a3	-0.043493878
204	0xbcf85137	-0.030312164
205	0xbb95b5aa	-0.004568775
206	0x3d74193a	0.05959437
207	0xbd4f68d8	-0.050637096
208	0x3c645584	0.013936404
209	0xbd197fe9	-0.0374755
210	0x3c007bab	0.007841985
211	0x3ce77a7a	0.028256644
212	0xbd5c4756	-0.05377897
213	0x3da5b6aa	0.08091481
214	0xbc312ed6	-0.010814389
215	0x3d412654	0.047155693
216	0xbd8ee0aa	-0.06976445
217	0x3c312ac4	0.010813419
218	0xbc148708	-0.009065397
219	0x3ba7ce7e	0.0051210513
220	0xbd27f24d	-0.04100256
221	0xbd8109ae	-0.063006744
222	0xbdacbf34	-0.084349066
223	0xbb126e4c	-0.0022343574
224	0xbd974617	-0.073864155
225	0xbd09cd12	-0.033642836
226	0x3dafefd1	0.08590663
227	0x3c655a64	0.013998602
228	0x3d194979	0.037423585
229	0xbd68bd54	-0.056821182
230	0xbd833db5	-0.06408254
231	0x3d155525	0.036458153
232	0x3d55cbd3	0.052196335
233	0x3d680f6d	0.056655336
234	0x3cf6e996	0.03014068
235	0xbda5f1d5	-0.081027664
236	0x3d86a138	0.06573719
237	0xbd201e3e	-0.03909134
238	0x3c7ee1d0	0.015556768
239	0x3d5f20fa	0.05447481
240	0x3da13392	0.078711644
241	0xbc6ad6b5	-0.014333417
242	0xbda09f80	-0.07842922
243	0x3da8a645	0.082348384
244	0x3d729ec5	0.059233446
245	0x3cedb8a4	0.029018708
246	0xbda04616	-0.07825868
247	0x3ce94a77	0.02847789
248	0x3d91bd6c	0.071162075
249	0xbd30716e	-0.043076925
250	0x3d3781e8	0.044801623
251	0x3b8d0c05	0.0043044114
252	0x3c9a4722	0.018832747
253	0xbcbda112	-0.023148093
254	0xbbdbd3c2	-0.006708593
255	0x3d25d02c	0.04048173

model.4.bias f4 [50]
0	0xbd6ecfd4	-0.05830367
1	0x3da05f24	0.07830647
2	0xbd48aaa8	-0.048990875
3	0x3b7951ff	0.0038043258
4	0xbd08361d	-0.03325473
5	0x3af9a2b4	0.0019045682
6	0x3d589c0e	0.0528832
7	0x3b2b5f93	0.0026149496
8	0x3d38d1a5	0.045121808
9	0x3d2891c2	0.04115463
10	0xbd334d35	-0.043774802
11	0xba359b42	-0.0006927737
12	0x3d8db884	0.06919959
13	0x3c50d1b9	0.012745314
14	0x3d0b966c	0.034079
15	0x3d719a66	0.058985136
16	0x3c6f9b8b	0.014624487
17	0xbd4544c6	-0.04816129
18	0xbd9bb715	-0.076032795
19	0xbb849d78	-0.004047092
20	0x3da52304	0.08063319
21	0xbcf3d8f9	-0.029766547
22	0x3da4cde2	0.080470815
23	0x3d3bf9a2	0.045892365
24	0xbd1ff049	-0.039047513
25	0x3c7283c4	0.014801923
26	0xbc12751d	-0.008939055
27	0x3d10da94	0.035364702
28	0xbcc6d0a5	-0.024269411
29	0x3c58aa24	0.013224158
30	0xbd4211cd	-0.047380257
31	0xbd9424c6	-0.072335765
32	0x3d8e5584	0.069499046
33	0x3d91c3d4	0.071174294
34	0xbd9e489e	-0.077286944
35	0xbca64016	-0.02029423
36	0xbc8f341f	-0.017480908
37	0xbd2dac29	-0.042400513
38	0xbc91a85f	-0.01778048
39	0x3d8a0304	0.067388564
40	0x3d844b00	0.064596176
41	0xbd85df63	-0.06536748
42	0x3db044d3	0.08606877
43	0xbda7da81	-0.08195973
44	0x3c3ab044	0.011394564
45	0x3d5a4bd6	0.05329498
46	0xbd5d9d7b	-0.054105263
47	0x3ba22be8	0.0049490817
48	0x3cfb48e6	0.03067441
49	0xbd3d24e5	-0.046177763
