checkpoints/simple_reference_v3_source/simple_reference_v3_agent_1_ep575.pt (torch, 305209 bytes, 8 tensors)

body.0.weight f4 [256, 21]
-0.0750675 -0.15037622 -0.10296111 -0.047513172 0.069301635 0.20500791 -0.14687267 0.0932312
-0.0145977335 -0.10650838 -0.12210981 0.003471712 -0.22509445 0.009144537 -0.11937945 0.00042461138
0.028208049 -0.087440595 -0.16815075 0.17908575 0.16427203 -0.16372834 -0.02691047 -0.10955846
0.098804906 -0.119089544 0.085948534 0.04334939 0.1816881 0.094543606 -0.0032539926 0.12053498
0.0715923 -0.18057159 -0.11515166 0.09635517 -0.11610787 -0.042458497 -0.170121 0.059260197
-0.030089313 -0.12954736 -0.05432922 -0.054301657 -0.06058017 -0.077264115 0.0713618 0.111796305
-0.19465922 -0.092199296 -0.10684299 0.06004736 -0.051800337 0.1337885 -0.01988529 0.14180683
0.054352686 -0.1358766 -0.091457866 -0.21294229 -0.20999266 0.034595635 -0.056318212 -0.14244935
0.030282943 -0.13813032 -0.0169744 -0.21100985 -0.1926819 -0.12870304 0.20928906 -0.022120824
-0.059098717 0.050096523 -0.18915358 -0.061905626 -0.016717639 -0.17686774 0.10409891 0.057828613
0.17686827 -0.19734909 0.026228184 0.016040014 0.18410462 0.15517847 0.2101796 0.2180778
-0.11624951 -0.19674166 -0.089696474 -0.03366058 0.15152614 -0.21133916 0.11001491 0.12838152
0.0284781 -0.14805505 0.07118663 -0.023847004 -0.02541363 0.06526533 -0.14970066 -0.12122754
0.22140887 -0.20665766 -0.09661982 0.08407044 0.020560877 -0.13950881 0.051939834 0.13282096
-0.1601574 -0.18091305 0.008586804 0.13961361 -0.0563235 0.08515881 0.13204624 -0.030655796
0.10491551 -0.2037182 -0.15249589 -0.031484 -0.048711985 -0.15116557 0.081862025 0.108369246
0.09761997 -0.19691484 -0.20008694 -0.15186135 0.098021224 0.1280355 0.034269214 0.037344776
-0.1352015 -0.19986176 0.108935036 -0.16297828 -0.08622183 0.045678183 0.13722321 0.18479075
0.07133469 -0.0009333639 -0.18998025 0.08507943 -2.4559471e-05 -0.1608542 0.18813214 -0.09357718
-0.19761322 -0.0134376045 -0.20073943 0.0975109 0.13450745 -0.15981212 0.13895085 0.036836714
0.066168934 -0.21294354 0.10617509 -0.15025818 -0.041646484 -0.09546422 0.20276593 0.18722996
-0.05119758 -0.18847023 0.0945656 -0.20757788 0.09563399 0.02375303 0.20463629 -0.17060164
0.2192152 -0.11486663 0.08048896 0.033456024 0.21124925 0.12345699 0.15330711 -0.04779376
-0.14390165 -0.021646706 0.09536017 0.008451569 -0.15425688 0.12591647 -0.19680528 0.07861191
0.20111169 -0.009191804 -0.094090916 -0.07327605 0.18884812 -0.13353355 0.16563064 -0.07266892
-0.036198616 0.005110312 -0.19836779 0.082341574 -0.106976815 -0.105500676 0.12838706 0.20833585
0.20678058 -0.01952278 0.20178138 -0.13534173 -0.110864125 -0.18495771 0.035692662 -0.13054378
0.0077968496 -0.07206717 -0.025297863 -0.13739094 -0.20303887 -0.090406634 0.005282551 0.013894543
0.032228865 -0.18401952 -0.030772517 -0.02628083 -0.09416342 0.1962919 -0.19512142 -0.2152879
0.095481396 -0.13322103 0.1608952 0.050760962 0.13191292 -0.05064763 0.03283174 0.203573
-0.17782076 -0.13444182 0.108651996 0.11505141 -0.035273522 -0.22518043 0.12653702 -0.014553878
0.1878878 -0.05375613 -0.20456748 0.16429059 -0.10992929 -0.16155429 0.03454171 -0.039406158
00000000: fdbc 99bd 39fc 19be 46dd d2bd 2c9d 42bd
00000010: 04ee 8d3d 98ed 513e ca65 16be 00f0 be3d
00000020: 552b 6fbc 1121 dabd b514 fabd aa85 633b
00000030: 297f 66be f8d2 153c 377d f4bd 609e de39
00000040: 9114 e73c 0e14 b3bd b62f 2cbe 4162 373e
00000050: ed36 283e 67a8 27be 5973 dcbc 3060 e0bd
00000060: 3a5a ca3d 38e5 f3bd c905 b03d 218f 313d
00000070: 720c 3a3e 14a0 c13d f040 55bb 0bdb f63d
00000080: fc9e 923d c2e7 38be a2d4 ebbd dc55 c53d
00000090: f7c9 edbd f6e8 2dbd 3334 2ebe d2ba 723d
000000a0: dd7d f6bc 10a8 04be 5188 5ebd 6a6b 5ebd
000000b0: ea22 78bd a63c 9ebd 2326 923d 76f5 e43d
000000c0: bf54 47be fcd2 bcbd 7fd0 dabd 38f4 753d
000000d0: 972c 54bd daff 083e 7ae6 a2bc cf35 113e
000000e0: eca0 5e3d 3c23 0bbe 434e bbbd 8b0d 5abe
000000f0: 5108 57be 27b4 0d3d edad 66bd 3ede 11be
00000100: ef13 f83c 0972 0dbe e60d 8bbc f712 58be
00000110: 674e 45be bbca 03be df4f 563e bb36 b5bc
00000120: 7f11 72bd 0332 4d3d 7ab1 41be c190 7dbd
00000130: 6ef3 88bc d11c 35be cf31 d53d b2dd 6c3d
00000140: f51c 353e e115 4abe 7ddc d63c 5966 833c
00000150: ec85 3c3e 1be7 1e3e 5239 573e c94f 5f3e
00000160: 3914 eebd a576 49be c9b2 b7bd addf 09bd
00000170: ab29 1b3e 4b69 58be 7f4f e13d 7276 033e
00000180: e84a e93c be9b 17be 4cca 913d cb5a c3bc
00000190: 3f30 d0bc d4a9 853d 214b 19be 2546 f8bd
000001a0: 02b9 623e 119e 53be 9de0 c5bd 1f2d ac3d
000001b0: 496f a83c 66db 0ebe ddbe 543d 3802 083e
000001c0: 4d00 24be 4541 39be abaf 0c3c dff6 0e3e
000001d0: 78b3 66bd be67 ae3d 2137 073e dd21 fbbc
000001e0: f1dd d63d 819b 50be e227 1cbe 5ef5 00bd
000001f0: 3886 47bd 26cb 1abe 47a7 a73d b2f0 dd3d
00000200: fbec c73d 0ba4 49be 97e3 4cbe 8b81 1bbe
00000210: 5abf c83d bd1b 033e e05d 0c3d d6f6 183d
00000220: 4372 0abe 90a8 4cbe 5519 df3d c7e3 26be
00000230: 1295 b0bd 0c19 3b3d 3e84 0c3e c939 3d3e
00000240: ec17 923d feac 74ba 2f8a 42be 203e ae3d
00000250: 1005 ceb7 f7b6 24be b6a5 403e 64a5 bfbd
00000260: 1f5b 4abe 6629 5cbc a38e 4dbe cbb3 c73d
00000270: 52bc 093e caa5 23be 2249 0e3e 18e2 163d
00000280: 9483 873d df0d 5abe 5372 d93d 48dd 19be
00000290: 8195 2abd bf82 c3bd dfa1 4f3e 36b9 3f3e
000002a0: 8eb4 51bd 57fe 40be 9cab c13d 4c8f 54be
000002b0: c1db c33d b795 c23c 2d8c 513e 32b2 2ebe
000002c0: f379 603e 323f ebbd 65d7 a43d 2f09 093d
000002d0: b951 583e 05d7 fc3d 8afc 1c3e 64c3 43bd
000002e0: f45a 13be 6f54 b1bc 314c c33d 7378 0a3c
000002f0: 84f5 1dbe 3ff0 003e 5387 49be 48ff a03d
00000300: 39f0 4d3e 3899 16bc bdb2 c0bd c111 96bd
00000310: 6761 413e 05bd 08be 149b 293e 71d3 94bd
00000320: 0045 14bd 6774 a73b ed20 4bbe b3a2 a83d
00000330: a916 dbbd bd10 d8bd e677 033e fe55 553e
00000340: 4abe 533e 3dee 9fbc c79f 4e3e 0697 0abe
00000350: bb0c e3bd 8e65 3dbe 7832 123d 45ad 05be
00000360: b77c ff3b f497 93bd 773d cfbc 36b0 0cbe
00000370: 6ce9 4fbe 1d27 b9bd 4019 ad3b f0a5 633c
00000380: 6a02 043d 9d6f 3cbe a516 fcbc e54a d7bc
00000390: c0d8 c0bd be00 493e e9cd 47be 6e74 5cbe
000003a0: c08b c33d 186b 08be b6c1 243e baea 4f3d
000003b0: 2e14 073e e473 4fbd 937a 063d 7175 503e
000003c0: a516 36be 1eab 09be f084 de3d 13a0 eb3d
000003d0: f87a 10bd b395 66be ec92 013e 6473 6ebc
000003e0: a965 403e 632f 5cbd 237a 51be cb3b 283e
000003f0: 9c22 e1bd 7d6e 25be 9c7b 0d3d 5a68 21bd

body.0.bias f4 [256]
-0.15002504 0.1683388 0.06261904 0.13175082 -0.17611715 0.039146766 0.044077095 0.15802237
-0.07774167 0.14782353 0.08380454 0.08526908 0.19179484 -0.048153516 0.11242477 0.1734336
-0.118882835 -0.0043205325 -0.19117601 -0.19357128 0.08041922 0.0043425527 0.09773972 0.19346192
0.06461287 -0.10409048 -0.09154606 0.08873689 -0.13854444 0.2017616 -0.07746179 -0.105639264
-0.08967952 -0.029071901 -0.15945981 0.17504084 -0.19965012 0.17448044 0.051878177 0.086827934
0.21313672 -0.11999316 0.188094 0.09216977 -0.040423255 0.1261312 0.07305009 0.12725852
-0.1995843 -0.10761222 0.18050198 -0.04721258 -0.111177474 0.17063372 -0.08196861 0.14702018
0.10831711 0.081862725 0.098823965 0.0065499917 -0.036736142 0.012603957 0.14429559 -0.01924745
0.19927819 0.07254215 -0.07056787 -0.20433882 -0.18645799 0.08009735 -0.13512388 0.07714716
-0.09290259 0.09428323 0.1561466 -0.15512072 0.020958517 -0.096927635 -0.10075045 -0.13452548
0.09928513 -0.15643539 0.20735288 0.10406921 0.06460645 -0.057618417 -0.13886943 -0.061201654
-0.09693891 -0.12747175 -0.20144632 0.1661796 0.12918891 0.14284804 -0.15418695 0.17445283
0.1319398 0.094247885 0.12939577 -0.06892746 -0.2142395 -0.17003189 -0.18903935 -0.20900396
-0.084235445 -0.005319773 0.03476766 -0.15928699 0.07588932 0.0682403 0.17058301 -0.1270602
0.07750104 0.1725216 0.06509595 -0.038575623 -0.030550754 0.051609803 -0.20416842 -0.14478488
0.11516197 -0.18736075 0.040861882 0.15305544 0.0036344882 -0.069170356 0.03868946 0.017300861
-0.09249507 0.051461667 0.04610683 0.030635426 0.017927459 -0.1319962 0.18908758 -0.08594734
0.047506753 -0.17596947 0.06629447 0.035588715 -0.017188707 0.11971996 0.07634755 -0.11784479
-0.15734039 0.2194462 -0.11227379 -0.09741172 0.124056354 0.09911516 -0.025331184 0.039129492
0.07268411 -0.10280945 -0.16018891 0.027446412 -0.08026409 -0.09165958 -0.14871357 0.00066135667
-0.123568065 -0.08540167 -0.17008272 0.033630196 0.10370212 -0.080668144 -0.057317648 -0.19364981
-0.11360676 -0.0790062 0.17622857 0.04504772 0.095667295 -0.011397905 -0.13545166 0.07650751
-0.04266918 0.19753991 -0.086809255 -0.123637475 -0.15551168 0.1780439 -0.08275359 0.1602702
-0.036705732 -0.043234106 -0.10358978 -0.14945665 -0.18700786 -0.09906101 -0.16341841 -0.16311085
-0.20473878 -0.20195296 0.058060564 0.16314055 -0.050144687 0.017752647 -0.1785352 0.15682945
-0.051460486 0.15462351 0.070514135 0.002914939 -0.20088859 0.18349263 -0.022069821 -0.21525627
-0.1867056 -0.056126297 0.14110339 -0.08061159 0.17650284 0.030544706 0.0050119893 0.12000287
0.1846716 0.14919692 -0.09979995 -0.123125665 0.00463544 -0.02301264 0.13490652 0.03884663
0.11779581 0.04759018 0.20494826 0.067385264 0.115052894 0.06447173 0.07349588 0.15051444
0.18913254 -0.041820657 0.1759371 -0.19714968 -0.0039611813 0.048329797 -0.16745043 0.09510145
-0.099761866 0.19923662 -0.124921426 0.030665074 -0.13088767 0.067432284 -0.20523788 -0.050681703
0.120909825 -0.05431758 -0.037989974 0.19649062 0.019159792 0.12510055 -0.06535941 -0.060219474
00000000: 2aa0 19be 0261 2c3e 693e 803d b0e9 063e
00000010: 0e58 34be 5c58 203d 2f8a 343d 9ed0 213e
00000020: 0637 9fbd 0d5f 173e b7a1 ab3d 8ea1 ae3d
00000030: de65 443e 9f3c 45bd f53e e63d 9498 313e
00000040: d878 f3bd 4193 8dbb a5c3 43be 8d37 46be
00000050: d5b2 a43d f94b 8e3b c32b c83d e21a 463e
00000060: c153 843d 642d d5bd 807c bbbd b0bb b53d
00000070: 98de 0dbe 989a 4e3e 49a4 9ebd 6659 d8bd
00000080: e5a9 b7bd 3228 eebc 6f49 23be e83d 333e
00000090: 1571 4cbe 00ab 323e 367e 543d d8d2 b13d
000000a0: 8340 5a3e f9be f5bd b79b 403e 81c3 bc3d
000000b0: db92 25bd 8a28 013e 499b 953d 0f50 023e
000000c0: d45f 4cbe cc63 dcbd 83d5 383e fa61 41bd
000000d0: 04b1 e3bd 9bba 2e3e 29df a7bd 758c 163e
000000e0: 5cd5 dd3d a5a7 a73d 3864 ca3d 50a1 d63b
000000f0: a378 16bd d480 4e3c 39c2 133e d4ac 9dbc
00000100: 950f 4c3e fb90 943d e385 90bd 323e 51be
00000110: d8ee 3ebe 140a a43d ea5d 0abe 55ff 9d3d
00000120: b743 bebd 9117 c13d e5e4 1f3e f7d7 1ebe
00000130: 32b1 ab3c ff81 c6bd 4056 cebd 0cc1 09be
00000140: 0156 cb3d 9930 20be 5054 543e 3d22 d53d
00000150: 6350 843d 4a01 6cbd ca33 0ebe 96ae 7abd
00000160: e887 c6bd f487 02be f247 4ebe fc2a 2a3e
00000170: 194a 043e c246 123e 2fe3 1dbe c3a3 323e
00000180: 3a1b 073e 0905 c13d 5380 043e d729 8dbd
00000190: 9961 5bbe d71c 2ebe 8893 41be 2205 56be
000001a0: a283 acbd 7e51 aebb 8968 0e3d 211c 23be
000001b0: dc6b 9b3d 92c1 8b3d 50ad 2e3e 121c 02be
000001c0: deb8 9e3d 81a9 303e 0751 853d 7901 1ebd
000001d0: 9345 fabc cd64 533d 8711 51be 7d42 14be
000001e0: 0ada eb3d 7fdb 3fbe ca5e 273d 91ba 1c3e
000001f0: 9830 6e3b 30a9 8dbd d778 1e3d 89ba 8d3c
00000200: 0e6e bdbd 78c9 523d 84da 3c3d 25f7 fa3c
00000210: 9bdc 923c 032a 07be 2da0 413e 2905 b0bd
00000220: 7196 423d 5731 34be 65c5 873d 79c5 113d
00000230: 55cf 8cbc bd2f f53d 1b5c 9c3d 9c58 f1bd
00000240: d71d 21be 81b6 603e cdef e5bd cc7f c7bd
00000250: 4211 fe3d e4fc ca3d 5883 cfbc 3f46 203d
00000260: 68db 943d c38d d2bd 9008 24be 4cd7 e03c
00000270: 8061 a4bd 05b8 bbbd 5f48 18be e55e 2d3a
00000280: 4111 fdbd 12e7 aebd 2a2a 2ebe d1bf 093d
00000290: c761 d43d 5735 a5bd e9c5 6abd 234c 46be
000002a0: a9aa e8bd 01ce a1bd 4375 343e f583 383d
000002b0: 37ed c33d 47be 3abc d7b3 0abe f8af 9c3d
000002c0: e1c5 2ebd e747 4a3e 0dc9 b1bd a535 fdbd
000002d0: 743e 1fbe 2451 363e b77a a9bd df1d 243e
000002e0: c058 16bd 3f16 31bd e126 d4bd 2a0b 19be
000002f0: fd7e 3fbe 80e0 cabd 2857 27be 8806 27be
00000300: 0ba7 51be c2cc 4ebe ead0 6d3d 510e 273e
00000310: 8464 4dbd 006e 913c eed1 36be e697 203e
00000320: 3bc8 52bd a055 1e3e b769 903d 9008 3f3b
00000330: bdb5 4dbe 7ee5 3b3e c5cb b4bc 246c 5cbe
00000340: c12f 3fbe b0e4 65bd 687d 103e b017 a5bd
00000350: 29bd 343e e438 fa3c 9d3b a43b 11c4 f53d
00000360: 8d1a 3d3e 14c7 183e eb63 ccbd 4f29 fcbd
00000370: e4e4 973b 0185 bcbc ef24 0a3e a51d 1f3d
00000380: ee3e f13d eced 423d f5dd 513e 4901 8a3d
00000390: daa0 eb3d c109 843d 0285 963d 7520 1a3e
000003a0: f6ab 413e 234c 2bbd db28 343e 9be1 49be
000003b0: cccc 81bb 77f5 453d 2078 2bbe 8dc4 c23d
000003c0: f34f ccbd af04 4c3e ced6 ffbd 5235 fb3c
000003d0: 6b07 06be f019 8a3d e129 52be 9e97 4fbd
000003e0: 929f f73d 1c7c 5ebd 609b 1bbd d634 493e
000003f0: fff4 9c3c 5c1a 003e 28db 85bd b2a8 76bd

body.2.weight f4 [256, 256]
-0.05213709 -0.035923287 0.03842128 0.021802193 0.05426364 -0.024610274 -0.05525932 -0.002691848
0.0068991394 -0.036585905 -0.01667852 -0.022637362 -0.038525905 -0.0038645908 -0.012600826 -0.024429794
-0.015155705 0.010429262 0.055266313 0.021828037 0.0037189638 -0.052303724 -0.0053765127 0.05772638
-0.029882438 -0.024395715 0.053979043 -0.05337406 -0.012623169 -0.02891804 -0.03100998 -0.005454208
-0.03518502 0.0024019494 0.024442712 -0.026411662 -0.05359634 -0.03231629 0.024898099 0.035108525
0.01607307 -0.04664298 0.018845195 0.018915623 0.045430277 0.011247962 -0.004307301 0.032173965
-0.049416557 -0.01714968 -0.0030865057 -0.04087891 0.035385698 0.051329914 0.034719888 0.012088801
-0.052257217 -0.038765382 -0.00057053677 -0.0300461 -0.038946368 0.059796706 -0.03981417 -0.014482681
0.013290597 -0.06289911 0.015729224 0.03383728 -0.041166246 -0.029585995 -0.054578982 0.03154949
0.03901332 0.037482128 -0.06064791 0.029412558 0.019347614 0.03472599 -0.050523598 0.002473459
0.01516324 0.019633193 0.05247513 -0.054184876 0.009493924 0.012798788 0.024992775 -0.02756576
0.023325916 0.026180714 0.04197456 -0.004452521 0.063072115 -0.01179979 0.015642451 0.041177176
0.057568733 -0.0030602503 -0.0074651088 0.056504276 0.050149754 -0.037209693 -0.006163186 0.012550174
0.05858704 0.0075521753 -0.0346877 0.055821046 -0.026908116 -0.02028731 -0.0062910137 0.0033157638
0.016017124 -0.01889249 -0.0043933005 0.024506427 0.032457545 0.0610956 0.009199452 0.015067374
-0.064002834 0.008904655 0.009985959 0.006673627 0.025343103 0.04516094 -0.008525283 -0.04821542
0.008281987 -0.041844357 -0.00022242681 0.049194593 0.019012513 -0.033598706 -0.0059014796 0.006487074
-0.05652024 -0.05916278 -0.05360145 -0.0070704767 0.046912473 0.024450226 0.062042963 0.03238302
-0.020182041 -0.0050564758 -0.0027355931 -0.015547549 -0.017364515 0.053163473 -0.040325828 0.0026765587
-0.03888943 0.006721717 0.027483271 0.046991076 -0.056101292 0.037238453 -0.014543329 -0.022327362
-0.07860495 0.04625354 -0.00072967896 0.022479204 -0.026395157 0.030739984 0.0410362 0.0082506435
-0.02504023 -0.04211026 -0.027774744 0.0004710096 0.035153117 0.05889043 0.03914582 -0.026807968
0.03721734 -0.055921063 -0.010973573 -0.008476512 0.007073342 -0.053790525 -0.029525084 0.0130361365
-0.076131284 -0.051092207 -0.04331171 0.01221398 0.039053682 0.017783567 0.0063135433 0.015313662
0.03143957 0.03402596 -0.051938135 -0.01942476 -0.007683385 0.04511313 -0.046328604 0.00160112
0.015134795 -0.037581824 -0.00837704 -0.011898116 0.05591675 0.0107171135 -0.06675048 -0.048163727
0.025246238 -0.04098919 -0.05324995 -0.01953667 -0.04357488 -0.055159416 0.05254084 0.018844524
-0.028327191 -0.07284106 -0.041476026 0.024122784 0.046875652 -0.04369534 0.01762146 -0.018872805
0.04496999 -0.037302677 -0.024006058 0.0470686 0.031828213 -0.057205994 0.005210655 -0.025369352
-0.03920988 0.07733843 0.05834079 0.043902714 0.055168066 0.065063104 -0.04557574 -0.03913428
0.02652271 0.011499012 -0.06482665 0.05162344 -0.00424911 0.038734376 0.046756946 -0.053331807
-0.0087076295 -0.0013204116 0.016995803 -0.0021260688 -0.0077189174 -0.002679707 -0.0063420925 -0.0067012156
00000000: b48d 55bd 4c24 13bd a25f 1d3d 839a b23c
00000010: 8d43 5e3d 7c9b c9bc 9957 62bd b769 30bb
00000020: 2d12 e23b 1adb 15bd 64a1 88bc fd71 b9bc
00000030: 57cd 1dbd 1345 7dbb b273 4ebc fe20 c8bc
00000040: a24f 78bc 7fdf 2a3c ee5e 623d b6d0 b23c
00000050: dcb9 733b 6e3c 56bd 752d b0bb 7f72 6c3d
00000060: 04cc f4bc 86d9 c7bc 2119 5d3d c29e 5abd
00000070: 69d1 4ebc 87e5 ecbc a408 febc 36b9 b2bb
00000080: 2b1e 10bd 066a 1d3b 153c c83c 455d d8bc
00000090: d687 5bbd 165e 04bd 19f7 cb3c f5cd 0f3d
000000a0: acab 833c b60c 3fbd 3d61 9a3c f0f4 9a3c
000000b0: 1915 3a3d 5f49 383c 4224 8dbb d9c8 033d
000000c0: 0469 4abd 7c7d 8cbc f946 4abb a570 27bd
000000d0: 98f0 103d 513f 523d 7136 0e3d 1b10 463c
000000e0: aa0b 56bd 73c8 1ebd 1390 15ba 3d23 f6bc
000000f0: 3a86 1fbd 64ed 743d 2f14 23bd c448 6dbc
00000100: cec0 593c 40d1 80bd 93da 803c f698 0a3d
00000110: f09d 28bd 545e f2bc 368e 5fbd 0a3a 013d
00000120: 6ecc 1f3d dc86 193d f169 78bd 9bf2 f03c
00000130: e37e 9e3c d73c 0e3d d5f1 4ebd c219 223b
00000140: 3d6f 783c cad5 a03c 29f0 563d f6f0 5dbd
00000150: 678c 1b3c 02b2 513c a6bd cc3c 97d1 e1bc
00000160: fe15 bf3c f078 d63c 84ed 2b3d 74e6 91bb
00000170: f42b 813d e853 41bc 9924 803c 66a9 283d
00000180: 31cd 6b3d 7b8e 48bb df9d f4bb 0771 673d
00000190: d469 4d3d 3169 18bd 8df4 c9bb 3f9f 4d3c
000001a0: f7f8 6f3d 3d78 f73b b114 0ebd 9ca4 643d
000001b0: 696e dcbc 9331 a6bc d924 cebb 494d 593b
000001c0: 5836 833c 6cc4 9abc adf5 8fbb b4c1 c83c
000001d0: 34f2 043d 613f 7a3d 4cb9 163c 26dd 763c
000001e0: eb13 83bd d5e4 113c 269c 233c 71ae da3b
000001f0: 579c cf3c aefa 383d a1ad 0bbc 887d 45bd
00000200: 2cb1 073c fd64 2bbd 3e3b 69b9 4580 493d
00000210: 21c0 9b3c cc9e 09bd 3361 c1bb 8591 d43b
00000220: c481 67bd ac54 72bd 328d 5bbd 75af e7bb
00000230: 4b27 403d d74b c83c c320 7e3d 0fa4 043d
00000240: cf54 a5bc cbb0 a5bb a347 33bb 26bb 7ebc
00000250: 0740 8ebc f1c1 593d b22c 25bd 3469 2f3b
00000260: 864a 1fbd d941 dc3b 9924 e13c b779 403d
00000270: 78ca 65bd 5987 183d 2547 6ebc dfe7 b6bc
00000280: a2fb a0bd 5a74 3d3d ed47 3fba 4f26 b83c
00000290: a83a d8bc 6bd2 fb3c 9315 283d b52d 073c
000002a0: 2b21 cdbc cf7b 2cbd dc87 e3bc d7f1 f639
000002b0: b7fc 0f3d 1737 713d 5e57 203d 629c dbbc
000002c0: 3671 183d 7c0d 65bd 80ca 33bc 11e1 0abc
000002d0: 7ec7 e73b 7453 5cbd 97de f1bc 8595 553c
000002e0: b8ea 9bbd 1046 51bd 9f67 31bd 251d 483c
000002f0: c1f6 1f3d d8ae 913c d7e1 ce3b 27e6 7a3c
00000300: c7c6 003d ce5e 0b3d 15bd 54bd ad20 9fbc
00000310: e8c4 fbbb 8cc8 383d 10c3 3dbd acdc d13a
00000320: eef7 773c 66ef 19bd da3f 09bc 51f0 42bc
00000330: f608 653d d596 2f3c 7ab4 88bd 5447 45bd
00000340: 33d1 ce3c 48e4 27bd 9f1c 5abd 5e0b a0bc
00000350: 937b 32bd d7ee 61bd 1035 573d d55f 9a3c
00000360: 6d0e e8bc b22d 95bd c4e2 29bd 259d c53c
00000370: af00 403d e3f9 32bd e15a 903c 249b 9abc
00000380: 7432 383d b1ca 18bd 5aa8 c4bc 01cb 403d
00000390: 4d5e 023d d550 6abd 24be aa3b 63d3 cfbc
000003a0: 8a9a 20bd 9c63 9e3d c1f6 6e3d 55d3 333d
000003b0: e9f7 613d ce3f 853d a1ad 3abd 444b 20bd
000003c0: 2846 d93c 5a66 3c3c d6c3 84bd 1a73 533d
000003d0: 1e3c 8bbb f0a7 1e3d 3684 3f3d 7472 5abd
000003e0: 72aa 0ebc a911 adba c83a 8b3c 8455 0bbb
000003f0: f9ee fcbb 069e 2fbb 54d1 cfbb df95 dbbb

body.2.bias f4 [256]
0.041347776 -0.017627863 -0.050663024 0.03696326 0.003035414 0.023003062 -0.022219421 -0.03486354
0.038182084 -0.0049389955 -0.008074781 -0.05297751 -0.056553252 0.001691563 0.024766633 -0.039771844
0.05596246 -0.05646736 0.0563912 0.030115318 -0.011810972 -0.035247568 -0.0033637078 0.040660392
-0.007908902 0.009471801 0.017571434 -0.019585842 0.04157979 -0.0038541213 -0.005813294 -0.0035482498
-0.017433891 0.023093225 0.013655099 -0.020454299 0.036217242 0.06183502 0.015755488 -0.0132021215
-0.027709594 -0.06507264 -0.04864801 0.015834523 -0.041536532 0.0039400454 0.04626748 -0.027897624
0.03462885 -0.020227907 -0.044588815 -0.01365588 -0.019271506 -0.050673444 -0.013476952 0.05755249
-0.062002216 -0.034734763 -0.01807926 -0.049095668 -0.015249725 -0.023034351 -0.052926157 0.053268466
-0.028374953 0.011282981 0.007706419 -0.013082274 0.01966337 0.042616747 0.042078692 -0.006717978
0.02839135 -0.05812521 -0.06062622 -0.026713623 0.03853434 0.03464965 0.030079221 -0.040512897
-0.04034059 -0.05255484 -0.015338838 -0.011037049 -0.025568359 0.012370856 0.007297815 0.044826142
-0.016867086 -0.030230395 0.0011856764 -0.043819632 -0.0012415918 -0.026936296 -0.026644351 -0.01788253
0.020661462 0.030143358 0.035297625 -0.00016218147 -0.00047881258 0.015529227 0.04939243 0.020919092
0.027508255 0.048681494 -0.038607504 -0.0151506895 -0.050163947 0.049001694 -0.061695486 0.012265309
-0.03195215 0.041707437 0.053260464 0.0037415149 -0.05569868 -0.049350772 -0.049511235 0.052951623
-0.012466478 -0.05506794 0.017553087 0.019981911 -0.017571349 -0.011229645 -0.0033244025 -0.05316948
0.03935839 -0.005302954 -0.025432598 0.02905361 0.047291562 -0.0147298 -0.034521285 -0.008760012
0.03212818 0.06764129 -0.0067166886 -0.0020250303 -0.0015874194 -0.05657863 0.022068363 -0.047653377
-0.01709126 0.038833976 0.0031953014 0.028516598 -0.027783157 -0.03894629 0.05806182 0.017892921
0.029313514 0.02039656 -0.04814624 -0.036596455 0.025714032 -0.03695049 -0.05781569 0.04702593
-0.044926062 0.03717426 0.047822136 -0.0041481513 -0.04439088 -0.042732872 -0.015035865 -0.04617593
-0.022478038 -0.042706367 -0.021080172 0.0482864 -0.033581484 0.02525887 -0.03414071 0.044769444
-0.0072322874 -0.043177985 -0.039682597 -0.008799908 0.050660357 -0.04063398 -0.048795868 0.02274415
-0.00045079988 0.0099042505 -0.006589343 -0.037706893 -0.045831148 -0.037022308 -0.0004000444 0.023611696
-0.022951704 0.04207153 0.055825382 -0.066570036 0.03555467 0.04127748 0.012999707 0.04870207
-0.029613642 -0.038730536 0.066890985 0.051554997 0.038357686 -0.003255997 0.018353382 -0.05623105
0.02066783 -0.066284224 -0.026957413 0.03027837 0.0015528754 -0.018100526 0.024686404 0.048297595
0.02149741 -0.07003786 -0.036918804 -0.034668665 -0.026717925 0.041594446 -0.046759073 0.061936986
-0.0070341406 0.04974747 0.024033295 -0.05150111 -0.012288666 -0.041070797 -0.047682934 0.007190265
-0.03327278 -0.0016736628 -0.038031284 -0.020860752 0.054532904 -0.038155355 -0.00025769058 -0.014016158
0.03179119 -5.3444823e-05 -0.046000477 0.040795255 -0.011417563 0.022789106 0.014802828 -0.06098857
-0.009658137 0.004564941 0.04111603 -0.060114846 0.03341102 0.011025143 0.039418183 -0.029621314
00000000: 495c 293d 4f68 90bc 0884 4fbd ca66 173d
00000010: cced 463b eb70 bc3c 8105 b6bc 12cd 0ebd
00000020: d164 1c3d 4cd7 a1bb 164c 04bc f2fe 58bd
00000030: 62a4 67bd 70b7 dd3a 65e3 ca3c cde7 22bd
00000040: e438 653d 524a 67bd 75fa 663d 66b4 f63c
00000050: cf82 41bc c15f 10bd a771 5cbb 838b 263d
00000060: 5794 01bc 9d2f 1b3c f8f1 8f3c 7d72 a0bc
00000070: 924f 2a3d 6d95 7cbb 727d bebb c189 68bb
00000080: 85d1 8ebc 012e bd3c a3b9 5f3c c68f a7bc
00000090: 8858 143d b846 7d3d a711 813c b64d 58bc
000000a0: 3bff e2bc ce44 85bd 2343 47bd 67b7 813c
000000b0: 3622 2abd 7f1b 813b f882 3d3d 8f89 e4bc
000000c0: fbd6 0d3d ffb4 a5bc c3a2 36bd e9bc 5fbc
000000d0: 47df 9dbc f58e 4fbd 6fce 5cbc 29bc 6b3d
000000e0: 09f6 7dbd 0a46 0ebd f51a 94bc 8a18 49bd
000000f0: fcd9 79bc 89b2 bcbc 19c9 58bd 0930 5a3d
00000100: 9772 e8bc 41dc 383c 2186 fc3b 0957 56bc
00000110: 1315 a13c e68e 2e3d b55a 2c3d 7c22 dcbb
00000120: fa94 e83c b314 6ebd 3353 78bd 87d6 dabc
00000130: 2fd6 1d3d cbec 0d3d b368 f63c daf0 25bd
00000140: 2d3c 25bd be43 57bd c04f 7bbc bdd4 34bc
00000150: bc74 d1bc 21af 4a3c 8222 ef3b 9e9b 373d
00000160: d82c 8abc bca5 f7bc b368 9b3a 377c 33bd
00000170: e8bc a2ba 82a9 dcbc 4145 dabc 627e 92bc
00000180: 3a42 a93c 34ef f63c 3e94 103d 420f 2ab9
00000190: 2309 fbb9 4d6e 7e3c b74f 4a3d 845e ab3c
000001a0: fe58 e13c 3f66 473d e722 1ebd 993a 78bc
000001b0: b678 4dbd 00b6 483d 68b4 7cbd 6ff4 483c
000001c0: 42e0 02bd 6bd5 2a3d a527 5a3d 3434 753b
000001d0: 4d24 64bd 0924 4abd 4bcc 4abd cde3 583d
000001e0: 3340 4cbc ec8e 61bd 7ecb 8f3c 1bb1 a33c
000001f0: caf1 8fbc 8cfc 37bc 38de 59bb 3ec8 59bd
00000200: 4336 213d 67c4 adbb 0658 d0bc d601 ee3c
00000210: ccb4 413d 4255 71bc 3166 0dbd 2786 0fbc
00000220: d798 033d 8487 8a3d ab17 dcbb 5fb6 04bb
00000230: f510 d0ba febe 67bd b6c8 b43c 3030 43bd
00000240: f802 8cbc 6010 1f3d 4368 513b a49b e93c
00000250: 8199 e3bc 2586 1fbd 3bd2 6d3d 2d94 923c
00000260: e522 f03c b016 a73c fe34 45bd 2ae6 15bd
00000270: 3ca6 d23c 6659 17bd 25d0 6cbd 439e 403d
00000280: 6404 38bd 0944 183d 25e1 433d 37ed 87bb
00000290: 36d3 35bd aa08 2fbd fd58 76bc f922 3dbd
000002a0: dd23 b8bc dfec 2ebd 53b0 acbc f6c7 453d
000002b0: bd8c 09bd b1eb ce3c 21d7 0bbd 2a60 373d
000002c0: d3fc ecbb 66db 30bd 388a 22bd 7d2d 10bc
000002d0: 3c81 4f3d d16f 26bd 2dde 47bd f151 ba3c
000002e0: 5659 ecb9 7045 223c 6aeb d7bb 8b72 1abd
000002f0: 71b9 3bbd b4a4 17bd 0dbd d1b9 516d c13c
00000300: 3605 bcbc 3253 2c3d 28a9 643d df55 88bd
00000310: c6a1 113d 9312 293d b9fc 543c d27b 473d
00000320: 4f98 f2bc e9a3 1ebd 24fe 883d 552b 533d
00000330: f31c 1d3d 9162 55bb d559 963c 8852 66bd
00000340: 954f a93c 06c0 87bd cbd5 dcbc 580a f83c
00000350: da89 cb3a 8e47 94bc 243b ca3c b3d3 453d
00000360: 561b b03c 0270 8fbd 2c38 17bd bb00 0ebd
00000370: 8ddf dabc f05e 2a3d 7186 3fbd a3b1 7d3d
00000380: a67e e6bb 01c4 4b3d 79e1 c43c d4f2 52bd
00000390: 6756 49bc da39 28bd 2e4f 43bd 519c eb3b
000003a0: 0a49 08bd ce5e dbba b1c6 1bbd 2be4 aabc
000003b0: e55d 5f3d ca48 1cbd a51a 87b9 07a4 65bc
000003c0: 7b37 023d f129 60b8 ff6a 3cbd ed18 273d
000003d0: bb10 3bbc 38b0 ba3c 9087 723c 27cf 79bd
000003e0: 2a3d 1ebc 8095 953b 4869 283d fc3a 76bd
000003f0: fed9 083d cda2 343c f674 213d 66a8 f2bc

move_head.weight f4 [5, 256]
0.057942003 -0.025569918 -0.021473698 0.010437136 -0.03383339 0.033746228 0.025089888 -0.039773487
-0.017336711 0.044822864 0.06329226 0.00807147 -0.021021208 -0.004509517 0.03440024 -0.022798337
0.044387206 -0.013987544 -0.037444558 0.021504022 0.038737316 0.0049086465 -0.045733005 0.0053743883
-0.02491924 -0.0008622715 -0.03510459 0.03200132 0.006619235 -0.0045861187 -0.029497676 -0.016149096
0.0016849382 0.019239603 0.031686313 -0.02829524 -0.057878688 -0.040857796 0.023552157 -0.019008946
0.06099854 0.030150378 -0.060746185 -0.006281046 -0.03601184 -0.029243074 0.041719012 -0.043661736
0.02228452 0.038694452 0.036188543 -0.030484121 -0.028973171 -0.05464464 0.033448927 0.031205362
-0.037574038 -0.054629985 0.026523326 0.048728243 -0.044731904 0.008431629 0.037099354 0.058129683
0.021857679 -0.025539804 0.015665716 -0.04050718 5.089101e-05 -0.008912016 0.021499911 -0.002481627
-0.027455231 -0.038686544 0.010207367 0.05079222 0.05995456 -0.02564243 0.049413137 -0.035510924
0.0018434279 0.006353701 0.016377289 -0.01505904 0.027487261 0.02940135 0.026131298 0.04343256
-0.007671881 -0.0220122 -0.025146572 0.039610777 -0.0034966485 0.05366977 0.00029439415 -0.008016428
0.004636412 -0.010985449 0.022608694 -0.02560864 -0.018389149 -0.017771007 0.046175428 -0.053439956
-0.023755427 -0.02302597 0.010378266 -0.046498284 -0.04391154 0.0029401085 -0.046457134 -0.006997266
0.025044166 -0.052026752 0.021888483 -0.011404685 0.028456058 -0.054606404 0.062869675 -0.04515825
0.05501026 0.019409731 -0.053447098 0.039629612 0.0044966983 0.033318195 0.056263667 -0.04829049
-0.023225999 0.016198097 -0.059421305 -0.057182126 -0.051621348 -0.016732227 -0.03481171 0.03275333
0.033189118 -0.013169353 -0.015750848 0.013855744 0.043704223 -0.02214775 -0.0015527222 -0.05155284
-0.00885951 -0.052770313 0.0011858075 -0.035299614 -0.023744458 0.00026357803 -0.053017 -0.017106665
0.04814526 -0.009687526 0.0056908745 -0.05388273 -0.0432113 0.039372407 0.03154246 0.04005382
-0.023524554 -0.043672755 0.012373424 -0.041258544 0.007469858 0.026028855 0.010832327 0.029393055
-0.023112321 -0.040695246 0.044730596 -0.009848404 -0.03140489 -0.040848676 0.019746725 0.03345843
0.05406614 0.053685796 -0.016616913 0.043398436 0.05014751 -0.028038112 0.030874478 0.049974997
-0.0560639 -0.03534572 -0.03163067 -0.011671795 0.028343799 0.01123505 0.056305535 0.035904843
0.027725654 -0.02510377 0.0011121137 -0.06481869 -0.019530024 -0.045118753 -0.039495807 0.0053755557
0.024407951 0.0284174 0.057318375 -0.035078682 -0.0126626 0.052048117 -0.057957854 0.004955623
0.044397146 -0.039191514 -0.05252893 -0.0036267077 -0.01854114 0.05625411 -0.010942251 -0.027749637
-0.059716698 -0.04741186 -0.015655123 0.033677097 -0.033009544 0.003719872 0.0014404622 -0.020600434
0.011334898 -0.0020062248 0.014526042 -0.0039601587 -0.0014440985 0.04608294 -0.056159858 0.019294716
0.032537058 0.043737378 -0.049204122 0.040061574 0.050847713 0.0467207 0.044805825 0.016341724
0.0051163295 -0.038103186 -0.028184531 0.0012054348 0.046442997 0.03432768 0.037085786 0.015471519
-0.023576036 0.05284471 -0.0012310181 0.031493258 -0.051628377 0.03451019 0.02446598 -0.009517902
00000000: 9854 6d3d 0178 d1bc 9ce9 afbc 8500 2b3c
00000010: e194 0abd 7c39 0a3d 4f89 cd3c 86e9 22bd
00000020: b805 8ebc 2e98 373d 5f9f 813d 333e 043c
00000030: ab34 acbc 92c4 93bb 44e7 0c3d 94c3 babc
00000040: 5ccf 353d 032c 65bc 775f 19bd 3429 b03c
00000050: 05ab 1e3d b6d8 a03b 8852 3bbd a31b b03b
00000060: 6f23 ccbc 100a 62ba d5c9 0fbd d113 033d
00000070: 2be6 d83b 2747 96bb 1ca5 f1bc 1c4b 84bc
00000080: 25d9 dc3a 5f9c 9d3c 82c9 013d 6bcb e7bc
00000090: 3412 6dbd 815a 27bd 74f0 c03c a6b8 9bbc
000000a0: 9bd9 793d edfd f63c fed0 78bd 3cd1 cdbb
000000b0: 2781 13bd 2c8f efbc 8ee1 2a3d a6d6 32bd
000000c0: 078e b63c 137e 1e3d 703a 143d d6b9 f9bc
000000d0: 2559 edbc 0fd3 5fbd be01 093d 63a2 ff3c
000000e0: 3ce7 19bd b1c3 5fbd 7247 d93c 4497 473d
000000f0: cd38 37bd d124 0a3c 7ef5 173d 6419 6e3d
00000100: e00e b33c da38 d1bc 6355 803c dbea 25bd
00000110: ce73 5538 b403 12bc 9520 b03c cba2 22bb
00000120: cbe9 e0bc c875 1ebd cd3c 273c 810b 503d
00000130: ea92 753d 1310 d2bc 6e65 4a3d e773 11bd
00000140: 2d9f f13a b532 d03b aa29 863c 31ba 76bc
00000150: f72c e13c 1adb f03c 4e11 d63c 57e6 313d
00000160: 6764 fbbb ee52 b4bc 2f00 cebc e93e 223d
00000170: 0728 65bb d5d4 5b3d ea58 9a39 5657 03bc
00000180: 0bed 973b 50fc 33bc de35 b93c 36c9 d1bc
00000190: d7a4 96bc 8194 91bc 7222 3d3d dbe3 5abd
000001a0: be9a c2bc f6a0 bcbc 9a09 2a3c fc74 3ebd
000001b0: 96dc 33bd d6ae 403b d649 3ebd 5249 e5bb
000001c0: 6c29 cd3c 011a 55bd 7a4f b33c b7da 3abc
000001d0: ae1c e93c f7aa 5fbd d1c1 803d dbf7 38bd
000001e0: 7052 613d 2801 9f3c 58eb 5abd a952 223d
000001f0: 0a59 933b a978 083d bb74 663d 40cc 45bd
00000200: 7344 bebc dfb1 843c c163 73bd ce37 6abd
00000210: e870 53bd 0612 89bc b996 0ebd 5b28 063d
00000220: 50f1 073d 45c4 57bc ec07 81bc 3403 633c
00000230: 3303 333d 336f b5bc b684 cbba 1229 53bd
00000240: 7a27 11bc af25 58bd 196d 9b3a 5496 10bd
00000250: bd83 c2bc d830 8a39 5b28 59bd 4723 8cbc
00000260: f733 453d 6eb8 1ebc 847a ba3b 23b4 5cbd
00000270: 55fe 30bd f644 213d ab32 013d 790f 243d
00000280: 91b6 c0bc 34e2 32bd e7b9 4a3c b8fe 28bd
00000290: b6c5 f43b 773a d53c 137a 313c b4c9 f03c
000002a0: 0d56 bdbc 0fb0 26bd 6e37 373d 335b 21bc
000002b0: 6aa2 00bd f150 27bd e2c3 a13c b50b 093d
000002c0: 7574 5d3d a3e5 5b3d 3120 88bc 8fc2 313d
000002d0: 7a67 4d3d 2fb0 e5bc 79ec fc3c 95b2 4c3d
000002e0: 43a3 65bd acc6 10bd 298f 01bd 0e3b 3fbc
000002f0: 4131 e83c 3713 383c a2a0 663d f510 133d
00000300: e920 e33c 6ca6 cdbc 58c4 913a a9bf 84bd
00000310: 6efd 9fbc 71ce 38bd 5bc6 21bd 6e25 b03b
00000320: 2ff3 c73c 9bcb e83c acc6 6a3d aaae 0fbd
00000330: cb76 4fbc 6830 553d 3765 6dbd c762 a23b
00000340: c8d9 353d 4887 20bd 9328 57bd 0fae 6dbb
00000350: 97e3 97bc b66a 663d 2147 33bc 3553 e3bc
00000360: 7f99 74bd f032 42bd 2c3f 80bc fff0 093d
00000370: 0435 07bd 19c9 733b e4cd bc3a 3ec2 a8bc
00000380: 02b6 393c de7a 03bb a3fe 6d3c 38c4 81bb
00000390: e847 bdba 77c1 3c3d e107 66bd f40f 9e3c
000003a0: 9445 053d f725 333d 438a 49bd 9b17 243d
000003b0: b145 503d 345e 3f3d 5086 373d 14df 853c
000003c0: e2a6 a73b 1612 1cbd 3fe3 e6bc aeff 9d3a
000003d0: 033b 3e3d 2e9b 0c3d 44e7 173d 417c 7d3c
000003e0: 8822 c1bc b273 583d 1d5a a1ba 13ff 003d
000003f0: 4778 53bd 8f5a 0d3d e16c c83c f9f0 1bbc

move_head.bias f4 [5]
0.0063536554 -0.018984137 -0.04532423 -0.017981293 0.0038223318
00000000: 5332 d03b 9f84 9bbc e6a5 39bd 814d 93bc
00000010: 1680 7a3b

comm_head.weight f4 [10, 256]
-0.06822071 -0.0029618891 -0.0114784725 -0.03848589 0.04395781 0.01346421 0.018890768 0.02716181
-0.011046318 0.013913699 0.030475387 -0.029450236 -0.008938807 0.02459881 -0.021213511 -0.005026309
-0.0347194 0.010628756 -0.017579392 0.02686369 -0.028710563 -0.014208608 -0.021341406 -0.0311692
-0.014196919 -0.035813354 -0.03680412 0.07690027 0.015710462 0.04134224 -0.043029767 -0.038759522
-0.005663623 -0.047211956 0.038212724 -0.024412902 -0.059063457 -0.03451494 -0.045812894 -0.049452145
-0.004509223 -0.010077696 -0.058318824 0.05080712 0.009471666 -0.06011948 0.059662346 -0.011484883
0.054062326 -0.009379123 -0.037387665 -0.0079709245 0.034543917 0.03505693 0.02813335 -0.050673626
-0.01901956 -0.032572128 0.050128292 0.059810277 0.01207011 0.025170939 -0.04759279 0.01563713
0.057904344 0.03262096 -0.020255115 0.029861217 0.058586296 0.030160835 0.014462218 0.015010386
0.04773928 0.041345943 0.05340535 0.011410356 0.057515163 0.0007766553 0.014249895 -0.041578256
0.039867695 -0.04155328 -0.008641487 6.40287e-05 0.024338765 0.04221087 0.0042168736 -0.020216871
-0.0052463715 -0.042619284 0.0016268251 0.051433083 -0.051305883 -0.045101594 -0.07295594 0.0437331
-0.030463383 -0.023611223 -0.040724006 -0.06274808 -0.009186246 0.035485484 -0.045177482 -0.061540682
-0.037177294 -0.0036628796 0.033838347 -0.038764574 0.028454151 -0.014792876 0.03140369 -0.05450949
0.015710728 0.010739003 0.02809467 -0.050624717 -0.015349869 -0.061200395 0.013381169 0.0061021815
0.028456597 0.019373767 0.020017708 -0.051053476 0.030424284 -0.05983066 -0.02697691 0.037488207
-0.008683811 -0.013254501 0.056502394 0.0042920825 0.037942555 0.04975776 0.0016483534 -0.049538273
0.038147528 -0.0016190163 0.056063384 0.010005664 -0.011703647 -0.0056251106 0.011485456 -0.059598435
-0.013390238 0.028702153 0.04143235 -0.015875984 -0.009335144 0.0009192761 0.0018737067 -0.05853562
0.00186388 0.053105537 0.00095124036 -0.007051743 0.02619676 -0.04161984 -0.015687954 -0.027664294
0.036346238 0.050790515 -0.026243925 -0.05685147 -0.062356915 0.028396774 -0.039750118 0.026565718
-0.02435925 0.026602207 -0.026211165 -0.0025744413 0.05738614 0.03446786 0.047096863 0.0063430564
-0.0012985341 -0.0354519 0.04740838 -0.063496 0.0025971772 0.021157807 0.010068353 0.04009621
0.045915835 0.02382903 0.023537586 -0.043735676 -0.026668638 0.058757976 -0.027518181 0.0032694037
0.03186965 -0.055117372 -0.020058243 0.008901809 -0.059046846 -0.0018940888 0.057262257 -0.017486433
-0.022071162 -0.054018144 0.028648214 0.033900682 -0.034415375 0.030512163 4.8487716e-05 -0.035008304
0.047922343 -0.013211876 -0.075074784 0.047913335 -0.044072565 0.03177066 0.04519242 -0.018358452
0.005763801 0.070948794 -0.05246723 0.007063546 0.014257757 -0.07091671 0.00091460877 -0.00840234
-0.06229868 0.01457728 -0.031522065 -0.04277917 0.030943964 -0.013061222 -0.02580504 -0.03409012
-0.012733816 0.0419097 -0.028778661 -0.04389747 -0.023217967 -0.0050038607 0.023767669 -0.036234718
0.04604818 0.007542017 0.005799191 -0.050439235 0.018066514 0.024837336 0.0016430257 0.041425265
0.04449033 0.021524109 -0.053043026 0.007349772 -0.0518584 -0.048288975 0.07525216 -0.041993957
00000000: 4db7 8bbd 411c 42bb 3410 3cbc 61a3 1dbd
00000010: 1b0d 343d fd98 5c3c d0c0 9a3c 7282 de3c
00000020: 9efb 34bc 49f6 633c 85a7 f93c 9f41 f1bc
00000030: 1374 12bc 7283 c93c f5c7 adbc bcb3 a4bb
00000040: ee35 0ebd 3c24 2e3c a802 90bc 3e11 dc3c
00000050: 6a32 ebbc 39cb 68bc 2cd4 aebc 8d56 ffbc
00000060: 329a 68bc 06b1 12bd ebbf 16bd e47d 9d3d
00000070: 3ab3 803c 7b56 293d fb3f 30bd 4ec2 1ebd
00000080: ea95 b9bb 5361 41bd f284 1c3d 91fd c7bc
00000090: 86ec 71bd 8a5f 0dbd 4da6 3bbd 558e 4abd
000000a0: 1bc2 93bb ec1c 25bc b8df 6ebd 201b 503d
000000b0: 0c2f 1b3c d83f 76bd 8160 743d 172b 3cbc
000000c0: 7570 5d3d e5aa 19bc cf23 19bd 7b98 02bc
000000d0: ec7d 0d3d db97 0f3d e977 e63c 268f 4fbd
000000e0: e9ce 9bbc 5a6a 05bd 5353 4d3d 9ffb 743d
000000f0: b6c1 453c 4933 ce3c a8f0 42bd 7019 803c
00000100: 1b2d 6d3d 8e9d 053d 0eee a5bc 839f f43c
00000110: 2ff8 6f3d db13 f73c f0f2 6c3c 1fee 753c
00000120: 438a 433d 5d5a 293d 91bf 5a3d 80f2 3a3c
00000130: 0595 6b3d 7498 4b3a 6478 693c f64d 2abd
00000140: 4f4c 233d c633 2abd 0695 0dbc 2647 8638
00000150: 1762 c73c 4ee5 2c3d b32d 8a3b da9d a5bc
00000160: c1e9 abbb 8f91 2ebd 313b d53a 7fab 523d
00000170: 1e26 52bd 73bc 38bd ed69 95bd 7b21 333d
00000180: 588e f9bc 536c c1bc 37ce 26bd 1182 80bd
00000190: e981 16bc 3a59 113d 060c 39bd 1512 7cbd
000001a0: 3847 18bd ec0c 70bb 149a 0a3d 9ac7 1ebd
000001b0: ae18 e93c d25d 72bc 28a1 003d 5845 5fbd
000001c0: c9b3 803c a5f2 2f3c cb26 e63c dd5b 4fbd
000001d0: 047e 7bbc 44ad 7abd b13c 5b3c cff4 c73b
000001e0: cf1d e93c bcb5 9e3c 2dfc a33c 731d 51bd
000001f0: 593c f93c fe10 75bd aefe dcbc 3c8d 193d
00000200: 8b46 0ebc 6829 59bc 0e6f 673d 99a4 8c3b
00000210: a769 1b3d cbce 4b3d 900d d83a a5e8 4abd
00000220: 9540 1c3d 2c35 d4ba b8a2 653d ccee 233c
00000230: a7c0 3fbc d952 b8bb 7e2d 3c3c 7d1d 74bd
00000240: bb62 5bbc c720 eb3c f8b4 293d 5a0e 82bc
00000250: 6ff2 18bc 93fb 703a 2a97 f53a 0cc3 6fbd
00000260: 6f4d f43a 3185 593d a95c 793a 4f12 e7bb
00000270: 969a d63c 9179 2abd 0684 80bc 3ba0 e2bc
00000280: cbdf 143d b709 503d 80fd d6bc 16dd 68bd
00000290: f769 7fbd 5aa0 e83c 05d1 22bd 59a0 d93c
000002a0: 0d8d c7bc dfec d93c ccb8 d6bc f5b7 28bb
000002b0: bb0d 6b3d 2c2e 0d3d a4e8 403d 6ad9 cf3b
000002c0: 9333 aaba 0336 11bd 4a2f 423d 310a 82bd
000002d0: 6735 2a3b 2353 ad3c bcf5 243c ec3b 243d
000002e0: 3e12 3c3d 1935 c33c e5d1 c03c 2e24 33bd
000002f0: 3078 dabc 34ac 703d cf6d e1bc 7e43 563b
00000300: c089 023d c1c2 61bd 2f51 a4bc e5d8 113c
00000310: 1bdb 71bd 1343 f8ba d48b 6a3d b53f 8fbc
00000320: 95ce b4bc 2142 5dbd a9af ea3c 71db 0a3d
00000330: 23f7 0cbd a5f4 f93c 4a5f 4b38 de64 0fbd
00000340: 384a 443d a076 58bc cfc0 99bd c640 443d
00000350: 6f85 34bd f421 023d b01b 393d 7764 96bc
00000360: 44de bc3b 9a4d 913d e1e7 56bd 5275 e73b
00000370: 5e99 693c c83c 91bd 5bc2 6f3a f8a9 09bc
00000380: e72c 7fbd 8bd5 6e3c 481d 01bd 3639 2fbd
00000390: 327e fd3c bcfe 55bc 1765 d3bc 15a2 0bbd
000003a0: 7fa1 50bc 81a9 2b3d 3ac1 ebbc d5cd 33bd
000003b0: 9b33 bebc 6df7 a3bb 6ab4 c23c db6a 14bd
000003c0: 049d 3c3d 0623 f73b 2407 be3b 5f99 4ebd
000003d0: 3a00 943c ab77 cb3c cb5a d73a 8aad 293d
000003e0: 7e3b 363d 5453 b03c a543 59bd 5bd6 f03b
000003f0: 7969 54bd a9ca 45bd ce1d 9a3d db01 2cbd

comm_head.bias f4 [10]
0.021595845 0.042364832 0.042680785 0.04059842 -0.074557625 0.0122973565 -0.04792599 -0.04798343
0.04001081 -0.036228105
00000000: c5e9 b03c bf86 2d3d 0cd2 2e3d 874a 263d
00000010: abb1 98bd da7a 493c 0b4e 44bd 468a 44bd
00000020: 60e2 233d ec63 14bd
