checkpoints/simple_reference_v3_source/simple_reference_v3_agent_0_ep125.pt (torch, 305209 bytes, 8 tensors)

body.0.weight f4 [256, 21]
0	0x3e4f1fe1	0.20227005
1	0x3e3518d8	0.17685258
2	0x3de9daad	0.11418662
3	0x3a49f5bd	0.00077041594
4	0xbd19bb05	-0.03753187
5	0xbe032905	-0.12808616
6	0x3e35dff9	0.1776122
7	0xb90109f2	-0.00012306104
8	0xbd02b9a8	-0.031915337
9	0x3db6b8ed	0.089219905
10	0xbe327bfd	-0.1743011
11	0x3e551a77	0.20810877
12	0xbe32416f	-0.17407773
13	0xbd91782f	-0.07103001
14	0x3de563ea	0.11200698
15	0xbe32e3b2	-0.17469671
16	0x3d0b69da	0.034036495
17	0xbcecab89	-0.028890388
18	0x3db7292a	0.08943398
19	0x3e27c3fc	0.16383356
20	0xbded27b2	-0.11579837
21	0xbe103cd9	-0.14085712
22	0x3e242f7e	0.16033742
23	0xbcf8a48e	-0.030351903
24	0xbd1868f6	-0.037209474
25	0xbe56d0ad	-0.20978041
26	0x3ccd7d50	0.025084168
27	0x3e14c9d4	0.14530116
28	0x3e25be75	0.16185935
29	0x3e31c192	0.17358997
30	0xbd4814b6	-0.048847876
31	0x3e13c5b5	0.14430888
32	0xbd14588e	-0.036217265
33	0xbe3a2450	-0.18177915
34	0xbd831ed2	-0.06402363
35	0xbd9c6f47	-0.07638412
36	0xbe45da6c	-0.19321603
37	0xbe1ebea7	-0.15502416
38	0x3cdbfef5	0.026854971
39	0x3e5a4e14	0.21318847
40	0x3d0711e5	0.03297605
41	0xbdcdff80	-0.100584984
42	0xbe0ad537	-0.13557898
43	0xbd3ee513	-0.04660518
44	0xbe414d32	-0.18877104
45	0x3dbd0c75	0.092308916
46	0xbe09df62	-0.1346412
47	0xbde056bd	-0.10954044
48	0xbc01bea4	-0.007918987
49	0x3daf4c0e	0.08559428
50	0xbe22efd4	-0.159118
51	0x3dbd35a3	0.09238746
52	0x3e148c5d	0.1450667
53	0x3d6cf09e	0.057846658
54	0xbc3b15ba	-0.011418754
55	0xba35a7bd	-0.0006929597
56	0x3e18c38d	0.14918347
57	0xbe591cfc	-0.21202463
58	0x3e20787e	0.15670964
59	0xbdc78d9f	-0.09743809
60	0x3e093ce4	0.13402134
61	0xbc6e5be5	-0.014548277
62	0x3e148fea	0.14508024
63	0x3df2d6d2	0.1185738
64	0x3e377907	0.17917262
65	0xbd3ece0a	-0.046583213
66	0x3dde4786	0.10853486
67	0x3e449d4a	0.19200626
68	0xbde57154	-0.11203256
69	0x3c8c801d	0.017150933
70	0x3e578038	0.21045005
71	0xbe1686d1	-0.14699866
72	0x3e29517e	0.16534993
73	0x3d8cd51a	0.068765834
74	0xbe3b74d7	-0.1830629
75	0xbd0122d0	-0.03152734
76	0xbd65912a	-0.056046642
77	0xbb72433b	-0.0036966342
78	0x3e202051	0.15637328
79	0xbda69362	-0.0813358
80	0xbe0dfc0d	-0.13865681
81	0xbe3eb7a8	-0.18624747
82	0x3de192fe	0.11014365
83	0xbd7ef78b	-0.062247794
84	0x3dbb1ef4	0.09136763
85	0xbe0bd7f0	-0.13656592
86	0x3e2920cc	0.16516417
87	0xbdea6783	-0.114455245
88	0xbdad1f0d	-0.08453188
89	0xbe12b408	-0.14326489
90	0x3dd99ba3	0.106253885
91	0x3d69713c	0.056992754
92	0xbe19a66d	-0.15004893
93	0x3d29f826	0.04149642
94	0xbe1896cd	-0.14901276
95	0xbd3d8ec6	-0.046278737
96	0x3e168d57	0.14702354
97	0x3e3911a5	0.18073137
98	0xbe226267	-0.1585785
99	0xbdd4ea57	-0.10396259
100	0xbc7cee44	-0.015437666
101	0xbce0818d	-0.027405525
102	0x3e47f3c3	0.19526581
103	0x3d9c7efb	0.07641407
104	0xbe4a4ed9	-0.1975664
105	0xbda708c1	-0.081559666
106	0xbc72bd6f	-0.014815672
107	0x3da8b769	0.08238108
108	0xbd84a63c	-0.06477019
109	0xbd9b1cd5	-0.07573859
110	0xbbd76fc3	-0.0065746023
111	0x3c29cd57	0.010363898
112	0x3de6e4c7	0.112741046
113	0x3e23acea	0.1598393
114	0xbe2d6de7	-0.16936456
115	0xbd89c146	-0.06726317
116	0x3d8fd684	0.070233375
117	0x3dde2788	0.10847384
118	0xbe4b8e64	-0.19878536
119	0x3dd33fb5	0.103148855
120	0xbcaa2b4d	-0.0207726
121	0xbd89cace	-0.06728135
122	0x3e3fd07d	0.18731876
123	0xbb9e9556	-0.0048395796
124	0xbe092b7a	-0.13395491
125	0xbde3393d	-0.11094902
126	0xbd82f8fe	-0.06395148
127	0x3e5de42e	0.21669075
128	0xbe5b3724	-0.21407753
129	0x3e3d9e76	0.1851748
130	0xbe4a7349	-0.1977054
131	0x3c4604f7	0.012086145
132	0x3d289419	0.041156862
133	0x3e2cf0f5	0.16888793
134	0x3d88034b	0.06641253
135	0x3de3f27b	0.11130234
136	0xbe4002d7	-0.18751083
137	0xbe1f3e36	-0.15551075
138	0xbe4d68bc	-0.20059484
139	0x3de9370f	0.11387455
140	0xbde508e1	-0.11183334
141	0xbe1f6335	-0.15565188
142	0x3db5fa1b	0.088855945
143	0x3e349dfc	0.17638391
144	0x3d110836	0.03540822
145	0xbd7b68c6	-0.061379217
146	0xbc7f4057	-0.015579305
147	0x3e33e7f7	0.17568956
148	0x3e2ff676	0.17183861
149	0xbe524163	-0.20532756
150	0x3e0a2165	0.13489302
151	0xbe4cf778	-0.20016277
152	0x3c38fe80	0.011291146
153	0x3c859eb7	0.016311033
154	0x3dc1d28c	0.09463987
155	0xbe1f2461	-0.15541221
156	0x3da66522	0.08124758
157	0x3ad9ea58	0.0016625626
158	0xbe0efb98	-0.13963163
159	0x3d45db64	0.04830493
160	0xbd1457bf	-0.036216494
161	0x3cd8adab	0.026449999
162	0xbe048a66	-0.1294342
163	0x3d96b1d9	0.073581405
164	0x3dfb2775	0.12263385
165	0xbdba29d0	-0.09090006
166	0x3bc318f1	0.005953901
167	0x3d922759	0.07136411
168	0x3dfcf81c	0.123520106
169	0xbdf32d52	-0.118738785
170	0x3dab6a1f	0.0836985
171	0x3e0d6dc2	0.138114
172	0x3c9f9c72	0.019483779
173	0xbdae4dc1	-0.08510924
174	0x3d45d249	0.048296247
175	0x3ba54fb0	0.0050449
176	0xbdea888d	-0.11451826
177	0xbe27da79	-0.16391934
178	0x3c8cb714	0.017177142
179	0xbd4b8f15	-0.049697
180	0x3d71ce30	0.059034526
181	0xbe1ed680	-0.15511513
182	0x3d954d13	0.07290091
183	0x3e256f80	0.16155815
184	0x3de89e8b	0.11358365
185	0x3babd71c	0.005244149
186	0x3be23eef	0.006904475
187	0x3d96995e	0.07353471
188	0x3db925db	0.090404235
189	0xbe4a0b07	-0.19730769
190	0x3e1720d7	0.14758621
191	0xbdcefdac	-0.10106978
192	0x3e5816e2	0.21102479
193	0xbe3ef6a5	-0.18648775
194	0xbe2b025a	-0.16700116
195	0xbe31671f	-0.17324494
196	0xbbf8ef95	-0.00759692
197	0x3be3a0a0	0.006946638
198	0xbc99984d	-0.01874938
199	0xbde1ad10	-0.11019337
200	0x3d0262df	0.031832572
201	0x3d3c7add	0.04601561
202	0xbcd3e423	-0.02586562
203	0x3dbf75cc	0.0934864
204	0xbe0102bc	-0.125987
205	0xbe0df1b8	-0.1386174
206	0x3e206f65	0.15667494
207	0x3e0716bb	0.13192265
208	0x3c052185	0.008125667
209	0x3dcd3be8	0.10021192
210	0xbddd91fc	-0.1081886
211	0xbe420e36	-0.18950734
212	0x3c37bcc9	0.0112144435
213	0xbe0dd4b2	-0.13850668
214	0xbe0a2889	-0.13492025
215	0x3e179e58	0.14806497
216	0x3dde5fd8	0.108581245
217	0x3e2daa7a	0.16959563
218	0xbd8f5135	-0.06997911
219	0xbdeb1830	-0.11479223
220	0x3d9b54be	0.07584523
221	0x3d9394b8	0.072061
222	0xbe56bfbf	-0.20971583
223	0x3e383890	0.17990327
224	0xbcacb1c6	-0.021080863
225	0x3d055e7a	0.032560803
226	0x3e24f112	0.16107586
227	0x3e4d96ee	0.20077106
228	0x3dc3aefb	0.09554859
229	0x3d4ce94d	0.05002718
230	0xbd23c88c	-0.03998618
231	0xbe2f61ca	-0.17127147
232	0x3d74a7f2	0.059730478
233	0x3c522180	0.01282537
234	0xbdbb752e	-0.091532096
235	0x3b1ca013	0.0023899123
236	0xbc9e8432	-0.019350145
237	0x3e2ad715	0.1668361
238	0x3e022989	0.12711157
239	0x3db8e3e4	0.09027842
240	0x3e3ae138	0.18249977
241	0xbe1cd6c0	-0.15316296
242	0xbe2369ed	-0.15958376
243	0xbde68f1a	-0.11257763
244	0xbdfb09c9	-0.12257726
245	0xbddee22e	-0.10882984
246	0xbe3950d1	-0.18097235
247	0x3d6f3183	0.058396827
248	0x3ce6a17a	0.02815317
249	0xbd6e67e8	-0.05820456
250	0xbdc3eca2	-0.095666185
251	0xbe1a32fd	-0.15058513
252	0xbe5256ea	-0.20540968
253	0x3d9649bb	0.07338282
254	0x3d990c3a	0.07473035
255	0xbe5ce713	-0.21572523

body.0.bias f4 [256]
0	0xbdf005f2	-0.11719884
1	0x3de330cd	0.110932924
2	0xbe18560f	-0.14876579
3	0x3c362cae	0.011119051
4	0xbda5e3a5	-0.081000604
5	0xbe4fff57	-0.20312248
6	0x3d56a092	0.052399226
7	0xbdffce6a	-0.12490542
8	0x3deb53ae	0.1149057
9	0xbdaaaa0b	-0.08333214
10	0xbc921098	-0.017830178
11	0xbd21e539	-0.039525244
12	0xbd9c3473	-0.076271914
13	0xbdb6ba38	-0.08922237
14	0xbd9bf5b7	-0.07615226
15	0x3d428cc9	0.047497544
16	0x3dde4d08	0.10854536
17	0xbe59598b	-0.21225564
18	0x3e156c37	0.14592062
19	0xbd85a16f	-0.06524932
20	0xbdc0f9fa	-0.09422679
21	0xbe11ff8f	-0.14257644
22	0xbd20794b	-0.039178174
23	0x3e43b3b7	0.19111525
24	0xbc549348	-0.012974568
25	0x3e5778d8	0.21042192
26	0x3d605549	0.054768834
27	0x3e1376a2	0.14400724
28	0x3e0a06a9	0.13479103
29	0x3e1f0466	0.15529022
30	0x3df6450c	0.120248884
31	0xbe633d5f	-0.2219138
32	0xbcc17374	-0.023614623
33	0x3d10307d	0.035202492
34	0xbd960ef9	-0.073270746
35	0x3e094bab	0.13407771
36	0xbe03c51f	-0.12868164
37	0x3e4c4496	0.19948038
38	0x3e15304f	0.1456921
39	0x3d6364d4	0.05551608
40	0xbd661504	-0.056172386
41	0xbdcd4e01	-0.10024644
42	0x3dc69ea3	0.09698226
43	0xbdaffc02	-0.085929886
44	0xbd85b4e9	-0.065286465
45	0x3e20a7e3	0.15689044
46	0xbc8bf322	-0.017083708
47	0xbddf5845	-0.10905508
48	0xbe6c0fea	-0.23052946
49	0x3e30065e	0.17189929
50	0x3d9cdd27	0.07659369
51	0xbded8857	-0.115982704
52	0xbd2922e5	-0.041293044
53	0xbe3283cc	-0.17433089
54	0x3e3a8999	0.18216552
55	0xbc3e19a1	-0.01160279
56	0x3da6e70c	0.081495374
57	0xbc892c54	-0.01674477
58	0xbd0dd154	-0.03462346
59	0xbcf7886c	-0.030216418
60	0x3c5865e2	0.0132078845
61	0x3dd08907	0.10182386
62	0xbb5ecc4c	-0.0033996282
63	0x3e45c4a7	0.19313298
64	0x3da38478	0.07984251
65	0xbe2f9e0c	-0.17150134
66	0xbe247204	-0.16059119
67	0x3e120d1b	0.14262812
68	0x3d8e504a	0.06948908
69	0x3de333f2	0.11093892
70	0xbe4afe9c	-0.19823688
71	0xbe32f115	-0.17474778
72	0x3dabfba7	0.08397608
73	0x3e5ab492	0.21357945
74	0xbe40cd1d	-0.18828245
75	0x3e50aaff	0.2037773
76	0xbd051dba	-0.032499053
77	0xbd66b1a8	-0.05632177
78	0xbce25737	-0.027629478
79	0xbe1cc657	-0.15310036
80	0x3d49910d	0.049210597
81	0x3cea0edf	0.028571544
82	0x3d8ff1ad	0.07028518
83	0x3d6e8e2f	0.058241066
84	0xbd1dfc6a	-0.0385708
85	0x3e0fbdbf	0.14037226
86	0x3e078c09	0.13237013
87	0xbd2cad00	-0.042157173
88	0xbd7d410f	-0.061829623
89	0xbe18b3c5	-0.14912327
90	0xbd954565	-0.072886266
91	0x3e1327fe	0.14370725
92	0x3e498ab1	0.19681813
93	0xb84b4348	-4.8461632e-05
94	0x3e2786f5	0.16360076
95	0xbdd39fd3	-0.103332184
96	0x3c4108e5	0.011781906
97	0x3d956ae8	0.072957814
98	0xbe34c605	-0.17653663
99	0x3dff252c	0.12458262
100	0xbd837d33	-0.06420364
101	0x3e5d5833	0.21615677
102	0x3d9ec874	0.07753077
103	0xbda7a7c8	-0.081862986
104	0x3d9bcfc0	0.076079845
105	0x3baca0f9	0.005268213
106	0xbe381bd6	-0.17979369
107	0xbd0d10d7	-0.034439888
108	0x3dcb735d	0.09934113
109	0x3d73c6e9	0.059515867
110	0x3d424b81	0.047435287
111	0xbdb22ae6	-0.086995885
112	0x3d3c4709	0.045966182
113	0x3d95edd2	0.07320751
114	0x3d89388c	0.067002386
115	0x3de842f4	0.11340895
116	0x3c5d89cd	0.013521624
117	0x3dd30e8d	0.1030551
118	0x3e0dbf9a	0.13842621
119	0x3e3a57d7	0.1819757
120	0x3e360a61	0.17777397
121	0x3dfa2195	0.122134365
122	0x3e3e8ca0	0.18608332
123	0xbde7134c	-0.112829775
124	0xbdc39be3	-0.095512174
125	0xbe0541cf	-0.13013385
126	0x3e080b67	0.132856
127	0xbd699b25	-0.057032723
128	0xbe502f21	-0.20330478
129	0x3d8417a6	0.06449823
130	0xbcc33da3	-0.023833102
131	0x3da98bf5	0.08278648
132	0x3da3f28e	0.08005248
133	0xbe1064b6	-0.14100918
134	0xbe300ad1	-0.17191626
135	0xbe25f186	-0.16205415
136	0xbe041cd5	-0.12901624
137	0x3e34aec9	0.176448
138	0x3e3948ba	0.18094149
139	0x3e020bc4	0.126998
140	0x3cfdcd41	0.030981662
141	0xbe148cb6	-0.14506802
142	0x3d17085c	0.036873206
143	0xbda0d606	-0.07853322
144	0xbdf632e7	-0.120214276
145	0x3e313d01	0.17308427
146	0xbce4f230	-0.027947515
147	0x3e124c77	0.14286982
148	0x3bddad88	0.0067650713
149	0xbcfe415b	-0.031037023
150	0x3c88de31	0.016707512
151	0x3e053d46	0.13011655
152	0xbe18bcc8	-0.14915764
153	0xbe2746a1	-0.16335537
154	0xbd18eb01	-0.037333492
155	0x3db78032	0.08959998
156	0x3ce93179	0.028465973
157	0xbe4fb65d	-0.2028441
158	0xbe2400f9	-0.16015996
159	0xbddff621	-0.10935617
160	0x3e1c7ea7	0.15282689
161	0x3e54cc70	0.20781112
162	0x3d26ade7	0.04069319
163	0x3df3bf9f	0.11901783
164	0xbda9fe97	-0.08300512
165	0x3e555378	0.20832622
166	0x3e555e44	0.2083674
167	0xbe5a970b	-0.21346681
168	0xbe14862e	-0.1450431
169	0x3e025ece	0.12731478
170	0x3d3de949	0.046365056
171	0xbe2a28b7	-0.16617094
172	0xba87bd9a	-0.0010356188
173	0x3d82b4d8	0.063821495
174	0xbb9dca09	-0.0048153442
175	0xbdafd25d	-0.085850455
176	0xbe0ffb5f	-0.14060734
177	0x3e58a326	0.21155986
178	0xbdb9064a	-0.09034403
179	0xbda23ac2	-0.079213634
180	0x3d93e14a	0.07220705
181	0xbe265c38	-0.16246116
182	0xbdf74cfb	-0.1207523
183	0x3db8c4f4	0.09021941
184	0x3e3829a2	0.17984632
185	0x3e4d7c2a	0.20066896
186	0xbe182736	-0.14858708
187	0xbe47b8d5	-0.19504102
188	0xbe3efc71	-0.18650986
189	0xbe557a39	-0.20847405
190	0x3dfbfb58	0.123037994
191	0x3df07cea	0.117425755
192	0xbe5e7a62	-0.21726373
193	0x3e2ae764	0.16689831
194	0x3e2d21df	0.16907452
195	0x3e482414	0.19545013
196	0xbc5b79da	-0.013395751
197	0xbd1eb3d0	-0.0387457
198	0x3d470d09	0.048596416
199	0x3be527f6	0.006993289
200	0xbdf4d07b	-0.11953827
201	0x3e535c51	0.20640685
202	0xbe049fd4	-0.12951595
203	0x3d976ff2	0.07394399
204	0xbe113df8	-0.14183795
205	0x3e188f8d	0.1489851
206	0xbd38ad9e	-0.04508745
207	0x3dae1e54	0.085018784
208	0x3e22e8c5	0.15909107
209	0xbe54318b	-0.20722024
210	0xbe0ba41d	-0.13636823
211	0xbe4f5f7b	-0.20251267
212	0x3e31dcb6	0.17369351
213	0xbdf74941	-0.12074519
214	0xbd3bd734	-0.04585953
215	0x3e511975	0.20419867
216	0xbd99bff3	-0.075073145
217	0x3e16603c	0.14685148
218	0xbe148a4e	-0.14505884
219	0x3bf51c7b	0.007480202
220	0x3dbc6044	0.09198049
221	0xbd17a7b2	-0.03702516
222	0x3e528d75	0.20561774
223	0xbe19c2bb	-0.1501569
224	0x3e110e6e	0.1416566
225	0x3da564d5	0.08075873
226	0xbdeba8a1	-0.11506773
227	0x3e2af47f	0.1669483
228	0x3e41ffae	0.1894519
229	0x3e417572	0.18892458
230	0xbe5258b4	-0.2054165
231	0x3d962c61	0.07332683
232	0xbe505fce	-0.20349047
233	0x3e5db719	0.21651877
234	0x3d37c8ad	0.044869114
235	0x3d0f5865	0.03499641
236	0x3e19f019	0.15032996
237	0xbafddcae	-0.0019368136
238	0x3c739463	0.014866921
239	0x3d3ebeb2	0.04656858
240	0xbe26f56c	-0.16304559
241	0xbdc039e4	-0.09386042
242	0xbde8e4b3	-0.11371746
243	0x3e3d1cb3	0.18467979
244	0x3e4134eb	0.18867843
245	0x3d81251e	0.06305908
246	0x3dcabba9	0.098990746
247	0xbe43064f	-0.19045375
248	0x3c3ec2d0	0.011643127
249	0xbd7a67a5	-0.061134
250	0xbbb1b8fd	-0.0054236636
251	0xbe4f5030	-0.20245433
252	0x3b54b7c0	0.0032458156
253	0xbc74fada	-0.014952386
254	0x3e1dda06	0.154152
255	0x3d4387b1	0.047736827

body.2.weight f4 [256, 256]
0	0xbc713404	-0.014721874
1	0x3c746ac7	0.014918036
2	0x3cbcae12	0.023032222
3	0xbb3b278c	-0.0028557507
4	0x3d0791b8	0.033097953
5	0x3d1e34e2	0.03862465
6	0xbd7736e5	-0.060355086
7	0x3cd0b1f1	0.025475474
8	0xbcf48613	-0.029849088
9	0xbc5e1cc9	-0.013556668
10	0x3d59d6d2	0.053183384
11	0xbd57d53a	-0.052693583
12	0x3c044295	0.008072515
13	0x3d6f4d79	0.058423493
14	0xbd6f9888	-0.058495075
15	0x3d864557	0.06556194
16	0xbd2a628c	-0.041597888
17	0xbd5fd3a0	-0.05464518
18	0xbd0f0560	-0.034917235
19	0xbc760e73	-0.015018093
20	0xbc21ffb7	-0.009887627
21	0xbc0a35fe	-0.008435724
22	0x3b480c41	0.0030524882
23	0xbce33052	-0.027733002
24	0xbc802664	-0.015643306
25	0x3cb072ee	0.021539178
26	0x3d649092	0.055801935
27	0x3b9129bf	0.0044300254
28	0xbccc8799	-0.024967002
29	0x3c26924c	0.010166716
30	0x3d0bb194	0.0341049
31	0x3d41edfa	0.047346093
32	0x3c8e9125	0.017403195
33	0xbd51e9e1	-0.051248435
34	0xbd51590c	-0.051110312
35	0xbd3897cb	-0.045066636
36	0x3d0fafd3	0.03507979
37	0xbcfb9f3d	-0.03071558
38	0xbcc40875	-0.023929814
39	0xbd4a5cf4	-0.049405053
40	0x3b3dabc5	0.0028941494
41	0xbc8bf5c5	-0.017084965
42	0x3d0631c4	0.032762304
43	0x3d0cee0a	0.0344067
44	0xbd367e96	-0.044554316
45	0xbd588c3f	-0.052868124
46	0xbcbcc0c3	-0.023041135
47	0x3cd7cc09	0.026342409
48	0x3d80e238	0.06293148
49	0x3a9712d0	0.0011525992
50	0xbba7b2e2	-0.00511776
51	0x3bd9d07f	0.006647169
52	0x3d367b47	0.04455116
53	0x3d118574	0.03552766
54	0xbd16ea4d	-0.03684454
55	0x3d38898e	0.045053057
56	0x3cc6c534	0.024263956
57	0xbd5d8773	-0.054084253
58	0x3d38d49d	0.04512464
59	0x3d3b4a0f	0.045724925
60	0xbd751c07	-0.059841182
61	0x3cca6ae4	0.024709173
62	0xbccbec84	-0.024893053
63	0xbc0f1ac9	-0.008734413
64	0x3d36ecd6	0.044659458
65	0x3d3a1e36	0.045438968
66	0x3cea43e2	0.028596822
67	0x3c8e3ab6	0.01736198
68	0xbcb39661	-0.021922292
69	0x3d1f9ee0	0.038969874
70	0xbca7e4bf	-0.020494817
71	0x3b68f5e9	0.0035546965
72	0x3cc8d8ca	0.024517436
73	0xbd02b2ac	-0.031908676
74	0xbd549f60	-0.051909804
75	0x3cc3c34c	0.023896836
76	0x3d89023e	0.06689881
77	0xbbc1b58e	-0.0059115356
78	0xbd4295df	-0.04750621
79	0xbb0f91a1	-0.002190687
80	0x3a68f889	0.0008887132
81	0x3d33f6e6	0.043936633
82	0x3cbd8d3e	0.023138639
83	0x3c0c732f	0.008572384
84	0x3d098738	0.03357622
85	0xbd4d4792	-0.050117083
86	0xbc96966b	-0.018382272
87	0x3c9c5f18	0.019088313
88	0x3c9cb394	0.019128598
89	0xbc910838	-0.017704114
90	0xbd2c6927	-0.04209247
91	0x3cfa1e98	0.030532166
92	0x3cd32668	0.02577515
93	0x3d33285c	0.04373966
94	0x3d0e1d23	0.034695756
95	0x3d75eb6a	0.06003896
96	0xbc5662a7	-0.013085044
97	0xbc15822b	-0.009125273
98	0xbcba6158	-0.022751495
99	0x3d738bb6	0.05945941
100	0x3c97889e	0.018497761
101	0x3cdf5cfa	0.027266014
102	0x3cacc52a	0.021090109
103	0x3d4829c4	0.048867956
104	0x3c875ba8	0.016523197
105	0x3a6bc5a2	0.0008993988
106	0xbba1dda6	-0.0049397526
107	0x3cbe5e26	0.023238253
108	0x3cf5848c	0.02997043
109	0x3cc596ca	0.024119753
110	0x3d0ba547	0.034093168
111	0x3b693fa0	0.0035590902
112	0xbd248243	-0.04016329
113	0xbc5f0cdc	-0.013613906
114	0x3cfb730e	0.03069451
115	0xbd64d70e	-0.055869155
116	0x3d50b155	0.050950367
117	0xbd26efa1	-0.04075587
118	0x3c3f417f	0.01167333
119	0xbcad5a29	-0.021161156
120	0xbd0afaca	-0.033930577
121	0xbc7dda9c	-0.015494015
122	0x3c88a22b	0.01667889
123	0xbd16a28b	-0.036776107
124	0x3cb7f341	0.02245486
125	0x3c91170f	0.01771119
126	0xbd135cf1	-0.035977308
127	0xbd3715ab	-0.0446984
128	0xbcd4f2da	-0.025994707
129	0x3d568298	0.052370638
130	0xbd1eb14b	-0.0387433
131	0x3d118639	0.035528395
132	0x3d3f3967	0.046685603
133	0x3d502fa3	0.05082668
134	0x3c8acef8	0.016944394
135	0x3d5879d5	0.052850563
136	0x3c89fc15	0.016843835
137	0x3d2cb578	0.04216525
138	0x3d887c2c	0.06664309
139	0xbcd8541e	-0.026407298
140	0x3cc09479	0.023508297
141	0xbc37dc5c	-0.011221971
142	0x3b726a04	0.003698946
143	0xbcf317c2	-0.029674415
144	0xbba5aefa	-0.005056259
145	0xbd550a83	-0.052011978
146	0x3d000ed0	0.031264126
147	0x3d159617	0.03652009
148	0x3d479bbb	0.0487325
149	0x3d662ce3	0.05619515
150	0x3aadbe81	0.0013255627
151	0x3be5d667	0.007014084
152	0xbd2b85eb	-0.04187576
153	0xbd08e334	-0.033419803
154	0xbd303345	-0.043017644
155	0x3d6c9428	0.05775848
156	0x3c9fc6d7	0.019503994
157	0x3cca1650	0.024668843
158	0x3c715701	0.014730216
159	0xbd026b0b	-0.031840365
160	0xbd144dcb	-0.036207
161	0x3d72ad47	0.05924728
162	0xbd644fc3	-0.05574013
163	0xbcf57afa	-0.029965866
164	0x3d3c4edf	0.045973655
165	0x3c53e463	0.01293287
166	0x3c677deb	0.014129142
167	0x3d1c5e27	0.03817573
168	0x3bf696de	0.007525309
169	0xbd174d7a	-0.03693912
170	0xbd26944a	-0.040668763
171	0xbbd8a41b	-0.00661136
172	0x3d016072	0.031586118
173	0x3d8036e3	0.06260469
174	0xbc297290	-0.010342255
175	0xbd767e4b	-0.060179036
176	0x3d28f2b3	0.04124708
177	0x3d1e71aa	0.038682617
178	0xbccf8734	-0.025333025
179	0xbb83ea77	-0.004025753
180	0x3ce788c0	0.02826345
181	0xbcc8b4a6	-0.024500202
182	0x3c3726c2	0.011178674
183	0xbca0a12c	-0.019608103
184	0xbc375749	-0.011190244
185	0x3cc503a1	0.024049582
186	0xbcd3c8d5	-0.0258526
187	0xbbad087c	-0.0052805524
188	0xbd64b091	-0.05583245
189	0xbd121c9a	-0.035671808
190	0xbc9cb6cc	-0.019130133
191	0x3cd2e20e	0.025742557
192	0xbcb2a881	-0.021808865
193	0x3d58fead	0.052977253
194	0xbcdc3339	-0.026879894
195	0x3d0456d3	0.032309365
196	0x3d301ea2	0.042997964
197	0x3d780365	0.060550112
198	0x3cf95646	0.030436646
199	0x3d162a65	0.036661524
200	0x3d0a4a4a	0.033762254
201	0xbcb96aaa	-0.02263387
202	0xbc8527a3	-0.016254252
203	0xbb23d366	-0.002499783
204	0x3cf4bbac	0.029874645
205	0x3c98497b	0.018589726
206	0x3d866c88	0.065636694
207	0x3d8944e0	0.0670259
208	0x3d0f3fdc	0.03497301
209	0x3c8c5853	0.01713196
210	0xbd45e9fe	-0.048318855
211	0x3cc20bef	0.023687331
212	0x3bb59d78	0.0055424534
213	0xbb72ab93	-0.0037028536
214	0x3ca790fb	0.020454874
215	0x3ba8f9fb	0.005156753
216	0xbc6bb097	-0.014385364
217	0xbc6f0f7c	-0.014591094
218	0xbc5032ff	-0.012707471
219	0xbd571662	-0.05251158
220	0x3aac406f	0.0013141761
221	0x3d858a21	0.065204866
222	0x3ce67bc4	0.028135188
223	0xbc3c1f3b	-0.011482055
224	0x3d47f4b3	0.048817348
225	0xbc1f4181	-0.009720207
226	0xbbd93552	-0.0066286707
227	0x3d66022e	0.056154422
228	0x3d6e2bd9	0.058147285
229	0xbce31eaf	-0.027724592
230	0xbc9578e9	-0.018246131
231	0x3cc997f7	0.024608595
232	0x3cd5bada	0.026090074
233	0xbcd00053	-0.02539078
234	0x3ce873e2	0.02837557
235	0x3ca96d82	0.0206821
236	0x3c88a5db	0.016680649
237	0xbd050d4d	-0.032483388
238	0xbc748f1c	-0.014926698
239	0x3d4ddef6	0.05026146
240	0xbd1d7224	-0.03843893
241	0xbd68803c	-0.05676292
242	0xbd4894e0	-0.048970103
243	0xbd23981a	-0.039939977
244	0x3d11c0b3	0.035584163
245	0x3d262049	0.040558133
246	0xbd73086e	-0.05933421
247	0x3d73bd9c	0.059506997
248	0x3c8ba7fc	0.017047875
249	0xbd4b228e	-0.0495935
250	0xbd1b942a	-0.037983097
251	0x3d58f301	0.05296612
252	0xbce639d9	-0.028103756
253	0xbd1b901c	-0.03797923
254	0x3d067215	0.03282364
255	0xbae16610	-0.0017196555

body.2.bias f4 [256]
0	0xbd6bc832	-0.057563968
1	0xbd410628	-0.04712501
2	0x3d68ee7d	0.056868065
3	0xbbc5eeab	-0.0060404143
4	0xbcb960ad	-0.022629106
5	0x3d15472f	0.03644484
6	0x3d4f5875	0.05062147
7	0x3d6c8ce2	0.057751544
8	0x3c9d1b82	0.019178156
9	0x3c89cbbd	0.016820783
10	0xbd4a2b19	-0.049357507
11	0x3c9d4f91	0.01920298
12	0xbd42d192	-0.047563143
13	0x3d417fea	0.04724113
14	0x3ccf42d9	0.02530043
15	0xbce3683e	-0.027759667
16	0x3cc24f56	0.023719471
17	0xbd5524dc	-0.052037105
18	0x3d65f743	0.05614401
19	0xbd5d0604	-0.053960815
20	0xbd1e4747	-0.038642194
21	0x3d69de6b	0.05709688
22	0xbd600154	-0.054688767
23	0x3d0be0b6	0.034149848
24	0xbd2f6ee8	-0.042830378
25	0xbd469ab2	-0.048487373
26	0x3c16fd11	0.009215609
27	0xbd58484c	-0.052803323
28	0x3d35c8ac	0.04438083
29	0xbd4bfc3c	-0.049801096
30	0x3d047abf	0.032343622
31	0x3c4b5dfb	0.012412543
32	0x3c3305ce	0.010926677
33	0x3d68c3de	0.05682742
34	0x3d717987	0.058953788
35	0x3d427c4e	0.047481827
36	0x3c54467a	0.012956256
37	0x3cb8948f	0.022531776
38	0xbd574a2a	-0.052560963
39	0xbc6b6446	-0.014367169
40	0xbbd49ac3	-0.0064881756
41	0xbc33b729	-0.010968962
42	0x3b8ed26a	0.0043585794
43	0x3d4c5ba9	0.0498921
44	0xbd5b0f40	-0.05348134
45	0xbd443ed6	-0.047911488
46	0xbd176095	-0.036957342
47	0xbd51c2db	-0.05121122
48	0xbd263236	-0.04057523
49	0x3d0c5b0d	0.03426652
50	0x3c462b98	0.0120953545
51	0x3d1b9b2e	0.037989788
52	0xbd017fc3	-0.031615984
53	0x3c63ef26	0.013911998
54	0xbd5c10db	-0.053727012
55	0xbd460069	-0.048340235
56	0xbbf26c64	-0.007398175
57	0xbd301bb2	-0.042995162
58	0xbd7da9bb	-0.061929446
59	0xbb177258	-0.0023108926
60	0xbc5d4496	-0.013505122
61	0x3ca44d04	0.020056255
62	0x3d1958e6	0.037438296
63	0xbd572c80	-0.052532673
64	0x3d65b55d	0.056081165
65	0xbbdfb289	-0.006826703
66	0x3cbbb4bf	0.022913335
67	0x3cb696b1	0.022288652
68	0x3d1d6941	0.038430456
69	0xbd553023	-0.05204786
70	0x3d351c09	0.04421619
71	0x3c7aa113	0.015297192
72	0x3d1c6ae8	0.03818789
73	0xbd454bed	-0.04816811
74	0xbd304cdc	-0.04304205
75	0x3cd7bda5	0.026335547
76	0xbc3384e9	-0.010956981
77	0xbd37ea53	-0.044901203
78	0x3c72ff66	0.0148314
79	0x3b902e69	0.004400064
80	0xbd792127	-0.060822632
81	0x3c879525	0.01655061
82	0xbcb9a019	-0.022659348
83	0x3b67e1bf	0.0035382358
84	0xbd46aabd	-0.048502672
85	0xbce531e2	-0.027977888
86	0xbb47d17f	-0.003048986
87	0xbcebea95	-0.02879838
88	0x3c44bf78	0.01200854
89	0xbd74ec8e	-0.05979591
90	0xbd35d2d6	-0.044390522
91	0x3d42c650	0.047552407
92	0x3d7884dc	0.06067358
93	0xbd6a7713	-0.057242464
94	0x3b7f90df	0.0038996262
95	0xbcaf97c5	-0.021434674
96	0xbd0a32b6	-0.033739768
97	0x3d754db7	0.059888568
98	0xbc4ddb33	-0.012564468
99	0xbd6de9dc	-0.058084354
100	0x3d057cde	0.032589786
101	0xbce5f2fd	-0.028069967
102	0x3c61c994	0.01378097
103	0x3c17e6f2	0.00927137
104	0x3b98bd6a	0.004661252
105	0x3c55fbdf	0.013060539
106	0xbcd0a556	-0.025469463
107	0xbd35eb95	-0.04441412
108	0xbc063e41	-0.008193553
109	0x3cb3f25d	0.021966154
110	0xbb18f612	-0.0023340029
111	0x3d309439	0.043110106
112	0x3c7021ad	0.014656466
113	0xbbc7c85a	-0.006096882
114	0x3d4bfe7a	0.049803235
115	0xbd26a72a	-0.040686764
116	0xbbac9456	-0.0052667065
117	0x3d3de81d	0.04636394
118	0x3ceda9ba	0.029011596
119	0xbd7b6b1d	-0.061381448
120	0x3bf8591a	0.007578981
121	0xbd664bb3	-0.056224536
122	0x3d267d1a	0.04064665
123	0xbca2ed8d	-0.019888664
124	0x3d345752	0.044028588
125	0xbc7a7407	-0.015286452
126	0x3d47996f	0.04873031
127	0xbb23f69d	-0.002501882
128	0x3c63d6ae	0.013906164
129	0xbcc549aa	-0.024082977
130	0xbd508f48	-0.050917894
131	0xbd13ddc0	-0.03610015
132	0x3d4ce247	0.050020482
133	0x3d66a143	0.056306135
134	0xbc08cbe6	-0.008349394
135	0xbd754763	-0.059882533
136	0x3d85f4fc	0.06540868
137	0x3cb193aa	0.021676857
138	0x3d17ac6b	0.037029665
139	0xbc53ad6b	-0.012919764
140	0xbd740d95	-0.059583265
141	0x3d4d1448	0.05006817
142	0x3d4887f2	0.048957773
143	0xbb321c86	-0.0027177646
144	0xbb2b0626	-0.0026096194
145	0xbd530ee3	-0.05152787
146	0xbb1917a2	-0.0023360034
147	0x3bf96bd0	0.007611729
148	0x3cd27655	0.02569119
149	0xbd44a9e1	-0.04801357
150	0xbd3c4807	-0.045967128
151	0x3b1b0358	0.0023653116
152	0x3c9fe4c1	0.019518258
153	0x3d349200	0.04408455
154	0xbcdd2261	-0.026993932
155	0xbd87664f	-0.06611311
156	0x3cfe5678	0.03104709
157	0x3c2f1d10	0.010688081
158	0xbbc0f106	-0.005888107
159	0xbd3d1caf	-0.046169933
160	0xbd7c3d2f	-0.061581787
161	0x3bd04ba6	0.0063566742
162	0x3a2e7771	0.00066553714
163	0x3d67ae05	0.056562442
164	0xbd1b7bcb	-0.037959855
165	0x3d4fc0f2	0.050721116
166	0xbd318f31	-0.04334945
167	0x3d008181	0.031373505
168	0xbc012cb2	-0.007884191
169	0x3a308b30	0.0006734608
170	0x3cd4e8b7	0.025989873
171	0xbce4b85d	-0.027919943
172	0xbba0b163	-0.0049039586
173	0x3cba2220	0.02272135
174	0xbcf23511	-0.02956632
175	0xbd779c49	-0.06045178
176	0x3d3f04a9	0.046635304
177	0x3c5b5619	0.0133872265
178	0x3cdde0f0	0.027084798
179	0x3d0a3bd7	0.033748474
180	0x3cc02db7	0.023459299
181	0xbd054bf5	-0.03254314
182	0x3d4fa2bb	0.0506923
183	0xbd21c18c	-0.03949122
184	0xbbddf017	-0.0067730057
185	0xbd2ed31d	-0.042681802
186	0xbd325a05	-0.04354288
187	0xbc02bfc3	-0.00798029
188	0xbd809294	-0.062779576
189	0x3caf267c	0.021380655
190	0xbb36cb5e	-0.0027892212
191	0xbc20757c	-0.009793635
192	0xbd37b2f5	-0.0448484
193	0xbd27b043	-0.04093958
194	0x3d737eae	0.059446983
195	0xbd1b1cab	-0.037869137
196	0x3b500482	0.0031740968
197	0xbd0b2030	-0.033966243
198	0x3ced55e1	0.028971614
199	0xbd829be6	-0.063773915
200	0xbd5a7b51	-0.05334026
201	0x3d2dc98c	0.04242854
202	0x3a206077	0.000611789
203	0x3cc67332	0.024224851
204	0x3ce881d6	0.028382223
205	0x3c40a00f	0.011756911
206	0xbd2da8a4	-0.042397156
207	0xba8336a8	-0.0010010796
208	0x3c7e17ac	0.0155085735
209	0xbbb0a624	-0.0053908993
210	0x3c081a8c	0.0083071105
211	0xbd1a5bb4	-0.03768511
212	0xbd3d1d91	-0.046170775
213	0x3b545a2f	0.0032402386
214	0xbd044167	-0.032288935
215	0xbc9a107a	-0.018806685
216	0xbce4bd24	-0.02792222
217	0xbd674e0b	-0.056470912
218	0x3d5b1ae1	0.05349243
219	0x3d0ca184	0.03433372
220	0xbd119609	-0.035543475
221	0xbc47441f	-0.012162237
222	0x3c04283e	0.008066235
223	0x3d47dba8	0.048793465
224	0x3d1c7422	0.03819669
225	0xbd3ab5ff	-0.04558372
226	0xbd1d13ce	-0.038348965
227	0xbcefc2cd	-0.029267693
228	0x3d1176b7	0.035513606
229	0x3b6d2a6b	0.0036188613
230	0x3d5953a3	0.053058278
231	0xbd14767f	-0.03624582
232	0xbd5e5823	-0.054283272
233	0x3d0713bb	0.0329778
234	0x3d37d0d3	0.044876885
235	0xbd0ae1aa	-0.033906616
236	0x3c462b28	0.01209525
237	0x3d392133	0.045197677
238	0x3cf7ec7c	0.030264132
239	0x3d6a66c9	0.05722693
240	0x3ae1f765	0.0017239867
241	0x3d05026d	0.032473017
242	0x3cc4ee5e	0.024039444
243	0x3c487a37	0.01223617
244	0x3ca31335	0.01990662
245	0xbc856f25	-0.01628835
246	0x3c99b3ae	0.018762436
247	0x3d837a0a	0.064197615
248	0xbc45d027	-0.012073553
249	0xbd556f25	-0.05210795
250	0xbcb4738a	-0.02202775
251	0xbce37ed4	-0.027770437
252	0xbbe3673b	-0.0069397963
253	0xbcb268de	-0.02177852
254	0xbcbe6bd3	-0.023244774
255	0xbd362089	-0.04446462

move_head.weight f4 [5, 256]
0	0xbc773ff8	-0.015090935
1	0xbbea4703	-0.0071495785
2	0x3d03e56a	0.03220121
3	0xbd7a6615	-0.06113251
4	0x3c9743b4	0.0184649
5	0xbc54c502	-0.012986423
6	0xbd02b11e	-0.031907193
7	0xbd6e8074	-0.05822797
8	0xbcecdb89	-0.028913276
9	0x3ce34d9a	0.027746964
10	0x3ad150d7	0.0015969527
11	0xbd32fd78	-0.043698758
12	0xbb929fbd	-0.0044746087
13	0xbd735acf	-0.059412774
14	0xbcdc7497	-0.026911063
15	0xbc8a124e	-0.016854431
16	0x3cdb95ee	0.02680489
17	0xbd378ab5	-0.044810016
18	0xbbbad008	-0.005701069
19	0xbc9a8e1b	-0.01886659
20	0xbd7c730f	-0.061633166
21	0xbd256426	-0.040378712
22	0x3c208bde	0.009798972
23	0xbd2c1194	-0.04200895
24	0xbc0e7c84	-0.008696679
25	0xbd464adb	-0.04841123
26	0x3d31ea81	0.04343653
27	0x3b11d05b	0.0022249434
28	0x3d2307cf	0.03980237
29	0xbd06aff0	-0.03288263
30	0x3d33e26d	0.04391711
31	0xbce3dcd7	-0.027815266
32	0xbd1cabe6	-0.038249873
33	0xbd6d48c1	-0.05793071
34	0x3cc3c8d0	0.023899466
35	0x3b004233	0.0019570708
36	0xbd609cbe	-0.05483698
37	0xbd4e14e8	-0.050312907
38	0xbcb92675	-0.022601346
39	0x3d885af9	0.06657977
40	0x3cf9a363	0.030473417
41	0xbd38b464	-0.04509391
42	0xbd44ec07	-0.048076656
43	0x3ce62180	0.028092146
44	0x3d4e74da	0.050404407
45	0xbd530960	-0.051522613
46	0x3cab0668	0.020877078
47	0x3d5a926b	0.05336229
48	0xbd3c16a8	-0.045920044
49	0xbc8ef291	-0.017449649
50	0x3ccd7a39	0.025082694
51	0x3cee4c32	0.029089067
52	0xbc120cfb	-0.008914228
53	0x3c741e92	0.014899867
54	0x3b984737	0.0046471613
55	0x3d0f4d4c	0.034985825
56	0x3d525671	0.05135197
57	0x3d52ffd5	0.05151351
58	0x3c271dc1	0.010199965
59	0x3c86e277	0.016465409
60	0xbcc9dc68	-0.02464123
61	0xbd4e08a5	-0.050301213
62	0x3c00656a	0.007836679
63	0x3a233896	0.00062263885
64	0x3d581885	0.05275776
65	0x3d2ba206	0.041902564
66	0x3d2b42f3	0.041811895
67	0xbc4103c0	-0.011780679
68	0x3d77adf3	0.060468625
69	0x3cad1bea	0.021131475
70	0xbbe9bad2	-0.0071328664
71	0xbc6cc76f	-0.014451846
72	0x3c500cab	0.012698333
73	0xbc5ec7ef	-0.013597473
74	0xbccfcbab	-0.025365671
75	0xbbade20d	-0.0053064884
76	0xbd60d753	-0.05489285
77	0x3d53699e	0.051614396
78	0xbd25e3a1	-0.040500287
79	0x3d43371d	0.047659982
80	0xbd48308a	-0.048874415
81	0xbc80e5b9	-0.01573454
82	0xbc5db9f7	-0.013533107
83	0xbbe39f7e	-0.006946503
84	0xbd41af21	-0.047286157
85	0xbd4ebdd3	-0.050474
86	0x3c8492a2	0.016183201
87	0x3c8f7166	0.017510127
88	0xbcbad443	-0.022806292
89	0x3d56491d	0.05231582
90	0x3d5e38c2	0.054253347
91	0x3d3c28fc	0.045937523
92	0xbd73a4da	-0.059483387
93	0xbc852afe	-0.016255852
94	0xbc2e46bc	-0.010636982
95	0xbd3c7ffe	-0.0460205
96	0xbbfb883d	-0.007676153
97	0x3d7a44c5	0.06110074
98	0x3d5df94f	0.054192837
99	0xbcf7316e	-0.030174937
100	0xbd7ba04e	-0.061432175
101	0xbd04e24f	-0.032442387
102	0x3bce9bf1	0.0063052108
103	0x3d2cc6af	0.042181667
104	0x3ca51824	0.020153113
105	0x3d27b4f6	0.040944062
106	0xbcf4331d	-0.029809529
107	0xbd7221be	-0.05911421
108	0x3c0681a0	0.008209616
109	0xbd285252	-0.04109413
110	0x3cbf3958	0.023342773
111	0x3d658724	0.056037083
112	0xbd2f6e0f	-0.04282957
113	0x3d6ba64f	0.05753165
114	0xbd4af291	-0.049547736
115	0xbc80f1db	-0.015740326
116	0xbd13b61e	-0.036062352
117	0xbd0006da	-0.031256534
118	0x3cc77ea3	0.024352377
119	0x3c0a4c79	0.008441084
120	0x3cbe9a7e	0.023267027
121	0xbd33fed8	-0.04394421
122	0x3cd9b81f	0.026577054
123	0xbc80294a	-0.015644688
124	0x3d262978	0.04056689
125	0xbcb83d1b	-0.022490075
126	0x3cd655d5	0.026163975
127	0x3d72a024	0.059234753
128	0x3d632ad7	0.055460777
129	0xbc3e9b1f	-0.011633663
130	0xbd6f4fc7	-0.05842569
131	0xbc3bbe93	-0.011459011
132	0xbd573746	-0.052542947
133	0xbd8d77af	-0.069075935
134	0xbd6698e3	-0.056298148
135	0x3ceea85e	0.029133018
136	0xbcf1183a	-0.029430497
137	0xbd597963	-0.05309428
138	0x3d321e55	0.043485958
139	0xbd30e719	-0.043189142
140	0x3d4cc3aa	0.049991287
141	0xbc3ac9a2	-0.011400612
142	0xbd6cc380	-0.05780363
143	0x3d287eb6	0.041136466
144	0xbc1e437a	-0.009659642
145	0x3d073141	0.033005957
146	0xbac47272	-0.0014987721
147	0xbd78f720	-0.06078255
148	0x3ccbdf50	0.024886757
149	0xbd860d49	-0.06545503
150	0x3d8390c0	0.06424093
151	0xbd33cd6d	-0.04389708
152	0x3cdffe50	0.027342945
153	0xbd554f18	-0.052077383
154	0xbc993c24	-0.018705435
155	0x3cce3f12	0.025176559
156	0xbd58df01	-0.052947048
157	0xbb1793e7	-0.0023128928
158	0xbd275a2f	-0.04085749
159	0xbd7b63ec	-0.06137459
160	0x3c2c60c7	0.01052112
161	0xbd26950e	-0.040669493
162	0x3d48d59e	0.049031846
163	0x3c111003	0.008853915
164	0xbd50fa1d	-0.051019777
165	0x3d644509	0.0557299
166	0xbd5b9532	-0.05360908
167	0xbc218034	-0.009857226
168	0xbcf01853	-0.029308474
169	0xbd448ccd	-0.04798584
170	0xbc89b3b5	-0.016809324
171	0x3d3f8f9c	0.046767816
172	0xbd6cd5ca	-0.057821073
173	0xbd668aa5	-0.056284565
174	0x3cbc11a9	0.02295764
175	0x3d069d66	0.03286495
176	0xbc8b51b1	-0.017006727
177	0x3ad9e7ac	0.001662483
178	0x3ccd72c7	0.025079144
179	0x3cd670ba	0.0261768
180	0xbd19fe46	-0.03759601
181	0x3ce2b281	0.027673008
182	0x3d2f55dd	0.042806495
183	0x3d369e51	0.044584576
184	0x3c118237	0.008881143
185	0xbd0e0099	-0.03466854
186	0xbd17c7fb	-0.03705595
187	0xbd643b08	-0.05572036
188	0x3bd1e892	0.0064058984
189	0xbced812f	-0.028992264
190	0x3d60f34e	0.054919533
191	0x3d42676f	0.047461923
192	0xbcb8ad97	-0.022543712
193	0x3d6bc45f	0.05756032
194	0x3ca59b22	0.020215575
195	0x3d20e9a5	0.03928532
196	0x3d0a1234	0.033708766
197	0xbcbca108	-0.023026004
198	0xbbc1de74	-0.005916411
199	0xbd0de9f8	-0.034646958
200	0xbc2a7afd	-0.010405299
201	0xbcf763b7	-0.030198915
202	0xb7074540	-8.062751e-06
203	0x3d5464d4	0.05185397
204	0x3acd1387	0.0015646078
205	0xbd35eb9d	-0.04441415
206	0xbd04b067	-0.032394793
207	0xbcdae5e7	-0.026720954
208	0x3d7582c8	0.059939176
209	0xbd4ea5a3	-0.050450932
210	0x3c6103f0	0.013733849
211	0x3d04a3b0	0.032382667
212	0x3d42366c	0.047415182
213	0xbd09d1b7	-0.033647265
214	0x3bb61157	0.0055562663
215	0x3c0b876a	0.008516172
216	0x3d25f61b	0.040517908
217	0xbbc3b52a	-0.005972524
218	0x3b120ea6	0.0022286563
219	0x3cc3c8ea	0.023899514
220	0x3b0975df	0.0020974798
221	0xbd29752a	-0.041371502
222	0xbcd88551	-0.026430758
223	0x3cd12944	0.025532372
224	0x3b27ec89	0.0025623164
225	0x3d2959ab	0.04134528
226	0x3d6aa76d	0.057288576
227	0x3beaa75d	0.0071610645
228	0xbd1ff56d	-0.039052416
229	0x3cd738f1	0.026272269
230	0x3cf20c29	0.029546814
231	0xbbcf30f2	-0.0063229734
232	0x3d026281	0.031832222
233	0xbd2ba278	-0.04190299
234	0xbcbb6199	-0.022873687
235	0xbd0e6003	-0.034759533
236	0xbc6552a7	-0.013996757
237	0x3c4968aa	0.01229302
238	0xbb421e83	-0.0029620237
239	0x3d4eeb5c	0.050517425
240	0xbcd3183f	-0.025768397
241	0xbc781335	-0.015141298
242	0x3d06378d	0.03276782
243	0x3c018c4b	0.007906984
244	0x3c298ed6	0.010348996
245	0x3ce3dc25	0.027814934
246	0xbcec4074	-0.028839327
247	0x3d62d060	0.055374503
248	0x3c528442	0.0128489155
249	0x3b9a4426	0.004707831
250	0xbbd4fc60	-0.006499812
251	0x3d2e9793	0.04262502
252	0x3cd2e472	0.025743697
253	0xbb0326d4	-0.0020012157
254	0xbb58b1ea	-0.003306503
255	0xbc37e673	-0.011224377

move_head.bias f4 [5]
0	0x3c10671c	0.008813646
1	0xbbaff7dc	-0.0053701233
2	0x3b7e54e7	0.003880793
3	0xbd43dfd7	-0.047820892
4	0x3c99dcf6	0.01878212

comm_head.weight f4 [10, 256]
0	0xbb0b43e3	-0.002125018
1	0x3c79b754	0.015241463
2	0xbc99180b	-0.018688222
3	0xbc18e605	-0.009332185
4	0x3cdf3d0a	0.027250785
5	0x3d63dd1f	0.0556308
6	0x3ca49f48	0.020095482
7	0xbc9b73c2	-0.018976096
8	0xbcd843db	-0.026399544
9	0xbd546b86	-0.051860355
10	0x3d3d5d65	0.046231646
11	0x3c09c748	0.008409329
12	0x3d708249	0.058718
13	0xbd182744	-0.03714682
14	0x3cf6e010	0.030136138
15	0xbca4993b	-0.020092597
16	0xbb4e22e5	-0.0031453904
17	0x3cc9e3ed	0.024644816
18	0x3d421265	0.047380824
19	0x3d4cbcbf	0.04998469
20	0x3c1fa18a	0.009743104
21	0xba71900e	-0.0009214886
22	0x3c9365f1	0.017992945
23	0x3cd761a0	0.026291668
24	0x3d1a5271	0.03767628
25	0xbc665c8a	-0.014060149
26	0xbbf9961e	-0.0076167723
27	0x3d81b3e8	0.063331425
28	0x3d51a7f1	0.051185552
29	0xbd54dac4	-0.051966444
30	0xbd7457f5	-0.059654195
31	0x3c1828a6	0.009287035
32	0x3d716144	0.05893065
33	0x3d09512f	0.03352469
34	0x3bf45fb5	0.007457698
35	0x3b416e6b	0.0029515277
36	0x3c30b1d6	0.010784587
37	0x3d84b1bb	0.06479212
38	0x3c8bace0	0.017050207
39	0x3d058b99	0.032603834
40	0x3cd2249a	0.025652219
41	0x3d55928d	0.052141715
42	0x3d555cc2	0.052090414
43	0x3cf48039	0.029846298
44	0xbd652c4c	-0.055950448
45	0xbcd2534d	-0.025674487
46	0x3d295938	0.04134485
47	0xbba3085a	-0.004975361
48	0x3d71d185	0.059037704
49	0x3d38780f	0.04503637
50	0x3d34642a	0.044040836
51	0xbb9e19f9	-0.0048248735
52	0xbce458f5	-0.02787445
53	0x3d78fb00	0.060786247
54	0x3d513fb2	0.051086135
55	0x3d286bd6	0.041118465
56	0xbcaec69f	-0.021334944
57	0xbbb86bd5	-0.005628089
58	0x3cd75afd	0.026288504
59	0xbd0d7560	-0.034535766
60	0xbcf70d7a	-0.030157793
61	0x3cfe73d0	0.031061083
62	0x3c9b514a	0.01895966
63	0x3d6f8f6a	0.05848638
64	0x3d28fe4c	0.04125814
65	0x3b3e77bb	0.0029063064
66	0x3d42c91f	0.047555085
67	0xbbd78e46	-0.0065782396
68	0x3d5e6133	0.054291915
69	0x3c28e935	0.010309507
70	0x3d7ac59c	0.06122361
71	0xbc2ee1f4	-0.010673989
72	0x3d47f6dd	0.04881941
73	0x3cd7b1dc	0.026329927
74	0xbb3f34ee	-0.0029175836
75	0xbd505b10	-0.050868094
76	0xbd48e236	-0.049043857
77	0xbb9ce33a	-0.0047878297
78	0x3d46c29b	0.048525434
79	0x3d170a93	0.03687532
80	0x3c7a8fc2	0.015293064
81	0x3d0fffe0	0.03515613
82	0xbd305941	-0.04305387
83	0xbd7d9c00	-0.06191635
84	0xbd24f744	-0.040274873
85	0xbca0b572	-0.01961777
86	0x3d0baf6f	0.034102853
87	0xbb71ed1a	-0.0036915005
88	0xbd0770c3	-0.033066522
89	0x3d233cd9	0.03985295
90	0xbc592e67	-0.013255692
91	0x3d5ef752	0.05443508
92	0xbce26644	-0.027636655
93	0xbd5e7f28	-0.054320484
94	0xbcb67be7	-0.022275878
95	0x3ba611e7	0.005068052
96	0x3d0a3677	0.033743348
97	0x3d701760	0.058616042
98	0x3c11b559	0.008893334
99	0xbd7d51ca	-0.06184558
100	0xbd03c206	-0.032167457
101	0xbc40ad7d	-0.011760113
102	0x3bd16f85	0.006391468
103	0xbc055392	-0.0081376005
104	0x3d0edb8a	0.034877338
105	0x3d32c31b	0.0436431
106	0x3c515bb9	0.012778216
107	0xbd640ee3	-0.05567826
108	0xbc80d410	-0.01572612
109	0x3d1b78c9	0.037956987
110	0xbd142400	-0.036167145
111	0x3cd1294e	0.02553239
112	0xbd7c28cc	-0.061562344
113	0x3c0a40df	0.008438318
114	0xbd67ae00	-0.056562424
115	0x3cc43aa7	0.023953749
116	0x3c9f07e4	0.019412942
117	0x3d68cc11	0.056835238
118	0xbce2f905	-0.027706632
119	0xbce16cb4	-0.027517654
120	0x3c1b7b8c	0.009489905
121	0x3b8621e6	0.0040933965
122	0xbd14b678	-0.03630683
123	0xbd4e509c	-0.050369844
124	0xbcf883da	-0.03033631
125	0xbc108b0c	-0.008822214
126	0xbd7bd18d	-0.06147914
127	0xbd59a46c	-0.05313532
128	0xbd4e7c62	-0.05041159
129	0x3b88b61d	0.0041721
130	0x3d345030	0.044021785
131	0xbcda15f5	-0.026621798
132	0xbcfd4833	-0.030918216
133	0xbd30576a	-0.043052115
134	0x3cd6bf04	0.02621413
135	0xbd49a3c2	-0.049228437
136	0x3ccca783	0.02498222
137	0x3d0077ed	0.03136437
138	0xbc6af172	-0.014339792
139	0xbcda59d9	-0.02665417
140	0xbd82fb05	-0.063955344
141	0xbc314d65	-0.010821675
142	0x3d212fb0	0.03935212
143	0x3cda3f1e	0.026641425
144	0xbd054f62	-0.03254641
145	0xbcdf5571	-0.027262421
146	0xbc9d8fd4	-0.019233622
147	0xbd5a694f	-0.053323086
148	0x3c914866	0.017734718
149	0xbd442c2a	-0.04789368
150	0xbc4b673f	-0.0124147525
151	0x3be58ed3	0.0070055514
152	0xbca41dad	-0.020033682
153	0x3cfbe5f2	0.030749295
154	0x3d0caaa6	0.03434243
155	0xbd4cdf33	-0.050017547
156	0x3cfa12d3	0.030526554
157	0x3d5cb386	0.053882144
158	0xbc3d7119	-0.011562609
159	0x3c1e7570	0.009671554
160	0xbd269502	-0.04066945
161	0xbd52ee2c	-0.05149667
162	0x3cb918b8	0.022594795
163	0x3d77b2f3	0.060473394
164	0xbca6cc94	-0.020361222
165	0xbd3d9406	-0.046283744
166	0x3d446f74	0.047957852
167	0xbcd582ba	-0.026063312
168	0xbc700407	-0.014649398
169	0x3d73a71f	0.05948555
170	0xbd516582	-0.051122196
171	0x3b1b31eb	0.0023680876
172	0xbd36c293	-0.044619154
173	0x3d5bfae0	0.05370605
174	0xbc634739	-0.013871961
175	0xbcbaacc4	-0.02278746
176	0xbd1e24ec	-0.03860943
177	0xbd60996b	-0.05483381
178	0xbc9027fe	-0.017597195
179	0x3d1e4094	0.038635805
180	0xbd240631	-0.040044967
181	0xbc84f8dc	-0.016231947
182	0xbcbb9640	-0.022898793
183	0x3c6dd29e	0.014515547
184	0x3c670941	0.014101327
185	0x3c807b7b	0.01568388
186	0xbd569219	-0.052385423
187	0x3d228dc3	0.039685976
188	0xbd06d675	-0.032919366
189	0xbd2c4329	-0.042056236
190	0x3d36cdf2	0.04463
191	0xbc3c4ab8	-0.011492424
192	0xbd529d53	-0.051419567
193	0xbd29b0ed	-0.041428495
194	0x3c25fba9	0.010130801
195	0x3c0e3afc	0.008681055
196	0xbc9381e4	-0.018006273
197	0xbce3e0a7	-0.027817084
198	0x3d5b88f7	0.053597417
199	0x3cc4420e	0.023957279
200	0x3d4977b8	0.04918644
201	0x3d6fe0f3	0.058564138
202	0xbd2ca567	-0.042149927
203	0x3d6d867f	0.057989594
204	0xbd538573	-0.05164094
205	0x3d573598	0.052541345
206	0x3be104c4	0.006867023
207	0xbcdeddb7	-0.027205331
208	0xbd854a0f	-0.06508266
209	0xbd80a5c2	-0.06281616
210	0x3d11e69a	0.03562031
211	0xbd3a77c0	-0.04552436
212	0xbd72c270	-0.05926746
213	0xbca74166	-0.020416927
214	0xbae1c616	-0.0017225172
215	0xbbf8d208	-0.007593397
216	0x3c16a0bf	0.009193598
217	0x3bff4b00	0.007790923
218	0xbce87d46	-0.028380048
219	0xbbe67b31	-0.0070337285
220	0xbd58b303	-0.052905094
221	0x3d835a7e	0.064137444
222	0xbd30a4f5	-0.043126065
223	0x3c5515cd	0.013005686
224	0xbce66b84	-0.02812744
225	0x3d629962	0.05532206
226	0x3d0d5b63	0.03451098
227	0x3c801862	0.015636627
228	0xbc774dc3	-0.015094223
229	0x3c4c02fa	0.012451882
230	0x3bbbc360	0.0057300776
231	0x3be8b0ce	0.007101155
232	0x3cd3fda2	0.025877777
233	0xbb5f13bc	-0.0034038862
234	0x3bd2f018	0.006437313
235	0xbd34c313	-0.04413135
236	0x3d232be7	0.03983679
237	0x3d566293	0.0523401
238	0x3d45ea02	0.04831887
239	0x3b8fcb32	0.0043882364
240	0xbd29d4a2	-0.041462548
241	0xbd5a34bb	-0.053272944
242	0x3d46318f	0.048387107
243	0x3c57289f	0.013132243
244	0xb944361d	-0.00018712175
245	0x3d106762	0.035254844
246	0x3ba88218	0.0051424615
247	0x3d313dd5	0.04327186
248	0xbcc6bec1	-0.02426088
249	0x3cbd353b	0.023096671
250	0x3d555801	0.05208588
251	0x3d494fa1	0.049148206
252	0x3bf630d1	0.0075131436
253	0xbd4c4c75	-0.049877603
254	0xbc2aab27	-0.010416782
255	0xbcb93308	-0.022607341

comm_head.bias f4 [10]
0	0x3bf95b3e	0.007609754
1	0x3bdd9add	0.006762846
2	0x3c5422a4	0.012947712
3	0xbbeff227	-0.007322568
4	0x3d4d0236	0.050050937
5	0x3c04f8b8	0.00811594
6	0xbccba18f	-0.02485731
7	0x3bf6d7d3	0.0075330525
8	0x3d6bdb00	0.0575819
9	0xbd6d12f5	-0.057879407
