checkpoints/simple_reference_v3_source/simple_reference_v3_agent_1_ep225.pt (torch, 305209 bytes, 8 tensors)

body.0.weight f4 [256, 21]
0	0xbd9adce8	-0.07561666
1	0xbe1b7add	-0.15183587
2	0xbdbf1411	-0.09329999
3	0xbd34d065	-0.044144053
4	0x3d958ea9	0.07302601
5	0x3e5784b7	0.2104672
6	0xbe02252e	-0.12709495
7	0x3dc68c01	0.096946724
8	0xbcb63174	-0.022240378
9	0xbddd24a8	-0.10798007
10	0xbdf38cb6	-0.11892073
11	0xbb9143f0	-0.0044331476
12	0xbe686b5b	-0.22697203
13	0x3b88abb8	0.004170861
14	0xbdbe12b7	-0.09280913
15	0x3c30d9aa	0.010794083
16	0x3d0fea2a	0.035135426
17	0xbd9fbafb	-0.077993356
18	0xbe33776a	-0.17526022
19	0x3e29d580	0.1658535
20	0x3e1a88d6	0.15091261
21	0xbe2e4d6f	-0.17021726
22	0xbc900fa3	-0.017585581
23	0xbde750ac	-0.11294684
24	0x3dce76e4	0.1008127
25	0xbdfa8905	-0.12233166
26	0x3db73b0a	0.08946808
27	0x3d32c88a	0.04364828
28	0x3e43c259	0.19117106
29	0x3dbea9c0	0.09309721
30	0xbc1e2c5a	-0.009654129
31	0x3deeff67	0.11669808
32	0x3d89a90d	0.06721697
33	0xbe390c17	-0.18071018
34	0xbde65aad	-0.11247764
35	0x3ddcabf6	0.107749864
36	0xbdf056d9	-0.11735315
37	0xbd6286d9	-0.055304382
38	0xbe1a8d21	-0.15092899
39	0x3d784947	0.060616758
40	0xbd1463b9	-0.036227915
41	0xbe1f5ab9	-0.15561952
42	0xbd4ff092	-0.050766535
43	0xbd54127b	-0.051775437
44	0xbd8908bd	-0.0669112
45	0xbd799f90	-0.060943186
46	0x3d81b95c	0.063341826
47	0x3e05ae89	0.13054861
48	0xbe4ac500	-0.19801712
49	0xbd8ddadf	-0.06926512
50	0xbdc6849e	-0.096932635
51	0x3d7e913c	0.062150225
52	0xbd435b6c	-0.04769461
53	0x3e05fa91	0.13083865
54	0xbcc36ee0	-0.02385658
55	0x3e17e08f	0.14831756
56	0x3d78a92a	0.060708202
57	0xbe115dda	-0.14195958
58	0xbdb4c354	-0.088263184
59	0xbe5790e6	-0.21051368
60	0xbe58a4f0	-0.21156669
61	0x3d16286a	0.036659636
62	0xbd5259a8	-0.051355034
63	0xbe1674ce	-0.14692995
64	0x3d028f5b	0.031874996
65	0xbe1237b9	-0.14279069
66	0xbc9a534d	-0.018838549
67	0xbe5507cb	-0.20803754
68	0xbe40c8b3	-0.1882656
69	0xbe086313	-0.13319044
70	0x3e5503e8	0.20802271
71	0xbca4bd5c	-0.020109825
72	0xbd5d398f	-0.05400997
73	0x3d778dbc	0.060437903
74	0xbe36f3a3	-0.17866378
75	0xbd8cf717	-0.06883066
76	0xbc036f21	-0.008022101
77	0xbe36227f	-0.17786597
78	0x3dc9e043	0.09857228
79	0x3d8518e0	0.06498885
80	0x3e39b16d	0.18134089
81	0xbe4aa80f	-0.19790672
82	0x3d15e634	0.036596492
83	0x3c40b2ac	0.011761349
84	0x3e362da2	0.17790845
85	0x3e29eab0	0.16593432
86	0x3e4cb135	0.19989474
87	0x3e5ac235	0.21363147
88	0xbdf5c8d4	-0.120011955
89	0xbe478604	-0.19484717
90	0xbdc2c645	-0.09510473
91	0xbd1a8b2e	-0.03773039
92	0x3e1f7a2a	0.15573946
93	0xbe577f60	-0.21044683
94	0x3de6cb52	0.11269249
95	0x3e05c52b	0.13063495
96	0x3d0ce706	0.03440001
97	0xbe27b233	-0.16376571
98	0x3dae95d6	0.08524673
99	0xbcc40aa4	-0.023930855
100	0xbce48efb	-0.02790021
101	0x3d6d5cfa	0.057949997
102	0xbe1e952f	-0.15486597
103	0xbdfe6964	-0.124224454
104	0x3e610285	0.21973617
105	0xbe55954c	-0.20857733
106	0xbdcbba8c	-0.0994769
107	0x3db444aa	0.08802159
108	0x3c667c0c	0.014067661
109	0xbe0d2222	-0.13782552
110	0x3d45c3cc	0.04828243
111	0x3e0a8b5a	0.13529721
112	0xbe2d087f	-0.16897772
113	0xbe341192	-0.17584828
114	0x3c32d3b6	0.010914734
115	0x3e1637cc	0.14669722
116	0xbd830ac1	-0.063985355
117	0x3da40c62	0.08010174
118	0x3e0a58bf	0.13510416
119	0xbc970c87	-0.01843859
120	0x3dcc901e	0.09988426
121	0xbe53400d	-0.20629902
122	0xbe0fd715	-0.14046891
123	0xbccc4a38	-0.024937734
124	0xbd4ec741	-0.050482992
125	0xbe1ab842	-0.15109351
126	0x3d8f3675	0.06992809
127	0x3de76bab	0.11299833
128	0x3dc17f73	0.09448137
129	0xbe51387b	-0.20431702
130	0xbe43d6fe	-0.19124982
131	0xbe20845f	-0.15675496
132	0x3dcc3588	0.09971148
133	0x3dfee3ab	0.12445768
134	0x3cab221f	0.020890294
135	0x3cd753a5	0.026285002
136	0xbe0e3479	-0.13887204
137	0xbe58a9c2	-0.21158507
138	0x3dc08345	0.09400038
139	0xbe1a3dcd	-0.15062638
140	0xbdade8f2	-0.084916964
141	0x3d34eedd	0.04417311
142	0x3e1a867d	0.15090366
143	0x3e316b70	0.1732614
144	0x3d5a7313	0.0533324
145	0xbc2aeb56	-0.010432085
146	0xbe373dcc	-0.17894667
147	0x3da26f82	0.07931425
148	0xbb0512c5	-0.0020305377
149	0xbe241813	-0.16024809
150	0x3e454f4d	0.19268532
151	0xbdc377c6	-0.09544329
152	0xbe44a775	-0.19204505
153	0xbc053c14	-0.0081319995
154	0xbe4a8192	-0.1977599
155	0x3dbf61af	0.093448035
156	0x3e062093	0.13098364
157	0xbe1dd070	-0.15411544
158	0x3e16e5be	0.14736077
159	0x3d18e534	0.03732796
160	0x3d7b82d6	0.06140407
161	0xbe55675d	-0.20840211
162	0x3ddc89ac	0.10768446
163	0xbe10ff5e	-0.14159915
164	0xbd6180bc	-0.05505441
165	0xbdcb6969	-0.09932215
166	0x3e488bcc	0.19584578
167	0x3e4519a3	0.19248061
168	0xbd71b07f	-0.05900621
169	0xbe3f5a02	-0.18686679
170	0x3dbdafc6	0.09262042
171	0xbe51fd85	-0.20506866
172	0x3dc496cc	0.09599075
173	0x3cd2a329	0.025712566
174	0x3e5122a3	0.20423369
175	0xbe2f02b0	-0.17090869
176	0x3e5eed16	0.21770129
177	0xbdfaa318	-0.12238139
178	0x3d9c4f32	0.07632293
179	0x3d112fb0	0.03544587
180	0x3e52303d	0.20526214
181	0x3df6e8a7	0.12056094
182	0x3e186cfa	0.14885321
183	0xbd587ce3	-0.052853476
184	0xbe0ca381	-0.13734247
185	0xbc80c339	-0.01571809
186	0x3dbbb323	0.09165027
187	0x3b9a5b7a	0.004710612
188	0xbe1fb18c	-0.15595073
189	0x3debe68d	0.115185834
190	0xbe5666dd	-0.20937677
191	0x3db09c89	0.08623607
192	0x3e51b701	0.20479967
193	0xbb8fd1f4	-0.004389042
194	0xbdc24055	-0.094849266
195	0xbd85b47d	-0.06528566
196	0x3e48f339	0.19624032
197	0xbe0c9e41	-0.13732244
198	0x3e2d84ec	0.16945237
199	0xbd8de082	-0.06927587
200	0xbd215e3b	-0.039396506
201	0x3a811608	0.0009848485
202	0xbe511ecb	-0.20421903
203	0x3dc03f86	0.09387116
204	0xbddd7399	-0.10813064
205	0xbdceb22f	-0.100925796
206	0x3e067e07	0.13134013
207	0x3e50feb5	0.20409663
208	0x3e587d07	0.21141444
209	0xbcb497df	-0.022045074
210	0x3e4b3c5f	0.19847248
211	0xbe0a6098	-0.1351341
212	0xbde0a0fd	-0.10968206
213	0xbe373f45	-0.17895229
214	0x3d0d5845	0.03450801
215	0xbe04a2ca	-0.12952724
216	0x3c49a162	0.012306543
217	0xbd8ebf87	-0.06970125
218	0xbd00c9b7	-0.03144237
219	0xbe0ddc66	-0.13853607
220	0xbe527e14	-0.20555907
221	0xbdc37f47	-0.095457606
222	0x38c6cbea	9.479358e-05
223	0x3b66d1ed	0.003522034
224	0x3d2bd75f	0.04195344
225	0xbe3756ad	-0.17904158
226	0xbcbffb2b	-0.023435196
227	0xbd08315d	-0.0332502
228	0xbdcf9292	-0.10135378
229	0x3e42338f	0.1896498
230	0xbe41260a	-0.18862167
231	0xbe5830d7	-0.21112381
232	0x3dbc1e35	0.09185449
233	0xbe038dbc	-0.12847036
234	0x3e289803	0.16464238
235	0x3d5cfece	0.05395394
236	0x3e0bf4de	0.13667628
237	0xbd32eeb5	-0.04368468
238	0x3d27f264	0.041002646
239	0x3e4effe3	0.202148
240	0xbe3a8aa7	-0.18216954
241	0xbe08a88e	-0.13345549
242	0x3ddec7e6	0.10877971
243	0x3dd64270	0.10461891
244	0xbd4800a6	-0.048828743
245	0xbe5bebc0	-0.2147665
246	0x3e07b271	0.13251664
247	0xbc0b7976	-0.008512845
248	0x3e436761	0.19082405
249	0xbd542343	-0.05179144
250	0xbe4c7b77	-0.19968973
251	0x3e1f7a9b	0.15574114
252	0xbdd5b34d	-0.104345895
253	0xbe31e715	-0.17373307
254	0x3d26163d	0.04054855
255	0xbd1113b4	-0.03541918

body.0.bias f4 [256]
0	0xbe1bfd2d	-0.15233298
1	0x3e27ca17	0.16385685
2	0x3d8bffb2	0.068358794
3	0x3e0da8b1	0.13833882
4	0xbe314ccb	-0.1731445
5	0x3d36f8f9	0.044671033
6	0x3d083885	0.033257026
7	0x3e213587	0.15743075
8	0xbda98125	-0.082765855
9	0x3e18e2cc	0.14930266
10	0x3da3ffa9	0.08007748
11	0x3daae470	0.08344352
12	0x3e510934	0.20413667
13	0xbd1e9e0d	-0.038724948
14	0x3e034f65	0.12823255
15	0x3e29f687	0.16597949
16	0xbdf54f16	-0.11977975
17	0x3bfbdd9e	0.007686331
18	0xbe559bf6	-0.20860276
19	0xbe3be367	-0.18348466
20	0x3d89ab9f	0.06722187
21	0x3bc06647	0.0058715674
22	0x3dd64921	0.10463167
23	0x3e4224cd	0.18959351
24	0x3da45229	0.08023483
25	0xbdb98231	-0.09058035
26	0xbdc1d9af	-0.09465348
27	0x3db8b25a	0.09018393
28	0xbe16b115	-0.14715989
29	0x3e56f8a1	0.20993282
30	0xbd96a8e7	-0.07356434
31	0xbdb3750b	-0.087625585
32	0xbdcc035c	-0.09961578
33	0xbc9807b4	-0.01855836
34	0xbe18e301	-0.14930345
35	0x3e39f833	0.18161087
36	0xbe517275	-0.20453818
37	0x3e3911ff	0.18073271
38	0x3d460bd2	0.048351116
39	0x3da6a6d7	0.08137291
40	0x3e5cb6cd	0.21554108
41	0xbdf8f0dc	-0.12155315
42	0x3e3e9292	0.186106
43	0x3db85aff	0.09001731
44	0xbd31f066	-0.043442152
45	0x3e067a52	0.13132599
46	0x3d93e967	0.07222252
47	0x3e0a1e6a	0.13488165
48	0xbe40ede1	-0.18840744
49	0xbdccf2ae	-0.10007225
50	0x3e40e192	0.18836048
51	0xbd48f49d	-0.049061406
52	0xbdd4c072	-0.103882685
53	0x3e2bf30a	0.16791931
54	0xbda2e893	-0.07954516
55	0x3e2512fa	0.1612052
56	0x3dd14434	0.10218087
57	0x3db7f829	0.0898288
58	0x3de3cc96	0.11123006
59	0x3c3707bf	0.01117128
60	0xbd099e3f	-0.03359818
61	0x3cf42fad	0.02980789
62	0x3e15956a	0.14607778
63	0xbc186c15	-0.0093031125
64	0x3e4399ca	0.19101635
65	0x3da38d32	0.07985915
66	0xbd84d73e	-0.06486367
67	0xbe5633f0	-0.2091825
68	0xbe445de3	-0.1917644
69	0x3dc89332	0.097937
70	0xbe13aadc	-0.14420646
71	0x3d9c1753	0.07621636
72	0xbdacfa15	-0.08446137
73	0x3dca9e4c	0.09893474
74	0x3e217c1b	0.15769999
75	0xbe2043c1	-0.15650846
76	0x3b9bf8f2	0.004759901
77	0xbdc90029	-0.09814484
78	0xbddaea97	-0.10689276
79	0xbe04d850	-0.12973142
80	0x3dd69e5a	0.10479422
81	0xbe1eeb8a	-0.15519539
82	0x3e5ed5ef	0.21761297
83	0x3dee1704	0.11625484
84	0x3d68508b	0.056717437
85	0xbd4cb15b	-0.049973827
86	0xbe03a24f	-0.12854885
87	0xbd5c2de9	-0.05375472
88	0xbdbdb5f1	-0.09263218
89	0xbe11e014	-0.14245635
90	0xbe4995af	-0.19686006
91	0x3e346c16	0.17619357
92	0x3df05a08	0.11735922
93	0x3e19b6c6	0.15011129
94	0xbe1de5f4	-0.15419751
95	0x3e330af4	0.17484647
96	0x3e09f332	0.13471678
97	0x3db74c66	0.08950119
98	0x3df3800d	0.11889658
99	0xbd8070b3	-0.06271496
100	0xbe5acbee	-0.21366856
101	0xbe2bf4c8	-0.16792595
102	0xbe3f1c38	-0.18663108
103	0xbe54f69d	-0.207972
104	0xbd9ec53b	-0.077524625
105	0xbb2e5f63	-0.0026607148
106	0x3cc8a605	0.024493227
107	0xbe1d3edd	-0.15356012
108	0x3da2f597	0.07956999
109	0x3d8a550a	0.06754501
110	0x3e35db4b	0.17759435
111	0xbdf0533b	-0.11734625
112	0x3d6abab6	0.057306968
113	0x3e3daf9a	0.18524018
114	0x3d823e52	0.06359543
115	0xbd0a9919	-0.03383741
116	0xbd193eb0	-0.0374133
117	0x3d209bf2	0.03921122
118	0xbe4a81f3	-0.19776134
119	0xbe0bd29c	-0.1365456
120	0x3de0c738	0.10975498
121	0xbe3ffa4c	-0.18747824
122	0x3d1241d4	0.03570731
123	0x3e175bf5	0.14781173
124	0x3c110b48	0.008852787
125	0xbd8a3b5e	-0.06749605
126	0x3d165d6e	0.036710195
127	0x3cc42c15	0.023946801
128	0xbdbd4406	-0.0924149
129	0x3d7d833e	0.06189274
130	0x3d4d9cee	0.050198488
131	0x3d0383c1	0.032108072
132	0x3cde3afe	0.027127739
133	0xbe00ef82	-0.12591365
134	0x3e4884db	0.1958193
135	0xbd9338b3	-0.07188549
136	0x3d3555d4	0.044271305
137	0xbe34b4c8	-0.17647088
138	0x3d8aef2b	0.06783899
139	0x3d322cf4	0.043499902
140	0xbc36cf3f	-0.01115781
141	0x3df23d30	0.11828077
142	0x3d9a033a	0.07520147
143	0xbdd39bb2	-0.10332431
144	0xbe1a45b1	-0.15065648
145	0x3e4ed48a	0.20198265
146	0xbdeda280	-0.1160326
147	0xbdd02154	-0.10162607
148	0x3e050053	0.12988405
149	0x3dd12273	0.10211649
150	0xbc7df1ec	-0.015499573
151	0x3d2c1b72	0.04201836
152	0x3da4fa50	0.08055556
153	0xbdccf82f	-0.10008275
154	0xbe193956	-0.14963278
155	0x3d08d056	0.03340181
156	0xbda64276	-0.08118145
157	0xbdc60294	-0.096684605
158	0xbe1fa640	-0.15590763
159	0x3b0057d6	0.0019583604
160	0xbdf1029c	-0.11768076
161	0xbdaa105d	-0.08303902
162	0xbe324ef4	-0.1741293
163	0x3d415de9	0.0472087
164	0x3df4f9d2	0.11961712
165	0xbdb9e2b7	-0.090764455
166	0xbd14a425	-0.036289353
167	0xbe418bc3	-0.18900971
168	0xbdefb818	-0.11705035
169	0xbd870d6c	-0.06594357
170	0x3e401365	0.18757398
171	0x3d01227d	0.03152703
172	0x3dc0cca3	0.09414031
173	0x3b5a67ea	0.0033326098
174	0xbe140094	-0.14453346
175	0x3d9bc4e1	0.07605911
176	0xbd1a1227	-0.037614968
177	0x3e552881	0.20816232
178	0xbdbfe7a9	-0.093703575
179	0xbdf1a606	-0.117992446
180	0xbe1e4afb	-0.1545829
181	0x3e38a6f3	0.18032436
182	0xbdac16f8	-0.084028184
183	0x3e25b782	0.16183284
184	0xbd0a728f	-0.033800658
185	0xbd406d0c	-0.046978995
186	0xbdcf76be	-0.1013007
187	0xbe26012b	-0.16211383
188	0xbe3eb98e	-0.18625471
189	0xbdd2f78e	-0.103011236
190	0xbe2a6f43	-0.16644005
191	0xbe2dabd9	-0.16960086
192	0xbe43c1e5	-0.19116934
193	0xbe4759c5	-0.19467838
194	0x3d966882	0.07344152
195	0x3e2e0482	0.16993907
196	0xbd5ec879	-0.054390404
197	0x3c8c5c16	0.017133754
198	0xbe2d494b	-0.1692249
199	0x3e239053	0.15973024
200	0xbd449417	-0.047992792
201	0x3e1adf47	0.15124236
202	0x3da2123e	0.07913636
203	0x3c1372b5	0.008999516
204	0xbe4a26c3	-0.19741349
205	0x3e35df49	0.17760958
206	0xbc680769	-0.014161923
207	0xbe589d13	-0.21153669
208	0xbe36de5f	-0.17858265
209	0xbd61e820	-0.055153012
210	0x3e1246ac	0.14284772
211	0xbda11b6e	-0.0786656
212	0x3e3677e9	0.1781918
213	0x3d2f1466	0.042744063
214	0x3c4ac9b2	0.0123771895
215	0x3deb1f4d	0.114805795
216	0x3e3e9543	0.18611626
217	0x3e248de6	0.16069755
218	0xbdb0bf03	-0.086301826
219	0xbe02a8a6	-0.12759647
220	0x3bfa5873	0.0076399385
221	0xbc98b2b3	-0.018639898
222	0x3e152166	0.14563522
223	0x3d14b0b0	0.036301315
224	0x3dec092b	0.11525186
225	0x3d30c7d2	0.043159313
226	0x3e4d3bfe	0.20042416
227	0x3d97466b	0.07386478
228	0x3dd31ca4	0.10308197
229	0x3d94e2b8	0.07269806
230	0x3dacbe02	0.084346786
231	0x3e18be5e	0.1491637
232	0x3e428dcf	0.18999408
233	0xbd07faf9	-0.03319833
234	0x3e352afc	0.17692178
235	0xbe52c180	-0.20581627
236	0xbc0733c0	-0.008252084
237	0x3d6715f0	0.056417406
238	0xbe314347	-0.1731082
239	0x3dd9ef52	0.1064135
240	0xbdc88e10	-0.09792721
241	0x3e5f6011	0.2181399
242	0xbe06e308	-0.13172543
243	0x3ce8fb45	0.028440127
244	0xbdf781c6	-0.12085299
245	0x3d9686fc	0.07349965
246	0xbe4a0a53	-0.19730501
247	0xbd48f21d	-0.049059022
248	0x3df127ad	0.11775146
249	0xbd48982e	-0.048973255
250	0xbcff8f2a	-0.031196196
251	0x3e4b1a45	0.1983424
252	0x3cdbf51a	0.026850272
253	0x3e0dcc6b	0.1384751
254	0xbd7ec18f	-0.06219631
255	0xbd5ca219	-0.053865526

body.2.weight f4 [256, 256]
0	0xbd52cff1	-0.05146784
1	0xbcf4bee2	-0.029876176
2	0x3d1974a5	0.037464757
3	0x3ca61e1c	0.02027803
4	0x3d734b9c	0.05939828
5	0xbc877043	-0.016533023
6	0xbd66cfd6	-0.05635055
7	0xbb24b8af	-0.0025134494
8	0x3c483c7b	0.012221451
9	0xbd0f732d	-0.03502195
10	0xbc881757	-0.016612692
11	0xbcab6cae	-0.020925846
12	0xbcecb831	-0.028896423
13	0xbbbbd254	-0.00573186
14	0xbbcc28dd	-0.006230457
15	0xbcd4c366	-0.02597208
16	0xbc60162a	-0.013677159
17	0x3b9f1996	0.004855345
18	0x3d647917	0.055779543
19	0x3c8caa11	0.017170938
20	0x3c006db2	0.007838653
21	0xbd39feae	-0.045408897
22	0xbba1d3e2	-0.0049385885
23	0x3d72bc35	0.05926152
24	0xbce227fa	-0.027606953
25	0xbcd27711	-0.02569154
26	0x3d61da89	0.055140052
27	0xbd56d691	-0.05245072
28	0xbc54785c	-0.012968149
29	0xbced0290	-0.028931886
30	0xbcff12f5	-0.03113697
31	0xbc89c487	-0.016817344
32	0xbd24999c	-0.040185556
33	0xba6d06c5	-0.0009041841
34	0x3caf6b4f	0.021413473
35	0xbcaa73b8	-0.020807132
36	0xbd5277b7	-0.0513837
37	0xbcf5ed5e	-0.030020412
38	0x3cc303ef	0.023805587
39	0x3d00845b	0.031376224
40	0x3c90449d	0.017610842
41	0xbd3e9c2c	-0.046535656
42	0x3c9bdab6	0.019025188
43	0x3c9fdf17	0.019515557
44	0x3d2c0076	0.041992627
45	0x3c0ff4b1	0.008786366
46	0xba97db04	-0.0011585657
47	0x3d11bedb	0.035582405
48	0xbd2528ba	-0.040322043
49	0xbc71fb62	-0.014769407
50	0xbb84e51e	-0.004055633
51	0xbd2297bf	-0.039695498
52	0x3d1a00db	0.037598472
53	0x3d54663f	0.051855322
54	0x3d338f73	0.043837976
55	0x3be31c2e	0.0069308495
56	0xbd4602fe	-0.048342697
57	0xbd1e48c9	-0.038643632
58	0x3aa24370	0.0012379717
59	0xbd014183	-0.031556617
60	0xbd10755f	-0.035268184
61	0x3d708e86	0.05872967
62	0xbd1373ae	-0.035998993
63	0xbc42ff17	-0.0119016385
64	0x3c64955f	0.0139516285
65	0xbd5b7da0	-0.053586602
66	0x3c853d3a	0.016264547
67	0x3d02e07b	0.031952363
68	0xbd39184f	-0.045189198
69	0xbcba6f7e	-0.022758242
70	0xbd5311dd	-0.051530708
71	0x3d016066	0.031586073
72	0x3d1163df	0.035495635
73	0x3d16ea81	0.036844734
74	0xbd5b6606	-0.053564094
75	0x3cc2e164	0.023789115
76	0x3c4a5c5d	0.012351123
77	0x3d14cc3b	0.03632758
78	0xbd47f666	-0.04881897
79	0x3bc99d98	0.00615282
80	0x3c302a8d	0.010752332
81	0x3c5affad	0.013366622
82	0x3d6ef19f	0.058335897
83	0xbd488058	-0.048950523
84	0x3c6a77b5	0.014310767
85	0x3c88e498	0.016710564
86	0x3cd6a981	0.026203873
87	0xbcb92d97	-0.022604747
88	0x3cdfa450	0.02730003
89	0x3ced66eb	0.02897974
90	0x3d219f6b	0.039458673
91	0xbb218481	-0.002464563
92	0x3d72d918	0.059289068
93	0xbc23df36	-0.010001948
94	0x3c8203f0	0.015871018
95	0x3d2a3d2c	0.041562244
96	0x3d67fc6f	0.056637224
97	0x3a71b1f8	0.000921994
98	0xbc7187c4	-0.014741842
99	0x3d605177	0.05476519
100	0x3d54f677	0.05199286
101	0xbd2c9e98	-0.042143434
102	0xba3c8890	-0.000719198
103	0x3c1c84e3	0.009553167
104	0x3d76a716	0.06021794
105	0x3bde527a	0.0067847343
106	0xbd0815bb	-0.03322385
107	0x3d7a50b2	0.061112113
108	0xbcd3bae9	-0.025845962
109	0xbcd539f5	-0.026028613
110	0x3acbcaf0	0.0015548151
111	0x3bf6a163	0.007526563
112	0x3c9704af	0.01843485
113	0xbc99e577	-0.018786175
114	0xbbeba144	-0.007190855
115	0x3cd0c091	0.025482448
116	0x3ce98032	0.028503511
117	0x3d89e78e	0.06733619
118	0x3c22a3a8	0.009926714
119	0x3ca273c7	0.019830598
120	0xbd7d5c47	-0.06185558
121	0x3c077160	0.008266777
122	0x3c11282f	0.008859678
123	0x3c22c4ec	0.009934645
124	0x3cb63025	0.022239754
125	0x3d492e52	0.04911644
126	0xbb4cc2ff	-0.0031244156
127	0xbd3fa4dd	-0.046788085
128	0x3c3171cf	0.010830357
129	0xbd1e104b	-0.038589757
130	0x3b298100	0.0025864244
131	0x3d5d60e6	0.054047488
132	0x3c7d5307	0.01546169
133	0xbcfd1127	-0.030891968
134	0xbb9664d5	-0.004589657
135	0x3c27d6b4	0.01024406
136	0xbd5ae3e0	-0.053439975
137	0xbd64d371	-0.05586571
138	0xbd57b2c4	-0.05266072
139	0xbbbfd2e9	-0.005854
140	0x3d5c3073	0.053757142
141	0x3cbaae87	0.0227883
142	0x3d72468a	0.059149303
143	0x3d082f28	0.033248097
144	0xbc891929	-0.01673563
145	0x39eaa3a4	0.0004475388
146	0xbb916685	-0.00443727
147	0xbc79484f	-0.015214994
148	0xbc6f0b4d	-0.014590097
149	0x3d534824	0.05158247
150	0xbd147c30	-0.036251247
151	0x3b1545f0	0.0022777282
152	0xbd0f36d5	-0.0349644
153	0x3b5d88a1	0.003380336
154	0x3cd6728b	0.026177665
155	0x3d348f1c	0.044081792
156	0xbd48dfc5	-0.04904153
157	0x3d0519b7	0.032495227
158	0xbc31c582	-0.010850312
159	0xbc79656c	-0.015221935
160	0xbd91a041	-0.07110644
161	0x3d249bac	0.040187523
162	0x3ba86b85	0.0051397705
163	0x3cbc201e	0.022964533
164	0xbce1e478	-0.027574763
165	0x3d106eca	0.035261907
166	0x3d309465	0.04311027
167	0x3c36f954	0.011167843
168	0xbcf4d5a5	-0.02988703
169	0xbd1dfdf6	-0.038572274
170	0xbcf87ad7	-0.030332012
171	0xbb3def06	-0.002898158
172	0x3d1455d8	0.03621468
173	0x3d729087	0.059219863
174	0x3d2c8748	0.0421212
175	0xbcfb2636	-0.030657869
176	0x3d1bf822	0.038078435
177	0xbd794988	-0.06086114
178	0x3a5fb579	0.00085338164
179	0xbc1f70b0	-0.009731457
180	0x3b60403b	0.0034217972
181	0xbd655b24	-0.05599512
182	0xbcde930d	-0.027169729
183	0x3c81f6a7	0.015864683
184	0xbd8c270c	-0.06843385
185	0xbd5f67bd	-0.054542292
186	0xbd2174c7	-0.03941801
187	0x3b202010	0.0024433173
188	0x3d18f343	0.037341367
189	0x3ca8cd3f	0.020605681
190	0x3b19a84a	0.0023446255
191	0x3c7ffe14	0.015624542
192	0x3cc9249f	0.024553595
193	0x3cf6d5ad	0.030131185
194	0xbd4e5cbe	-0.050381415
195	0xbc937803	-0.018001562
196	0xbca78c9f	-0.020452796
197	0x3d4d7b7a	0.050166585
198	0xbd2c0fc8	-0.042007238
199	0x3ac70a27	0.0015185521
200	0x3cafecb9	0.021475183
201	0xbd0f74bf	-0.035023447
202	0xbbcd9503	-0.006273867
203	0xbc144d52	-0.009051638
204	0x3d807a78	0.06273359
205	0x3bbd66cb	0.005780076
206	0xbd82efec	-0.06393418
207	0xbd2581d1	-0.040407006
208	0x3cab86cd	0.020938301
209	0xbd1860f2	-0.03720183
210	0xbd50cd71	-0.050977174
211	0xbc8ba428	-0.01704605
212	0xbd28b0bd	-0.041184176
213	0xbd5a6dbe	-0.053327315
214	0x3d600d28	0.054700047
215	0x3caa5332	0.020791624
216	0xbcfce903	-0.030872827
217	0xbd89df63	-0.06732061
218	0xbd14e436	-0.03635045
219	0x3cd30f1d	0.025764043
220	0x3d3f5bce	0.04671841
221	0xbd1eedca	-0.038800992
222	0x3c3d6413	0.011559504
223	0xbca3d6ec	-0.019999944
224	0x3d391245	0.04518344
225	0xbd0e93a5	-0.034808774
226	0xbcb3a9be	-0.021931525
227	0x3d4cddf9	0.050016377
228	0x3d11787d	0.035515297
229	0xbd699617	-0.057027902
230	0x3c1718cf	0.009222223
231	0xbcc5e720	-0.02415806
232	0xbd2a76ad	-0.041617084
233	0x3d9ed863	0.07756116
234	0x3d6ea4db	0.058262687
235	0x3d4b1e15	0.049589235
236	0x3d6c5b07	0.057703998
237	0x3d7bc8af	0.061470684
238	0xbd17f919	-0.037102792
239	0xbd0b524d	-0.034014035
240	0x3ceb0ff6	0.028694134
241	0x3c672648	0.014108248
242	0xbd8a51da	-0.06753893
243	0x3d3a9ecb	0.045561593
244	0xba76591b	-0.0009397433
245	0x3d2c426d	0.042055536
246	0x3d4e2fdf	0.050338622
247	0xbd4dadfe	-0.05021476
248	0xbc73f787	-0.014890558
249	0xbbea0837	-0.0071420926
250	0x3c41c04a	0.01182563
251	0x3b7c86c4	0.0038532475
252	0xbb8248ec	-0.003975978
253	0xbb6e8ef4	-0.0036401125
254	0xbc7b8bc7	-0.01535315
255	0xbbb00da0	-0.005372718

body.2.bias f4 [256]
0	0x3d304e7f	0.04304361
1	0xbc82c20d	-0.015961671
2	0xbd495d73	-0.049161386
3	0x3d1208b8	0.035652846
4	0xbb27e5b2	-0.0025619087
5	0x3ccf37ae	0.025295105
6	0xbca29266	-0.019845199
7	0xbd045f54	-0.032317474
8	0x3d495680	0.04915476
9	0xbc3a2c2c	-0.01136307
10	0xbd1d6d4d	-0.038434315
11	0xbd2817e4	-0.04103841
12	0xbd5f94fb	-0.05458544
13	0x3b1faf18	0.0024365839
14	0x3cda63b8	0.026658878
15	0xbd14f2b1	-0.03636426
16	0x3d5b111c	0.053483114
17	0xbd61936e	-0.05507224
18	0x3d45e4a5	0.048313756
19	0x3cfa7e90	0.030577928
20	0xbc296e9c	-0.010341313
21	0xbcef317a	-0.029198397
22	0xbbbc64ac	-0.0057493057
23	0x3d06171d	0.032736886
24	0xbbd82e3e	-0.0065973094
25	0x3c16946a	0.009190658
26	0x3c58e98b	0.013239275
27	0xbc329589	-0.01089991
28	0x3d472b04	0.048625007
29	0xbb56c446	-0.0032770797
30	0x3b8f5d1c	0.004375113
31	0x3b953016	0.0045528514
32	0xbc8775a3	-0.016535586
33	0x3cb72c9c	0.022360139
34	0x3c6bcec1	0.014392556
35	0xbcc09eed	-0.023513282
36	0x3ce3f825	0.027828285
37	0x3d83911a	0.0642416
38	0x3ca17458	0.019708797
39	0xbc6ba2b3	-0.014382052
40	0xbd15bfe7	-0.036559965
41	0xbd819dc4	-0.063289195
42	0xbd400a8e	-0.046885066
43	0x3c656552	0.014001207
44	0xbd127dc0	-0.035764456
45	0x3b79a3cc	0.0038092015
46	0x3d48e091	0.04904229
47	0xbcc0bd07	-0.023527635
48	0x3d1505ab	0.03638236
49	0xbca70380	-0.020387411
50	0xbd591261	-0.052996043
51	0xbc5fbce8	-0.013655879
52	0xbc80652c	-0.015673243
53	0xbd4f8ef5	-0.050673444
54	0xbb6f6cf4	-0.0036533447
55	0x3d821c82	0.06353094
56	0xbd75635a	-0.059909202
57	0xbd0dcf1c	-0.034621343
58	0xbc915693	-0.017741477
59	0xbd4bd19b	-0.049760442
60	0xbbc3a043	-0.0059700324
61	0xbcb1c625	-0.021700928
62	0xbd81d72d	-0.0633987
63	0x3d4e3485	0.050343055
64	0xbd08088f	-0.033211287
65	0x3c596ba9	0.013270297
66	0x3c2fbd60	0.010726303
67	0xbc3be509	-0.01146818
68	0x3ce6f8a9	0.028194742
69	0x3d316292	0.043306895
70	0x3d6fd044	0.058548227
71	0xbbf952ea	-0.007608761
72	0x3cefef2e	0.029288854
73	0xbd637ee6	-0.05554094
74	0xbd74199a	-0.059594728
75	0xbcd444b6	-0.02591167
76	0x3d4d6fa1	0.050155286
77	0x3d3113ba	0.043231703
78	0x3d2b1cc3	0.041775476
79	0xbd29cbc3	-0.041454088
80	0xbd1e60bd	-0.038666476
81	0xbd573cff	-0.052548405
82	0xbc96f1a8	-0.018425778
83	0xbc23cf22	-0.009998115
84	0xbcfdffc5	-0.03100575
85	0x3c933fe8	0.017974809
86	0x3be9499b	0.00711937
87	0x3d310708	0.043219596
88	0xbc2b3ac1	-0.01045102
89	0xbceb2490	-0.028703958
90	0xbbcc94a8	-0.006243307
91	0xbd0afba8	-0.033931404
92	0xba87fbb0	-0.0010374691
93	0xbccf9a9f	-0.025342284
94	0xbd141408	-0.036151916
95	0xbc491be0	-0.012274712
96	0x3cb6033c	0.02221834
97	0x3d0a2d0e	0.033734374
98	0x3d05ec82	0.032696255
99	0xbc24aaba	-0.01005047
100	0xb9bef72e	-0.00036423787
101	0x3cb50536	0.022097211
102	0x3d4e3a3e	0.050348513
103	0x3c70901c	0.014682796
104	0x3d027467	0.03184929
105	0x3d29b0a5	0.041428227
106	0xbd213a54	-0.039362267
107	0xbc9760c8	-0.018478766
108	0xbd45df0b	-0.048308413
109	0x3d3a84cd	0.045536805
110	0xbd655890	-0.055992663
111	0x3be3d902	0.0069533596
112	0xbce55974	-0.027996756
113	0x3cfb2bf3	0.030660605
114	0x3d2a57be	0.041587584
115	0x3bc03d30	0.005866669
116	0xbd70e153	-0.058808636
117	0xbd248957	-0.04017004
118	0xbd449c0f	-0.04800039
119	0x3d7cc0e9	0.06170741
120	0xbbcc53a4	-0.0062355567
121	0xbd618eec	-0.05506794
122	0x3d01be51	0.03167564
123	0x3c685858	0.014181219
124	0xbc68e7bd	-0.014215407
125	0xbc42d9f3	-0.011892783
126	0xbb3effcc	-0.0029144166
127	0xbd3b9793	-0.04579885
128	0x3d121cb4	0.035671905
129	0x3ad44ac2	0.0016196596
130	0xbcc554db	-0.024088314
131	0x3d08c821	0.033393983
132	0x3d2e6cfe	0.04258441
133	0xbc8b71b2	-0.017021988
134	0xbcf4beab	-0.029876074
135	0xbc5a07a8	-0.013307489
136	0x3cf0a46c	0.029375277
137	0x3d8915c1	0.06693602
138	0xbc3ddc09	-0.011588105
139	0x3ac47474	0.0014988319
140	0xbb0a2b2f	-0.0021082868
141	0xbd4d9b06	-0.05019667
142	0x3d05b6d9	0.03264508
143	0xbd31b9c9	-0.04339007
144	0xbc3151c8	-0.010822721
145	0x3d2daaa5	0.042399067
146	0x3b9a58dc	0.0047103
147	0x3ce5ca00	0.028050423
148	0xbcdc59d6	-0.026898306
149	0xbd1afdc3	-0.037839662
150	0x3d81ca52	0.06337418
151	0x3ccaf551	0.02477518
152	0x3d027b5c	0.031855926
153	0x3cd32909	0.025776403
154	0xbd32fb94	-0.043696955
155	0xbd48fec6	-0.049071096
156	0x3cf76412	0.030199084
157	0xbce6e96e	-0.02818748
158	0xbd69e3d0	-0.057102025
159	0x3d548973	0.051888894
160	0xbd357309	-0.04429916
161	0x3d2e1744	0.042502657
162	0x3d3caff6	0.046066247
163	0xbcdb9a3f	-0.026806949
164	0xbd2d6d8e	-0.042340808
165	0xbd46cf00	-0.048537254
166	0xbca909e6	-0.020634603
167	0xbd4d5d8e	-0.05013805
168	0xbc183b8c	-0.009291541
169	0xbd530023	-0.051513802
170	0xbcacad15	-0.021078626
171	0x3d27bb4f	0.040950116
172	0xbd2c5616	-0.042074285
173	0x3cf83050	0.030296475
174	0xbd49788f	-0.04918724
175	0x3d4eef6b	0.050521296
176	0xbbd3ebb7	-0.0064673084
177	0xbd2f2a9d	-0.04276525
178	0xbd1e7917	-0.0386897
179	0xbbb20982	-0.0054332623
180	0x3d51ea91	0.05124909
181	0xbd1b82b7	-0.037966456
182	0xbd1d3ff0	-0.038391054
183	0x3ced7eae	0.02899107
184	0x3ae255b2	0.0017267971
185	0x3c8a8862	0.016910736
186	0xbbb9cd48	-0.0056702234
187	0xbcd828d4	-0.026386656
188	0xbd230323	-0.039797913
189	0xbd02b44c	-0.031910226
190	0xb9b77899	-0.00034994332
191	0x3ce35752	0.027751599
192	0xbc36ed44	-0.011164967
193	0x3d0dc5c3	0.03461243
194	0x3d6dbbe3	0.05804051
195	0xbd828776	-0.063734934
196	0x3d0d86b2	0.034552284
197	0x3d31e965	0.043435473
198	0x3c321e99	0.010871553
199	0x3d361e55	0.04446252
200	0xbcf226cf	-0.029559521
201	0xbd1b60a8	-0.037933975
202	0x3d4f975d	0.05068146
203	0x3d4c2c4d	0.049846936
204	0x3d2bb375	0.04191919
205	0x3b6330c2	0.0034666513
206	0x3ca6709a	0.020317364
207	0xbd4ee9fb	-0.05051611
208	0x3cb4db0e	0.02207711
209	0xbd87c006	-0.066284224
210	0xbcf2d6fe	-0.029643532
211	0x3d206923	0.039162766
212	0x3b28f83d	0.0025782727
213	0xbc9fbfda	-0.019500662
214	0x3cc2c347	0.023774756
215	0x3d31508a	0.0432897
216	0x3cd0b603	0.025477415
217	0xbd867ad2	-0.06566395
218	0xbcd3a5b4	-0.02583585
219	0xbce393b3	-0.02778039
220	0xbce36d3a	-0.027762044
221	0x3d163bf6	0.036678277
222	0xbd39836e	-0.045291357
223	0x3d659972	0.05605454
224	0xbc99662b	-0.018725475
225	0x3d1bd02e	0.038040332
226	0x3d13d501	0.03609181
227	0xbd447b1f	-0.04796898
228	0xbc37db01	-0.011221648
229	0xbd54aebb	-0.05192445
230	0xbd2094b4	-0.039204314
231	0x3954ea1f	0.00020305112
232	0xbceac7f0	-0.02865979
233	0xbbffd138	-0.0078069232
234	0xbd1de857	-0.038551655
235	0xbc848db1	-0.016180845
236	0x3d62ccd3	0.055371117
237	0xbd172090	-0.03689629
238	0x3b3a79d6	0.0028453968
239	0xbc4609e7	-0.012087322
240	0x3d4bfbbb	0.049800616
241	0xba18e8ba	-0.0005833019
242	0xbd4bfba5	-0.049800534
243	0x3d3ac140	0.045594454
244	0xbab2ea2c	-0.0013650111
245	0x3cebfd3d	0.028807277
246	0x3c96e4ff	0.01841974
247	0xbd6beb16	-0.057597242
248	0xbc1e6cd3	-0.0096695
249	0x3c536345	0.012902086
250	0x3cfd27ee	0.030902829
251	0xbd70b3df	-0.05876529
252	0x3d059acb	0.032618325
253	0x3c63692d	0.013880056
254	0x3d4d1334	0.05006714
255	0xbd062c06	-0.032756828

move_head.weight f4 [5, 256]
0	0x3d67c7e5	0.05658712
1	0xbcb7cede	-0.02243751
2	0xbcb4df58	-0.022079155
3	0x3c3f0493	0.011658805
4	0xbcf9ffc8	-0.030517474
5	0x3d1dde5c	0.038542137
6	0x3cfe261d	0.031024033
7	0xbd263e7b	-0.04058693
8	0xbc88b6bb	-0.016688695
9	0x3d2c22be	0.04202532
10	0x3d4624b3	0.048374843
11	0x3bc554c0	0.006022066
12	0xbcc24a1b	-0.023716977
13	0xbb981dc7	-0.0046422216
14	0x3d1263b2	0.035739608
15	0xbc949032	-0.018135164
16	0x3d169bea	0.036769785
17	0xbc5c34c2	-0.013440313
18	0xbd2b4104	-0.04181005
19	0x3cb199c2	0.021679763
20	0x3d2300f4	0.03979583
21	0x3bc2c803	0.0059442534
22	0xbd3cbaf2	-0.046076722
23	0x39c636f2	0.0003780644
24	0xbccd3a47	-0.025052203
25	0x3ba9900b	0.005174642
26	0xbd296b96	-0.041362368
27	0x3d35e32d	0.044406105
28	0x3be846e7	0.0070885303
29	0xbbab0580	-0.0052191615
30	0xbcfa7bfa	-0.030576695
31	0xbc827046	-0.015922677
32	0x3c1b13bd	0.009465155
33	0x3d059b45	0.03261878
34	0x3d1164a7	0.03549638
35	0xbd17b5b4	-0.03703852
36	0xbd4bac6d	-0.049724985
37	0xbd3f01fe	-0.04663276
38	0x3cd3c704	0.025851734
39	0xbcee233f	-0.029069541
40	0x3d78165d	0.060568202
41	0x3cf5c4dd	0.030001098
42	0xbd7c7313	-0.06163318
43	0xbc0919c6	-0.008367961
44	0xbd33dddb	-0.04391275
45	0xbd0168fe	-0.03159427
46	0x3d37ba5b	0.044855457
47	0xbd3e4639	-0.04645369
48	0x3cb57c0a	0.022153873
49	0x3d1e898f	0.038705405
50	0x3d194d64	0.03742732
51	0xbcf9b9d6	-0.030484121
52	0xbcee5466	-0.029092979
53	0xbd5fd30f	-0.05464464
54	0x3d22084a	0.039558686
55	0x3d07a4a4	0.033115998
56	0xbd11f867	-0.035637286
57	0xbd73a89a	-0.059486963
58	0x3cd894f8	0.026438221
59	0x3d4446d0	0.047919095
60	0xbd4474c1	-0.047962908
61	0x3c0d217b	0.008613939
62	0x3d1810b6	0.03712531
63	0x3d83a158	0.06427258
64	0x3d19a5b0	0.037511528
65	0xbc56a0d8	-0.013099872
66	0x3c778cb7	0.015109233
67	0xbd2a673e	-0.041602366
68	0x3c2eddaa	0.010672966
69	0xbc01bbdb	-0.007918323
70	0x3d065c43	0.03280283
71	0xbc78e44f	-0.015191152
72	0xbce17a65	-0.027524183
73	0xbd283139	-0.041062567
74	0x3c334759	0.010942304
75	0x3d502e8f	0.05082565
76	0x3d81e00e	0.06341563
77	0xbce5bf21	-0.028045239
78	0x3d6e0fd0	0.05812055
79	0xbd0df9e4	-0.034662142
80	0x3b3a3c38	0.002841724
81	0x3bd068cc	0.006360149
82	0x3c75ff20	0.01501444
83	0xbc7637f7	-0.0150279915
84	0x3d00e0bc	0.031464323
85	0x3d180cba	0.037121512
86	0x3cf56ced	0.029959166
87	0x3d1822ef	0.03714269
88	0xbb731af9	-0.0037094934
89	0xbcaee5da	-0.021349836
90	0xbcd5f909	-0.026119726
91	0x3d4c1bca	0.04983119
92	0xbbdf52a7	-0.006815273
93	0x3d75a02b	0.0599672
94	0xbc63cd21	-0.013903887
95	0xbbc9ead0	-0.006162025
96	0x3b9b7894	0.0047445986
97	0xbae4add0	-0.001744682
98	0x3d0576b8	0.032583922
99	0xbcc88f25	-0.02448232
100	0xbc7a82e3	-0.015289995
101	0xbc8b61d8	-0.017014429
102	0x3d3b88cb	0.045784753
103	0xbd5e2b10	-0.054240286
104	0xbcae1dc9	-0.021254437
105	0xbd0b6d40	-0.034039736
106	0x3c6e075c	0.014528122
107	0xbd426e53	-0.047468495
108	0xbd3c76a4	-0.046011582
109	0xbb6b8081	-0.0035934749
110	0xbd475018	-0.048660368
111	0xba9b7edb	-0.0011863367
112	0x3ce9c038	0.02853404
113	0xbd681c20	-0.056667447
114	0x3cdbb8ef	0.026821582
115	0xbc380e39	-0.01123386
116	0x3cedf84d	0.029049063
117	0xbd641c3a	-0.05569098
118	0x3d7f2fb0	0.062301338
119	0xbd3878db	-0.04503713
120	0x3d7a556b	0.061116617
121	0x3c9f0128	0.019409731
122	0xbd49229d	-0.049105275
123	0x3d248904	0.04016973
124	0x3bfc5940	0.007701069
125	0x3d0919a3	0.033471715
126	0x3d7c4523	0.06158937
127	0xbd623355	-0.055224735
128	0xbcec7fa4	-0.028869458
129	0x3c71b7cb	0.014753292
130	0xbd821c6c	-0.06353077
131	0xbd5a63ff	-0.05331802
132	0xbd387c69	-0.04504052
133	0xbc756368	-0.014977314
134	0xbd191590	-0.03737408
135	0x3d11805f	0.035522815
136	0x3cd5ef98	0.026115224
137	0xbc249c65	-0.010047053
138	0xbcd3f91d	-0.025875622
139	0x3c47ce5b	0.012195195
140	0x3d30b789	0.043143783
141	0xbcc8291b	-0.024433663
142	0x3b926ca1	0.004468516
143	0xbd4e76f5	-0.050406415
144	0xbc4f5f5d	-0.012657014
145	0xbd57d164	-0.052689925
146	0xbadf3774	-0.0017030076
147	0xbd15658b	-0.036473792
148	0xbcc5b061	-0.024131956
149	0xbb4cde39	-0.0031260385
150	0xbd53a2fc	-0.051669106
151	0xbc8a62bc	-0.016892783
152	0x3d4e0910	0.05030161
153	0xbc15a7bb	-0.009134228
154	0xba48c1f8	-0.0007658298
155	0xbd5737f6	-0.052543603
156	0xbd2b6f35	-0.041854102
157	0x3d2310f2	0.039811082
158	0x3d046e65	0.032331843
159	0x3d20c524	0.039250508
160	0xbcbefb63	-0.02331323
161	0xbd2ce5a0	-0.042211175
162	0x3c49d473	0.012318718
163	0xbd562f41	-0.05229116
164	0x3b949522	0.0045343796
165	0x3cacf5e4	0.021113344
166	0x3c4176c4	0.011808101
167	0x3cb2c581	0.021822693
168	0xbcbfd1c7	-0.02341546
169	0xbce953ea	-0.028482396
170	0x3d373811	0.044731203
171	0xbc162d4e	-0.009166075
172	0xbd199b8e	-0.037501864
173	0xbd29d8e4	-0.04146661
174	0x3c47f035	0.012203266
175	0x3d29edee	0.041486673
176	0x3d71ac41	0.059002165
177	0x3d5b05b5	0.05347224
178	0xbc6adf46	-0.014335459
179	0x3d42e35d	0.04758011
180	0x3d578449	0.05261639
181	0xbcee5e97	-0.029097838
182	0x3d1b38ee	0.03789609
183	0x3d409e45	0.047025938
184	0xbd5dd1a4	-0.054155007
185	0xbd0d398a	-0.0344787
186	0xbd00a97f	-0.031411644
187	0xbc995b4c	-0.018720292
188	0x3ce00804	0.027347572
189	0x3c6b0b5a	0.014345968
190	0x3d66b7ee	0.056327753
191	0x3d20e8f5	0.039284665
192	0x3cf01144	0.029305108
193	0xbcc69b4f	-0.024243979
194	0x3994d86e	0.00028390012
195	0xbd8a6b2b	-0.06758722
196	0xbc96c173	-0.01840279
197	0xbd3578a3	-0.0443045
198	0xbd293f1b	-0.041319948
199	0xbb25991a	-0.0025268258
200	0x3cc7f94f	0.024410872
201	0x3ceee6e9	0.02916284
202	0x3d5c2362	0.05374468
203	0xbcffa57d	-0.03120684
204	0xbc326c09	-0.010890015
205	0x3d76cdf3	0.060255002
206	0xbd726369	-0.059176836
207	0x3b9b5563	0.0047404035
208	0x3d24a3ca	0.040195264
209	0xbd208748	-0.039191514
210	0xbd570f00	-0.05250454
211	0xbc175e3b	-0.009238775
212	0xbca1205b	-0.019668749
213	0x3d5a556c	0.05330412
214	0xbc29c549	-0.010361978
215	0xbcf1436d	-0.029451096
216	0xbd7d7a42	-0.061884172
217	0xbd096527	-0.033543732
218	0xbbee2202	-0.0072672376
219	0x3d216030	0.039398372
220	0xbd01a13e	-0.031647913
221	0x3ab1e85f	0.001357328
222	0xbb84d4c8	-0.004053686
223	0xbcc67423	-0.0242253
224	0x3cca8aff	0.024724482
225	0xbbe1dde2	-0.0068929056
226	0x3c7cb9ca	0.015425155
227	0xbb8f769e	-0.004378154
228	0xbaf101d0	-0.0018387381
229	0x3d4bf375	0.049792726
230	0xbd5bd782	-0.05367232
231	0x3cbb0d54	0.022833504
232	0x3d1542fe	0.03644084
233	0x3d2b8aa3	0.04188026
234	0xbd51ac99	-0.051189993
235	0x3d298f65	0.041396517
236	0x3d452f96	0.048141085
237	0x3d3be260	0.045870185
238	0x3d361523	0.04445375
239	0x3cbc6384	0.022996671
240	0x39deff21	0.00042533225
241	0xbd19b24c	-0.037523553
242	0xbd092f61	-0.03349245
243	0x3bde0b6e	0.006776265
244	0x3d6de893	0.05808313
245	0x3d0f3dd2	0.034971066
246	0x3cfb89bc	0.030705325
247	0x3c8abeaa	0.016936619
248	0xbcc50053	-0.024048006
249	0x3d6eb35e	0.058276527
250	0xbbac0b27	-0.005250353
251	0x3d04e0b5	0.03244086
252	0xbd520bc0	-0.051280737
253	0x3d37b1b8	0.04484722
254	0x3cd379ca	0.02581491
255	0xbcbb75ae	-0.022883262

move_head.bias f4 [5]
0	0x3c0536d2	0.008130746
1	0xbcfba11e	-0.030716475
2	0xbd4d2432	-0.050083347
3	0xbc45de44	-0.012076918
4	0x3c44acb6	0.012004068

comm_head.weight f4 [10, 256]
0	0xbd62c789	-0.055366073
1	0x3b40bc83	0.0029409237
2	0xbc41643c	-0.011803683
3	0xbd1e02b3	-0.038576793
4	0x3d41bfea	0.047302164
5	0x3c942fb2	0.01808915
6	0x3d04671a	0.032324888
7	0x3cf35500	0.029703617
8	0xbc7d667e	-0.015466331
9	0x3c797d31	0.015227602
10	0x3d49857d	0.04919957
11	0xbceb8d1e	-0.028753813
12	0xbc2075db	-0.009793724
13	0x3cdf9f97	0.027297778
14	0xbcbbce6c	-0.022925578
15	0xbba9d80a	-0.0051832246
16	0xbca6117a	-0.020272005
17	0x3c195920	0.009359628
18	0xbc5f9453	-0.013646203
19	0x3cf08d20	0.029364169
20	0xbcf56da7	-0.029959513
21	0xbc13d3dc	-0.009022679
22	0xbc5ea19d	-0.013588336
23	0xbc957fde	-0.018249448
24	0xbc6a9c6c	-0.01431952
25	0xbd1a6de6	-0.037702464
26	0xbcf61717	-0.030040307
27	0x3d877baa	0.06615384
28	0x3ca047f1	0.019565554
29	0x3d227a36	0.03966733
30	0xbd30525a	-0.043047287
31	0xbd1f758c	-0.03893046
32	0x3c508f4d	0.012729478
33	0xbd517141	-0.051133398
34	0x3d2880e9	0.041138563
35	0xbcc5d28a	-0.024148244
36	0xbd48abd1	-0.048991982
37	0xbd12f045	-0.03587367
38	0xbd3b1a53	-0.0456794
39	0xbd380401	-0.044925693
40	0xba4a8bec	-0.00077265385
41	0xbc29f49b	-0.01037326
42	0xbd745226	-0.059648655
43	0x3d5002d6	0.050783955
44	0x3c5c874b	0.013459991
45	0xbd6f8928	-0.05848041
46	0x3d6a4b11	0.057200495
47	0xbc449b65	-0.01199994
48	0x3d737baa	0.059444107
49	0xbc19a7d0	-0.0093783885
50	0xbcefb90e	-0.029263046
51	0xbc02987b	-0.0079709245
52	0x3d061fe0	0.032745242
53	0x3d0f97db	0.03505693
54	0x3ce1118c	0.027474187
55	0xbd434a08	-0.047678024
56	0xbca375a5	-0.019953558
57	0xbd0dcdac	-0.034619972
58	0x3d4d11d3	0.050065827
59	0x3d6d8091	0.05798394
60	0x3c7bf5cd	0.015378428
61	0x3cce423f	0.025178073
62	0xbd04770b	-0.03234009
63	0x3c9b639d	0.018968398
64	0x3d78bc08	0.060726196
65	0x3d22d796	0.03975638
66	0xbcb313f9	-0.02186011
67	0x3d0be972	0.034158178
68	0x3d626547	0.055272367
69	0x3cfc182f	0.03077325
70	0x3c8452f5	0.016152838
71	0x3d1b56bc	0.037924513
72	0x3d4397df	0.047752257
73	0x3d20755a	0.039174415
74	0x3d648da2	0.055799134
75	0x3c436ad8	0.011927329
76	0x3d69794b	0.05700044
77	0x3b0a84e1	0.002113633
78	0x3c0ddbe7	0.008658386
79	0xbd24fbcc	-0.040279195
80	0x3d209d1d	0.039212335
81	0xbd2a3a83	-0.041559707
82	0xbb84d4e6	-0.0040537
83	0x39f3d044	0.00046503742
84	0x3d0028af	0.0312888
85	0x3d469eaa	0.048491158
86	0x3b055acc	0.0020348309
87	0xbcabfd0c	-0.020994686
88	0xbbdbd150	-0.0067083016
89	0xbd30b7cd	-0.043144036
90	0xb9ca3878	-0.00038570515
91	0x3d73fe56	0.059568726
92	0xbd1889ae	-0.037240677
93	0xbd16fc6c	-0.036861822
94	0xbd4e8098	-0.050415605
95	0x3d3e9080	0.046524525
96	0xbcfc8c94	-0.030828752
97	0xbcf81a89	-0.03028609
98	0xbd06d800	-0.032920837
99	0xbd6dc936	-0.058053218
100	0xbb76e25e	-0.0037671546
101	0x3d1a9120	0.03773606
102	0xbd356a51	-0.044290844
103	0xbd747203	-0.059679043
104	0xbd0e1127	-0.034684326
105	0xbab60665	-0.0013887404
106	0x3d1e05fb	0.038579922
107	0xbd23f9a3	-0.040032994
108	0x3cf8d8b7	0.030376775
109	0xbbac8d1b	-0.0052658445
110	0x3d10157b	0.035176735
111	0xbd2285d4	-0.03967841
112	0x3c532b41	0.0128887305
113	0x3ccd12bf	0.025033353
114	0x3d21caae	0.03949993
115	0xbd4fe904	-0.05075933
116	0xbc79a97f	-0.015238165
117	0xbd778cda	-0.06043706
118	0x3c228d99	0.009921455
119	0x3bcea277	0.0063059884
120	0x3d0a01c8	0.033693105
121	0x3c9eb5bc	0.019373767
122	0x3ca87c74	0.020567156
123	0xbd230354	-0.039798096
124	0x3cf4a3af	0.029863207
125	0xbd6b4d92	-0.057447024
126	0xbcc93ea1	-0.024565997
127	0x3d20b769	0.039237414
128	0x3b09f026	0.002104768
129	0xbc1921d3	-0.009346443
130	0x3d67ca5e	0.056589477
131	0x3bc4e5ac	0.0060088243
132	0x3d1fefab	0.039046925
133	0x3d63b3ed	0.055591512
134	0x3b6f7fc1	0.0036544653
135	0xbd251346	-0.040301584
136	0x3d5af016	0.05345162
137	0x3b6ab67b	0.0035814333
138	0x3d7bc94b	0.061471265
139	0x3c3c9731	0.011510656
140	0xbc3d1a24	-0.011541877
141	0xbbbe53f2	-0.005808347
142	0x3b8ab434	0.0042329077
143	0xbd79d2fe	-0.060992233
144	0xbc5410a4	-0.012943421
145	0x3d1a81d6	0.037721477
146	0x3d259105	0.040421505
147	0xbc4b3a76	-0.012404075
148	0xbc061c54	-0.008185465
149	0x3c0d4493	0.008622306
150	0xb9015325	-0.00012333372
151	0xbd75edcb	-0.06004123
152	0x3b8216ca	0.003970002
153	0x3d6cf352	0.057849236
154	0x3932b4bf	0.00017042736
155	0x3bbc6bca	0.005750154
156	0x3cc22f56	0.023704212
157	0xbd385193	-0.04499967
158	0xbc89ed15	-0.016836682
159	0xbc80e196	-0.015732568
160	0x3d161973	0.036645364
161	0x3d4fc799	0.05072746
162	0xbd0daf30	-0.0345909
163	0xbd2c21e0	-0.042024493
164	0xbd7233b1	-0.059131328
165	0x3d3b4b4c	0.045726106
166	0xbd161363	-0.036639582
167	0x3d045e8d	0.032316733
168	0xbcc6457f	-0.02420306
169	0x3d1e7088	0.038681537
170	0xbcd6b7ed	-0.02621075
171	0x3adc58e3	0.0016811158
172	0x3d5441af	0.051820453
173	0x3d156181	0.03646994
174	0x3d3d752c	0.046254322
175	0x3ae04769	0.0017111126
176	0x3c7ee240	0.015556872
177	0xbd10e6a6	-0.035376213
178	0x3d2f80b7	0.04284736
179	0xbd68ef1d	-0.05686866
180	0x3bf7cd18	0.007562291
181	0x3caea131	0.021317096
182	0x3c2e277d	0.010629532
183	0x3d402709	0.046912227
184	0x3d53b57d	0.051686753
185	0x3ca5a6b8	0.0202211
186	0x3cbe859a	0.023257066
187	0xbd1ab293	-0.037767958
188	0xbca68cae	-0.020330753
189	0x3d658907	0.056038883
190	0xbce1660a	-0.027514476
191	0x3b0b9b8b	0.0021302428
192	0x3cf87c07	0.030332578
193	0xbd2d90ac	-0.042374298
194	0xbcb33a47	-0.021878375
195	0x3c3a36e0	0.011365622
196	0xbd777e91	-0.060423438
197	0xba2b0bcc	-0.000652489
198	0x3d7a3976	0.061089955
199	0xbc2703fa	-0.010193819
200	0xbcb4d079	-0.022072064
201	0xbd5ff5e3	-0.054677855
202	0x3d060cde	0.032727115
203	0x3d405950	0.046960175
204	0xbd2a5b92	-0.041591235
205	0x3cdbc1ad	0.02682575
206	0x3be4263f	0.006962567
207	0xbd0a8677	-0.033819642
208	0x3d5820c5	0.052765626
209	0xbc5876a0	-0.013211876
210	0xbd79134d	-0.060809422
211	0x3d5e64cd	0.05429535
212	0xbd2acbe3	-0.041698348
213	0x3d1d64f2	0.038426347
214	0x3d33488b	0.043770354
215	0xbca13426	-0.019678187
216	0x3bff5c2b	0.0077929697
217	0x3d62c0c6	0.055359624
218	0xbd5fce5b	-0.054640155
219	0x3c544eff	0.012958287
220	0x3cbeee32	0.02330694
221	0xbd77196d	-0.060326982
222	0x3bf6965c	0.0075252485
223	0xbb1edc6f	-0.0024240275
224	0xbcd23143	-0.025658255
225	0x3d08035e	0.033206336
226	0xbd0e6362	-0.034762748
227	0xbd2f9add	-0.0428723
228	0x3cf02590	0.029314786
229	0xbc0e1be9	-0.0086736465
230	0xbcc92cc7	-0.024557484
231	0xbcadc82e	-0.021213617
232	0xbbdcbe4f	-0.0067365537
233	0x3d12f6bb	0.03587983
234	0xbcd0a635	-0.025469879
235	0xbd338ef3	-0.0438375
236	0xbca4335a	-0.020044018
237	0xb8c90411	-9.585184e-05
238	0x3ca7666b	0.020434579
239	0xbcea5ccf	-0.028608708
240	0x3d45ab74	0.048259214
241	0x3c42f0f1	0.011898265
242	0x3c7ffcf5	0.0156242745
243	0xbd5800a1	-0.052734975
244	0x3c42aef4	0.011882532
245	0x3ce10918	0.027470157
246	0x3bd1520c	0.0063879546
247	0x3d26feec	0.040770456
248	0x3d34af72	0.04411263
249	0x3cb2ff7d	0.021850342
250	0xbd3eb56c	-0.046559736
251	0x3c42c761	0.011888356
252	0xbd466f7c	-0.048446164
253	0xbd4ad80f	-0.049522456
254	0x3d9180dd	0.07104657
255	0xbd2fd1e7	-0.042924788

comm_head.bias f4 [10]
0	0x3ccf4b30	0.025304407
1	0x3d093c35	0.033504684
2	0x3cf6d68f	0.030131606
3	0x3d1cfafe	0.038325302
4	0xbd740c06	-0.05958178
5	0x3c68796d	0.014189106
6	0xbd27e903	-0.0409937
7	0xbd449e0b	-0.048002284
8	0x3cea4e20	0.028601706
9	0xbcf50072	-0.029907439
